experiments/rqX_custom_models/initial_models/gmn_iterative_refinement_scoring=sinkhorn_pp=lrl___tp=sinkhorn_pp=lrl_when=pre___unify=true_aids_large_dataset_seed_7762_2024-05-22_22:22:59.pth (torch, 16047 bytes, 22 tensors)

encoder.MLP1.0.weight f4 [10, 1]
000000 44 6f 60 bf c0 ed 7c bd b2 20 77 3f 40 96 ad bc
       -0.8766978 -0.061750174 0.96534264 -0.021189809
000010 9c 85 b8 3e 22 e1 17 bf ec ac dc be 6a 86 46 3f
       0.36039436 -0.593279 -0.4310068 0.7754885
000020 c0 37 fc 3e 00 b0 2c 3b
       0.49261284 0.0026350021

encoder.MLP1.0.bias f4 [10]
000000 48 d0 78 3f b8 80 f3 be 30 da 4a bf 88 e7 b6 3e
       0.9719281 -0.47559142 -0.7923918 0.3572352
000010 6c ef 38 bf 30 92 23 3f d0 39 f2 3e e4 25 d1 be
       -0.7224033 0.6389494 0.47309732 -0.4084922
000020 10 da f6 bd a8 c5 2b 3e
       -0.12053311 0.16774619

prop_layer._message_net.0.weight f4 [20, 21]
000000 74 71 0d 3e 1b 26 1d 3d 63 89 35 3e fe 14 f8 bd
       0.1381281 0.03836642 0.1772819 -0.12113379
000010 b9 4b 34 be f1 e6 bc bd 64 67 45 be 4d 17 cf 3d
       -0.17607011 -0.09223736 -0.19277722 0.10111866
000020 7d c5 98 bd 23 2c 38 3e b2 9d be 3d 9a 6f 3f 3e
       -0.07459543 0.17985587 0.09307422 0.18694916
000030 22 60 04 be 5e fd ba 3c 51 bf 21 3e d6 6e fe 3d
       -0.12927297 0.022825893 0.15795638 0.12423484
000040 7e 1e 52 3e 9b e3 b5 3d 29 d1 07 3e 17 e7 0c 3d
       0.20519444 0.08881303 0.13263382 0.034400072
000050 8d fd 50 3e 51 4f a7 bc 47 fe 87 bd 15 7d 8b bd
       0.20409222 -0.020423563 -0.066402964 -0.06810967
000060 e6 4d a7 3c 1c 64 55 3e ba 6b e0 bd 37 67 75 bd
       0.020422887 0.2083897 -0.10958047 -0.059912886
000070 a5 ba 10 be 89 7b 0d 3d f7 b1 04 be 5e 4b 94 bd
       -0.14133699 0.03454164 -0.12958513 -0.07240938
000080 96 3b 5a be 3d c9 2a 3d 5c 35 2f be 40 cc 63 3d
       -0.21311793 0.041695822 -0.17110199 0.05561471
000090 f2 a5 5b 3e 08 86 0e 3a 20 26 0c be fb d1 a1 bd
       0.21450022 0.00054368423 -0.13686419 -0.07901379
0000a0 9b ae a9 3d 94 49 58 be 1b 0b 08 3e ea 4a 04 3e
       0.082852565 -0.21121818 0.13285486 0.12919202
0000b0 25 3b 0f be 0e 9f 94 bc 8b 75 58 be 19 5c 5d be
       -0.13987406 -0.01814225 -0.21138589 -0.21617164
0000c0 16 47 29 be ad 21 a1 bd ad 99 45 3e cd 33 c8 3d
       -0.16531023 -0.07867751 0.19296904 0.09775505
0000d0 ef 7b b3 3d b1 96 2d be 75 cf 3f be 30 65 23 be
       0.08763873 -0.16952015 -0.18731482 -0.15956569
0000e0 11 79 49 3e 57 49 e5 bd 38 44 99 bd 83 c5 cd 3d
       0.1967509 -0.11195629 -0.07483715 0.10047438
0000f0 25 ca 30 3e 05 1b cc bd a3 9e 5e be ba 77 5e 3e
       0.17264612 -0.09966091 -0.21740203 0.2172536
000100 51 3d fe 3d 60 7c a0 3c 77 30 1a 3e 8b f1 ee bd
       0.12414039 0.019590557 0.1505755 -0.116671644
000110 11 6b bf 3d 7b 92 a0 bd c5 50 21 3e 55 36 c1 bd
       0.09346593 -0.07840439 0.15753467 -0.09434191
000120 e7 88 1d 3d ac cb 0e bd 42 e7 dd bd 2f 1a 90 3d
       0.03846064 -0.034862205 -0.108351246 0.07036244
000130 a6 f2 66 3c ed 21 42 be 74 19 a0 3d 14 5c 2b be
       0.014095938 -0.18958254 0.07817355 -0.16734344
000140 26 22 45 3e 04 02 9e bc d3 34 b2 3d 28 58 25 3e
       0.19251308 -0.01928807 0.08701482 0.1614691
000150 b4 dd 51 3e 6d b5 e1 3d 66 65 06 be 87 e7 19 3e
       0.2049473 0.11020932 -0.13124618 0.15029727
000160 87 54 b8 bd a7 bc 02 bd c3 b3 40 be 36 4c 37 3d
       -0.09000497 -0.031918194 -0.18818574 0.044750415
000170 5b 37 19 3e b0 38 be 3d 73 61 e2 bd 5d d4 00 bc
       0.14962523 0.09288156 -0.11053743 -0.007863131
000180 e2 05 06 be c0 d0 1e 3e 2a 0a 32 bd f2 a5 43 be
       -0.13088182 0.1550932 -0.043466724 -0.19106272
000190 31 54 34 be 69 c7 d1 bd 8e b7 d8 3c 43 b1 4c 3d
       -0.17610241 -0.102431126 0.026454713 0.049973737
0001a0 5e 3b 9d 3d 8e 5a b0 bc 1e ad a1 3d 29 97 13 be
       0.07677339 -0.021527555 0.078943476 -0.14413132
0001b0 6f be 0a be 79 86 f5 3d 33 cf 94 3d 53 0c a7 bd
       -0.13549207 0.11988539 0.072660826 -0.081566475
0001c0 0e 34 45 bc a7 6a 51 3d 96 40 6d 3c 1e ae ed 3d
       -0.012036337 0.051127102 0.0144807305 0.11605476
0001d0 17 7d 50 be c3 6b a5 bd 42 35 3c be 02 80 4c be
       -0.20360218 -0.080771945 -0.18379691 -0.19970706
0001e0 cd a4 85 bd 71 dc 32 be 61 01 32 bd d2 3c 97 bc
       -0.06525574 -0.17466904 -0.043458346 -0.018461619
0001f0 ec eb 9d 3b f5 b7 63 bd 0b 25 39 be 6c 08 8d 3d
       0.004819384 -0.055595357 -0.18080537 0.06886372
000200 fd b8 59 be 74 a8 e6 3b 96 02 5c 3c 34 e0 2a be
       -0.21261974 0.007039124 0.013428351 -0.16687089
000210 e9 a7 a0 bd b8 28 10 be 2e aa 83 bd 9c 01 e2 bd
       -0.07844526 -0.14078033 -0.064289436 -0.11035463
000220 41 3c 90 3d f5 3a 1b be 8f ed 73 bc 79 6a ca 3d
       0.070427425 -0.15159209 -0.014888181 0.09883589
000230 5f 6d 3f 3e 00 64 38 3e 31 f0 44 bd 6e 69 fb 3d
       0.18694066 0.18006897 -0.048080627 0.122759685
000240 5c bb 7f bd 53 51 5d be a8 f5 29 3e 77 ed 36 be
       -0.06243454 -0.21613054 0.16597617 -0.17864023
000250 11 d7 39 be dc a0 2d 3d 53 7d 5e 3e e7 15 2e bd
       -0.18148448 0.042389736 0.21727495 -0.042501356
000260 1b 8e 56 be f5 92 c4 3d bf a3 8f bd 0c 43 b7 bc
       -0.20952646 0.09598342 -0.07013654 -0.022370838
000270 30 be 33 3d ea 27 3d be 88 7d 57 3e e1 f3 bd bd
       0.04388255 -0.18472257 0.2104398 -0.09275032
000280 cc 14 3a be 65 09 cd 3d 24 c5 71 bd d5 0c 07 be
       -0.18171996 0.100115575 -0.0590259 -0.13188489
000290 61 f2 1b 3e c7 64 02 3e 83 98 38 be 91 c9 32 bc
       0.15229179 0.12733756 -0.18026929 -0.010912315
0002a0 17 25 23 be 7e 4a e3 3c 4a f5 b7 bd 68 93 0d 3e
       -0.15932117 0.027745482 -0.08982332 0.13825762
0002b0 54 73 7c 3d de d6 8e 3d a2 3d 55 be 89 ae 3f be
       0.061633423 0.069745764 -0.20824292 -0.18718924
0002c0 c9 7c 1f 3d 35 f4 e9 3d 2c 7e eb 3d 6d 4d 21 bd
       0.038937364 0.11423532 0.11498675 -0.03938048
0002d0 68 50 14 be df 9c bb bd d6 3f e9 bb 76 58 1c 3d
       -0.14483798 -0.0916078 -0.0071182055 0.0381703
0002e0 0b 6e 0e be 88 88 00 bc 9d 30 39 be 2b 39 f5 bd
       -0.13909166 -0.007845052 -0.18084951 -0.119737945
0002f0 76 f3 3c bd 3e 83 10 bc a3 ce 87 3d 3f 82 cd 3d
       -0.04613062 -0.008820353 0.0663121 0.10034608
000300 f3 2b 4d 3e a4 2c a1 3a bd d0 8c 3d 1a 59 0f bd
       0.20036297 0.0012296629 0.06875751 -0.034997083
000310 33 4c 33 be 5c e6 e6 bd ab 4e 48 be 53 d2 a4 bd
       -0.17509536 -0.11274406 -0.1956126 -0.08047929
000320 bd b5 29 bd 46 28 44 3e 8d 57 1e be a7 63 23 bd
       -0.041433085 0.19155988 -0.15463085 -0.039889958
000330 07 f6 57 be 3c 49 5b be 80 1c 5d be d5 0f 4f 3e
       -0.21089946 -0.21414655 -0.21592903 0.20220883
000340 f9 d6 5a 3c a1 40 1a be 79 c6 0a 3e 07 bb 18 bd
       0.013356918 -0.15063716 0.13552274 -0.03728774
000350 a2 05 98 bc b9 8b b9 bd 70 f2 0c 3c a9 2b ee 3c
       -0.018557373 -0.09059853 0.0086027235 0.029073553
000360 32 18 1c be 94 2a de bd 1d 61 01 3e a2 23 36 3e
       -0.15243605 -0.10847965 0.12634702 0.1778703
000370 30 d1 07 be 28 45 30 be ff 6a 2e 3e b2 bc b1 bd
       -0.13263392 -0.17213881 0.17033003 -0.08678569
000380 bc 77 d9 3d d8 fd 0b 3d d1 fa 82 bd bb 30 e2 3d
       0.10618541 0.03417763 -0.06395496 0.11044451
000390 7c 6c c3 3d 14 9b 40 3e cb 07 8e 3d c4 3e 2c be
       0.09542176 0.18809158 0.0693508 -0.16820818
0003a0 9a be e6 bc aa fe 40 be a9 bd 6b 3d 6b 66 0e bd
       -0.028167058 -0.18847147 0.05755392 -0.034765642
0003b0 74 65 bd bd 2d 85 0b 3e 50 06 4b 3e e9 8d 2a bd
       -0.09247866 0.13625021 0.19826627 -0.041639242
0003c0 b4 a9 9e bd 3a 68 48 3c 03 62 a4 3c 29 af 51 be
       -0.07747212 0.012231881 0.020066267 -0.20476975
0003d0 0c c0 1f be b7 05 ef 3d 60 b9 54 be 18 b7 d7 ba
       -0.15600604 0.11671012 -0.2077384 -0.0016457764
0003e0 81 59 0d 3e 7a 13 35 3e d2 f0 17 3e e0 1a f1 3c
       0.13803674 0.17683211 0.1483796 0.02943176
0003f0 22 c4 a2 3d a8 27 e0 bd cd 70 02 be c5 47 00 3e
       0.079475656 -0.10945064 -0.12738343 0.12527378

prop_layer._message_net.0.bias f4 [20]
000000 63 8d c1 3d a9 f7 c5 bd 4e f9 fb bd 0f 77 d8 3d
       0.094507955 -0.09666378 -0.123034105 0.105695836
000010 ea 07 1b bd 48 3b 4f bc 7d 3f e6 3b 38 72 88 3d
       -0.037849344 -0.012648411 0.0070266114 0.066624105
000020 8b 22 08 be c9 b5 d7 3d b0 41 93 bc 76 fb ff 3d
       -0.13294427 0.1053272 -0.017975658 0.12499134
000030 cc dd d8 bd f8 7b 07 be 4f 40 5d 3c 22 a5 d2 bc
       -0.105891794 -0.13230884 0.013504102 -0.025713507
000040 f1 4a 90 3d 02 f7 24 3e f2 92 02 be 69 57 8f bc
       0.07045544 0.16109851 -0.12751368 -0.017497735

prop_layer._reverse_message_net.0.weight f4 [20, 21]
000000 74 71 0d 3e 1b 26 1d 3d 63 89 35 3e fe 14 f8 bd
       0.1381281 0.03836642 0.1772819 -0.12113379
000010 b9 4b 34 be f1 e6 bc bd 64 67 45 be 4d 17 cf 3d
       -0.17607011 -0.09223736 -0.19277722 0.10111866
000020 7d c5 98 bd 23 2c 38 3e b2 9d be 3d 9a 6f 3f 3e
       -0.07459543 0.17985587 0.09307422 0.18694916
000030 22 60 04 be 5e fd ba 3c 51 bf 21 3e d6 6e fe 3d
       -0.12927297 0.022825893 0.15795638 0.12423484
000040 7e 1e 52 3e 9b e3 b5 3d 29 d1 07 3e 17 e7 0c 3d
       0.20519444 0.08881303 0.13263382 0.034400072
000050 8d fd 50 3e 51 4f a7 bc 47 fe 87 bd 15 7d 8b bd
       0.20409222 -0.020423563 -0.066402964 -0.06810967
000060 e6 4d a7 3c 1c 64 55 3e ba 6b e0 bd 37 67 75 bd
       0.020422887 0.2083897 -0.10958047 -0.059912886
000070 a5 ba 10 be 89 7b 0d 3d f7 b1 04 be 5e 4b 94 bd
       -0.14133699 0.03454164 -0.12958513 -0.07240938
000080 96 3b 5a be 3d c9 2a 3d 5c 35 2f be 40 cc 63 3d
       -0.21311793 0.041695822 -0.17110199 0.05561471
000090 f2 a5 5b 3e 08 86 0e 3a 20 26 0c be fb d1 a1 bd
       0.21450022 0.00054368423 -0.13686419 -0.07901379
0000a0 9b ae a9 3d 94 49 58 be 1b 0b 08 3e ea 4a 04 3e
       0.082852565 -0.21121818 0.13285486 0.12919202
0000b0 25 3b 0f be 0e 9f 94 bc 8b 75 58 be 19 5c 5d be
       -0.13987406 -0.01814225 -0.21138589 -0.21617164
0000c0 16 47 29 be ad 21 a1 bd ad 99 45 3e cd 33 c8 3d
       -0.16531023 -0.07867751 0.19296904 0.09775505
0000d0 ef 7b b3 3d b1 96 2d be 75 cf 3f be 30 65 23 be
       0.08763873 -0.16952015 -0.18731482 -0.15956569
0000e0 11 79 49 3e 57 49 e5 bd 38 44 99 bd 83 c5 cd 3d
       0.1967509 -0.11195629 -0.07483715 0.10047438
0000f0 25 ca 30 3e 05 1b cc bd a3 9e 5e be ba 77 5e 3e
       0.17264612 -0.09966091 -0.21740203 0.2172536
000100 51 3d fe 3d 60 7c a0 3c 77 30 1a 3e 8b f1 ee bd
       0.12414039 0.019590557 0.1505755 -0.116671644
000110 11 6b bf 3d 7b 92 a0 bd c5 50 21 3e 55 36 c1 bd
       0.09346593 -0.07840439 0.15753467 -0.09434191
000120 e7 88 1d 3d ac cb 0e bd 42 e7 dd bd 2f 1a 90 3d
       0.03846064 -0.034862205 -0.108351246 0.07036244
000130 a6 f2 66 3c ed 21 42 be 74 19 a0 3d 14 5c 2b be
       0.014095938 -0.18958254 0.07817355 -0.16734344
000140 26 22 45 3e 04 02 9e bc d3 34 b2 3d 28 58 25 3e
       0.19251308 -0.01928807 0.08701482 0.1614691
000150 b4 dd 51 3e 6d b5 e1 3d 66 65 06 be 87 e7 19 3e
       0.2049473 0.11020932 -0.13124618 0.15029727
000160 87 54 b8 bd a7 bc 02 bd c3 b3 40 be 36 4c 37 3d
       -0.09000497 -0.031918194 -0.18818574 0.044750415
000170 5b 37 19 3e b0 38 be 3d 73 61 e2 bd 5d d4 00 bc
       0.14962523 0.09288156 -0.11053743 -0.007863131
000180 e2 05 06 be c0 d0 1e 3e 2a 0a 32 bd f2 a5 43 be
       -0.13088182 0.1550932 -0.043466724 -0.19106272
000190 31 54 34 be 69 c7 d1 bd 8e b7 d8 3c 43 b1 4c 3d
       -0.17610241 -0.102431126 0.026454713 0.049973737
0001a0 5e 3b 9d 3d 8e 5a b0 bc 1e ad a1 3d 29 97 13 be
       0.07677339 -0.021527555 0.078943476 -0.14413132
0001b0 6f be 0a be 79 86 f5 3d 33 cf 94 3d 53 0c a7 bd
       -0.13549207 0.11988539 0.072660826 -0.081566475
0001c0 0e 34 45 bc a7 6a 51 3d 96 40 6d 3c 1e ae ed 3d
       -0.012036337 0.051127102 0.0144807305 0.11605476
0001d0 17 7d 50 be c3 6b a5 bd 42 35 3c be 02 80 4c be
       -0.20360218 -0.080771945 -0.18379691 -0.19970706
0001e0 cd a4 85 bd 71 dc 32 be 61 01 32 bd d2 3c 97 bc
       -0.06525574 -0.17466904 -0.043458346 -0.018461619
0001f0 ec eb 9d 3b f5 b7 63 bd 0b 25 39 be 6c 08 8d 3d
       0.004819384 -0.055595357 -0.18080537 0.06886372
000200 fd b8 59 be 74 a8 e6 3b 96 02 5c 3c 34 e0 2a be
       -0.21261974 0.007039124 0.013428351 -0.16687089
000210 e9 a7 a0 bd b8 28 10 be 2e aa 83 bd 9c 01 e2 bd
       -0.07844526 -0.14078033 -0.064289436 -0.11035463
000220 41 3c 90 3d f5 3a 1b be 8f ed 73 bc 79 6a ca 3d
       0.070427425 -0.15159209 -0.014888181 0.09883589
000230 5f 6d 3f 3e 00 64 38 3e 31 f0 44 bd 6e 69 fb 3d
       0.18694066 0.18006897 -0.048080627 0.122759685
000240 5c bb 7f bd 53 51 5d be a8 f5 29 3e 77 ed 36 be
       -0.06243454 -0.21613054 0.16597617 -0.17864023
000250 11 d7 39 be dc a0 2d 3d 53 7d 5e 3e e7 15 2e bd
       -0.18148448 0.042389736 0.21727495 -0.042501356
000260 1b 8e 56 be f5 92 c4 3d bf a3 8f bd 0c 43 b7 bc
       -0.20952646 0.09598342 -0.07013654 -0.022370838
000270 30 be 33 3d ea 27 3d be 88 7d 57 3e e1 f3 bd bd
       0.04388255 -0.18472257 0.2104398 -0.09275032
000280 cc 14 3a be 65 09 cd 3d 24 c5 71 bd d5 0c 07 be
       -0.18171996 0.100115575 -0.0590259 -0.13188489
000290 61 f2 1b 3e c7 64 02 3e 83 98 38 be 91 c9 32 bc
       0.15229179 0.12733756 -0.18026929 -0.010912315
0002a0 17 25 23 be 7e 4a e3 3c 4a f5 b7 bd 68 93 0d 3e
       -0.15932117 0.027745482 -0.08982332 0.13825762
0002b0 54 73 7c 3d de d6 8e 3d a2 3d 55 be 89 ae 3f be
       0.061633423 0.069745764 -0.20824292 -0.18718924
0002c0 c9 7c 1f 3d 35 f4 e9 3d 2c 7e eb 3d 6d 4d 21 bd
       0.038937364 0.11423532 0.11498675 -0.03938048
0002d0 68 50 14 be df 9c bb bd d6 3f e9 bb 76 58 1c 3d
       -0.14483798 -0.0916078 -0.0071182055 0.0381703
0002e0 0b 6e 0e be 88 88 00 bc 9d 30 39 be 2b 39 f5 bd
       -0.13909166 -0.007845052 -0.18084951 -0.119737945
0002f0 76 f3 3c bd 3e 83 10 bc a3 ce 87 3d 3f 82 cd 3d
       -0.04613062 -0.008820353 0.0663121 0.10034608
000300 f3 2b 4d 3e a4 2c a1 3a bd d0 8c 3d 1a 59 0f bd
       0.20036297 0.0012296629 0.06875751 -0.034997083
000310 33 4c 33 be 5c e6 e6 bd ab 4e 48 be 53 d2 a4 bd
       -0.17509536 -0.11274406 -0.1956126 -0.08047929
000320 bd b5 29 bd 46 28 44 3e 8d 57 1e be a7 63 23 bd
       -0.041433085 0.19155988 -0.15463085 -0.039889958
000330 07 f6 57 be 3c 49 5b be 80 1c 5d be d5 0f 4f 3e
       -0.21089946 -0.21414655 -0.21592903 0.20220883
000340 f9 d6 5a 3c a1 40 1a be 79 c6 0a 3e 07 bb 18 bd
       0.013356918 -0.15063716 0.13552274 -0.03728774
000350 a2 05 98 bc b9 8b b9 bd 70 f2 0c 3c a9 2b ee 3c
       -0.018557373 -0.09059853 0.0086027235 0.029073553
000360 32 18 1c be 94 2a de bd 1d 61 01 3e a2 23 36 3e
       -0.15243605 -0.10847965 0.12634702 0.1778703
000370 30 d1 07 be 28 45 30 be ff 6a 2e 3e b2 bc b1 bd
       -0.13263392 -0.17213881 0.17033003 -0.08678569
000380 bc 77 d9 3d d8 fd 0b 3d d1 fa 82 bd bb 30 e2 3d
       0.10618541 0.03417763 -0.06395496 0.11044451
000390 7c 6c c3 3d 14 9b 40 3e cb 07 8e 3d c4 3e 2c be
       0.09542176 0.18809158 0.0693508 -0.16820818
0003a0 9a be e6 bc aa fe 40 be a9 bd 6b 3d 6b 66 0e bd
       -0.028167058 -0.18847147 0.05755392 -0.034765642
0003b0 74 65 bd bd 2d 85 0b 3e 50 06 4b 3e e9 8d 2a bd
       -0.09247866 0.13625021 0.19826627 -0.041639242
0003c0 b4 a9 9e bd 3a 68 48 3c 03 62 a4 3c 29 af 51 be
       -0.07747212 0.012231881 0.020066267 -0.20476975
0003d0 0c c0 1f be b7 05 ef 3d 60 b9 54 be 18 b7 d7 ba
       -0.15600604 0.11671012 -0.2077384 -0.0016457764
0003e0 81 59 0d 3e 7a 13 35 3e d2 f0 17 3e e0 1a f1 3c
       0.13803674 0.17683211 0.1483796 0.02943176
0003f0 22 c4 a2 3d a8 27 e0 bd cd 70 02 be c5 47 00 3e
       0.079475656 -0.10945064 -0.12738343 0.12527378

prop_layer._reverse_message_net.0.bias f4 [20]
000000 63 8d c1 3d a9 f7 c5 bd 4e f9 fb bd 0f 77 d8 3d
       0.094507955 -0.09666378 -0.123034105 0.105695836
000010 ea 07 1b bd 48 3b 4f bc 7d 3f e6 3b 38 72 88 3d
       -0.037849344 -0.012648411 0.0070266114 0.066624105
000020 8b 22 08 be c9 b5 d7 3d b0 41 93 bc 76 fb ff 3d
       -0.13294427 0.1053272 -0.017975658 0.12499134
000030 cc dd d8 bd f8 7b 07 be 4f 40 5d 3c 22 a5 d2 bc
       -0.105891794 -0.13230884 0.013504102 -0.025713507
000040 f1 4a 90 3d 02 f7 24 3e f2 92 02 be 69 57 8f bc
       0.07045544 0.16109851 -0.12751368 -0.017497735

prop_layer.GRU.weight_ih_l0 f4 [30, 20]
000000 02 fb 09 3e b4 70 85 bd 04 ff 97 3d 62 e3 84 be
       0.13474658 -0.06515637 0.07421687 -0.2595473
000010 e3 1a 85 3d cf 91 02 3e 30 e2 86 be 5f f8 80 bd
       0.06499269 0.12750934 -0.26344442 -0.06297373
000020 fc ec 48 3e ea ef 7e 3d 04 3c 96 bd a7 89 ad 3c
       0.19621652 0.06224052 -0.07335666 0.021183802
000030 5e e6 d7 bc ae cd 93 be 2f 99 d3 bb 25 7d 02 be
       -0.026354965 -0.2886786 -0.00645747 -0.12743051
000040 cb f8 cb bb 00 b5 f1 bd bf a4 78 3e a2 18 0f be
       -0.006224727 -0.11802101 0.24281596 -0.1397424
000050 b0 4c a0 3e 84 6e 48 be 26 09 76 be f9 ae 87 be
       0.31308508 -0.19573408 -0.24026927 -0.2650068
000060 3a 63 58 be 09 ff b4 bd 9d de 37 be f2 e3 98 3d
       -0.21131602 -0.088377066 -0.17956014 0.07465352
000070 f3 c4 db 3d cf e4 9a bd 39 9c 85 bd 7f 43 39 be
       0.107309245 -0.07563173 -0.06523938 -0.18092154
000080 ac 0e 3f be 8d c7 9a 3e 13 27 a0 3e db f7 4d 3e
       -0.1865794 0.3023037 0.3127981 0.2011408
000090 3e b5 9c be 7a fe 09 3e 2f f8 c5 3d 69 a9 26 be
       -0.30607027 0.13475981 0.09666478 -0.16275562
0000a0 60 20 50 3e 0d 70 4f bd cc 2a 3f be 24 63 92 3e
       0.2032485 -0.05064397 -0.1866867 0.28591263
0000b0 11 e3 0d be 41 77 95 be 98 6f a0 3e 0f 2a 7b 3e
       -0.1385615 -0.29192546 0.3133514 0.24527763
0000c0 76 ee 88 3e 65 1e fe bd 5c c0 83 3d 7e 54 09 3e
       0.2674443 -0.12408141 0.06433174 0.13411137
0000d0 c9 53 4f be 6b bb 28 be dc 1b 81 be 95 19 fc 3c
       -0.20246805 -0.16477744 -0.25216568 0.030773917
0000e0 18 d9 4d 3e c2 e5 0a bd 3f b7 4b be 46 a0 d2 3d
       0.20102346 -0.03391052 -0.19894122 0.10284476
0000f0 85 79 2e 3e b0 58 0a 3e 98 57 5e 3e 6b 13 3c 3e
       0.17038544 0.13510394 0.21713102 0.18366782
000100 0c f5 2c 3e ce 0e 4e be bd 7e 92 be 92 36 5d be
       0.16890353 -0.20122835 -0.2861232 -0.21602848
000110 17 d4 73 3e f2 08 2b be b2 9f 1c be 29 b1 06 be
       0.23811375 -0.16702631 -0.15295294 -0.13153519
000120 d0 10 13 3a 1e ad 78 3e ec 6d 5a 3d 37 83 be bd
       0.000561011 0.24284789 0.053327486 -0.09302371
000130 de b2 82 be f7 cc 76 bd 71 e0 6e 3d 0c fc 2b 3e
       -0.2552709 -0.060254063 0.058319513 0.16795367
000140 bc f3 50 3e 8d 2b 95 3e e8 42 90 be 5e 9b 04 be
       0.20405477 0.2913479 -0.28176045 -0.12949893
000150 31 94 17 3e 4f 5e 8a 3e c7 b1 8e 3e cb 07 42 3b
       0.14802624 0.27025077 0.27870008 0.0029606696
000160 25 2c 9e 3e 7f f5 1d be a5 52 e6 3c 7a c8 73 3e
       0.30893055 -0.1542568 0.02811558 0.23806944
000170 bc 66 cb 3d 36 65 71 3e cd c5 3b be 84 95 cb 3d
       0.099317044 0.23573765 -0.18337174 0.09940627
000180 bb 93 5d be 76 86 d2 3c 5e 7f 44 3e 56 0c 48 be
       -0.21638386 0.025698882 0.19189212 -0.19535956
000190 ba 92 49 be 91 d7 79 3e 95 4b 7f 3c c6 6e 0d bd
       -0.19684878 0.24398638 0.015581985 -0.03452947
0001a0 47 27 35 3d a6 fb 33 3e 07 8c 93 3e 90 b3 93 be
       0.04422691 0.17576465 0.2881777 -0.28847933
0001b0 43 5f 9a be d5 0d 47 be 2f 21 c1 3c 0b ec ce bd
       -0.30150804 -0.1943887 0.023575393 -0.101036154
0001c0 56 a5 66 3e ea b4 a6 bc f6 b5 93 3e 2e 25 5d 3e
       0.22524008 -0.020349938 0.28849763 0.21596214
0001d0 27 56 b1 3d 15 98 fe 3d d4 b7 84 3d 68 36 a1 3e
       0.086590104 0.12431351 0.06480375 0.3148682
0001e0 23 ad 2e 3c 78 12 78 be 03 4c 87 3d d3 35 af bd
       0.010661396 -0.24225795 0.06606295 -0.08555188
0001f0 6d 71 87 3b c5 85 6f 3e 04 e8 d8 3b 77 e2 c2 bc
       0.0041333945 0.23390873 0.0066194553 -0.023789627
000200 bc ff 35 3b a9 2d 91 be 92 61 74 3e bc df 0b 3d
       0.0027770838 -0.28355148 0.23865345 0.034148917
000210 c4 51 01 bd d2 13 9d be a8 15 65 3e 46 18 43 3e
       -0.03157212 -0.30679184 0.22371542 0.19052228
000220 97 04 32 3e 0b f6 44 3e 7b 09 16 be af c8 02 3e
       0.17384563 0.19234483 -0.14652054 0.12771867
000230 4e 3c 57 be f7 8a e2 3d ed e6 21 be b4 55 9a be
       -0.21019098 0.11061662 -0.15810747 -0.3014351
000240 29 e7 32 be a6 47 a0 be ce 95 8b 3e 4b ce 2b 3e
       -0.17470993 -0.31304663 0.2726273 0.16777913
000250 63 bf c3 bd 74 b9 2f bd 85 13 a3 3d f3 09 9b be
       -0.095579885 -0.04290147 0.079627074 -0.30281028
000260 ef 6d 72 be 9a 32 a8 3d e9 97 ab bc 5d b3 93 be
       -0.23674749 0.082127765 -0.02094646 -0.2884778
000270 3a b3 72 be 89 59 7d 3e 42 4a 87 be 97 71 9d be
       -0.23701182 0.24741186 -0.26423842 -0.30750725
000280 69 af 5a 3e 68 a0 5e be 4c 0d 00 be 1d e7 b3 bd
       0.21355976 -0.21740878 -0.12505072 -0.08784316
000290 4b 0e 9b bd 20 14 a5 3d de a6 39 3e 47 f8 7e be
       -0.075710855 0.08060479 0.18130061 -0.24899398
0002a0 9c 38 fc 3d 67 01 1c 3e 08 02 6a 3d 5d 6e bb bd
       0.12315485 0.1523491 0.057130843 -0.091519095
0002b0 45 ae 41 be 01 a6 1d be 8e 26 95 3e 2c eb 05 be
       -0.18914135 -0.15395357 0.29130977 -0.13077992
0002c0 61 91 c0 bc 99 a9 81 bd 5c 86 8b bd b8 16 59 3e
       -0.023506822 -0.06331176 -0.068127364 0.21200073
0002d0 17 09 4e be 1a a7 fa 3d d9 7e 63 3e b2 67 99 3d
       -0.20120655 0.12238903 0.22216357 0.074904814
0002e0 b7 84 27 3d e7 7f 9c bd cd f8 f3 bd 00 3d bf bd
       0.04089805 -0.07641583 -0.11912689 -0.09337807
0002f0 49 33 a1 3e f9 42 99 3d f7 66 20 3c 1f 2f 08 bd
       0.3148444 0.07483477 0.009790174 -0.033248063
000300 ac 03 83 bc e3 b5 f1 bd 1f 60 0f 3d 1a 52 bb bd
       -0.015992962 -0.1180227 0.035003778 -0.09146519
000310 5f f5 92 be cd 8d b0 3b 9b 13 02 be a2 03 5a be
       -0.28702828 0.0053879977 -0.12702791 -0.21290448
000320 86 2f 90 3e 9f 34 9f 3e 0c 06 95 3e bc 29 5d bd
       0.28161258 0.31094834 0.29106176 -0.05399488
000330 95 4b 8b be b5 ef f6 3d e9 67 9c 3e 45 4f 30 be
       -0.27206102 0.12057439 0.30548027 -0.17217739
000340 cd 22 90 be d0 70 0f 3e 11 ae 2b be da 72 3b be
       -0.2815155 0.14007878 -0.1676562 -0.18305531
000350 07 db 46 3e 94 09 16 bd 3b 92 84 be bf 2f 9d bd
       0.1941949 -0.03663023 -0.25892815 -0.076751225
000360 b8 cc 78 3e 12 e7 6e 3e 55 6c 03 3e 63 c1 50 3c
       0.24296844 0.23330334 0.12834294 0.0127414195
000370 2e 77 16 be c9 ea e9 bc 33 84 18 be 61 dc 0d 3e
       -0.14693901 -0.028554337 -0.1489418 0.13853599
000380 89 74 6a be ef ed 92 3e 45 c3 db 3d 92 84 96 bd
       -0.22896017 0.28697154 0.10730604 -0.073495045
000390 30 27 b7 3d 20 cc 88 be e0 73 91 be 6e bb 98 3d
       0.08943021 -0.26718235 -0.28408718 0.074576244
0003a0 f4 ad 34 be 82 97 4a be d0 26 8b 3e cf 37 1b be
       -0.17644483 -0.19784358 0.2717805 -0.15158008
0003b0 4f 0f b6 3d 24 53 7a be a2 56 a2 bd b8 a5 ca bd
       0.08889639 -0.24445778 -0.0792668 -0.098948896
0003c0 2a 95 e2 bd 34 b4 09 be 3f dc 13 3e a4 fb a8 3d
       -0.11063607 -0.13447648 0.14439486 0.08251122
0003d0 ed e5 0f bd fd 09 cc 3d 13 2e 1d 3e 29 a6 bb 3b
       -0.035131384 0.099628426 0.15349607 0.005726595
0003e0 98 ed 6b be 53 0c 46 3e ae ed d7 3d 8f c2 46 3e
       -0.23039854 0.19340639 0.10543381 0.19410156
0003f0 78 75 8f be 0a cb 5b bd ed 70 23 3d 7b 28 e5 3d
       -0.2801931 -0.05366043 0.039902616 0.11189362

prop_layer.GRU.weight_hh_l0 f4 [30, 10]
000000 30 ba 29 be f9 d4 30 3e bd e3 80 bd 28 9e c8 3d
       -0.16574931 0.17268743 -0.06293438 0.09795791
000010 78 2f 88 3e 93 5e a0 be 8a d5 89 be a3 51 99 be
       0.26598716 -0.31322154 -0.2692073 -0.29945096
000020 a9 a3 91 3e fb a3 7e bd ca 73 e6 3d 6a 43 27 be
       0.28445175 -0.062168103 0.11252554 -0.1633431
000030 23 c8 c8 3c 04 ec 73 be 4f 27 b4 bd 71 b0 7e be
       0.024509495 -0.23820502 -0.0879656 -0.24871995
000040 bc 94 8f bb 40 ed 68 3e 1d 3c 6d 3e ab f7 ff 3d
       -0.004381744 0.22746754 0.23167463 0.12498411
000050 9f 8f bd bd aa 19 e3 3d c9 e5 86 3e 7b 6c ba bd
       -0.09255909 0.110888794 0.26347187 -0.09102722
000060 8a bb 8a 3c 04 e5 0f be 96 08 66 be a7 f6 8d be
       0.016935129 -0.14052206 -0.22464213 -0.27727243
000070 1c 46 96 3e 45 87 e5 bd 90 f1 5f 3b 03 b8 3f bd
       0.29350364 -0.11207441 0.0034171082 -0.046806347
000080 72 94 74 3e 38 ed 79 3e 43 fc 3b 3e f3 e6 74 be
       0.23884752 0.24406898 0.18357949 -0.23916225
000090 30 f4 1e ba b2 a7 27 3e ab a1 f4 3d 4a 95 36 be
       -0.00060636085 0.16372564 0.11944898 -0.17830387
0000a0 1f a9 24 bd af 63 06 bc ce 49 5f 3c cf 84 a6 3d
       -0.04020035 -0.008202477 0.013628436 0.081308
0000b0 4b 71 d2 3d ba c1 d7 bd 67 ac 87 3c 27 3c e3 3d
       0.10275515 -0.10534997 0.0165617 0.110954575
0000c0 58 b9 25 3e ce 6b 48 3e 70 e1 0d be b7 3f 91 be
       0.16183984 0.19572374 -0.13855529 -0.28368923
0000d0 ac 2d 6c 3e c8 73 65 bd bf 74 5b 3d f2 45 5e be
       0.23064297 -0.05601862 0.053578135 -0.2170637
0000e0 22 eb 3f 3e f6 59 93 bd b0 68 9d 3e b4 71 4e be
       0.1874204 -0.07194893 0.30743933 -0.20160562
0000f0 08 f8 66 3e f4 e0 2f 3e 28 18 0b 3e 58 6e 17 be
       0.22555554 0.17175657 0.13583434 -0.14788187
000100 9c e7 7f 3e cb 28 81 3d b4 3b 57 be c8 c0 58 be
       0.24990696 0.06306609 -0.21018869 -0.2116729
000110 b2 61 01 bc cf 47 7f 3e 96 a3 27 3c c8 a5 46 3e
       -0.0078968275 0.24929737 0.010231873 0.19399178
000120 e9 48 a1 bb 0b 54 98 3d d0 f5 97 be f9 2d c8 bb
       -0.0049220216 0.07437905 -0.29679728 -0.006108996
000130 d1 5f 04 3e e9 5f ba bd b0 a8 8f 3e bd 36 99 bd
       0.12927176 -0.09100325 0.28058386 -0.074811436
000140 07 5e cc bd 0a 74 88 3d e0 74 ac 3c 78 30 24 3e
       -0.09978872 0.06662758 0.021051824 0.16034114
000150 1c 56 2a 3e 7e bd 81 be b3 11 78 3e 79 51 0b bd
       0.1663441 -0.25339884 0.24225502 -0.034013245
000160 70 60 8f 3d 4c ab 29 3e a1 8d b4 3d 10 f1 66 be
       0.07000816 0.16569251 0.08816076 -0.22552896
000170 ed f8 cd 3c 2f fe ca 3c 57 91 7d be fc a5 08 bd
       0.025143111 0.024779407 -0.24762474 -0.03336142
000180 93 a9 34 bc 21 96 b4 3d 77 59 70 bd 1f 78 a0 bc
       -0.011026758 0.08817697 -0.05867907 -0.019588528
000190 62 10 98 be 15 3b 8f bd d9 31 99 3e 84 67 f0 bd
       -0.297 -0.06993691 0.29920843 -0.11738494
0001a0 a1 f0 24 3c df ca b3 3d f3 79 b2 3d 08 20 80 bd
       0.010067136 0.08778929 0.08714666 -0.062561095
0001b0 7d ff e4 bd e9 98 0d bd 72 81 0c 3e 37 f4 22 3d
       -0.11181543 -0.034569655 0.13721254 0.039783683
0001c0 3f b0 92 3d 93 96 14 be 8b 7c 73 be e1 b9 4f be
       0.071625225 -0.14510565 -0.23777978 -0.20285751
0001d0 13 f9 77 be 8a 40 82 be 6b f0 6c 3e 40 ee 89 be
       -0.24216108 -0.25439864 0.23138587 -0.26939583
0001e0 6b 79 d2 3c 01 64 9f be 37 d3 f4 bd 5b a1 98 be
       0.025692662 -0.31130984 -0.119543485 -0.29810604
0001f0 2a f6 66 be 7f 1d 12 3e 5d b7 60 3e a4 59 49 3e
       -0.22554842 0.14269064 0.21944948 0.19663101
000200 21 20 7a 3d 19 86 8d 3d 72 3c 7c 3e ee d2 8c 3e
       0.061065797 0.06910343 0.24632433 0.27504677
000210 90 e7 85 bc f7 78 7b be 06 f4 83 3e 1f 9c f2 3d
       -0.01634577 -0.24557863 0.25772113 0.11846184
000220 83 3b 1e be 06 d3 f8 bd 13 e5 89 3e 0f cb 75 3e
       -0.1545239 -0.121496245 0.26932582 0.24003242
000230 d8 ab a0 3d 4f c9 78 3e b4 3e 9e be ba a2 27 3e
       0.078452766 0.24295543 -0.30907214 0.16370669
000240 92 e0 53 bd 88 c0 4e be c8 4f d0 bd 22 4d ea bb
       -0.05172784 -0.20190632 -0.10171467 -0.007150308
000250 4a e2 69 3d 9a 40 53 3d d5 04 97 be df 4c 66 be
       0.05710057 0.05157528 -0.29495874 -0.22490261
000260 ff 98 04 3c 9e d0 71 be 90 4c 69 be 80 6b 3b bd
       0.008093118 -0.23614737 -0.22783113 -0.045756817
000270 04 e1 91 3e 8f 22 53 3d 06 57 65 3e e1 26 cb bd
       0.28491986 0.05154663 0.22396478 -0.09919525
000280 86 ed 7e be 73 1c c6 bd 2b ef cb bd 1a 3b c2 3c
       -0.24895296 -0.09673395 -0.09957727 0.023709822
000290 d6 dd 20 3e 0e 44 0d 3e 36 5e 64 3d b0 58 37 be
       0.15709624 0.13795492 0.05575391 -0.17904925
0002a0 07 fe 8a be 04 cb 51 be 5f f4 a5 bd 24 bf 3e be
       -0.27146932 -0.204876 -0.08103251 -0.18627602
0002b0 79 5e cb 3b 34 84 3e 3d 07 b2 70 3e e1 cf be 3d
       0.0062063304 0.046512797 0.23505412 0.093169935
0002c0 af e2 a2 3d ce 81 1e be d1 89 84 bd c0 d4 d9 bd
       0.07953393 -0.15479204 -0.06471599 -0.10636282
0002d0 83 b6 97 be 72 9f 4f 3d d5 58 84 3e 65 10 73 3e
       -0.29631433 0.05068917 0.25849023 0.23736723
0002e0 b1 62 5e be bc ed a0 3e 9c 05 17 3d 70 2b 03 3e
       -0.21717335 0.31431377 0.036870584 0.12809539
0002f0 85 41 84 be 60 e5 39 3e d8 f4 23 be 72 27 20 3d
       -0.25831237 0.18153906 -0.16011369 0.039100118
000300 92 31 f5 3d 50 10 0f be 47 7d 86 3e a8 f5 ac bd
       0.119723454 -0.13971066 0.26267454 -0.08445293
000310 aa 8f fb bd 45 cd 8a bd ab d1 87 be 46 6a 9a 3e
       -0.12283261 -0.06777433 -0.2652715 0.30159205
000320 d5 0f 73 3e 2c b0 58 be a5 ef 6d be 71 1c ab bd
       0.23736508 -0.21160954 -0.23235948 -0.08355034
000330 f9 76 03 bd 8b 47 76 3e 01 86 11 bc 62 8a 38 be
       -0.032095883 0.24050729 -0.008882047 -0.18021539
000340 f7 df 8c 3e 85 a6 22 be fd bc 5a be aa fb cf 3d
       0.27514622 -0.15883835 -0.21361156 0.10155423
000350 c8 4d 21 3e 4d 9a 6b 3e c4 a1 32 be 13 56 8a 3e
       0.15752327 0.2300808 -0.17444521 0.27018794
000360 a6 68 f4 3d 62 fa 56 bd ce 60 14 be 14 2a 1c be
       0.119340226 -0.052484877 -0.14490053 -0.15250427
000370 1f 90 4e bd 43 63 57 be e7 e0 9a 3e 97 bd 8e be
       -0.050430413 -0.21033959 0.30249712 -0.2787902
000380 9e bf 8b be f0 c0 de 3d d6 f2 d0 bd 00 17 57 be
       -0.2729463 0.10876644 -0.10202567 -0.21004868
000390 59 bf 84 3e ef b5 a8 bd eb d9 6c 3e d0 04 14 3e
       0.25927237 -0.08237826 0.23130004 0.14454961
0003a0 31 8e 79 be e4 87 8f be 3d 9d d7 3d 22 5b b1 bd
       -0.24370648 -0.28033364 0.10528038 -0.0865996
0003b0 27 bd 96 be e8 fe b2 3d d2 f4 43 be 9c 4c 42 be
       -0.29441187 0.08740026 -0.1913636 -0.18974537
0003c0 3a 93 ff bd 18 6c 9b bb c4 2f ca bc 1b c4 00 be
       -0.12479253 -0.0047431104 -0.02468098 -0.12574808
0003d0 74 61 87 3e 0b 91 da bd 59 24 bb bd 1d b2 22 3e
       0.26441538 -0.10672196 -0.09137792 0.15888257
0003e0 c8 a5 14 be 22 7a a9 3b 55 31 a0 3e 4d a9 21 be
       -0.14516366 0.00517203 0.31287637 -0.1578724
0003f0 35 1c 72 3e 5f 12 b3 bd 15 98 ba 3d e5 ef 8c be
       0.23643573 -0.087437384 0.091110386 -0.27526775

prop_layer.GRU.bias_ih_l0 f4 [30]
000000 c6 3b 9a be f7 65 84 3e 55 91 dc bd d3 08 ac bd
       -0.3012373 0.25859043 -0.107699074 -0.084001206
000010 00 a1 07 3e b0 15 4c be cc 0b 61 3e c3 8d 35 be
       0.1324501 -0.19930148 0.21977156 -0.17729859
000020 3e 72 74 be 4c 6e 2b 3e fc 44 e6 3d 7b 9e 46 be
       -0.23871705 0.16741294 0.112436265 -0.19396393
000030 6e d2 c1 3c a9 02 99 bd d4 88 07 3e 63 a1 70 3e
       0.023659911 -0.074712105 0.1323579 0.23499064
000040 e4 54 8b bd e3 90 6a bd 11 0a 0f 3e 92 cc 36 3d
       -0.06803301 -0.05726708 0.13968684 0.044628687
000050 da 79 6c be 37 04 95 3c 12 db 38 3e 01 84 56 3e
       -0.23093358 0.018190486 0.18052319 0.20948793
000060 eb f3 85 be 65 e2 c7 bb 53 05 c9 3d 3b 61 87 3e
       -0.26162657 -0.0060999864 0.09815469 0.26441368
000070 89 44 68 be 8f 48 20 3e
       -0.22682394 0.15652679

prop_layer.GRU.bias_hh_l0 f4 [30]
000000 53 5c 3f 3e c2 71 e4 bd 73 b1 9f bc c8 eb 1d 3e
       0.18687563 -0.1115451 -0.019493794 0.15421975
000010 a7 8e 90 be 7f 02 1f 3d 73 01 47 3e d2 76 b1 3d
       -0.28233835 0.03882074 0.19434147 0.08665241
000020 03 52 1c 3e ec d5 3d 3e 5c 06 a1 3e b9 1c cf bd
       0.1526566 0.18538636 0.31450164 -0.101129
000030 89 95 87 be e7 f3 58 3e 27 51 eb 3c c1 70 17 be
       -0.26481274 0.21186791 0.02872522 -0.14789106
000040 90 89 62 bd 29 bf c1 3d da 7a 3a bc ec ea 5f bd
       -0.05530697 0.09460289 -0.011381829 -0.0546674
000050 ca fe b9 bd 76 70 2b 3c 8f ad 6e 3e 6e 40 1a 3e
       -0.090818 0.0104638245 0.23308395 0.1506364
000060 92 4e 9f 3d bc c6 30 be 1d 20 97 3d 0d a0 a1 3d
       0.07778658 -0.17263311 0.07379172 0.078918554
000070 0d 3e 70 be 78 94 6e bd
       -0.2346117 -0.05824706

interaction_layer.0.weight f4 [20, 20]
000000 1e 49 81 3d 29 15 c8 3c 2d 9e 67 3d 4f 72 03 3d
       0.06312774 0.024424152 0.056547333 0.032091435
000010 aa 4f a3 3d df 9f 61 bc da 9b b6 3c 66 f9 43 3e
       0.07974179 -0.013771026 0.022291113 0.19138107
000020 d5 7a 54 be 78 0a 5b 3e c6 89 2a bc 80 1c 18 3e
       -0.20749982 0.21390712 -0.010408824 0.14854622
000030 fd 04 2f be 33 0d cb 3d 7f ea 5c be 52 45 21 be
       -0.17091747 0.09914627 -0.21573828 -0.157491
000040 0c 79 3a be 67 ea 4e be 3d 63 10 be 9e 0d 49 be
       -0.18210238 -0.20206605 -0.14100356 -0.19634101
000050 87 c5 04 3e 5a 15 1b be 65 80 1e 3e c7 75 da 3d
       0.12965976 -0.15144864 0.15478666 0.106669955
000060 95 89 4b be 44 a4 41 3e 43 96 64 3e 25 81 64 3e
       -0.19876702 0.18910319 0.22322945 0.2231489
000070 ab 8f d6 ba a8 26 40 3e f5 35 fb 3d 08 9b 1d 3e
       -0.0016369721 0.18764746 0.12266151 0.15391171
000080 1d 76 62 3e 4a dd 4f be 19 32 9e 3b e2 fe 2c 3e
       0.22115369 -0.20299259 0.0048277494 0.16894105
000090 5e 82 3e be 5a a5 4e 3e 3d 63 42 3e c2 ad 40 3e
       -0.18604419 0.20180264 0.18983169 0.18816283
0000a0 7e 8c 3a be a4 2c 1e 3e 89 75 fe bd 87 c8 f9 bd
       -0.18217656 0.15446717 -0.12424762 -0.12196451
0000b0 2c 02 23 3e 35 2a 62 be 10 55 52 be 5d 75 ce 3d
       0.15918797 -0.22086413 -0.20540261 0.10080979
0000c0 a9 b7 34 3e 9f 82 f9 ba c5 04 df 3d c8 2a cf 3c
       0.17648186 -0.001903612 0.108895816 0.025288954
0000d0 2b dc 28 3e 15 19 04 3e 37 fe df bd 3b 10 42 bd
       0.16490237 0.12900193 -0.109371595 -0.04737876
0000e0 57 de 45 be 70 9f 20 3e ed 62 e1 bd 62 f4 29 3e
       -0.19323097 0.1568582 -0.11005197 0.16597131
0000f0 d7 5b c4 3d 8f b3 57 be 50 95 14 3e dc e8 b7 bd
       0.095878296 -0.2106459 0.14510083 -0.08979961
000100 fa 50 f7 bd ab cf 3c 3e 8d b7 61 be eb 9a 46 3e
       -0.12075992 0.18438594 -0.22042675 0.19395034
000110 1c 3b 44 bd 39 be c1 bc 83 02 96 3d ae c0 92 bd
       -0.047907934 -0.023650276 0.07324698 -0.07165657
000120 84 d2 94 3c 4c f2 d1 3d f6 5c 26 3e d7 f0 02 be
       0.018166788 0.102512926 0.162464 -0.12787186
000130 e2 f8 d2 3d 97 95 08 bd 51 64 ce bd 84 44 0e 3e
       0.10301377 -0.033345785 -0.100777276 0.13893324
000140 8e ef 53 3e 7e 8d 1c ba 0f f8 06 bd d5 3e dd 3d
       0.20696852 -0.0005972012 -0.03295141 0.10803
000150 dc a7 ce bc 3f 78 b1 bd 0c 73 1a be 43 01 b9 bb
       -0.025226526 -0.08665513 -0.1508295 -0.0056459024
000160 c5 c0 ac bd cd f3 64 be b6 57 91 bd da 6a db bd
       -0.08435205 -0.22358628 -0.07096808 -0.1071374
000170 d9 50 b8 bd 47 d3 05 be d2 89 d3 3c 14 bc 96 bd
       -0.089997955 -0.13068877 0.025822554 -0.07360092
000180 9d 55 be bd 21 05 c6 3d 90 28 9d bc 0b d6 06 be
       -0.09293673 0.09668947 -0.01918438 -0.13167588
000190 fb 7d b3 3d c7 b1 5b be 03 45 74 3d 9c 63 46 3e
       0.08764263 -0.21454535 0.059636127 0.19373935
0001a0 d4 73 18 bd 96 dc b7 3d 5f c4 f6 bd f7 6f 52 3e
       -0.037219837 0.0897762 -0.120491736 0.20550524
0001b0 67 b6 12 3e d7 2c bb bd 6d 42 31 3d 53 e5 02 bd
       0.14327393 -0.09139412 0.04327624 -0.031956982
0001c0 34 f2 03 be 77 e7 9b 3c 37 0f 32 3e 8e 89 38 3e
       -0.12885362 0.01903127 0.17388617 0.18021223
0001d0 e2 e8 44 3d aa a8 bb 3d 56 dd bc 3d 57 2a 47 3e
       0.048073657 0.091630295 0.09221904 0.19449745
0001e0 e5 89 1d be 53 d7 3e be d5 9b 3e be 81 22 7c 3d
       -0.15384634 -0.18636827 -0.18614133 0.061556343
0001f0 9b 01 32 3e 55 64 21 be b1 de 3f be d0 73 3e be
       0.17383425 -0.1576093 -0.18737294 -0.18598866
000200 55 a3 35 be 31 1d 2e be 2c 1d 52 3e fa 2d a0 3d
       -0.17738087 -0.17003323 0.2051894 0.07821269
000210 8b 95 e8 bd 60 29 16 3e 98 44 d8 bc c4 ec 86 bc
       -0.11356648 0.14664221 -0.026399896 -0.01647032
000220 e9 a7 cc bc f2 83 14 3d c4 03 8d 3d 2e 7b cf 3d
       -0.02498241 0.036258645 0.06885484 0.101309165
000230 ce da 11 3e 7b 6f 56 3e c8 9e 2f be 80 c6 3c 3e
       0.14243624 0.20940964 -0.17150414 0.18435097
000240 ad 8c 21 3e 43 44 4d be 21 07 44 be 06 77 fa bd
       0.1577632 -0.20045571 -0.19143344 -0.12229733
000250 dc f6 f2 3d 8a f7 11 be c0 2d 5a 3e 4b ed 85 3d
       0.11863491 -0.14254585 0.21306515 0.06539401
000260 61 d2 61 be 57 fa be 3d 7a 03 db 3d 64 f1 43 be
       -0.2205291 0.09325092 0.106940225 -0.19135052
000270 bb 08 6b 3d 83 a3 4e 3e 8b 14 19 bd df 4c 94 bd
       0.057381373 0.20179562 -0.037373107 -0.072412245
000280 dd 5c 3d 3d a9 8b d7 3d 1e ed 96 3d 02 18 0f be
       0.04623114 0.10524685 0.07369445 -0.13974002
000290 0a 43 c6 3d 22 bf fe bd d0 d6 db 3d ba ee 0d be
       0.096807554 -0.124387994 0.107343316 -0.13860598
0002a0 c0 6a 3b 3d f9 1b a5 3d 8f a0 0e 3d 5b 28 9e 3d
       0.0457561 0.08061976 0.03482109 0.07722541
0002b0 bd 5a 8e 3d fa cf 4f be 06 1d 3c bd c7 1c 53 3e
       0.06950901 -0.2029418 -0.045926116 0.20616446
0002c0 ab a3 62 be da 41 18 be 69 8b b2 bd 27 be 50 3e
       -0.22132747 -0.1486887 -0.087179966 0.20385037
0002d0 28 f7 a9 bd a1 2d 52 3e d0 29 54 be 37 38 5c be
       -0.082990944 0.20525219 -0.20719075 -0.2150582
0002e0 b8 e8 02 3e 01 fa 49 be fd 13 e7 3d 54 8d 63 3e
       0.12784088 -0.19724275 0.11283109 0.22221881
0002f0 e9 45 27 3e 1f fe 10 3e eb 14 40 be be b5 60 3e
       0.16335262 0.1415944 -0.1875798 0.21944329
000300 96 ff c9 bc 9d e2 50 be e1 a3 22 be 34 b8 d3 3d
       -0.024658006 -0.20398946 -0.15882827 0.10337868
000310 08 03 89 bd bb ad 17 be af de 52 be 79 d8 c4 bd
       -0.06690031 -0.14812367 -0.2059276 -0.096116014
000320 b7 44 c5 3d 37 c9 5b be ac fd 5f 3d a0 f1 b1 3b
       0.09632247 -0.21463476 0.05468528 0.0054304153
000330 1e af e1 bd af 12 82 3d 22 51 d9 bd c2 2e 40 be
       -0.11019729 0.0635122 -0.10611178 -0.18767837
000340 51 af 7a 3d d4 b8 ef 3d 17 e1 34 be 2d 23 af bd
       0.06120235 0.11705175 -0.1766399 -0.08551631
000350 f1 f4 30 3e 10 39 f4 3d 19 42 38 be 22 12 ab bd
       0.17280938 0.11924946 -0.17993964 -0.08353068
000360 f3 d6 a5 3d 2a ac 30 3d eb ed a0 3d 4a bc dc 3c
       0.08097639 0.04313294 0.07857879 0.026945252
000370 3b 9b 14 3e 1a b2 56 3d 0f 20 a7 3d f3 f7 35 3e
       0.1451234 0.052415945 0.081604116 0.17770366
000380 b3 39 34 3e 9d 1a 4d be 7b c0 af bd 7d da 26 bd
       0.17600136 -0.20029683 -0.085816346 -0.04073571
000390 92 10 80 bd d0 07 99 3d 2e ff 6e 3d 50 0e 22 3e
       -0.062531605 0.07472193 0.058348827 0.15825772
0003a0 45 45 69 3d 31 32 6f bd d3 b9 d3 3d b8 00 c3 3d
       0.056950826 -0.058397476 0.103381775 0.095216215
0003b0 01 7e a1 3d 58 33 e4 bc a0 18 4e be 55 7a 00 3e
       0.078853615 -0.027856514 -0.20126581 0.12546666
0003c0 22 3d df bd 85 6d 69 bd 3d 5d f2 3d 85 ae 86 bd
       -0.10900332 -0.05698921 0.1183419 -0.06576256
0003d0 b8 58 a1 3d a9 e7 1a bd 8c 70 57 3e 2f 51 2b be
       0.0787825 -0.037818585 0.21039027 -0.16730188
0003e0 24 91 9b bd 8a 51 f0 bd 41 ee a9 bb 6c 64 34 be
       -0.07596043 -0.11734302 -0.005185873 -0.17616433
0003f0 b7 15 2a be 50 a0 7c bd 9b ae 40 3e df 81 0f 3e
       -0.16609846 -0.061676323 0.18816607 0.14014386

interaction_layer.0.bias f4 [20]
000000 24 70 02 3e 09 bf 37 be e1 59 7e bd 9f 8e 25 be
       0.12738091 -0.17943968 -0.062097434 -0.16167687
000010 67 54 04 bd e8 9d 1f 3b d9 8c c1 3d 7b 66 32 3e
       -0.032307055 0.0024355594 0.09450693 0.17421906
000020 a6 e6 55 3d 2f b2 1a be 1b f4 9f 3d 10 a8 48 be
       0.052221917 -0.15107034 0.07810231 -0.19595361
000030 1b 98 54 3c 6a 43 8f bd 32 c4 2c 3e 64 d3 fc 3d
       0.012975718 -0.0699528 0.16871718 0.12345007
000040 51 40 67 bd 26 50 47 3e b1 21 00 be c6 8a 8f 3d
       -0.05645782 0.19464168 -0.12512852 0.07008891

interaction_layer.2.weight f4 [10, 20]
000000 b7 9f 49 be 3a 02 09 3e af a2 e2 3d 79 6c 54 bd
       -0.19689833 0.13379756 0.11066186 -0.05186126
000010 d1 f1 dd bc 56 d4 12 3e 94 12 c2 bc ac 9d 1e be
       -0.027092846 0.14338812 -0.0236905 -0.15489835
000020 eb ec a4 bd 31 a4 4a 3d 09 c3 0d be 28 5f 4d bd
       -0.08053001 0.04947299 -0.13843931 -0.050139576
000030 fc a7 34 3e 9a 9e 0e bd e2 ac 29 be 04 bf 51 3e
       0.17642206 -0.034819223 -0.16569856 0.20483023
000040 5c 60 3f 3e 53 9c 21 3e 2b fd 03 3d c5 56 1a be
       0.18689102 0.15782289 0.03222386 -0.15072162
000050 3d 6f 2c be e1 9a ba 3d c1 12 24 be a2 0e a9 3d
       -0.16839309 0.09111572 -0.16022779 0.08254744
000060 49 98 31 3e 90 d9 55 3e 3d ee 91 3d 9f c4 99 bd
       0.17343248 0.20883775 0.071255185 -0.075082056
000070 83 9f 17 3e 2e b1 c6 bb e1 a6 d4 3d bc 2f 96 bd
       0.14806943 -0.006063602 0.10383392 -0.07333323
000080 ad c0 36 3e 10 3d 54 3e fc 5d 61 3e d3 d8 f1 bd
       0.17846937 0.20726418 0.22008508 -0.11808934
000090 57 b1 14 3d 8b 44 da 3d 4f 9f 12 3d 22 fd ad 3d
       0.036301937 0.10657605 0.03579646 0.08495547
0000a0 e1 ec 35 be d4 3b 90 bd 1c 68 95 3c fb dd c3 bd
       -0.17766143 -0.07042661 0.01823812 -0.09563824
0000b0 4d 45 31 3e a4 40 55 3e a1 ec 39 3e 1a 9a 07 3e
       0.17311592 0.2082544 0.18156673 0.13242379
0000c0 71 57 97 bd 4b 30 f2 3c 62 9a f3 bd 49 3e b5 3d
       -0.07389725 0.029564044 -0.118946806 0.088497706
0000d0 90 02 0f 3e 1e dd a8 bc 6c 80 82 3d e0 da 4d 3e
       0.13965821 -0.02061325 0.06372151 0.20103025
0000e0 0e 7d 1b 3e ed 73 4f 3d 1e a6 4a 3b 92 b0 5c be
       0.15184423 0.050647665 0.0030921767 -0.21551731
0000f0 04 42 73 3d 70 74 35 bd 21 fe 47 3d eb 38 b6 bd
       0.05938913 -0.044300497 0.04882634 -0.08897575
000100 09 e2 db 3d 03 31 38 be 7b 9e 27 bd 17 cc 14 be
       0.10736472 -0.17987446 -0.040922623 -0.14530979
000110 e1 1c 52 3e 5c 08 b8 3d f1 eb 78 bd bb 4b 1f be
       0.20518829 0.089859694 -0.060771886 -0.15556233
000120 ba e2 c8 bd e4 ea ca 3d ce 62 5c be a6 1e 4f 3e
       -0.0980887 0.09908083 -0.21522066 0.20226535
000130 42 09 09 be b3 bc 32 be ad 24 d8 bc b1 ee 94 bc
       -0.13382438 -0.17454796 -0.026384676 -0.018180223
000140 f8 42 ed 3d ec 56 54 bd a9 8e 98 3d 66 1a 4d bd
       0.11585039 -0.051840708 0.07449085 -0.050074004
000150 91 05 d1 3d 49 c7 04 be 33 2b b1 3d 7d 1c 5e be
       0.1020614 -0.12966646 0.08650818 -0.21690555
000160 fb a8 fe 3d cf f7 3c be 95 6e 5e be 4e e7 ec 3c
       0.12434574 -0.18453906 -0.21721871 0.028918888
000170 14 bb d7 3b 08 7f a6 bd 3a fe 06 be 0e 82 8a 3c
       0.0065835807 -0.08129698 -0.13182917 0.016907718
000180 e0 ab bb 3d 5f 95 fc bd 6a 66 38 3e e9 35 b3 bc
       0.09163642 -0.12333178 0.18007818 -0.021876292
000190 13 69 bc 3d 0a db 47 be 20 69 3f 3e 82 84 43 3d
       0.09199729 -0.1951715 0.18692446 0.04773379
0001a0 14 7d 74 3d a2 ae 0f be eb 6c 18 3e 83 2d db 3d
       0.059689596 -0.14031461 0.14885299 0.1070204
0001b0 c0 ba 50 3e 17 b9 09 3e 36 96 1b 3d 56 97 35 be
       0.2038374 0.13449512 0.03798505 -0.17733511
0001c0 9b 34 8b bc db 8d bb bc d2 58 d1 3d 04 58 05 3e
       -0.016992858 -0.02289479 0.10222019 0.13021857
0001d0 2f 95 26 3e ed 73 8a 3d 63 c6 7f bd d4 47 28 be
       0.16267847 0.06760392 -0.062445056 -0.1643365
0001e0 d9 7d 27 be 14 c1 25 bd 60 3e e7 3d 07 3e e7 3d
       -0.16356601 -0.040467337 0.11291194 0.11291128
0001f0 3b 6a a2 3c 49 f0 f7 3d 3c 62 28 be 0f 5e e8 bd
       0.019826045 0.12106378 -0.16443723 -0.11346065
000200 1e 4b fc bd b5 6e 29 be 54 c6 58 3e 91 34 42 3d
       -0.12319015 -0.16546138 0.21169406 0.047413412
000210 69 8f 11 be 50 1e a8 3d f4 e7 cf bd 85 29 dd bc
       -0.14214863 0.08208907 -0.101516634 -0.026997337
000220 0b 8b 4f 3e 7a 7a 45 3c dd 9b 8e bd 08 22 31 3d
       0.20267884 0.0120531265 -0.06963322 0.043245345
000230 7f ff 98 3d 77 0e 0a 3e cf bf 97 bd 54 c5 5b be
       0.07470607 0.1348208 -0.074096315 -0.21461993
000240 22 11 08 bd 94 0c ce 3d e6 e9 4a 3d 87 35 5f be
       -0.033219464 0.10060993 0.04953947 -0.21797763
000250 db a3 0e be 42 16 ac bd af 31 1a be bc da 17 be
       -0.13929693 -0.08402683 -0.15058015 -0.14829534
000260 69 c8 1f 3e 9c 22 49 bd cd 93 1f be 1c d9 03 be
       0.15603794 -0.04910527 -0.15583725 -0.1287579
000270 0d 4d 1e 3e f2 a8 03 be 57 48 38 3e 27 c1 a0 3d
       0.1545908 -0.12857416 0.17996345 0.07849341
000280 75 26 39 be 32 dd 34 be f7 6c 3f bd 85 cd 00 3e
       -0.18081076 -0.17662504 -0.046734776 0.125784
000290 37 64 5b bd d1 8f ad 3d 95 76 3f 3d a7 73 14 3c
       -0.05356237 0.084746964 0.046743948 0.009060777
0002a0 82 97 5e be cf 1c b3 ba 19 79 c0 3d 0c 8c 4e be
       -0.21737483 -0.0013665202 0.093980975 -0.20170611
0002b0 64 fd 41 3d 3f f2 50 3e 42 da 0f 3e 6b 3f 0d be
       0.047360793 0.2040491 0.14048102 -0.13793723
0002c0 63 07 33 3e 0e f3 87 ba f7 b7 43 be 3f a9 c8 bd
       0.17483287 -0.0010372119 -0.19113146 -0.09797906
0002d0 0f 68 54 3e f2 5f 17 3e dc fd ea bd da f7 81 3c
       0.2074282 0.14782694 -0.11474201 0.015865255
0002e0 a2 a2 c7 bd 1d 12 b9 bd 76 19 54 be 71 de 29 3e
       -0.097478166 -0.09036658 -0.20712838 0.16588761
0002f0 43 75 79 3d fe 6f 15 be c8 59 39 bd 3a b3 9c bd
       0.060902845 -0.14593503 -0.045251638 -0.07651372
000300 ad 5c 61 bc 0f 8e 90 3d 98 82 8d 3c 2a 2b 21 be
       -0.013755006 0.070583455 0.017274186 -0.15739122
000310 93 c3 62 be 5c f8 04 3d 14 dc cb bd 1d be 8d bd
       -0.22144918 0.032463416 -0.09954086 -0.06921027

interaction_layer.2.bias f4 [10]
000000 af 9d 24 3e 4e 88 4f 3d e8 4d 33 be ab 62 0b 3d
       0.16075777 0.0506671 -0.17510188 0.034029644
000010 1b cc 0f 3d 8d 86 25 3d 8d 5a 0b be da 02 5b 3e
       0.03510676 0.04041152 -0.13608761 0.21387807
000020 4c 01 c6 bd f0 12 d6 3d
       -0.09668216 0.10452831

scoring_alignment_preprocessor.0.weight f4 [16, 10]
000000 74 b2 1b 3d cc 1f 1d 3e 76 01 d4 3d b8 b3 78 bc
       0.038011983 0.15344161 0.10351841 -0.015179567
000010 0b f9 65 3e 03 50 b5 bd 20 9f ef 3a 21 a7 98 3e
       0.22458284 -0.08853152 0.0018281676 0.2981501
000020 b0 d1 2c 3e 8b c5 b1 bd 33 f0 00 3e af eb 88 be
       0.16876864 -0.086802565 0.12591629 -0.26742312
000030 46 24 92 be 64 8d 79 3e 48 95 db 3b ed b9 5d be
       -0.285433 0.24370342 0.0067011453 -0.21652956
000040 e3 ae 92 3e 8f 5e 6e 3e d6 23 7d 3e be e2 8e be
       0.28649053 0.23278259 0.24720702 -0.27907366
000050 27 2d 2b be 98 e7 9a be 0f a3 b8 3d 84 99 17 be
       -0.16716443 -0.30254817 0.09015476 -0.14804655
000060 63 d8 0f 3e 64 e3 48 3e d2 7f f9 3d 9e 9c 71 3e
       0.14047389 0.19617993 0.12182583 0.23594901
000070 e7 d3 f0 bd a2 da 50 3e 5b 0e 3c 3d 32 99 98 bd
       -0.11759167 0.20395902 0.045912128 -0.07451095
000080 8b 4d 14 be 52 09 2e be 79 f6 b0 3d 7b 5e 51 be
       -0.14482705 -0.16995743 0.08640761 -0.20446198
000090 34 13 48 be 0c 84 70 be a5 c3 de bc 8d c0 1c 3d
       -0.19538575 -0.23487872 -0.0271929 0.03826957
0000a0 79 e8 5c bd b3 51 3d 3c 94 7d 3a bd 17 54 85 3e
       -0.05393264 0.011555123 -0.045529917 0.26040718
0000b0 bc 76 50 be e1 14 96 3e 0f 4f 50 be 40 0c 1a 3d
       -0.20357794 0.29312804 -0.20342658 0.03760934
0000c0 af c6 25 be f3 44 75 3e bb 36 86 be 60 6a 48 bc
       -0.16189073 0.23952083 -0.2621363 -0.012232393
0000d0 3d 09 79 be 51 9a 9a 3d 86 bd 1b 3c 78 d8 e3 bd
       -0.2431993 0.07548965 0.009505635 -0.111252725
0000e0 96 1c 61 3e 06 66 56 3e ae 5b fd 3d f5 f0 e3 bd
       0.21983561 0.20937356 0.12371002 -0.11129943
0000f0 bc 30 92 be dc 72 9d be cf bd 03 bd 94 d1 97 bd
       -0.28552806 -0.30751693 -0.032163437 -0.07413021
000100 14 88 6b 3e c0 4c bf 3d cd b1 50 be fe e3 97 be
       0.23001128 0.09340811 -0.20380326 -0.29666132
000110 f3 cd dc 3c d9 68 a1 bd 78 bb 8f be 40 08 83 be
       0.026953673 -0.07881326 -0.28072715 -0.25592232
000120 2e 45 8b bc 58 3a 34 bd 1f ea 52 3e a5 43 33 bd
       -0.01700076 -0.044000953 0.20597123 -0.043765683
000130 d0 9d 91 be 38 ed f3 bd c4 f3 10 3e 11 e1 8c 3e
       -0.28440714 -0.1191048 0.14155489 0.27515462
000140 c5 79 7d 3e 2a 17 cb bc 9e 3b a0 3e 20 81 9c 3e
       0.24753483 -0.024791319 0.31295484 0.30567265
000150 d2 23 e6 3d 15 d0 c5 bc 39 e0 7e 3e f9 28 78 bd
       0.11237301 -0.024147073 0.24890222 -0.06058595
000160 fb 9f 9f bd 24 d4 0e be cd 43 21 be b2 bd 61 3e
       -0.07794186 -0.13948113 -0.1574852 0.2204502
000170 0f 06 39 bd 0a 60 89 3e a6 c1 6b 3c fd 15 88 be
       -0.045171794 0.26831084 0.014389431 -0.26579276
000180 9f ef 29 be cf da 07 bd 7f 0b 80 bd 1e 72 d4 bd
       -0.16595314 -0.033167657 -0.06252193 -0.103733286
000190 39 3e 80 be 71 fd 98 bd 3d 5d 16 3e 0f 1d c2 3c
       -0.25047472 -0.07470215 0.14684005 0.023695497
0001a0 6c 3d ca 3d 62 70 2b bd bf d9 4a 3e 4f be 88 be
       0.098749965 -0.041855223 0.19809626 -0.26707694
0001b0 c1 2e 50 3e 5e 55 2a 3e 8e 46 1f be fe 18 89 bd
       0.20330335 0.16634127 -0.15554258 -0.0669422
0001c0 45 25 83 bc 25 30 a7 bd 38 c4 ee bd 20 2d b5 bb
       -0.016008982 -0.0816348 -0.116585195 -0.005529061
0001d0 9d fe 16 be 15 04 d3 3c e5 d3 9d be 93 43 eb bd
       -0.14745565 0.025758782 -0.30825725 -0.11487498
0001e0 48 9a 92 be 97 71 93 3e 22 52 43 bd 52 fa 52 3d
       -0.28633332 0.287976 -0.04768575 0.051508255
0001f0 0d b5 1c 3e 07 51 9b 3e a0 41 73 3e da 8d 1b 3e
       0.1530344 0.30335256 0.23755503 0.15190831
000200 4b 8a 58 3d ab 3e 92 3e 6b 1c 44 3e f5 29 0f be
       0.05286626 0.28563437 0.19151466 -0.13980849
000210 4c 11 77 3e 9e 5b 26 3e 99 7d f4 3d ac 5b 00 be
       0.24127692 0.16245887 0.11938018 -0.1253497
000220 6b 59 88 3e 5a a6 d7 bd 88 79 81 be 89 48 eb 3c
       0.2663072 -0.10529776 -0.25288033 0.02872111
000230 6b 41 17 3d 0f f0 62 3e 72 7f c5 3b 15 d5 35 bd
       0.03692762 0.22161888 0.0060271556 -0.044392664
000240 6c 9f 58 3e 10 b9 96 be 4e 39 6e 3e ee dc 85 be
       0.21154565 -0.29438066 0.23264048 -0.26145118
000250 3c d0 1c be a6 16 eb 3c 71 04 40 be a6 c8 8b 3d
       -0.1531381 0.028697323 -0.18751694 0.0682538
000260 65 11 62 3d bd 4b 40 3e d5 27 4c 3e 3f 51 9a 3d
       0.05519237 0.18778892 0.1993707 0.07535028
000270 98 91 7b 3e 09 31 9e be 70 07 1d 3e 47 77 8d 3e
       0.24567258 -0.30896786 0.15334868 0.27630064

scoring_alignment_preprocessor.0.bias f4 [16]
000000 d7 db a0 be d7 6c 1c be b0 8d 47 3e 09 87 61 3e
       -0.31417724 -0.15275894 0.19487643 0.22024168
000010 94 12 4b 3e 23 b1 c6 3d 8b c4 93 3e 2a fc 95 3e
       0.19831306 0.09701755 0.28860888 0.29293948
000020 57 88 42 3d 91 2e 9e bd e8 1c d3 3b fc 3d 6a 3e
       0.047493305 -0.077237256 0.006442655 0.22875208
000030 6b ae 88 be 02 c8 3d 3d d5 92 7d be 35 f0 16 3e
       -0.2669557 0.04633332 -0.24763043 0.14740069
