egsc_margin_01/initial_models/egsc_modified_ptc_fm_large_dataset_seed_7762_2024-05-10_08:35:43.pth (torch, 45405 bytes, 76 tensors)

gin_layers.0.nn.0.weight f4 [10, 1]
0	0x3eaa7b88	0.33297372
1	0xbebf60b0	-0.37378454
2	0xbd61ecc0	-0.055157423
3	0x3e6feab8	0.23429382
4	0x3d87e740	0.06635904
5	0x3f0825fe	0.5318297
6	0xbf6eda8e	-0.9330224
7	0xbebd8374	-0.37014353
8	0xbf579e90	-0.8422632
9	0xbf6a48c2	-0.9151727

gin_layers.0.nn.0.bias f4 [10]
0	0xbe991bb0	-0.29903936
1	0xbf4ce940	-0.8004341
2	0xbe4bee48	-0.19915116
3	0xbdad43b0	-0.08460176
4	0x3cb4ec00	0.02208519
5	0xbe827134	-0.25476992
6	0xbf541c22	-0.8285543
7	0x3ea192d0	0.31557322
8	0xbf796ebe	-0.97434604
9	0x3d042040	0.03225732

gin_layers.0.nn.2.weight f4 [10, 10]
0	0x3c9f6997	0.019459529
1	0xbe779f60	-0.2418189
2	0xbde8d000	-0.11367798
3	0xbe50e804	-0.20401007
4	0xbdbecce5	-0.09316424
5	0xbe23c1d2	-0.15991905
6	0x3dd10454	0.10205904
7	0xbe60f338	-0.2196778
8	0xbcb0be1b	-0.021575024
9	0x3e12aa0c	0.1432268
10	0x3e8ab3c3	0.27090272
11	0x3e859a8c	0.26094472
12	0xbd8eb200	-0.069675446
13	0x3e362a49	0.17789568
14	0xbdb94b9b	-0.09047624
15	0xbea05c21	-0.3132029
16	0x3e764b7a	0.2405223
17	0xbe848b2b	-0.25887427
18	0xbe86a769	-0.262996
19	0x3d7b9c83	0.061428558
20	0x3ea13581	0.31486133
21	0xbd7c4621	-0.061590318
22	0xbe9b75be	-0.30363268
23	0x3e0e6e72	0.13909319
24	0xbdd02753	-0.101637505
25	0xbd04c92e	-0.032418422
26	0x3d823c72	0.06359185
27	0xbe890e75	-0.26768842
28	0x3e9c2339	0.30495623
29	0xbe09a23f	-0.13440798
30	0xbe86d423	-0.26333722
31	0x3e14902e	0.14508125
32	0xbdaf2dd7	-0.08553665
33	0xbe43b4cb	-0.19111936
34	0x3e61fd05	0.22069176
35	0x3e3cf557	0.18452965
36	0xbe85c098	-0.261235
37	0xbc818b33	-0.015813446
38	0xbe6c6b5e	-0.23087832
39	0x3d24b01e	0.04020702
40	0xbe054a54	-0.13016635
41	0x3e4d29b0	0.20035434
42	0x3db6eaf3	0.08931532
43	0x3dcefe6d	0.101071216
44	0xbe9a81f2	-0.30177265
45	0xbe8ae2fb	-0.27126297
46	0x3d671e88	0.0564256
47	0x3e298406	0.16554269
48	0x3e2aa17b	0.16663162
49	0xbd69bfdc	-0.057067737
50	0xbe56ed72	-0.20989016
51	0xbe07f039	-0.13275231
52	0xbc290155	-0.010315259
53	0x3d6290f4	0.05531402
54	0xbe4e6684	-0.20156294
55	0xbc3a4332	-0.01136856
56	0xbe862ece	-0.26207584
57	0xbe31ae61	-0.17351677
58	0xbd88e874	-0.06684962
59	0xbc516b33	-0.012781906
60	0x3dc4cda5	0.09609536
61	0x3e14e7bf	0.14541529
62	0x3e94a937	0.2903535
63	0x3ae99058	0.0017819507
64	0x3dcc0f95	0.099639095
65	0xbd4fbb27	-0.05071559
66	0xbe81e9da	-0.25373727
67	0xbe274d86	-0.16338167
68	0xbe9122ed	-0.2834696
69	0xbdeed963	-0.11662557
70	0xbd75eeda	-0.06004224
71	0x3e8e2126	0.27759665
72	0xbe657597	-0.22408138
73	0xbd6cc606	-0.057806037
74	0xbe9c7a88	-0.30562234
75	0xbe9ee34a	-0.31032783
76	0xbea035db	-0.31291088
77	0x3e9607d3	0.29302844
78	0x3c9e907f	0.01935601
79	0xbe5f8875	-0.21829398
80	0x3e491ac0	0.1963911
81	0xbd5d53df	-0.054035064
82	0xbcdc4d02	-0.026892189
83	0xbe0670d1	-0.13128974
84	0x3c4c406b	0.01246653
85	0x3d2c922a	0.04213158
86	0xbe6233d3	-0.22090082
87	0xbe20f98c	-0.15720195
88	0x3e3b7d0d	0.18309422
89	0x3e83f8ee	0.25775856
90	0xbe44d157	-0.19220482
91	0xbe7f7090	-0.24945283
92	0x3e7cc170	0.24683166
93	0xbe00c863	-0.12576441
94	0x3e1d9201	0.15387727
95	0x3d4addf8	0.049528092
96	0xbdbdcec5	-0.09267954
97	0x3e23e3f7	0.1600493
98	0x3e0d9914	0.13827926
99	0x3e8b8e5f	0.27257058

gin_layers.0.nn.2.bias f4 [10]
0	0x3dcdd258	0.100498855
1	0xbe799b62	-0.2437568
2	0xbd2730b7	-0.040817942
3	0xbe8bd688	-0.27312112
4	0x3daacf7b	0.08340355
5	0xbd4e5b78	-0.0503802
6	0xbe093b0c	-0.13401431
7	0x3e4a2f1a	0.1974453
8	0x3e931af7	0.2873151
9	0xbd77281e	-0.060340993

gin_layers.0.nn.3.weight f4 [10]
0	0x3f800000	1.0
1	0x3f800000	1.0
2	0x3f800000	1.0
3	0x3f800000	1.0
4	0x3f800000	1.0
5	0x3f800000	1.0
6	0x3f800000	1.0
7	0x3f800000	1.0
8	0x3f800000	1.0
9	0x3f800000	1.0

gin_layers.0.nn.3.bias f4 [10]
0	0x00000000	0.0
1	0x00000000	0.0
2	0x00000000	0.0
3	0x00000000	0.0
4	0x00000000	0.0
5	0x00000000	0.0
6	0x00000000	0.0
7	0x00000000	0.0
8	0x00000000	0.0
9	0x00000000	0.0

gin_layers.0.nn.3.running_mean f4 [10]
0	0x00000000	0.0
1	0x00000000	0.0
2	0x00000000	0.0
3	0x00000000	0.0
4	0x00000000	0.0
5	0x00000000	0.0
6	0x00000000	0.0
7	0x00000000	0.0
8	0x00000000	0.0
9	0x00000000	0.0

gin_layers.0.nn.3.running_var f4 [10]
0	0x3f800000	1.0
1	0x3f800000	1.0
2	0x3f800000	1.0
3	0x3f800000	1.0
4	0x3f800000	1.0
5	0x3f800000	1.0
6	0x3f800000	1.0
7	0x3f800000	1.0
8	0x3f800000	1.0
9	0x3f800000	1.0

gin_layers.1.nn.0.weight f4 [10, 10]
0	0x3cd27771	0.02569172
1	0x3e14745f	0.14497517
2	0x3e6b45e3	0.22975878
3	0xbe392da0	-0.18083811
4	0x3e152e0c	0.14568347
5	0xbd4128d0	-0.047158062
6	0xbe11f0eb	-0.14252059
7	0x3e493263	0.19648127
8	0x3e95dc78	0.29269767
9	0xba5d6622	-0.00084457
10	0xbd3edffd	-0.04660033
11	0x3e1c71b4	0.1527775
12	0xbd1220ad	-0.035675693
13	0xbdfafae6	-0.12254886
14	0xbe5a6ca8	-0.21330512
15	0xbc02d178	-0.007984512
16	0xbdf44f45	-0.11929182
17	0xbea1e4cd	-0.31619874
18	0xbdcd8ba6	-0.100364015
19	0xbe1b26ca	-0.15151516
20	0xbe0254ba	-0.12727633
21	0xbe3d41f0	-0.18482184
22	0x3d159489	0.036518607
23	0xbdd52bc8	-0.10408741
24	0xbe069636	-0.13143238
25	0x3e0c0574	0.13673955
26	0xbcde4170	-0.027130812
27	0xbe3eafe2	-0.18621781
28	0x3dfdd716	0.1239454
29	0xbe9b58f1	-0.30341294
30	0x3dacb984	0.08433822
31	0x3e8c4843	0.2739888
32	0xbd5799af	-0.0526368
33	0x3e020284	0.12696272
34	0xbe2e7d9d	-0.17040105
35	0x3e94cd3b	0.29062828
36	0x3e4f7b9a	0.20261994
37	0xbe045a53	-0.12925081
38	0x3d7aaeca	0.061201848
39	0xbd391d57	-0.045193996
40	0xbe3a9998	-0.18222654
41	0x3cdc7b56	0.02691428
42	0x3e7bd067	0.24591218
43	0x3e827cd3	0.25485858
44	0x3d8b3c76	0.067986414
45	0x3e04b1e1	0.1295848
46	0x3e058c25	0.13041742
47	0x3e8cd4c9	0.27506092
48	0xbe5ecb16	-0.21757159
49	0xbe86f1ee	-0.26356453
50	0xbe86c7dd	-0.2632436
51	0x3db24946	0.08705382
52	0x3e7bbd27	0.24583875
53	0xbe643e1e	-0.22289321
54	0xbe87ac29	-0.26498535
55	0xbe86ab91	-0.2630277
56	0xbe806fff	-0.25085446
57	0xbe763c03	-0.2404633
58	0x3e9492b1	0.29018167
59	0x3de28736	0.11060946
60	0xbe24763a	-0.16060725
61	0x3e545c51	0.20738341
62	0xbd18ecae	-0.03733509
63	0xbcbed005	-0.02329255
64	0xbd10b6ad	-0.035330463
65	0x3d520853	0.05127747
66	0x3dc76cc7	0.097375445
67	0x3e12b61b	0.1432728
68	0x3e4e450c	0.20143527
69	0x3e97a0f8	0.29614997
70	0xbe785d51	-0.24254347
71	0x3e857bff	0.26071164
72	0x3e64772d	0.22311087
73	0xbe91253b	-0.28348717
74	0xbe8a9cd5	-0.27072778
75	0xbe311aff	-0.17295454
76	0x3e2bcd3c	0.1677751
77	0xbe4e6dae	-0.20159027
78	0x3e9a4691	0.30131963
79	0x3dbd66bb	0.0924811
80	0xbe9fae1c	-0.31187522
81	0x3e070ab1	0.13187672
82	0x3e1addb1	0.15123631
83	0xbe8a8d76	-0.2706105
84	0x3da631b8	0.08114952
85	0x3e921d9b	0.28538212
86	0xbd587cf9	-0.05285356
87	0xbdd1ba6f	-0.102406375
88	0x3d85e652	0.06538071
89	0x3e1869e9	0.14884152
90	0x3dd57122	0.10421969
91	0xbe4a5d7b	-0.19762222
92	0x3e0c313c	0.13690656
93	0xbe342210	-0.17591119
94	0x3e1b7321	0.15180637
95	0xbe48b911	-0.19601847
96	0x3d84861a	0.0647089
97	0x3de97ff1	0.11401356
98	0x3d49b48e	0.049244456
99	0x3ddfab2f	0.109213226

gin_layers.1.nn.0.bias f4 [10]
0	0x3dc951d0	0.098300576
1	0xbe92f210	-0.28700304
2	0xbd850428	-0.06494933
3	0x3e95476e	0.2915606
4	0xbea0421a	-0.3130043
5	0xbe575301	-0.21027757
6	0xbdfc800a	-0.12329109
7	0x3e939a7b	0.28828797
8	0xbdf05e12	-0.117366925
9	0x3e949e53	0.29027042

gin_layers.1.nn.2.weight f4 [10, 10]
0	0xbe9605aa	-0.29301196
1	0xbe9bb801	-0.3041382
2	0x3e392224	0.1807943
3	0xbe8ed1ab	-0.2789434
4	0x3e23659a	0.15956727
5	0x3ea0e753	0.31426486
6	0x3e6c8f54	0.2310155
7	0x3e4d0cf3	0.20024471
8	0xbe87d281	-0.2652779
9	0x3e9ee4d7	0.31033966
10	0xbd0ed59d	-0.034871686
11	0xbe93b443	-0.28848466
12	0xbe660206	-0.2246171
13	0x3e15b555	0.14619954
14	0xbdc1c396	-0.09461133
15	0xbe568189	-0.20947851
16	0xbe951b86	-0.2912256
17	0xbe0b30dc	-0.13592857
18	0x3e0b7d66	0.13622054
19	0xbe9b6984	-0.3035394
20	0x3d9e62af	0.07733666
21	0x3bfba68d	0.0076797665
22	0xbe1f952e	-0.15584251
23	0x3db7f374	0.08981982
24	0xbe19aa91	-0.15006472
25	0xbe87e4c6	-0.26541728
26	0x3db142cd	0.08655319
27	0x3e298251	0.16553618
28	0xbe7fcd49	-0.24980654
29	0xbdf7ae83	-0.12093832
30	0x3e7a4135	0.24438937
31	0x3e2cb111	0.1686442
32	0xbe824a4c	-0.2544731
33	0xbdf1ee41	-0.118130215
34	0x3dea885e	0.11451791
35	0x3d79da48	0.060999185
36	0x3de396a7	0.11112719
37	0x3d1c1565	0.03810634
38	0x3e522941	0.2052355
39	0x3d97d013	0.07412734
40	0x3dec59cc	0.11540565
41	0x3e80abd3	0.2513109
42	0x3e7ee08f	0.2489035
43	0xbe9107c8	-0.2832625
44	0xbdf88cfb	-0.12136265
45	0xbd6bf769	-0.057608996
46	0xbdb51c63	-0.08843305
47	0x3dd86af7	0.10567277
48	0x3da8ff0b	0.082517706
49	0x3e652e82	0.22381023
50	0x3da4f27c	0.08054063
51	0xbda9231c	-0.0825865
52	0x3e15b67b	0.14620392
53	0x3e09e348	0.13465607
54	0x3de4626c	0.11151585
55	0xbd215cb7	-0.03939506
56	0xbe91bb65	-0.28463283
57	0x3e35b1f4	0.17743665
58	0xbe1dda8a	-0.15415397
59	0xbda50ef2	-0.08059491
60	0x3e2b609c	0.16736072
61	0xbdbe77fd	-0.0930023
62	0x3de42db1	0.111415274
63	0xbd5b1192	-0.053483553
64	0x3e9856bd	0.29753676
65	0xbe72476c	-0.23660058
66	0xbddc0140	-0.10742426
67	0xbe29ee4c	-0.1659481
68	0xbbf0517b	-0.007333932
69	0xbe7f1cfa	-0.24913397
70	0xbe708949	-0.2348987
71	0xbdb2a23b	-0.08722349
72	0x3e883f2d	0.266107
73	0x3e4af332	0.19819334
74	0x3e246a82	0.16056255
75	0x3e0e55c2	0.13899902
76	0xbe168bb2	-0.14701727
77	0xbe086e82	-0.13323405
78	0xbe557a90	-0.20847535
79	0xbe6b39a4	-0.22971207
80	0x3e84d874	0.2594639
81	0xbe6e1cf9	-0.2325324
82	0x3e9e28e9	0.30890587
83	0x3e707b94	0.23484641
84	0xbe764853	-0.24051027
85	0x3e81ee61	0.2537718
86	0x3d2968be	0.041359656
87	0x3afb24e6	0.0019160777
88	0xbe34bc7b	-0.17650025
89	0xbd99eca6	-0.0751584
90	0x3da0761b	0.07835027
91	0x3cde8a40	0.027165532
92	0xbd58a698	-0.05289325
93	0x3e01ddea	0.1268231
94	0xbbd142e1	-0.0063861464
95	0xbe493e6f	-0.19652723
96	0x3e00e251	0.12586333
97	0xbe9c02c4	-0.3047086
98	0xbdd80cd4	-0.10549322
99	0x3e193b25	0.14963968

gin_layers.1.nn.2.bias f4 [10]
0	0x3e527a7e	0.2055454
1	0xbe9676c0	-0.29387474
2	0xbe60bfea	-0.2194821
3	0xbe9c74e5	-0.30557933
4	0x3e43d901	0.19125749
5	0x3e325584	0.17415434
6	0x3d609db6	0.054837905
7	0xbe84e0e2	-0.25952822
8	0xbe314be7	-0.1731411
9	0xbe56fcd0	-0.20994878

gin_layers.1.nn.3.weight f4 [10]
0	0x3f800000	1.0
1	0x3f800000	1.0
2	0x3f800000	1.0
3	0x3f800000	1.0
4	0x3f800000	1.0
5	0x3f800000	1.0
6	0x3f800000	1.0
7	0x3f800000	1.0
8	0x3f800000	1.0
9	0x3f800000	1.0

gin_layers.1.nn.3.bias f4 [10]
0	0x00000000	0.0
1	0x00000000	0.0
2	0x00000000	0.0
3	0x00000000	0.0
4	0x00000000	0.0
5	0x00000000	0.0
6	0x00000000	0.0
7	0x00000000	0.0
8	0x00000000	0.0
9	0x00000000	0.0

gin_layers.1.nn.3.running_mean f4 [10]
0	0x00000000	0.0
1	0x00000000	0.0
2	0x00000000	0.0
3	0x00000000	0.0
4	0x00000000	0.0
5	0x00000000	0.0
6	0x00000000	0.0
7	0x00000000	0.0
8	0x00000000	0.0
9	0x00000000	0.0

gin_layers.1.nn.3.running_var f4 [10]
0	0x3f800000	1.0
1	0x3f800000	1.0
2	0x3f800000	1.0
3	0x3f800000	1.0
4	0x3f800000	1.0
5	0x3f800000	1.0
6	0x3f800000	1.0
7	0x3f800000	1.0
8	0x3f800000	1.0
9	0x3f800000	1.0

gin_layers.2.nn.0.weight f4 [10, 10]
0	0x3e8cccb4	0.27499926
1	0x3d82e03c	0.063904256
2	0x3e3a9e3f	0.18224429
3	0xbe0a47e1	-0.13503982
4	0xbdc0e065	-0.094178
5	0xbe87033c	-0.26369655
6	0x3dc8880f	0.09791576
7	0x3e60d92c	0.21957844
8	0xbe3cea76	-0.18448815
9	0x3e477d4d	0.19481392
10	0xbe9c2295	-0.30495134
11	0xbe3bf52b	-0.18355243
12	0xbe005b19	-0.12534751
13	0x3b981138	0.0046407245
14	0x3e5a0d95	0.21294244
15	0xbda3ac8e	-0.079918966
16	0xbe646f38	-0.22308052
17	0x3c7cb7ee	0.015424712
18	0xbe7fa562	-0.24965432
19	0xbde1866f	-0.11011969
20	0xbd69d965	-0.05709209
21	0xbe294c24	-0.16532952
22	0xbe9295c0	-0.28629875
23	0xbe14d1db	-0.14533179
24	0xbe7bc674	-0.24587423
25	0xbe40d040	-0.18829441
26	0xbe98baf6	-0.2983014
27	0x3d1636f5	0.036673505
28	0x3e3c2272	0.18372515
29	0xbe2bcc51	-0.1677716
30	0xbe3bcd67	-0.18340074
31	0xbd8f614a	-0.07000978
32	0x3e97b698	0.29631495
33	0x3d28cf40	0.041213274
34	0xbd9e8726	-0.07740621
35	0x3dedce73	0.11611643
36	0xbe153c5e	-0.1457381
37	0x3e167d5b	0.14696257
38	0x3cdc9961	0.026928606
39	0xbdd6a81b	-0.10481282
40	0x3bdc91f2	0.006731265
41	0x3d8f28c3	0.069901966
42	0x3dbd5b67	0.09245949
43	0x3cbd9ec8	0.023147002
44	0x3b0a3ef2	0.0021094647
45	0x3d5c14c2	0.053730734
46	0x3d7a165e	0.061056487
47	0x3e003927	0.12521802
48	0x3dd2f8db	0.10301372
49	0xbe1a0838	-0.15042198
50	0xbd60e54c	-0.054906175
51	0xbdb1b1fa	-0.086765245
52	0xbe212e1f	-0.1574025
53	0x3e9231c2	0.28553587
54	0xbd5a1dd7	-0.053251114
55	0xbda8f871	-0.082505114
56	0xbe870e12	-0.26377922
57	0xbe601cd1	-0.21885993
58	0xbe10e70f	-0.14150642
59	0xbe63dbb6	-0.22251782
60	0x3ea15139	0.3150728
61	0x3e8e4539	0.27787188
62	0xbe8d2b07	-0.2757189
63	0x3c16d91a	0.0092070345
64	0x3e31df3d	0.17370315
65	0x3dce7302	0.1008053
66	0x3d5f41be	0.054506056
67	0x3da79931	0.08183516
68	0xbe989c31	-0.29806665
69	0x3e08e7c8	0.13369668
70	0xbda078d5	-0.07835547
71	0xbe9000fe	-0.28125757
72	0xbe4a6635	-0.19765551
73	0x3e72e556	0.23720297
74	0xbe606432	-0.21913221
75	0x3d2d53e5	0.042316336
76	0xbd338f2f	-0.043837722
77	0xbe4cb618	-0.19991338
78	0x3e280841	0.16409399
79	0xbd57a0d6	-0.05264362
80	0x3e0ea1d0	0.13928914
81	0x3e3f0e74	0.18657857
82	0x3e74c29d	0.23902364
83	0xbce41474	-0.027841784
84	0xbdc2a2b4	-0.095036894
85	0x3ccf5202	0.025307659
86	0x3e6c94f0	0.2310369
87	0x3e8d81f2	0.27638203
88	0xbc8b6f51	-0.017020853
89	0x3dfb641b	0.12274953
90	0x3ea1be0b	0.31590304
91	0x3dd4bff3	0.10388174
92	0xbce32f44	-0.027732499
93	0x3e424024	0.1896978
94	0xbe9c9e25	-0.30589405
95	0xbe76d6c4	-0.24105364
96	0x3e6bde26	0.23033962
97	0x3e77031b	0.24122278
98	0xbe2b8976	-0.16751656
99	0xbe5b89ce	-0.21439287

gin_layers.2.nn.0.bias f4 [10]
0	0x3e3f6561	0.18691017
1	0xbd124121	-0.035706643
2	0x3e84e832	0.259584
3	0xbd747149	-0.05967835
4	0x3e5cf5bf	0.2157812
5	0xbe8e24b2	-0.2776237
6	0x3c9334dd	0.017969543
7	0x3c465078	0.012104146
8	0x3e2e81cb	0.170417
9	0x3ddfce49	0.10928018

gin_layers.2.nn.2.weight f4 [10, 10]
0	0xbe94d88e	-0.29071468
1	0x3e1ab90d	0.15109654
2	0x3bd92a6c	0.0066273715
3	0xbe91bce7	-0.28464434
4	0x3cfb1396	0.030648988
5	0x3e52d413	0.20588712
6	0x3e3a21be	0.18176934
7	0xbdd7f14c	-0.105440706
8	0x3e018254	0.12647372
9	0xbe234e87	-0.15947925
10	0x3e258e9b	0.16167681
11	0xbd5c5e34	-0.053800777
12	0x3c9dd16b	0.019264897
13	0xbb667e34	-0.0035170438
14	0xbe714e71	-0.2356508
15	0x3da797f2	0.08183278
16	0xbe94e376	-0.2907979
17	0x3e926c01	0.28598025
18	0xbd0be957	-0.034158077
19	0x3e902c7b	0.28158936
20	0x3e286942	0.16446403
21	0xba27b824	-0.00063979835
22	0xbc181763	-0.00928292
23	0xbe67f27c	-0.22651094
24	0xbe705356	-0.2346929
25	0x3de8d667	0.11369019
26	0xbe70b081	-0.23504831
27	0x3e1d654c	0.15370673
28	0xbe488f64	-0.19585949
29	0xbe17a52d	-0.14809103
30	0xbd624969	-0.05524579
31	0xbda0458b	-0.07825764
32	0x3d98e7f0	0.074661136
33	0x3e23459a	0.1594452
34	0xbd7d2b1e	-0.061808698
35	0x3e6edfd7	0.23327576
36	0x3deec113	0.1165792
37	0x3e1ecbc5	0.1550742
38	0xbe4e014e	-0.20117685
39	0xbbdf1995	-0.0068084695
40	0x3e1de2e1	0.15418579
41	0x3e483521	0.19551517
42	0xbdeb2a8d	-0.11482725
43	0xbe22e91e	-0.1590924
44	0xbd35a8c5	-0.044350404
45	0x3e4a861d	0.19777723
46	0x3e5b4682	0.21413615
47	0xbd41d3e4	-0.047321215
48	0x3e19f31a	0.15034142
49	0xbe239ac7	-0.15977012
50	0x3e6b96fb	0.23006813
51	0xbcc65afc	-0.024213307
52	0x3e78fd70	0.24315429
53	0x3d8efb30	0.06981504
54	0xbe552d32	-0.20818022
55	0xbdaa7cba	-0.08324571
56	0x3e066f00	0.1312828
57	0xbe045aae	-0.12925217
58	0x3e5fd48d	0.21858425
59	0x3e92a90f	0.28644606
60	0xbdb9ef14	-0.09078804
61	0xbddad0d3	-0.10684361
62	0xbe153999	-0.14572753
63	0x3e3d3591	0.18477465
64	0x3cf50103	0.029907709
65	0xbe192bab	-0.14958064
66	0x3e621564	0.22078472
67	0xbea13b80	-0.31490707
68	0xbe81787b	-0.25287232
69	0x3de4e74c	0.11176929
70	0xbd3f3d79	-0.046689484
71	0xbdf50d25	-0.11965398
72	0x3d197591	0.037465636
73	0x3e8e7109	0.27820614
74	0x3d2ec16a	0.042664923
75	0x3db4268f	0.08796417
76	0x3e975ecb	0.2956451
77	0xbde91d98	-0.11382598
78	0x3e9782d3	0.29591998
79	0x3d0cc852	0.034370728
80	0x3e9f73d1	0.31143048
81	0xbdf8a142	-0.121401325
82	0x3e9229fb	0.28547654
83	0x3e8c1839	0.2736223
84	0x3de20821	0.11036707
85	0x3d8ee8d8	0.06978005
86	0xbc2c0891	-0.010500089
87	0x3d068330	0.032839954
88	0x3e4c1405	0.19929512
89	0x3e30ab73	0.17252903
90	0x3e65618f	0.22400497
91	0x3e1af1ac	0.15131253
92	0xbe7569ca	-0.23966137
93	0x3d9ab29b	0.075535975
94	0xbcc13a3f	-0.023587344
95	0x3d89b267	0.06723481
96	0xbe29769b	-0.1654915
97	0xbe98a5aa	-0.29813892
98	0xbda8ee57	-0.08248585
99	0xbda72cb9	-0.08162827

gin_layers.2.nn.2.bias f4 [10]
0	0x3e9766d0	0.29570627
1	0xbe3055ca	-0.17220226
2	0x3e50b6e1	0.20382263
3	0xbe93ba00	-0.28852844
4	0x3e777af0	0.2416799
5	0xbda299f3	-0.0793952
6	0x3b47958d	0.003045413
7	0x3d57a748	0.052649766
8	0xbea116c5	-0.31462684
9	0x3e30e27b	0.17273895

gin_layers.2.nn.3.weight f4 [10]
0	0x3f800000	1.0
1	0x3f800000	1.0
2	0x3f800000	1.0
3	0x3f800000	1.0
4	0x3f800000	1.0
5	0x3f800000	1.0
6	0x3f800000	1.0
7	0x3f800000	1.0
8	0x3f800000	1.0
9	0x3f800000	1.0

gin_layers.2.nn.3.bias f4 [10]
0	0x00000000	0.0
1	0x00000000	0.0
2	0x00000000	0.0
3	0x00000000	0.0
4	0x00000000	0.0
5	0x00000000	0.0
6	0x00000000	0.0
7	0x00000000	0.0
8	0x00000000	0.0
9	0x00000000	0.0

gin_layers.2.nn.3.running_mean f4 [10]
0	0x00000000	0.0
1	0x00000000	0.0
2	0x00000000	0.0
3	0x00000000	0.0
4	0x00000000	0.0
5	0x00000000	0.0
6	0x00000000	0.0
7	0x00000000	0.0
8	0x00000000	0.0
9	0x00000000	0.0

gin_layers.2.nn.3.running_var f4 [10]
0	0x3f800000	1.0
1	0x3f800000	1.0
2	0x3f800000	1.0
3	0x3f800000	1.0
4	0x3f800000	1.0
5	0x3f800000	1.0
6	0x3f800000	1.0
7	0x3f800000	1.0
8	0x3f800000	1.0
9	0x3f800000	1.0

pooling_layers.0.mean_transform_layer.weight f4 [10, 10]
0	0xbde5eca4	-0.11226776
1	0x3c913571	0.017725678
2	0x3cee36a0	0.029078782
3	0xbe97ee3f	-0.29673955
4	0xbe678000	-0.22607422
5	0x3e2d3029	0.16912903
6	0xbe9a221d	-0.3010415
7	0xbb1c4cee	-0.0023849565
8	0x3e4cd5c7	0.20003425
9	0x3e8333bb	0.25625405
10	0x3e5c2ed9	0.21502246
11	0x3d2eb279	0.042650674
12	0x3debdedd	0.11517117
13	0xbe226a68	-0.15860903
14	0xbe3d06c3	-0.1845961
15	0x3e39e558	0.18153894
16	0xbe5b1718	-0.21395528
17	0xbddd7115	-0.10812584
18	0x3dc9277a	0.09821983
19	0xbe7b134f	-0.24519084
20	0x3d1c1ca1	0.03811324
21	0x3ce63944	0.028103478
22	0x3e4356e5	0.19076116
23	0x3e79c1e7	0.24390374
24	0xbd32557c	-0.043538556
25	0x3d9aba46	0.0755506
26	0x3e04cb90	0.12968278
27	0x3e7bec48	0.24601853
28	0xbce8304e	-0.028343346
29	0x3e9ea0c0	0.30982018
30	0xbe4d0069	-0.20019688
31	0xbe8eed25	-0.27915302
32	0x3e9132fa	0.28359205
33	0x3e0cf7da	0.13766423
34	0x3da0b1c1	0.07846404
35	0x3e4c1e56	0.19933447
36	0x3e47b96d	0.19504328
37	0xbea09895	-0.3136641
38	0x3dc33551	0.09531654
39	0xbdb79139	-0.08963246
40	0x3e068308	0.13135922
41	0x3e69c82e	0.22830269
42	0x3e852195	0.26002184
43	0xbe9afab6	-0.30269402
44	0x3e0afe34	0.13573533
45	0xbe01120e	-0.12604544
46	0xbe0575b4	-0.13033181
47	0xbe4bdc88	-0.19908345
48	0xbd4c1272	-0.04982228
49	0x3e443aed	0.19163103
50	0xbe7c0aff	-0.2461357
51	0xbe6c002d	-0.23046942
52	0x3e37676a	0.17910543
53	0x3e1a24e0	0.15053129
54	0xbe2b3a4f	-0.16721462
55	0xbe30a932	-0.17252043
56	0x3c550bcd	0.013003302
57	0x3dadf10a	0.0849324
58	0x3e88d5b2	0.26725537
59	0x3e21419e	0.15747687
60	0x3e2e09ec	0.16995972
61	0x3e7461ff	0.23865508
62	0xbe4f67a4	-0.2025438
63	0xbe2e09af	-0.16995881
64	0xbe4c8232	-0.1997154
65	0x3c16b0a0	0.009197384
66	0x3e89a294	0.2688185
67	0x3e7623d2	0.24037102
68	0xbe94dae0	-0.29073238
69	0xbe8ecfe8	-0.27892995
70	0xbe19bab9	-0.15012635
71	0xbde6feca	-0.11279066
72	0xbe95b479	-0.29239252
73	0xbe91c2df	-0.28468987
74	0x3dbf2b7d	0.093344666
75	0x3e24e0fc	0.1610145
76	0x3d44c13c	0.048035845
77	0x3d926bc3	0.0714946
78	0x3d6b103f	0.05738854
79	0xbdd437df	-0.10362219
80	0xbdd03ac5	-0.101674594
81	0xbe2b25f1	-0.16713692
82	0x3dd93139	0.106050916
83	0x3926f7e0	0.00015923334
84	0x3e818cdf	0.2530279
85	0x3d97e9c5	0.07417635
86	0xbe9b6cd9	-0.30356482
87	0x3d893c13	0.067009114
88	0x3e870efc	0.2637862
89	0xbda5f57a	-0.081034616
90	0xbe1500ad	-0.14551039
91	0x3e7a0a1d	0.2441792
92	0xbe5b8dd4	-0.21440822
93	0x3e5f0ecf	0.21782993
94	0x3e63011e	0.22168395
95	0xbe9ae836	-0.30255288
96	0xbe6af801	-0.22946168
97	0x3d7d0725	0.06177439
98	0x3e97fead	0.2968649
99	0x3c6a76b8	0.014310531

pooling_layers.0.gating_layer.0.weight f4 [2, 10]
0	0xbe90faca	-0.28316337
1	0xbcff6ca1	-0.031179728
2	0xbdd98fd0	-0.10623133
3	0x3d93fc9a	0.07225914
4	0x3e4bcf31	0.19903256
5	0xbd76d748	-0.060263902
6	0x3e84b770	0.25921202
7	0xbe7dfe1a	-0.24803963
8	0x3e2a887a	0.16653624
9	0xbe0e4cf4	-0.13896543
10	0xbe4f0201	-0.20215608
11	0xbdfc3f13	-0.12316718
12	0x3d9ada64	0.07561186
13	0xbe1e6759	-0.15469112
14	0xbdba4bd5	-0.09096495
15	0xbe86e40f	-0.2634587
16	0xbc44e1ce	-0.012016727
17	0x3dad106b	0.08450397
18	0x3e2e512c	0.17023152
19	0x3d6693a1	0.056293134

pooling_layers.0.gating_layer.0.bias f4 [2]
0	0xbe3fd2ee	-0.18732807
1	0xbd5cd6a5	-0.05391564

pooling_layers.0.gating_layer.2.weight f4 [10, 2]
0	0x3f1c658e	0.6109246
1	0x3e26ac86	0.1627675
2	0xbed9d16a	-0.42542583
3	0xbe6c07e3	-0.23049884
4	0x3e3f8520	0.18703127
5	0xbf22873f	-0.6348762
6	0xbb127f87	-0.0022353844
7	0xbd7c5864	-0.061607733
8	0x3e2f2de2	0.17107347
9	0x3e802db8	0.2503488
10	0x3f001b61	0.50041777
11	0xbeb90e0b	-0.36143526
12	0xbba6be9f	-0.005088642
13	0x3eceb3b2	0.40371472
14	0x3f24f47a	0.6443554
15	0xbddf3c6a	-0.10900195
16	0x3e4d057c	0.20021623
17	0x3f0a6036	0.54053056
18	0x3edb0085	0.42773834
19	0xbe57a905	-0.2106057

pooling_layers.0.gating_layer.2.bias f4 [10]
0	0x3f010d6e	0.5041112
1	0xbe09898b	-0.13431375
2	0x3f26ccd2	0.6515628
3	0x3ecd69da	0.4011982
4	0x3f02bdce	0.5107087
5	0xbf0a23ee	-0.53961074
6	0xbf33a843	-0.7017862
7	0xbf1f9fdc	-0.623533
8	0xbeffa050	-0.49926996
9	0xbef1ead2	-0.47249466

pooling_layers.0.final_layer.weight f4 [10, 10]
0	0xbd7116ec	-0.05885975
1	0x3e1d8562	0.15382913
2	0x3e6de8ad	0.2323329
3	0x3e06ae4b	0.13152425
4	0x3e1c1c80	0.15245247
5	0x3e688335	0.22706302
6	0x3e583b1e	0.21116301
7	0x3d5e1afa	0.054224946
8	0x3dcbbe1d	0.099483706
9	0xbe5a298c	-0.21304911
10	0xbdc575bd	-0.096415974
11	0x3e74e168	0.2391411
12	0x3e946032	0.2897964
13	0x3e40e7c7	0.18838416
14	0xbdfb95f8	-0.12284464
15	0xbe66f74d	-0.22555275
16	0xbe891a7a	-0.26778013
17	0x3ccd01df	0.025025306
18	0x3bc24108	0.0059281625
19	0x3e9c493b	0.3052462
20	0x3d9d8d40	0.07692957
21	0x3da3bd37	0.07995074
22	0x3d07b05b	0.03312717
23	0x3e18238f	0.14857315
24	0xbe2cb51c	-0.16865963
25	0x3db9adea	0.090663746
26	0xbe865882	-0.262394
27	0x3e6e88ce	0.23294374
28	0x3e0c3df1	0.13695504
29	0xbe0f70e7	-0.14007913
30	0xbe369288	-0.17829335
31	0x3e1cd806	0.15316781
32	0xbd60a941	-0.054848913
33	0xbc96274e	-0.018329289
34	0x3c26d49d	0.010182527
35	0x3dc5bab2	0.0965475
36	0xbe45473c	-0.19265455
37	0x3e1c4bfc	0.1526336
38	0xbcd56523	-0.026049202
39	0x3e397a0e	0.18112966
40	0xbe1d2277	-0.15345179
41	0xbe4455d8	-0.19173372
42	0x3ca04fcd	0.019569302
43	0xbd18a078	-0.03726241
44	0x3dd1199d	0.102099635
45	0x3e6f0e8b	0.23345391
46	0xbe3d383e	-0.18478486
47	0xbccfb8b4	-0.025356628
48	0x3e09fb02	0.13474658
49	0xbd8570b4	-0.06515637
50	0x3d97ff04	0.07421687
51	0xbe84e362	-0.2595473
52	0x3d851ae3	0.06499269
53	0x3e0291cf	0.12750934
54	0xbe86e230	-0.26344442
55	0xbd80f85f	-0.06297373
56	0x3e48ecfc	0.19621652
57	0x3d7eefea	0.06224052
58	0xbd963c04	-0.07335666
59	0x3cad89a7	0.021183802
60	0xbcd7e65e	-0.026354965
61	0xbe93cdae	-0.2886786
62	0xbbd3992f	-0.00645747
63	0xbe027d25	-0.12743051
64	0xbbcbf8cb	-0.006224727
65	0xbdf1b500	-0.11802101
66	0x3e78a4bf	0.24281596
67	0xbe0f18a2	-0.1397424
68	0x3ea04cb0	0.31308508
69	0xbe486e84	-0.19573408
70	0xbe760926	-0.24026927
71	0xbe87aef9	-0.2650068
72	0xbe58633a	-0.21131602
73	0xbdb4ff09	-0.088377066
74	0xbe37de9d	-0.17956014
75	0x3d98e3f2	0.07465352
76	0x3ddbc4f3	0.107309245
77	0xbd9ae4cf	-0.07563173
78	0xbd859c39	-0.06523938
79	0xbe39437f	-0.18092154
80	0xbe3f0eac	-0.1865794
81	0x3e9ac78d	0.3023037
82	0x3ea02713	0.3127981
83	0x3e4df7db	0.2011408
84	0xbe9cb53e	-0.30607027
85	0x3e09fe7a	0.13475981
86	0x3dc5f82f	0.09666478
87	0xbe26a969	-0.16275562
88	0x3e502060	0.2032485
89	0xbd4f700d	-0.05064397
90	0xbe3f2acc	-0.1866867
91	0x3e926324	0.28591263
92	0xbe0de311	-0.1385615
93	0xbe957741	-0.29192546
94	0x3ea06f98	0.3133514
95	0x3e7b2a0f	0.24527763
96	0x3e88ee76	0.2674443
97	0xbdfe1e65	-0.12408141
98	0x3d83c05c	0.06433174
99	0x3e09547e	0.13411137

pooling_layers.0.final_layer.bias f4 [10]
0	0xbe4f53c9	-0.20246805
1	0xbe28bb6b	-0.16477744
2	0xbe811bdc	-0.25216568
3	0x3cfc1995	0.030773917
4	0x3e4dd918	0.20102346
5	0xbd0ae5c2	-0.03391052
6	0xbe4bb73f	-0.19894122
7	0x3dd2a046	0.10284476
8	0x3e2e7985	0.17038544
9	0x3e0a58b0	0.13510394

pooling_layers.1.mean_transform_layer.weight f4 [10, 10]
0	0xbea03b35	-0.3129517
1	0xbe8814c6	-0.2657835
2	0x3e932e8b	0.28746447
3	0x3e5f7472	0.21821764
4	0x3dd2d8dc	0.10295269
5	0xbe60024b	-0.21875875
6	0x3ddaa0e0	0.10675216
7	0x3e0fc706	0.14040765
8	0xbe137d2c	-0.14403218
9	0xbe91563f	-0.28386113
10	0x3e77a796	0.24185023
11	0x3e876cf5	0.26450315
12	0xbea08472	-0.31351048
13	0x3e745d92	0.23863819
14	0x3e6d7150	0.23187757
15	0x3e9f909e	0.31165022
16	0x3dc235e7	0.09482937
17	0x3e3820d2	0.1798127
18	0xbe4eddd3	-0.20201807
19	0x3e493ff7	0.19653307
20	0x3e957057	0.2918727
21	0x3bbc62a2	0.0057490626
22	0x3e08a6c9	0.13344873
23	0x3e13723b	0.14399044
24	0xbd8ed279	-0.06973738
25	0xbe47fb51	-0.19529463
26	0xbe46da7e	-0.19419286
27	0x3e30efad	0.17278929
28	0x3e732c09	0.23747267
29	0xbe755185	-0.23956878
30	0xbe156cc0	-0.14592266
31	0x3e71ebaa	0.23625055
32	0xbd79b284	-0.06096126
33	0xbe78c8e5	-0.24295385
34	0xbda4f240	-0.08054018
35	0xbe03ccfb	-0.12871163
36	0xbe87228e	-0.2639355
37	0xbe3fb6f7	-0.1872214
38	0xbd8df5c4	-0.06931642
39	0x3e076642	0.13222602
40	0xbe8f6c18	-0.28012156
41	0xbe2ccde7	-0.1687542
42	0x3e8a1aab	0.2697347
43	0xbe884a4e	-0.2661919
44	0x3e4d2f17	0.20037495
45	0x3ea07af9	0.3134382
46	0x3e9754af	0.29556796
47	0xbe8d89de	-0.27644247
48	0x3cf4c2b7	0.029878004
49	0x3e3401a6	0.17578754
50	0xbe00f60f	-0.12593864
51	0x3e8d5138	0.27601027
52	0xbe992c22	-0.29916483
53	0x3cf62ae6	0.030049752
54	0x3e6149ba	0.2200078
55	0x3e6b7aec	0.2299611
56	0x3dc22057	0.094788246
57	0xbdf7d3e3	-0.12100961
58	0x3e5dce85	0.21660812
59	0xbe238ad4	-0.15970927
60	0xbe8c5803	-0.27410898
61	0x3da94e47	0.08266883
62	0x3d83413c	0.06408927
63	0x3e36244f	0.17787288
64	0xbdf5a749	-0.11994798
65	0xbe7cd205	-0.24689491
66	0xbdcf4a52	-0.10121597
67	0x3e706800	0.23477173
68	0x3d0d013e	0.034425013
69	0xbcd3f780	-0.025874853
70	0x3c966d45	0.01836265
71	0xbd1e3827	-0.03862777
72	0x3d66da9f	0.056360837
73	0xbdae3ef3	-0.085081
74	0x3d5e991d	0.05434524
75	0x3d952a4d	0.07283459
76	0x3df7eee3	0.12106111
77	0xbde3bae7	-0.11119633
78	0x3de50d11	0.11184133
79	0xbd04e15f	-0.032441493
80	0x3e99d43d	0.30044737
81	0x3e692d56	0.227712
82	0x3e05abe0	0.13053846
83	0x3b672b7f	0.0035273728
84	0xbdb8534a	-0.09000261
85	0x3e68d309	0.22736754
86	0xbccca6f5	-0.024981955
87	0x3dd7fc3f	0.10546159
88	0x3e4f8afa	0.20267859
89	0xbc6230c8	-0.013805576
90	0xbe252469	-0.1612717
91	0xbe31b28a	-0.17353263
92	0xbe805b35	-0.25069585
93	0x3d954190	0.07287896
94	0xbdeae589	-0.114695616
95	0x3dbcd636	0.09220545
96	0x3e5923e4	0.21205097
97	0x3d1979eb	0.037469786
98	0x3ded7106	0.11593823
99	0xbe17bef3	-0.14818935

pooling_layers.1.gating_layer.0.weight f4 [2, 10]
0	0xbdae4101	-0.08508492
1	0x3e969bfc	0.29415882
2	0x3e7a8ab5	0.24466975
3	0x3d397cf5	0.045285184
4	0xbd094b4b	-0.03351907
5	0x3d8924f8	0.06696504
6	0xbc6d7b94	-0.014494795
7	0xbe9bcb67	-0.3042862
8	0x3e38779e	0.1801438
9	0xbe81ed9f	-0.25376603
10	0xbdb3da77	-0.08781903
11	0xbe6a2214	-0.22864562
12	0xbd3b2477	-0.045689072
13	0x3b61bb76	0.003444401
14	0x3e08dc54	0.13365299
15	0x3e7c4bd0	0.24638295
16	0x3d974036	0.07385294
17	0xbe5ac5f1	-0.21364571
18	0x3de2355e	0.11045335
19	0xbe8de2b5	-0.27712026

pooling_layers.1.gating_layer.0.bias f4 [2]
0	0x3c9653a7	0.018350435
1	0xbdca9ade	-0.0989282

pooling_layers.1.gating_layer.2.weight f4 [10, 2]
0	0x3f089575	0.53353053
1	0x3ec7e056	0.39038342
2	0xbe36d1f6	-0.17853531
3	0x3f1d9222	0.61551106
4	0xbeca9807	-0.39569113
5	0x3e62f5bf	0.22164057
6	0xbf1f65ce	-0.62264717
7	0x3ed8a139	0.42310503
8	0x3eb32bcc	0.34994352
9	0xbe27ef8a	-0.1639997
10	0xbdaf766d	-0.0856751
11	0x3ee82861	0.45343307
12	0xbd996d87	-0.07491594
13	0xbefacb35	-0.4898316
14	0xbe826291	-0.25465825
15	0x3e2033bb	0.15644734
16	0xbee02529	-0.4377835
17	0xbe225c4f	-0.15855525
18	0x3f0ed23e	0.55789554
19	0xbde18054	-0.11010805

pooling_layers.1.gating_layer.2.bias f4 [10]
0	0xbf0623df	-0.52398485
1	0x3f25d1a3	0.64773005
2	0x3f174bdd	0.59100133
3	0x3eff8763	0.4990798
4	0x3dd0b15d	0.10190079
5	0xbef40803	-0.47662362
6	0xbf08524b	-0.5325057
7	0x3e938632	0.2881332
8	0xbf01b618	-0.5066848
9	0x3e85a6c4	0.26103795

pooling_layers.1.final_layer.weight f4 [10, 10]
0	0x3e7b2836	0.24527058
1	0x3e9736f5	0.29534116
2	0x3dce6087	0.10077005
3	0xbdd975fb	-0.10618206
4	0x3e566d6d	0.2094018
5	0xbc0c7f1d	-0.008575228
6	0x3e165e19	0.14684333
7	0xbdd4654f	-0.103708856
8	0x3e8139c3	0.2523938
9	0x3e961347	0.29311582
10	0x3e9f5bcf	0.31124732
11	0xbe2b02fa	-0.16700354
12	0x3d524885	0.05133869
13	0x3e1a56af	0.1507213
14	0x3d4f5af1	0.050623838
15	0x3df60eac	0.12014517
16	0xbe80a400	-0.25125122
17	0xbdcbfa2d	-0.099598266
18	0x3cd34aff	0.025792597
19	0xbe0a7fbc	-0.1352529
20	0x3e7ab2da	0.24482289
21	0x3e96cad4	0.2945162
22	0x3e8377e6	0.25677413
23	0x3e3fc528	0.18727553
24	0xbdd60780	-0.10450649
25	0x3d2b40d4	0.04180987
26	0xbe2c40dd	-0.16821618
27	0x3e00288b	0.12515466
28	0x3e4a3f27	0.19750653
29	0xbceecf35	-0.029151538
30	0x3db88ea4	0.090115815
31	0x3e918fbb	0.2842997
32	0x3e5be4da	0.21474019
33	0x3d92b0fa	0.07162662
34	0x3b8f4b5f	0.0043729986
35	0xbe9c0d1c	-0.30478752
36	0x3dac0261	0.08398891
37	0xbd804ed6	-0.06265037
38	0x3d8d6a8c	0.06905088
39	0xbe00d9c4	-0.12583071
40	0x3e1b7b11	0.15183665
41	0xbe823e37	-0.2543809
42	0xbd6d0c95	-0.057873327
43	0xbe526e59	-0.20549907
44	0x3e94927b	0.29018006
45	0x3e022178	0.1270808
46	0xbdb003a1	-0.08594442
47	0xbe61473f	-0.21999834
48	0xbe0e0c30	-0.13871837
49	0x3e0f7c00	0.14012146
50	0xbe9bd61e	-0.30436796
51	0x3e9274ad	0.28604642
52	0xbe41cc64	-0.18925625
53	0xbe7cc5bf	-0.24684809
54	0xbd18d61c	-0.037313566
55	0xbcd29f49	-0.025710719
56	0x3e27c4f0	0.1638372
57	0xbd962590	-0.07331383
58	0x3dd7bfa1	0.10534597
59	0xbd9107a1	-0.07081533
60	0x3e13ccfa	0.14433661
61	0xbe3bc6f0	-0.18337607
62	0x3dfa8df1	0.122341044
63	0xbe9d0e70	-0.30675077
64	0x3e341266	0.17585143
65	0xbe859edc	-0.26097763
66	0xbe9d487c	-0.30719364
67	0x3d27841f	0.040897485
68	0x3c188b71	0.009310589
69	0xbdeb7612	-0.114971295
70	0xbe3ee8b7	-0.18643461
71	0x3cc3e144	0.023911126
72	0x3e04b427	0.12959348
73	0xbe329a7e	-0.17441747
74	0x3e8263fa	0.254669
75	0xbcfd7129	-0.030937748
76	0x3e0539ef	0.13010381
77	0xbe8d51bb	-0.27601418
78	0x3e875907	0.2643511
79	0x3d8a4078	0.06750578
80	0x3dace12a	0.08441384
81	0xbe4b3280	-0.19843483
82	0x3e578fe9	0.21050991
83	0x3e1afb6b	0.15134971
84	0x3e939813	0.2882696
85	0x3e42c50e	0.19020483
86	0x3d5c086d	0.053718973
87	0xbe806783	-0.25078973
88	0xbcc4ddc6	-0.024031531
89	0xbd049eed	-0.032378126
90	0x3e1407d9	0.14456119
91	0x3e3c939e	0.18415686
92	0x3e6b9566	0.2300621
93	0x3dc3cd48	0.09560639
94	0xbdb4dc36	-0.088310644
95	0xbe6dfc13	-0.2324069
96	0xbe6cde6f	-0.23131727
97	0xbd6a6970	-0.05722946
98	0x3e238393	0.1596816
99	0x3e238353	0.15968065

pooling_layers.1.final_layer.bias f4 [10]
0	0x3ce5b07f	0.028038261
1	0x3e2f51af	0.17121004
2	0xbe6e216b	-0.23254935
3	0xbe244eff	-0.1604576
4	0xbe3265fd	-0.17421718
5	0xbe6f9d1a	-0.23399773
6	0x3e99486b	0.29938063
7	0x3d8952ec	0.06705269
8	0xbe4dda6b	-0.20102851
9	0x3dedc15e	0.116091475

pooling_layers.2.mean_transform_layer.weight f4 [10, 10]
0	0xbe8da279	-0.2766302
1	0xbe263460	-0.16230917
2	0xbe89eb1a	-0.2693718
3	0xbe484b53	-0.19559984
4	0xbe03c52c	-0.12868184
5	0xbe9ed9be	-0.310255
6	0xbd3ac10d	-0.045594264
7	0xbe84f4f7	-0.25968143
8	0x3e44285b	0.1915602
9	0xbcf3596c	-0.029705726
10	0xbe3ed22c	-0.18634862
11	0x3e952ef1	0.29137376
12	0x3e40bfef	0.18823217
13	0x3dd5005c	0.10400459
14	0xbe1fa37d	-0.1558971
15	0x3e563974	0.20920354
16	0xbc73930e	-0.014866604
17	0xbdc29dc8	-0.09502751
18	0x3e9406c4	0.28911412
19	0x3e477f29	0.19482102
20	0xbe26bfe9	-0.16284145
21	0x3c3254b2	0.010884451
22	0x3e945e7a	0.2897833
23	0x3d902457	0.07038181
24	0x3da79885	0.08183388
25	0xbe85c54a	-0.26127082
26	0x3d9c1893	0.07621875
27	0xbe0aec8e	-0.13566801
28	0xbe16622e	-0.1468589
29	0x3e9a7aed	0.3017191
30	0xbe02040d	-0.12696858
31	0xbcdb074b	-0.026736876
32	0x3e71782c	0.23580998
33	0xbe8bb477	-0.2728612
34	0x3e5abc1f	0.21360825
35	0x3da5de88	0.08099085
36	0x3d929cd6	0.0715882
37	0xbe3e6d89	-0.18596472
38	0x3e571e65	0.21007688
39	0x3e96173d	0.29314604
40	0x3e8c62f4	0.27419245
41	0xbc3c61af	-0.011497899
42	0x3dc0b073	0.09408655
43	0x3dbd12de	0.09232114
44	0xbe0d56af	-0.13802598
45	0xbe8fc91b	-0.2808312
46	0x3df85817	0.12126177
47	0xbe87fb83	-0.26559076
48	0x3dbe6819	0.09297199
49	0x3e7d174b	0.24715917
50	0x3e362c3e	0.17790315
51	0xbe622a06	-0.22086343
52	0xbdd34321	-0.10315538
53	0x3e024397	0.12721096
54	0xbd90b555	-0.07065836
55	0x3e94a61d	0.29032984
56	0xbcc86199	-0.0244606
57	0x3df86990	0.121295094
58	0x3d0935de	0.033498637
59	0xbe6aef1a	-0.22942773
60	0x3e756161	0.23962928
61	0xbd4eada6	-0.050458573
62	0xbe9b4777	-0.3032796
63	0x3e93724a	0.28798133
64	0x3df197a1	0.11796499
65	0xbd98e6a7	-0.074658684
66	0xbe858ae0	-0.26082516
67	0xbe982aed	-0.2972025
68	0x3e61332b	0.21992175
69	0x3d9c45d1	0.07630504
70	0x3d65198a	0.05593256
71	0xbe8abe46	-0.27098292
72	0xbdc77361	-0.09738804
73	0x3e77df0e	0.24206182
74	0x3dae31e3	0.08505609
75	0xbd401a52	-0.0469001
76	0xbe126b0f	-0.14298652
77	0xbd8f3754	-0.06992975
78	0xbe1f4142	-0.15552238
79	0xbe9b7e0d	-0.30369607
80	0x3e37d974	0.17954046
81	0xbdc093cf	-0.09403192
82	0xbdc9129b	-0.09818002
83	0x3e5d762a	0.21627107
84	0x3ce77a28	0.02825649
85	0xbda6ee31	-0.081509
86	0xbdbfc4fa	-0.09363742
87	0xbe20cc93	-0.15703039
88	0x3e93f272	0.2889591
89	0x3e323a5c	0.17405075
90	0x3e19f0a6	0.15033206
91	0x3e6eebce	0.2333214
92	0xbe9eba48	-0.31001496
93	0x3e9c82c6	0.30568522
94	0xbe2b6ec5	-0.16741474
95	0x3d8c3282	0.06845571
96	0xbe44e05c	-0.19226211
97	0xbd8fdc06	-0.07024388
98	0x3ea0aef5	0.31383482
99	0x3e2119ad	0.15732451

pooling_layers.2.gating_layer.0.weight f4 [2, 10]
0	0xbcade8c2	-0.021229152
1	0x3acd1a75	0.0015648144
2	0xbe699cb3	-0.22813682
3	0xbcd51abf	-0.02601373
4	0xbcebb9d3	-0.028775131
5	0x3e28b05c	0.16473526
6	0x3d9e1975	0.07719699
7	0x3e8fa931	0.2805877
8	0x3e94a9d2	0.29035813
9	0xbe5dfa8e	-0.2167761
10	0xbd5c6fdf	-0.053817626
11	0xbd28e7f5	-0.041236836
12	0xbe4b69c5	-0.19864567
13	0xbdcb3eac	-0.09924063
14	0x3e5202f1	0.20508935
15	0xbe344317	-0.17603718
16	0x3d856a0b	0.06514367
17	0x3e8096d0	0.2511506
18	0x3d038266	0.03210678
19	0xbe621781	-0.22079279

pooling_layers.2.gating_layer.0.bias f4 [2]
0	0x3ceb9c42	0.028761033
1	0x3db2aba8	0.08724147

pooling_layers.2.gating_layer.2.weight f4 [10, 2]
0	0x3ee5f208	0.44911218
1	0xbe65f309	-0.22455992
2	0xbe426afe	-0.18986127
3	0x3ec36376	0.3816182
4	0xbf240adf	-0.6407909
5	0xbf3367e1	-0.7008038
6	0xbdac7d67	-0.08422356
7	0xbdf2fd77	-0.11864751
8	0xbf06fdfe	-0.5273131
9	0xbe360abc	-0.17777532
10	0x3f0e5aeb	0.5560748
11	0xbeabcf03	-0.33556375
12	0xbe88c4e4	-0.26712716
13	0xbeb9b598	-0.36271358
14	0xbd1386c0	-0.03601718
15	0xbeba9231	-0.3643966
16	0x3e096027	0.13415585
17	0x3b94ea3f	0.004544526
18	0x3f2e88d8	0.68177557
19	0xbdb245a5	-0.0870469

pooling_layers.2.gating_layer.2.bias f4 [10]
0	0xbe5957fa	-0.21224967
1	0xbea88824	-0.32916367
2	0x3f23d53f	0.6399726
3	0x3f24c8a3	0.6436865
4	0xbf11e219	-0.5698562
5	0x3e9bd73d	0.3043765
6	0xbf00c7ed	-0.5030506
7	0x3f090e91	0.5353785
8	0xbe261f5e	-0.16222903
9	0xbdbeaf4b	-0.09310778

pooling_layers.2.final_layer.weight f4 [10, 10]
0	0x3e952b1a	0.29134446
1	0x3e3b0589	0.1826383
2	0xbe8cad5e	-0.2747602
3	0x3e9aa6be	0.3020534
4	0x3e3b2a6a	0.18277898
5	0xbe823ff4	-0.25439417
6	0xbe0086e5	-0.12551458
7	0xbd16852f	-0.036748108
8	0x3e53ecba	0.20695773
9	0x3e3931a8	0.18085349
10	0xbe8f838b	-0.28030047
11	0xbdcca616	-0.09992616
12	0x3e106a6f	0.14103101
13	0xbe927758	-0.28606677
14	0x3a8ea4b8	0.001088283
15	0x3e360804	0.17776495
16	0x3e68942f	0.22712778
17	0x3e3f4a22	0.18680623
18	0xbe92fb9a	-0.28707582
19	0x3ddb0ac6	0.10695414
20	0x3e8f8e51	0.28038266
21	0xbe42c178	-0.19019115
22	0x3d9a42eb	0.07532295
23	0x3d4f1c21	0.050563935
24	0xbe7133f3	-0.23554973
25	0xbe5d8bf4	-0.21635419
26	0xbdc5e045	-0.09661917
27	0x3e4c1fde	0.19934031
28	0xbdb84209	-0.0899697
29	0xbe9f8360	-0.3115492
30	0xbdd933ee	-0.10605608
31	0x3e790ae1	0.24320556
32	0x3dd4d42b	0.1039203
33	0xbc85d4ab	-0.01633676
34	0xbe54fe09	-0.20800032
35	0x3e8df29e	0.27724165
36	0xbda5cf27	-0.08096152
37	0xbe7cd805	-0.2469178
38	0xbbeb06c2	-0.0071724365
39	0xbbc94bd8	-0.0061430745
40	0x3ddd0499	0.107918926
41	0xbd017368	-0.0316042
42	0x3db0b32d	0.08627925
43	0x3cf78b7e	0.030217882
44	0x3e57528b	0.21027581
45	0xbb04acc2	-0.0020244573
46	0x3dd0e3db	0.1019971
47	0x3d707b61	0.058711413
48	0x3e924a2d	0.28572217
49	0xbe54e444	-0.20790201
50	0xbe13ee01	-0.1444626
51	0xbd52f6af	-0.051504787
52	0x3e985767	0.29754183
53	0xbe14f13e	-0.14545152
54	0xbe155be1	-0.1458583
55	0xbe5f7a0d	-0.21823902
56	0xbe52be67	-0.20580445
57	0xbc23baba	-0.00999325
58	0x3e8e1039	0.27746752
59	0x3db95de4	0.09051111
60	0x3e2071c2	0.15668395
61	0xbd371fbd	-0.044708002
62	0xbe0d903c	-0.13824552
63	0x3c8e45ee	0.01736733
64	0xbe8f264d	-0.2795891
65	0x3e352955	0.17691548
66	0x3e5efe30	0.21776652
67	0xbe85c473	-0.2612644
68	0x3dda6f5e	0.10665773
69	0x3e9f130f	0.31069228
70	0x3c25c2eb	0.010117273
71	0x3e5142c8	0.20435631
72	0xbd20ec60	-0.039287925
73	0x3e0e5efd	0.13903423
74	0x3e8bb7e0	0.27288723
75	0xbe3543d8	-0.17701662
76	0x3e09f511	0.13472392
77	0xbe3f2819	-0.1866764
78	0xbe493c82	-0.19651988
79	0xbe0bbb66	-0.13645706
80	0xbe731b2f	-0.23740838
81	0xbe5ffe6e	-0.21874401
82	0x3d79cab5	0.060984332
83	0xbe90213d	-0.2815036
84	0xbe814f62	-0.25255877
85	0x3d94c674	0.072644144
86	0x3e96db5f	0.29464242
87	0x3dee65b5	0.11640493
88	0x3e06e60c	0.13173693
89	0xbe2ecc95	-0.1707023
90	0xbe8b05d7	-0.27152893
91	0xbc5ed704	-0.013601068
92	0x3d23e014	0.04000862
93	0x3e4fe256	0.20301184
94	0xbe69f61d	-0.22847791
95	0x3c38e406	0.011284834
96	0xbde2b3ae	-0.110694274
97	0xbe9a5cd9	-0.30148962
98	0x3c69b020	0.014263183
99	0x3cd1d54b	0.025614401

pooling_layers.2.final_layer.bias f4 [10]
0	0x3cdd0837	0.026981456
1	0xbe9e0c82	-0.30868918
2	0x3e548993	0.20755605
3	0xbe974179	-0.2954214
4	0xbde34ca8	-0.110986054
5	0xbe0580b1	-0.13037373
6	0xbe21bb23	-0.15794043
7	0x3e169bd5	0.14707883
8	0x3dadb3c5	0.08481554
9	0x3ea0cce3	0.31406316

interaction_layers.0.gating_layer.0.weight f4 [5, 20]
0	0x3e1d383b	0.15353481
1	0x3e04fd5d	0.12987275
2	0x3df49933	0.11943283
3	0xbe11b473	-0.14228992
4	0xbe4f2ce2	-0.20231965
5	0xbe1c6bdc	-0.1527552
6	0x3e2c69ab	0.16837184
7	0xbdf1e143	-0.118105434
8	0xbddd7fe0	-0.10815406
9	0xbdbe7bb9	-0.09300942
10	0x39cffb76	0.0003966947
11	0x3e2fd735	0.17171939
12	0x3d1a73f1	0.037708227
13	0xbd86b675	-0.0657777
14	0xbe38d5fc	-0.18050379
15	0xbd2e83b0	-0.042606056
16	0x3d28e94e	0.04123812
17	0x3df3390f	0.118761174
18	0x3e13c05e	0.14428851
19	0x3e52f55a	0.20601407
20	0xbe4c0430	-0.19923472
21	0xbdbb88d3	-0.091569565
22	0x3dd65d69	0.10467035
23	0x3e43aeb5	0.19109614
24	0x3e49cce8	0.19707072
25	0x3b093343	0.0020935095
26	0x3e5fb08a	0.21844688
27	0xbddf6342	-0.10907604
28	0x3ca2dce2	0.019880716
29	0x3e2c6175	0.16834052
30	0x3d8fd392	0.07022776
31	0x3e2ab13a	0.16669169
32	0xbe04c67c	-0.12966341
33	0x3d8ff4a6	0.07029085
34	0xbe1cadbc	-0.1530065
35	0x3c94dd23	0.018171852
36	0x3e0af1da	0.13568822
37	0xbe0d7497	-0.13814007
38	0xbe0e88a4	-0.13919312
39	0x3e30aa3e	0.17252442
40	0x3c348560	0.011018127
41	0xbcc8041c	-0.024416022
42	0x3d001846	0.03127315
43	0x3dfe88cf	0.12428438
44	0x3e50a9b7	0.20377241
45	0xbe50e19f	-0.20398568
46	0xbe5a50ac	-0.21319836
47	0xbe0cc0a1	-0.13745357
48	0x3c889032	0.01667032
49	0xbd9250e4	-0.07144335
50	0x3e23175c	0.1592688
51	0xbc6bc245	-0.014389579
52	0x3e50e505	0.20399864
53	0x3e1c5f90	0.15270829
54	0x3d7acaaf	0.06122845
55	0x3db40673	0.087902926
56	0x3d3bb113	0.045823168
57	0x3e63fd2b	0.22264545
58	0x3bf70794	0.007538745
59	0xbe2f69db	-0.17130224
60	0x3d3f56b8	0.04671356
61	0xbd77c8e3	-0.060494315
62	0x3b3f8ba1	0.0029227512
63	0x3e295e36	0.16539845
64	0x3b99603c	0.0046806615
65	0xbc89cde3	-0.016821807
66	0x3b00b155	0.0019636948
67	0xbe4d502f	-0.20050119
68	0x3e2ccdb6	0.16875347
69	0x3cc5cfc9	0.024146931
70	0xbcb6e2a0	-0.02232486
71	0xbe5e2419	-0.21693458
72	0x3e21fcbd	0.15819068
73	0x3e09f3ef	0.1347196
74	0x3dfbc160	0.12292743
75	0x3e0b45c5	0.13600834
76	0xbdd42f35	-0.103605665
77	0x3db8f4d6	0.09031074
78	0xbe1831cd	-0.14862747
79	0x3da030a2	0.07821776
80	0xbde4f6ce	-0.11179887
81	0xbe5a4329	-0.21314682
82	0xbdfd01ca	-0.12353857
83	0xbe62ab84	-0.2213574
84	0x3e45673c	0.19277662
85	0x3df2f85a	0.118637756
86	0xbd8a6a1a	-0.067585185
87	0xbcf8830a	-0.030335922
88	0x3d669fe9	0.056304846
89	0xbe5b4210	-0.2141192
90	0xbe2b6c6a	-0.16740575
91	0x3d6dde0e	0.058073096
92	0xbc72ab72	-0.014811384
93	0xbe50e158	-0.20398462
94	0xbe2b9d69	-0.16759266
95	0x3e332534	0.1749466
96	0xbe3f543d	-0.18684478
97	0xbe5ea8b6	-0.21744046
98	0x3e1aa240	0.15100956
99	0xbe1d6bb7	-0.15373121

interaction_layers.0.gating_layer.0.bias f4 [5]
0	0xbdb517c1	-0.08842421
1	0xbd7e6bc5	-0.062114496
2	0xbd5b4835	-0.05353566
3	0x3d6974d7	0.056996193
4	0x3e034692	0.12819889

interaction_layers.0.gating_layer.2.weight f4 [20, 5]
0	0xbeb44a78	-0.35213065
1	0x3e3258e7	0.17416726
2	0x3e5ca004	0.21545416
3	0x3da577f6	0.08079521
4	0xbe0488a8	-0.12942755
5	0xbe88f3f6	-0.26748627
6	0xbe5ef2d6	-0.21772322
7	0x3ed2ee4a	0.41197425
8	0xbe3d63ba	-0.18495074
9	0xbd082a83	-0.033243667
10	0xbdb75ed6	-0.089536354
11	0xbdc55164	-0.09634665
12	0x3e998142	0.29981428
13	0xbe91b069	-0.28454903
14	0x3e313cfe	0.17308423
15	0x3ea0dd15	0.31418672
16	0x3dd8f290	0.1059314
17	0x3d6ce825	0.057838578
18	0xbddd52ea	-0.1080683
19	0xbe2c83a1	-0.16847087
20	0xbe0739d3	-0.13205652
21	0x3ee3f8c0	0.4452572
22	0x3dd8bea1	0.105832346
23	0x3c62d7cd	0.013845396
24	0xbd4097e7	-0.047019865
25	0xbcb94842	-0.022617463
26	0xbe2aea46	-0.1669093
27	0x3d4ac377	0.049502816
28	0xbe0474ac	-0.12935132
29	0xbecfd4a7	-0.40591928
30	0x3bf9af58	0.0076197796
31	0xbe37f4c0	-0.17964458
32	0xbe9a28c8	-0.3010924
33	0x3ecbe8c7	0.39826033
34	0x3ee12691	0.43974736
35	0x3ed2c051	0.4116235
36	0xbd9c62c9	-0.07636029
37	0xbec4fe44	-0.3847524
38	0x3e2e9c42	0.17051795
39	0x3edd30fc	0.43201435
40	0xbe7956e8	-0.24349558
41	0xbecbd6c8	-0.39812303
42	0x3e4adb12	0.19810131
43	0xbe72cac7	-0.23710166
44	0xbe848bd4	-0.2588793
45	0x3e8c9cb4	0.27463305
46	0xbd542f58	-0.051802963
47	0xbebb7be8	-0.3661797
48	0xbdde4b98	-0.10854262
49	0x3eafed8e	0.34360927
50	0x3ea8edff	0.32994077
51	0x3e39dc45	0.18150432
52	0x3c939cc4	0.018019088
53	0xbe54ca59	-0.20780315
54	0xbd256786	-0.04038193
55	0xbe57b0d5	-0.2106355
56	0x3e489f1d	0.19591947
57	0xbea5c8ed	-0.32379857
58	0x3ecfca23	0.40583906
59	0x3e1b6550	0.15175366
60	0xbdd4dd49	-0.10393769
61	0x3e018240	0.12647343
62	0xbec175ef	-0.3778529
63	0xbecdb37a	-0.40175992
64	0x3dd7fef1	0.10546673
65	0xbe7f84f8	-0.24953067
66	0xbe8f410a	-0.27979308
67	0x3ec4ca43	0.38435563
68	0xbe5b82eb	-0.2143666
69	0x3e00bc58	0.12571847
70	0xbeb101a0	-0.34571552
71	0xbde594c8	-0.112100184
72	0xbe0f4b16	-0.13993487
73	0xbe2037d8	-0.15646303
74	0xbe42be24	-0.19017845
75	0x3e511b29	0.20420517
76	0x3deefa5f	0.11668848
77	0xbd4b80b2	-0.04968328
78	0x3e104702	0.14089587
79	0x3e5e493b	0.21707623
80	0x3c04b01c	0.008098628
81	0xbea6d38d	-0.32583275
82	0x3e8c0a8b	0.27351794
83	0x3e18af39	0.14910592
84	0x3e8c8b67	0.27450106
85	0xbecae1a7	-0.39625284
86	0xbd9b6ace	-0.07588731
87	0x3d672401	0.05643082
88	0x3e220a0d	0.15824147
89	0x3e8c257e	0.27372354
90	0xbebeefdf	-0.37292382
91	0xbed6ab7c	-0.41927707
92	0xbe70fc72	-0.235338
93	0x3ed1d687	0.40983984
94	0xbeb7d0ab	-0.3590139
95	0x3eccc365	0.39992824
96	0x3cacff90	0.021117955
97	0xbe0950b9	-0.134097
98	0xbe695a6e	-0.22788402
99	0xbe4491db	-0.19196264

interaction_layers.0.gating_layer.2.bias f4 [20]
0	0x3e3816a8	0.17977393
1	0x3ccd3097	0.025047584
2	0xbed3528e	-0.41273922
3	0x3df79e18	0.12090701
4	0x3d63acca	0.055584706
5	0x3e2f2b5a	0.17106381
6	0x3d7e89fc	0.06214331
7	0xbee1a962	-0.4407454
8	0x3e61d08c	0.2205221
9	0xbed45f2d	-0.41478863
10	0xbe87f728	-0.26555753
11	0x3e0b72ba	0.13617983
12	0x3d456fdb	0.048202377
13	0x3df410cc	0.11917266
14	0xbec071e0	-0.3758688
15	0xbc187b43	-0.009306732
16	0xbd2f501f	-0.04280102
17	0x3ed624a7	0.4182484
18	0xbea81256	-0.3282649
19	0x3eaa1e77	0.33226368

interaction_layers.0.final_layer.0.weight f4 [20, 20]
0	0xbe4a5684	-0.19759566
1	0xbdcfe5e6	-0.101512715
2	0xbd454175	-0.048158128
3	0x3e07479b	0.13210909
4	0x3d17eedd	0.037093032
5	0xbe37e0f1	-0.17956902
6	0xbdbc2d34	-0.09188309
7	0xbe2cd503	-0.16878133
8	0x3e187c57	0.14891182
9	0xbdcc3e05	-0.09972767
10	0x3dfd94c5	0.12381891
11	0xbd48d6e3	-0.049033057
12	0x3e393138	0.18085182
13	0x3dc4ea0e	0.09614955
14	0x3d8ca58b	0.06867512
15	0x3ded9b9e	0.11601947
16	0xbd7152f4	-0.058917
17	0x3da33348	0.079687655
18	0xbd2b0e02	-0.041761406
19	0x3e1ead11	0.15495707
20	0x3d8de2b7	0.06928008
21	0xbd9aa7e7	-0.07551556
22	0x3e63f20b	0.22260301
23	0xbcd8e09e	-0.026474293
24	0xbe609307	-0.21931086
25	0x3e51cda7	0.20488606
26	0xbe61009a	-0.21972886
27	0x3e642e7d	0.22283359
28	0xbc8cd162	-0.017189685
29	0x3e13babb	0.14426701
30	0x3d87aa98	0.06624335
31	0x3e439975	0.19101508
32	0xbd4de43b	-0.050266486
33	0xbe5ae3a5	-0.21375902
34	0x3c8a806f	0.016906945
35	0xbe2134d6	-0.15742812
36	0x3e381f25	0.1798063
37	0xbe44753e	-0.1918535
38	0x3e047948	0.1293689
39	0xbd43006a	-0.047607817
40	0xbdf9ac37	-0.121910505
41	0xbd80ee92	-0.06295504
42	0x3e3865e9	0.18007626
43	0x3d9c486d	0.076310016
44	0x3d9975f8	0.07493204
45	0x3ddea167	0.10870629
46	0x3e3cd0b8	0.18438995
47	0x3e62ae90	0.22136903
48	0xbd3a9f37	-0.045561995
49	0x3dbdddb7	0.092708044
50	0x3de6aabd	0.112630345
51	0x3e33eb16	0.17570147
52	0x3e16760d	0.1469347
53	0x3e50fc54	0.20408756
54	0x3c187703	0.009305718
55	0x3ca6d9a6	0.020367455
56	0xbe4ad14d	-0.19806404
57	0x3e15a311	0.14612986
58	0x3e3a7da8	0.18211997
59	0x3dfad3d6	0.12247436
60	0x3e0ac1b3	0.13550453
61	0xbdcedfdf	-0.10101294
62	0xbcaff6b5	-0.021479944
63	0x3e030ebb	0.12798588
64	0xbdbe1c86	-0.09282784
65	0x3ca5c461	0.020235242
66	0xbe61e7c3	-0.22061066
67	0x3dadcde2	0.08486535
68	0x3e288f97	0.16461025
69	0x3e5ac22f	0.21363138
70	0x3e3f3597	0.18672787
71	0xbdc27419	-0.094948
72	0xbe33f4ef	-0.17573904
73	0x3df50ac7	0.11964946
74	0x3e275343	0.16340356
75	0xbd811a9c	-0.063039035
76	0xbe46014e	-0.19336435
77	0xbdfc7d63	-0.12328603
78	0x3e348de5	0.17632253
79	0xbd65ea2c	-0.056131527
80	0x3da9d304	0.08292201
81	0xbc6d9e1b	-0.014503027
82	0xbe1bf715	-0.15230973
83	0x3dd9e970	0.10640228
84	0xbdfca077	-0.12335294
85	0xbc691596	-0.014226338
86	0x3be08372	0.006851607
87	0x3cd28222	0.025696818
88	0x3e4ec31e	0.20191619
89	0x3e2c179b	0.1680588
90	0xbdebec8f	-0.11519729
91	0xbe0b1c16	-0.13584933
92	0x3dee8640	0.116467
93	0xbdac31ed	-0.0840796
94	0xbe254204	-0.16138464
95	0x3d2334ee	0.0398454
96	0x3dcab21c	0.09897253
97	0xbdf26f4f	-0.11837637
98	0xbe32f3eb	-0.1747586
99	0xbd91ab0f	-0.07112705
100	0xbdf9292a	-0.121660545
101	0xbe081160	-0.13287878
102	0xbe4fd0ef	-0.20294546
103	0x3da76a4c	0.081745714
104	0xbcd653da	-0.02616303
105	0xbdfa4123	-0.12219455
106	0xbd9a0fe4	-0.07522562
107	0xbe29ad3a	-0.16569987
108	0xbe2d5f34	-0.16930848
109	0x3c6055f0	0.013692364
110	0xbcf3525e	-0.029702362
111	0x3d9c017d	0.07617471
112	0xbe42211b	-0.18957941
113	0x3d6bc908	0.057564765
114	0xbdbd5555	-0.092447914
115	0xbdb8bf3a	-0.090208486
116	0xbe47d1b4	-0.19513589
117	0xbd350610	-0.044195235
118	0xbde3e7f2	-0.111282244
119	0xbda6c737	-0.08143466
120	0xbddd6312	-0.10809912
121	0x3e16d508	0.14729702
122	0x3becb2c2	0.007223458
123	0x3e2e5b0e	0.17026922
124	0xbc7e9030	-0.015537307
125	0xbdc42166	-0.09576683
126	0x3e5632c8	0.20917809
127	0x3d9ab5fd	0.07554243
128	0x3e09857c	0.13429826
129	0x3e4e1e99	0.2012886
130	0x3dc89714	0.09794441
131	0xbc2878b8	-0.010282688
132	0xbdf48785	-0.11939911
133	0xbdd3acf8	-0.103357255
134	0x3d974a47	0.07387214
135	0x3e0216bd	0.12703986
136	0x3d9fce3f	0.0780301
137	0xbe12a58c	-0.14320964
138	0xbd610ac8	-0.054941922
139	0x3e462266	0.1934906
140	0xbdaae13b	-0.083437406
141	0xbe59cab6	-0.21268734
142	0x3d4b9390	0.049701273
143	0xbc6f985a	-0.014623726
144	0x3d5dea5a	0.054178573
145	0xbe503bee	-0.20335361
146	0x3c72e579	0.014825218
147	0xbdfe3c36	-0.12413828
148	0x3deaad63	0.11458852
149	0xbb753929	-0.0037418103
150	0xbc1d69bf	-0.009607731
151	0x3dfa02bc	0.12207553
152	0xbe4bf459	-0.1991743
153	0xbe2e3fc3	-0.1701651
154	0x3e63fd37	0.22264563
155	0xbdf86627	-0.12128859
156	0x3dc1d109	0.094636984
157	0xbd71da4a	-0.059046067
158	0xbd1020a1	-0.035187367
159	0x3e179abf	0.14805125
160	0x3b504540	0.0031779557
161	0x3d3baf6d	0.045821596
162	0x3dd53794	0.10410991
163	0x3e208523	0.15675788
164	0xbe01f34c	-0.12690467
165	0x3de5ab6c	0.11214337
166	0x3deefa06	0.11668782
167	0xbd77dfab	-0.06051604
168	0x3e0e02a8	0.13868201
169	0x3dc675db	0.09690448
170	0x3dad01e9	0.0844763
171	0x3dd70505	0.10499004
172	0xbcba47ac	-0.022739254
173	0xbbea6351	-0.0071529527
174	0xbe14ad20	-0.14519167
175	0x3e1791cf	0.14801715
176	0xbd8adbeb	-0.06780227
177	0xbceb2239	-0.028702842
178	0x3db7f17f	0.089816086
179	0xbe024061	-0.12719871
180	0x3e5b5a9b	0.21421282
181	0x3e5a6b2e	0.21329948
182	0x3c68b287	0.0142027205
183	0x3e52bb15	0.20579179
184	0x3deed45f	0.116616
185	0x3d226dcf	0.039655503
186	0xbce7805b	-0.028259447
187	0x3c4676d1	0.012113289
188	0x3dcf2c11	0.10115827
189	0x3e174c5c	0.14775223
190	0x3e4ef201	0.20209505
191	0xbe078c6d	-0.13237162
192	0xbd605b4e	-0.054774575
193	0xbb8f6515	-0.0043760636
194	0x3dababd2	0.083823815
195	0x3e1f8efe	0.15581891
196	0x3d78a813	0.060707163
197	0xbc6788af	-0.014131709
198	0x3dd42af1	0.10359753
199	0xbcd92ba3	-0.026510065
200	0x3dbd79ab	0.09251722
201	0xbdd75f8a	-0.105162695
202	0xbde44a0a	-0.11146934
203	0xbd90e37a	-0.07074638
204	0xbd9d7091	-0.07687486
205	0x3c4dd72d	0.012563509
206	0x3dab8e18	0.083767116
207	0x3e47e58c	0.19521159
208	0x3e5a9dda	0.21349278
209	0x3e1da16e	0.15393612
210	0xbd242767	-0.04007664
211	0x3e63c43a	0.22242823
212	0xbd9f5afa	-0.07781024
213	0x3d4e78c3	0.050408136
214	0x3e38562c	0.18001622
215	0x3e14f09d	0.14544912
216	0xbd15775f	-0.036490794
217	0xbdc9c1dc	-0.09851429
218	0x3dcf1f6b	0.101134144
219	0xbd552ad9	-0.052042816
220	0x3da90615	0.08253113
221	0x3c846533	0.016161537
222	0xbe380350	-0.17970014
223	0x3dab270d	0.08357058
224	0xbdc6b4c2	-0.097024456
225	0xbdf6d829	-0.12052948
226	0xbe3c3a37	-0.18381582
227	0x3df8ccdc	0.12148449
228	0xbc1643dc	-0.009171452
229	0x3c94d900	0.01816988
230	0xbe041423	-0.12898307
231	0x3e0f3941	0.13986684
232	0x3d8748d6	0.06605689
233	0xbdccba2a	-0.099964455
234	0x3e1808d1	0.14847113
235	0x3db332dd	0.08749936
236	0xbc87493a	-0.01651441
237	0xbd917c33	-0.07103767
238	0x3d8c52f3	0.06851759
239	0xbe1643ac	-0.14674252
240	0xbe5ef623	-0.21773581
241	0x3de44969	0.111468144
242	0x3e4200cd	0.18945618
243	0xbdc65d77	-0.09685796
244	0xbd16f4f5	-0.036854703
245	0x3e285e6d	0.1644227
246	0x3db45a0d	0.08806238
247	0xbe2cbe99	-0.16869582
248	0xbca5c803	-0.020236975
249	0x3e0226ac	0.12710065
250	0x3e084d7a	0.13310805
251	0xbda49396	-0.08035962
252	0xbde0b1bb	-0.109713994
253	0xbe2b7436	-0.1674355
254	0x3e05eae2	0.13077882
255	0xbd91a221	-0.07111002

interaction_layers.0.final_layer.0.bias f4 [20]
0	0xbcc50698	-0.024050996
1	0x3d4ac3ea	0.049503244
2	0x3deff2c9	0.117162295
3	0x3d7f5741	0.06233907
4	0xbe234ce8	-0.15947306
5	0x3c91a4fb	0.017778864
6	0x3c8f89a4	0.017521687
7	0xbe334ca9	-0.17509712
8	0xbcc13fff	-0.023590086
9	0xbbff7ec7	-0.0077970955
10	0x3d7f6346	0.062350534
11	0xbd29f3e7	-0.04149237
12	0xbc62f010	-0.013851181
13	0xbe570d0c	-0.2100107
14	0xbd4a8f16	-0.049452864
15	0x3e58a669	0.2115723
16	0xbda9fdd6	-0.083003685
17	0x3be942a4	0.00711854
18	0x3d7e43d4	0.062076405
19	0x3d7c6759	0.061621998
