paper_artifacts/collection/edge_early_interaction_1_pre/trained_models/edge_early_interaction_1_pre_mutag_large_dataset_seed_7762_2024-04-28_04:32:11.pth (torch, 25641 bytes, 20 tensors)

encoder.MLP1.0.weight f4 [10, 1]
-0.1661321 -0.32552138 -0.14543207 -0.06507777 -0.16062039 0.012940391 0.49904642 0.41046894
0.1283997 0.04019245
00000000: 891e 2abe bdaa a6be 25ec 14be 7e47 85bd
00000010: ac79 24be ef03 543c 0383 ff3e fc28 d23e
00000020: 367b 033e d7a0 243d

encoder.MLP1.0.bias f4 [10]
-0.06462919 -0.32698935 -0.14719209 -0.06478525 -0.17627072 0.015002899 0.5134378 0.40743208
0.12224767 0.040759113
00000000: 4f5c 84bd 266b a7be 86b9 16be 21ae 84bd
00000010: 5080 34be b8ce 753c a970 033f f09a d03e
00000020: fd5c fa3d 07f3 263d

encoder.MLP2.0.weight f4 [20, 1]
0.0064095785 -0.01222397 0.007918216 -0.022449918 0.03172261 0.031764954 -0.10343361 -0.024016216
0.0005714035 -0.05101715 -0.044913318 0.028200816 0.0042734006 0.0011819722 0.009388413 -0.0622259
0.0847943 0.004732775 -0.035312973 -0.010534412
00000000: 7107 d23b 0c47 48bc 68bb 013c e4e8 b7bc
00000010: 91ef 013d f81b 023d 00d5 d3bd a8bd c4bc
00000020: 3dca 153a 5cf7 50bd 07f7 37bd 6605 e73c
00000030: e207 8c3b 68ec 9a3a dcd1 193c 96e0 7ebd
00000040: a2a8 ad3d 6515 9b3b 56a4 10bd 8798 2cbc

encoder.MLP2.0.bias f4 [20]
0.006409567 -0.012223966 0.007918213 -0.0224499 0.031722628 0.031764958 -0.10343357 -0.024016224
0.0005713979 -0.051017128 -0.04491333 0.028200816 0.004273394 0.0011819853 0.00938841 -0.06222587
0.08479428 0.004732782 -0.03531296 -0.010534405
00000000: 5807 d23b 0847 48bc 64bb 013c dae8 b7bc
00000010: 96ef 013d f91b 023d fbd4 d3bd acbd c4bc
00000020: ddc9 153a 56f7 50bd 0af7 37bd 6605 e73c
00000030: d407 8c3b d8ec 9a3a d8d1 193c 8ee0 7ebd
00000040: a0a8 ad3d 7415 9b3b 53a4 10bd 7f98 2cbc

prop_layer._message_net.0.weight f4 [20, 40]
-0.29690725 -0.2391222 -0.059380494 0.2172414 -0.15675959 0.0835881 0.10413207 -0.4788153
-0.30874124 -0.10474886 0.13913205 0.33245453 -0.16631533 -0.036758225 -0.072960004 -0.100789905
-0.011428851 -0.07931204 0.016006703 0.10789701 -0.012588156 -0.0056595462 0.00779314 0.008648754
-0.009747264 -0.0010750843 0.010057176 0.02970325 0.14581794 -0.01580693 0.20835589 -0.21060811
-0.10917705 0.0059896964 0.2853052 0.6515559 0.22921374 -0.119764715 0.013217816 -0.04569146
-0.008160842 0.14901486 0.034566317 0.03721304 -0.06742367 0.03440303 -0.09027106 0.13371077
0.36214793 -0.4301959 -0.07933307 -0.06558317 -0.06950695 -0.12326407 -0.0983394 0.20517199
0.11667469 -0.06234751 -0.10863912 -0.37168005 -0.0012697801 0.00051011826 0.0054902644 0.00039662604
0.0003604335 -0.0006343801 0.0005906869 -0.13260783 0.08831549 -0.0025539934 0.036074337 -0.26552406
-0.18141173 -0.0013597052 0.076710604 -0.3020639 -0.015841559 -0.09380196 0.0020570303 -0.11303815
-0.30317393 -0.1195638 -0.203292 -0.16146101 0.08888845 -0.5358774 -0.16869302 -0.13460672
-0.2673077 0.03682591 -0.112595014 -0.12387751 -0.1270475 -0.030440303 -0.18584336 -0.438659
0.036103636 0.09645073 0.020049868 -0.045104522 -0.0007776634 0.001006443 -0.0043322872 -0.00079806807
-0.0027941775 0.000763759 -0.0009125936 -0.2725549 -0.020796543 -0.00062059547 0.20260754 0.070151486
-0.34531808 -0.0014652633 -0.33277377 -0.10463142 0.10714218 -0.20781538 0.00010056215 0.16047858
-0.017418023 0.11534521 -0.11479266 -0.25255778 0.09704614 -0.05524885 -0.1271444 -0.0022986406
-0.024738876 0.30544454 0.03496936 0.039436422 0.21270451 0.078753605 -0.05327966 0.051836353
0.036382545 -0.22195122 -0.040318687 -0.05979089 -3.7554335e-05 -0.0020860063 -0.0015728574 0.0015077386
-0.0007123217 -0.0014174521 -0.0017987514 -0.0015760282 0.13147366 0.0005244286 0.26173586 0.21540472
0.15881056 -0.002478896 0.22144125 -0.037198756 -0.1873948 0.17611139 -0.0010584563 0.17217717
-0.05454163 0.20419176 -0.28325644 -0.088755846 -0.2073012 -0.08303838 -0.15013002 0.2541732
-0.089706995 -0.1352393 -0.041417055 -0.12815033 0.1575972 -0.037578262 0.18306758 -0.04690964
-0.417033 -0.31184822 0.2119181 -0.015340097 0.00028060848 0.0026127107 0.007836375 -0.0017449408
-0.0014031313 0.002621132 0.00062588183 0.22266485 -0.037389513 -0.0018487817 -0.29399613 0.03510218
0.21774484 0.0010967194 -0.13287471 0.14386553 -0.027280044 0.0531754 6.093811e-05 0.04932958
-0.09556094 -0.06575651 -0.047127027 -0.18289964 -0.28876817 0.18043073 -0.18372594 -0.07181956
0.1745713 0.26944155 -0.04605532 -0.062637456 0.10283406 -0.12463087 -0.18097451 0.27535045
-0.21664369 -0.11900506 0.16512443 -0.11470401 0.0059036748 -0.00019654316 -0.015023909 -0.0020725802
0.0042897747 -0.004936376 -0.0070955977 0.25368807 0.023977015 0.011857528 -0.1074827 0.035506368
-0.019965088 0.0005110394 -0.0026075323 0.21338779 -0.050076343 -0.11245019 -0.008467657 0.14568876
-0.14260389 0.45661268 -0.5805521 -0.5563498 0.11133945 0.13083045 -0.16490704 0.074344344
0.092507645 0.36232352 -0.34977734 -0.109356456 -0.008186038 0.22162388 -0.1995295 0.06936072
00000000: 3a04 98be 73dc 74be f638 73bd 8874 5e3e
00000010: 9685 20be 3d30 ab3d 3243 d53d 4727 f5be
00000020: 5513 9ebe 9286 d6bd a278 0e3e 7b37 aa3e
00000030: 914e 2abe cb8f 16bd 0e6c 95bd f06a cebd
00000040: 1340 3bbc 5a6e a2bd 7d20 833c 1cf9 dc3d
00000050: 8e3e 4ebc b773 b9bb 995d ff3b 81b3 0d3c
00000060: fdb2 1fbc d8e9 8cba dbc6 243c 3b54 f33c
00000070: 4c51 153e 897d 81bc 3f5b 553e a7a9 57be
00000080: 3898 dfbd 3745 c43b 8613 923e 5ecc 263f
00000090: 02b7 6a3e 3447 f5bd 8a8f 583c f826 3bbd
000000a0: 0db5 05bc 5a97 183e 6995 0d3d b36c 183d
000000b0: 6c15 8abd 31ea 0c3d 09e0 b8bd 7aeb 083e
000000c0: 746b b93e a342 dcbe 6079 a2bd 7850 86bd
000000d0: a959 8ebd df71 fcbd 2b66 c9bd 9b18 523e
000000e0: 24f3 ee3d 1a60 7fbd 307e debd d94c bebe
000000f0: c06e a6ba 75b9 053a ade7 b33b 3ff2 cf39
00000100: 91f8 bc39 874c 26ba 54d8 1a3a 59ca 07be
00000110: c0de b43d e660 27bb afc2 133d c5f2 87be
00000120: ffc3 39be 2338 b2ba 731a 9d3d 1fa8 9abe
00000130: 28c6 81bc 3e1b c0bd 3ecf 063b 8c80 e7bd
00000140: 9d39 9bbe dedd f4bd c72b 50be 0956 25be
00000150: 260b b63d 432f 09bf ddbd 2cbe 58d6 09be
00000160: 8edc 88be c4d6 163d 3798 e6bd 7eb3 fdbd
00000170: bd18 02be f15d f9bc b94d 3ebe ea97 e0be
00000180: 68e1 133d f687 c53d 9f3f a43c 85bf 38bd
00000190: 1bdc 4bba a0ea 833a dcf5 8dbb 7135 51ba
000001a0: 851e 37bb 0037 483a 1f3b 6fba 518c 8bbe
000001b0: 835d aabc 75af 22ba 5a78 4f3e 95ab 8f3d
000001c0: 88cd b0be 140e c0ba 5361 aabe ff48 d6bd
000001d0: 5c6d db3d 8ecd 54be e5e4 d238 7f54 243e
000001e0: 3eb0 8ebc 1c3a ec3d 6a18 ebbd 414f 81be
000001f0: 20c0 c63d 9e4c 62bd 2432 02be caa4 16bb
00000200: 2fa9 cabc 3a63 9c3e 083c 0f3d 1688 213d
00000210: 36cf 593e 9249 a13d c63b 5abd 5b52 543d
00000220: dd05 153d 2e47 63be 3525 25bd 4be7 74bd
00000230: a983 1db8 61b5 08bb 5628 ceba 509f c53a
00000240: 1abb 3aba cdc9 b9ba 15c4 ebba bb92 ceba
00000250: 08a1 063e cf79 093a 3e02 863e 0e93 5c3e
00000260: 3c9f 223e f974 22bb 7fc1 623e b95d 18bd
00000270: 6ce4 3fbe 8b56 343e e6bb 8aba 364f 303e
00000280: 0b67 5fbd a517 513e fd06 91be a0c5 b5bd
00000290: c446 54be 0710 aabd afbb 19be fd22 823e
000002a0: 4db8 b7bd 2c7c 0abe eea4 29bd d739 03be
000002b0: 2961 213e aaeb 19bd 1176 3b3e 5324 40bd
000002c0: 5985 d5be 92aa 9fbe 0f01 593e 0855 7bbc
000002d0: a21e 9339 033a 2b3b 2464 003c 7fb6 e4ba
000002e0: 46e9 b7ba 4cc7 2b3b 3812 243a 4102 643e
000002f0: bf25 19bd d252 f2ba a986 96be 4ec7 0f3d
00000300: 81f8 5e3e ccbf 8f3a 4f10 08be 7c51 133e
00000310: 667a dfbc 73ce 593d cc97 7f38 d00d 4a3d
00000320: 74b5 c3bd 59ab 86bd 4508 41bd 0b4a 3bbe
00000330: 6cd9 93be d5c2 383e a722 3cbe 2216 93bd
00000340: d2c2 323e 3ef4 893e 81a4 3cbd 1148 80bd
00000350: aa9a d23d 783e ffbd 6251 39be bcfa 8c3e
00000360: d8d7 5dbe edb8 f3bd 6116 293e f0e9 eabd
00000370: 9d73 c13b 2717 4eb9 d726 76bc 20d4 07bb
00000380: 3d91 8c3b 53c1 a1bb 3082 e8bb 67e3 813e
00000390: 726b c43c 1446 423c e41f dcbd 206f 113d
000003a0: d38d a3bc 46f7 053a 22e3 2abb 5482 5a3e
000003b0: da1c 4dbd 494c e6bd edbb 0abc 6f2f 153e
000003c0: c106 12be 23c9 e93e 109f 14bf f16c 0ebf
000003d0: f005 e43d 6bf8 053e 64dd 28be d941 983d
000003e0: a674 bd3d 7882 b93e 0416 b3be 47f6 dfbd
000003f0: bb1e 06bc 5ff1 623e 7651 4cbe fe0c 8e3d

prop_layer._message_net.0.bias f4 [20]
0.08245102 0.07449719 -0.03251613 -0.067887746 -0.040351924 -0.064542875 0.08059489 0.059662364
0.044065587 0.14634739 0.15379657 0.0512516 -0.02485158 0.16483779 0.015766468 0.10901029
-0.01814822 0.008543351 0.23199788 0.028519547
00000000: 15dc a83d fc91 983d a22f 05bd bb08 8bbd
00000010: 0f48 25bd 0e2f 84bd ef0e a53d 8660 743d
00000020: 1e7e 343d 17dc 153e d97c 1d3e 33ed 513d
00000030: 8a95 cbbc 3dcb 283e ae28 813c c940 df3d
00000040: 93ab 94bc 69f9 0b3c da90 6d3e d3a1 e93c

prop_layer._reverse_message_net.0.weight f4 [20, 40]
-0.29690725 -0.2391222 -0.059380494 0.2172414 -0.15675959 0.0835881 0.10413207 -0.4788153
-0.30874124 -0.10474886 0.13913205 0.33245453 -0.16631533 -0.036758225 -0.072960004 -0.100789905
-0.011428851 -0.07931204 0.016006703 0.10789701 -0.012588156 -0.0056595462 0.00779314 0.008648754
-0.009747264 -0.0010750843 0.010057176 0.02970325 0.14581794 -0.01580693 0.20835589 -0.21060811
-0.10917705 0.0059896964 0.2853052 0.6515559 0.22921374 -0.119764715 0.013217816 -0.04569146
-0.008160842 0.14901486 0.034566317 0.03721304 -0.06742367 0.03440303 -0.09027106 0.13371077
0.36214793 -0.4301959 -0.07933307 -0.06558317 -0.06950695 -0.12326407 -0.0983394 0.20517199
0.11667469 -0.06234751 -0.10863912 -0.37168005 -0.0012697801 0.00051011826 0.0054902644 0.00039662604
0.0003604335 -0.0006343801 0.0005906869 -0.13260783 0.08831549 -0.0025539934 0.036074337 -0.26552406
-0.18141173 -0.0013597052 0.076710604 -0.3020639 -0.015841559 -0.09380196 0.0020570303 -0.11303815
-0.30317393 -0.1195638 -0.203292 -0.16146101 0.08888845 -0.5358774 -0.16869302 -0.13460672
-0.2673077 0.03682591 -0.112595014 -0.12387751 -0.1270475 -0.030440303 -0.18584336 -0.438659
0.036103636 0.09645073 0.020049868 -0.045104522 -0.0007776634 0.001006443 -0.0043322872 -0.00079806807
-0.0027941775 0.000763759 -0.0009125936 -0.2725549 -0.020796543 -0.00062059547 0.20260754 0.070151486
-0.34531808 -0.0014652633 -0.33277377 -0.10463142 0.10714218 -0.20781538 0.00010056215 0.16047858
-0.017418023 0.11534521 -0.11479266 -0.25255778 0.09704614 -0.05524885 -0.1271444 -0.0022986406
-0.024738876 0.30544454 0.03496936 0.039436422 0.21270451 0.078753605 -0.05327966 0.051836353
0.036382545 -0.22195122 -0.040318687 -0.05979089 -3.7554335e-05 -0.0020860063 -0.0015728574 0.0015077386
-0.0007123217 -0.0014174521 -0.0017987514 -0.0015760282 0.13147366 0.0005244286 0.26173586 0.21540472
0.15881056 -0.002478896 0.22144125 -0.037198756 -0.1873948 0.17611139 -0.0010584563 0.17217717
-0.05454163 0.20419176 -0.28325644 -0.088755846 -0.2073012 -0.08303838 -0.15013002 0.2541732
-0.089706995 -0.1352393 -0.041417055 -0.12815033 0.1575972 -0.037578262 0.18306758 -0.04690964
-0.417033 -0.31184822 0.2119181 -0.015340097 0.00028060848 0.0026127107 0.007836375 -0.0017449408
-0.0014031313 0.002621132 0.00062588183 0.22266485 -0.037389513 -0.0018487817 -0.29399613 0.03510218
0.21774484 0.0010967194 -0.13287471 0.14386553 -0.027280044 0.0531754 6.093811e-05 0.04932958
-0.09556094 -0.06575651 -0.047127027 -0.18289964 -0.28876817 0.18043073 -0.18372594 -0.07181956
0.1745713 0.26944155 -0.04605532 -0.062637456 0.10283406 -0.12463087 -0.18097451 0.27535045
-0.21664369 -0.11900506 0.16512443 -0.11470401 0.0059036748 -0.00019654316 -0.015023909 -0.0020725802
0.0042897747 -0.004936376 -0.0070955977 0.25368807 0.023977015 0.011857528 -0.1074827 0.035506368
-0.019965088 0.0005110394 -0.0026075323 0.21338779 -0.050076343 -0.11245019 -0.008467657 0.14568876
-0.14260389 0.45661268 -0.5805521 -0.5563498 0.11133945 0.13083045 -0.16490704 0.074344344
0.092507645 0.36232352 -0.34977734 -0.109356456 -0.008186038 0.22162388 -0.1995295 0.06936072
00000000: 3a04 98be 73dc 74be f638 73bd 8874 5e3e
00000010: 9685 20be 3d30 ab3d 3243 d53d 4727 f5be
00000020: 5513 9ebe 9286 d6bd a278 0e3e 7b37 aa3e
00000030: 914e 2abe cb8f 16bd 0e6c 95bd f06a cebd
00000040: 1340 3bbc 5a6e a2bd 7d20 833c 1cf9 dc3d
00000050: 8e3e 4ebc b773 b9bb 995d ff3b 81b3 0d3c
00000060: fdb2 1fbc d8e9 8cba dbc6 243c 3b54 f33c
00000070: 4c51 153e 897d 81bc 3f5b 553e a7a9 57be
00000080: 3898 dfbd 3745 c43b 8613 923e 5ecc 263f
00000090: 02b7 6a3e 3447 f5bd 8a8f 583c f826 3bbd
000000a0: 0db5 05bc 5a97 183e 6995 0d3d b36c 183d
000000b0: 6c15 8abd 31ea 0c3d 09e0 b8bd 7aeb 083e
000000c0: 746b b93e a342 dcbe 6079 a2bd 7850 86bd
000000d0: a959 8ebd df71 fcbd 2b66 c9bd 9b18 523e
000000e0: 24f3 ee3d 1a60 7fbd 307e debd d94c bebe
000000f0: c06e a6ba 75b9 053a ade7 b33b 3ff2 cf39
00000100: 91f8 bc39 874c 26ba 54d8 1a3a 59ca 07be
00000110: c0de b43d e660 27bb afc2 133d c5f2 87be
00000120: ffc3 39be 2338 b2ba 731a 9d3d 1fa8 9abe
00000130: 28c6 81bc 3e1b c0bd 3ecf 063b 8c80 e7bd
00000140: 9d39 9bbe dedd f4bd c72b 50be 0956 25be
00000150: 260b b63d 432f 09bf ddbd 2cbe 58d6 09be
00000160: 8edc 88be c4d6 163d 3798 e6bd 7eb3 fdbd
00000170: bd18 02be f15d f9bc b94d 3ebe ea97 e0be
00000180: 68e1 133d f687 c53d 9f3f a43c 85bf 38bd
00000190: 1bdc 4bba a0ea 833a dcf5 8dbb 7135 51ba
000001a0: 851e 37bb 0037 483a 1f3b 6fba 518c 8bbe
000001b0: 835d aabc 75af 22ba 5a78 4f3e 95ab 8f3d
000001c0: 88cd b0be 140e c0ba 5361 aabe ff48 d6bd
000001d0: 5c6d db3d 8ecd 54be e5e4 d238 7f54 243e
000001e0: 3eb0 8ebc 1c3a ec3d 6a18 ebbd 414f 81be
000001f0: 20c0 c63d 9e4c 62bd 2432 02be caa4 16bb
00000200: 2fa9 cabc 3a63 9c3e 083c 0f3d 1688 213d
00000210: 36cf 593e 9249 a13d c63b 5abd 5b52 543d
00000220: dd05 153d 2e47 63be 3525 25bd 4be7 74bd
00000230: a983 1db8 61b5 08bb 5628 ceba 509f c53a
00000240: 1abb 3aba cdc9 b9ba 15c4 ebba bb92 ceba
00000250: 08a1 063e cf79 093a 3e02 863e 0e93 5c3e
00000260: 3c9f 223e f974 22bb 7fc1 623e b95d 18bd
00000270: 6ce4 3fbe 8b56 343e e6bb 8aba 364f 303e
00000280: 0b67 5fbd a517 513e fd06 91be a0c5 b5bd
00000290: c446 54be 0710 aabd afbb 19be fd22 823e
000002a0: 4db8 b7bd 2c7c 0abe eea4 29bd d739 03be
000002b0: 2961 213e aaeb 19bd 1176 3b3e 5324 40bd
000002c0: 5985 d5be 92aa 9fbe 0f01 593e 0855 7bbc
000002d0: a21e 9339 033a 2b3b 2464 003c 7fb6 e4ba
000002e0: 46e9 b7ba 4cc7 2b3b 3812 243a 4102 643e
000002f0: bf25 19bd d252 f2ba a986 96be 4ec7 0f3d
00000300: 81f8 5e3e ccbf 8f3a 4f10 08be 7c51 133e
00000310: 667a dfbc 73ce 593d cc97 7f38 d00d 4a3d
00000320: 74b5 c3bd 59ab 86bd 4508 41bd 0b4a 3bbe
00000330: 6cd9 93be d5c2 383e a722 3cbe 2216 93bd
00000340: d2c2 323e 3ef4 893e 81a4 3cbd 1148 80bd
00000350: aa9a d23d 783e ffbd 6251 39be bcfa 8c3e
00000360: d8d7 5dbe edb8 f3bd 6116 293e f0e9 eabd
00000370: 9d73 c13b 2717 4eb9 d726 76bc 20d4 07bb
00000380: 3d91 8c3b 53c1 a1bb 3082 e8bb 67e3 813e
00000390: 726b c43c 1446 423c e41f dcbd 206f 113d
000003a0: d38d a3bc 46f7 053a 22e3 2abb 5482 5a3e
000003b0: da1c 4dbd 494c e6bd edbb 0abc 6f2f 153e
000003c0: c106 12be 23c9 e93e 109f 14bf f16c 0ebf
000003d0: f005 e43d 6bf8 053e 64dd 28be d941 983d
000003e0: a674 bd3d 7882 b93e 0416 b3be 47f6 dfbd
000003f0: bb1e 06bc 5ff1 623e 7651 4cbe fe0c 8e3d

prop_layer._reverse_message_net.0.bias f4 [20]
0.08245102 0.07449719 -0.03251613 -0.067887746 -0.040351924 -0.064542875 0.08059489 0.059662364
0.044065587 0.14634739 0.15379657 0.0512516 -0.02485158 0.16483779 0.015766468 0.10901029
-0.01814822 0.008543351 0.23199788 0.028519547
00000000: 15dc a83d fc91 983d a22f 05bd bb08 8bbd
00000010: 0f48 25bd 0e2f 84bd ef0e a53d 8660 743d
00000020: 1e7e 343d 17dc 153e d97c 1d3e 33ed 513d
00000030: 8a95 cbbc 3dcb 283e ae28 813c c940 df3d
00000040: 93ab 94bc 69f9 0b3c da90 6d3e d3a1 e93c

prop_layer.GRU.weight_ih_l0 f4 [30, 20]
0.038679373 0.0058053476 0.008836878 -0.039990555 -0.006493637 -0.00036539597 -0.06824908 -0.022489443
-0.0015756685 -0.051155917 -0.025746677 -0.00019430088 0.02145359 0.021493776 0.0014858495 -0.005883312
0.011457992 -0.0071975226 -0.033377632 -0.041443776 -0.061484925 0.0038856552 0.011685622 -0.013892603
-0.02899727 -0.022244636 -0.01922591 -0.030141344 -0.028993411 0.0016311817 -0.02330885 0.024641626
-0.013024307 0.041088667 0.0024434342 0.028740795 0.051359195 -0.0008732238 -0.0010538884 0.019328766
-0.046524715 -0.0596429 0.0010318283 0.017082566 -0.03355547 -0.0071989438 -0.00948065 -0.03376307
-0.038929485 0.038381908 -0.05836973 0.02100514 0.014660873 0.07812632 0.007880711 0.057979442
0.09121116 0.009263978 0.048843056 0.050565667 -0.040068068 0.040402386 0.06400576 -0.037495386
-0.024978265 -0.0057605733 -0.0015115505 0.0013574926 -0.07607131 -0.014424174 -0.05498269 -0.01435098
-0.02277245 0.018095063 -0.003697066 0.09722382 -0.0046570427 0.0020562387 -0.0011195885 0.010311307
0.057499856 -0.12781589 -0.0063062306 0.021634256 0.0269661 -0.008326044 -0.016972233 -0.00944364
0.0044037737 0.06297976 0.015280522 -0.019008726 0.027470391 -0.0014131729 -0.011390227 0.032522224
0.058108877 0.0030480227 -0.02047375 -0.047837198 -0.048931334 -0.06554882 0.06783921 -0.018678803
-0.0294218 0.030108694 -0.03530441 -0.059107378 -0.00256834 0.0031081722 -0.013253151 -0.016823761
-0.025833467 0.101342216 -0.0026009514 0.08780283 0.069881424 -0.007468606 0.032471698 -0.006681092
-0.044643108 0.016209995 -0.019873694 0.0015535739 -0.017856352 0.008696119 -0.028868625 -0.057805035
0.06488736 0.030826982 -0.032194983 -0.026193993 -0.02845287 0.044324394 0.004843781 0.03284094
0.069688424 -0.0017080954 -0.025335597 -0.006288796 -0.095453456 0.09309292 0.022730015 -0.08259553
-0.08732471 0.0040009483 0.020572526 -0.13366851 0.110557415 -0.051765926 -0.037031006 0.1726822
0.02301187 0.20824252 -0.003862384 0.1352746 0.12518044 0.0115257725 0.11494335 0.030430583
-0.007369402 -0.01858733 0.012866843 0.007142058 -0.0011904014 0.0070590763 0.01965278 -0.022773564
-0.0114358 0.01197844 -0.025539517 -0.041475363 -0.002846018 -0.022137979 0.0006445368 0.028041204
0.013864958 0.0031954555 0.006490117 0.012264998 -0.0030758446 0.0030333332 -0.040088966 -0.01927225
0.027909337 -0.014155781 -0.018373583 -0.010118966 -0.033241935 -0.026636636 0.0065431837 -0.032324746
0.0031321933 -0.012205272 -0.016990596 -0.03366214 0.010115793 0.0057895933 0.018561158 0.04274053
0.21781522 0.13235644 0.066826634 -0.17538205 -0.36836362 -0.07443291 -0.26819667 -0.07720626
0.31431246 -0.13043919 0.11233173 0.22473733 -0.109433055 0.11501899 0.011881482 0.025748165
0.17051 -0.0056009344 -0.09216968 -0.15761128 -0.078869574 -0.10572207 -0.07537399 -0.15867007
0.032361332 -0.037877392 -0.22469892 0.10008561 0.057902973 -0.0071753515 -0.33618265 -0.013737409
-0.12860642 0.13063169 -0.013538481 0.20340197 0.21377921 -0.027794719 0.105918385 -0.09158392
-0.34856817 0.06947791 -0.055764493 -0.0425623 -0.01747867 -0.005707709 0.06323185 0.31137407
-0.046745688 -0.16632189 -0.091018036 0.030997224 -0.22173612 -0.040124 -0.027765688 -0.12827575
00000000: 436e 1e3d c93a be3b 8ec8 103c 23cd 23bd
00000010: 93c8 d4bb 9e92 bfb9 2cc6 8bbd c83b b8bc
00000020: a986 ceba de88 51bd b2ea d2bc 3fbd 4bb9
00000030: 70bf af3c b713 b03c d6c0 c23a ccc8 c0bb
00000040: 4dba 3b3c 32d9 ebbb fcb6 08bd f3c0 29bd
00000050: 9ed7 7bbd 7aa6 7e3b 0d75 3f3c cd9d 63bc
00000060: af8b edbc 623a b6bc a87f 9dbc fbea f6bc
00000070: 9783 edbc 60cd d53a 34f2 bebc 3cdd c93c
00000080: e763 55bc 974c 283d 0622 203b d171 eb3c
00000090: 055e 523d 0fe9 64ba a022 8aba 5c57 9e3c
000000a0: b390 3ebd 1d4c 74bd 6a3e 873a bdf0 8b3c
000000b0: 7671 09bd 1ee5 ebbb ba54 1bbc 254b 0abd
000000c0: 8674 1fbd 5936 1d3d 1915 6fbd f912 ac3c
000000d0: 2934 703c b100 a03d 191e 013c da7b 6d3d
000000e0: ebcc ba3d f1c7 173c a80f 483d f21d 4f3d
000000f0: 6a1e 24bd f97c 253d 7415 833d c394 19bd
00000100: 389f ccbc 31c3 bcbb 381f c6ba e5ed b13a
00000110: 46cb 9bbd 5f53 6cbc 8735 61bd 5f20 6bbc
00000120: 4a8d babc 193c 943c 7a4a 72bb 481d c73d
00000130: 1b9a 98bb f6c1 063b 28bf 92ba c2f0 283c
00000140: f884 6b3d 2be2 02be 7fa4 cebb 533a b13c
00000150: 03e8 dc3c f669 08bc 5a09 8bbc 7fb9 1abc
00000160: 884d 903b 88fb 803d 285b 7a3c 30b8 9bbc
00000170: 9609 e13c 373a b9ba 139e 3abc 0636 053d
00000180: 9303 6e3d 56c1 473b 91b8 a7bc f0f0 43bd
00000190: 396c 48bd 763e 86bd 49ef 8a3d 4a04 99bc
000001a0: fd05 f1bc 82a6 f63c 5b9b 10bd 941a 72bd
000001b0: 9851 28bb 7ab2 4b3b bf23 59bc fcd1 89bc
000001c0: b5a0 d3bc 828c cf3d b974 2abb f8d1 b33d
000001d0: fe1d 8f3d 35bb f4bb 0b01 053d 10ed dabb
000001e0: b1db 36bd d3ca 843c 28ce a2bc 4aa1 cb3a
000001f0: 7c47 92bc 2b7a 0e3c e57d ecbc f9c4 6cbd
00000200: aae3 843d de88 fc3c e3de 03bd c994 d6bc
00000210: fe15 e9bc 7f8d 353d 94b8 9e3b 3984 063d
00000220: ceb8 8e3d 2ce2 dfba 998c cfbc 3f12 cebb
00000230: 1a7d c3bd 80a7 be3d 4c34 ba3c d827 a9bd
00000240: 4cd7 b2bd 631a 833b b787 a83c 66e0 08be
00000250: ed6b e23d 8208 54bd d3ad 17bd 9ad3 303e
00000260: 6483 bc3c 873d 553e 0d20 7dbb 6d85 0a3e
00000270: 4d2f 003e 98d6 3c3c 6b67 eb3d 8f49 f93c
00000280: 067b f1bb 7544 98bc 73cf 523c ed07 ea3b
00000290: 3e07 9cba d34f e73b defe a03c a08f babc
000002a0: 395d 3bbc 3841 443c 4038 d1bc 12e2 29bd
000002b0: 4284 3abb b55a b5bc 22f6 283a abb6 e53c
000002c0: d929 633c d96a 513b 0cab d43b 21f3 483c
000002d0: 1c94 49bb e3ca 463b 5434 24bd d6e0 9dbc
000002e0: 1fa2 e43c a6ed 67bc 3284 96bc 05ca 25bc
000002f0: b228 08bd 1335 dabc 3468 d63b f466 04bd
00000300: 7c45 4d3b 9ff8 47bc dd2f 8bbc 50e1 09bd
00000310: b6bc 253c a1b6 bd3b 920d 983c b210 2f3d
00000320: f40a 5f3e 7288 073e 67dc 883d 5a97 33be
00000330: 289a bcbe 4870 98bd 1351 89be 511e 9ebd
00000340: 90ed a03e da91 05be 2e0e e63d 8b21 663e
00000350: 701e e0bd 148f eb3d 8caa 423c d1ed d23c
00000360: 2c9a 2e3e 0b88 b7bb 75c3 bcbd da64 21be
00000370: 5f86 a1bd d084 d8bd ae5d 9abd 687a 22be
00000380: 518d 043d 5325 1bbd 7917 66be aff9 cc3d
00000390: ab2b 6d3d 361f ebbb 2220 acbe df12 61bc
000003a0: 67b1 03be 50c4 053e 81d0 5dbc 9b48 503e
000003b0: f0e8 5a3e c0b1 e3bc bdeb d83d 5a90 bbbd
000003c0: 8777 b2be 6f4a 8e3d 4f69 64bd ce55 2ebd
000003d0: 6e2f 8fbc bc07 bbbb b37f 813d 6c6c 9f3e
000003e0: 6878 3fbd 4950 2abe aa67 babd e4ed fd3c
000003f0: cb0e 63be 1059 24bd de74 e3bc b85a 03be

prop_layer.GRU.weight_hh_l0 f4 [30, 10]
0.011479206 -0.018058836 0.011023932 0.014957932 -0.0045541693 -0.004887999 -0.009834723 -0.004104731
0.014527475 0.006141871 -0.0032222765 -0.020584032 0.00846821 -0.017792255 0.009738743 -0.011111519
0.02417535 0.0051289992 -0.0037280023 0.006455352 0.018696198 -0.037210505 -0.0021099688 0.017330136
-0.045457456 0.011221488 0.047785252 0.04612084 0.031780038 0.023873873 0.019184507 -0.009357112
0.009407303 0.016583785 -0.0033656762 0.0041802134 -0.0172584 0.0013053996 0.024097148 -0.025943035
-0.024725968 -0.03340244 -0.008083137 0.024764499 -0.018040184 0.0023421654 0.028095229 -0.0029264588
0.030386286 0.016403927 -0.017517878 -0.070539415 0.012743175 0.0003656551 -0.02634963 -0.0040934235
0.00826556 0.04093684 0.032625303 -0.0011816636 -0.0070294943 -0.023471914 0.01061423 0.0035374998
-0.0389558 0.025476918 0.026787344 0.019932188 -0.011084583 0.00032434842 -0.025443893 -0.08475954
0.016355736 0.012656282 -0.04340873 -0.030773908 0.12280739 0.07666451 0.04074418 0.006933465
0.011202449 -0.00632905 -0.0027770826 0.011735032 -0.019385476 0.024796255 -0.012520285 0.0048743435
0.016317444 -0.0074864263 0.027004905 -0.001344748 -0.016840331 -0.0034700576 0.012497372 0.01987738
-0.0021217763 0.018226787 0.029271737 0.022578841 0.101164974 0.18901959 -0.031035766 -0.10887264
-0.02494724 -0.0704359 -0.022162115 0.036259077 -0.0362654 0.10084157 -0.029899241 -0.01689278
0.046034906 0.04824243 0.022935782 0.013411752 -0.12721519 0.032866355 0.122436374 0.053694535
-0.15014724 -0.035826728 0.02881494 -0.14728005 0.22577757 -0.14507563 0.019625567 0.050421085
-0.12749733 0.008088954 0.09335415 0.20969391 -0.095387496 0.0010604478 0.021972962 0.041346658
-0.064286284 0.021921808 -0.0034980054 -0.050841156 0.036825158 0.07011844 -0.04335882 0.1952829
-0.09033441 -0.041945282 0.0954142 -0.0131743755 -0.17528744 -0.042434 0.078265145 0.03297192
-0.109301284 -0.01724328 0.16368441 -0.023364065 -0.03280187 0.08121174 0.006600231 0.08614487
0.1622489 -0.3162125 -0.086142786 -0.02582545 -0.19273801 0.117221825 0.28456172 0.31253597
0.24934456 0.20451865 -0.00072656997 -0.23752442 -0.07496377 -0.013256388 0.028215645 0.010722224
0.2458841 0.12052452 -0.05918339 0.06256742 -0.123635456 -0.13150862 -0.078841485 0.20256257
-0.2381148 -0.09612955 0.0690316 0.030551756 -0.063624784 0.006801283 -0.1120262 -0.15999894
0.05033196 -0.01283345 0.027615698 -0.03197425 0.0779834 -0.06038375 0.118970394 -0.06582292
0.079602465 0.1339622 -0.0895119 -0.075250275 -0.0139658535 0.05810591 -0.08358266 0.0008838268
0.089807265 0.071977586 0.011272749 0.17121534 -0.023371497 0.07848895 -0.083875716 -0.04340503
-0.14316183 -0.043756124 0.0070031113 -0.032354947 0.11334752 0.23191038 -0.044124328 -0.15887856
0.12875034 -0.05591372 -0.27602816 -0.10361917 -0.07775276 -0.03764859 -0.1004533 -0.18556942
0.09099475 0.16153324 -0.022417907 -0.1440355 0.022032216 -0.17253265 -0.0284055 -0.06817946
-0.048542403 -0.15211093 0.09433126 0.23551261 -0.12894377 -0.01718345 -0.039731212 -0.23710492
0.03203138 -0.05208608 -0.063186795 0.006488267 0.08929489 0.08264039 -0.10963838 0.060007356
00000000: 4813 3c3c 20f0 93bc b99d 343c 1d12 753c
00000010: 243b 95bb 822b a0bb d121 21bc fb80 86bb
00000020: a604 6e3c c041 c93b d42c 53bb d89f a8bc
00000030: 3fbe 0a3c 10c1 91bc 408f 1f3c 170d 36bc
00000040: 620b c63c 2a11 a83b 8051 74bb 6b87 d33b
00000050: c528 993c 0b6a 18bd 6747 0abb eef7 8d3c
00000060: 9931 3abd 55da 373c 78ba 433d 35e9 3c3d
00000070: c92b 023d 2493 c33c d428 9d3c 934e 19bc
00000080: 1721 1a3c b8da 873c ad92 5cbb 2cfa 883b
00000090: 7d61 8dbc f119 ab3a 6267 c53c 7d86 d4bc
000000a0: 1d8e cabc ffd0 08bd 226f 04bc ebde ca3c
000000b0: 02c9 93bc 047f 193b f727 e63c d5c9 3fbb
000000c0: a9ec f83c 8761 863c a781 8fbc f876 90bd
000000d0: c0c8 503c 66b5 bf39 2edb d7bc 2022 86bb
000000e0: 456c 073c 63ad 273d 1ca2 053d 0de2 9aba
000000f0: ac57 e6bb 2c48 c0bc 4fe7 2d3c 66d5 673b
00000100: 1e90 1fbd f8b4 d03c 2271 db3c d448 a33c
00000110: 1c9c 35bc 4f0d aa39 b66f d0bc 6996 adbd
00000120: 77fc 853c 4b5c 4f3c 5acd 31bd 9019 fcbc
00000130: 7182 fb3d 4802 9d3d 5fe3 263d 1f32 e33b
00000140: 7a8a 373c eb63 cfbb b7ff 35bb 4b44 403c
00000150: 4ace 9ebc 8421 cb3c e221 4dbc f5b8 9f3b
00000160: 29ac 853c b250 f5bb 6439 dd3c 4142 b0ba
00000170: bcf4 89bc e869 63bb c7c1 4c3c e3d5 a23c
00000180: 800d 0bbb 5850 953c 48cb ef3c 43f7 b83c
00000190: 952f cf3d 5a8e 413e b83e febc 9ef8 debd
000001a0: 275e ccbc b240 90bd 538d b5bc 6684 143d
000001b0: 078b 14bd 0686 ce3d 41ef f4bc ba62 8abc
000001c0: 198f 3c3d db99 453d d2e3 bb3c f7bc 5b3c
000001d0: b344 02be df9e 063d ecbf fa3d cdee 5b3d
000001e0: 33c0 19be 0cbf 12bd 4f0d ec3c 95d0 16be
000001f0: 3c32 673e b58e 14be ccc5 a03c 5786 4e3d
00000200: a98e 02be 8887 043c 7630 bf3d 00ba 563e
00000210: 855a c3bd b9fe 8a3a a400 b43c 1d5b 293d
00000220: 87a8 83bd 5d95 b33c cb3e 65bb d13e 50bd
00000230: fad5 163d 429a 8f3d 0599 31bd 3ef8 473e
00000240: 3f01 b9bd d1ce 2bbd 8568 c33d 56d9 57bc
00000250: 8d7e 33be 46cf 2dbd 7a49 a03d 900d 073d
00000260: 5ad9 dfbd c741 8dbc e39c 273e ff65 bfbc
00000270: 415b 06bd 5752 a63d c046 d83b b96c b03d
00000280: 9324 263e 9be6 a1be a16b b0bd e58f d3bc
00000290: 1d5d 45be ff11 f03d 13b2 913e b704 a03e
000002a0: 2e54 7f3e 566d 513e 4977 3eba 9a39 73be
000002b0: 9b86 99bd 5231 59bc 7f24 e73c 44ac 2f3c
000002c0: 0bc9 7b3e 8fd5 f63d 486a 72bd 5923 803d
000002d0: 9634 fdbd 32aa 06be a577 a1bd 906c 4f3e
000002e0: 5ed4 73be 92df c4bd 7160 8d3d ad47 fa3c
000002f0: b64d 82bd 4cdd de3b fe6d e5bd c3d6 23be
00000300: e328 4e3d 6443 52bc 513a e23c 6ef7 02bd
00000310: c3b5 9f3d f354 77bd c0a6 f33d 2bce 86bd
00000320: 9e06 a33d 632d 093e 0452 b7bd d11c 9abd
00000330: 09d1 64bc 7600 6e3d 632d abbd 9db0 673a
00000340: dfec b73d fc68 933d 56b1 383c 1353 2f3e
00000350: 9575 bfbc d1be a03d 08c7 abbd 79c9 31bd
00000360: 0499 12be 9f39 33bd 5b7a e53b 9f86 04bd
00000370: bf22 e83d ea79 6d3e b6bb 34bd 10b1 22be
00000380: 21d7 033e c905 65bd 9053 8dbe 4a36 d4bd
00000390: d73c 9fbd 6835 1abd 76ba cdbd e905 3ebe
000003a0: 755b ba3d f868 253e c2a5 b7bc 0b7e 13be
000003b0: e87c b43c 66ac 30be a7b2 e8bc aca1 8bbd
000003c0: 66d4 46bd f8c2 1bbe bf30 c13d 382a 713e
000003d0: d609 04be 4ec4 8cbc 32bd 22bd a2cb 72be
000003e0: 5633 033d 3758 55bd 1468 81bd 879b d43b
000003f0: 3de0 b63d 5d3f a93d 168a e0bd 46ca 753d

prop_layer.GRU.bias_ih_l0 f4 [30]
-0.006765867 -0.0041825618 0.05156594 0.02607209 0.03357364 0.014796818 0.008015746 0.19181938
-0.011929787 0.008723381 0.07313483 0.1782695 -0.16039473 -0.035160888 -0.24951518 -0.06987563
0.3171959 0.24690051 -0.10351487 -0.088834226 0.0078023365 -0.23419364 0.06236782 0.049782924
-0.3221227 -0.2850384 0.1022002 0.055887472 -0.02977113 -0.07027949
00000000: 35b4 ddbb df0d 89bb cf36 533d 2395 d53c
00000010: 8384 093d 5a6e 723c 7a54 033c 4d6c 443e
00000020: 2775 43bc 83ec 0e3c b7c7 953d 488c 363e
00000030: 843e 24be dd04 10bd e880 7fbe f41a 8fbd
00000040: 8067 a23e 7dd3 7c3e 9bff d3bd b8ee b5bd
00000050: beaa ff3b 75d0 6fbe 6675 7f3d 2ee9 4b3d
00000060: 44ed a4be 8ef0 91be 574e d13d 43ea 643d
00000070: 96e2 f3bc b1ee 8fbd

prop_layer.GRU.bias_hh_l0 f4 [30]
-0.006765867 -0.0041825618 0.05156594 0.02607209 0.03357364 0.014796818 0.008015746 0.19181938
-0.011929787 0.008723381 0.07315202 0.1781401 -0.1613306 -0.03541326 -0.2529657 -0.06987563
0.32406983 0.2469963 -0.10351143 -0.08883468 -0.02312375 -0.038795173 0.019917836 -0.0007777791
-0.04479946 -0.08111325 0.02927282 0.08172036 0.006956052 0.0020694763
00000000: 35b4 ddbb df0d 89bb cf36 533d 2395 d53c
00000010: 8384 093d 5a6e 723c 7a54 033c 4d6c 443e
00000020: 2775 43bc 83ec 0e3c bad0 953d 5c6a 363e
00000030: d933 25be 7f0d 11bd b884 81be f41a 8fbd
00000040: 7bec a53e 99ec 7c3e cdfd d3bd f5ee b5bd
00000050: 056e bdbc b0e7 1ebd bb2a a33c dfe3 4bba
00000060: a37f 37bd b41e a6bd 8ecd ef3c 015d a73d
00000070: 98ef e33b 0da0 073b

interaction_encoder.0.weight f4 [40, 40]
-0.30118766 0.19114125 0.017118152 -0.0809746 -0.05863958 0.053972714 0.035032805 -0.088182874
0.0061744554 -0.11259231 0.13491173 0.07916204 -0.098990895 0.11366256 0.013592559 0.03579843
0.17838733 0.018464802 0.095393576 0.18436113 -0.069624506 -0.025623303 -0.022567585 0.0020196885
0.07762589 0.18331476 0.101138175 0.009255053 0.14149712 -0.09185057 -0.16999799 0.048260402
0.02745245 -0.024488995 0.030755388 -0.022353033 0.25427085 0.013692205 0.018560693 0.043764185
0.07586001 -0.100998476 0.029252859 -0.06872452 -0.07837429 -0.07500152 -0.07020225 -0.106577896
0.16771412 0.16443312 -0.0060651586 -0.13060659 0.09362964 0.15864137 0.022669265 0.014358235
0.102634534 -0.015115361 0.11442048 0.13961956 0.08704369 0.057825133 -0.031022567 -0.11517542
-0.05975302 0.018143658 -0.10703336 -0.010190844 -0.08891993 -0.15406273 0.023687962 0.07209715
-0.031316057 0.2919961 -0.027247133 0.15263678 0.008359767 0.01631151 0.13427196 -0.0820502
-0.20760417 0.1490481 -0.18279488 -0.015861107 -0.047377367 -0.052741103 0.17253922 0.1042802
-0.0017519974 0.18770036 -0.11168771 0.09995959 -0.002236189 0.055494614 -0.021688623 0.119063474
-0.12482732 -0.003837504 -0.12446222 0.052536312 -0.09204385 0.20019874 0.10292488 -0.013114433
0.045189694 0.06378334 -0.027535554 -0.14626782 0.0941205 0.13988683 0.017978512 -0.011145602
-0.08754757 -0.059671637 0.013366224 -0.06935133 0.06580602 0.012306611 -0.21333726 0.12938155
-0.052413736 0.11442688 0.19853921 -0.13977066 -0.029945098 -0.06637802 -0.01484743 0.15236351
-0.19458269 -0.053001612 -0.15635142 -0.20244583 0.093153805 -0.09203363 0.12066041 0.016735556
0.17806767 0.004067428 0.05941167 0.07692391 -0.091159336 -0.053356346 0.2033687 0.055947654
-0.123645805 -0.10874871 0.054487493 -0.15142313 0.11476737 0.19206402 -0.17191315 0.11441054
-0.008486159 -0.13251637 -0.012836168 -0.11057873 0.03144534 0.017450623 -0.17512886 -0.05176834
0.0007534799 0.002690812 0.09280081 -0.059696663 0.08295536 0.07835031 -0.03337801 0.16117786
-0.040832702 -0.11078891 -0.076349854 -0.15017107 0.14627934 -0.05534661 0.11649291 0.012170183
0.0896605 0.008512939 -0.0058663134 -0.06932097 -0.087497 -0.01945239 -0.1902521 -0.009502531
0.05680763 0.02304141 -0.008194965 -0.19962448 0.15670486 -0.0154192345 -0.03871275 -0.14382558
-0.0036415886 -0.08214337 0.04564109 -0.10359628 0.14859568 0.011495985 0.06341158 -0.10266101
0.08589344 -0.12876223 -0.13187459 0.1706045 -0.07144912 0.0128828455 -0.04979195 0.20275867
0.060029745 -0.001823512 0.21010938 -0.12727875 -0.028712915 0.052994333 0.033245787 0.09276731
0.029437087 0.00023322203 -0.13141799 -0.1856496 0.17569259 -0.010239644 -0.05565859 -0.063054256
-0.22550412 -0.14983602 0.00020813868 -0.19383532 0.10322416 0.1323131 -0.29745695 0.16913086
0.15585239 -0.34664372 -0.015241914 0.09350848 0.008849973 -0.029839976 -0.024104476 0.09455676
0.0034331505 -0.17633717 0.21449775 -0.025240881 0.0227924 0.03940312 -0.2410186 -0.18262097
-0.14099436 0.06243268 -0.062414188 -0.022651738 -0.011652727 0.34033012 -0.025157176 0.15823376
00000000: 4535 9abe 88ba 433e 5e3b 8c3c 03d6 a5bd
00000010: 0e30 70bd 7e12 5d3d 8f7e 0f3d 3999 b4bd
00000020: 1653 ca3b cc96 e6bd 4d26 0a3e b51f a23d
00000030: bdbb cabd ebc7 e83d 53b3 5e3c 60a1 123d
00000040: 2bab 363e 7f43 973c b55d c33d 2ac9 3c3e
00000050: 4b97 8ebd f6e7 d1bc a8df b8bc c05c 043b
00000060: 53fa 9e3d ddb6 3b3e 8821 cf3d 81a2 173c
00000070: 9fe4 103e 271c bcbd f413 2ebe b3ac 453d
00000080: f6e3 e03c 259d c8bc b9f2 fb3c b51d b7bc
00000090: ca2f 823e 4555 603c 980c 983c 1342 333d
000000a0: 7e5c 9b3d 4ad8 cebd b1a3 ef3c 71bf 8cbd
000000b0: b382 a0bd 669a 99bd 32c6 8fbd 8345 dabd
000000c0: 40bd 2b3e 2861 283e 3dbe c6bb bcbd 05be
000000d0: e6c0 bf3d e272 223e e5b4 b93c cd3e 6b3c
000000e0: 0e32 d23d 6ba6 77bc 4955 ea3d 6ef8 0e3e
000000f0: f643 b23d 0cda 6c3d 0a23 febc 17e1 ebbd
00000100: 95bf 74bd 02a2 943c 4e34 dbbd 7ff7 26bc
00000110: a71b b6bd 9fc2 1dbe 420d c23c aca7 933d
00000120: 4445 00bd 8380 953e 6135 dfbc d14c 1c3e
00000130: 67f7 083c b79f 853c 977e 093e ef09 a8bd
00000140: 3096 54be 11a0 183e 952e 3bbe 27ef 81bc
00000150: c50e 42bd 0e07 58bd 1fae 303e dc90 d53d
00000160: 47a3 e5ba 8634 403e 87bc e4bd 9db7 cc3d
00000170: 078d 12bb 524e 633d 57ac b1bc 8dd7 f33d
00000180: 77a5 ffbd a27e 7bbb 0ce6 febd 5130 573d
00000190: 7c81 bcbd e600 4d3e 48ca d23d ebdd 56bc
000001a0: d418 393d d7a0 823d 3e92 e1bc 3bc7 15be
000001b0: 40c2 c03d 7e3e 0f3e ac47 933c 0b9c 36bc
000001c0: 244c b3bd 3f6a 74bd 02fe 5a3c 1208 8ebd
000001d0: 4ec5 863d aba1 493c 1575 5abe 997c 043e
000001e0: c9af 56bd a458 ea3d dd4d 4b3e 0a20 0fbe
000001f0: 6c4f f5bc 33f1 87bd a342 73bc 2e05 1c3e
00000200: af40 47be 3818 59bd 961a 20be f64d 4fbe
00000210: 6cc7 be3d 217c bcbd ce1c f73d 0119 893c
00000220: 5f57 363e 0f48 853b a759 733d 488a 9d3d
00000230: bfb1 babd 2f8c 5abd e23f 503e 5e29 653d
00000240: 033a fdbd a5b7 debd 472e 5f3d aa0e 1bbe
00000250: 280b eb3d 6eac 443e 000a 30be 1350 ea3d
00000260: 8809 0bbc 5fb2 07be ca4e 52bc 1a77 e2bd
00000270: d4cc 003d 9cf4 8e3c fb54 33be 0a0b 54bd
00000280: 2e85 453a 5658 303b 5a0e be3d 7d84 74bd
00000290: 80e4 a93d 2176 a03d 61b7 08bd cf0b 253e
000002a0: 3140 27bd 4ce5 e2bd 505d 9cbd 72c6 19be
000002b0: 40ca 153e 20b3 62bd d693 ee3d 7265 473c
000002c0: ed9f b73d db79 0b3c 343a c0bb 27f8 8dbd
000002d0: a131 b3bd 9e5a 9fbc 72d1 42be 81b0 1bbc
000002e0: 1eaf 683d 57c1 bc3c 2d44 06bc 5c6a 4cbe
000002f0: 3d77 203e f5a0 7cbc 4391 1ebd 0347 13be
00000300: b8a7 6ebb c83a a8bd 27f2 3a3d 492a d4bd
00000310: 7729 183e a859 3c3c eedd 813d f03f d2bd
00000320: e6e8 af3d 3fda 03be 220a 07be f2b2 2e3e
00000330: eb53 92bd 9212 533c a5f2 4bbd f89f 4f3e
00000340: c0e1 753d e902 efba ea26 573e 5c55 02be
00000350: 5937 ebbc 9610 593d bc2c 083d cafc bd3d
00000360: 0c26 f13c 108d 7439 7092 06be ee1a 3ebe
00000370: c2e8 333e 2ec4 27bc 43fa 63bd 9722 81bd
00000380: 8dea 66be 9d6e 19be cd3f 5a39 c47c 46be
00000390: 3067 d33d 167d 073e 474c 98be a430 2d3e
000003a0: c597 1f3e 497b b1be 39b9 79bc 6081 bf3d
000003b0: 7aff 103c f772 f4bc c076 c5bc f9a6 c13d
000003c0: b5fe 603b bb91 34be 4ca5 5b3e f7c5 cebc
000003d0: 21b7 ba3c 2a65 213d 94cd 76be fe00 3bbe
000003e0: d360 10be 69b9 7f3d 05a6 7fbd 2390 b9bc
000003f0: 14eb 3ebc c03f ae3e 6c16 cebc 0808 223e

interaction_encoder.0.bias f4 [40]
-0.04906773 -0.1671906 0.054854307 -0.038830288 0.0010272962 0.12965271 -0.15665546 -0.026190925
-0.00058203953 -0.062153544 -0.00062002125 -0.001183803 -0.05658583 -0.16362399 -4.922311e-10 -0.0006621754
-0.10996216 -0.0007801763 -5.5267527e-11 -0.15368891 -3.826327e-21 0.015815793 -0.13463418 0.09268643
-0.026586356 -0.09818271 0.09845208 -0.008297288 0.03210562 -0.1907716 0.0060700434 -0.18269335
-0.120843045 -0.060595028 -0.110088125 -0.02304933 -2.8615041e-09 -0.16839977 0.14535257 -0.12931763
00000000: 3efb 48bd 0334 2bbe e9ae 603d 820c 1fbd
00000010: 57a6 863a aec3 043e 4a6a 20be 5a8e d6bc
00000020: 0394 18ba b794 7ebd ec88 22ba d629 9bba
00000030: 8bc6 67bd 0c8d 27be af4d 07b0 d795 2dba
00000040: d733 e1bd bf84 4cba b411 73ae a060 1dbe
00000050: f78d 909d 1f90 813c 8bdd 09be 62d2 bd3d
00000060: a1cb d9bc 0414 c9bd 3ea1 c93d 59f1 07bc
00000070: 2f81 033d a159 43be 37e7 c63b f713 3bbe
00000080: 8f7c f7bd 7e32 78bd e275 e1bd f3d1 bcbc
00000090: 1da4 44b1 fd70 2cbe 4ed7 143e d76b 04be

interaction_encoder.2.weight f4 [20, 40]
-0.0075617917 -0.013560408 0.0030414986 -0.006637837 -0.0025101458 0.0034832659 -0.0058069048 0.006791468
9.876e-42 0.003454176 9.879e-42 -9.815e-42 0.001021663 0.0007878687 -9.945e-42 -9.925e-42
0.0025373353 -1.0141e-41 9.82e-42 0.0032422952 -9.92e-42 0.0023370762 0.0009778155 0.005636662
-8.709455e-12 -0.0043472634 -0.003659554 0.0069847894 -0.0076260823 0.0022600736 -0.003710814 0.001963943
0.008690101 -0.0025039965 0.005049739 -0.0006679035 9.858e-42 0.00059084804 -0.0010702212 0.00012395141
-0.0040041017 -0.00776711 0.0019456838 0.0028858946 -0.005876616 0.0034310753 -0.005251689 0.0023001388
9.962e-42 0.0014957107 -1.0015e-41 1e-41 -0.0006188763 0.0006322534 9.872e-42 -9.855e-42
0.0037185063 -1.0888e-41 9.917e-42 0.0019496651 -9.833e-42 0.00077409256 0.004410168 0.0033113095
-1.1327656e-11 -0.004523275 -0.0020428519 0.0019785697 0.0030503618 -0.0024398316 -0.00011751987 0.0026692618
0.0055184476 0.00024463987 0.0015309163 0.0037575215 9.816e-42 -0.003844535 -0.000674219 0.0036887901
-0.0015934138 0.009338998 -0.0035572373 0.016426327 -0.0055972734 -0.0034617987 -0.005740379 -0.012158596
-1.001e-41 0.0011955479 -9.928e-42 9.941e-42 -0.00387732 -0.004237172 1.0305e-41 -9.903e-42
0.006912258 -1.088e-41 9.927e-42 -0.0041902424 -9.812e-42 -0.010548491 0.0028554774 -0.004803359
2.5549116e-14 0.002965971 0.0076357354 0.005900904 0.0135055175 -0.006230863 0.006376839 0.003040543
0.0051188804 -0.0023606066 -0.0042302897 0.0032859219 -9.921e-42 -0.0042830952 0.0056260824 0.006684586
0.0058803866 0.010615045 -0.0020794454 4.6550194e-06 0.0068297735 -0.0033844837 0.006016937 -0.0045617498
-9.819e-42 -0.002786965 -9.97e-42 -9.892e-42 -0.00033562933 -0.0008972223 9.871e-42 -9.822e-42
-0.004593228 -1.1219e-41 -9.946e-42 -0.0018950993 9.927e-42 -0.0020060488 -0.0035112298 -0.0037973477
1.4026506e-12 0.00519688 0.003112553 -0.003888298 0.0004368374 0.0011601703 0.0015841819 -0.0024589493
-0.0059112464 0.00029890361 -0.0011603411 -0.0029530795 -9.913e-42 0.0032789162 0.00120009 -0.0019839583
-0.005233667 -0.013746371 0.003181285 -0.008093698 -0.0037483673 0.0032176191 -0.0042010653 0.0044417507
-9.963e-42 0.0030890028 -9.841e-42 -1.001e-41 -0.0006616728 -0.0001773354 1.0985e-41 9.827e-42
-0.0013756062 -1.0932e-41 9.988e-42 0.0053143976 -9.816e-42 0.0010786884 0.0027047386 0.0022704732
-1.6537288e-09 -0.0027619998 -0.0044676587 0.004562279 -0.0047638686 0.0006180773 -0.0048790323 0.0022831722
0.005638425 -0.0022663914 0.0069981823 -0.003727799 9.88e-42 0.0029898752 -0.00032294553 -0.00046440974
-0.00028262247 0.00033517912 0.00070767157 0.0039881677 0.00057571614 0.0019175323 -0.0026934398 -0.0013542909
-1.0033e-41 -0.00018211264 9.827e-42 9.923e-42 0.0010562721 -0.0009789187 1.0259e-41 -9.903e-42
0.00075765356 9.86e-42 9.846e-42 0.00011921819 -9.935e-42 -0.0017906085 0.0030183007 0.0005256398
-1.5225146e-10 -0.0020927761 -0.0012822166 0.0010175674 0.005965022 -0.0031647212 0.0023986353 0.0016181679
0.004693099 0.0012699992 0.00089926616 0.0037130285 9.857e-42 -0.006271754 3.0465688e-05 0.0014859722
0.005746102 0.008882991 -0.0019090495 0.007004654 -0.0006082782 -0.0018017453 0.008007621 -0.0049288687
-9.836e-42 -0.0015916966 1.121e-42 -9.865e-42 -0.0009835289 9.576354e-05 1.0049e-41 9.817e-42
00000000: e8c8 f7bb 792c 5ebc e153 473b 3682 d9bb
00000010: 4281 24bb 8147 643b d947 bebb f68a de3b
00000020: 881b 0000 755f 623b 8a1b 0000 5c1b 0080
00000030: 52e9 853a f988 4e3a b91b 0080 ab1b 0080
00000040: 6c49 263b 451c 0080 601b 0000 b07c 543b
00000050: a71b 0080 a229 193b 0b2a 803a bfb3 b83b
00000060: e637 19ad 7d73 8ebb 21d5 6fbb a9e0 e43b
00000070: 37e4 f9bb be1d 143b 2131 73bb 7fb5 003b
00000080: ed60 0e3c 171a 24bb 4878 a53b 3f16 2fba
00000090: 7b1b 0000 24e3 1a3a aa46 8cba f4f8 0139
000000a0: d734 83bb 3e83 febb 5106 ff3a 4721 3d3b
000000b0: a190 c0bb e4db 603b 5c16 acbb edbd 163b
000000c0: c51b 0000 b90b c43a eb1b 0080 e01b 0000
000000d0: 163c 22ba cfbd 253a 851b 0000 791b 0080
000000e0: 2fb2 733b 5a1e 0080 a51b 0000 e88b ff3a
000000f0: 691b 0080 79ec 4a3a 2c83 903b 8e02 593b
00000100: 3a47 47ad fb37 94bb 5ee1 05bb e4aa 013b
00000110: 94e8 473b 95e5 1fbb 0075 f6b8 c8ee 2e3b
00000120: 18d4 b43b 0243 8039 07a9 c83a c040 763b
00000130: 5d1b 0000 98f4 7bbb 12be 30ba a1bf 713b
00000140: 18da d0ba 9902 193c 8a20 69bb 8190 863c
00000150: 5569 b7bb 58df 62bb ca19 bcbb d934 47bc
00000160: e71b 0080 eeb3 9c3a ad1b 0080 b61b 0000
00000170: a31a 7ebb fad7 8abb ba1c 0000 9b1b 0080
00000180: 3980 e23b 541e 0080 ac1b 0000 4d4e 89bb
00000190: 5a1b 0080 94d3 2cbc f622 3b3b 7f65 9dbb
000001a0: 4020 e628 bc60 423b 3135 fa3b 5f5c c13b
000001b0: 3f46 5d3c 442c ccbb cdf4 d03b d943 473b
000001c0: 48bc a73b 68b4 1abb 3e9e 8abb 9f58 573b
000001d0: a81b 0080 3559 8cbb 005b b83b 5f0a db3b
000001e0: 42b0 c03b baea 2d3c 4e47 08bb 5032 9c36
000001f0: 4bcc df3b 37ce 5dbb ba29 c53b bb7a 95bb
00000200: 5f1b 0080 84a5 36bb cb1b 0080 931b 0080
00000210: 68f7 afb9 9233 6bba 841b 0000 611b 0080
00000220: ca82 96bb 461f 0080 ba1b 0080 fb64 f8ba
00000230: ac1b 0000 ea77 03bb a91c 66bb ecdc 78bb
00000240: d067 c52b 974a aa3b f9fb 4b3b d1d2 7ebb
00000250: 5307 e539 db10 983a 53a4 cf3a 5326 21bb
00000260: 21b3 c1bb 2ab6 9c39 9616 98ba 7488 41bb
00000270: a21b 0080 16e3 563b 574c 9d3a 4c05 02bb
00000280: 2e7f abbb 7538 61bc 1b7d 503b 6e9b 04bc
00000290: 2ba7 75bb b1de 523b 17a9 89bb 1b8c 913b
000002a0: c61b 0080 de70 4a3b 6f1b 0080 e71b 0080
000002b0: 1c74 2dba 1cf3 39b9 9f1e 0000 651b 0000
000002c0: af4d b4ba 791e 0080 d81b 0000 6624 ae3b
000002d0: 5d1b 0080 c762 8d3a fc41 313b 38cc 143b
000002e0: 6949 e3b0 ab02 35bb 7065 92bb 2c7f 953b
000002f0: 3a1a 9cbb 7706 223a 4ae0 9fbb 46a1 153b
00000300: 89c2 b83b bd87 14bb 0251 e53b 174e 74bb
00000310: 8b1b 0000 c8f1 433b 0451 a9b9 057c f3b9
00000320: f22c 94b9 fbba af39 0983 393a 2daf 823b
00000330: a8eb 163a b555 fb3a 6c84 30bb 7682 b1ba
00000340: f81b 0080 7df5 3eb9 651b 0000 a91b 0000
00000350: 9c72 8a3a 104f 80ba 991c 0000 9b1b 0080
00000360: 459d 463a 7c1b 0000 721b 0000 c704 fa38
00000370: b21b 0080 dab2 eaba afce 453b 17cb 093a
00000380: fa66 27af f526 09bb 0d10 a8ba e55f 853a
00000390: 3b76 c33b 3667 4fbb 6c32 1d3b b418 d43a
000003a0: 91c8 993b 1a76 a63a bbbc 6b3a 4856 733b
000003b0: 7a1b 0000 4983 cdbb 9190 ff37 f4c4 c23a
000003c0: cc49 bc3b f789 113c 1239 faba 4c87 e53b
000003d0: dc74 1fba 8a28 ecba 6632 033c 5982 a1bb
000003e0: 6b1b 0080 7aa0 d0ba 2003 0000 801b 0080
000003f0: c1e9 80ba a9d4 c838 031c 0000 5e1b 0000

interaction_encoder.2.bias f4 [20]
-0.0030232966 -0.00030283348 0.004157854 0.0017525925 -0.0029965632 0.0018531587 0.0023724954 -0.15135321
-0.09227554 -0.007178746 0.0133724045 -0.15090866 0.051978294 0.001882695 -0.17324255 0.054703657
0.018178957 0.0036078743 0.003327793 -0.005559095
00000000: 8022 46bb 9fc5 9eb9 9b3e 883b 3fb7 e53a
00000010: fd61 44bb b0e5 f23a de7b 1b3b 56fc 1abe
00000020: f5fa bcbd b03b ebbb ee17 5b3c cd87 1abe
00000030: 31e7 543d c3c4 f63a 7f66 31be f110 603d
00000040: 09ec 943c 1672 6c3b 1a17 5a3b 1229 b6bb

sinkhorn_feature_layers.0.weight f4 [16, 20]
-9.865e-42 1.1149e-41 -9.855e-42 -9.87e-42 9.813e-42 9.826e-42 -1.7962665e-24 9.864e-42
9.846e-42 -9.896e-42 -9.9e-42 -9.886e-42 1.1855e-41 -1.4770074e-29 9.843e-42 -9.827e-42
9.87e-42 1.19e-41 -9.87e-42 9.812e-42 -0.0008037021 -5.674605e-06 -0.00075217267 4.3403244e-08
-3.259439e-05 -0.00019365139 -0.0029362212 4.0020837e-05 -0.00061511423 -0.00054230116 -0.0001552988 -0.00095321785
7.609403e-12 -0.0065522785 -9.200903e-07 9.85547e-06 -0.00019449982 -4.6544896e-21 -0.0002628999 -0.00014146228
0.3151453 0.22549933 -0.14964864 -0.033276353 0.015642406 0.088390216 -0.15373394 0.116981536
0.13366927 0.40151036 -0.14257829 0.16521543 0.09669677 0.12940015 0.1265906 -0.0656684
-0.009005638 0.0017386082 -0.29758975 0.34204787 -0.17942126 0.13055447 0.109400034 0.05650778
0.13874893 0.29288983 0.31433588 0.08658807 0.058883354 0.05210622 0.0023807872 0.36309808
0.036811966 -0.2913866 0.09525844 -0.12581484 0.6756566 0.019742617 -0.15068565 0.37772575
-9.899e-42 -9.819e-42 9.817e-42 -9.86e-42 9.885e-42 -9.822e-42 5.01e-42 -9.853e-42
9.879e-42 9.819e-42 -9.876e-42 9.83e-42 -9.87e-42 -5.7093053e-34 9.813e-42 9.909e-42
-9.817e-42 9.878e-42 -9.888e-42 1.2047e-41 0.47817948 -0.11491911 0.0054388433 0.033199787
-0.034779515 0.20991838 0.12213794 -0.07922944 0.11227599 -0.10666261 0.33684042 0.37393
0.17114685 -0.12989688 0.069323316 -0.06449033 0.050789494 0.013797101 0.10113175 -0.36458305
-0.020594243 -0.1550574 -0.3294582 -0.060529966 0.110913895 0.10094888 -0.007850741 0.42518267
-0.34895664 0.0096794795 -0.099666595 -0.27504176 0.06832115 0.08066517 0.15962803 -0.041113053
0.10843403 0.008987318 0.11173718 0.15933056 1.2180859e-15 7.418938e-16 5.2026974e-15 6.5413236e-16
-2.0575435e-16 2.4077013e-15 -9.0214235e-15 3.6078335e-15 -7.0139797e-16 -4.102366e-15 -8.991726e-16 -4.0098481e-16
-5.30873e-16 -7.118305e-14 3.8322104e-15 6.720808e-16 -4.754459e-16 3.3981678e-17 2.2571906e-15 -5.444899e-15
4.6372932e-18 1.2608425e-17 -1.9305252e-17 -6.3239506e-17 -1.52869e-17 -4.0930197e-17 3.3257634e-17 9.701865e-17
9.3529444e-17 -9.106664e-18 -1.4539698e-17 8.642148e-18 1.4905973e-17 -6.060292e-17 -7.0868626e-17 7.557288e-17
9.665092e-18 -3.878367e-17 -1.8412021e-17 -1.6747805e-17 -6.5402347e-28 -9.907e-42 -3.7470134e-32 9.816e-42
-9.867e-42 9.896e-42 -3.023271e-37 9.841e-42 6.973e-42 -5.2021106e-33 1.524983e-39 -1.5201845e-33
-9.904e-42 -1.984489e-14 -9.812e-42 9.904e-42 -9.902e-42 9.885e-42 3.86334e-40 4.571751e-31
-0.005762472 0.00031981617 -0.008467344 -0.00047272534 -0.0012596908 -0.00038727038 0.003835521 -0.001573778
-0.0036597457 -0.012113744 -0.006368431 -0.0067842808 -0.0011746449 0.00047530918 -0.00045478065 0.00017995083
-0.0090822745 0.00015808325 -0.0022828046 0.0005201518 0.064394034 0.052968305 0.1218256 0.034030873
-0.1389427 -0.32520062 -0.16703446 -0.18847363 0.06474948 0.35774598 0.080083236 0.15202858
0.13055718 0.06746606 0.04112326 -0.25031462 -0.0124680195 -0.0015460469 0.08270734 -0.06679867
-0.17336081 0.054289598 0.16848923 0.025039054 0.26924855 0.05969151 0.49127373 -0.057374362
0.070703804 0.0001872358 -0.06343956 -0.057067785 -0.12849532 -0.092633195 -0.08530521 -0.083412126
00000000: 801b 0080 141f 0000 791b 0080 831b 0080
00000010: 5b1b 0000 641b 0000 b9fa 0a98 7f1b 0000
00000020: 721b 0000 961b 0080 991b 0080 8f1b 0080
00000030: 0c21 0000 4ec9 958f 701b 0000 651b 0080
00000040: 831b 0000 2c21 0000 831b 0080 5a1b 0000
00000050: 89af 52ba 7c68 beb6 742d 45ba 5f6a 3a33
00000060: f6b5 08b8 e60e 4bb9 9e6d 40bb 0cdc 2738
00000070: 9e3f 21ba 3729 0eba b4d7 22b9 5ee1 79ba
00000080: b4dd 052d 7fb4 d6bb 20fc 76b5 ec58 2537
00000090: a6f2 4bb9 76d7 af9d d4d5 89b9 7e55 14b9
000000a0: ba5a a13e 4ce9 663e 7e3d 19be c94c 08bd
000000b0: 8124 803c ee05 b53d 6e6c 1dbe 0494 ef3d
000000c0: 99e0 083e c492 cd3e 0b00 12be 3c2e 293e
000000d0: f508 c63d 7981 043e f7a0 013e 277d 86bd
000000e0: 628c 13bc 03e2 e33a af5d 98be e620 af3e
000000f0: 35ba 37be 12b0 053e 200d e03d b474 673d
00000100: 3314 0e3e a8f5 953e a2f0 a03e 1655 b13d
00000110: ac2f 713d 556d 553d fb06 1c3b fee7 b93e
00000120: 25c8 163d a030 95be db16 c33d 9bd5 00be
00000130: d5f7 2c3f 45bb a13c 574d 1abe 4565 c13e
00000140: 981b 0080 5f1b 0080 5e1b 0000 7c1b 0080
00000150: 8e1b 0000 611b 0080 f70d 0000 771b 0080
00000160: 8a1b 0000 5f1b 0000 881b 0080 671b 0000
00000170: 831b 0080 66b9 3d88 5b1b 0000 9f1b 0000
00000180: 5e1b 0080 891b 0000 901b 0080 9521 0000
00000190: f1d3 f43e b65a ebbd 5338 b23b 80fc 073d
000001a0: f774 0ebd d8f4 563e 7523 fa3d 0b43 a2bd
000001b0: f4f0 e53d ed71 dabd 5976 ac3e c173 bf3e
000001c0: 1f41 2f3e b003 05be 62f9 8d3d 8213 84bd
000001d0: a508 503d 3c0d 623c 2a1e cf3d a1aa babe
000001e0: 42b5 a8bc 5ec7 1ebe bfae a8be 45ee 77bd
000001f0: d326 e33d 49be ce3d 65a0 00bc 8bb1 d93e
00000200: 72aa b2be ae96 1e3c 001e ccbd 46d2 8cbe
00000210: f6eb 8b3d c833 a53d 8875 233e 2966 28bd
00000220: a912 de3d 8b3f 133c 76d6 e43d 8d27 233e
00000230: 708b af26 1ad6 5526 6a72 bb27 738a 3c26
00000240: f737 6da5 407e 2d27 f983 22a8 64fc 8127
00000250: 092a 4aa6 a6cd 93a7 9d95 81a6 ea26 e7a5
00000260: 8303 19a6 3c4a a0a9 e711 8a27 cfb6 4126
00000270: b709 09a6 7cb6 1c24 d1a5 2227 542c c4a7
00000280: ff15 ab22 9b95 6823 3d0f b2a3 04d2 91a4
00000290: 2cff 8ca3 d9c1 3ca4 af5f 1924 b4b5 df24
000002a0: 0aaa d724 01fd 27a3 e41a 86a3 646b 1f23
000002b0: bc7b 8923 a6bd 8ba4 7469 a3a4 5b42 ae24
000002c0: 1b4a 3223 addb 32a4 28d2 a9a3 a378 9aa3
000002d0: b044 4f92 9e1b 0080 5a8e 428b 5d1b 0000
000002e0: 811b 0080 961b 0000 cfc0 cd82 6f1b 0000
000002f0: 7013 0000 5416 d889 089b 1000 7f95 fc88
00000300: 9c1b 0080 33bf b2a8 5a1b 0080 9c1b 0000
00000310: 9a1b 0080 8e1b 0000 f134 0400 9f5c 140d
00000320: 1ed3 bcbb 00ad a739 9dba 0abc 1fd8 f7b9
00000330: 361c a5ba 8d0a cbb9 5d5d 7b3b 3a47 ceba
00000340: 58d8 6fbb ba78 46bc 45ae d0bb ac4e debb
00000350: 8bf6 99ba eb32 f939 a06f eeb9 2fb1 3c39
00000360: d2cd 14bc 26c3 2539 1b9b 15bb cc5a 083a
00000370: 05e1 833d 4bf5 583d b37f f93d f563 0b3d
00000380: ff46 0ebe b280 a6be 150b 2bbe 3bff 40be
00000390: 609b 843d 7b2a b73e ae02 a43d 61ad 1b3e
000003a0: c8b0 053e a52b 8a3d dd70 283d 3d29 80be
000003b0: aa46 4cbc baa4 caba 7762 a93d becd 88bd
000003c0: 7f85 31be c55e 5e3d 7188 2c3e b41e cd3c
000003d0: f2da 893e 167f 743d 3b88 fb3e 6101 6bbd
000003e0: 28cd 903d ba54 4439 9aec 81bd e9bf 69bd
000003f0: 4794 03be 79b6 bdbd 7fb4 aebd fad3 aabd
