paper_artifacts/collection/isonet/trained_models/isonet_ptc_fr_large_dataset_seed_1704_2024-04-08_19:32:31.pth (torch, 12284 bytes, 14 tensors)

encoder.MLP1.0.weight f4 [10, 1]
0	0x3da0cc68	0.078514874
1	0x3e30f19b	0.17279665
2	0x3ed82fc8	0.42223954
3	0x3cd0007a	0.025390852
4	0xbe892a99	-0.26790312
5	0xbe4e9328	-0.20173323
6	0x3f461a8b	0.7738425
7	0xbe5c659c	-0.21523136
8	0x3dc1191e	0.09428619
9	0x3e9d61da	0.30738717

encoder.MLP1.0.bias f4 [10]
0	0x3da0e8fd	0.07856939
1	0x3e30ec3b	0.17277615
2	0x3ed7c849	0.42144993
3	0x3c9a1fb2	0.018813942
4	0xbe884fbe	-0.26623338
5	0xbe4ed97b	-0.2020015
6	0x3f4703a5	0.77739936
7	0xbe6a3d1a	-0.22874871
8	0x3da8c967	0.082415394
9	0x3e9bfabe	0.3046474

prop_layer._message_net.0.weight f4 [20, 21]
0	0xbe68f5eb	-0.2275006
1	0x3f0efab6	0.55851305
2	0xbec2f7a9	-0.38079575
3	0x3cf57406	0.02996255
4	0xbcc7795d	-0.024349863
5	0x3e269ebc	0.1627149
6	0x3edd8cab	0.43271384
7	0x3e6975dc	0.22798866
8	0xbc8695ab	-0.01642879
9	0x3f335dd6	0.7006506
10	0xbf019736	-0.50621355
11	0xbe872b26	-0.26400107
12	0x3e86ecb6	0.2635247
13	0xbe4d0d22	-0.20024541
14	0x3dd9e769	0.10639841
15	0xbd917da9	-0.07104046
16	0xbeea5f45	-0.4577581
17	0x3e674997	0.22586666
18	0xbc0fbf9f	-0.008773713
19	0xbdf3b882	-0.119004264
20	0x3d7bb613	0.061452936
21	0x3e1ef494	0.15522987
22	0xbe70460c	-0.23464221
23	0x3c991fe0	0.018691957
24	0xbc26055c	-0.010133114
25	0xbe3059b3	-0.17221718
26	0x3eb19608	0.34684777
27	0xbe729cb5	-0.23692591
28	0xbe84d7c8	-0.25945878
29	0xbe306d71	-0.17229249
30	0x3e805eb6	0.2507226
31	0xbd1532ea	-0.03642551
32	0x3d3fac8e	0.04679542
33	0xbe1f91c1	-0.15582944
34	0x3ebc3fc0	0.36767387
35	0x3ce19feb	0.027542075
36	0x3e7bfcce	0.24608156
37	0xbe494cf6	-0.19658265
38	0xbe2058ac	-0.15658826
39	0xbe08aa3b	-0.13346188
40	0x3d926732	0.07148589
41	0x3e014d38	0.12627113
42	0xbdc33c64	-0.09533003
43	0xbd880045	-0.066406764
44	0x3f141229	0.5784021
45	0x3e92e39c	0.28689277
46	0x3e36c1f7	0.17847429
47	0xbd847b72	-0.06468858
48	0xbe352bdc	-0.17692512
49	0x3e8beec2	0.27330595
50	0xbdeca800	-0.11555481
51	0xbf00ed99	-0.50362545
52	0xbd034717	-0.03205022
53	0xbe4fa0a5	-0.20276125
54	0xbcd11fef	-0.025527922
55	0x3e16fbbf	0.14744471
56	0xbe237968	-0.15964282
57	0xbcc56a04	-0.024098404
58	0x3e24384f	0.16037105
59	0x3cb9c140	0.022675157
60	0xbec8606b	-0.3913606
61	0xbe2cc77a	-0.1687297
62	0x3e2f01ba	0.17090502
63	0x3e22678a	0.1585981
64	0xbc9895f6	-0.018626194
65	0x3e89b0d1	0.26892713
66	0xbd53d4a8	-0.051716477
67	0x3e3fbfb5	0.18725474
68	0xbdbd3079	-0.09237761
69	0xbe555107	-0.2083169
70	0xbda3e2e9	-0.08002264
71	0x3e5fccbb	0.21855442
72	0x3e98bacc	0.29830015
73	0x3d105fa6	0.035247467
74	0x3dd43005	0.103607215
75	0xbeb13e23	-0.3461772
76	0xbdf2a971	-0.11848725
77	0xbe2a22cb	-0.16614835
78	0x3db01a51	0.085987695
79	0x3ddef1fd	0.10885999
80	0x3e054e44	0.13018137
81	0xbc416025	-0.011802708
82	0xbd472794	-0.04862173
83	0x3c9511a7	0.018196894
84	0x3ef35d88	0.47532296
85	0xbeae0f21	-0.33995917
86	0x3ce496dd	0.027903968
87	0xbe10c34f	-0.14137004
88	0xbdb943b8	-0.090461195
89	0x3db31ee2	0.08746125
90	0x3d8364f5	0.064157404
91	0x3ee22a55	0.44172922
92	0x3edcb09f	0.431035
93	0x3e02be57	0.12767921
94	0x3daeaeaa	0.08529408
95	0x3e7c1d26	0.24620494
96	0xbbac28bc	-0.0052538794
97	0x3ea029c2	0.3128186
98	0x3e14301e	0.1447148
99	0x3e3c5496	0.18391642
100	0x3e65bd97	0.22435604
101	0x3e03699d	0.12833257
102	0x3e124654	0.1428464
103	0x3dd6587a	0.10466094
104	0x3dccd3f3	0.100013636
105	0x3d43f188	0.047837764
106	0xbeb39add	-0.3507909
107	0x3f00bc96	0.5028776
108	0xbd8b8e1d	-0.06814215
109	0xbea3bac4	-0.31978428
110	0x3a8786bd	0.0010339838
111	0x3dc018ac	0.09379706
112	0xbe7ff13d	-0.24994369
113	0xbdcf1255	-0.101109184
114	0xbe1991f6	-0.14997086
115	0x3e2366a5	0.15957125
116	0x3e9bbe46	0.30418605
117	0xbe7fe475	-0.24989493
118	0xbdbf31f5	-0.093357004
119	0x3e78ef53	0.24310045
120	0xbb3b2823	-0.002855786
121	0xbed4e6c0	-0.41582298
122	0xbdea08fc	-0.11427495
123	0x3e69aba4	0.22819382
124	0xbd8d9183	-0.0691252
125	0x3d8b216c	0.06793484
126	0xbed01266	-0.40639037
127	0xbbca5183	-0.0061742677
128	0x3ed37576	0.41300553
129	0x3c2d4255	0.010574897
130	0xbe815a93	-0.25264415
131	0x3e51665d	0.20449205
132	0x3dbfa862	0.09358288
133	0xbe22430b	-0.15845887
134	0xbe2d7331	-0.16938473
135	0x3dc2cd3b	0.09511801
136	0xbd99d085	-0.07510475
137	0xbdd8c5df	-0.10584616
138	0xbefe1909	-0.49628475
139	0x3e209e64	0.15685421
140	0x3d965ec1	0.073422916
141	0x3e270095	0.16308816
142	0xbe37bd3c	-0.17943281
143	0xbda7e7a6	-0.0819848
144	0xbe25b0b3	-0.16180687
145	0x3e7e6c59	0.24846019
146	0x3d311815	0.043235857
147	0x3da063b1	0.078315146
148	0xbe4eb012	-0.20184353
149	0xbdba9e3c	-0.09112212
150	0x3ea3f909	0.32025936
151	0x3e78096a	0.24222341
152	0x3d000fad	0.03126495
153	0x3e254a42	0.16141608
154	0xbdfca201	-0.12335587
155	0x3e1259b1	0.14292027
156	0xbc8726b0	-0.01649794
157	0x3eb3e08f	0.35132262
158	0x3e680e63	0.22661738
159	0x3e099cd2	0.13438728
160	0xbcce9bea	-0.02522083
161	0xbd47456d	-0.048650194
162	0xbe20c8c6	-0.15701589
163	0xbddbedc9	-0.10738713
164	0x3e896b9c	0.26839912
165	0x3d273eab	0.04083125
166	0x3df25dd6	0.11834304
167	0x3ccd0d9b	0.025030902
168	0x3da81c1a	0.08208485
169	0x3e893049	0.2679465
170	0xbbdadc94	-0.006679127
171	0xbe0bae16	-0.13640627
172	0x3d67c1f3	0.05658145
173	0xbd387695	-0.045034964
174	0xbf1af601	-0.6053162
175	0x3e8fed14	0.28110564
176	0x3d8f306a	0.06991656
177	0xbbabd494	-0.005243847
178	0xbcf5f09f	-0.030021964
179	0xbe36a694	-0.17836982
180	0xbe10aa09	-0.14127363
181	0x3d07108d	0.03297477
182	0x3e5baebc	0.21453375
183	0xbe94f0ce	-0.2908997
184	0xbebaa51d	-0.36454096
185	0x3e9f6094	0.3112837
186	0x3d112ea0	0.035444856
187	0x3dd4d801	0.10392762
188	0x3de73781	0.112898834
189	0xbd867778	-0.065657556
190	0xbe84845a	-0.25882226
191	0xbdb34edf	-0.08755278
192	0xbd29e1ea	-0.041475214
193	0xbe8e4e6a	-0.277942
194	0xbeb66eec	-0.35631502
195	0x3dfbc0a1	0.122926004
196	0x3d8a8bda	0.06764956
197	0xbc168220	-0.009186298
198	0xbf1bf758	-0.6092429
199	0x3e19e0d0	0.15027165
200	0x3eb524ed	0.35379735
201	0x3d47059d	0.048589338
202	0xbea0843e	-0.31350893
203	0xbe14ba1f	-0.14524125
204	0x3e8382db	0.25685772
205	0xbe3b3270	-0.18280959
206	0xbdb2b473	-0.08725824
207	0xbd87a0cc	-0.066224664
208	0x3e4d2204	0.20032507
209	0x3d95aaaf	0.07307946
210	0xbe288013	-0.16455106
211	0x3e01fe5a	0.12694684
212	0xbecf1a88	-0.4044993
213	0x3dfc7c10	0.123283505
214	0x3e49de0f	0.19713615
215	0x3e0837f4	0.13302594
216	0x3dc094c3	0.09403374
217	0xbdbe765d	-0.0929992
218	0xbdf608a8	-0.1201337
219	0x3e187acf	0.14890598
220	0xbd18b74e	-0.037284188
221	0xbe13a11a	-0.14416924
222	0x3ea37a90	0.31929445
223	0x3d7a7e6d	0.061155725
224	0x3ced9790	0.029002935
225	0xbdf26b28	-0.11836845
226	0xbe145e52	-0.14489105
227	0x3cf6139f	0.030038653
228	0x3da2df29	0.07952721
229	0xbd3c1106	-0.045914672
230	0xbc5668dd	-0.013086525
231	0x3c2881dd	0.010284868
232	0x3c79f595	0.015256305
233	0x3c05e2c0	0.008171737
234	0x3be7d8dd	0.0070754127
235	0xbb478e78	-0.0030449908
236	0x3d3b1ba9	0.045680676
237	0xbd0d6ba5	-0.034526486
238	0x3c391cde	0.011298386
239	0x3d06cc0d	0.03290944
240	0x3cc17e12	0.023619685
241	0xbc2aff56	-0.010436853
242	0x3d0e397b	0.034722786
243	0xbc8af5b2	-0.01696286
244	0xbc508a43	-0.012728277
245	0xbbc6e735	-0.0060700425
246	0x3a88c3cc	0.0010434329
247	0xbc0e29d7	-0.008676968
248	0xbd035b83	-0.032069694
249	0x3c320c3c	0.010867175
250	0x3ca7db13	0.020490205
251	0x3c8a19e6	0.016858052
252	0x3cb5f877	0.022213204
253	0xbefc982e	-0.49334854
254	0xbcdb9406	-0.026803982
255	0x3c137ddd	0.009002176

prop_layer._message_net.0.bias f4 [20]
0	0x3d2a2752	0.041541405
1	0x3ddf3bc7	0.109000735
2	0x3e2f7f86	0.1713849
3	0x3beea31f	0.007282629
4	0x3dbcf39f	0.092261545
5	0x3d8947fb	0.06703182
6	0x3d3692c1	0.04457355
7	0x3c83cb8d	0.016088272
8	0x3de30f2d	0.11086879
9	0x3ded9165	0.115999974
10	0xbd1dcd09	-0.038525615
11	0x3c871024	0.016487189
12	0x3daf63cf	0.08563959
13	0x3e679b12	0.22617748
14	0x3d06d3bc	0.03291677
15	0x3d9c1850	0.07621825
16	0xbd11a2fc	-0.035555825
17	0x3e1d06a5	0.15334566
18	0x3de4495f	0.11146807
19	0x3d25528f	0.040361937

prop_layer._reverse_message_net.0.weight f4 [20, 21]
0	0xbe68f5eb	-0.2275006
1	0x3f0efab6	0.55851305
2	0xbec2f7a9	-0.38079575
3	0x3cf57406	0.02996255
4	0xbcc7795d	-0.024349863
5	0x3e269ebc	0.1627149
6	0x3edd8cab	0.43271384
7	0x3e6975dc	0.22798866
8	0xbc8695ab	-0.01642879
9	0x3f335dd6	0.7006506
10	0xbf019736	-0.50621355
11	0xbe872b26	-0.26400107
12	0x3e86ecb6	0.2635247
13	0xbe4d0d22	-0.20024541
14	0x3dd9e769	0.10639841
15	0xbd917da9	-0.07104046
16	0xbeea5f45	-0.4577581
17	0x3e674997	0.22586666
18	0xbc0fbf9f	-0.008773713
19	0xbdf3b882	-0.119004264
20	0x3d7bb613	0.061452936
21	0x3e1ef494	0.15522987
22	0xbe70460c	-0.23464221
23	0x3c991fe0	0.018691957
24	0xbc26055c	-0.010133114
25	0xbe3059b3	-0.17221718
26	0x3eb19608	0.34684777
27	0xbe729cb5	-0.23692591
28	0xbe84d7c8	-0.25945878
29	0xbe306d71	-0.17229249
30	0x3e805eb6	0.2507226
31	0xbd1532ea	-0.03642551
32	0x3d3fac8e	0.04679542
33	0xbe1f91c1	-0.15582944
34	0x3ebc3fc0	0.36767387
35	0x3ce19feb	0.027542075
36	0x3e7bfcce	0.24608156
37	0xbe494cf6	-0.19658265
38	0xbe2058ac	-0.15658826
39	0xbe08aa3b	-0.13346188
40	0x3d926732	0.07148589
41	0x3e014d38	0.12627113
42	0xbdc33c64	-0.09533003
43	0xbd880045	-0.066406764
44	0x3f141229	0.5784021
45	0x3e92e39c	0.28689277
46	0x3e36c1f7	0.17847429
47	0xbd847b72	-0.06468858
48	0xbe352bdc	-0.17692512
49	0x3e8beec2	0.27330595
50	0xbdeca800	-0.11555481
51	0xbf00ed99	-0.50362545
52	0xbd034717	-0.03205022
53	0xbe4fa0a5	-0.20276125
54	0xbcd11fef	-0.025527922
55	0x3e16fbbf	0.14744471
56	0xbe237968	-0.15964282
57	0xbcc56a04	-0.024098404
58	0x3e24384f	0.16037105
59	0x3cb9c140	0.022675157
60	0xbec8606b	-0.3913606
61	0xbe2cc77a	-0.1687297
62	0x3e2f01ba	0.17090502
63	0x3e22678a	0.1585981
64	0xbc9895f6	-0.018626194
65	0x3e89b0d1	0.26892713
66	0xbd53d4a8	-0.051716477
67	0x3e3fbfb5	0.18725474
68	0xbdbd3079	-0.09237761
69	0xbe555107	-0.2083169
70	0xbda3e2e9	-0.08002264
71	0x3e5fccbb	0.21855442
72	0x3e98bacc	0.29830015
73	0x3d105fa6	0.035247467
74	0x3dd43005	0.103607215
75	0xbeb13e23	-0.3461772
76	0xbdf2a971	-0.11848725
77	0xbe2a22cb	-0.16614835
78	0x3db01a51	0.085987695
79	0x3ddef1fd	0.10885999
80	0x3e054e44	0.13018137
81	0xbc416025	-0.011802708
82	0xbd472794	-0.04862173
83	0x3c9511a7	0.018196894
84	0x3ef35d88	0.47532296
85	0xbeae0f21	-0.33995917
86	0x3ce496dd	0.027903968
87	0xbe10c34f	-0.14137004
88	0xbdb943b8	-0.090461195
89	0x3db31ee2	0.08746125
90	0x3d8364f5	0.064157404
91	0x3ee22a55	0.44172922
92	0x3edcb09f	0.431035
93	0x3e02be57	0.12767921
94	0x3daeaeaa	0.08529408
95	0x3e7c1d26	0.24620494
96	0xbbac28bc	-0.0052538794
97	0x3ea029c2	0.3128186
98	0x3e14301e	0.1447148
99	0x3e3c5496	0.18391642
100	0x3e65bd97	0.22435604
101	0x3e03699d	0.12833257
102	0x3e124654	0.1428464
103	0x3dd6587a	0.10466094
104	0x3dccd3f3	0.100013636
105	0x3d43f188	0.047837764
106	0xbeb39add	-0.3507909
107	0x3f00bc96	0.5028776
108	0xbd8b8e1d	-0.06814215
109	0xbea3bac4	-0.31978428
110	0x3a8786bd	0.0010339838
111	0x3dc018ac	0.09379706
112	0xbe7ff13d	-0.24994369
113	0xbdcf1255	-0.101109184
114	0xbe1991f6	-0.14997086
115	0x3e2366a5	0.15957125
116	0x3e9bbe46	0.30418605
117	0xbe7fe475	-0.24989493
118	0xbdbf31f5	-0.093357004
119	0x3e78ef53	0.24310045
120	0xbb3b2823	-0.002855786
121	0xbed4e6c0	-0.41582298
122	0xbdea08fc	-0.11427495
123	0x3e69aba4	0.22819382
124	0xbd8d9183	-0.0691252
125	0x3d8b216c	0.06793484
126	0xbed01266	-0.40639037
127	0xbbca5183	-0.0061742677
128	0x3ed37576	0.41300553
129	0x3c2d4255	0.010574897
130	0xbe815a93	-0.25264415
131	0x3e51665d	0.20449205
132	0x3dbfa862	0.09358288
133	0xbe22430b	-0.15845887
134	0xbe2d7331	-0.16938473
135	0x3dc2cd3b	0.09511801
136	0xbd99d085	-0.07510475
137	0xbdd8c5df	-0.10584616
138	0xbefe1909	-0.49628475
139	0x3e209e64	0.15685421
140	0x3d965ec1	0.073422916
141	0x3e270095	0.16308816
142	0xbe37bd3c	-0.17943281
143	0xbda7e7a6	-0.0819848
144	0xbe25b0b3	-0.16180687
145	0x3e7e6c59	0.24846019
146	0x3d311815	0.043235857
147	0x3da063b1	0.078315146
148	0xbe4eb012	-0.20184353
149	0xbdba9e3c	-0.09112212
150	0x3ea3f909	0.32025936
151	0x3e78096a	0.24222341
152	0x3d000fad	0.03126495
153	0x3e254a42	0.16141608
154	0xbdfca201	-0.12335587
155	0x3e1259b1	0.14292027
156	0xbc8726b0	-0.01649794
157	0x3eb3e08f	0.35132262
158	0x3e680e63	0.22661738
159	0x3e099cd2	0.13438728
160	0xbcce9bea	-0.02522083
161	0xbd47456d	-0.048650194
162	0xbe20c8c6	-0.15701589
163	0xbddbedc9	-0.10738713
164	0x3e896b9c	0.26839912
165	0x3d273eab	0.04083125
166	0x3df25dd6	0.11834304
167	0x3ccd0d9b	0.025030902
168	0x3da81c1a	0.08208485
169	0x3e893049	0.2679465
170	0xbbdadc94	-0.006679127
171	0xbe0bae16	-0.13640627
172	0x3d67c1f3	0.05658145
173	0xbd387695	-0.045034964
174	0xbf1af601	-0.6053162
175	0x3e8fed14	0.28110564
176	0x3d8f306a	0.06991656
177	0xbbabd494	-0.005243847
178	0xbcf5f09f	-0.030021964
179	0xbe36a694	-0.17836982
180	0xbe10aa09	-0.14127363
181	0x3d07108d	0.03297477
182	0x3e5baebc	0.21453375
183	0xbe94f0ce	-0.2908997
184	0xbebaa51d	-0.36454096
185	0x3e9f6094	0.3112837
186	0x3d112ea0	0.035444856
187	0x3dd4d801	0.10392762
188	0x3de73781	0.112898834
189	0xbd867778	-0.065657556
190	0xbe84845a	-0.25882226
191	0xbdb34edf	-0.08755278
192	0xbd29e1ea	-0.041475214
193	0xbe8e4e6a	-0.277942
194	0xbeb66eec	-0.35631502
195	0x3dfbc0a1	0.122926004
196	0x3d8a8bda	0.06764956
197	0xbc168220	-0.009186298
198	0xbf1bf758	-0.6092429
199	0x3e19e0d0	0.15027165
200	0x3eb524ed	0.35379735
201	0x3d47059d	0.048589338
202	0xbea0843e	-0.31350893
203	0xbe14ba1f	-0.14524125
204	0x3e8382db	0.25685772
205	0xbe3b3270	-0.18280959
206	0xbdb2b473	-0.08725824
207	0xbd87a0cc	-0.066224664
208	0x3e4d2204	0.20032507
209	0x3d95aaaf	0.07307946
210	0xbe288013	-0.16455106
211	0x3e01fe5a	0.12694684
212	0xbecf1a88	-0.4044993
213	0x3dfc7c10	0.123283505
214	0x3e49de0f	0.19713615
215	0x3e0837f4	0.13302594
216	0x3dc094c3	0.09403374
217	0xbdbe765d	-0.0929992
218	0xbdf608a8	-0.1201337
219	0x3e187acf	0.14890598
220	0xbd18b74e	-0.037284188
221	0xbe13a11a	-0.14416924
222	0x3ea37a90	0.31929445
223	0x3d7a7e6d	0.061155725
224	0x3ced9790	0.029002935
225	0xbdf26b28	-0.11836845
226	0xbe145e52	-0.14489105
227	0x3cf6139f	0.030038653
228	0x3da2df29	0.07952721
229	0xbd3c1106	-0.045914672
230	0xbc5668dd	-0.013086525
231	0x3c2881dd	0.010284868
232	0x3c79f595	0.015256305
233	0x3c05e2c0	0.008171737
234	0x3be7d8dd	0.0070754127
235	0xbb478e78	-0.0030449908
236	0x3d3b1ba9	0.045680676
237	0xbd0d6ba5	-0.034526486
238	0x3c391cde	0.011298386
239	0x3d06cc0d	0.03290944
240	0x3cc17e12	0.023619685
241	0xbc2aff56	-0.010436853
242	0x3d0e397b	0.034722786
243	0xbc8af5b2	-0.01696286
244	0xbc508a43	-0.012728277
245	0xbbc6e735	-0.0060700425
246	0x3a88c3cc	0.0010434329
247	0xbc0e29d7	-0.008676968
248	0xbd035b83	-0.032069694
249	0x3c320c3c	0.010867175
250	0x3ca7db13	0.020490205
251	0x3c8a19e6	0.016858052
252	0x3cb5f877	0.022213204
253	0xbefc982e	-0.49334854
254	0xbcdb9406	-0.026803982
255	0x3c137ddd	0.009002176

prop_layer._reverse_message_net.0.bias f4 [20]
0	0x3d2a2752	0.041541405
1	0x3ddf3bc7	0.109000735
2	0x3e2f7f86	0.1713849
3	0x3beea31f	0.007282629
4	0x3dbcf39f	0.092261545
5	0x3d8947fb	0.06703182
6	0x3d3692c1	0.04457355
7	0x3c83cb8d	0.016088272
8	0x3de30f2d	0.11086879
9	0x3ded9165	0.115999974
10	0xbd1dcd09	-0.038525615
11	0x3c871024	0.016487189
12	0x3daf63cf	0.08563959
13	0x3e679b12	0.22617748
14	0x3d06d3bc	0.03291677
15	0x3d9c1850	0.07621825
16	0xbd11a2fc	-0.035555825
17	0x3e1d06a5	0.15334566
18	0x3de4495f	0.11146807
19	0x3d25528f	0.040361937

prop_layer.GRU.weight_ih_l0 f4 [30, 20]
0	0xbd890a98	-0.06691474
1	0xbe7e74ca	-0.24849239
2	0xbdd16664	-0.102246076
3	0x3c2b1e3b	0.010444219
4	0xbd2a82a1	-0.041628484
5	0xbeb1858d	-0.34672204
6	0xbe986518	-0.29764628
7	0xbd020676	-0.031744443
8	0xbe71abd6	-0.23600706
9	0xbdddb1b6	-0.10824911
10	0x3d5a914c	0.053361222
11	0xbc902502	-0.017595772
12	0xbe536eaa	-0.20647684
13	0xbd99c769	-0.075087376
14	0xbe9a7f0c	-0.30175054
15	0xbde8f1b1	-0.11374224
16	0xbdcdbe7b	-0.10046097
17	0xbda159ec	-0.07878479
18	0x3e659da9	0.22423424
19	0xbdd54c68	-0.10414964
20	0xbf153e2f	-0.5829801
21	0x3d1918cb	0.03737716
22	0x3d48bbfd	0.049007405
23	0x3e0a1984	0.13486296
24	0x3ea2c59c	0.3179139
25	0x3ce5d198	0.028054044
26	0xbe5b8a07	-0.21439372
27	0x3ed90788	0.42388558
28	0xbed22c5a	-0.41049463
29	0x3e2b7e08	0.16747296
30	0xbd0c3eb9	-0.034239504
31	0x3bbd24bb	0.005772201
32	0xbe8001e4	-0.25001442
33	0xbe288020	-0.16455126
34	0x3e794f8a	0.24346748
35	0x3e53664a	0.20644489
36	0xbd80772d	-0.06272731
37	0x3e494aa5	0.19657381
38	0x3d2626ee	0.04056447
39	0xbd29e6c2	-0.041479833
40	0xbedd7e61	-0.43260482
41	0x3e245cb1	0.16050984
42	0x3d3c6f7f	0.04600477
43	0xbdd62f5f	-0.10458254
44	0x3e92f1ac	0.28700006
45	0xbda2ea55	-0.079548515
46	0xbd4dd2bf	-0.05024981
47	0xbe814905	-0.25251022
48	0xbf214474	-0.62995076
49	0xbcf28cd6	-0.029608171
50	0xbe060a00	-0.13089752
51	0xbc305752	-0.010763006
52	0xbe8462f0	-0.25856733
53	0xbe3bf974	-0.18356878
54	0x3ce4e316	0.027940314
55	0x3c9f2008	0.019424453
56	0x3c3192e1	0.010838241
57	0x3de75e19	0.112972446
58	0x3d2be5c2	0.04196716
59	0xbbe65a49	-0.007029806
60	0xbd854b43	-0.06508496
61	0xbd0cb7ef	-0.0343551
62	0xbca059bd	-0.01957404
63	0xbd4dd28d	-0.050249625
64	0xbc2bde00	-0.010489941
65	0xbcac1141	-0.021004321
66	0xbccbea6d	-0.024892056
67	0xbd21a84e	-0.03946715
68	0x3b0e1b55	0.0021683772
69	0x3c9178aa	0.017757732
70	0x3c8f9bb9	0.017530309
71	0xbb44bb8f	-0.003001902
72	0x3d3f9a96	0.046778284
73	0xbc6207f0	-0.013795838
74	0xbd08108d	-0.03321891
75	0x3ca21719	0.019786404
76	0x3d0a96ac	0.0338351
77	0xbcac1b61	-0.021009149
78	0xbd69cf55	-0.057082493
79	0xbbac7e98	-0.0052641146
80	0xbe119720	-0.14217806
81	0xbd89b8e0	-0.06724715
82	0xbe97279f	-0.29522416
83	0x3d25437b	0.040347558
84	0x3cb3fa58	0.02196996
85	0xbe1a714b	-0.1508228
86	0xbde75a9b	-0.112965785
87	0x3bb214d9	0.005434614
88	0xbe600404	-0.21876532
89	0xbc424437	-0.011857084
90	0x3d5b32ac	0.05351512
91	0x3c825381	0.015908958
92	0xbe2513f8	-0.16120899
93	0xbcc745ef	-0.02432534
94	0xbde88aad	-0.11354575
95	0x3c900812	0.017581973
96	0xbd943943	-0.07237484
97	0xbd69a396	-0.057040773
98	0x3dab977e	0.08378504
99	0xbd92adf3	-0.071620844
100	0xbd5d780f	-0.054069575
101	0xbd8381ba	-0.06421228
102	0xbc85451b	-0.016268304
103	0x3d62e009	0.055389438
104	0xbd36bf72	-0.04461617
105	0xbcf7246f	-0.03016874
106	0xbd3bf431	-0.045887176
107	0x3d42fb38	0.047602862
108	0x3da0fea4	0.07861069
109	0xbe02c4cc	-0.12770385
110	0x3d28633b	0.04111026
111	0xbba68f7c	-0.0050830226
112	0xbc845da9	-0.016157942
113	0x3dabc646	0.08387427
114	0x3c610224	0.0137334205
115	0x3c79aaa2	0.015238436
116	0xbcbd1b4e	-0.023084309
117	0x3a0aa213	0.0005288433
118	0x3c996095	0.018722812
119	0x3e4f5eb8	0.20250976
120	0x3d2a3ed6	0.04156383
121	0xbdd56033	-0.10418739
122	0x3d637f0b	0.05554108
123	0xbdaae6cd	-0.08344803
124	0x3d3bb8fb	0.045830708
125	0xbdb5b4ae	-0.088723525
126	0xbe6bf314	-0.23041946
127	0x3d8a4eef	0.06753337
128	0x3e611841	0.21981908
129	0xbdf738c1	-0.12071372
130	0x3dd7f319	0.10544414
131	0x3c2cb082	0.01054013
132	0x3e03245a	0.12806836
133	0x3d6475ac	0.055776283
134	0x3e5f3907	0.21799098
135	0x3c9fb860	0.019497097
136	0x3d4a5589	0.04939798
137	0x3d20577c	0.03914593
138	0xbda1da41	-0.07902957
139	0x3e401dcd	0.18761368
140	0x3d16b58f	0.03679424
141	0xbd197909	-0.037468944
142	0xbdc8f303	-0.09811976
143	0x3ce38c25	0.027776787
144	0xbc7e60bf	-0.015525996
145	0x3c896842	0.016773347
146	0xbcb56efb	-0.022147646
147	0x3d2abffe	0.041687004
148	0x3d597c49	0.053097043
149	0xbd785bf9	-0.060634587
150	0x3c87443a	0.016512025
151	0x3c2739ad	0.010206622
152	0x3d18b365	0.03728046
153	0x3ce1a55e	0.027544674
154	0x3dd3dd23	0.10344913
155	0xbd50139c	-0.05079995
156	0x3b6573fb	0.0035011757
157	0xbc48bfe2	-0.01225278
158	0x3d170133	0.036866378
159	0x3e0ad773	0.1355875
160	0xbd6821c2	-0.05667282
161	0xbe1c8996	-0.1528686
162	0x3d98a195	0.07452694
163	0x3de64c01	0.11244965
164	0xbe04c3a8	-0.12965262
165	0xbe47927e	-0.19489476
166	0xbce6ac77	-0.02815841
167	0x3e09ceef	0.13457845
168	0xbd4419fe	-0.04787635
169	0x3e54d932	0.20785978
170	0x3d0f6eff	0.035017963
171	0x3bb6e362	0.0055813054
172	0xbe8d741f	-0.27627656
173	0x3c22ca3f	0.009935915
174	0xbdaff6c5	-0.085919894
175	0x3e131ad5	0.14365704
176	0xbc96bea5	-0.018401453
177	0xbd4891d7	-0.04896721
178	0xbd756a38	-0.05991575
179	0x3c6b8960	0.0143760145
180	0x3dbc2fda	0.091888145
181	0xbe7766f5	-0.24160369
182	0xbe5df82e	-0.21676704
183	0xbdd1ee4a	-0.10250528
184	0x3d7730af	0.060349163
185	0xbe0cd096	-0.13751444
186	0xbdc8db2b	-0.09807428
187	0x3d18352b	0.03716008
188	0xbedf2468	-0.43582463
189	0x3dba05f0	0.09083164
190	0x3cdf7dd5	0.027281681
191	0x3aad3883	0.0013215694
192	0x3c929c32	0.017896745
193	0x3e0f9395	0.14021142
194	0x3ea7bea8	0.32762647
195	0xbe4cca1d	-0.19998975
196	0x3e387703	0.1801415
197	0xbdb0ca6b	-0.08632358
198	0x3e280c2c	0.16410893
199	0x3e59db26	0.21275005
200	0x3d23706e	0.039902143
201	0x3e62f2d7	0.22162949
202	0x3dfde7d4	0.12397733
203	0x3afee2c5	0.0019446245
204	0x3e8189b4	0.25300372
205	0xbd757fc8	-0.059936315
206	0xbde7c580	-0.11316967
207	0x3e311656	0.17293677
208	0x3dc5d43f	0.09659623
209	0xbe4d0c79	-0.20024289
210	0x3d34a9a0	0.04410708
211	0xbaf770c3	-0.001887821
212	0xbb4190a3	-0.0029535673
213	0xbe6411f1	-0.22272469
214	0x3e878fdb	0.2647694
215	0xbd8ddd5f	-0.06926989
216	0xbe41c3f9	-0.18922414
217	0x3e58f8c0	0.2118864
218	0x3e609250	0.21930814
219	0xbe91d6f8	-0.2848432
220	0xbe89cd7e	-0.2691459
221	0x3d7901fa	0.0607929
222	0x3e1fba3f	0.15598391
223	0x3e0d4922	0.13797429
224	0x3df915d5	0.12162367
225	0x3d970544	0.07374051
226	0x3ed792fe	0.42104334
227	0xbe399a3b	-0.1812524
228	0xbd671de0	-0.056424975
229	0xbe916ebb	-0.28404793
230	0xbe8c50df	-0.2740545
231	0x3ce7539f	0.028238116
232	0xbdd02933	-0.10164108
233	0x3cad1b5f	0.021131216
234	0xbeb5d541	-0.35514262
235	0x3e2901ee	0.16504642
236	0xbe175fd1	-0.14782645
237	0xbd1fc6f4	-0.039008096
238	0x3d0006eb	0.031256597
239	0x3e973d8b	0.2953914
240	0x3d14687c	0.036232457
241	0x3d9515db	0.07279559
242	0xbeb2943d	-0.34878722
243	0xbd6610d7	-0.056168403
244	0x3e4378c4	0.19089037
245	0x3e9607b0	0.2930274
246	0x3e16046c	0.14650124
247	0x3d88d82d	0.06681857
248	0xbbdd8b26	-0.0067609726
249	0xbe3e1549	-0.18562807
250	0x3c4bda25	0.012442146
251	0x3b3d3321	0.0028869587
252	0x3e28cc7b	0.16484253
253	0x3b03ae7b	0.0020093012
254	0x3d8031a6	0.0625947
255	0x3e173295	0.1476539

prop_layer.GRU.weight_hh_l0 f4 [30, 10]
0	0xbcf0a116	-0.029373687
1	0xbd87d542	-0.066324726
2	0xbcd236eb	-0.025660953
3	0x3ce4688c	0.027881883
4	0xbdb2a3d0	-0.08722651
5	0xbdca9e63	-0.09893491
6	0x3e83cbc0	0.25741386
7	0xbc9930e6	-0.018700074
8	0x3d272328	0.040805012
9	0xbc2470fc	-0.010036703
10	0x3da935ab	0.082621895
11	0x3e65a3c5	0.22425754
12	0xbc03784a	-0.008024285
13	0x3e170a2d	0.14749976
14	0xbd192ac0	-0.037394285
15	0x3d9c0afd	0.07619283
16	0xbbca16a0	-0.006167248
17	0x3cd70baf	0.026250688
18	0xbc564bbe	-0.013079582
19	0xbc808802	-0.015689854
20	0xbdd10642	-0.10206272
21	0xbda3a287	-0.07989984
22	0x3d6d9693	0.058004927
23	0x3debe652	0.115185395
24	0x3c213fb5	0.009841849
25	0x3cbe4986	0.023228418
26	0x3e6e0ae7	0.23246346
27	0xbe386f4e	-0.1801121
28	0xbd94e4e7	-0.07270222
29	0xbda7c810	-0.08192456
30	0xbc02ab96	-0.00797548
31	0xbc62305c	-0.013805475
32	0xbc158cef	-0.0091278395
33	0x3cad64f9	0.021166312
34	0xbbb9352f	-0.005652092
35	0xbb6100ff	-0.003433287
36	0x3c37f652	0.011228161
37	0xbccd6985	-0.02507473
38	0x3ceb90a3	0.028755492
39	0x3cb52340	0.022111535
40	0xbc931500	-0.01795435
41	0x3ae3797f	0.0017354934
42	0xbdb2f8c9	-0.08738858
43	0x3cc2dbb9	0.023786413
44	0xbd67adcc	-0.05656223
45	0xbd074dd8	-0.033033222
46	0x3dfeb435	0.124367155
47	0xbd9e456a	-0.077280834
48	0x3d83e6e9	0.06440527
49	0x3da5dfbe	0.08099316
50	0x3d1c4009	0.038147006
51	0xbcb9a8a6	-0.022663426
52	0x3caba805	0.020954141
53	0xbcbc7b71	-0.02300808
54	0xbce2fcf1	-0.027708502
55	0x3c93cdc7	0.018042458
56	0x3b1ac1cd	0.002361405
57	0x3ca2b7de	0.019863065
58	0x3d4da9b5	0.050210673
59	0x3cf81f33	0.030288314
60	0x3c5f79cb	0.013639878
61	0x3d0bc7e5	0.03412618
62	0x3e866195	0.26246324
63	0x3cf30412	0.029665027
64	0x3bd20f5b	0.006410522
65	0x3abdb697	0.0014473972
66	0x3cf25107	0.029579652
67	0x3d5f96c9	0.05458716
68	0x3d1a88f5	0.03772827
69	0x3c449c9a	0.012000227
70	0x3d082a29	0.033243332
71	0x3d080fc7	0.03321817
72	0x3b79c3f4	0.0038111182
73	0xbd1bebe6	-0.038066767
74	0x3d22d3b9	0.039752696
75	0xbc5d7c23	-0.013518366
76	0x3c8c24f9	0.017107474
77	0x3d0ebe47	0.03484943
78	0x3c3fa165	0.011696194
79	0x3bd3c2ad	0.006462416
80	0x3cfd295d	0.030903513
81	0x3d541262	0.051775344
82	0xbd3f95e4	-0.046773806
83	0xbd201e1b	-0.03909121
84	0xbe073173	-0.13202457
85	0x3a9d19cc	0.0011985837
86	0x3ddd374c	0.10801563
87	0xbd490fc7	-0.049087312
88	0xbbadc3df	-0.0053028907
89	0x3dba00ae	0.09082161
90	0x3d02608a	0.031830348
91	0x3d8bc2e3	0.06824281
92	0x3e509b80	0.20371819
93	0xbdd81a2c	-0.10551867
94	0xbe1322be	-0.14368722
95	0xbd21d3ef	-0.039508756
96	0x3e9f2873	0.31085548
97	0xbcf43881	-0.0298121
98	0x3d007716	0.03136357
99	0x3d5cde03	0.053922664
100	0xbd5b4e85	-0.05354168
101	0xbe111d5e	-0.14171359
102	0xbd39626f	-0.04525989
103	0x3e7724d0	0.24135137
104	0x3dd0a037	0.101868086
105	0xbdfdb446	-0.123879
106	0x3e81614f	0.25269553
107	0x3cc2fabe	0.023801204
108	0xbd8bb014	-0.068206936
109	0xbd48bb52	-0.049006768
110	0xbb289af1	-0.0025727118
111	0xbde90142	-0.11377193
112	0xbd8f7faa	-0.07006772
113	0xbcea2bec	-0.028585397
114	0x3ddc89c5	0.10768465
115	0xbd76903c	-0.060196146
116	0x3e03cb13	0.12870435
117	0xbdc230a2	-0.09481932
118	0xbe1a2b13	-0.15055494
119	0x3e20e389	0.15711798
120	0x3d94fe68	0.07275087
121	0xbb234d80	-0.002491802
122	0xbe2d176d	-0.16903467
123	0x3b6eb877	0.0036425868
124	0x3e87eee5	0.2654945
125	0x3b9f05c4	0.0048529822
126	0xbdbb8206	-0.091556594
127	0x3d66f776	0.05638834
128	0x3d933b5c	0.07189056
129	0xbbdd3f03	-0.0067518963
130	0x3b67fd90	0.0035398938
131	0xbc9cd559	-0.0191447
132	0x3c1cedd6	0.009578189
133	0xbd9d1139	-0.076693006
134	0x3e2b08f0	0.16702628
135	0x3c694b51	0.014239148
136	0xbd927f3c	-0.07153174
137	0x3cda99b8	0.026684627
138	0xbd4779a8	-0.048700005
139	0xbe1554d9	-0.14583148
140	0x3dc7dbab	0.09758695
141	0x3de3aefa	0.111173585
142	0xbcf62a1f	-0.030049382
143	0x3e2036d2	0.15645912
144	0x3e218ac3	0.1577559
145	0x3e681aab	0.22666423
146	0xbe246ac7	-0.16056357
147	0xbcd589e3	-0.026066726
148	0x3e641b12	0.22275952
149	0x3d2a3905	0.041558284
150	0xba41b8ce	-0.0007389904
151	0x3e3b9044	0.18316752
152	0xbe00c9a5	-0.12576921
153	0xbd0808e5	-0.033211607
154	0x3e2ed360	0.1707282
155	0xbc243c5d	-0.010024157
156	0x3c07168b	0.008245121
157	0x3ba11a0a	0.004916434
158	0xbdd8cab1	-0.10585535
159	0xbcd511d6	-0.026009481
160	0x3e219af1	0.15781762
161	0x3e9e1f2a	0.3088315
162	0x3ef57058	0.47937274
163	0x3e860af4	0.26180232
164	0xbebf07fb	-0.37310776
165	0xbdbdbbaa	-0.0926431
166	0x3f0e802f	0.5566434
167	0xbe9e8dfb	-0.30967698
168	0x3e24bc1d	0.16087385
169	0x3db8e588	0.090281546
170	0x3c30ec38	0.010798506
171	0xbd25d786	-0.040488742
172	0xbca805c9	-0.020510571
173	0x3bc0cd4b	0.005883848
174	0x3d487aab	0.04894511
175	0xbd382fc9	-0.044967446
176	0x3e34ba2e	0.17649147
177	0xbdaf94f0	-0.085733294
178	0x3ddd6bfe	0.108116135
179	0x3df0d92b	0.117601715
180	0xbb88334e	-0.0041565066
181	0xbdbdad01	-0.092615135
182	0x3c26d3d6	0.010182342
183	0xbe144be1	-0.1448207
184	0x3e1c1805	0.15243538
185	0x3e829fdf	0.25512597
186	0xbc633259	-0.013866984
187	0x3dd52daf	0.10409104
188	0x3dddfc87	0.108391814
189	0x3e7da8d2	0.24771431
190	0xbd30e21f	-0.043184396
191	0xbe2d6850	-0.16934323
192	0x3c908e7e	0.01764607
193	0xbd0698af	-0.032860454
194	0x3dc528bb	0.09626909
195	0x3e135b77	0.1439036
196	0x3cdf3b78	0.027250037
197	0xbd03bb95	-0.032161314
198	0x3dc2eec3	0.095181964
199	0x3e03ad3a	0.1285905
200	0x3df56f95	0.11984173
201	0x3f08bef5	0.5341638
202	0x3ec9e277	0.3943059
203	0x3c604650	0.013688639
204	0xbd5e1a42	-0.05422426
205	0xbea3e3d7	-0.32009766
206	0x3ddfd1cf	0.1092869
207	0xbcab7f30	-0.020934671
208	0xbe80df94	-0.25170577
209	0xbe10812f	-0.1411178
210	0xbb6d3b7d	-0.0036198788
211	0x3e0e7fdc	0.13915962
212	0xbdaa2ed3	-0.08309712
213	0x3c9132f5	0.017724494
214	0xbe908186	-0.2822382
215	0x3e122a8a	0.1427404
216	0xbee80ff7	-0.4532468
217	0x3f243d2e	0.6415585
218	0xbdcca15f	-0.099917166
219	0xbe2c45cb	-0.16823499
220	0xbe027500	-0.12739944
221	0xbe4a268d	-0.19741268
222	0xbcb897f0	-0.022533387
223	0xbf144ead	-0.5793255
224	0x3e079146	0.13239011
225	0x3f1a8af8	0.603683
226	0xbf07367d	-0.5281752
227	0x3ee39a6d	0.44453755
228	0x3e9bd490	0.3043561
229	0x3eb2bf89	0.34911755
230	0xbd856edc	-0.065152854
231	0xbd45d63f	-0.048300024
232	0x3d19f451	0.037586514
233	0xbe4330f9	-0.1906165
234	0x3d512ee8	0.051070124
235	0x3c81918e	0.015816476
236	0xbb443511	-0.0029938857
237	0x3c7be4c8	0.01537437
238	0x3d60098a	0.054696597
239	0xbe29c4eb	-0.16579024
240	0xbd8acbac	-0.067771286
241	0xbe357df4	-0.17723829
242	0x3ecc354f	0.3988442
243	0xbd1265a2	-0.035741456
244	0xbdee2f74	-0.11630145
245	0xbdb43f5b	-0.088011466
246	0x3e172b97	0.14762722
247	0x3d785880	0.060631275
248	0x3e0de96a	0.13858572
249	0xbe93440f	-0.28762862
250	0xbd1a7617	-0.037710276
251	0x3e145c79	0.144884
252	0x3d7976ad	0.060904194
253	0x3d4dc675	0.05023809
254	0x3e3b9aa3	0.18320708
255	0xbe1863d0	-0.14881825

prop_layer.GRU.bias_ih_l0 f4 [30]
0	0x3d8760cd	0.0661026
1	0x3e0eef55	0.13958485
2	0x3d721987	0.059106376
3	0xbc62fca8	-0.013854183
4	0x3c9361cc	0.01799097
5	0xbc9383e9	-0.018007236
6	0xbce28096	-0.027649205
7	0x3b9de670	0.00481873
8	0x3e3a8bfa	0.1821746
9	0x3e3d1992	0.18466786
10	0x3c62a4f0	0.0138332695
11	0xbe191eb7	-0.14953123
12	0xbd538e1c	-0.051649198
13	0xbc2d702a	-0.010585824
14	0x3dad0b17	0.08449381
15	0x3a626fb7	0.00086378626
16	0x3ec344f6	0.3813855
17	0x3d645c09	0.055751834
18	0xbd9e64d1	-0.07734073
19	0xbe028e68	-0.12749636
20	0x3e5fd4ae	0.21858475
21	0x3eaad6c2	0.33366972
22	0xbee17036	-0.44030923
23	0xbec8390f	-0.39106032
24	0x3da96673	0.08271494
25	0xbdcf272e	-0.10114895
26	0x3ea0f025	0.31433216
27	0xbe7f88ba	-0.24954501
28	0x3b19c7fb	0.0023465145
29	0x3d11b682	0.035574444

prop_layer.GRU.bias_hh_l0 f4 [30]
0	0x3d8760cd	0.0661026
1	0x3e0eef55	0.13958485
2	0x3d721987	0.059106376
3	0xbc62fca8	-0.013854183
4	0x3c9361cc	0.01799097
5	0xbc9383e9	-0.018007236
6	0xbce28096	-0.027649205
7	0x3b9de670	0.00481873
8	0x3e3a8bfa	0.1821746
9	0x3e3d1992	0.18466786
10	0x3c62c35e	0.0138405245
11	0xbe191d91	-0.14952685
12	0xbd5384b3	-0.051640224
13	0xbc1fd032	-0.0097542275
14	0x3dace351	0.08441795
15	0x3a62ea92	0.00086561695
16	0x3ec32201	0.3811188
17	0x3d642abb	0.055704813
18	0xbd9e4464	-0.07727888
19	0xbe040bd1	-0.12895133
20	0x3e3603c5	0.17774875
21	0x3e9c7877	0.30560657
22	0xbd8da7a9	-0.06916744
23	0xbda0db2b	-0.07854303
24	0x3b0f9c90	0.0021913387
25	0x3d170026	0.036865376
26	0x3d75f922	0.060052045
27	0xbd9bf268	-0.07614595
28	0xbbf556e4	-0.007487165
29	0x3de64186	0.11242966

sinkhorn_feature_layers.0.weight f4 [16, 20]
0	0x3d9b5baf	0.07585847
1	0x3d73abbe	0.059489958
2	0x3dc7192c	0.09721598
3	0x3e04d4cf	0.12971805
4	0x3ed8bb0d	0.42330208
5	0x3e6234bd	0.2209043
6	0xbe4c3319	-0.19941367
7	0x3e931a81	0.28731158
8	0x3f148eaa	0.5803019
9	0xbe253f12	-0.1613734
10	0xbd112a49	-0.035440717
11	0x3c838e40	0.016059041
12	0x3e98790f	0.2977986
13	0x3f0d2f3c	0.551502
14	0xbdd9b95c	-0.106310576
15	0xbe432924	-0.19058663
16	0x3d3f7f23	0.046752106
17	0x3d367906	0.04454901
18	0x3cc72826	0.024311136
19	0x3db1e34b	0.08685931
20	0xbde6d681	-0.11271382
21	0x3e0574ee	0.13032886
22	0xbf2013b1	-0.62530047
23	0x3dfc0f12	0.12307562
24	0xbe8b2ffa	-0.2718504
25	0x3f143cb4	0.57905126
26	0xbdcaee7c	-0.099087685
27	0xbd51cde9	-0.05122176
28	0x3d0daf30	0.0345909
29	0x3e6180fb	0.22021858
30	0xbba973b9	-0.005171266
31	0xbb335989	-0.00273666
32	0xbeae55e7	-0.34049913
33	0x3df50885	0.119645156
34	0x3cbbf66c	0.022944652
35	0x3e35eb13	0.17765455
36	0xbe141e60	-0.14464712
37	0xbe3ba2ba	-0.18323794
38	0x3dfa42f6	0.12219803
39	0xbe21eca6	-0.1581293
40	0xbe89c9bc	-0.26911724
41	0x3e93d2bf	0.28871724
42	0x3cf3244e	0.029680397
43	0xb8fda47f	-0.0001209462
44	0xbe2d6a6d	-0.1693513
45	0x3e0584e9	0.13038982
46	0x3de1d237	0.110264234
47	0xba344240	-0.0006876327
48	0xbe53cc74	-0.20683461
49	0x3e6398ba	0.2222623
50	0xbd57805b	-0.052612644
51	0x3c347584	0.011014346
52	0xbe656a87	-0.22403918
53	0xbe71fe87	-0.2363225
54	0xbdf2fc54	-0.11864534
55	0xbe758e53	-0.23980074
56	0x3e184160	0.14868689
57	0x3e470903	0.19437031
58	0xbb231ec8	-0.0024890173
59	0xbdd0c824	-0.10194424
60	0x3d49f8ae	0.049309425
61	0xbdcd88de	-0.10035871
62	0xbe5116cc	-0.20418853
63	0x3e1f60ec	0.15564317
64	0x3e83cecd	0.25743714
65	0x3df15c27	0.11785155
66	0xbe9383cc	-0.2881149
67	0x3d9a86e0	0.075452566
68	0xbd266c2d	-0.04063051
69	0x3e1551df	0.14582013
70	0xbdec10c8	-0.11526638
71	0xbc3d5ce2	-0.0115577895
72	0xbda5b985	-0.08092026
73	0x3d09448d	0.03351264
74	0xbf2bfde1	-0.67184263
75	0x3e9e01a3	0.30860624
76	0x3eb09ab3	0.34493026
77	0xbe8de339	-0.2771242
78	0x3d87a2e7	0.06622868
79	0xbe5482ff	-0.20753096
80	0x3bd88661	0.006607816
81	0xbd050682	-0.03247691
82	0xbc2374c1	-0.009976567
83	0xbbf1decc	-0.007381296
84	0xbc517c2b	-0.012785952
85	0xbc711441	-0.014714302
86	0xbc845027	-0.0161515
87	0x3c038926	0.008028304
88	0xbc88715a	-0.016655613
89	0xbcb59a52	-0.022168312
90	0x3ac1085b	0.0014727222
91	0xbcad2150	-0.021134049
92	0x3bd17ced	0.006393066
93	0xbc8a64ee	-0.01689383
94	0xbd8b9634	-0.06815758
95	0x3c99f63d	0.018794173
96	0x3ca0028f	0.01953247
97	0xbcc562cc	-0.024094962
98	0xbca08e1a	-0.01959901
99	0xbaea964b	-0.0017897574
100	0xbe9dd89c	-0.30829322
101	0x3c99b14d	0.018761301
102	0x3e27d773	0.16390781
103	0xbe082ac7	-0.13297568
104	0x3d42a417	0.04751977
105	0xbe39ce35	-0.18145068
106	0xbe59f229	-0.21283783
107	0x3e0a9724	0.13534218
108	0x3d2143a6	0.039371155
109	0x3e7c501b	0.24639933
110	0xbcf067be	-0.029346343
111	0xbd201957	-0.039086666
112	0x3e0338e5	0.12814672
113	0xbf2da95d	-0.6783655
114	0xbdb13bf2	-0.08654012
115	0x3db0fd46	0.08642058
116	0x3c4e2686	0.012582427
117	0x3e0c7fbc	0.13720602
118	0xbd9743fd	-0.073860146
119	0xbe9c3028	-0.3050549
120	0x80001b68	-9.832e-42
121	0x00001b6c	9.837e-42
122	0x00001b5f	9.819e-42
123	0x00001b67	9.83e-42
124	0x80001b6e	-9.84e-42
125	0x00001b89	9.878e-42
126	0x80001b5c	-9.815e-42
127	0x80001b89	-9.878e-42
128	0x80001b7e	-9.862e-42
129	0x9bdd7453	-3.6636556e-22
130	0x80001b61	-9.822e-42
131	0x00001bc3	9.959e-42
132	0x00001b77	9.853e-42
133	0x00005681	3.1032e-41
134	0x826317f1	-1.6684197e-37
135	0x80001b6e	-9.84e-42
136	0x80001b7b	-9.858e-42
137	0x00001e6b	1.0912e-41
138	0x00001b9d	9.906e-42
139	0x00001b98	9.899e-42
140	0xb6f932ec	-7.4267064e-06
141	0xb62b31c2	-2.5509949e-06
142	0x3658ac1b	3.2286687e-06
143	0xa39d69d6	-1.7066797e-17
144	0xb6c2c90f	-5.805057e-06
145	0xb657341b	-3.2067826e-06
146	0xaff2208b	-4.4042667e-10
147	0x3488e2cc	2.549699e-07
148	0xb6ee00f2	-7.093063e-06
149	0xba3e44c1	-0.000725817
150	0x34033acb	1.2221714e-07
151	0x0004f23a	4.54237e-40
152	0xb507ce40	-5.059155e-07
153	0xb8c37827	-9.320705e-05
154	0xb950ee97	-0.00019925307
155	0x32a7e485	1.9545277e-08
156	0xb3290431	-3.935219e-08
157	0xb21dfc62	-9.195988e-09
158	0xb4a58dfc	-3.0836952e-07
159	0xb208e26b	-7.967723e-09
160	0xbe211337	-0.15729986
161	0xbddf7271	-0.109105
162	0xbb4dd795	-0.0031409014
163	0xbc62cd2b	-0.013842861
164	0x3e899c83	0.2687722
165	0x3da0ed41	0.078577526
166	0xbe10c70a	-0.14138427
167	0x3de50b8d	0.11183844
168	0xbd40caf2	-0.047068544
169	0xbe749933	-0.23886566
170	0x3d03c96b	0.03217451
171	0x3cac1f7d	0.021011109
172	0xbe247a92	-0.16062382
173	0x3dc164a9	0.094430275
174	0x3f309db5	0.6899064
175	0x3d9c74ef	0.07639491
176	0xbe31b699	-0.17354812
177	0xbd6c003f	-0.057617422
178	0x3de2a14d	0.11065922
179	0xbcc3a5b5	-0.023882726
180	0xbe5fcb2a	-0.21854845
181	0x3ed4b796	0.41546315
182	0xbd552153	-0.052033734
183	0x3db55362	0.08853795
184	0x3e9ec96b	0.31013045
185	0x3e3db639	0.18526544
186	0x3d92bf39	0.07165379
187	0x3e856c76	0.26059312
188	0xbd052b6a	-0.032512106
189	0xbeb65ed6	-0.3561923
190	0xbced7791	-0.028987678
191	0x3cbe2f43	0.023215896
192	0x3b8fd719	0.0043896553
193	0x3ef85075	0.48498884
194	0xbe01c150	-0.12671399
195	0xbe0e4001	-0.13891603
196	0xbcb90a16	-0.022587817
197	0x3ee43a79	0.4457586
198	0x3ec807b1	0.39068368
199	0x3c942fd1	0.018089207
200	0x80001d41	-1.0494e-41
201	0x80001be3	-1.0004e-41
202	0x00001b90	9.888e-42
203	0x80001d3b	-1.0486e-41
204	0x80001c5c	-1.0173e-41
205	0x80001c07	-1.0054e-41
206	0x80000559	-1.918e-42
207	0x00001c58	1.0168e-41
208	0x80001ca4	-1.0274e-41
209	0x80001b8a	-9.879e-42
210	0x00001be1	1.0001e-41
211	0x80001d57	-1.0525e-41
212	0x80001c0d	-1.0063e-41
213	0x80001b67	-9.83e-42
214	0x00001bd7	9.987e-42
215	0x80001c0e	-1.0064e-41
216	0x80001dba	-1.0664e-41
217	0x8000154f	-7.644e-42
218	0x80001b6d	-9.839e-42
219	0x80001cd8	-1.0347e-41
220	0x3dcdf3d8	0.10056275
221	0x3f0171ca	0.50564253
222	0xbcf18727	-0.029483391
223	0xbd2c9f83	-0.04214431
224	0xbe759eb1	-0.23986317
225	0xbbe05fee	-0.006847373
226	0x3e731c7a	0.23741332
227	0x3e171289	0.14753164
228	0x3d3f0252	0.046633072
229	0xbe331e6a	-0.17492071
230	0x3e492c0f	0.19645713
231	0x3c86dd23	0.016462868
232	0xbe0a0c88	-0.13481343
233	0xbcb6e4bc	-0.022325866
234	0xbe81e21f	-0.2536783
235	0x3e9ee9d1	0.31037763
236	0xbd3f75af	-0.04674309
237	0x3eddd222	0.4332438
238	0x3e32f279	0.17475308
239	0xbd8ec9c1	-0.06972075
240	0x3dede174	0.116152674
241	0xbdd41c85	-0.10357002
242	0xbdf9d3cc	-0.121986
243	0xbd0f639d	-0.035007108
244	0xbed058bd	-0.40692702
245	0xbe19a85c	-0.1500563
246	0x3e0d901b	0.13824503
247	0xbe0d8f81	-0.13824274
248	0xbeda2364	-0.42605126
249	0x3e6712cc	0.22565764
250	0xbd81e52f	-0.063425414
251	0xba05d848	-0.0005105776
252	0xbe9e129c	-0.30873573
253	0x3c8b8530	0.017031282
254	0xbe137b09	-0.14402403
255	0xbe3d2d33	-0.18474273

sinkhorn_feature_layers.0.bias f4 [16]
0	0xbe2ad6f3	-0.16683559
1	0x3e7c8cc1	0.24663068
2	0x3d4459ac	0.04793708
3	0x3ebd33bc	0.36953533
4	0xbcab50cc	-0.02091255
5	0x3efcab7d	0.49349585
6	0xa77308c3	-3.3727774e-15
7	0xbb04078a	-0.0020146095
8	0xbe90a871	-0.2825351
9	0xbe69d164	-0.22833782
10	0x80001e5d	-1.0892e-41
11	0x3e954781	0.29156116
12	0x3eefa9b5	0.46809164
13	0xbe3e2e4b	-0.18572347
14	0xbe76102a	-0.24029604
15	0xbdde4ae5	-0.10854129

sinkhorn_feature_layers.2.weight f4 [16, 16]
0	0x3e43ab8c	0.19108409
1	0x3edf65c6	0.43632334
2	0xbe0584f5	-0.13039
3	0x3ed5a655	0.41728464
4	0x3d1da1aa	0.038484253
5	0xbcd54eca	-0.026038546
6	0xa17ef494	-8.6382244e-19
7	0xb9b271b3	-0.00034035518
8	0x3f0e6a65	0.55631095
9	0xbe12e2a6	-0.14344272
10	0x00001b7e	9.862e-42
11	0x3e8ef5a6	0.2792179
12	0x3e77e43d	0.2420816
13	0xbe9e353b	-0.30899987
14	0xbe94e979	-0.29084376
15	0xbd422173	-0.04739518
16	0xba9e0daa	-0.0012058516
17	0xbb766a35	-0.0037599925
18	0xb9be5027	-0.00036299342
19	0x3bae7c1a	0.0053248527
20	0x3a1980b8	0.00058556674
21	0xbbb61991	-0.005557247
22	0x00001bbe	9.952e-42
23	0x161229b9	1.1806951e-25
24	0xbc4b63d6	-0.012413939
25	0x3ca8a7f2	0.020587895
26	0x80001c01	-1.0046e-41
27	0x3c16ddc4	0.0092081465
28	0xbb79720a	-0.0038062357
29	0xbc9a88d3	-0.018864071
30	0xbbb65b0f	-0.0055650542
31	0xbc8dd394	-0.017312802
32	0x3cbb4c59	0.022863554
33	0xbeec98be	-0.46210283
34	0xbe055cab	-0.13023631
35	0x3f3523eb	0.7075793
36	0x3c3bddb7	0.011466435
37	0xbe45282d	-0.19253607
38	0xa3014b2e	-7.009024e-18
39	0xba3b4ae0	-0.0007144641
40	0xbe1d79ae	-0.15378448
41	0x3eae16fc	0.3400191
42	0x80001be2	-1.0002e-41
43	0xbcf6d974	-0.030132987
44	0x3e383524	0.17989022
45	0xbe810ade	-0.25203604
46	0x3ea7cc88	0.32773232
47	0x3d795d1d	0.060879815
48	0xbaa0feca	-0.0012282964
49	0xbb60ee55	-0.0034321744
50	0xb9da98be	-0.00041694002
51	0x3b969d3f	0.004596382
52	0x3a15a195	0.00057079765
53	0xbbc2b7e3	-0.005942331
54	0x80001bb4	-9.938e-42
55	0x8f8dd41c	-1.3985375e-29
56	0xbc3daeb9	-0.011577302
57	0x3c8f1205	0.017464647
58	0x00002327	1.261e-41
59	0x3c2aa70c	0.010415804
60	0xbb856b0e	-0.0040716
61	0xbc8a666c	-0.016894542
62	0xbbb3cd3b	-0.005487112
63	0xbc7f17ef	-0.015569671
64	0x3b8ec1d8	0.004356604
65	0xbedff605	-0.43742386
66	0x3bb5d742	0.0055493424
67	0x3e9fe3dd	0.31228533
68	0x3ab821b1	0.0014048127
69	0xbd955614	-0.07291809
70	0x9e245a0d	-8.70071e-21
71	0xba9c43a3	-0.0011922013
72	0xbe05b53d	-0.13057418
73	0xbf1e1474	-0.6174996
74	0x00001b95	9.895e-42
75	0xbe08d54f	-0.13362621
76	0x3d79fbde	0.061031215
77	0x3f2a1dfe	0.66452014
78	0x3eb7b062	0.35876757
79	0x3e625f04	0.22106558
80	0x3e04dd68	0.12975085
81	0x3def92c5	0.11697916
82	0xbd9e2e1a	-0.07723637
83	0x3e6964a7	0.22792302
84	0xbc6da4b4	-0.0145046
85	0xbf2a5efa	-0.6655117
86	0xa1a88ba4	-1.1421085e-18
87	0x3b0506a8	0.0020298157
88	0x3e7ba6ea	0.24575391
89	0xbe50130c	-0.20319766
90	0x8000201e	-1.1521e-41
91	0x3d846978	0.06465429
92	0xbe5da0be	-0.2164335
93	0xbf058723	-0.5215933
94	0xbe3c3225	-0.18378504
95	0x3e50a826	0.20376644
96	0x3bb3b394	0.005484054
97	0x3c024898	0.007951878
98	0x3c02b29b	0.007977153
99	0xbbef9f59	-0.007312697
100	0xbaddfa1e	-0.0016935503
101	0x3c1b52cd	0.00948019
102	0x00001b94	9.893e-42
103	0x02d31f3f	3.1021598e-37
104	0x3bd7c668	0.006584931
105	0xbb52cdb9	-0.0032166077
106	0x80001b98	-9.899e-42
107	0xbc50bd95	-0.012740512
108	0x3bcd17f3	0.0062589585
109	0x3a55a72d	0.00081502163
110	0x3b88ba06	0.0041725663
111	0xba11098b	-0.0005532733
112	0x3dc6edca	0.097133234
113	0xbde84556	-0.1134135
114	0x3ec64e16	0.3873145
115	0xbebe816f	-0.37208125
116	0x3c563574	0.013074268
117	0xbed3078b	-0.41216692
118	0xa1f39516	-1.6505783e-18
119	0x3a8c6a3f	0.0010712816
120	0xbdefb082	-0.11703588
121	0xbec61b89	-0.38692883
122	0x80001c0f	-1.0066e-41
123	0x3e798c62	0.24369958
124	0x3f3f105a	0.74634326
125	0x3e940fdc	0.2891835
126	0x3e14304f	0.14471553
127	0x3bfb5820	0.0076704174
128	0x3d794898	0.060860246
129	0x3d4f2ac7	0.050577905
130	0xbd419871	-0.04726452
131	0x3d0660af	0.03280705
132	0xba2e8287	-0.00066570233
133	0x3d367ae5	0.044550795
134	0x80001b85	-9.872e-42
135	0xab5378f3	-7.513011e-13
136	0x3c36a286	0.011147147
137	0x3c11023c	0.00885063
138	0x80001bed	-1.0018e-41
139	0x3d1074eb	0.03526775
140	0xbbfb9e20	-0.007678762
141	0xbcbd76d2	-0.023127947
142	0xbcd458e8	-0.0259213
143	0xbc203aaf	-0.009779616
144	0x3b8ee087	0.004360262
145	0x3be3e905	0.0069552683
146	0x3bc7da39	0.006099012
147	0xbbc67892	-0.0060568536
148	0xba9e3154	-0.0012069144
149	0x3c2a3b92	0.010390179
150	0x80001bae	-9.93e-42
151	0x80000dd1	-4.956e-42
152	0x3c211143	0.009830776
153	0xbc24a2ed	-0.01004861
154	0x8000160c	-7.909e-42
155	0xbc49550a	-0.012288341
156	0x3bbfa4ff	0.0058485265
157	0x3c0d934b	0.008641074
158	0x3bc7c50b	0.0060964874
159	0x3bb61a78	0.0055573545
160	0xbe0170ce	-0.12640688
161	0xbe156e8a	-0.14592949
162	0x3de5cbd3	0.11220517
163	0xbddaa3ee	-0.10675798
164	0xbc836214	-0.016037978
165	0xbf188c47	-0.59589046
166	0x19cea5a4	2.1366802e-23
167	0x39becc0d	0.00036391654
168	0xbd06a26f	-0.032869752
169	0xbefb21c9	-0.49049214
170	0x80001b5c	-9.815e-42
171	0x3e6cc850	0.23123288
172	0xbe43e59e	-0.19130561
173	0xbcc7e70e	-0.024402168
174	0xbd419cc4	-0.047268644
175	0x3eb4bf11	0.35302022
176	0xbea82da2	-0.32847315
177	0xbe30ba67	-0.17258607
178	0x3d53ce29	0.05171028
179	0x3d895b8f	0.067069165
180	0xbbd2b426	-0.006430167
181	0xbd2f2fc2	-0.042770155
182	0x24520999	4.554462e-17
183	0xbab706e1	-0.0013963842
184	0xbe010f12	-0.12603405
185	0x3e2b7326	0.16743144
186	0x00001bb0	9.932e-42
187	0x3f2c761f	0.6736774
188	0xbee54988	-0.44782662
189	0xbea1b752	-0.31585175
190	0x3e292183	0.1651669
191	0x3e86319b	0.2620972
192	0x3d3eeb35	0.04661103
193	0x3eb1de23	0.3473979
194	0x3dbd9faa	0.09258969
195	0xbe1a70ba	-0.15082064
196	0x3b7b0282	0.0038301055
197	0x3dfa2873	0.12214746
198	0x00001b6c	9.837e-42
199	0xb74c0ecd	-1.2162794e-05
200	0x3e869c96	0.2629134
201	0xbe0ab14b	-0.13544194
202	0x00001bb1	9.934e-42
203	0x3edd899f	0.4326906
204	0xbd97cc96	-0.074120685
205	0xbdea3c08	-0.11437231
206	0xbd9f831d	-0.0778868
207	0xbc5a1a1d	-0.01331189
208	0xbf46d530	-0.7766905
209	0xbf051ea1	-0.5199986
210	0x3d06b4be	0.032887213
211	0xbe662c6a	-0.2247788
212	0xbc39712d	-0.011318487
213	0xbc3997bc	-0.01132768
214	0x9cb5a1cb	-1.2019398e-21
215	0x39f24dbc	0.00046215754
216	0x3f076b52	0.5289813
217	0xbd57b19f	-0.052659627
218	0x80001bac	-9.927e-42
219	0x3d960c20	0.073265314
220	0x3e70c175	0.23511298
221	0x3c5f75a6	0.013638889
222	0x3e80a64d	0.25126877
223	0xbe735fe1	-0.23767044
224	0xbf085f87	-0.53270763
225	0x3d0430aa	0.032272972
226	0xbef2a0e5	-0.47388378
227	0x3e7b1340	0.24519062
228	0x3cd892ef	0.02643725
229	0xbbcd892a	-0.0062724547
230	0x27c41520	5.442383e-15
231	0xbab4f248	-0.0013805116
232	0xbaa858ee	-0.0012843886
233	0x3eaea92c	0.34113443
234	0x00001bc4	9.96e-42
235	0xbd2f4d5c	-0.042798385
236	0xbd35ebd8	-0.04441437
237	0xbf1296db	-0.5726144
238	0xbf272e48	-0.65304995
239	0x3b371627	0.0027936788
240	0x3b9e6a30	0.004834436
241	0xbbbe2b1f	-0.0058034803
242	0xbb5a18b9	-0.0033278896
243	0x389cc10a	7.474616e-05
244	0xb9f18353	-0.00046064946
245	0xb9db69ae	-0.00041849673
246	0x80001b5d	-9.816e-42
247	0x0fd70644	2.120305e-29
248	0xbb8989b4	-0.0041973237
249	0x3c1d0c83	0.009585503
250	0x00001c68	1.019e-41
251	0x3b2d3a31	0.002643239
252	0x3bbfe91a	0.0058566453
253	0xbb62279c	-0.0034508472
254	0xbb8410f7	-0.0040303427
255	0x3b33ecdd	0.0027454414

sinkhorn_feature_layers.2.bias f4 [16]
0	0xbf2100dc	-0.62891936
1	0xbbc53ad0	-0.006018974
2	0xbe767471	-0.24067856
3	0xbbc4c792	-0.006005236
4	0xbda10c58	-0.078636825
5	0x3ee935a4	0.45548737
6	0x3be0918f	0.0068532894
7	0xbe175017	-0.14776646
8	0xbd6ccd2a	-0.057812847
9	0x3bcff8b1	0.006346785
10	0x3f00822b	0.5019862
11	0x3c9fd719	0.019511746
12	0xbe8117ce	-0.25213474
13	0x3eb0b573	0.34513435
14	0x3ddc6b1e	0.107626185
15	0xbb8a6dde	-0.004224523
