paper_artifacts/collection/neuromatch/trained_models/neuromatch_ptc_mm_large_dataset_seed_1704_2024-04-16_23:31:10.pth (torch, 21649 bytes, 23 tensors)

emb_model.learnable_skip f4 [3, 3]
0	0x3f1c4320	0.61039925
1	0x80001b74	-9.848e-42
2	0x80001b74	-9.848e-42
3	0xbe1c0cf9	-0.15239324
4	0x3f87c8bf	1.0608138
5	0x80001b74	-9.848e-42
6	0xbddebc93	-0.108758114
7	0x3eb989a1	0.36237815
8	0x3f3768dd	0.71644384

emb_model.pre_mp.0.weight f4 [10, 1]
0	0xb9b2add3	-0.00034080315
1	0x3eee53e3	0.46548375
2	0x3a680ec9	0.0008852301
3	0x3b8b1c5e	0.004245325
4	0xb98020e2	-0.00024438562
5	0x3a086642	0.0005203226
6	0xbb8bb72c	-0.004263779
7	0x39b490c9	0.0003444015
8	0x3b19b626	0.0023454516
9	0x3987d3ab	0.00025906911

emb_model.pre_mp.0.bias f4 [10]
0	0xb9868210	-0.00025655376
1	0x3ecb5c95	0.39719072
2	0xb98ddc4d	-0.00027057753
3	0xbb9bbf59	-0.004753035
4	0x39505bcc	0.00019870623
5	0x39aef3f2	0.0003336962
6	0x3b98e935	0.0046664723
7	0xb94804f6	-0.00019075334
8	0xbad19347	-0.0015989327
9	0x36d91d6f	6.4705305e-06

emb_model.convs.0.lin.weight f4 [10, 10]
0	0xbb182a0c	-0.0023218421
1	0x3e38a447	0.18031417
2	0xbb27276a	-0.002550567
3	0x3b6e32f6	0.0036346293
4	0xbb55f612	-0.003264789
5	0x3a288eab	0.00064299506
6	0x3b5f5848	0.003407972
7	0x3b909086	0.00441176
8	0xbbaaee93	-0.0052164285
9	0x3b8a3d80	0.004218757
10	0x37bc3e01	2.244022e-05
11	0xb82fd40c	-4.1920735e-05
12	0xb79226c0	-1.74226e-05
13	0x36aa509a	5.075778e-06
14	0x3772112c	1.4428322e-05
15	0xb723bc5e	-9.759415e-06
16	0x351534f5	5.558389e-07
17	0x34b74d25	3.4142536e-07
18	0xb6ec27fb	-7.0380024e-06
19	0xb758bb45	-1.2918205e-05
20	0xb90f9c93	-0.00013695871
21	0x392bac6d	0.00016372064
22	0x384eea85	4.933264e-05
23	0x3858fd59	5.173436e-05
24	0xb89b4bf9	-7.405127e-05
25	0x389c11e3	7.441991e-05
26	0xb7f2b2b3	-2.8931861e-05
27	0x38a1e5a0	7.719849e-05
28	0xb814d313	-3.5482528e-05
29	0x38e628bd	0.00010974843
30	0xbaeca424	-0.0018054289
31	0x3e2ee419	0.170792
32	0xbb1d7d5a	-0.0024031014
33	0x3baf32cd	0.005346632
34	0xbb501b4a	-0.0031754547
35	0x3abce3f2	0.0014411195
36	0x3ad63736	0.0016343358
37	0x3bb933bc	0.005651919
38	0xbbe96c3b	-0.007123498
39	0x3bbea432	0.0058179135
40	0x3a2182e2	0.00061611657
41	0x3e9c7012	0.30554253
42	0xbb9b1a70	-0.004733376
43	0x3b999b84	0.0046877284
44	0xb9f2e354	-0.0004632721
45	0x39f24c72	0.00046214793
46	0x3b1937ab	0.0023379128
47	0x3bc2dc07	0.0059466395
48	0xbbfbdf4f	-0.0076865326
49	0x3b7f5756	0.0038961968
50	0x398cdfd4	0.00026869646
51	0xba15beb6	-0.0005712317
52	0x3a642785	0.00087033986
53	0x38aee554	8.339682e-05
54	0x38e4cc7f	0.000109099776
55	0x3a5f7db7	0.0008525508
56	0xba24275a	-0.00062619674
57	0x3a827eec	0.0009956039
58	0x3a246c49	0.0006272239
59	0xba8f5213	-0.0010934494
60	0x3ae66068	0.0017576339
61	0xbecdc2ef	-0.40187785
62	0x3a56ec5b	0.0008198672
63	0xbbb07f55	-0.005386273
64	0x3ba30bad	0.004975757
65	0xba57a51b	-0.0008226202
66	0xbb169f08	-0.0022982974
67	0xbbb49613	-0.0055110543
68	0x3bdff9d3	0.0068352013
69	0xbc002ea0	-0.007823616
70	0xb8f8a881	-0.00011856948
71	0x3976c5b4	0.00023534038
72	0x383893a1	4.400651e-05
73	0x3869c0ed	5.5731205e-05
74	0xb85c253a	-5.2486757e-05
75	0x38977963	7.222851e-05
76	0xb82e2710	-4.1521213e-05
77	0x38a88417	8.035468e-05
78	0xb82ad075	-4.07253e-05
79	0x38ea6dd8	0.000111784495
80	0x39c79883	0.00038069868
81	0xba2a4a9d	-0.00064961036
82	0x3a032e35	0.0005004139
83	0x39ad91be	0.00033105718
84	0xba325442	-0.00068027165
85	0x39b85b31	0.00035163158
86	0xb8fe52bc	-0.00012127074
87	0x39c896ac	0.00038259232
88	0xb9c6704b	-0.00037849168
89	0xba3552c2	-0.0006916934
90	0xb8867201	-6.410853e-05
91	0xb8a9f8ec	-8.104913e-05
92	0x38b274b2	8.5094376e-05
93	0x37ef92a0	2.8559298e-05
94	0xb8ba8a1d	-8.894897e-05
95	0x385ca926	5.260962e-05
96	0xb73b0463	-1.114709e-05
97	0x3807dd91	3.2392858e-05
98	0xb79fb954	-1.9040577e-05
99	0x3802b218	3.1160278e-05

emb_model.convs.0.lin.bias f4 [10]
0	0x3ee97d83	0.4560357
1	0x37c74a34	2.3757202e-05
2	0xb90e7eea	-0.00013589454
3	0x3e19f972	0.15036562
4	0x3a891c39	0.0010460682
5	0xba3bea36	-0.0007168384
6	0xbebd39c4	-0.36958134
7	0xb93cca6f	-0.0001800449
8	0xba1eee54	-0.00060627353
9	0xb886af42	-6.422262e-05

emb_model.convs.0.lin_update.weight f4 [10, 20]
0	0x3ec1554a	0.37760383
1	0x36b2e4cb	5.3314484e-06
2	0x38e66917	0.00010986829
3	0x3e438b2a	0.19096056
4	0x3e646623	0.22304587
5	0xbaeaf40a	-0.0017925513
6	0xbe8cea87	-0.2752268
7	0x38a2f1a6	7.7697725e-05
8	0xbb3b0880	-0.0028539002
9	0xb977e983	-0.00023642746
10	0x3c062141	0.008186639
11	0xbf489270	-0.78348446
12	0xbbb1c491	-0.005425044
13	0xb7c60d50	-2.3609638e-05
14	0x3b8fc0eb	0.0043870113
15	0xbbb54044	-0.0055313427
16	0x3b592d85	0.0033138704
17	0x3b34c351	0.0027582238
18	0xbc1e14d2	-0.009648519
19	0x3ad11c83	0.0015953932
20	0x8d9b67dc	-9.577616e-31
21	0x00001b58	9.809e-42
22	0x80001b7c	-9.86e-42
23	0x00001b82	9.868e-42
24	0x00001b5e	9.817e-42
25	0x00001b65	9.827e-42
26	0x1277caf6	7.8189626e-28
27	0x00001ba1	9.911e-42
28	0x00001b83	9.87e-42
29	0x00001b9b	9.903e-42
30	0x00001bf1	1.0023e-41
31	0x00001b81	9.867e-42
32	0x00001bee	1.0019e-41
33	0x00001c4e	1.0154e-41
34	0x80001ec9	-1.1044e-41
35	0x00001c15	1.0074e-41
36	0x80001ce3	-1.0363e-41
37	0x80001b86	-9.874e-42
38	0x80001b60	-9.82e-42
39	0x80001b66	-9.829e-42
40	0x3ec296ed	0.38005772
41	0x3750520e	1.2416871e-05
42	0xb9a828a7	-0.00032073745
43	0x3e38301b	0.17987101
44	0x3de694dc	0.112588614
45	0xbb36777e	-0.002784222
46	0xbebd3bb2	-0.36959606
47	0xb99b5c33	-0.00029632598
48	0xba25eeb9	-0.0006329823
49	0xb57326ba	-9.058091e-07
50	0xbc94926d	-0.018136228
51	0xbed40d23	-0.41416273
52	0x3c2dff2e	0.010619922
53	0x3a9a7759	0.0011784836
54	0xbc8de57c	-0.01732134
55	0x3b8d8a06	0.004319432
56	0xba674066	-0.0008821547
57	0x3aeb1e3a	0.0017938085
58	0xbb5bad02	-0.0033519869
59	0x3c3e7f6a	0.011627058
60	0xbcb36fd2	-0.021903906
61	0x07f3f205	3.6704823e-34
62	0x877e68ea	-1.9139668e-34
63	0xbc99b499	-0.018762873
64	0xbc8a0ff6	-0.016853314
65	0x080f935f	4.320573e-34
66	0x3cb52a03	0.02211476
67	0x91de6f29	-3.5093932e-28
68	0x883320ac	-5.390426e-34
69	0xb569906c	-8.7009425e-07
70	0x875bebf5	-1.654507e-34
71	0xbc8986e3	-0.016787952
72	0x85fe7a0f	-2.3930882e-35
73	0x88abd082	-1.0340708e-33
74	0x86f96897	-9.381707e-35
75	0x87758ba2	-1.8472786e-34
76	0x86b08f41	-6.6414335e-35
77	0x1c35425c	5.9973644e-22
78	0x08bd8c12	1.1407954e-33
79	0x076a2313	1.7614511e-34
80	0xbe465379	-0.1936778
81	0x37d9fc29	2.5985837e-05
82	0xba2d0a81	-0.00066009915
83	0xbe255b90	-0.1614821
84	0xbde5e35e	-0.112250075
85	0xbc15fbed	-0.009154302
86	0x3ea1e0e1	0.3161688
87	0xba2948c3	-0.0006457681
88	0xbb6549c9	-0.0034986606
89	0xb98ee3aa	-0.00027253974
90	0xbacc54ed	-0.0015589275
91	0x3f2ae855	0.6676076
92	0xbb577dc8	-0.0032881368
93	0x3b9cf46f	0.004789881
94	0x38f4ab32	0.00011666714
95	0x3c2031d3	0.009777504
96	0xbb0db3f2	-0.0021622148
97	0xbbc9fb5a	-0.0061639966
98	0x3aad90a3	0.0013241958
99	0xbb66d747	-0.003522353
100	0x941d96cb	-7.956213e-27
101	0x1183d06d	2.0796608e-28
102	0x92aa4443	-1.0745336e-27
103	0x94125351	-7.3875476e-27
104	0x9402bb9d	-6.600323e-27
105	0x1367d4cc	2.9261216e-27
106	0x141bc4fd	7.864349e-27
107	0x107c20c0	4.9723467e-29
108	0x9607409f	-1.0925604e-25
109	0x909be7a4	-6.149362e-29
110	0x90bc6c3d	-7.431969e-29
111	0x93d761cb	-5.437006e-27
112	0x11985f3b	2.4040062e-28
113	0x91561fd2	-1.6891429e-28
114	0x0f1e4f0d	7.805226e-30
115	0x9082853c	-5.148124e-29
116	0x1156faf9	1.695896e-28
117	0x8ef07f13	-5.9286936e-30
118	0x11d16905	3.303911e-28
119	0x10857966	5.2646294e-29
120	0x3e98c1ea	0.29835445
121	0xb7886947	-1.6261487e-05
122	0x38d203d4	0.000100142934
123	0x3e61d6ed	0.22054644
124	0x3e343272	0.17597368
125	0xbb989555	-0.0046564736
126	0xbeb299ef	-0.34883067
127	0x38adbade	8.2840896e-05
128	0xba1a886f	-0.0005894964
129	0x38be0235	9.060317e-05
130	0x3abc3463	0.0014358874
131	0xbf1dc324	-0.61625886
132	0xbc388d81	-0.011264206
133	0x3c8e5bbe	0.01737773
134	0xba72141c	-0.0009234564
135	0x3c3a0e59	0.01135596
136	0xbb9ae35c	-0.0047268104
137	0x3c048487	0.008088238
138	0xbc284226	-0.010269677
139	0x3b9f4969	0.004861046
140	0x87342a3b	-1.3554105e-34
141	0x82ea864b	-3.446029e-37
142	0x8410e49e	-1.7032095e-36
143	0x06293137	3.1821525e-35
144	0x86ceb0fb	-7.7748637e-35
145	0x0443551d	2.2961222e-36
146	0x07ab65b9	2.5789008e-34
147	0x045ad4d4	2.5723503e-36
148	0x050d3f32	6.641395e-36
149	0x03b76ddd	1.0780997e-36
150	0x849bcee7	-3.6630335e-36
151	0x06f68094	9.2723844e-35
152	0x04ab18ff	4.0224862e-36
153	0x855b19e7	-1.0302088e-35
154	0x8453d075	-2.489865e-36
155	0x04858547	3.1390546e-36
156	0x02e0723c	3.297941e-37
157	0x84876324	-3.1829394e-36
158	0x043d4ef5	2.2253099e-36
159	0x042fd68e	2.066967e-36
160	0xbd09ee74	-0.033674672
161	0x33da2b3b	1.01592796e-07
162	0xb41c1f65	-1.4540053e-07
163	0xbd05592a	-0.032555737
164	0xbd060284	-0.032717243
165	0xbd7fae2c	-0.062421963
166	0x3d0ad36d	0.033893038
167	0xb556216d	-7.9769853e-07
168	0xbcd416b1	-0.025889726
169	0xb60803a7	-2.0267705e-06
170	0x3bf61930	0.007510327
171	0xbd0a7298	-0.03380069
172	0xb7faef5b	-2.9913781e-05
173	0xbc17dd80	-0.009269118
174	0x3c0f6a25	0.008753334
175	0xb6aab102	-5.087001e-06
176	0xb4a582f3	-3.0828923e-07
177	0xbb987dd8	-0.0046536736
178	0x3c241a64	0.010016058
179	0xbc170651	-0.009217815
180	0xb483f534	-2.457906e-07
181	0x00001b5f	9.819e-42
182	0x80000111	-3.83e-43
183	0xa9130cd7	-3.2651694e-14
184	0x9fcf448b	-8.7781305e-20
185	0x80001d29	-1.046e-41
186	0x35151d99	5.5549896e-07
187	0x80001ba1	-9.911e-42
188	0x80001cde	-1.0356e-41
189	0x8000c89e	-7.1968e-41
190	0x00001ce9	1.0371e-41
191	0xa67aec0f	-8.7056093e-16
192	0x80001b5e	-9.817e-42
193	0x00001bf0	1.0022e-41
194	0x00001cf1	1.0382e-41
195	0x80009a2a	-5.5304e-41
196	0x00001bde	9.997e-42
197	0x80001b5b	-9.813e-42
198	0x80002317	-1.2588e-41
199	0x8000031c	-1.115e-42

emb_model.convs.0.lin_update.bias f4 [10]
0	0xbf774d9b	-0.9660279
1	0x80036b5c	-3.1402e-40
2	0xbe8b1cd3	-0.2717043
3	0xbc9b4ffb	-0.018959036
4	0x3f2f4cdc	0.68476653
5	0x93e438d4	-5.761133e-27
6	0xbf179cf0	-0.5922384
7	0x077702e0	1.858306e-34
8	0xbd0a95da	-0.033834316
9	0xb111909f	-2.1182485e-09

emb_model.convs.1.lin.weight f4 [10, 20]
0	0xb972ddbd	-0.00023161522
1	0x3a8bfde5	0.0010680525
2	0x398bf207	0.0002669247
3	0x39a58656	0.0003157134
4	0xb9b13c7c	-0.00033805135
5	0x3905c61a	0.00012757667
6	0x3759673c	1.2958244e-05
7	0x3996a76e	0.00028734974
8	0xb9bb0290	-0.0003566933
9	0x397a1703	0.0002385043
10	0xbaf77e8b	-0.0018882317
11	0x80001b8a	-9.879e-42
12	0xbb0b3de9	-0.0021246618
13	0x077d4ef6	1.9056809e-34
14	0x3baffac7	0.005370471
15	0x9229d52a	-5.358974e-28
16	0xbb0d88f9	-0.0021596535
17	0x047794f7	2.9103112e-36
18	0x3b160e19	0.0022896586
19	0x00002014	1.1507e-41
20	0x3b0b8c4a	0.0021293336
21	0x3e292ccb	0.16520993
22	0xba6f75f9	-0.0009134706
23	0x3b551cdb	0.003251842
24	0xba04b438	-0.0005062255
25	0xbb0f364b	-0.002185243
26	0x3c0d7019	0.008632683
27	0x39cd382a	0.00039142492
28	0xbbc1df45	-0.0059165084
29	0x3a85f78b	0.0010220868
30	0xbedd65c2	-0.43241698
31	0x00001b85	9.872e-42
32	0xbe495aa3	-0.19663481
33	0x3bbb2de8	0.0057122596
34	0xbc267e9d	-0.010162023
35	0x119ce191	2.4751476e-28
36	0xbe065d26	-0.13121471
37	0x034e9cdd	6.071803e-37
38	0x3c9a3a31	0.018826576
39	0x1d98f4d4	4.048721e-21
40	0x399167d9	0.00027733928
41	0xb979e880	-0.00023833103
42	0xb91d1f8e	-0.00014984442
43	0xb9a7e17e	-0.00032020727
44	0x399e2668	0.00030164723
45	0xb9213b84	-0.00015376328
46	0x3868a8ee	5.547044e-05
47	0xb999d4c6	-0.00029340963
48	0x39b0690e	0.00033647608
49	0xb9be6090	-0.0003631157
50	0xbb21fa57	-0.0024715865
51	0x00001b81	9.867e-42
52	0x3a8b17bf	0.0010611935
53	0x870034cc	-9.645165e-35
54	0xbb63667b	-0.0034698534
55	0x115a73a0	1.7232797e-28
56	0x3a95aa0e	0.0011418478
57	0x83ca4df8	-1.1890394e-36
58	0xb8936749	-7.0287446e-05
59	0x00001caf	1.029e-41
60	0xb915194f	-0.00014219176
61	0xb9758a85	-0.00023416623
62	0x38c85f95	9.554547e-05
63	0x38e2ed02	0.00010820666
64	0xb91b9652	-0.0001483795
65	0x3856ad3a	5.1182906e-05
66	0xb7f90733	-2.9686465e-05
67	0x38e26d19	0.00010796841
68	0xb913b411	-0.00014086092
69	0x3931b293	0.0001694656
70	0xb9753dca	-0.00023388039
71	0x00001b65	9.827e-42
72	0xba35759d	-0.0006922128
73	0x8a7cb718	-1.2167795e-32
74	0x3ac65511	0.0015131553
75	0x90310f49	-3.491887e-29
76	0x3b210639	0.002457036
77	0x838469c2	-7.7825435e-37
78	0x34849749	2.469699e-07
79	0x00005540	3.0582e-41
80	0xbb6f1171	-0.0036478902
81	0x3e52486e	0.20535442
82	0x3b94d1ca	0.0045416104
83	0xbb73ac86	-0.003718169
84	0x3a5e94fe	0.00084908295
85	0x3b0b8f0e	0.0021294984
86	0xbb301866	-0.0026870011
87	0xbb97016f	-0.004608325
88	0x3b9ede1c	0.004848255
89	0xbb29efcf	-0.002593029
90	0x3ec64114	0.38721526
91	0x00001b71	9.844e-42
92	0x3efb25d1	0.4905229
93	0xbbf544af	-0.0074849944
94	0xbed3a723	-0.41338453
95	0x937b2690	-3.1699667e-27
96	0x3e7e87f6	0.24856552
97	0x050d8d57	6.655748e-36
98	0x3bfbe39b	0.007687045
99	0x302ad96c	6.2154615e-10
100	0xbc090ff7	-0.008365623
101	0xbcf6fae2	-0.030148927
102	0x3b6c8823	0.0036091886
103	0xbafa9d05	-0.0019120282
104	0xbb524cd7	-0.0032089257
105	0x3a85fbd0	0.0010222141
106	0xbb909440	-0.004412204
107	0xbb027957	-0.001990875
108	0x3afabfaa	0.0019130607
109	0x3902082d	0.00012400812
110	0x3e70cd2c	0.23515767
111	0x00001b87	9.875e-42
112	0x3eae5db5	0.34055868
113	0xbb761a11	-0.0037552158
114	0xbe891ed0	-0.2678132
115	0x9342f9d4	-2.4609417e-27
116	0x3de14db4	0.11001149
117	0x844180bc	-2.2746153e-36
118	0x3c01b587	0.007916815
119	0x20131a4b	1.2460084e-19
120	0x3c73967f	0.014867424
121	0x3d48ef64	0.049056426
122	0xbbae92aa	-0.0053275423
123	0x3ab2f093	0.0013652019
124	0x3bf7ac76	0.0075584007
125	0xbabad1b1	-0.0014253167
126	0x3c7073b5	0.014676024
127	0xba1ffa9d	-0.0006102713
128	0xbab04f67	-0.0013451398
129	0xbbfa91b6	-0.0076467646
130	0xbf2a5907	-0.66542095
131	0x00001b86	9.874e-42
132	0xbebcacee	-0.36850685
133	0x3c06d5e0	0.008229703
134	0x3c3261b8	0.010887556
135	0x11fe665d	4.013722e-28
136	0xbec8a3eb	-0.3918756
137	0x04435dc4	2.2965195e-36
138	0x3ba0ffea	0.00491332
139	0x2623c323	5.6816445e-16
140	0x3a83b9cb	0.0010049877
141	0xba97b68a	-0.0011574787
142	0xba1c9c16	-0.00059741864
143	0xba4a41a0	-0.00077154674
144	0x3a76dae1	0.0009416771
145	0xba01f3a7	-0.00049572665
146	0x399aa8ee	0.0002949903
147	0xba562db3	-0.0008170262
148	0x3a568d1b	0.00081844785
149	0xba953ad9	-0.0011385336
150	0x3b9fd7c6	0.004878017
151	0x00001b74	9.848e-42
152	0xb9982c73	-0.00029024816
153	0x881abb0b	-4.6562557e-34
154	0xbaa166fb	-0.0012314016
155	0x919d3cdc	-2.480774e-28
156	0x386695c8	5.4975768e-05
157	0x832122e5	-4.7353705e-37
158	0xb604b333	-1.977384e-06
159	0x80001c1a	-1.0081e-41
160	0xbbbaf58b	-0.0057055405
161	0xbde1a75a	-0.11018248
162	0x3b5f0ea3	0.0034035824
163	0xbb8fcbf9	-0.004388329
164	0xbb01ddf8	-0.0019816142
165	0x39f2793f	0.00046248172
166	0xbc3933ef	-0.011303886
167	0xbbce6e60	-0.006299779
168	0x3bd5942b	0.006517907
169	0x3aa48a49	0.0012553419
170	0x3f4a980f	0.79138273
171	0x80001b95	-9.895e-42
172	0x3edff2a2	0.43739802
173	0xbc2fdaf5	-0.010733356
174	0x3d7a9dd5	0.061185677
175	0x92945b79	-9.362663e-28
176	0x3e7c2370	0.24622893
177	0x849fea9e	-3.7596182e-36
178	0xbc1a0458	-0.00940045
179	0xadcae793	-2.306758e-11
180	0x3c625ad6	0.013815602
181	0xbb65e672	-0.0035079983
182	0xbb22742a	-0.0024788477
183	0xbbfb7be9	-0.0076746834
184	0x3c3c2f6f	0.011485918
185	0x3a8df056	0.0010829072
186	0xbb835e9c	-0.004009081
187	0xbbc04065	-0.0058670514
188	0x3c5b6806	0.0133915
189	0xbc3b0a5c	-0.011416044
190	0x3eca81a7	0.39552042
191	0x00001b7e	9.862e-42
192	0x3ba160cb	0.0049248687
193	0xbc1e8dc6	-0.009677356
194	0x3eaa2b45	0.33236137
195	0x1301bff6	1.6376733e-27
196	0x3da39a7c	0.0798845
197	0x048f503a	3.3692815e-36
198	0xbd3e6ddd	-0.046491493
199	0xa7120276	-2.0262904e-15

emb_model.convs.1.lin.bias f4 [10]
0	0x3acf5d93	0.0015820734
1	0x3d045c5e	0.03231465
2	0xb972bcf5	-0.0002314931
3	0xba053505	-0.0005081448
4	0x3e54b63e	0.20772645
5	0xbc0a3cd7	-0.008437357
6	0x3e279dee	0.16368839
7	0xbab6fb4a	-0.0013960388
8	0xbd8acd16	-0.06777398
9	0xbd99e55e	-0.075144514

emb_model.convs.1.lin_update.weight f4 [10, 30]
0	0x3b854bc0	0.004067868
1	0xbea54327	-0.32277796
2	0xbb3c4d25	-0.0028732505
3	0x3a6ae95d	0.00089611654
4	0x3dca7ba9	0.098868676
5	0x3e2066b6	0.15664181
6	0xbf2465f6	-0.6421808
7	0xbb5af44e	-0.0033409777
8	0x3f227146	0.6345409
9	0x3e56f733	0.20992737
10	0xbc6da6ad	-0.014505071
11	0xbe4c40f5	-0.19946654
12	0x3b8b076e	0.004242829
13	0x3c476399	0.012169742
14	0xbc48c55f	-0.012254088
15	0x3bd3e16b	0.006466081
16	0xbc422481	-0.0118495235
17	0x3c8268c5	0.015919099
18	0xbc2eac2a	-0.010661164
19	0x3c80383f	0.01565182
20	0x3eca197b	0.39472565
21	0x00001b9b	9.903e-42
22	0xbe1ce049	-0.15319933
23	0xbb8af5b3	-0.0042407154
24	0xbe030812	-0.12796047
25	0x1350e483	2.6365956e-27
26	0xbde35c85	-0.11101631
27	0x82f52296	-3.6019366e-37
28	0xbcabe845	-0.020984778
29	0x06c1e6b0	7.2937496e-35
30	0xb4081e3f	-1.267699e-07
31	0x32137246	8.582509e-09
32	0xb371c59a	-5.6291903e-08
33	0xafe9978e	-4.249014e-10
34	0xb89e05e3	-7.5351236e-05
35	0xb47bc5d7	-2.344817e-07
36	0x32f8eb12	2.8977897e-08
37	0xb160753b	-3.2662928e-09
38	0x34b25881	3.321948e-07
39	0xb3914a09	-6.7655556e-08
40	0xb3d4e837	-9.914259e-08
41	0xb56300bd	-8.4565164e-07
42	0xb1f40736	-7.1021544e-09
43	0xb393cc95	-6.882434e-08
44	0x33da2de9	1.0159767e-07
45	0xb166ff5f	-3.3614567e-09
46	0x31f72efd	7.193988e-09
47	0xb3a9fd67	-7.9157694e-08
48	0x32de7349	2.5896627e-08
49	0x3332febd	4.1675538e-08
50	0x33ee7975	1.11048315e-07
51	0x80001b87	-9.875e-42
52	0x33a87f6e	7.846289e-08
53	0x2a8ed02c	2.5368715e-13
54	0x34a653bf	3.0980843e-07
55	0x0000200f	1.15e-41
56	0xb3eef366	-1.11270126e-07
57	0x80001d9b	-1.062e-41
58	0xb45f3326	-2.0787101e-07
59	0x00001c34	1.0117e-41
60	0x0000fea5	9.1349e-41
61	0x80001b5b	-9.813e-42
62	0x8000c4a4	-7.0541e-41
63	0x800011ec	-6.429e-42
64	0x963468ab	-1.4573312e-25
65	0x00001b74	9.848e-42
66	0x80001b8e	-9.885e-42
67	0x00001ff1	1.1458e-41
68	0x00001b84	9.871e-42
69	0x80001b6f	-9.841e-42
70	0x00001fa3	1.1349e-41
71	0x00001b7f	9.864e-42
72	0x80002261	-1.2333e-41
73	0x80001e1e	-1.0804e-41
74	0x80001b8c	-9.882e-42
75	0x00001d4d	1.0511e-41
76	0x800020c9	-1.1761e-41
77	0x00001d57	1.0525e-41
78	0x00001b5a	9.812e-42
79	0x00001cbe	1.0311e-41
80	0x80001bfc	-1.0039e-41
81	0x00001b98	9.899e-42
82	0x00001b7a	9.857e-42
83	0xa802eed3	-7.268236e-15
84	0x00001b7d	9.861e-42
85	0xae31fa4e	-4.0467456e-11
86	0x80001b9a	-9.902e-42
87	0xa6068f35	-4.668467e-16
88	0x80001b5b	-9.813e-42
89	0xb041a663	-7.044944e-10
90	0xbad4fe3e	-0.0016250086
91	0xbe0742b9	-0.13209046
92	0x3aca8ee8	0.0015453966
93	0xb9e2a37e	-0.0004322789
94	0x3f05b581	0.5223008
95	0x3e6c8ee1	0.23101379
96	0xbe645388	-0.2229749
97	0x3aa07702	0.0012242498
98	0x3eb4139f	0.3517122
99	0x3d6b0f77	0.057387795
100	0x3c5f321a	0.013622785
101	0xbe5649cb	-0.20926587
102	0xbb9a0e50	-0.004701413
103	0xbbfe4217	-0.0077593434
104	0x3c2ade55	0.010428985
105	0xbad0473d	-0.0015890371
106	0x3c05e947	0.008173293
107	0xbc30a0e0	-0.010780543
108	0x3c36ba21	0.011152775
109	0xbc7e35fc	-0.015515801
110	0xbbb65dc3	-0.0055653765
111	0x00001b7f	9.864e-42
112	0x3d3afc60	0.04565084
113	0xbc8a4207	-0.016877187
114	0xbf16a07b	-0.58838624
115	0x93591d0e	-2.7403576e-27
116	0x3d9935b9	0.0748095
117	0x03fd2ebc	1.4880733e-36
118	0xbc32fe40	-0.010924876
119	0xa98fb59e	-6.381981e-14
120	0x00001bcc	9.972e-42
121	0x00001b8f	9.886e-42
122	0x80001b6e	-9.84e-42
123	0x80001f5d	-1.1251e-41
124	0xb4150a02	-1.3880347e-07
125	0x9b018cad	-1.0716085e-22
126	0x873ea043	-1.4341108e-34
127	0x80001c3e	-1.0131e-41
128	0xa37f06aa	-1.3824989e-17
129	0x00001b9d	9.906e-42
130	0x80001c54	-1.0162e-41
131	0xa46da304	-5.1529263e-17
132	0x00001fda	1.1426e-41
133	0x80001b89	-9.878e-42
134	0x00001da4	1.0633e-41
135	0x00002274	1.236e-41
136	0x00001b6a	9.834e-42
137	0x80001e41	-1.0853e-41
138	0x80001d44	-1.0499e-41
139	0x000021ad	1.208e-41
140	0x000021cc	1.2124e-41
141	0x336e479c	5.547882e-08
142	0xa19bf708	-1.0568597e-18
143	0x00001fde	1.1432e-41
144	0x93b13ebe	-4.474295e-27
145	0x2c1bd3b4	2.2144344e-12
146	0x80001b73	-9.847e-42
147	0x80001efa	-1.1112e-41
148	0x00001ca6	1.0277e-41
149	0x80001c06	-1.0053e-41
150	0x3b836c38	0.0040107034
151	0xbdbf337a	-0.0933599
152	0xbbc96b3c	-0.0061468165
153	0x3b123455	0.0022309024
154	0x3e773253	0.24140291
155	0x3da8ff4a	0.082518175
156	0xbe0433d8	-0.12910402
157	0xb925e950	-0.00015822542
158	0x3e2c5dbb	0.1683263
159	0x3da72db7	0.08163016
160	0x3c1d1a59	0.009588801
161	0xbe6c9837	-0.2310494
162	0xba09b252	-0.0005252707
163	0xbc139d3a	-0.009009654
164	0x3c122240	0.008919299
165	0x3b94d389	0.0045418185
166	0x3b8ae254	0.004238406
167	0xbc0ef48e	-0.008725299
168	0x3c456b1a	0.012049461
169	0xbc2dd384	-0.010609511
170	0xbe11e955	-0.14249165
171	0x80001b73	-9.847e-42
172	0x3ca9b0b6	0.020714145
173	0xbb6c2115	-0.003603046
174	0xbf0eedfe	-0.558319
175	0x9330650b	-2.2264141e-27
176	0x3e83a03a	0.2570818
177	0x0297e7ea	2.2320568e-37
178	0xbd105395	-0.03523596
179	0x00001ba1	9.911e-42
180	0x00001b9c	9.904e-42
181	0x1a0f53e7	2.9639483e-23
182	0x00001b5f	9.819e-42
183	0x80001b65	-9.827e-42
184	0xb8049c0d	-3.1616586e-05
185	0xaeeed4e7	-1.0860806e-10
186	0x2867cb8b	1.2867212e-14
187	0x00001b8c	9.882e-42
188	0xb194a627	-4.3262562e-09
189	0x00001b7e	9.862e-42
190	0x00001b59	9.81e-42
191	0xb267702a	-1.3471473e-08
192	0x80001bc4	-9.96e-42
193	0x80001b98	-9.899e-42
194	0x00001bc2	9.958e-42
195	0x80001bb0	-9.932e-42
196	0x00001b6d	9.839e-42
197	0x00001b5b	9.813e-42
198	0x00001b67	9.83e-42
199	0x00001b63	9.825e-42
200	0x80001bab	-9.925e-42
201	0x80001b9d	-9.906e-42
202	0xb12bd780	-2.5006273e-09
203	0xaacb9f9c	-3.6170795e-13
204	0xabd59055	-1.517462e-12
205	0x80001bc1	-9.956e-42
206	0x9a0cfb59	-2.915436e-23
207	0x34bd4948	3.5257312e-07
208	0x80002256	-1.2317e-41
209	0x00001bb7	9.942e-42
210	0x00002170	1.1995e-41
211	0x00001b66	9.829e-42
212	0x80000635	-2.227e-42
213	0x00002235	1.2271e-41
214	0xb61c0d8d	-2.32537e-06
215	0xa157e063	-7.3141807e-19
216	0x13e948a5	5.8889102e-27
217	0x80001b60	-9.82e-42
218	0xa987c434	-6.02924e-14
219	0x80001b78	-9.854e-42
220	0x00001e8b	1.0957e-41
221	0xaa630b75	-2.0165625e-13
222	0x80001e3b	-1.0845e-41
223	0x00001ecd	1.1049e-41
224	0x00002207	1.2207e-41
225	0x80001ea1	-1.0988e-41
226	0x80001b91	-9.889e-42
227	0x00001bab	9.925e-42
228	0x80001b7a	-9.857e-42
229	0x00001d13	1.043e-41
230	0x80001b5e	-9.817e-42
231	0xb4c38d03	-3.642418e-07
232	0xa8707ce6	-1.3349759e-14
233	0xad8d232e	-1.6045467e-11
234	0x9e323c9b	-9.4357745e-21
235	0xaf67d270	-2.108409e-10
236	0x80001b95	-9.895e-42
237	0x277ee77c	3.537507e-15
238	0x80001caf	-1.029e-41
239	0x00001baa	9.924e-42
240	0x00001c60	1.0179e-41
241	0x00001b8f	9.886e-42
242	0x00001be9	1.0012e-41
243	0x80001c03	-1.0049e-41
244	0xb9a26ae5	-0.0003097869
245	0xa7f226fd	-6.7210764e-15
246	0x2420664e	3.4781125e-17
247	0x00001bb8	9.944e-42
248	0xab7b794a	-8.9341436e-13
249	0x80001b88	-9.876e-42
250	0x80001b8a	-9.879e-42
251	0xb6945f33	-4.4218264e-06
252	0x80001cd8	-1.0347e-41
253	0x00001cfa	1.0395e-41
254	0x000020be	1.1746e-41
255	0x00001ca3	1.0273e-41

emb_model.convs.1.lin_update.bias f4 [10]
0	0xbeb911ed	-0.3614649
1	0xb9d81bf9	-0.00041219572
2	0x82b919bf	-2.7198084e-37
3	0xbe71dfe9	-0.23620571
4	0xb3929671	-6.82602e-08
5	0xbeb678a1	-0.35638908
6	0xb7dc5eaf	-2.6270134e-05
7	0xb5b28b73	-1.3302619e-06
8	0xba76fc6c	-0.0009421769
9	0xbea17a92	-0.31538826

emb_model.convs.2.lin.weight f4 [10, 30]
0	0x3b690fd6	0.0035562417
1	0x3b452cdc	0.0030086553
2	0xba9d2873	-0.0011990204
3	0x3a9882f5	0.0011635708
4	0x3b1f2c04	0.002428771
5	0x3a76c174	0.0009412982
6	0xba9dacdc	-0.0012029666
7	0xbaae8a25	-0.0013316317
8	0x3a6e944d	0.0009101078
9	0xbb302ecf	-0.002688337
10	0xbcc47161	-0.023979845
11	0x00001b61	9.822e-42
12	0x3d3fbb76	0.046809636
13	0x35af83e0	1.3076897e-06
14	0xbcb14d95	-0.02164344
15	0x12521a98	6.6297095e-28
16	0x3dc2cc75	0.09511653
17	0x8209f721	-1.0136093e-37
18	0xbbd79e54	-0.0065801535
19	0x00001b62	9.823e-42
20	0xbd224a51	-0.039621655
21	0xb2fd0916	-2.9457208e-08
22	0x80001bba	-9.946e-42
23	0xbe3bb90b	-0.18332307
24	0x00001b64	9.826e-42
25	0x3d802b4b	0.062582575
26	0x80001b5d	-9.816e-42
27	0x00001bac	9.927e-42
28	0x00001b88	9.876e-42
29	0x3e099605	0.13436134
30	0xb961a064	-0.00021517422
31	0xb9e97716	-0.0004452995
32	0x389424d4	7.06405e-05
33	0x399b1486	0.00029579195
34	0xb991d3d9	-0.00027814394
35	0x38e73ea7	0.00011026608
36	0xb67e3df4	-3.788501e-06
37	0x399206a2	0.00027852232
38	0xb9ac3b9d	-0.00032850812
39	0x39ecc618	0.0004516102
40	0x3a5df52c	0.00084670144
41	0x80001c07	-1.0054e-41
42	0x39920ba9	0.00027855978
43	0x07b3caaa	2.7052042e-34
44	0xb9e97961	-0.00044531657
45	0x11268eec	1.3139132e-28
46	0xbb340bb8	-0.0027472805
47	0x80231e5c	-3.225133e-39
48	0xb524bd51	-6.137025e-07
49	0x800022f8	-1.2544e-41
50	0x3b16d9e6	0.0023018061
51	0x32cca147	2.3822066e-08
52	0x80001da1	-1.0629e-41
53	0x3b38043e	0.00280787
54	0x80001cb4	-1.0297e-41
55	0xbae8ca75	-0.0017760532
56	0x00001b6f	9.841e-42
57	0x80001c0a	-1.0059e-41
58	0x00001c91	1.0248e-41
59	0xbba970c1	-0.005170912
60	0x3a2c2fd1	0.00065684045
61	0x3bcc5e37	0.006236817
62	0xb98bb65f	-0.00026648023
63	0xba7f2789	-0.0009733369
64	0x3a7f2a00	0.00097337365
65	0x38d0885f	9.943614e-05
66	0xba2b3a5e	-0.000653183
67	0xba283515	-0.0006416601
68	0x3aa77c65	0.0012778161
69	0xba6443b7	-0.00087076
70	0xbc39c0fc	-0.011337515
71	0x00001b91	9.889e-42
72	0xbc5a6de5	-0.013331865
73	0x29dfcae7	9.938387e-14
74	0xbcb386eb	-0.02191492
75	0x918db302	-2.23562e-28
76	0x3cbf9d2e	0.023390379
77	0x81509a1a	-3.831413e-38
78	0x332db7b8	4.0446793e-08
79	0x80001c1f	-1.0088e-41
80	0x3d11e245	0.035616178
81	0x3298ac29	1.7773418e-08
82	0x80001b7f	-9.864e-42
83	0xbdd01f5e	-0.10162233
84	0x80001b6a	-9.834e-42
85	0x3c97ace8	0.018515065
86	0x80001b7c	-9.86e-42
87	0x00001beb	1.0015e-41
88	0x00001bb4	9.938e-42
89	0x3d035321	0.0320617
90	0xb9b7d4b0	-0.00035062945
91	0xb8e85f1f	-0.0001108034
92	0x393e0d98	0.00018124876
93	0x38a1cf83	7.71573e-05
94	0xb9828767	-0.00024896415
95	0x394cac5a	0.00019519162
96	0x35ce8936	1.538813e-06
97	0x394699fb	0.00018940114
98	0xb8b90b41	-8.8235836e-05
99	0x39931286	0.00028051826
100	0x38862998	6.397365e-05
101	0x00001b9f	9.909e-42
102	0xba89702d	-0.0010485701
103	0x8775c68f	-1.8490103e-34
104	0x3a83e537	0.0010062818
105	0x9176d7af	-1.9472441e-28
106	0xbad2608b	-0.00160505
107	0x011856d8	2.7980298e-38
108	0x364e28a8	3.0720057e-06
109	0x80005676	-3.1016e-41
110	0x3bbd5254	0.0057776365
111	0xb2ee5f95	-2.7750312e-08
112	0x80001d2c	-1.0465e-41
113	0xbab6663e	-0.0013915969
114	0x80001c5e	-1.0176e-41
115	0xbaf35c6c	-0.0018566973
116	0x00001b84	9.871e-42
117	0x80001b73	-9.847e-42
118	0x80001d4a	-1.0507e-41
119	0xbaa89136	-0.0012860659
120	0xbc6781d9	-0.014130079
121	0x3de49c37	0.11162608
122	0x3700c2d5	7.674757e-06
123	0x3c8465a6	0.016161751
124	0xbca15633	-0.019694423
125	0x3bf4d401	0.007471562
126	0x3b5d27ee	0.0033745724
127	0x3c395967	0.011312819
128	0xbc89d9e2	-0.016827527
129	0x3c8f47f9	0.017490374
130	0xbe08d67d	-0.13363071
131	0x80001b74	-9.848e-42
132	0xbe35c4e1	-0.17750885
133	0x3a001301	0.00048856443
134	0x3e8be247	0.27321073
135	0x8d4bdb97	-6.2818526e-31
136	0xbd3b68a4	-0.04575409
137	0x0433bb70	2.1127416e-36
138	0x3d4ade22	0.04952825
139	0x2a15840c	1.3279671e-13
140	0xbe6b41e3	-0.22974353
141	0xb46a262c	-2.1806835e-07
142	0x00001b8b	9.88e-42
143	0xbf3798a7	-0.71717304
144	0x2fb322c0	3.2584602e-10
145	0xbec82e93	-0.39098033
146	0xb29afde2	-1.8043412e-08
147	0x80001b78	-9.854e-42
148	0x2432bc88	3.875729e-17
149	0xbeef7ca8	-0.46774793
150	0x3c2a8f8b	0.0104102
151	0xbdc6620e	-0.09686671
152	0xb8d6bac0	-0.000102391
153	0xbc47614e	-0.012169195
154	0x3c62334d	0.013806176
155	0xbb5fd9df	-0.003415696
156	0xbb0a9b48	-0.0021149684
157	0xbc093b5d	-0.00837597
158	0x3c655010	0.013996139
159	0xbc587e5f	-0.013213723
160	0x3e22034e	0.15821573
161	0x00001b83	9.87e-42
162	0x3da15e1f	0.0787928
163	0x3b934119	0.004493844
164	0xbe22e31d	-0.1590695
165	0x92cfdc54	-1.3117852e-27
166	0xbd607990	-0.05480343
167	0x0420b647	1.8891607e-36
168	0xbce6c4a7	-0.028169943
169	0xa6111bab	-5.034448e-16
170	0x3e7fabcc	0.24967879
171	0x33597808	5.0633417e-08
172	0x80001b95	-9.895e-42
173	0x3f3d0738	0.7383914
174	0xad8944b6	-1.560561e-11
175	0x3e8258d1	0.25458387
176	0x30aa0cd5	1.2372775e-09
177	0x80001b95	-9.895e-42
178	0x9e8de08d	-1.5021828e-20
179	0x3e853eec	0.26024568
180	0x39f4eba4	0.00046714873
181	0x3a3d5760	0.0007222798
182	0xba0c5bec	-0.00053542736
183	0x3a9e0436	0.0012055698
184	0xb8cb5d5e	-9.697185e-05
185	0xb9b6509f	-0.00034773813
186	0x39be8c24	0.00036344037
187	0xb9bf29b9	-0.00036461445
188	0xba8109e5	-0.0009844868
189	0x387a579f	5.968625e-05
190	0x3ba01330	0.0048851
191	0x00001b8f	9.886e-42
192	0xbad44abf	-0.0016196592
193	0x08037a02	3.95648e-34
194	0x3bc2311a	0.0059262635
195	0x9148ef73	-1.5851004e-28
196	0x3a7a9156	0.00095584
197	0x834a5849	-5.946381e-37
198	0x3ba837e8	0.0051336177
199	0x00002143	1.1932e-41
200	0xbc923550	-0.017847687
201	0x3337a707	4.275992e-08
202	0x80001f4f	-1.1231e-41
203	0xbb2269d2	-0.0024782312
204	0x80001bea	-1.0014e-41
205	0x3c166c43	0.009181085
206	0x00001b8e	9.885e-42
207	0x80001b8f	-9.886e-42
208	0x00001c8f	1.0245e-41
209	0xbb131ed4	-0.0022448795
210	0xb8934b74	-7.0235605e-05
211	0xb8889566	-6.512813e-05
212	0x382b9f59	4.091798e-05
213	0x36af51b9	5.22492e-06
214	0xb85fe15b	-5.337722e-05
215	0x380df93a	3.384913e-05
216	0xb71c7d7a	-9.327539e-06
217	0x381a0e97	3.673005e-05
218	0x36f2c650	7.2352486e-06
219	0x37faed07	2.9912697e-05
220	0xb9e3d8b2	-0.00043458265
221	0x00001baf	9.931e-42
222	0xb9a45224	-0.00031341717
223	0x08249af3	4.9534097e-34
224	0xb653d8d5	-3.1567663e-06
225	0x90499c70	-3.9760776e-29
226	0x3a0957e2	0.0005239231
227	0x803a2794	-5.340657e-39
228	0x34db4070	4.0838813e-07
229	0x00001ccc	1.033e-41
230	0x3b20eed0	0.0024556406
231	0x32129b33	8.533607e-09
232	0x80001cb1	-1.0293e-41
233	0xba507ba1	-0.00079529925
234	0x00001d7e	1.058e-41
235	0xbae21536	-0.0017248753
236	0x80001bed	-1.0018e-41
237	0x00001ba3	9.914e-42
238	0x00002214	1.2225e-41
239	0xb7f5e108	-2.9311064e-05
240	0xb906e994	-0.0001286625
241	0x389e1a7b	7.5389595e-05
242	0x38800947	6.105244e-05
243	0x38fd6996	0.00012083647
244	0xb8e69bba	-0.00010996261
245	0x38a855a6	8.0268175e-05
246	0x37232b1a	9.7255925e-06
247	0x39152dbd	0.00014226786
248	0xb9140df5	-0.0001411958
249	0x393ab800	0.00017806888
250	0x39542095	0.00020230033
251	0x00001b5d	9.816e-42
252	0x399ad97b	0.00029535205
253	0x87a3f252	-2.4667937e-34
254	0x399a720f	0.0002945815
255	0x90979503	-5.978859e-29

emb_model.convs.2.lin.bias f4 [10]
0	0x3b4aa35d	0.0030920126
1	0xb9ea19bc	-0.00044651132
2	0x3cd3aabb	0.025838247
3	0xb9a1f8ed	-0.00030893777
4	0x3e3d6e0f	0.18499015
5	0xbe047a37	-0.12937246
6	0x3a52b0aa	0.0008037189
7	0xb8c1d96d	-9.243456e-05
8	0xb832a1db	-4.2589247e-05
9	0xb95c71e6	-0.00021023265

emb_model.convs.2.lin_update.weight f4 [10, 40]
0	0x34659e2a	2.1384827e-07
1	0x26b1e4a6	1.2343817e-15
2	0x3465fd35	2.1419403e-07
3	0x27d143f7	5.808284e-15
4	0xba128f98	-0.0005590855
5	0xb94e0d9c	-0.00019650761
6	0xa77358e3	-3.377121e-15
7	0x2668b58f	8.0737227e-16
8	0x2899d094	1.7076869e-14
9	0x25332240	1.553738e-16
10	0xa515e464	-1.3001072e-16
11	0xb89030ea	-6.875566e-05
12	0xa603dba1	-4.574741e-16
13	0xa6027720	-4.5264255e-16
14	0x268a929c	9.615412e-16
15	0xa67fb7af	-8.8719835e-16
16	0xa5081987	-1.1804769e-16
17	0x266b1b50	8.156902e-16
18	0x2693661e	1.0227853e-15
19	0xa609f3d2	-4.786186e-16
20	0x296a5e6c	5.2040335e-14
21	0x80001b59	-9.81e-42
22	0xb822ef50	-3.8846687e-05
23	0xa62196d7	-5.606252e-16
24	0xb151d20f	-3.0532907e-09
25	0x00001b68	9.832e-42
26	0xb56b8662	-8.7739875e-07
27	0x26b97a73	1.2870144e-15
28	0x3880255d	6.110475e-05
29	0x2e53b75d	4.8138705e-11
30	0xb78acb99	-1.654569e-05
31	0x313a43f3	2.7105187e-09
32	0x2c4c3d6d	2.9024242e-12
33	0xb8baa565	-8.899978e-05
34	0x8000206f	-1.1635e-41
35	0xb4bca6f7	-3.5139212e-07
36	0xa4c70f4a	-8.6328394e-17
37	0xa6d52c90	-1.4791923e-15
38	0x00001e3c	1.0846e-41
39	0xb6a178d7	-4.8122415e-06
40	0xbdd21c30	-0.102592826
41	0x3aa99e97	0.001294094
42	0xbc38c576	-0.011277547
43	0x3ab3edb5	0.0013727458
44	0x3eae55ad	0.3404974
45	0xbd9d39db	-0.07677051
46	0xb7bed2b8	-2.2747889e-05
47	0x39d0a675	0.00039796872
48	0x39a424d0	0.00031307945
49	0xb94ef826	-0.00019738133
50	0xbc5d9f8b	-0.013526808
51	0xbe081880	-0.13290596
52	0x3ba7b4c8	0.0051179864
53	0x3c1144e5	0.008866523
54	0xbc59c36b	-0.01329122
55	0x3bf25f66	0.0073966263
56	0x3a5b9f78	0.00083779497
57	0x3c1f24e1	0.009713382
58	0xbc19b675	-0.00938188
59	0x3c53cd3e	0.0129273515
60	0x3dd8fb1f	0.105947725
61	0x000022a0	1.2421e-41
62	0x3f24b4fe	0.6433867
63	0x3c32c304	0.010910753
64	0xbeec9732	-0.46209103
65	0x93ad8de6	-4.3811262e-27
66	0x3f288734	0.65831304
67	0x02613f0f	1.6548486e-37
68	0x3d34fad0	0.044184506
69	0x80001b71	-9.844e-42
70	0x3eb89a59	0.36055258
71	0x31cf274f	6.0289618e-09
72	0x80001ba4	-9.916e-42
73	0xbd265958	-0.04061255
74	0x00001b8e	9.885e-42
75	0x3e02f148	0.12787354
76	0x239cd708	1.7004623e-17
77	0x00001b5a	9.812e-42
78	0x0000ab6a	6.1492e-41
79	0xbe133542	-0.14375785
80	0xbca5ed7d	-0.020254845
81	0xb8acd68c	-8.2415616e-05
82	0xbb62a738	-0.0034584533
83	0xba28cc1a	-0.0006439105
84	0xbf1b059c	-0.60555434
85	0x3f0d4909	0.5518957
86	0xba93dcf2	-0.0011281057
87	0xb8fd3828	-0.0001207444
88	0xb92086ad	-0.0001530896
89	0x39322feb	0.00016993254
90	0x3baf85ef	0.0053565423
91	0xbc0e2330	-0.008675382
92	0xbba60ca3	-0.0050674244
93	0x3b8b4fdc	0.0042514633
94	0x3b4b954c	0.003106433
95	0x3bddd9ff	0.006770372
96	0xb923c176	-0.00015616961
97	0x3a908fc4	0.0011029174
98	0x39cf9b11	0.0003959765
99	0xbb91e7d1	-0.0044526835
100	0x3e14d1ce	0.14533159
101	0x00001b87	9.875e-42
102	0xbd911a03	-0.070850395
103	0x3cf3ca67	0.029759599
104	0xbe05c841	-0.13064672
105	0x94200750	-8.079378e-27
106	0xbe9f1207	-0.3106844
107	0x852a6b3d	-8.013058e-36
108	0x3ad7d609	0.0016466986
109	0x1d2f1e9d	2.3176884e-21
110	0x3daca496	0.0842983
111	0x340d8702	1.3180764e-07
112	0x00001b7a	9.857e-42
113	0x3e0ad144	0.13556391
114	0x2be833f5	1.6499012e-12
115	0xbe1ac992	-0.15115955
116	0x331b10a5	3.6103888e-08
117	0x00001b8b	9.88e-42
118	0x193a7bc7	9.640971e-24
119	0xbeae2ddc	-0.34019363
120	0x00001b7d	9.861e-42
121	0x00001b9c	9.904e-42
122	0x00001b91	9.889e-42
123	0x80001b7a	-9.857e-42
124	0x3015c057	5.4479216e-10
125	0xafd08a38	-3.793319e-10
126	0x80001ba4	-9.916e-42
127	0x00001b88	9.876e-42
128	0x80001b75	-9.85e-42
129	0x80001b69	-9.833e-42
130	0x80001c30	-1.0112e-41
131	0xb234642a	-1.0500154e-08
132	0x80001eef	-1.1097e-41
133	0x00001d67	1.0548e-41
134	0x00001b73	9.847e-42
135	0x80001bf5	-1.0029e-41
136	0x00001cb7	1.0301e-41
137	0x00001b5f	9.819e-42
138	0x80001bbf	-9.953e-42
139	0x00001ce2	1.0361e-41
140	0x80001b81	-9.867e-42
141	0xb3203ea9	-3.7309892e-08
142	0xae3f5a20	-4.350842e-11
143	0x27eadfac	6.5190552e-15
144	0xa3988c57	-1.653931e-17
145	0xa8bfab48	-2.1279541e-14
146	0x05a59cb7	1.5574093e-35
147	0xaeca06d6	-9.187111e-11
148	0xb34ad813	-4.722831e-08
149	0x2933ed9b	3.9952074e-14
150	0x8000183e	-8.696e-42
151	0x336e17c4	5.5435308e-08
152	0x269bfd48	1.0823938e-15
153	0xaaef7655	-4.2537038e-13
154	0x800021d8	-1.2141e-41
155	0x00001b5b	9.813e-42
156	0x26072bbd	4.689681e-16
157	0x30e12413	1.6381158e-09
158	0x381d0f90	3.744621e-05
159	0x018c8811	5.1623124e-38
160	0x19d0824a	2.155932e-23
161	0x99797cc2	-1.2898193e-23
162	0x1a0a8cb5	2.8651393e-23
163	0x99da7b4f	-2.2590476e-23
164	0x1c8db8e6	9.378392e-22
165	0x9c86b86e	-8.91505e-22
166	0x1a41494d	3.9970676e-23
167	0x1893a751	3.8167556e-24
168	0x98ddc17c	-5.732253e-24
169	0x98dcf6ab	-5.711774e-24
170	0x9912677d	-7.568922e-24
171	0x9c07a2fb	-4.48784e-22
172	0x18cf9eb2	5.3668487e-24
173	0x1a0b5137	2.881013e-23
174	0x191e9c63	8.1999906e-24
175	0x18f545a6	6.3401343e-24
176	0x188ed262	3.6918572e-24
177	0x9a5a2432	-4.5110582e-23
178	0x1a1a743b	3.1940344e-23
179	0x992dd3e4	-8.986681e-24
180	0x9a06a73d	-2.7845645e-23
181	0xad2eca4d	-9.935675e-12
182	0x9c592ca3	-7.185697e-22
183	0x000022f9	1.2546e-41
184	0x9976387f	-1.2729311e-23
185	0xa683618a	-9.116389e-16
186	0x9b898f24	-2.275725e-22
187	0xb4323fd7	-1.6600767e-07
188	0x80001b67	-9.83e-42
189	0x2c2d2b6a	2.4608878e-12
190	0x9b6584d0	-1.898535e-22
191	0x80001cea	-1.0372e-41
192	0xa7cd9eb2	-5.7070988e-15
193	0x9c7d7f59	-8.387527e-22
194	0x80001b8b	-9.88e-42
195	0x1be7145f	3.822891e-22
196	0xa557caad	-1.8716947e-16
197	0x27de4a5e	6.1698007e-15
198	0x388176d7	6.173335e-05
199	0x9bcd5f2a	-3.3975903e-22
200	0x3d499b95	0.04922064
201	0xb9c2f46e	-0.00037184678
202	0x3c2f118c	0.010685336
203	0x39c1112a	0.00036824617
204	0x3ee17ff4	0.44042933
205	0xbed0db00	-0.40792084
206	0xbaaac844	-0.0013029655
207	0x38ae1ef0	8.302729e-05
208	0x38a98e69	8.085074e-05
209	0xb92683ed	-0.0001588014
210	0xbb86a59d	-0.004109098
211	0x3e7a9e96	0.24474558
212	0xbb4f9dbb	-0.0031679708
213	0x3c521d2c	0.012824338
214	0xbc178973	-0.009249079
215	0x3c284276	0.010269752
216	0x3bc9cd65	0.006158518
217	0x3ba98173	0.0051729023
218	0xbc40ad6f	-0.0117601
219	0x3ba94881	0.005166114
220	0x3b3f1193	0.0029154762
221	0x80001b6b	-9.836e-42
222	0x3d83094c	0.063982576
223	0x3cddbc84	0.02706743
224	0x3dc9fa4a	0.09862192
225	0x93d78629	-5.4405922e-27
226	0x3e90fcce	0.28317875
227	0x049d69b8	3.700761e-36
228	0x3cfb7b07	0.030698312
229	0x23fa26d3	2.7121497e-17
230	0xbe952bf1	-0.29135087
231	0x3523d2d3	6.102902e-07
232	0x00001b78	9.854e-42
233	0x3e84064d	0.25786057
234	0x264d9fe5	7.134036e-16
235	0x3e1635e3	0.14668994
236	0x33969f34	7.013878e-08
237	0x00001b9a	9.902e-42
238	0xadc1cc6c	-2.2032341e-11
239	0x3e80597b	0.25068268
240	0x31d888e2	6.301989e-09
241	0xb2f30de7	-2.8295245e-08
242	0x32366b92	1.0618253e-08
243	0x34240bd1	1.5277989e-07
244	0xb3a71e72	-7.7820815e-08
245	0xb34e3248	-4.8008843e-08
246	0xb40855b2	-1.2697163e-07
247	0x320fd493	8.372029e-09
248	0x32844240	1.539695e-08
249	0xb298e32f	-1.779844e-08
250	0xb2ea9369	-2.730822e-08
251	0x34845dca	2.4655156e-07
252	0x32e961eb	2.7169298e-08
253	0x3341f453	4.5158526e-08
254	0xb35a4058	-5.08156e-08
255	0x3259dab5	1.2680791e-08

emb_model.convs.2.lin_update.bias f4 [10]
0	0xbb7ba364	-0.003839695
1	0xbe8938d4	-0.2680117
2	0xbd698966	-0.0570158
3	0xb893fb3a	-7.056301e-05
4	0x9c2fcbe5	-5.816617e-22
5	0x3e60cf42	0.21954063
6	0xb9722cd1	-0.00023095614
7	0xb04a40e4	-7.3579387e-10
8	0xb503ab0d	-4.9050215e-07
9	0xb8aa750a	-8.128032e-05

emb_model.post_mp.0.weight f4 [10, 40]
0	0x3bf3137d	0.0074180947
1	0x3e506e3d	0.20354553
2	0xbb63d7e0	-0.0034766123
3	0xbadcb1df	-0.0016837678
4	0x3bc6942e	0.006060145
5	0x3b49d80c	0.003079894
6	0xbb472fa5	-0.0030393389
7	0xbb1551fe	-0.0022784467
8	0x3b82e508	0.003994588
9	0xbc015564	-0.007893894
10	0xbc9b5824	-0.018962927
11	0x80000de9	-4.99e-42
12	0xbd8ad483	-0.06778815
13	0xbd6a2b50	-0.057170212
14	0x3e2d3cf6	0.16917786
15	0x13a7fc2b	4.2405384e-27
16	0x3f1d28bc	0.6139028
17	0x84cda4c3	-4.8346578e-36
18	0xbc811b91	-0.015760215
19	0xb90fe911	-0.00013724367
20	0x3f25a1e0	0.64700127
21	0xb204709b	-7.709015e-09
22	0x0b86f7bc	5.198767e-32
23	0x3dedb780	0.116072655
24	0x373a99bc	1.1122258e-05
25	0xbd91eb87	-0.071250014
26	0xb95efdc3	-0.00021266103
27	0x1c41d7d5	6.41373e-22
28	0xb48e4d06	-2.6505603e-07
29	0xbe05c9c8	-0.13065255
30	0x3a5b8c1e	0.0008375066
31	0xbe1f0c2f	-0.15531991
32	0xbef7ede7	-0.48423693
33	0x3947f9b7	0.00019071145
34	0x9b480368	-1.6544713e-22
35	0xbebbe606	-0.3669893
36	0x332d1afe	4.030425e-08
37	0xa916c132	-3.347426e-14
38	0xb3cc8565	-9.5237546e-08
39	0xb81db5c1	-3.760099e-05
40	0x38a9bba1	8.0934966e-05
41	0xbc1ec577	-0.009690634
42	0xb9292abb	-0.00016133014
43	0x3a1654cf	0.00057346834
44	0xb9446d2f	-0.0001873269
45	0x398fd6fe	0.00027435267
46	0xba0af8b5	-0.00053013425
47	0x39849d9a	0.00025294424
48	0xb9b9eb41	-0.00035461228
49	0x3961e444	0.00021542708
50	0x3b6d8f38	0.0036248695
51	0x00001c47	1.0144e-41
52	0xbb256d78	-0.002524225
53	0x0729dd54	1.2779189e-34
54	0xbc2eb577	-0.010663382
55	0x10762379	4.8542273e-29
56	0x3a1cb03f	0.00059771904
57	0x03d81d26	1.2702031e-36
58	0x37dc3aea	2.6253478e-05
59	0x80002187	-1.2027e-41
60	0xbb8e1380	-0.0043358207
61	0xb3c16a80	-9.006635e-08
62	0x80002024	-1.153e-41
63	0xbb7ec711	-0.0038875977
64	0x80001b74	-9.848e-42
65	0x3b168fea	0.0022973963
66	0x00001c32	1.0115e-41
67	0x80001c30	-1.0112e-41
68	0x00001d24	1.0454e-41
69	0x39ff1c15	0.00048658313
70	0x249a790c	6.6991915e-17
71	0x3b5255f6	0.0032094694
72	0x3b8c8e24	0.0042894054
73	0x00001bcc	9.972e-42
74	0x9a35abe8	-3.7568787e-23
75	0xb9b7748e	-0.0003499132
76	0xb0275689	-6.087722e-10
77	0x8000228f	-1.2397e-41
78	0x80001be4	-1.0005e-41
79	0x000021ad	1.208e-41
80	0xbc304cfb	-0.010760541
81	0x3e0fd809	0.14047255
82	0x3bd155b3	0.00638839
83	0x3b81ee8a	0.0039652037
84	0xbc0db72f	-0.008649631
85	0xbb110007	-0.002212526
86	0xbac402c5	-0.0014954439
87	0x3bbdc815	0.005791674
88	0xbbfe6a78	-0.007764157
89	0x3c0bfc89	0.008544096
90	0xbd615692	-0.0550142
91	0x00001b93	9.892e-42
92	0x3e8f9a98	0.28047633
93	0xbd028bf7	-0.031871762
94	0xbe2d8198	-0.16943967
95	0x139feb14	4.0369048e-27
96	0x3e14d9b3	0.1453617
97	0x83198ebd	-4.5126514e-37
98	0xba853351	-0.0010162388
99	0xb7470f7f	-1.1864932e-05
100	0xbe790bff	-0.24320982
101	0xb489b15f	-2.5647293e-07
102	0x80001b68	-9.832e-42
103	0x3d38515a	0.044999458
104	0xb52aee8f	-6.3677084e-07
105	0x3e1ab3cb	0.15107648
106	0x37a72e53	1.9929523e-05
107	0x1f6aadd8	4.9695228e-20
108	0xa9022f21	-2.8906676e-14
109	0xbdb081fc	-0.086185426
110	0xb8d3827f	-0.00010085571
111	0x3de85c81	0.11345769
112	0xbf064240	-0.5244484
113	0xb503e02c	-4.9127516e-07
114	0x9b002f9c	-1.0603295e-22
115	0x3e68ec41	0.22746374
116	0xb33c52ad	-4.3847354e-08
117	0x293ebe6e	4.2353646e-14
118	0x281838cf	8.450013e-15
119	0x32e37522	2.6479544e-08
120	0xb947fae2	-0.0001907158
121	0xbb929fd1	-0.004474618
122	0xb8d5363d	-0.00010166734
123	0x3a6508af	0.00087369507
124	0xb9fc6004	-0.00048136723
125	0xb8b2c037	-8.523504e-05
126	0x39b8c861	0.0003524451
127	0x3a22e721	0.00062142505
128	0xba7c9b1c	-0.000963615
129	0x3a18c8a1	0.0005828236
130	0x3c0028a9	0.007822194
131	0x80001c9e	-1.0266e-41
132	0xbbbbf12d	-0.0057355375
133	0x860fb3f3	-2.7027517e-35
134	0x3b98bf96	0.0046615107
135	0x12bafba3	1.18002835e-27
136	0x3a5e7a37	0.00084868394
137	0x049ac149	3.638273e-36
138	0x3904d611	0.00012668247
139	0x00001c8e	1.0243e-41
140	0x3bf19133	0.0073720454
141	0x33c59c39	9.201944e-08
142	0x00001bdf	9.998e-42
143	0xbbfd7eb4	-0.0077360515
144	0x800022cc	-1.2483e-41
145	0x3bce98c4	0.006304832
146	0x80001b91	-9.889e-42
147	0x80001b61	-9.822e-42
148	0x00002119	1.1873e-41
149	0xbc0bf03b	-0.008541162
150	0xa21536ba	-2.0222237e-18
151	0x3be4ff3b	0.0069884337
152	0xbb9618da	-0.0045805993
153	0x00001db3	1.0654e-41
154	0x9982f139	-1.3539114e-23
155	0xbb00cc25	-0.001965293
156	0xb186a519	-3.9186827e-09
157	0x80001ead	-1.1004e-41
158	0x00001b98	9.899e-42
159	0x00002109	1.1851e-41
160	0xb947823c	-0.00019026635
161	0xbc394fec	-0.011310559
162	0x39830311	0.00024988552
163	0x3a2e68d4	0.0006653194
164	0xba1c873d	-0.000597108
165	0x39fffe3b	0.00048826807
166	0xb9c92ad0	-0.00038369605
167	0x399f968f	0.00030439018
168	0xba448145	-0.00074960693
169	0x386e43cc	5.6806763e-05
170	0xbb69f580	-0.0035699308
171	0x00001b6c	9.837e-42
172	0xbac345ad	-0.0014898084
173	0x864b8eaf	-3.8284884e-35
174	0xbc5dfab0	-0.013548538
175	0x12907a15	9.117773e-28
176	0xbb451e30	-0.0030077808
177	0x0424f422	1.9390208e-36
178	0xb49b5a24	-2.8936586e-07
179	0x000020ea	1.1807e-41
180	0xbc0b3862	-0.008497329
181	0xb29a6f9c	-1.7978714e-08
182	0x00002148	1.1939e-41
183	0x3adc8026	0.0016822859
184	0x8000208a	-1.1673e-41
185	0xb9fbb64b	-0.0004801027
186	0x80001b60	-9.82e-42
187	0x80001cac	-1.0286e-41
188	0x00001dae	1.0647e-41
189	0xbba2e52c	-0.004971167
190	0x9ec031f5	-2.0349452e-20
191	0xbb47b0d2	-0.0030470383
192	0xbbea2342	-0.0071453163
193	0x80001b5c	-9.815e-42
194	0x97b4ea60	-1.1691392e-24
195	0xbc103c87	-0.008803493
196	0x320dcefb	8.254342e-09
197	0x00002e31	1.657e-41
198	0x80001b58	-9.809e-42
199	0x80001bae	-9.93e-42
200	0xbaff4088	-0.0019474188
201	0x3d858d3b	0.06521078
202	0x3b6d014c	0.0036164103
203	0xbb943925	-0.0045234137
204	0x3a0eeefe	0.0005452483
205	0xbad0db66	-0.0015934526
206	0x3b7986c2	0.0038074707
207	0xba8d8c37	-0.0010799234
208	0x3b5b6e26	0.0033482402
209	0xbaa147a8	-0.001230468
210	0x3f11650a	0.567948
211	0x01d5e116	7.8566825e-38
212	0xbcf6afb5	-0.03011308
213	0x3c301f04	0.010749582
214	0x3e0dbcc8	0.13841546
215	0x92c29f4c	-1.2282391e-27
216	0xbed711fd	-0.4200591
217	0x04903d76	3.391068e-36
218	0xbceaf03c	-0.028679006
219	0xb990c6c5	-0.00027613915
220	0x3ec494b0	0.3839469
221	0x3824c49c	3.9283754e-05
222	0x1840fc62	2.494284e-24
223	0xbd6bd700	-0.057578087
224	0x377e5c6d	1.5161099e-05
225	0x3dc9cc43	0.09853413
226	0xb803741d	-3.1340973e-05
227	0xa5ad62fa	-3.0077785e-16
228	0xb3797a15	-5.8085863e-08
229	0xbf2a120f	-0.66433805
230	0xba10228b	-0.00054983114
231	0x3f2fe086	0.6870197
232	0x3ea85d45	0.3288366
233	0xb961e1ee	-0.00021541837
234	0x9a745c52	-5.0532593e-23
235	0x3e86c426	0.26321524
236	0x34b5d5ac	3.3869344e-07
237	0x1d1f96b0	2.1121378e-21
238	0x361447c6	2.2095496e-06
239	0x36a7f1ea	5.0051503e-06
240	0x3ab3874f	0.0013696941
241	0xbe1ac3a5	-0.15113695
242	0x3bc21a94	0.0059235785
243	0xb8404f0f	-4.5849996e-05
244	0xbb36cbdf	-0.0027892513
245	0x3b8f45e6	0.004372346
246	0x3c846053	0.016159212
247	0xbac71e86	-0.0015191592
248	0x3a438c32	0.00074595504
249	0x3b527121	0.0032110887
250	0xba7f5f0b	-0.00097416405
251	0x80001b8c	-9.882e-42
252	0xbe938cc9	-0.28818348
253	0x3ba11db9	0.0049168733
254	0x3e17a4bc	0.14808935
255	0x92cdd6cf	-1.2990273e-27

emb_model.post_mp.0.bias f4 [10]
0	0xbf3a286b	-0.7271792
1	0xbb1245ae	-0.0022319364
2	0xbf226c69	-0.6344667
3	0xbb0cdb06	-0.0021492853
4	0xbbca26ef	-0.006169192
5	0xbf50d50b	-0.8157508
6	0x3e249c7d	0.1607532
7	0xbdf27051	-0.11837829
8	0xbf720519	-0.9453903
9	0x3e0de448	0.13856614

emb_model.post_mp.3.weight f4 [10, 10]
0	0xbf070f64	-0.5275786
1	0xbba39be1	-0.0049929474
2	0x3ea22d3c	0.31675136
3	0x3b8e90e6	0.0043507693
4	0x3c149099	0.009067678
5	0xbf14379c	-0.57897353
6	0xbe4b2e6f	-0.19841932
7	0xbe344d27	-0.17607556
8	0x3ecce5e4	0.40019143
9	0x3e111b9a	0.14170685
10	0xb8f6b3fd	-0.000117637195
11	0x00000e54	5.14e-42
12	0x38edc80f	0.000113383045
13	0x00001626	7.945e-42
14	0x00001358	6.939e-42
15	0xbc2cb8a3	-0.010542068
16	0x3c1c0500	0.0095226765
17	0x37f47d80	2.9145507e-05
18	0xbcae1f15	-0.021255055
19	0x39644a60	0.00021771481
20	0xbe2a2ac1	-0.16617872
21	0xbc3e254e	-0.011605574
22	0xbee3bb4e	-0.4447884
23	0xbb7788bf	-0.0037770716
24	0x3c03897e	0.008028386
25	0x3f034162	0.5127164
26	0xbee14b91	-0.44002965
27	0xbedcc4b3	-0.4311882
28	0x3e10149d	0.14070363
29	0xbe9653dc	-0.29360855
30	0xbe2b309c	-0.16717762
31	0x3c1c4e54	0.009540159
32	0x3e289390	0.1646254
33	0x3befb50f	0.007315285
34	0xbb03ac84	-0.002009184
35	0x3e7b4f8e	0.24542066
36	0xbd2eb83f	-0.04265618
37	0x3e6f88c4	0.23392016
38	0x3ef3c7df	0.47613427
39	0x3e9ad875	0.3024327
40	0x3e157b8b	0.14597909
41	0x3a4058d7	0.0007337457
42	0x3eac28e0	0.33624935
43	0xbbe7e621	-0.007076994
44	0xbc0d7c4d	-0.008635593
45	0x3ee6806e	0.4501986
46	0xbe20fce3	-0.15721469
47	0xbea42977	-0.32062885
48	0xbe9e4716	-0.3091361
49	0x3e33efbe	0.17571923
50	0x0cdec646	3.4323847e-31
51	0x06cbd002	7.6665753e-35
52	0xa2cdcb7b	-5.5780805e-18
53	0x086f887a	7.2081874e-34
54	0x87a94650	-2.546962e-34
55	0xa834d9d8	-1.00392446e-14
56	0x962b0ff2	-1.3818301e-25
57	0x092df053	2.0937117e-33
58	0xab8793c0	-9.633336e-13
59	0x89fe42b1	-6.1210992e-33
60	0x3f00b02f	0.50268835
61	0x3d3a8b11	0.04554278
62	0x3edc5adc	0.4303807
63	0x3c88ea16	0.016713183
64	0x3caa16f2	0.020762894
65	0xbe368dd6	-0.17827544
66	0xbd932965	-0.0718563
67	0x3f15a86e	0.5846013
68	0xbe2df2a5	-0.16987093
69	0xbe21c50f	-0.15797828
70	0x00000cd1	4.598e-42
71	0x80001b72	-9.846e-42
72	0x2d343587	1.0243701e-11
73	0x00001bdb	9.993e-42
74	0x8000227f	-1.2375e-41
75	0xba83c19e	-0.0010052209
76	0x39fd8480	0.0004835464
77	0x80001b5e	-9.817e-42
78	0xb96915e9	-0.00022228774
79	0x2ac5aa8c	3.511257e-13
80	0x3f18e3fe	0.5972289
81	0xbba6a3bb	-0.005085436
82	0x3def2d0b	0.11678513
83	0x3c5e95a2	0.01358548
84	0xbaa1e907	-0.0012352773
85	0x3dbec55b	0.09314986
86	0xbe4af854	-0.19821292
87	0x3eca7ea7	0.39549753
88	0x3ed69915	0.41913667
89	0x3c4b0527	0.012391365
90	0x3de083fc	0.10962674
91	0xbc3b4c53	-0.011431771
92	0xbdbb89b8	-0.09157127
93	0xbc640d85	-0.013919239
94	0xbc848ad4	-0.01617948
95	0xbe97c454	-0.29641974
96	0x3e886893	0.26642284
97	0x3e34825c	0.17627853
98	0xbdd93aef	-0.10606944
99	0x3eabd435	0.3356034

emb_model.post_mp.3.bias f4 [10]
0	0x3edebfdc	0.43505752
1	0xb90d9d4f	-0.0001350541
2	0x3ea07971	0.31342652
3	0xbfa7f9ac	-1.3123069
4	0x3e241982	0.16025355
5	0x0ae322d1	2.1872401e-32
6	0xbf0b05c8	-0.54305696
7	0x9e244ddb	-8.698188e-21
8	0xbf98fa73	-1.1951431
9	0x3fce0364	1.6094785
