paper_artifacts/collection/graphsim/trained_models/graphsim_ptc_fr_large_dataset_seed_7366_2024-05-06_12:31:02.pth (torch, 28784 bytes, 33 tensors)

gcn_layers.0.bias f4 [10]
0.34653577 -0.3008976 0.0206228 -0.29175505 0.4003649 -0.3005517 0.2698674 0.020978728
0.008073326 0.3151499
00000000: 236d b13e 400f 9abe 25f1 a83c eb60 95be
00000010: a1fc cc3e eae1 99be 0f2c 8a3e 95db ab3c
00000020: fc45 043c 545b a13e

gcn_layers.0.lin.weight f4 [10, 1]
-0.52659065 0.9075855 0.010077241 0.58716995 -0.6130939 0.8901913 -0.40447623 -0.016583472
0.0018984072 -0.47643897
00000000: a5ce 06bf 8657 683f 031b 253c c550 163f
00000010: b9f3 1cbf 94e3 633f 8217 cfbe 10da 87bc
00000020: fad3 f83a cfef f3be

gcn_layers.1.bias f4 [10]
-0.39875787 0.23506904 0.110519595 -0.23176649 -0.30468234 -0.22396247 -0.3577829 -4.3460633e-07
0.00035407566 0.16349062
00000000: fe29 ccbe f0b5 703e 1958 e23d 3254 6dbe
00000010: 53ff 9bbe 6b56 65be 522f b7be d753 e9b4
00000020: 3ba3 b939 166a 273e

gcn_layers.1.lin.weight f4 [10, 10]
9.858e-42 0.63008416 0.0036101416 0.23132798 1.0057e-41 0.61085784 9.87e-42 4.246799e-05
-0.002222882 -9.907e-42 -9.833e-42 -0.3591809 0.0004940485 -0.11900879 -9.92e-42 -0.34876123
-9.854e-42 0.0020244124 0.003538413 -9.844e-42 1.2062e-41 -0.16580613 0.0060791997 -0.043114588
9.907e-42 -0.1573162 9.889e-42 0.0027136581 0.004892954 -9.857e-42 -9.846e-42 0.35271803
-0.0006056706 0.116763055 9.817e-42 0.3447119 9.843e-42 -0.0020621468 -0.0035664022 9.829e-42
9.955e-42 0.4760137 0.0015596469 0.1662369 -9.816e-42 0.45689747 -1.0325e-41 -0.0011408943
-0.002979123 -9.85e-42 -9.886e-42 0.3438746 -0.0008727532 0.11164813 -9.941e-42 0.32851344
9.861e-42 -0.0021483677 -0.0036341758 1.011e-41 9.925e-42 0.5655577 0.0028008688 0.20318705
-9.868e-42 0.54061466 -1.1077e-41 -0.0004543511 -0.0025545836 9.972e-42 9.923e-42 0.00016404908
0.000114046794 -0.00070028513 -9.822e-42 0.00013778804 -9.89e-42 1.523428e-05 -2.3379835e-06 -9.81e-42
1.1294e-41 -0.002250864 -0.0121227065 -0.0022993332 9.949e-42 -0.0022551562 1.0047e-41 -0.0023740714
-0.009976922 -9.897e-42 9.816e-42 -0.24613056 0.0032765467 -0.0737862 -1.0169e-41 -0.23606476
9.858e-42 0.0026302107 0.004260855 -9.916e-42
00000000: 7b1b 0000 324d 213f 2098 6c3b 3ee1 6c3e
00000010: 091c 0000 2e61 1c3f 831b 0000 a81f 3238
00000020: c5ad 11bb 9e1b 0080 691b 0080 8fe6 b7be
00000030: 0983 013a e1ba f3bd a71b 0080 d590 b2be
00000040: 781b 0080 01ac 043b b8e4 673b 711b 0080
00000050: a021 0000 15c9 29be 0634 c73b ec98 30bd
00000060: 9e1b 0000 7f17 21be 911b 0000 a1d7 313b
00000070: 1355 a03b 7a1b 0080 721b 0080 7597 b43e
00000080: dec5 1eba 7821 ef3d 5e1b 0000 147e b03e
00000090: 701b 0000 1525 07bb 4dba 69bb 661b 0000
000000a0: c01b 0000 11b8 f33e 116d cc3a 023a 2a3e
000000b0: 5d1b 0080 77ee e93e c81c 0080 0f8a 95ba
000000c0: 643d 43bb 751b 0080 8f1b 0080 5510 b03e
000000d0: 7ac9 64ba c6a7 e43d b61b 0080 ea32 a83e
000000e0: 7d1b 0000 a1cb 0cbb 5a2b 6ebb 2f1c 0000
000000f0: ab1b 0000 64c8 103f c88e 373b 4410 503e
00000100: 821b 0080 b965 0a3f e11e 0080 f935 eeb9
00000110: cd6a 27bb cc1b 0000 a91b 0000 9704 2c39
00000120: 682c ef38 5793 37ba 611b 0080 327b 1039
00000130: 921b 0080 bc96 7f37 40e6 1cb6 591b 0080
00000140: 7c1f 0000 3b83 13bb 519e 46bc 69b0 16bb
00000150: bc1b 0000 3ecb 13bb 021c 0000 4f96 1bbb
00000160: 3e76 23bc 971b 0080 5d1b 0000 a609 7cbe
00000170: 55bb 563b 381d 97bd 591c 0080 f6ba 71be
00000180: 7b1b 0000 9d5f 2c3b a49e 8b3b a41b 0080

gcn_layers.2.bias f4 [10]
1.0022e-41 -1.0197e-41 -9.91e-42 1.1338e-41 -1.0252e-41 -9.928e-42 1.0035e-41 9.924e-42
-1.001e-41 1.003e-41
00000000: f01b 0000 6d1c 0080 a01b 0080 9b1f 0000
00000010: 941c 0080 ad1b 0080 f91b 0000 aa1b 0000
00000020: e71b 0080 f61b 0000

gcn_layers.2.lin.weight f4 [10, 10]
1.0136e-41 -9.878e-42 -1.1824e-41 -9.833e-42 1.112e-41 -9.99e-42 -9.945e-42 -9.868e-42
9.82e-42 -9.874e-42 -9.848e-42 -1.0293e-41 9.927e-42 9.829e-42 9.888e-42 9.911e-42
1.1337e-41 -9.81e-42 -9.962e-42 -9.872e-42 9.888e-42 -9.923e-42 9.906e-42 9.923e-42
-9.823e-42 1.054e-41 9.843e-42 -9.85e-42 1.1819e-41 -9.825e-42 1.1662e-41 -9.895e-42
-9.916e-42 1.0801e-41 9.913e-42 -9.826e-42 -9.86e-42 9.921e-42 9.963e-42 9.953e-42
9.88e-42 -9.893e-42 9.854e-42 -9.871e-42 1.0643e-41 9.928e-42 9.836e-42 -1.0337e-41
9.812e-42 -9.924e-42 9.955e-42 -9.897e-42 9.826e-42 9.874e-42 9.848e-42 9.813e-42
1.2097e-41 9.91e-42 -9.871e-42 -9.916e-42 -9.854e-42 -9.899e-42 9.813e-42 9.907e-42
-1.0025e-41 9.858e-42 -9.892e-42 1.0318e-41 -9.956e-42 -1.1795e-41 9.817e-42 -9.914e-42
-1.0933e-41 9.885e-42 1.0016e-41 9.882e-42 -9.836e-42 9.91e-42 -9.979e-42 9.832e-42
-9.847e-42 -9.857e-42 -9.92e-42 9.88e-42 9.812e-42 9.914e-42 9.88e-42 -9.861e-42
-9.907e-42 9.819e-42 1.0213e-41 1.116e-41 9.893e-42 9.972e-42 9.882e-42 1.0332e-41
9.906e-42 -9.816e-42 -9.834e-42 -9.823e-42
00000000: 411c 0000 891b 0080 f620 0080 691b 0080
00000010: ff1e 0000 d91b 0080 b91b 0080 821b 0080
00000020: 601b 0000 861b 0080 741b 0080 b11c 0080
00000030: ac1b 0000 661b 0000 901b 0000 a11b 0000
00000040: 9a1f 0000 591b 0080 c51b 0080 851b 0080
00000050: 901b 0000 a91b 0080 9d1b 0000 a91b 0000
00000060: 621b 0080 621d 0000 701b 0000 751b 0080
00000070: f220 0000 631b 0080 8220 0000 951b 0080
00000080: a41b 0080 1c1e 0000 a21b 0000 641b 0080
00000090: 7c1b 0080 a81b 0000 c61b 0000 bf1b 0000
000000a0: 8b1b 0000 941b 0080 781b 0000 841b 0080
000000b0: ab1d 0000 ad1b 0000 6b1b 0000 d11c 0080
000000c0: 5a1b 0000 aa1b 0080 c01b 0000 971b 0080
000000d0: 641b 0000 861b 0000 741b 0000 5b1b 0000
000000e0: b921 0000 a01b 0000 841b 0080 a41b 0080
000000f0: 781b 0080 981b 0080 5b1b 0000 9e1b 0000
00000100: f21b 0080 7b1b 0000 931b 0080 c31c 0000
00000110: c11b 0080 e120 0080 5e1b 0000 a31b 0080
00000120: 7a1e 0080 8e1b 0000 ec1b 0000 8c1b 0000
00000130: 6b1b 0080 a01b 0000 d11b 0080 681b 0000
00000140: 731b 0080 7a1b 0080 a71b 0080 8b1b 0000
00000150: 5a1b 0000 a31b 0000 8b1b 0000 7d1b 0080
00000160: 9e1b 0080 5f1b 0000 781c 0000 1c1f 0000
00000170: 941b 0000 cc1b 0000 8c1b 0000 cd1c 0000
00000180: 9d1b 0000 5d1b 0080 6a1b 0080 621b 0080

conv_layers.0.layers.0.weight f4 [2, 1, 10, 10]
0.36831918 0.47482836 -0.30036077 -0.49778563 -0.56688124 -0.107025236 0.30943745 0.5865109
-0.149302 0.10864783 0.15392041 -0.1439931 -0.22466615 -0.36829653 -0.17627169 0.25382757
0.26753417 0.44148922 -0.12558465 -0.093875356 0.12265367 0.19174218 0.21534748 -0.018214688
-0.3344336 -0.30350307 0.008106137 -0.0866964 0.035610728 0.041844282 0.1424096 -0.07608199
-0.03705855 -0.1240067 -0.23843312 -0.08279292 -0.47729027 -0.6319169 -0.16428146 -0.13839102
0.08393181 -0.03567424 0.023414874 -0.33515766 -0.08766386 0.57109624 -0.30733407 -0.37086493
0.23311965 0.4616368 -0.14140633 -0.025259707 0.21797353 -0.23539396 0.031905834 0.39555416
-0.20737427 -0.34645507 0.10804717 0.26704857 0.10217979 0.01701183 0.3693685 -0.24519902
-0.13613002 0.26192102 -0.31979188 -0.40230352 0.16719685 0.015004931 0.1646016 0.1315308
-0.0834358 -0.028475108 -0.13965273 0.35444748 -0.10476827 -0.29044518 0.20117451 -0.30332887
0.13030645 0.17591599 0.15383652 -0.12066974 -0.0673862 0.2844692 0.10228248 -0.271413
0.09494671 -0.16031349 0.20888059 0.24405678 -0.0056846975 -0.0063998476 -0.25330055 0.39002803
-0.13762693 -0.041182764 0.33677253 -0.2540842 -0.035986606 0.21609819 -0.16676345 0.09804582
0.013059429 0.012973534 0.087621994 -0.109727524 0.21506965 0.017056897 0.1785063 0.48819217
0.077793196 0.19286783 -0.034427658 -0.16186772 0.406784 -0.26301146 0.33194152 -0.12653963
0.16364428 0.44794342 -0.24063623 -0.07947749 -0.040831745 -0.14367549 0.30496404 -0.17433384
-0.06972154 -0.21531528 0.27909002 0.13070644 0.15269886 0.43606642 0.13639185 -0.036553644
0.18920478 -0.12760292 0.20967989 0.14797704 -0.0024897826 -0.033730935 0.07333141 0.09089465
0.16988705 0.02754744 0.11798717 -0.20883161 -0.09501069 -0.00016187939 -0.13117623 -0.1545201
-0.05726583 0.19492246 0.2489259 0.13919802 0.071216874 -0.15450452 -0.023479285 0.11191963
-0.009752566 -0.052378677 0.16474856 0.047797337 0.10509846 -0.006214998 -0.11460888 -0.09778194
-0.07762804 0.027407413 0.019731984 0.116731174 -0.11015573 0.15658909 -0.0065677073 -0.13187301
-0.061886713 -0.13701406 -0.13997331 0.1373456 0.030705178 0.16219826 -0.13319492 0.3847365
0.0623397 -0.116637826 -0.2768634 0.09247507 0.02248191 0.15751466 -0.024179429 -0.034800116
-0.20049824 0.1184258 0.08255388 0.029851729 -0.014773568 0.19817811 -0.057407122 0.13663249
00000000: 5594 bc3e b41c f33e e3c8 99be c2dd febe
00000010: 211f 11bf 0c30 dbbd 966e 9e3e 9425 163f
00000020: a0e2 18be c182 de3d 509d 1d3e ed72 13be
00000030: e20e 66be 5d91 bcbe 9180 34be b0f5 813e
00000040: 3dfa 883e e00a e23e 4399 00be b941 c0bd
00000050: d931 fb3d 1058 443e 0d84 5c3e f836 95bc
00000060: e13a abbe c164 9bbe 9acf 043c e28d b1bd
00000070: 8edc 113d e964 2b3d d2d3 113e e0d0 9bbd
00000080: b5ca 17bd 3af7 fdbd d027 74be 568f a9bd
00000090: 645f f4be 4ec5 21bf 6639 28be 60b6 0dbe
000000a0: 71e4 ab3d 271f 12bd 8dd0 bf3c c999 abbe
000000b0: 1c89 b3bd 5d33 123f e45a 9dbe 02e2 bdbe
000000c0: ebb6 6e3e a95b ec3e d2cc 10be 72ed cebc
000000d0: 7434 5f3e 1d0b 71be b1af 023d 1386 ca3e
000000e0: ec59 54be 8f62 b1be d647 dd3d 97ba 883e
000000f0: a343 d13d 655c 8b3c de1d bd3e 7415 7bbe
00000100: ab65 0bbe 831a 863e c3bb a3be bafa cdbe
00000110: a735 2b3e 3ed7 753c 528d 283e 03b0 063e
00000120: 64e0 aabd a144 e9bc 2001 0fbe 247a b53e
00000130: bf90 d6bd 3bb5 94be b100 4e3e ec4d 9bbe
00000140: 0e6f 053e 5223 343e 5287 1d3e b221 f7bd
00000150: c701 8abd f2a5 913e 7a79 d13d a5f6 8abe
00000160: 6c73 c23d 3829 24be cbe4 553e 05ea 793e
00000170: b346 babb d0b5 d1bb 9cb0 81be c1b1 c73e
00000180: 13ee 0cbe 42af 28bd 736d ac3e 5317 82be
00000190: b166 13bd d848 5d3e 0ac4 2abe 3fcc c83d
000001a0: 37f7 553c f28e 543c 2973 b33d d3b8 e0bd
000001b0: 383b 5c3e e8ba 8b3c 5bca 363e 53f4 f93e
000001c0: 0a52 9f3d 257f 453e 0404 0dbd a7c0 25be
000001d0: fe45 d03e 70a9 86be 3df4 a93e 9b93 01be
000001e0: 5e92 273e d758 e53e 5869 76be 18c5 a2bd
000001f0: 303f 27bd ab1f 13be 3f24 9c3e 9284 32be
00000200: 2bca 8ebd 9c7b 5cbe e3e4 8e3e e9d7 053e
00000210: 175d 1c3e 1944 df3e 4eaa 0b3e 46b9 15bd
00000220: e6be 413e 57aa 02be 53b6 563e 4b87 173e
00000230: 9f2b 23bb 7329 0abd c72e 963d f926 ba3d
00000240: dff6 2d3e 2bab e13c 42a3 f13d f4d7 55be
00000250: f794 c2bd 2bbe 29b9 1053 06be 843a 1ebe
00000260: 938f 6abd c199 473e 6ee6 7e3e ed89 0e3e
00000270: 27da 913d 6f36 1ebe a157 c0bc 1e36 e53d
00000280: 3ac9 1fbc 068b 56bd d9b3 283e 24c7 433d
00000290: dd3d d73d 2fa7 cbbb 0fb8 eabd e641 c8bd
000002a0: 73fb 9ebd 8385 e03c f8a4 a13c c110 ef3d
000002b0: 5499 e1bd e458 203e ec35 d7bb b809 07be
000002c0: ec7c 7dbd 6a4d 0cbe 2a55 0fbe 53a4 0c3e
000002d0: 6d89 fb3c 4d17 263e 4064 08be 2ffc c43e
000002e0: ea57 7f3d d0df eebd 0ac1 8dbe 9263 bd3d
000002f0: fc2b b83c 864b 213e f013 c6bc 918a 0ebd
00000300: 694f 4dbe 3a89 f23d 0212 a93d 9d8b f43c
00000310: d60c 72bc 34ef 4a3e bb23 6bbd 63e9 0b3e

conv_layers.0.layers.0.bias f4 [2]
0.11654731 -0.123791195
00000000: 5bb0 ee3d 3d86 fdbd

conv_layers.0.layers.1.weight f4 [2, 1, 10, 10]
0.01834743 0.2070308 0.58269846 0.16275677 -0.19247128 0.37417904 -0.5880291 0.19930626
0.24689782 -0.33605027 0.10074605 -0.3121504 -0.18133904 -0.18870172 0.0049559325 -0.028979234
-0.017450903 -0.06325235 0.2844997 -0.35379514 -0.10917195 -0.14765865 0.0173963 -0.14770839
-0.070317365 -0.1293496 0.26861423 -0.015020608 0.1630783 -0.48863807 -0.106736585 0.035684012
-0.16675074 0.08761533 0.059617642 -0.052339144 -0.079507135 -0.11996568 0.109907806 -0.33026704
-0.24129742 -0.054331668 0.24145716 -0.18531297 0.12473525 -0.06733631 0.038886454 -0.2801261
0.22921607 -0.1077841 0.006080335 -0.02068267 0.264134 0.017924145 0.17729947 0.010021034
0.05355417 -0.49665648 0.51079434 -0.22317052 -0.045257952 -0.0026549483 -0.018592767 0.09792435
0.16612695 -0.30944112 0.12358907 -0.59314185 0.6498237 -0.06010289 0.030889954 0.016519627
-0.2712659 0.01946284 0.13365403 -0.18691298 0.27507934 -0.64883083 0.6879281 -0.024056317
0.084029175 -0.028931467 0.032311723 -0.09960156 0.13996567 -0.23823464 0.22182019 -0.41515964
0.5198122 -0.26128262 -0.09859391 0.085270524 0.13966474 0.1488545 -0.100535646 -0.15164964
-0.080841 -0.17090984 -0.026243543 0.27049196 0.51918995 -0.4225017 0.099437885 0.0876508
-0.18642226 0.2258978 -0.28944665 0.13515429 0.15385938 -0.09684372 0.28712407 -0.17478295
0.20617732 0.06437876 -0.21917598 0.34121317 -0.13932322 0.06384669 -0.042031873 -0.012862782
0.5931934 -0.4405637 0.43556687 -0.33129856 -0.157388 -0.08496054 -0.087708846 0.20515037
0.33603105 0.21648586 0.27907452 -0.2167856 -0.059956368 0.17784752 -0.2579358 -0.008822587
0.075590186 0.0897616 0.17783184 0.13266389 0.20816411 -0.06893822 -0.20924725 0.11191021
-0.16655256 -0.065866716 0.173458 0.0058889883 0.22595555 0.15509501 -0.12384567 -0.13530056
-0.080358416 0.13190496 -0.035634864 0.27541077 -0.06374804 -0.13967569 0.19839089 0.04374034
-0.21916366 -0.27096605 -0.04847625 0.35854948 0.29409185 0.27328256 -0.07820866 -0.2786364
-0.013033503 -0.0582218 0.014917522 0.124531455 0.0659347 0.043499585 -0.1790745 -0.035700463
-0.048037957 0.057353113 -0.15158612 -0.09786929 -0.20435336 -0.1686087 0.24663404 0.3662814
0.14270566 0.03666892 0.062415965 0.24046168 -0.20306659 -0.07966191 -0.13545856 -0.11664012
0.3264944 -0.21466239 0.12650007 -0.060701698 0.36050934 0.05529093 -0.11527758 0.09569199
00000000: 594d 963c e2ff 533e ba2b 153f b6a9 263e
00000010: 3117 45be 6594 bf3e 1389 16bf f116 4c3e
00000020: c8d2 7c3e c80e acbe f253 ce3d 2dd2 9fbe
00000030: f1b0 39be 063b 41be 6065 a23b dc65 edbc
00000040: 32f5 8ebc 738a 81bd f2a9 913e a324 b5be
00000050: 8b95 dfbd d433 17be af82 8e3c de40 17be
00000060: 8d02 90bd 3974 04be ce87 893e ff18 76bc
00000070: fffd 263e c52e fabe b698 dabd 6629 123d
00000080: b5c0 2abe ab6f b33d a131 743d 9261 56bd
00000090: a3d4 a2bd 91b0 f5bd 5817 e13d c318 a9be
000000a0: ac16 77be e28a 5ebd 8c40 773e afc2 3dbe
000000b0: 3275 ff3d 9fe7 89bd 6747 1f3d b06c 8fbe
000000c0: 9eb7 6a3e e9bd dcbd 8c3d c73b b46e a9bc
000000d0: 923c 873e a8d5 923c fe8d 353e 432f 243c
000000e0: 9e5b 5b3d c249 febe 6bc3 023f d086 64be
000000f0: 6760 39bd a4fe 2dbb dc4f 98bc 908c c83d
00000100: 2f1d 2a3e 116f 9ebe 441c fd3d 25d8 17bf
00000110: d95a 263f 732e 76bd ee0c fd3c 2b54 873c
00000120: 5de3 8abe 8970 9f3c 9adc 083e 1e66 3fbe
00000130: 33d7 8c3e c719 26bf 0e1c 303f c111 c5bc
00000140: 7d17 ac3d af01 edbc 4c59 043d e7fb cbbd
00000150: 2953 0f3e c8f3 73be d524 633e ce8f d4be
00000160: 6a12 053f d6c6 85be 9beb c9bd 50a2 ae3d
00000170: 4604 0f3e 506d 183e a2e5 cdbd 0b4a 1bbe
00000180: f78f a5bd fd02 2fbe b3fc d6bc ec7d 8a3e
00000190: a2e9 043f 2552 d8be 17a6 cb3d 4382 b33d
000001a0: 7ae5 3ebe c151 673e 5a32 94be e365 0a3e
000001b0: 508d 1d3e 0056 c6bd ed01 933e 4dfa 32be
000001c0: 2620 533e 03d9 833d ab6f 60be 7eb3 ae3e
000001d0: bfaa 0ebe 0ec2 823d 9d29 2cbd 6bbe 52bc
000001e0: 86db 173f 9191 e1be 9f02 df3e f79f a9be
000001f0: 522a 21be cbff adbd b2a0 b3bd f012 523e
00000200: 430c ac3e 78ae 5d3e dbe2 8e3e 0bfd 5dbe
00000210: cf94 75bd a91d 363e 2910 84be 9d8c 10bc
00000220: 07cf 9a3d eed4 b73d 8d19 363e 0bd9 073e
00000230: f928 553e 7b2f 8dbd e944 56be 2e31 e53d
00000240: c18c 2abe 21e5 86bd f99e 313e 6af8 c03b
00000250: e460 673e 3ad1 1e3e cca2 fdbd 3b8c 0abe
00000260: f492 a4bd 1812 073e ddf5 11bd a402 8d3e
00000270: 558e 82bd 2507 0fbe fb26 4b3e 1229 333d
00000280: 706c 60be 10bc 8abe 088f 46bd cc93 b73e
00000290: 3593 963e b1eb 8b3e dd2b a0bd 6ea9 8ebe
000002a0: 798a 55bc fb79 6ebd 9f68 743c 590a ff3d
000002b0: c608 873d 9f2c 323d 4e5f 37be a63a 12bd
000002c0: 73c3 44bd 19eb 6a3d 6439 1bbe b26f c8bd
000002d0: 0242 51be c2a7 2cbe a28d 7c3e 3c89 bb3e
000002e0: 6f21 123e 2632 163d e2a7 7f3d 963b 763e
000002f0: b0f0 4fbe c925 a3bd a6b5 0abe 04e1 eebd
00000300: 462a a73e 75d0 5bbe 3c89 013e 58a2 78bd
00000310: ae94 b83e be78 623d a716 ecbd 29fa c33d

conv_layers.0.layers.1.bias f4 [2]
-0.048737917 -0.06842424
00000000: 69a1 47bd 0222 8cbd

conv_layers.0.layers.2.weight f4 [2, 1, 10, 10]
-9.816e-42 -9.946e-42 -9.988e-42 -9.95e-42 -9.855e-42 -9.925e-42 -9.865e-42 9.816e-42
-9.822e-42 -9.841e-42 9.911e-42 9.899e-42 9.813e-42 9.925e-42 9.973e-42 -9.902e-42
-9.809e-42 9.829e-42 -9.888e-42 -9.944e-42 -1.0035e-41 9.927e-42 -9.89e-42 -9.941e-42
-9.829e-42 1.0039e-41 9.945e-42 9.923e-42 9.889e-42 -9.834e-42 -9.862e-42 -9.965e-42
-1.0053e-41 9.826e-42 9.932e-42 -9.987e-42 -1.002e-41 -9.81e-42 -1.0094e-41 -1.0203e-41
-1.0011e-41 9.965e-42 1.0082e-41 9.857e-42 1.0152e-41 -9.847e-42 -9.897e-42 9.879e-42
1.0162e-41 -1.0106e-41 -1.0071e-41 1.0028e-41 -9.864e-42 1.0117e-41 1.0154e-41 -1.0038e-41
9.897e-42 -9.955e-42 1.0014e-41 9.938e-42 1.0419e-41 -9.907e-42 -9.921e-42 1.0158e-41
9.995e-42 9.927e-42 1.0525e-41 -9.938e-42 1.0197e-41 -1.0053e-41 -9.868e-42 1.008e-41
-1.013e-41 -1.0091e-41 1.0421e-41 -1.0297e-41 1.0183e-41 1.0382e-41 1.021e-41 -1.046e-41
-9.946e-42 -1.0273e-41 9.82e-42 1.0123e-41 1.0405e-41 9.952e-42 -1.0458e-41 1.0124e-41
-1.0382e-41 1.0705e-41 -9.865e-42 -1.0074e-41 1.2595e-41 -1.0109e-41 1.1765e-41 -1.177e-41
-9.937e-42 1.2348e-41 -1.0173e-41 -1.0057e-41 -9.974e-42 -9.963e-42 1.0032e-41 -9.987e-42
-9.994e-42 -1.0004e-41 9.949e-42 9.885e-42 -1.002e-41 -9.913e-42 9.966e-42 -9.944e-42
9.934e-42 -9.92e-42 9.944e-42 9.819e-42 9.85e-42 -9.883e-42 1.0049e-41 9.903e-42
9.82e-42 9.878e-42 -9.974e-42 1.0059e-41 9.969e-42 9.934e-42 9.988e-42 -9.822e-42
-9.844e-42 1.001e-41 -1.0199e-41 1.0047e-41 -9.97e-42 -9.87e-42 -9.872e-42 -1.0092e-41
9.889e-42 9.976e-42 1.0007e-41 1.0042e-41 -9.902e-42 -9.899e-42 -9.897e-42 -9.9e-42
-1.0063e-41 1.0154e-41 -9.997e-42 1.009e-41 9.865e-42 1.0059e-41 -1.1142e-41 -9.883e-42
-1.0012e-41 9.909e-42 -9.934e-42 1.0277e-41 9.872e-42 -1.0315e-41 -1.0019e-41 -1.0102e-41
-1.2016e-41 -1.0419e-41 -1.0057e-41 -9.966e-42 -1.0049e-41 -1.0057e-41 9.955e-42 1.0242e-41
-9.973e-42 -9.88e-42 -1.0308e-41 -1.1656e-41 -1.0524e-41 9.872e-42 1.0075e-41 1.1762e-41
1.0172e-41 -1.2584e-41 9.949e-42 9.826e-42 1.0129e-41 -1.0581e-41 -1.0344e-41 -1.0063e-41
9.956e-42 1.0168e-41 9.817e-42 9.83e-42 1.0169e-41 9.812e-42 1.0497e-41 1.032e-41
-1.0189e-41 -1.0022e-41 1.1296e-41 9.895e-42 -1.0594e-41 -1.0201e-41 1.0312e-41 9.98e-42
00000000: 5d1b 0080 ba1b 0080 d81b 0080 bd1b 0080
00000010: 791b 0080 ab1b 0080 801b 0080 5d1b 0000
00000020: 611b 0080 6f1b 0080 a11b 0000 981b 0000
00000030: 5b1b 0000 ab1b 0000 cd1b 0000 9a1b 0080
00000040: 581b 0080 661b 0000 901b 0080 b81b 0080
00000050: f91b 0080 ac1b 0000 921b 0080 b61b 0080
00000060: 661b 0080 fc1b 0000 b91b 0000 a91b 0000
00000070: 911b 0000 6a1b 0080 7e1b 0080 c71b 0080
00000080: 061c 0080 641b 0000 b01b 0000 d71b 0080
00000090: ef1b 0080 591b 0080 231c 0080 711c 0080
000000a0: e81b 0080 c71b 0000 1b1c 0000 7a1b 0000
000000b0: 4d1c 0000 731b 0080 971b 0080 8a1b 0000
000000c0: 541c 0000 2c1c 0080 131c 0080 f41b 0000
000000d0: 7f1b 0080 341c 0000 4e1c 0000 fb1b 0080
000000e0: 971b 0000 c01b 0080 ea1b 0000 b41b 0000
000000f0: 0b1d 0000 9e1b 0080 a81b 0080 511c 0000
00000100: dd1b 0000 ac1b 0000 571d 0000 b41b 0080
00000110: 6d1c 0000 061c 0080 821b 0080 191c 0000
00000120: 3d1c 0080 211c 0080 0d1d 0000 b41c 0080
00000130: 631c 0000 f11c 0000 761c 0000 291d 0080
00000140: ba1b 0080 a31c 0080 601b 0000 381c 0000
00000150: 011d 0000 be1b 0000 271d 0080 391c 0000
00000160: f11c 0080 d71d 0000 801b 0080 151c 0080
00000170: 1c23 0000 2e1c 0080 cc20 0000 cf20 0080
00000180: b31b 0080 6c22 0000 5c1c 0080 091c 0080
00000190: ce1b 0080 c61b 0080 f71b 0000 d71b 0080
000001a0: dc1b 0080 e31b 0080 bc1b 0000 8e1b 0000
000001b0: ef1b 0080 a21b 0080 c81b 0000 b81b 0080
000001c0: b11b 0000 a71b 0080 b81b 0000 5f1b 0000
000001d0: 751b 0000 8d1b 0080 031c 0000 9b1b 0000
000001e0: 601b 0000 891b 0000 ce1b 0080 0a1c 0000
000001f0: ca1b 0000 b11b 0000 d81b 0000 611b 0080
00000200: 711b 0080 e71b 0000 6e1c 0080 021c 0000
00000210: cb1b 0080 831b 0080 851b 0080 221c 0080
00000220: 911b 0000 cf1b 0000 e51b 0000 fe1b 0000
00000230: 9a1b 0080 981b 0080 971b 0080 991b 0080
00000240: 0d1c 0080 4e1c 0000 de1b 0080 201c 0000
00000250: 801b 0000 0a1c 0000 0f1f 0080 8d1b 0080
00000260: e91b 0080 9f1b 0000 b11b 0080 a61c 0000
00000270: 851b 0000 c11c 0080 ee1b 0080 291c 0080
00000280: 7f21 0080 0b1d 0080 091c 0080 c81b 0080
00000290: 031c 0080 091c 0080 c01b 0000 8d1c 0000
000002a0: cd1b 0080 8b1b 0080 bc1c 0080 7e20 0080
000002b0: 561d 0080 851b 0000 161c 0000 ca20 0000
000002c0: 5b1c 0000 1423 0080 bc1b 0000 641b 0000
000002d0: 3c1c 0000 7f1d 0080 d61c 0080 0d1c 0080
000002e0: c11b 0000 581c 0000 5e1b 0000 671b 0000
000002f0: 591c 0000 5a1b 0000 431d 0000 c51c 0000
00000300: 671c 0080 f01b 0080 7d1f 0000 951b 0000
00000310: 881d 0080 701c 0080 bf1c 0000 d21b 0000

conv_layers.0.layers.2.bias f4 [2]
-9.875e-42 -9.893e-42
00000000: 871b 0080 941b 0080

conv_layers.1.layers.0.weight f4 [4, 2, 6, 6]
-0.4403815 -0.014493652 -0.051674247 0.3819636 -0.21333311 -0.16566876 0.08631194 -0.1378371
-0.1274075 0.035730064 -0.3292678 -0.017213779 -0.18455355 -0.55049294 -0.28947884 -0.008633273
-0.36053663 -0.13392352 -0.22331072 -0.13799006 0.13798785 0.10391181 -0.052487876 -0.09212187
-0.29542238 0.062369045 0.05073431 0.34943938 -0.074591585 -0.24348246 0.14090008 0.07272545
-0.1517828 -0.027743215 -0.22838856 -0.26245824 -0.17725235 -0.05746869 -0.4454548 -0.24720111
0.13050878 0.25586572 -0.030974789 0.15215617 -0.25650337 -0.16985682 0.253865 0.05374425
0.056456894 0.16337779 0.18588477 0.23518817 0.12803276 0.15964033 0.03386756 -0.0988608
-0.067653045 0.34084618 0.19437718 -0.047306746 0.17551431 0.20165068 -0.062199228 -0.0034685042
0.14215817 0.09878639 0.18120518 -0.35872874 -0.060276274 0.3205172 0.18080986 -0.014978111
-0.024199344 -0.01693597 0.047540776 0.15797663 -0.19057652 0.082046635 0.21268475 -0.16155364
-0.19306868 -0.14200722 -0.4299823 -0.20793574 0.12635961 -0.34090498 0.09604691 -0.28257087
-0.17056133 0.089926176 0.0031548114 -0.08487127 0.32339814 -0.45377135 -0.57913864 -0.025207339
-0.1068543 -0.33903378 0.2722608 0.17801571 -0.40367264 0.26311255 -0.0060540023 0.2740522
0.25892064 0.04253258 0.21206002 0.0856566 -0.0740138 0.36321005 0.21292274 -0.10899771
0.064062975 0.037336454 -0.06222861 0.18628561 0.19367534 0.018429901 0.07680884 -0.02245774
-0.12866344 -0.112108946 0.36570954 0.30353773 -0.021672655 0.026573073 -0.096309744 -0.3467337
0.24474269 0.12645277 0.08780252 -0.18649052 -0.11171261 -0.20403676 0.010331024 0.12786096
0.12365486 -0.16039018 0.03482315 0.0952997 0.10060285 -0.00012765685 -0.18766104 0.00046646327
0.31477183 0.4212055 -0.14268208 0.10294613 -0.07460239 -0.043820787 0.21666014 0.3643105
0.24764608 0.23515417 0.07325901 -0.20922804 0.22209467 0.24146155 0.19226722 -0.25483775
-0.2385061 -0.12595208 -0.14439736 -0.34956238 -0.12676777 -0.07554988 0.30031487 0.31249312
0.08642272 -0.15058556 -0.23236616 -0.023178909 0.07221077 -0.3135002 0.060059555 0.10485821
0.1065992 -0.29667807 -0.36876434 -0.011771192 0.008753194 -0.06671637 -0.10866296 -0.14332032
0.27353865 0.05535843 -0.422059 0.22998717 -0.10663905 0.075267635 0.30057514 0.0067122863
-0.11910891 0.059125718 -0.11459361 -0.19324939 0.0017387521 0.14031059 -0.042980924 0.12512687
0.28414118 -0.07774536 0.3764461 0.16093323 0.0273137 -0.17604145 -0.41704693 -0.18658723
0.16702588 0.13208124 0.22330788 -0.13981691 -0.19772898 -0.26180905 0.14003971 0.040757842
0.08232782 0.282455 0.16417958 -0.1232069 -0.19915865 -0.15140878 0.06930173 0.06512803
-0.1367192 -0.12903586 -0.19619337 -0.247076 0.09287637 0.103467025 0.07589047 0.16574794
-0.033214696 -0.052662417 0.21138988 0.21009398 0.07663098 0.104252845 0.12613334 0.113202624
-0.060076803 -0.3228278 0.040223755 0.098452754 0.14307968 -0.387309 0.17800151 0.025109425
0.14992426 -0.40152696 0.0070420257 -0.26554224 0.22037564 0.24197179 0.2563575 -0.05803649
00000000: af79 e1be c876 6dbc 60a8 53bd bc90 c33e
00000010: ff73 5abe 12a5 29be 50c4 b03d 2b25 0dbe
00000020: 1d77 02be b059 123d ca95 a8be e903 8dbc
00000030: 9bfb 3cbe 1bed 0cbf 9236 94be 9272 0dbc
00000040: 4298 b8be 3f23 09be 91ab 64be 444d 0dbe
00000050: b04c 0d3e b7cf d43d 87fd 56bd 64aa bcbd
00000060: 9a41 97be af76 7f3d c8ce 4f3d b8e9 b23e
00000070: 79c3 98bd 7753 79be 1c48 103e 15f1 943d
00000080: f36c 1bbe bd45 e3bc b1de 69be ed60 86be
00000090: a481 35be 4a64 6bbd a712 e4be 4a22 7dbe
000000a0: 18a4 053e d500 833e d7be fdbc d4ce 1b3e
000000b0: 6954 83be f2ee 2dbe 98fa 813e ee22 5c3d
000000c0: 583f 673d 824c 273e 9458 3e3e 2bd5 703e
000000d0: 051b 033e c178 233e b6b8 0a3d 8877 cabd
000000e0: ae8d 8abd 6483 ae3e d00a 473e b8c4 41bd
000000f0: 06ba 333e 847d 4e3e 9ec4 7ebd d84f 63bb
00000100: e991 113e 8550 ca3d da8d 393e 4bab b7be
00000110: 41e4 76bd d51a a43e 3826 393e c066 75bc
00000120: b43d c6bc 4ebd 8abc 1eba 423d a0c4 213e
00000130: 7e26 43be 1108 a83d 08ca 593e 516e 25be
00000140: ccb3 45be 576a 11be a426 dcbe 1bed 54be
00000150: 6a64 013e 198b aebe 3eb4 c43d 21ad 90be
00000160: a1a7 2ebe 372b b83d f4c0 4e3b fdd0 adbd
00000170: 7194 a53e b854 e8be 6e42 14bf 9f7f cebc
00000180: 6dd6 dabd d695 adbe c465 8b3e c049 363e
00000190: 2eae cebe b0b6 863e a760 c6bb 9250 8c3e
000001a0: 3f91 843e a536 2e3d 4326 593e ba6c af3d
000001b0: 8c94 97bd abf6 b93e 6b08 5a3e 313a dfbd
000001c0: 7333 833d 1cee 183d 6de3 7ebd a8c1 3e3e
000001d0: d452 463e 4efa 963c f44d 9d3d 4bf9 b7bc
000001e0: 59c0 03be 6099 e5bd 483e bb3e 4c69 9b3e
000001f0: da8a b1bc c6af d93c 0b3e c5bd 1487 b1be
00000200: d49d 7a3e d67c 013e cfd1 b33d 5ff7 3ebe
00000210: 95c9 e4bd 03ef 50be 7543 293c fced 023e
00000220: c23e fd3d 533d 24be b8a2 0e3d 7d2c c33d
00000230: de08 ce3d a0db 05b9 372a 40be a48f f439
00000240: c629 a13e 3fa8 d73e 401b 12be 6cd5 d23d
00000250: 23c9 98bd 6d7d 33bd 28dc 5d3e e886 ba3e
00000260: ef96 7d3e 41cc 703e d208 963d e03f 56be
00000270: c96c 633e b241 773e b3e1 443e 187a 82be
00000280: f13a 74be 95f9 00be e7dc 13be d7f9 b2be
00000290: 69cf 01be e5b9 9abd dfc2 993e 19ff 9f3e
000002a0: 65fe b03d 1a33 1abe 65f1 6dbe b2e1 bdbc
000002b0: 3de3 933d 1983 a0be 0201 763d e7bf d63d
000002c0: ae50 da3d 30e6 97be aece bcbe f5db 40bc
000002d0: 8e69 0f3c 98a2 88bd b08a debd 90c2 12be
000002e0: 420d 8c3e 85bf 623d 1e18 d8be c281 6b3e
000002f0: 9365 dabd eb25 9a3d fce4 993e bdf2 db3b
00000300: 5fef f3bd cf2d 723d 0eb0 eabd 2be3 45be
00000310: d7e6 e33a 94ad 0f3e c40c 30bd 4221 003e
00000320: f47a 913e f638 9fbd 8bbd c03e aecb 243e
00000330: fbc0 df3c 3644 34be 2d87 d5be b910 3fbe
00000340: d508 2b3e 4e40 073e d2aa 643e 2a2c 0fbe
00000350: 7779 4abe d60b 86be 9266 0f3e b2f1 263d
00000360: 7d9b a83d f19d 903e b11e 283e e653 fcbd
00000370: 3ff0 4bbe e70a 1bbe 11ee 8d3d d861 853d
00000380: 1e00 0cbe fa21 04be eae6 48be 7e01 7dbe
00000390: f735 be3d 85e6 d33d 766c 9b3d d4b9 293e
000003a0: 220c 08bd 8cb4 57bd 9776 583e e022 573e
000003b0: b4f0 9c3d 8482 d53d 1929 013e c7d6 e73d
000003c0: 1813 76bd af49 a5be aac1 243d 99a1 c93d
000003d0: 7b83 123e 5e4d c6be 0746 363e 48b2 cd3c
000003e0: bf85 193e f194 cdbe cbc0 e63b 27f5 87be
000003f0: 27aa 613e 74c7 773e 4a41 833e acb7 6dbd

conv_layers.1.layers.0.bias f4 [4]
-0.055322226 -0.10842577 -0.11232278 -0.18103908
00000000: 8f99 62bd 550e debd 7c09 e6bd 4f62 39be

conv_layers.1.layers.1.weight f4 [4, 2, 6, 6]
0.19178121 0.20244423 0.057706367 -0.16904278 0.26067656 -0.14464562 -0.035366926 0.024248578
-0.07912531 0.14524278 0.053493407 -0.19793427 -0.39641455 -0.28513318 -0.29401922 0.30812928
0.0019582626 0.18556952 -0.020261165 -0.16895992 -0.056579676 0.15048963 -0.29398516 -0.025140177
0.23142749 -0.33075693 0.18797572 0.029196588 0.15542278 0.06315064 0.27201664 -0.033192404
0.0509702 0.12092267 0.28611454 -0.10233496 -0.3615987 -0.3062965 0.23247936 0.2811579
0.18218648 0.08872543 -0.13311826 0.08248845 -0.05089201 0.30964217 0.16951603 -0.001608178
0.018196933 0.3734268 0.14778346 0.20954394 -0.0002910753 -0.099061534 0.21691278 -0.032770623
0.014882962 -0.022089718 0.39113113 0.08906734 -0.11971404 0.26340517 0.12089514 -0.18775538
-0.008283405 0.16969143 -0.12054059 -0.3593412 0.026841203 0.10698986 0.09392182 0.2387952
-0.16577172 -0.07210235 -0.4774085 -0.30732462 -0.431547 0.024649234 0.6114545 0.15591364
0.11289289 0.07610511 0.13060287 0.07490754 0.2118394 -0.058330048 -0.119238146 0.026631607
-0.06337327 -0.061277132 0.14732078 0.004704453 -0.21111065 0.11969071 -0.14562052 0.01336238
0.13048977 -0.18681848 -0.054898277 0.11603004 -0.1202978 0.1882549 0.50676185 -0.16562986
-0.2057904 -0.3481614 -0.27863201 0.019753385 -0.5146016 0.03289612 -0.17608504 -0.124014795
0.075533316 0.109613374 -0.13611145 0.034431875 0.27136314 0.21244915 0.27107307 0.14719771
0.06820548 -0.015235399 0.18048085 0.051585075 -0.024984151 0.13779306 0.09262391 -0.14450933
-0.06522013 0.10825352 0.11362214 0.17060204 0.14713381 0.0048940163 0.113174774 -0.25369078
-0.18341175 -0.42046347 -0.06941601 -0.10894584 -0.24352798 -0.1859214 -0.07258109 -0.013254908
0.29129744 0.28741854 -0.15537456 -0.35296035 0.09253869 -0.089324884 -0.20773612 0.06105452
-0.19229488 0.059143227 0.03919931 0.07494894 -0.06685016 -0.15192546 -0.1637238 -0.04328369
0.038074818 0.17835504 -0.056817494 0.04467411 -0.08484553 -0.07146523 -0.11122073 0.15189153
-0.020248106 -0.23162843 -0.29144475 -0.13838555 -0.23620406 -0.11565626 0.21926482 -0.015263022
0.14477086 -0.0109126335 -0.04825276 0.064925306 -0.024134565 0.047250412 -0.1571427 0.4521082
-0.31745115 -0.26365906 0.5862809 -0.20236649 -0.009521587 0.2358103 -0.0093447 0.123065315
0.18933523 -0.2885716 -0.27413246 0.09132704 -0.13542928 0.13354704 0.29604322 0.27005735
0.1501615 -0.10770522 0.14630944 0.34483948 0.40841517 0.30105716 -0.040922455 0.15241708
-0.25092274 0.11978069 0.019588571 -0.39689356 0.19156213 -0.2800487 -0.3869886 0.038559683
0.08342527 -0.44665676 -0.2755239 -0.09311586 0.19402213 0.22447802 0.1451622 -0.19580358
-0.13945206 -0.15252227 -0.12869315 0.34046125 0.0017851787 -0.366816 0.11490598 -0.33139834
0.06824746 0.29719186 -0.15092325 0.29728267 -0.041085526 -0.16176261 0.42051044 -0.2102866
-0.037678365 0.121137515 -0.18120973 0.10032389 0.08000524 -0.005765281 -7.73209e-05 -0.029995108
-0.025514035 -0.07797161 -0.15096983 -0.0728604 0.5043266 0.078263104 -0.3585775 0.10698713
00000000: 4b62 443e 8a4d 4f3e 835d 6c3d 8d19 2dbe
00000010: 6677 853e fb1d 14be e9dc 10bd f4a4 c63c
00000020: 730c a2bd 86ba 143e e71b 5b3d 48af 4abe
00000030: d9f6 cabe fafc 91be b089 96be 1fc3 9d3e
00000040: 3256 003b f005 3e3e befa a5bc d403 2dbe
00000050: 17c0 67bd f419 1a3e 3985 96be c6f2 cdbc
00000060: 54fb 6c3e f958 a9be b57c 403e af2d ef3c
00000070: 2627 1f3e 1f55 813d c445 8b3e c2f4 07bd
00000080: 21c6 503d 4ea6 f73d 9b7d 923e fe94 d1bd
00000090: 7723 b9be e5d2 9cbe 120f 6e3e eef3 8f3e
000000a0: 188f 3a3e aeb5 b53d 2750 08be b4ef a83d
000000b0: 2474 50bd 6b89 9e3e 9c95 2d3e 80c9 d2ba
000000c0: bc11 953c cc31 bf3e 8c54 173e b092 563e
000000d0: 779b 98b9 c6e0 cabd 621e 5e3e 7d3a 06bd
000000e0: abd7 733c 7ff5 b4bc 5742 c83e f068 b63d
000000f0: a22c f5bd 0bdd 863e df97 f73d f242 40be
00000100: 1eb7 07bc 97c3 2d3e fcdd f6bd 92fb b7be
00000110: 15e2 db3c 801d db3d 155a c03d bb86 743e
00000120: 10c0 29be 66aa 93bd e36e f4be a759 9dbe
00000130: baf3 dcbe 31ed c93c 4888 1c3f d3a7 1f3e
00000140: 6334 e73d ffdc 9b3d c2bc 053e 2069 993d
00000150: 6dec 583e 7deb 6ebd 2133 f4bd 872a da3c
00000160: d8c9 81bd bbfd 7abd 42db 163e d027 9a3b
00000170: 642d 58be 6720 f53d 8c1d 15be e2ed 5a3c
00000180: 1c9f 053e 584d 3fbe 04dd 60bd 28a1 ed3d
00000190: b15e f6bd e4c5 403e 25bb 013f e09a 29be
000001a0: b8ba 52be 3642 b2be dba8 8ebe dad1 a13c
000001b0: eebc 03bf 15be 063d a34f 34be 78fb fdbd
000001c0: 36b1 9a3d fa7c e03d cd60 0bbe 7008 0d3d
000001d0: 1cf0 8a3e 458c 593e 17ca 8a3e ffba 163e
000001e0: 51af 8b3d e59d 79bc f9cf 383e df4a 533d
000001f0: 90ab ccbc a019 0d3e 9bb1 bd3d 41fa 13be
00000200: 2292 85bd 06b4 dd3d b9b2 e83d 4db2 2e3e
00000210: 3faa 163e fc5d a03b 2dc8 e73d c2e3 81be
00000220: 4ad0 3bbe fd46 d7be fb29 8ebd ff1e dfbd
00000230: 665f 79be 2e62 3ebe 65a5 94bd 1d2b 59bc
00000240: f024 953e 8628 933e 821a 1fbe 38b7 b4be
00000250: ed84 bd3d f7ef b6bd c7b8 54be 4e14 7a3d
00000260: f3e8 44be 2b40 723d 758f 203d d47e 993d
00000270: bde8 88bd 5992 1bbe 36a7 27be 3d4a 31bd
00000280: 57f4 1b3d b4a2 363e 76b9 68bd 33fc 363d
00000290: 7ec3 adbd 5d5c 92bd b2c7 e3bd 7489 1b3e
000002a0: 5bdf a5bc 0130 6dbe 3f38 95be f1b4 0dbe
000002b0: 7adf 71be 30dd ecbd f586 603e c111 7abc
000002c0: d03e 143e e7ca 32bc b0a4 45bd 8ff7 843d
000002d0: dab5 c5bc a689 413d 04ea 20be ba7a e73e
000002e0: f588 a2be 52fe 86be 8116 163f 2939 4fbe
000002f0: 6e00 1cbc 4178 713e 831a 19bc ab09 fc3d
00000300: 18e1 413e a8bf 93be 175b 8cbe ac09 bb3d
00000310: f9ad 0abe 8ec0 083e fa92 973e f544 8a3e
00000320: f0c3 193e 8e94 dcbd 24d2 153e cd8e b03e
00000330: cb1b d13e 2a24 9a3e 4e9e 27bd 3913 1c3e
00000340: f278 80be 944f f53d 3678 a03c a235 cbbe
00000350: dd28 443e 8b62 8fbe 5f23 c6be c2f0 1d3d
00000360: deda aa3d 32b0 e4be 7811 8dbe 87b3 bebd
00000370: bdad 463e 91dd 653e 66a5 143e bc80 48be
00000380: 85cc 0ebe cc2e 1cbe 23c8 03be f050 ae3e
00000390: a8fc e93a 4fcf bbbe d453 eb3d 0bad a9be
000003a0: 53c5 8b3d 8829 983e a08b 1abe 6f35 983e
000003b0: 4c49 28bd 19a5 25be 254d d73e 5f55 57be
000003c0: a154 1abd f216 f83d 0b8f 39be 9d76 cd3d
000003d0: cad9 a33d afea bcbb 5827 a2b8 4db8 f5bc
000003e0: cf02 d1bc 94af 9fbd d697 1abe d537 95bd
000003f0: 8c1b 013f 6848 a03d 7897 b7be 121c db3d

conv_layers.1.layers.1.bias f4 [4]
-0.06159045 0.090398006 0.00386567 0.10908824
00000000: 4546 7cbd 9722 b93d 2e57 7d3b a869 df3d

conv_layers.1.layers.2.weight f4 [4, 2, 6, 6]
1.0456e-41 1.003e-41 -1.2135e-41 1.1011e-41 1.0166e-41 -9.857e-42 -1.1803e-41 -9.895e-42
-1.1425e-41 1.14e-41 -1.1223e-41 9.893e-42 -1.1974e-41 -1.0335e-41 -1.0224e-41 1.2536e-41
1.0215e-41 9.979e-42 -1.0123e-41 -1.0179e-41 1.0948e-41 -1.0381e-41 1.0066e-41 1.0116e-41
1.1608e-41 1.0214e-41 -1.1261e-41 -1.2261e-41 -9.99e-42 -1.0955e-41 -9.888e-42 -1.2268e-41
-9.976e-42 1.0078e-41 -9.935e-42 -1.1827e-41 -1.0047e-41 1.0016e-41 -1.0082e-41 1.0971e-41
1.0682e-41 1.007e-41 1.0067e-41 -1.056e-41 1.0221e-41 -1.0674e-41 1.0574e-41 1.006e-41
9.862e-42 9.981e-42 1.0185e-41 1.1562e-41 9.868e-42 -9.99e-42 -1.0919e-41 -1.0576e-41
-9.84e-42 -1.0322e-41 -9.993e-42 1.0151e-41 1.0866e-41 -9.981e-42 -1.1181e-41 -1.0354e-41
-1.0344e-41 -1.2544e-41 1.0627e-41 -1.0737e-41 1.0674e-41 9.88e-42 -9.967e-42 -1.0679e-41
9.973e-42 -1.0194e-41 1.1164e-41 -1.0224e-41 -1.009e-41 -1.0515e-41 1.0019e-41 -1.0036e-41
1.0088e-41 1.0061e-41 9.967e-42 -1.0014e-41 1.0147e-41 1.0231e-41 -9.924e-42 -1.1049e-41
-1.0068e-41 9.935e-42 9.94e-42 -9.89e-42 -1.025e-41 1.0948e-41 -1.0826e-41 1.0266e-41
-1.1128e-41 9.88e-42 -1.015e-41 9.86e-42 1.018e-41 9.935e-42 -1.0705e-41 -1.2404e-41
1.0805e-41 -9.986e-42 1.0095e-41 -1.0643e-41 1.0035e-41 9.95e-42 -9.88e-42 9.813e-42
-1.0061e-41 9.862e-42 9.958e-42 9.892e-42 1.0015e-41 -1.0082e-41 9.973e-42 -1.0063e-41
-1.0192e-41 -9.858e-42 -1.007e-41 9.882e-42 -9.841e-42 1.0752e-41 -1.064e-41 1.0066e-41
1.0046e-41 -1.1046e-41 -1.0157e-41 -1.0124e-41 1.0349e-41 1.0513e-41 -9.895e-42 -1.02e-41
-1.0152e-41 -1.006e-41 -9.918e-42 -1.087e-41 -9.839e-42 9.843e-42 -1.0581e-41 1.0267e-41
9.924e-42 -1.0022e-41 -9.855e-42 1.2323e-41 1.0221e-41 -9.858e-42 9.841e-42 9.871e-42
9.965e-42 1.006e-41 -1.025e-41 -1.0042e-41 -1.0134e-41 9.965e-42 -9.967e-42 1.2208e-41
-1.0166e-41 -9.844e-42 1.0336e-41 1.0036e-41 -9.994e-42 -1.0025e-41 9.865e-42 -1.042e-41
-1.0122e-41 9.99e-42 -1.0201e-41 1.0001e-41 1.0162e-41 9.997e-42 -9.953e-42 -9.82e-42
-1.0228e-41 -1.0007e-41 9.945e-42 -9.958e-42 -1.0028e-41 -9.918e-42 -9.864e-42 -9.892e-42
-9.963e-42 -9.904e-42 9.946e-42 9.983e-42 -1.0046e-41 9.853e-42 1.0155e-41 1.0157e-41
-1.0038e-41 9.987e-42 1.0186e-41 1.0073e-41 1.1299e-41 1.0199e-41 -1.0245e-41 9.997e-42
9.823e-42 1.0103e-41 1.023e-41 -1.0057e-41 1.0514e-41 1.0272e-41 9.823e-42 1.0325e-41
1.0193e-41 1.0102e-41 9.998e-42 9.97e-42 1.0517e-41 -1.195e-41 1.016e-41 1.0937e-41
1.0064e-41 1.022e-41 -1.1942e-41 9.84e-42 -9.895e-42 1.0738e-41 1.2086e-41 -1.0273e-41
1.0412e-41 -1.0022e-41 -9.889e-42 9.938e-42 1.0256e-41 1.0835e-41 -1.0266e-41 -1.007e-41
-1.0025e-41 1.1904e-41 -1.0043e-41 1.094e-41 9.946e-42 1.2348e-41 -1.0141e-41 9.956e-42
9.819e-42 1.1245e-41 1.2079e-41 -1.0279e-41 1.128e-41 9.94e-42 9.921e-42 -1.0077e-41
-1.0045e-41 1.2282e-41 1.1219e-41 9.827e-42 -1.0126e-41 -1.0269e-41 1.0168e-41 1.128e-41
00000000: 261d 0000 f61b 0000 d421 0080 b21e 0000
00000010: 571c 0000 7a1b 0080 e720 0080 951b 0080
00000020: d91f 0080 c71f 0000 491f 0080 941b 0000
00000030: 6121 0080 cf1c 0080 801c 0080 f222 0000
00000040: 7a1c 0000 d11b 0000 381c 0080 601c 0080
00000050: 851e 0000 f01c 0080 0f1c 0000 331c 0000
00000060: 5c20 0000 791c 0000 641f 0080 2e22 0080
00000070: d91b 0080 8a1e 0080 901b 0080 3322 0080
00000080: cf1b 0080 181c 0000 b21b 0080 f820 0080
00000090: 021c 0080 ec1b 0000 1b1c 0080 951e 0000
000000a0: c71d 0000 121c 0000 101c 0000 701d 0080
000000b0: 7e1c 0000 c11d 0080 7a1d 0000 0b1c 0000
000000c0: 7e1b 0000 d31b 0000 641c 0000 3b20 0000
000000d0: 821b 0000 d91b 0080 701e 0080 7b1d 0080
000000e0: 6e1b 0080 c61c 0080 db1b 0080 4c1c 0000
000000f0: 4a1e 0000 d31b 0080 2b1f 0080 dd1c 0080
00000100: d61c 0080 f822 0080 a01d 0000 ee1d 0080
00000110: c11d 0000 8b1b 0000 c91b 0080 c51d 0080
00000120: cd1b 0000 6b1c 0080 1f1f 0000 801c 0080
00000130: 201c 0080 501d 0080 ee1b 0000 fa1b 0080
00000140: 1f1c 0000 0c1c 0000 c91b 0000 ea1b 0080
00000150: 491c 0000 851c 0000 aa1b 0080 cd1e 0080
00000160: 111c 0080 b21b 0000 b51b 0000 921b 0080
00000170: 931c 0080 851e 0000 2e1e 0080 9e1c 0000
00000180: 051f 0080 8b1b 0000 4b1c 0080 7c1b 0000
00000190: 611c 0000 b21b 0000 d71d 0080 9422 0080
000001a0: 1f1e 0000 d61b 0080 241c 0000 ab1d 0080
000001b0: f91b 0000 bd1b 0000 8b1b 0080 5b1b 0000
000001c0: 0c1c 0080 7e1b 0000 c21b 0000 931b 0000
000001d0: eb1b 0000 1b1c 0080 cd1b 0000 0d1c 0080
000001e0: 691c 0080 7b1b 0080 121c 0080 8c1b 0000
000001f0: 6f1b 0080 f91d 0000 a91d 0080 0f1c 0000
00000200: 011c 0000 cb1e 0080 501c 0080 391c 0080
00000210: d91c 0000 4e1d 0000 951b 0080 6f1c 0080
00000220: 4d1c 0080 0b1c 0080 a61b 0080 4d1e 0080
00000230: 6d1b 0080 701b 0000 7f1d 0080 9f1c 0000
00000240: aa1b 0000 f01b 0080 791b 0080 5a22 0000
00000250: 7e1c 0000 7b1b 0080 6f1b 0000 841b 0000
00000260: c71b 0000 0b1c 0000 931c 0080 fe1b 0080
00000270: 401c 0080 c71b 0000 c91b 0080 0822 0000
00000280: 571c 0080 711b 0080 d01c 0000 fa1b 0000
00000290: dc1b 0080 f21b 0080 801b 0000 0c1d 0080
000002a0: 371c 0080 d91b 0000 701c 0080 e11b 0000
000002b0: 541c 0000 de1b 0000 bf1b 0080 601b 0080
000002c0: 831c 0080 e51b 0080 b91b 0000 c21b 0080
000002d0: f41b 0080 a61b 0080 7f1b 0080 931b 0080
000002e0: c61b 0080 9c1b 0080 ba1b 0000 d41b 0000
000002f0: 011c 0080 771b 0000 4f1c 0000 501c 0000
00000300: fb1b 0080 d71b 0000 651c 0000 141c 0000
00000310: 7f1f 0000 6e1c 0000 8f1c 0080 de1b 0000
00000320: 621b 0000 2a1c 0000 841c 0000 091c 0080
00000330: 4f1d 0000 a21c 0000 621b 0000 c81c 0000
00000340: 6a1c 0000 291c 0000 df1b 0000 cb1b 0000
00000350: 511d 0000 5021 0080 521c 0000 7d1e 0000
00000360: 0e1c 0000 7d1c 0000 4a21 0080 6e1b 0000
00000370: 951b 0080 ef1d 0000 b121 0000 a31c 0080
00000380: 061d 0000 f01b 0080 911b 0080 b41b 0000
00000390: 971c 0000 341e 0000 9e1c 0080 121c 0080
000003a0: f21b 0080 2f21 0000 ff1b 0080 7f1e 0000
000003b0: ba1b 0000 6c22 0000 451c 0080 c11b 0000
000003c0: 5f1b 0000 591f 0000 ac21 0000 a71c 0080
000003d0: 721f 0000 b51b 0000 a81b 0000 171c 0080
000003e0: 001c 0080 3d22 0000 461f 0000 651b 0000
000003f0: 3a1c 0080 a01c 0080 581c 0000 721f 0000

conv_layers.1.layers.2.bias f4 [4]
-1.0165e-41 9.93e-42 -9.847e-42 1.0204e-41
00000000: 561c 0080 ae1b 0000 731b 0080 721c 0000

conv_layers.2.layers.0.weight f4 [6, 4, 4, 4]
-0.0041733566 0.026517773 0.016670456 -0.107387275 0.014687954 -0.29401892 0.2913369 0.22521375
-9.817e-42 0.3588868 -0.29112148 -0.086727485 9.822e-42 -0.23274875 -0.054058287 -1.1012352e-28
0.041317534 0.16142501 0.17887086 -0.19364615 -0.1650478 0.23628153 0.06461199 -0.29364046
-9.911e-42 0.13974799 -0.0063261422 -0.06791611 -1.1285e-41 0.022034597 0.064827904 -0.16156565
0.021433935 -0.10526431 -0.008787046 0.033563767 0.084342964 -0.1558008 0.14160317 0.19184442
1.0012e-41 0.22991106 -0.0927497 -0.13727917 9.826e-42 -0.4269398 0.025541082 -0.12852457
-0.12135748 -0.09224789 -0.24270557 0.02563105 -0.015510499 -0.25840852 0.023954084 0.3418034
-1.2114e-41 -0.26679078 0.017720617 -0.181145 9.878e-42 0.05606565 -0.12028161 0.10555285
0.3982605 -0.20484486 -0.027761785 0.06640967 -0.20763059 0.043800298 0.025553582 -0.013826581
-0.27134717 -0.0015187886 -0.024589185 -0.0031465075 -9.899e-42 -0.008951282 -0.00093110197 -9.997e-42
-0.32828093 0.44566002 -0.17198728 0.015560643 0.32471827 -0.24486327 0.14000954 -0.05884745
-0.13834032 0.014184201 -0.0047362666 -0.022366248 0.01892296 -0.01818979 -0.022516752 -0.018092837
0.37773633 0.17255281 -0.100887045 -0.2001354 -0.16428162 -0.06849526 0.045945756 -0.06997137
0.20068252 -0.030847536 0.1130881 -0.0011667645 0.008290841 -0.004852704 -0.0074972305 -3.313871e-07
-0.3076273 0.11581355 -0.010863492 -0.04407042 0.051625844 -0.0144476 0.029869951 -0.028257431
0.17386048 0.022194171 0.06351264 -0.025639 0.013956894 0.003042243 -0.016334618 -0.012148351
9.83e-42 9.846e-42 -9.851e-42 9.977e-42 -6.909959e-11 -1.1082126e-09 -1.9939688e-09 -1.9573597e-15
-9.224478e-15 -4.3046625e-10 -3.2683791e-09 -1.083e-41 -9.819e-42 -4.6509255e-36 -9.902e-42 -9.956e-42
9.867e-42 -9.911e-42 -9.815e-42 1.0472e-41 -9.871e-42 -2.9864949e-22 9.893e-42 -9.853e-42
-1.3325815e-12 -7.4509305e-09 -2.7802247e-11 -2.295975e-14 -6.5886445e-17 -1.7914896e-09 -1.199836e-10 -1.9262155e-12
1.0141e-41 9.882e-42 -9.853e-42 -9.889e-42 5.46574e-32 -2.1456132e-17 -7.713611e-34 -9.906e-42
6.402181e-19 -4.5446547e-14 -7.779154e-21 9.370116e-32 9.911e-42 4.8864066e-33 1.1898222e-33 9.87e-42
-9.937e-42 -9.885e-42 -9.812e-42 9.914e-42 -2.0042542e-13 -7.257616e-11 -1.5261256e-10 -8.0317335e-09
-4.0626152e-17 -4.4802354e-13 -3.552766e-13 -4.525029e-09 9.826e-42 -3.3273683e-36 -3.689672e-27 -3.3784785e-22
0.2475841 -0.09858101 -0.31930432 -1.0133e-41 -0.12842578 -0.013599282 0.078415886 0.18813859
-0.057338353 -0.20573033 0.15781961 0.12599175 -1.076e-41 -0.0869094 0.043430157 4.334749e-28
-0.19546705 0.22925715 -0.06616398 0.12534866 0.022534324 -0.02616596 -0.24453047 -0.18733548
0.08726725 0.040988274 0.22460939 0.12978256 9.865e-42 -0.216925 -0.034380127 0.032145552
0.33379453 0.10518955 0.017575152 -0.1306576 -0.3051441 0.05809317 -0.26489872 -0.047931287
-0.033808257 -0.18353261 0.008610851 0.13019145 -9.867e-42 0.21969861 0.006612714 0.097671725
-0.28810713 0.43210965 -0.1698678 0.07669737 0.08526417 -0.17029789 0.20772766 -0.1618433
-0.10120399 0.2870963 -0.017472493 0.046399456 1.0335e-41 0.115954235 0.061634365 -0.015031597
00000000: a7c0 88bb cd3b d93c 7b90 883c dced dbbd
00000010: bfa5 703c a689 96be 1c2a 953e 6f9e 663e
00000020: 5e1b 0080 03c0 b73e e00d 95be 2e9e b1bd
00000030: 611b 0000 b055 6ebe 396c 5dbd 2099 0b91
00000040: 933c 293d 994c 253e ec29 373e 2d4b 46be
00000050: 4a02 29be c9f3 713e 4a53 843d 0b58 96be
00000060: a11b 0080 191a 0f3e 874b cfbb 9a17 8bbd
00000070: 751f 0080 e681 b43c 7ec4 843d 7771 25be
00000080: 3896 af3c d194 d7bd 8bf7 0fbc 297a 093d
00000090: 01bc ac3d 3f8a 1fbe 6c00 113e dd72 443e
000000a0: e91b 0000 ce6d 6b3e 8ef3 bdbd e992 0cbe
000000b0: 641b 0000 da97 dabe 883b d13c f29b 03be
000000c0: 458a f8bd 76ec bcbd cf87 78be 35f8 d13c
000000d0: bf1f 7ebc 1f4e 84be 5b3b c43c db00 af3e
000000e0: c521 0080 cd98 88be d42a 913c 137e 39be
000000f0: 891b 0000 18a5 653d 3456 f6bd 182c d83d
00000100: cde8 cb3e dac2 51be af6c e3bc cb01 883d
00000110: 1d9d 54be f167 333d bf55 d13c e288 62bc
00000120: 04ee 8abe 1712 c7ba 426f c9bc a335 4ebb
00000130: 981b 0080 66a8 12bc 3215 74ba de1b 0080
00000140: 7014 a8be 8d2d e43e 6f1d 30be 11f2 7e3c
00000150: 7941 a63e 70bd 7abe a95e 0f3e 060a 71bd
00000160: 16a9 0dbe da64 683c af32 9bbb 6c39 b7bc
00000170: 5304 9b3c c102 95bc 0d75 b8bc 6e37 94bc
00000180: a866 c13e afb1 303e de9d cebd 4bf0 4cbe
00000190: 7139 28be 3e47 8cbd 9e31 3c3d 264d 8fbd
000001a0: b87f 4d3e f9b3 fcbc bc9a e73d 1fee 98ba
000001b0: 4fd6 073c 6e03 9fbb 54ab f5bb 7fe9 b1b4
000001c0: 5381 9dbe a82f ed3d cafc 31bc 2f83 34bd
000001d0: 9f75 533d a0b5 6cbc d4b1 f43c 217c e7bc
000001e0: 7b08 323e 8dd0 b53c ea12 823d e108 d2bc
000001f0: 75ab 643c 5e60 473b 2dd0 85bc e109 47bc
00000200: 671b 0000 721b 0000 761b 0080 d01b 0000
00000210: 9cf3 97ae c44f 98b0 4506 09b1 ea0a 0da7
00000220: 652c 26a8 bda6 ecaf ef99 60b1 311e 0080
00000230: 5f1b 0080 18d4 c584 9a1b 0080 c11b 0080
00000240: 811b 0000 a11b 0080 5c1b 0080 311d 0000
00000250: 841b 0080 c585 b49b 941b 0000 771b 0080
00000260: 4f8b bbab 8a01 00b2 188d f4ad 94cd cea8
00000270: 7eec 97a4 7038 f6b0 62ec 03af 9d8b 07ac
00000280: 451c 0000 8c1b 0000 771b 0080 911b 0080
00000290: 13e6 8d0b dce5 c5a3 132a 8088 9d1b 0080
000002a0: 83f5 3c21 4dac 4ca9 aef1 129e 1a43 f30b
000002b0: a11b 0000 30f9 ca09 70b1 c508 831b 0000
000002c0: b31b 0080 8e1b 0080 5a1b 0080 a31b 0000
000002d0: b2a8 61aa bf98 9fae 9ecc 27af f0fb 09b2
000002e0: e55a 3ba4 ff36 fcaa c100 c8aa 937a 9bb1
000002f0: 641b 0000 d587 8d84 b829 9293 6c37 cc9b
00000300: b086 7d3e d7e4 c9bd db7b a3be 3f1c 0080
00000310: 0c82 03be 86cf 5ebc 8298 a03d 67a7 403e
00000320: 9fdb 6abd f9aa 52be 779b 213e fb03 013e
00000330: ff1d 0080 8efd b1bd d2e3 313d a95f 0912
00000340: 8428 48be 63c2 6a3e fb80 87bd 665b 003e
00000350: e799 b83c ff59 d6bc 3266 7abe dfd4 3fbe
00000360: 2cb9 b23d 52e3 273d 0100 663e b8e5 043e
00000370: 801b 0000 9621 5ebe 2dd2 0cbd 0eab 033d
00000380: 1ee7 aa3e 9e6d d73d c4f9 8f3c 1bcb 05be
00000390: d93b 9cbe 1bf3 6d3d cea0 87be 9953 44bd
000003a0: 877a 0abd f9ef 3bbe 8714 0d3c e850 053e
000003b0: 811b 0080 acf8 603e 77af d83b 1d08 c83d
000003c0: c782 93be 7a3d dd3e d3f1 2dbe 8313 9d3d
000003d0: fb9e ae3d 9262 2ebe 8fb6 543e 40ba 25be
000003e0: 0a44 cfbd 49fe 923e 7922 8fbc 5b0d 3e3d
000003f0: cf1c 0000 6a79 ed3d 5174 7c3d 1647 76bc

conv_layers.2.layers.0.bias f4 [6]
0.13642761 0.009616454 9.848e-42 0.043882426 -3.0393e-41 -9.973311e-16
00000000: aeb3 0b3e 558e 1d3c 741b 0000 0fbe 333d
00000010: b954 0080 06bb 8fa6
