paper_artifacts/collection/edge_early_interaction_baseline_1_pre_K=7/trained_models/edge_early_interaction_baseline_1_pre_K=7_aids_large_dataset_seed_7762_2024-05-08_00:00:29.pth (torch, 25641 bytes, 20 tensors)

encoder.MLP1.0.weight f4 [10, 1]
00000000: 2307 793a 20dd 6a3d 676c 9e3e 8c3c 3b3c
00000010: 0602 70be e859 133d d17f 683d a3d4 3a3f
00000020: 610c 523e 7516 d4bd
0.00094996596 0.057339787 0.3094208 0.01142801 -0.23438272 0.035974413 0.05676252 0.7298071
0.20512535 -0.10355846

encoder.MLP1.0.bias f4 [10]
00000000: b5b4 803c 10a4 5c3d 1641 ecbb 331e ab3c
00000010: e101 71be b4e3 463d 5599 db3d 2cc3 363f
00000020: 3538 293e 8f15 d4bd
0.015711168 0.0538674 -0.0072099073 0.020888424 -0.23535873 0.048557 0.10722605 0.7139156
0.16525348 -0.103556745

encoder.MLP2.0.weight f4 [20, 1]
00000000: de5f aa3b f74d 67bd cab6 77bc 3023 0b3c
00000010: 4b37 c93c b354 a7bb aa8b 26bc 666b ab3c
00000020: fddb 32bb a897 493c 536f a6bc aa02 d33b
00000030: d1a0 a3bc d353 80ba f3b0 c9bc 5210 93bc
00000040: fc97 dfbc f49e d33c 541a be3c 8994 8d3c
0.0051994165 -0.056470837 -0.015119264 0.008492276 0.024562499 -0.0051065325 -0.010165134 0.020925235
-0.0027291768 0.012304224 -0.020316755 0.0064395266 -0.019974144 -0.0009790607 -0.024620509 -0.017952118
-0.027294151 0.02583263 0.023205914 0.017282741

encoder.MLP2.0.bias f4 [20]
00000000: c95f aa3b fd4d 67bd aab6 77bc 2123 0b3c
00000010: 4e37 c93c a354 a7bb b48b 26bc 676b ab3c
00000020: 51dc 32bb a397 493c 546f a6bc ee02 d33b
00000030: cea0 a3bc 0354 80ba feb0 c9bc 4b10 93bc
00000040: cd97 dfbc f39e d33c 5e1a be3c 9a94 8d3c
0.0051994068 -0.05647086 -0.015119234 0.008492262 0.024562504 -0.005106525 -0.010165144 0.020925237
-0.0027291963 0.012304219 -0.020316757 0.006439558 -0.019974139 -0.0009790662 -0.02462053 -0.017952105
-0.027294064 0.025832629 0.023205932 0.017282773

prop_layer._message_net.0.weight f4 [20, 40]
00000000: c005 64be 1b3e 193e 41d0 7dbe 472c a0ba
00000010: ab63 14bd 7ab5 f83d 0e4a 19be 3d10 4dbe
00000020: 18b3 8fbe f922 b6bd 7f39 11bd 11ec f53d
00000030: 517d 2c3e e85f 483e dc57 79be b47c 3cbe
00000040: 17cb 773d 0e0b 87bd 230e 0abe 7195 39bb
00000050: cd72 07bb 745e 843d 74f5 46bd 67b8 fbb9
00000060: b0d6 a03d ec13 423e 4c93 543d 8c16 1fbb
00000070: b469 e6bd d49f 22be 0840 babd 0a77 853b
00000080: 57a7 a23d d25c b7bb 8d53 47be 7fb6 82bc
00000090: 481b ab3b c4ac 03be ccb1 113e 8b75 aabe
000000a0: 837f 623d 6e5f 1dbe 6af8 053e 53af 943b
000000b0: 065c bb3d c6cc 963e 045a d8bd 7d67 c93e
000000c0: b712 703e 85b7 663d 4fbb a53d 3562 dfbc
000000d0: 3208 0b3e 3d1d 0bbe 785a f0bd c65d 2b3e
000000e0: 8e5d 47be e625 c03e 6cbb 363e 5676 75bd
000000f0: ff8d 0c3a 397d b8bd b3b3 103d a3a6 06bb
00000100: 22b8 e03e d24d 86be 29f8 123e 72de 9039
00000110: f7da 3dbe 1c0c 8abd 0f3f d6bc 06b3 0e39
00000120: cdf4 843d 57e3 9a3b b1e8 3b3d b2a7 69bc
00000130: bc7c bcbb 67ab 92bd a77a e6bc 6e38 cabd
00000140: 5974 dabd 0c3c 14be c679 c6be a1c0 37bd
00000150: 2633 ba3d 652e 13be e3c3 81bd 07a0 99bd
00000160: cec8 ed3d 70e9 ba3d 8b77 3cbe 3108 ccbd
00000170: 425e 783a 65bb 96be 5732 7f3e bd9f e3bd
00000180: 70c6 93bb f60f 7bbe 89b5 54bd 6c8b ccbd
00000190: ee7e f2bb 2b7e be3e 7749 69be 04ad 313c
000001a0: b60b 41bd 3ad8 9e3d ee0a 4e3d abd8 d9bb
000001b0: 101b e93c e19f 713d 0086 6c3e 5e14 3dbc
000001c0: 90b8 53be 5dd7 343c b8f8 45be 801b e8bc
000001d0: ba23 22bc 735d 15be 926a aa3e 57fb 49be
000001e0: 2fe5 d5bc e74a 203e c5ab 26be b632 c53c
000001f0: 1e69 143e 1c8d f53d 58fa fbbd 6c04 5bbe
00000200: 69c2 9bbd 02fb 4c3e 83cb 283e ccea c6bc
00000210: d461 033d 5da8 a9bd fcd2 2abe a9f0 bfbe
00000220: 810e 5b3b b20e cb3e dbe6 ac3d 1e4f 4cbd
00000230: c754 18bc c8f1 893e 3393 123e 84c0 743c
00000240: 386f fd3d 085c 0abc 439a 91bd 31fd 04bc
00000250: 757b de3c d837 49be 9bbf 043f 662a 8cbc
00000260: 46d3 853c ae73 823c 5a71 593d 9971 873c
00000270: 3921 78bc 2bec d83c f011 59bd 800e 51be
00000280: c013 a73c 9deb f1bd c91b d8bd 501b 86be
00000290: 7d5e 09be 7588 9abe 6e7a c63d cc6e a83d
000002a0: d384 6f3d b26b b1bc 95a3 08be c17a 523e
000002b0: dc7e 40be 264b 3f3c 27cf 1dbe 4c41 ec3c
000002c0: 9988 67bc 3a6c b2be 9830 413e 43ff 933e
000002d0: ca73 d03b e5a4 48be 2975 d53e 692c 88ba
000002e0: 119d 903d 166a 3a3b e71b dbbc 4a9e e23b
000002f0: d6bf 953d abdc 443d fc00 d93c 170a dfba
00000300: 1d1f 1e3b f468 4538 efbc 1b3e f8ad 123c
00000310: 66c2 363b d66f 193d 2c24 853e 02d3 91be
00000320: 9103 703d 6673 0fbd d9c6 36bc 4929 8cbc
00000330: e1d5 ce3a 84bb b23d 4c3d b2bd 47ab a3bd
00000340: eedb e7bb ae20 733d 6d10 d33d 3bce 973c
00000350: 4a12 173e 730d 3bbd 5f32 97bb 05e4 71bd
00000360: 03ad 47bd 5693 a73d 7220 9cbc 1689 17bd
00000370: 9a67 71bb b62f 6c3e 6ed3 4e3e e013 713b
00000380: 7d22 c13d ff1c 7ebd 93e9 8bbd b10a 6bbb
00000390: 134b e0bc 7748 c53c 67d4 cabd 9e87 23bb
000003a0: a015 723c bcb8 403b d100 803d 6fed 6b3b
000003b0: 4363 0dbb e480 093b d14d 57bd d853 4bbe
000003c0: b23d dbbe 81d1 593e f191 e13d f9da 4ebe
000003d0: 336e 943d 6ea4 6a3e d34e 14be a9f9 61be
000003e0: 26b6 033e f067 b93e a769 58be 9d9b bdbd
000003f0: 5a80 223e 9faf ddbc 1c16 71bc 692a 57be
-0.22267818 0.14965098 -0.24786474 -0.0012220227 -0.036227863 0.12143989 -0.14969656 -0.20025726
-0.28066325 -0.08893389 -0.035455223 0.12007917 0.1684468 0.19567835 -0.24349922 -0.18406945
0.060496416 -0.065939054 -0.13481955 -0.0028317834 -0.0020667792 0.06463328 -0.048573926 -0.0004801184
0.078534484 0.18952912 0.051898286 -0.0024274914 -0.1125063 -0.15881282 -0.09094244 0.0040730285
0.07942074 -0.005595782 -0.19465466 -0.015956162 0.005221758 -0.12858874 0.1422798 -0.33292803
0.055297386 -0.15368435 0.13083044 0.004537502 0.091484115 0.29453105 -0.10564044 0.39336768
0.23444639 0.05632736 0.08092367 -0.027268508 0.13577345 -0.13585372 -0.117360055 0.1673499
-0.19469282 0.37528914 0.17844933 -0.059927307 0.0005361735 -0.09008259 0.035327625 -0.00205461
0.43890482 -0.26231247 0.14352478 0.00027631555 -0.1854056 -0.06740591 -0.026153116 0.00013608867
0.064920045 0.004726808 0.04587621 -0.014261173 -0.005752174 -0.07161599 -0.028134657 -0.09874044
-0.10666723 -0.14476031 -0.3876478 -0.04486144 0.09091787 -0.14373167 -0.063361906 -0.07501226
0.11610566 0.09126556 -0.18404977 -0.099625 0.0009474495 -0.29439846 0.24921547 -0.11114452
-0.0045097396 -0.24517807 -0.051930938 -0.0998753 -0.007400385 0.37205634 -0.22781931 0.010844473
-0.04713031 0.07756086 0.050303392 -0.0066481433 0.028455287 0.058990363 0.23097992 -0.0115405
-0.20675874 0.011037675 -0.1933316 -0.028333426 -0.009896213 -0.1458643 0.33284432 -0.19724785
-0.02611026 0.15653573 -0.16276462 0.024072032 0.14493224 0.11989805 -0.12303609 -0.21388406
-0.0760544 0.20017627 0.16483884 -0.024281882 0.032075718 -0.08284066 -0.16682047 -0.37488297
0.0033425393 0.3965965 0.0844247 -0.04988014 -0.009297556 0.26942277 0.14313965 0.014938477
0.12374729 -0.0084447935 -0.07109501 -0.008117006 0.027158478 -0.19650209 0.51854867 -0.01711006
0.016336095 0.015924301 0.053086616 0.01653366 -0.01514464 0.026479801 -0.052995622 -0.20415688
0.02039516 -0.11812518 -0.105521746 -0.26192713 -0.1341495 -0.30182233 0.0969132 0.08224258
0.05847628 -0.021657798 -0.13343652 0.2055464 -0.18798393 0.011675632 -0.15411054 0.02883973
-0.0141316885 -0.34848195 0.18866193 0.28905687 0.0063614594 -0.19594152 0.4169095 -0.0010389212
0.07061208 0.002844458 -0.026746703 0.006915842 0.073119804 0.048062008 0.026489727 -0.0017016557
0.0024127432 4.7066205e-05 0.15208791 0.00895261 0.0027886867 0.03746017 0.2600416 -0.284813
0.05859715 -0.035022162 -0.011155807 -0.01710953 0.0015780294 0.08727172 -0.08703098 -0.07991653
-0.007075778 0.059357338 0.10305867 0.018530956 0.1475307 -0.045667123 -0.004614159 -0.059055347
-0.04874898 0.08182399 -0.01905844 -0.03699597 -0.0036835433 0.23065075 0.20197842 0.0036785528
0.09430406 -0.06203937 -0.0683166 -0.0035864527 -0.027379548 0.024082405 -0.09903794 -0.002495266
0.014775664 0.0029406985 0.06250156 0.0035999676 -0.0021574057 0.0020981366 -0.052564446 -0.19856203
-0.42820507 0.21271326 0.11014164 -0.20200719 0.07247581 0.22914287 -0.14483194 -0.22067894
0.12862453 0.3621211 -0.21134053 -0.092581965 0.15869275 -0.027061282 -0.014714744 -0.21012272

prop_layer._message_net.0.bias f4 [20]
00000000: 6693 553e 59c5 203e 6901 b0bd fef2 4a3c
00000010: ff88 fe3d e0cd acbc 10fe 073c 95b9 393c
00000020: d551 c13e 3962 2d3c bc3a da3d 3a49 33be
00000030: 0b8d 7c3d e2b2 ae3b e4c8 453e 2d54 5b3e
00000040: af83 163d 0fc1 8b3d 454f 8c3c 711f be3c
0.2085701 0.15700282 -0.08594019 0.012387035 0.12428474 -0.021094263 0.008300319 0.01133575
0.37757745 0.0105825 0.10655734 -0.17508402 0.061657947 0.005331383 0.19314915 0.2141883
0.036746677 0.068239324 0.017127642 0.023208352

prop_layer._reverse_message_net.0.weight f4 [20, 40]
00000000: c005 64be 1b3e 193e 41d0 7dbe 472c a0ba
00000010: ab63 14bd 7ab5 f83d 0e4a 19be 3d10 4dbe
00000020: 18b3 8fbe f922 b6bd 7f39 11bd 11ec f53d
00000030: 517d 2c3e e85f 483e dc57 79be b47c 3cbe
00000040: 17cb 773d 0e0b 87bd 230e 0abe 7195 39bb
00000050: cd72 07bb 745e 843d 74f5 46bd 67b8 fbb9
00000060: b0d6 a03d ec13 423e 4c93 543d 8c16 1fbb
00000070: b469 e6bd d49f 22be 0840 babd 0a77 853b
00000080: 57a7 a23d d25c b7bb 8d53 47be 7fb6 82bc
00000090: 481b ab3b c4ac 03be ccb1 113e 8b75 aabe
000000a0: 837f 623d 6e5f 1dbe 6af8 053e 53af 943b
000000b0: 065c bb3d c6cc 963e 045a d8bd 7d67 c93e
000000c0: b712 703e 85b7 663d 4fbb a53d 3562 dfbc
000000d0: 3208 0b3e 3d1d 0bbe 785a f0bd c65d 2b3e
000000e0: 8e5d 47be e625 c03e 6cbb 363e 5676 75bd
000000f0: ff8d 0c3a 397d b8bd b3b3 103d a3a6 06bb
00000100: 22b8 e03e d24d 86be 29f8 123e 72de 9039
00000110: f7da 3dbe 1c0c 8abd 0f3f d6bc 06b3 0e39
00000120: cdf4 843d 57e3 9a3b b1e8 3b3d b2a7 69bc
00000130: bc7c bcbb 67ab 92bd a77a e6bc 6e38 cabd
00000140: 5974 dabd 0c3c 14be c679 c6be a1c0 37bd
00000150: 2633 ba3d 652e 13be e3c3 81bd 07a0 99bd
00000160: cec8 ed3d 70e9 ba3d 8b77 3cbe 3108 ccbd
00000170: 425e 783a 65bb 96be 5732 7f3e bd9f e3bd
00000180: 70c6 93bb f60f 7bbe 89b5 54bd 6c8b ccbd
00000190: ee7e f2bb 2b7e be3e 7749 69be 04ad 313c
000001a0: b60b 41bd 3ad8 9e3d ee0a 4e3d abd8 d9bb
000001b0: 101b e93c e19f 713d 0086 6c3e 5e14 3dbc
000001c0: 90b8 53be 5dd7 343c b8f8 45be 801b e8bc
000001d0: ba23 22bc 735d 15be 926a aa3e 57fb 49be
000001e0: 2fe5 d5bc e74a 203e c5ab 26be b632 c53c
000001f0: 1e69 143e 1c8d f53d 58fa fbbd 6c04 5bbe
00000200: 69c2 9bbd 02fb 4c3e 83cb 283e ccea c6bc
00000210: d461 033d 5da8 a9bd fcd2 2abe a9f0 bfbe
00000220: 810e 5b3b b20e cb3e dbe6 ac3d 1e4f 4cbd
00000230: c754 18bc c8f1 893e 3393 123e 84c0 743c
00000240: 386f fd3d 085c 0abc 439a 91bd 31fd 04bc
00000250: 757b de3c d837 49be 9bbf 043f 662a 8cbc
00000260: 46d3 853c ae73 823c 5a71 593d 9971 873c
00000270: 3921 78bc 2bec d83c f011 59bd 800e 51be
00000280: c013 a73c 9deb f1bd c91b d8bd 501b 86be
00000290: 7d5e 09be 7588 9abe 6e7a c63d cc6e a83d
000002a0: d384 6f3d b26b b1bc 95a3 08be c17a 523e
000002b0: dc7e 40be 264b 3f3c 27cf 1dbe 4c41 ec3c
000002c0: 9988 67bc 3a6c b2be 9830 413e 43ff 933e
000002d0: ca73 d03b e5a4 48be 2975 d53e 692c 88ba
000002e0: 119d 903d 166a 3a3b e71b dbbc 4a9e e23b
000002f0: d6bf 953d abdc 443d fc00 d93c 170a dfba
00000300: 1d1f 1e3b f468 4538 efbc 1b3e f8ad 123c
00000310: 66c2 363b d66f 193d 2c24 853e 02d3 91be
00000320: 9103 703d 6673 0fbd d9c6 36bc 4929 8cbc
00000330: e1d5 ce3a 84bb b23d 4c3d b2bd 47ab a3bd
00000340: eedb e7bb ae20 733d 6d10 d33d 3bce 973c
00000350: 4a12 173e 730d 3bbd 5f32 97bb 05e4 71bd
00000360: 03ad 47bd 5693 a73d 7220 9cbc 1689 17bd
00000370: 9a67 71bb b62f 6c3e 6ed3 4e3e e013 713b
00000380: 7d22 c13d ff1c 7ebd 93e9 8bbd b10a 6bbb
00000390: 134b e0bc 7748 c53c 67d4 cabd 9e87 23bb
000003a0: a015 723c bcb8 403b d100 803d 6fed 6b3b
000003b0: 4363 0dbb e480 093b d14d 57bd d853 4bbe
000003c0: b23d dbbe 81d1 593e f191 e13d f9da 4ebe
000003d0: 336e 943d 6ea4 6a3e d34e 14be a9f9 61be
000003e0: 26b6 033e f067 b93e a769 58be 9d9b bdbd
000003f0: 5a80 223e 9faf ddbc 1c16 71bc 692a 57be
-0.22267818 0.14965098 -0.24786474 -0.0012220227 -0.036227863 0.12143989 -0.14969656 -0.20025726
-0.28066325 -0.08893389 -0.035455223 0.12007917 0.1684468 0.19567835 -0.24349922 -0.18406945
0.060496416 -0.065939054 -0.13481955 -0.0028317834 -0.0020667792 0.06463328 -0.048573926 -0.0004801184
0.078534484 0.18952912 0.051898286 -0.0024274914 -0.1125063 -0.15881282 -0.09094244 0.0040730285
0.07942074 -0.005595782 -0.19465466 -0.015956162 0.005221758 -0.12858874 0.1422798 -0.33292803
0.055297386 -0.15368435 0.13083044 0.004537502 0.091484115 0.29453105 -0.10564044 0.39336768
0.23444639 0.05632736 0.08092367 -0.027268508 0.13577345 -0.13585372 -0.117360055 0.1673499
-0.19469282 0.37528914 0.17844933 -0.059927307 0.0005361735 -0.09008259 0.035327625 -0.00205461
0.43890482 -0.26231247 0.14352478 0.00027631555 -0.1854056 -0.06740591 -0.026153116 0.00013608867
0.064920045 0.004726808 0.04587621 -0.014261173 -0.005752174 -0.07161599 -0.028134657 -0.09874044
-0.10666723 -0.14476031 -0.3876478 -0.04486144 0.09091787 -0.14373167 -0.063361906 -0.07501226
0.11610566 0.09126556 -0.18404977 -0.099625 0.0009474495 -0.29439846 0.24921547 -0.11114452
-0.0045097396 -0.24517807 -0.051930938 -0.0998753 -0.007400385 0.37205634 -0.22781931 0.010844473
-0.04713031 0.07756086 0.050303392 -0.0066481433 0.028455287 0.058990363 0.23097992 -0.0115405
-0.20675874 0.011037675 -0.1933316 -0.028333426 -0.009896213 -0.1458643 0.33284432 -0.19724785
-0.02611026 0.15653573 -0.16276462 0.024072032 0.14493224 0.11989805 -0.12303609 -0.21388406
-0.0760544 0.20017627 0.16483884 -0.024281882 0.032075718 -0.08284066 -0.16682047 -0.37488297
0.0033425393 0.3965965 0.0844247 -0.04988014 -0.009297556 0.26942277 0.14313965 0.014938477
0.12374729 -0.0084447935 -0.07109501 -0.008117006 0.027158478 -0.19650209 0.51854867 -0.01711006
0.016336095 0.015924301 0.053086616 0.01653366 -0.01514464 0.026479801 -0.052995622 -0.20415688
0.02039516 -0.11812518 -0.105521746 -0.26192713 -0.1341495 -0.30182233 0.0969132 0.08224258
0.05847628 -0.021657798 -0.13343652 0.2055464 -0.18798393 0.011675632 -0.15411054 0.02883973
-0.0141316885 -0.34848195 0.18866193 0.28905687 0.0063614594 -0.19594152 0.4169095 -0.0010389212
0.07061208 0.002844458 -0.026746703 0.006915842 0.073119804 0.048062008 0.026489727 -0.0017016557
0.0024127432 4.7066205e-05 0.15208791 0.00895261 0.0027886867 0.03746017 0.2600416 -0.284813
0.05859715 -0.035022162 -0.011155807 -0.01710953 0.0015780294 0.08727172 -0.08703098 -0.07991653
-0.007075778 0.059357338 0.10305867 0.018530956 0.1475307 -0.045667123 -0.004614159 -0.059055347
-0.04874898 0.08182399 -0.01905844 -0.03699597 -0.0036835433 0.23065075 0.20197842 0.0036785528
0.09430406 -0.06203937 -0.0683166 -0.0035864527 -0.027379548 0.024082405 -0.09903794 -0.002495266
0.014775664 0.0029406985 0.06250156 0.0035999676 -0.0021574057 0.0020981366 -0.052564446 -0.19856203
-0.42820507 0.21271326 0.11014164 -0.20200719 0.07247581 0.22914287 -0.14483194 -0.22067894
0.12862453 0.3621211 -0.21134053 -0.092581965 0.15869275 -0.027061282 -0.014714744 -0.21012272

prop_layer._reverse_message_net.0.bias f4 [20]
00000000: 6693 553e 59c5 203e 6901 b0bd fef2 4a3c
00000010: ff88 fe3d e0cd acbc 10fe 073c 95b9 393c
00000020: d551 c13e 3962 2d3c bc3a da3d 3a49 33be
00000030: 0b8d 7c3d e2b2 ae3b e4c8 453e 2d54 5b3e
00000040: af83 163d 0fc1 8b3d 454f 8c3c 711f be3c
0.2085701 0.15700282 -0.08594019 0.012387035 0.12428474 -0.021094263 0.008300319 0.01133575
0.37757745 0.0105825 0.10655734 -0.17508402 0.061657947 0.005331383 0.19314915 0.2141883
0.036746677 0.068239324 0.017127642 0.023208352

prop_layer.GRU.weight_ih_l0 f4 [30, 20]
00000000: a3a1 bfbd e854 e5bc 3c66 9e3c 12b7 e9bc
00000010: 79b3 8c3c 7508 69bc bde0 adbc e51c 153b
00000020: 6cdc 743d b998 33bd d36a 8fbc 91d5 d13c
00000030: ef4e a5bc c1f1 2a3b 68dc 6f3d 7ac7 53bc
00000040: 66de 3d3c ab42 0a3d 9ea3 87bc 6a27 74bc
00000050: 87b5 b0bd 87b5 2c3d ae1d e83c e6c0 b73d
00000060: 2ba1 2abe 603a 643c d072 733c 56e2 d23c
00000070: 0d4b 45bd 88e3 a7bc 3946 94bc e7e5 a23d
00000080: 09c1 0abd ce30 d03a 5638 1b3d fc7d f43d
00000090: 26f8 5d3c 8aba fa3b f63b 73bc 8a6c d2ba
000000a0: 777c 28be 4447 1cbd c4e3 b339 db83 af3c
000000b0: e2b9 0fbd 1e84 38bc cd98 3fbd 14d9 e53c
000000c0: 7b2b 863c beb4 41bd e16d 553b 53f2 ca3d
000000d0: 6d6d 49bc aab5 babb e5ad 833d 14d1 5b3d
000000e0: 0ed5 923c 43a9 143d 9979 38bc f2c2 8f3c
000000f0: 0e1e e1bc 0af7 d23c 596b bd3c 5355 313d
00000100: f0ac 36bc 877b 1c3c 5706 f13c e9ae 2dbc
00000110: 7837 99bd fa1b 2cbc 9c1b d3bd 8657 c7ba
00000120: f1b1 1dbc 1019 ccba 5108 5f3b 90a3 dbbc
00000130: 3c1d 423d 296e 58bc 8e7a 933c 3bdd 5ebc
00000140: b17e 6cbc 6ca4 b7bb 6cee 833b b1cd ebbb
00000150: 2997 b3bb 6427 84bb f62d 913c 16e7 d53b
00000160: 77fe 11bc ad1e 353c 6618 6abb 8098 76bd
00000170: 24b6 9bbc 84c4 c7bb 88f0 103c 7b11 a73b
00000180: b850 053d 51ff e33b 7433 94ba 7a8d 4f3b
00000190: 7945 fcbd a1aa 113d f0f9 203d 79e2 4ebc
000001a0: 6b27 e8bd 708b 613b 27d3 283d db69 e33b
000001b0: 8624 1f3c cd25 3ebd f630 7b3d 800c 14bd
000001c0: 055a 923c d09f 1fba d471 6c3d 728f d43d
000001d0: 0eb9 dd3c cb87 56bd 20e4 48bd 917b 03bd
000001e0: 9762 c63a 7df9 48b9 1e2a cd3b a023 183c
000001f0: f74b 63bc f32d 97bc a7db cdbc f01d 0a3c
00000200: e34a babb a00a 5c3c 6c4d 24bd 6881 4c3c
00000210: 2f17 aa3b 290a db3a 657b d5b8 c19d cd3a
00000220: 3d08 df3b b4ac 213d a8fc a93b 1bd7 933c
00000230: c5f4 c5bd 8c2a 22be 37ba 7d3d 6bc2 b23c
00000240: af51 dabb b5c6 d9bc 76aa 9dbb 2cd6 bd3c
00000250: e088 183e bbb9 a9bd fe8d ac3d e189 81bd
00000260: f116 54bd 327c 18bb 30bd 5d3d afec 90bd
00000270: 00e4 353d 1117 8d3c 7373 823d 12b5 59ba
00000280: 7f7b 46be 9db2 6b3d 00a8 ac3c d249 fdba
00000290: f4c5 2c3c e8a7 f8bc 3757 14bd 928e 9e3c
000002a0: 77c4 0f3d fcf5 7cbd d804 963d e9b8 023e
000002b0: 3382 90bc 8752 55bc 7d9a 233d 8cb5 463d
000002c0: a682 4fbc 3b31 a3bb 9a2e ec3b 3928 863d
000002d0: a78b babc fea8 11bc 8ebf 30bb 9c65 0dbc
000002e0: 2d4f 133c 143f 37bc c38c 63bb aeee 13bb
000002f0: aacd b8bb b884 703b 711c 1ebc 99ba c13c
00000300: 7dcf 7c3a 7d1f 6c3b fdd1 66bc cdf2 b2bc
00000310: 7905 523c 5847 1ebb 0b1d 9a3c 5b46 b63c
00000320: 79a2 0ebe 9e43 a0bd ca66 d1bd 3b00 633e
00000330: b69b 85be d2f8 2b3d 2b48 723e 3362 343e
00000340: 5ee5 933e 8585 29bd 64d8 813c fbf0 0cbd
00000350: e68e b9bd c616 bbba 4975 f23d b684 c03e
00000360: 87c7 cfbc 8306 c1bc 5977 063e 7b42 ddbc
00000370: 4c6c 3d3d b58d 7e3d 5635 6fbe 1c15 fb3d
00000380: 9f5b abbc a97a 863c a2ec 4bbd 339c 9f3d
00000390: 9508 b73d 1c9b 11bb 790f 5ebe a090 a43d
000003a0: 55a5 3ebe 44cd 46bc 36a2 93bd 5365 f23d
000003b0: 35c4 6e3d b24c 033e 0ec6 b13c 003b ad3d
000003c0: 01aa 43be 413e 643e 4423 92bd 36ae 0b3d
000003d0: 45d1 46be 9e2b d7bc 7990 30be 8801 db3b
000003e0: 443d 983c 9056 dbbc c852 0abe a871 7d3e
000003f0: aba4 733d e7ab 15bc 84b6 b2bd e11b e4bc
-0.09357002 -0.027994588 0.019335859 -0.028529678 0.017175423 -0.014223208 -0.021225328 0.0022752818
0.059780523 -0.04384682 -0.017506992 0.025614532 -0.02017924 0.0026084038 0.058559805 -0.012925977
0.011588668 0.033754986 -0.016557511 -0.014901975 -0.086283736 0.042165305 0.028334465 0.08972339
-0.16663043 0.013929933 0.014858916 0.025742691 -0.048167277 -0.020494238 -0.018099891 0.07954007
-0.0338755 0.0015883686 0.037895523 0.11938092 0.013547933 0.0076516317 -0.014845839 -0.0016054076
-0.1645373 -0.0381539 0.0003431124 0.021425178 -0.03508938 -0.011261968 -0.04677658 0.028057612
0.016378155 -0.04729151 0.0032566714 0.09909501 -0.012294156 -0.0056979256 0.06429652 0.05366619
0.017923858 0.036294233 -0.01125946 0.017549012 -0.027480152 0.025752563 0.023122476 0.043294262
-0.01114963 0.009550936 0.029421968 -0.010600784 -0.07481283 -0.010504717 -0.103080004 -0.0015208579
-0.009624944 -0.0015571434 0.0034032057 -0.026811391 0.04739116 -0.013209858 0.018002775 -0.01360255
-0.014434502 -0.0056043174 0.004026225 -0.007196151 -0.005480666 -0.004033016 0.017722111 0.0065277917
-0.008910767 0.011054677 -0.003572011 -0.06020403 -0.01900775 -0.0060964245 0.00884641 0.0050985194
0.032547683 0.0069579263 -0.0011306838 0.003167002 -0.12317938 0.035563115 0.03930086 -0.0126272375
-0.113356434 0.0034415387 0.041216996 0.006940109 0.009713298 -0.04642277 0.06132599 -0.036144733
0.01786519 -0.00060891826 0.057725742 0.103789225 0.02706578 -0.052375596 -0.049045682 -0.032100264
0.0015135583 -0.00019166428 0.0062611243 0.009285837 -0.013873092 -0.018454527 -0.025129152 0.008429989
-0.0056851967 0.013430268 -0.040112898 0.012482025 0.005190752 0.0016711402 -0.000101796155 0.0015687273
0.006806402 0.039471343 0.0051875897 0.018046906 -0.09665827 -0.15836543 0.061945166 0.021821221
-0.0066625695 -0.026584009 -0.0048115803 0.023173414 0.14895964 -0.082873784 0.0842552 -0.063251264
-0.05177969 -0.0023267386 0.0541355 -0.07076394 0.04440689 0.017222913 0.063696764 -0.00083048746
-0.19383048 0.057543386 0.021076202 -0.0019324368 0.010545243 -0.030353501 -0.036215987 0.019355092
0.035099473 -0.061758026 0.073251426 0.1276585 -0.017640209 -0.013020164 0.039942253 0.04851298
-0.012665426 -0.004980234 0.007207704 0.065506406 -0.02277167 -0.0088903885 -0.0026969644 -0.008630183
0.008991045 -0.011184473 -0.0034721352 -0.0022572684 -0.0056397514 0.00367002 -0.009650336 0.023648547
0.0009643955 0.003602951 -0.014088151 -0.021844292 0.012818688 -0.002415141 0.018812677 0.022250345
-0.13929166 -0.07825397 -0.102246836 0.22168057 -0.2609536 0.04198534 0.23660342 0.17615585
0.2888593 -0.0413871 0.015850253 -0.034409504 -0.09060459 -0.0014273755 0.118387766 0.3760125
-0.025363697 -0.023562675 0.13131465 -0.02700924 0.046245858 0.06214686 -0.2336019 0.12259886
-0.020917712 0.01641591 -0.049786218 0.077934645 0.08937184 -0.0022217697 -0.2168559 0.080353975
-0.18617757 -0.0121339 -0.07208674 0.11835732 0.058292586 0.12822226 0.021700885 0.08458519
-0.1910782 0.22289373 -0.07135633 0.034101687 -0.19415767 -0.026265915 -0.17242612 0.006683532
0.018583901 -0.026774675 -0.13508141 0.24750388 0.05948321 -0.009135223 -0.08726218 -0.027845325

prop_layer.GRU.weight_hh_l0 f4 [30, 10]
00000000: 0360 113d ae9f b93c 8e8c 81bd 55dc 8abc
00000010: 36e4 1c3d afdd 043c ba1b 24bd 2ede 023c
00000020: 301d 323c 9ccd 1e3c e60e 9e3c 649b 5fbd
00000030: b004 24bd d469 49bb 7695 f93c ee08 c43c
00000040: 1243 dabc ba4e b53d a705 bc3c a6ab 823c
00000050: cbb0 dc3c dc49 7cbb f724 b9bd 799c 64bc
00000060: aeee ae3c 5128 353d a749 18bd d156 f93c
00000070: f28e a43c 5392 103d 2826 86bc fdba 23bd
00000080: 9ae0 1fbc c762 5c3c 0f10 013c 102c 80bc
00000090: c194 d93b 1560 223d f8fd 45bb 445d 79bc
000000a0: e6c5 64bb 099a aebb 52e2 7ebc b096 21bb
000000b0: b214 813c 5fd5 6d3c 2e29 dabc 90d8 023c
000000c0: 4f52 da3a eed9 b03a 8b8f ea3c 0a2f b6bc
000000d0: 216f 48bd af14 16bc e8f5 4c3d d6a9 353d
000000e0: 9093 0abd 46f1 623b c187 cf3c 77b9 f0bc
000000f0: d0fd 8b3a bfee ae3a 411c 79bc df04 423c
00000100: ee31 6ebb e1e8 98bc 68af 363c cf13 8e3c
00000110: 2f80 37bc 3bd9 32bb c248 253d eba5 24bd
00000120: 13f1 ebbc 90e6 8dbd 3ea1 163c dc87 fbbc
00000130: 2d83 b63c e74b 163e 2961 733d 2333 52bd
00000140: 2f19 143d c30e ebbc 775b a1bd 8fbe 47bd
00000150: 3cc7 1d3d 8743 ba3c 17e0 e8bc fb74 a63c
00000160: 47c0 213d 95fb 163d 0f02 2f3b eece 82bc
00000170: 8db1 43bc bf33 3d3c 45f2 cfbb 1d51 b4bb
00000180: 5992 58bb 79a1 81bb 6266 0b3c 41d9 a23b
00000190: df12 023e 35d3 bdbd 3c42 d33c d7b4 70bd
000001a0: 6df7 803d cd58 d0bd 4b86 78bc 887e b4bd
000001b0: e299 e73d 52ea ffbd d893 e93c 0e2c 22bd
000001c0: e6f0 54bd 08b0 8ebc 93c9 f5bd 78e0 33bd
000001d0: e267 853c ee47 353e c67a ffbc dc46 19be
000001e0: d053 173d 24a9 81bd 2332 21bd b355 823d
000001f0: a4e0 923d 08cc 013e 0900 24bd 8028 0c3e
00000200: 1c1f 3d3d f659 973d 9f83 fbbb 99c9 803d
00000210: 8fdc 273e f68d e03d 37fd a6bd e677 0abe
00000220: 2f15 ad3d 3929 dd3d 17ac b43c 98df 8f3b
00000230: a6e9 303c fc27 0a3a ceae c3bd a53d 41bd
00000240: 34cd aebc ed20 2f3d fee1 153d b85f eb3d
00000250: 42c4 103e 1bfc d83c a1c5 29bc 7065 993d
00000260: a6e5 e83c b3da d7bc ceaf 78bd 7581 80bd
00000270: cb7f 413d b5c5 713d 3763 af3d 37ed 69bb
00000280: ff0a 063e 0dc4 f8bd 8b15 4abd 2e61 583a
00000290: c693 c33c b4e3 e4bc 9e41 693c 9982 7a3d
000002a0: 5762 0f3e efb4 8cbc 0bdd 523c 6207 3bbe
000002b0: 3911 df3d 80a6 7d3d 5fdb 29be 2c90 943c
000002c0: b1f6 ed3c 7721 223f 9c04 e73d 44e5 86bb
000002d0: 0df5 cabc ad86 41bc e031 853d b14f cbbc
000002e0: c577 debd 847f e2bd b8da 913d b1f6 963d
000002f0: 8a80 cebd b3ba 5c3d 7b01 0a3d 19f0 7bbc
00000300: 529f ed3d 1dee bbbb 4d5b 29bd 5166 263d
00000310: a140 0dbe 0ca3 223e 22d8 013d 9100 e03c
00000320: bf46 cd3d be18 d5bc 381b 39be 5cd3 83bd
00000330: bd4d a43d 08c5 203d ef4d 36bd e3df 0dbe
00000340: 2f72 7bbd cab1 debb 8b25 c8bd 0f87 3c3d
00000350: 9d94 8a3d 5074 8cbd 9290 f6bd 87c8 833e
00000360: 0c64 18be 3671 8f3e 9b03 713d bed9 58be
00000370: ddc3 793e 5a4b 0ebe 40ef a63c d64d be3d
00000380: 40f3 823d 29f1 6d3d e943 babd 3fa4 d43d
00000390: b88d 543e 891c 78bc df55 2c3d d50b 93bd
000003a0: bdb3 45bd 30a7 ebbd 6a6d 2dbb 0a8b 20be
000003b0: b483 06bd 584d 5dbd a35d 6bbe 3dbe 64bd
000003c0: 004e 363d f8b6 84bd 98a2 ddbd 89c9 14be
000003d0: 2958 2d3e 38e0 5e3d 1af5 c0bc 85ed 213d
000003e0: 0103 753d 5d64 a43c 2125 f6bd 9d75 8abe
000003f0: 03ae a8bb c5ca 11bd 6bfe 86bc 3a0e 3fbe
0.035491955 0.022659149 -0.06325637 -0.016950766 0.038303576 0.008109494 -0.040065505 0.007987542
0.010871217 0.009692576 0.019294214 -0.05459155 -0.040043533 -0.0030733244 0.030466776 0.02393004
-0.02664331 0.088529065 0.022951914 0.015950989 0.02693977 -0.0038496172 -0.090402536 -0.013953322
0.021354046 0.0442279 -0.037179615 0.030436905 0.020087693 0.035295796 -0.016375616 -0.039973248
-0.009758139 0.013451285 0.007877364 -0.01564601 0.0066400473 0.039642412 -0.0030211192 -0.01521999
-0.0034907996 -0.005328421 -0.015556889 -0.0024656467 0.015756939 0.014516204 -0.026630964 0.007986203
0.001665661 0.0013492682 0.0286329 -0.022239227 -0.048934106 -0.009160205 0.050039202 0.04435142
-0.033832133 0.0034628673 0.025333287 -0.029385312 0.00106805 0.0013346298 -0.01520449 0.011841982
-0.0036345678 -0.018665733 0.011150219 0.01734343 -0.011199995 -0.0027290124 0.04035259 -0.040197294
-0.028801477 -0.06928742 0.009193717 -0.030704431 0.022279346 0.14677392 0.05941883 -0.0513183
0.03615683 -0.028693562 -0.07878774 -0.048765715 0.038520083 0.022737278 -0.028427167 0.020319453
0.03949001 0.03686102 0.0026704108 -0.015967812 -0.011944187 0.011547982 -0.0063460195 -0.0055028335
-0.0033046214 -0.0039560166 0.008508297 0.0049697463 0.12702511 -0.092688 0.025788419 -0.058766212
0.06297193 -0.101731874 -0.015168737 -0.088131964 0.11308648 -0.12495865 0.02851288 -0.039592795
-0.05198755 -0.017417923 -0.12001338 -0.043915242 0.016284887 0.1770322 -0.031186473 -0.14968437
0.036945164 -0.06331089 -0.039354455 0.06364002 0.07171753 0.12675488 -0.040039096 0.13687325
0.046172246 0.073902056 -0.0076756026 0.06288452 0.1639273 0.10964577 -0.08153766 -0.135223
0.08451306 0.10798878 0.022054715 0.004390668 0.010797894 0.00052702404 -0.09554826 -0.04717793
-0.021338083 0.04275601 0.036592476 0.11492866 0.14137366 0.0264874 -0.01036206 0.07490051
0.028429817 -0.026349401 -0.060714535 -0.06274692 0.047241013 0.05902644 0.085638456 -0.003569437
0.13090132 -0.12146769 -0.04933695 0.0008254227 0.023874175 -0.027940609 0.014236836 0.061159704
0.14002357 -0.01717612 0.012870084 -0.18264535 0.10891957 0.061926365 -0.1658759 0.018135153
0.029048296 0.63332313 0.11280176 -0.004116686 -0.024775052 -0.011811894 0.065036535 -0.024818273
-0.10862688 -0.11059478 0.071217954 0.073712714 -0.10083111 0.053888988 0.033692818 -0.015377068
0.116026536 -0.0057351724 -0.041346837 0.04062492 -0.13794185 0.1588251 0.03170026 0.02734402
0.10023259 -0.026012775 -0.1807679 -0.06436798 0.0802264 0.039250404 -0.044507917 -0.13854937
-0.06138819 -0.0067960965 -0.09772786 0.04602724 0.06766627 -0.06858122 -0.12039293 0.25738928
-0.14881915 0.2801606 0.05884133 -0.21176812 0.24391122 -0.13895932 0.020377755 0.0929219
0.063940525 0.058091316 -0.09094984 0.1038289 0.20757186 -0.015143522 0.04207408 -0.07179991
-0.048267115 -0.11506498 -0.002646292 -0.15678039 -0.032840446 -0.05402884 -0.22984938 -0.055845488
0.04450798 -0.06480211 -0.10822028 -0.14530005 0.16928162 0.05441305 -0.023554374 0.039533157
0.059817318 0.020067388 -0.120188005 -0.27042857 -0.005147697 -0.035593767 -0.016478738 -0.18657771

prop_layer.GRU.bias_ih_l0 f4 [30]
00000000: b184 e73b 9565 483d eb67 d93c 5fe8 b43b
00000010: 8ea6 c53b ff2b 513d b66b 543c 1283 063e
00000020: be6b 113d 07c7 01bd 762e 72bd 7f41 80bd
00000030: 85dc 7ebd 2224 52be 65a8 693e 1496 48be
00000040: 49b0 203e 2686 ed3e dc8c 133e 0008 afbd
00000050: 2ae6 2d3e f7de 1cbe 6800 f4be 804e cd3e
00000060: b5bd 93bd 112d d23e 4309 a6bb 8ff8 e43e
00000070: c7e8 163e df22 6b3d
0.0070653786 0.048925 0.02653881 0.005520865 0.0060318178 0.05106735 0.012965133 0.13135937
0.03550314 -0.031683948 -0.05912634 -0.062624924 -0.062222023 -0.20521596 0.22818144 -0.195885
0.15692247 0.4639141 0.14409202 -0.08546448 0.16982332 -0.1531943 -0.4765656 0.40098953
-0.07213918 0.41050008 -0.005067022 0.44720885 0.14737235 0.057406303

prop_layer.GRU.bias_hh_l0 f4 [30]
00000000: b184 e73b 9565 483d eb67 d93c 61e8 b43b
00000010: 8ea6 c53b ff2b 513d b66b 543c b280 063e
00000020: be6b 113d 07c7 01bd c52b 72bd 1442 80bd
00000030: cd07 81bd 636a 52be 235c 673e 1496 48be
00000040: 29b1 203e f4df ed3e 3345 153e 52ad afbd
00000050: 29e8 803d a3b5 ddbc 002c 1abe 0357 f73d
00000060: d4cf 9fbc 8265 003e f3af b2bc 34f0 803e
00000070: c0b0 ac3d 45a8 ec3c
0.0070653786 0.048925 0.02653881 0.005520866 0.0060318178 0.05106735 0.012965133 0.13135031
0.03550314 -0.031683948 -0.059123773 -0.062626034 -0.06300316 -0.20548396 0.22593741 -0.195885
0.15692581 0.46459925 0.14577179 -0.0857798 0.06294281 -0.02706415 -0.15055847 0.12077143
-0.01950828 0.12538722 -0.021812415 0.2518326 0.0843215 0.02888883

interaction_encoder.0.weight f4 [40, 40]
00000000: 5201 b93c d13c b33d e154 b73c f403 9b3d
00000010: 3ba8 cebb cc54 f3bc cea0 21be a56a c3bd
00000020: ee3a 36be a971 abbd dedb 4f3d afae 0bbe
00000030: 9214 963c 1a08 28bc 2971 a73d 9fc5 9fbd
00000040: 923b b03e 6b9d 29bd 3de1 923d 39ab c6bb
00000050: d480 42be 1ab1 54be b697 ec3d c3e8 e3bb
00000060: 4080 9abd 88d2 47bc b686 5b3d c232 e0bc
00000070: 35b7 52bd 268d 943c ebc6 4abe 22e7 b23d
00000080: cb20 5abd 4a5a a6bb fd0e bc3c 6b3d e9bd
00000090: 34f2 93bc cdde 7fbd 613f 0c3e 4fa4 72bd
000000a0: c8f3 228e 89e0 3614 5c1b 0000 811b 0080
000000b0: 9d1b 0000 a01b 0080 641b 0080 771b 0000
000000c0: 1e5a 0000 911b 0000 961b 0080 d189 c786
000000d0: 902a 0080 881b 0080 8f0c 0080 781b 0080
000000e0: 5760 0000 8b1b 0080 8c1b 0000 711b 0000
000000f0: 2e17 0080 631b 0080 941b 0080 581b 0080
00000100: 7f1b 0080 751b 0000 a41b 0000 921b 0000
00000110: 6011 0080 991b 0080 5b1b 0080 621b 0000
00000120: 9b1b 0080 871b 0000 8c1b 0080 5a1b 0000
00000130: 671b 0080 631b 0000 771b 0000 6d1b 0080
00000140: 7e08 c03d b412 b33d 10f6 b7bc 5dde c4bc
00000150: 3ec9 f3bd 2949 84bc 2c4c 1f3e b3a2 9cbd
00000160: aa0f 633c 49ea edbd 3b7e 4fbe 8f0b f93b
00000170: d55c b1bc eb81 3fbc 3e91 703d e50d 483e
00000180: 2722 303c 43e5 e2bd 8418 3dbc 327f cdbd
00000190: 3462 d6bd 8854 cbbb 8867 5cbd b3d7 80bb
000001a0: 5d29 f63d aa3a 81bc ab1f 73be 0b52 923d
000001b0: 7bd0 053e 6b70 9f3d 0df3 413e 1f42 bfbc
000001c0: 9feb df3c 8335 a63c edf3 5bbd 8315 86bd
000001d0: 5161 fd3d 866c 953e 6382 c3bd 964d f53d
000001e0: a3dd 4bb8 b0f2 8eb8 7d11 a636 2413 ba27
000001f0: 425f ecb9 5737 4e9b 5d7d 85b2 bafc 94b4
00000200: 1f07 d4b6 6d68 3b2e 9be1 b2b8 7877 a9b8
00000210: 14f0 91b5 99d1 2c1a 2fdd 47b7 9f46 17b7
00000220: 5ec3 8734 b95e f8b2 135b 4eb6 d9d4 05a1
00000230: ad36 05b7 e6af ceaf aed8 411b 6e25 252c
00000240: e2e0 f4b5 56b9 959d 38f5 1d36 c3ff ac1a
00000250: 227c dcaf f585 6d9a 8cbb 1337 175e f239
00000260: fb1b 7430 c38f a219 f48b fa22 7be8 2cb2
00000270: 6f27 d8b7 bc8c 5c9b 9f7c 2e36 b25f e49a
00000280: 9a1b 473e 1b0c 34bd 143c 313e 6266 6ebd
00000290: 8da3 b0bd 4111 2fbd 68f2 7abd c1d7 3c3c
000002a0: dcdc 15be 594d 37bd 13dc 6bbd 4d8c 00bd
000002b0: 3246 24bc 97ce 15bc 702b 4e3d e6e3 c5bd
000002c0: da99 883e 162a e03a a9a4 f7bd 92ab b1bd
000002d0: 6c24 77be f5ed 223e 696d 2f3d ae6f 753d
000002e0: 25d7 adbd d12e 5b3c 0d6c 00be 4bc9 e63c
000002f0: f5c4 a0bc 2626 043c e7c5 2cbe 18f8 c43d
00000300: 6b66 dd3c 952a 62bc 9cc0 ed3c ec34 02be
00000310: 65af 1d3d 6f44 21bd 0af7 923d d6c1 673b
00000320: 6c33 e83d 7fe2 5dbc 6b3f 223d b233 2e3d
00000330: 7fee b53c c9b3 113d 7565 193d ba2a 9ebd
00000340: 9bf6 c2bd 3721 94bd 8b9c 2ebe 6e0e 453c
00000350: 0fee 463d 257a d03b f0f3 c13d 90cf 353e
00000360: a154 d33d 1205 4abc 5713 f63b 9462 8b3c
00000370: 9fdf af3d dd27 f2bd 6c27 c9bd 6e5f 17be
00000380: 31b6 a33b a6f6 c63d f51e 0a3e e786 e5bd
00000390: 080c 583e f900 c83c bd92 863e d47b 903d
000003a0: ae93 0fbe 6f35 243a 52c2 4ebe 5a62 d93d
000003b0: 456d 9bbd 179a 31be b127 bebd 0664 62bd
000003c0: f075 0ab9 7237 73b6 b30d 5d97 1e57 fb2d
000003d0: 4583 20b3 55c9 9626 dc07 0334 37ef 879f
000003e0: a846 90b7 daba 3c29 b808 b5b6 1713 0936
000003f0: d82b 0330 ff1b 0080 e94e 2daf 9fe2 1daf
0.022583637 0.08751834 0.02237934 0.075691134 -0.0063066757 -0.02970352 -0.15783998 -0.09541825
-0.17795917 -0.08371288 0.05074679 -0.13640855 0.018320356 -0.010255838 0.081758805 -0.07801365
0.3442045 -0.04140989 0.07171867 -0.006062892 -0.18994457 -0.20770684 0.11552374 -0.0069552376
-0.07543993 -0.012196191 0.053595267 -0.027367953 -0.05144425 0.018133711 -0.19802444 0.08735491
-0.05325393 -0.0050766813 0.022956366 -0.11388668 -0.018059827 -0.06246834 0.13696052 -0.059238728
-2.0085418e-30 9.2329336e-27 9.815e-42 -9.867e-42 9.906e-42 -9.91e-42 -9.826e-42 9.853e-42
3.2328e-41 9.889e-42 -9.896e-42 -7.5057983e-35 -1.5269e-41 -9.876e-42 -4.505e-42 -9.854e-42
3.456e-41 -9.88e-42 9.882e-42 9.844e-42 -8.315e-42 -9.825e-42 -9.893e-42 -9.809e-42
-9.864e-42 9.85e-42 9.916e-42 9.89e-42 -6.233e-42 -9.9e-42 -9.813e-42 9.823e-42
-9.903e-42 9.875e-42 -9.882e-42 9.812e-42 -9.83e-42 9.825e-42 9.853e-42 -9.839e-42
0.0937662 0.08743802 -0.022456199 -0.024031812 -0.11903618 -0.016148167 0.15556401 -0.0764822
0.013858715 -0.11616952 -0.20262997 0.007600255 -0.021650711 -0.01168869 0.058732264 0.1953655
0.01075033 -0.110788845 -0.0115414895 -0.10034026 -0.104679495 -0.0062051453 -0.053809673 -0.0039319634
0.12019608 -0.015775044 -0.23742549 0.07144555 0.1306781 0.07785114 0.18940373 -0.023346959
0.027334033 0.020289188 -0.053699423 -0.06547072 0.12372077 0.2918436 -0.09546354 0.11977689
-4.8605387e-05 -6.816292e-05 4.9492214e-06 5.1646123e-15 -0.000450844 -1.7057802e-22 -1.5540246e-08 -2.775103e-07
-6.3189214e-06 4.2611626e-11 -8.529724e-05 -8.080801e-05 -1.0873214e-06 3.5738078e-23 -1.1912823e-05 -9.016744e-06
2.5287858e-07 -2.8914075e-08 -3.0749404e-06 -4.5343854e-19 -7.940148e-06 -3.7596165e-10 1.6034599e-22 2.3468688e-12
-1.8244866e-06 -3.9631604e-21 2.353756e-06 7.155074e-23 -4.0105969e-10 -4.911866e-23 8.805549e-06 0.0004622794
8.8806446e-10 1.6808472e-23 6.7910817e-18 -1.0064578e-08 -2.576757e-05 -1.8243447e-22 2.600056e-06 -9.4453194e-23
0.19444123 -0.043956857 0.17308074 -0.05820311 -0.08624945 -0.042741064 -0.061266333 0.011526049
-0.14635032 -0.0447515 -0.057582926 -0.0313838 -0.0100265015 -0.009143493 0.050334394 -0.09662609
0.2667988 0.0017102386 -0.12091953 -0.086753026 -0.24134988 0.15911086 0.04282895 0.05992096
-0.08488301 0.013377861 -0.12541218 0.028172156 -0.019625166 0.008065736 -0.16872369 0.09617633
0.027026376 -0.013804098 0.029022507 -0.127155 0.038497347 -0.039371904 0.07176025 0.0035363338
0.11337933 -0.01354277 0.03961126 0.04252977 0.02220845 0.035571847 0.037450273 -0.07722993
-0.095196925 -0.07232898 -0.17051904 0.012027366 0.048566874 0.006362217 0.094703555 0.1775496
0.10318876 -0.01233031 0.0075096297 0.01701478 0.08587574 -0.118240096 -0.09821972 -0.14782497
0.004996084 0.09715013 0.13488372 -0.11207371 0.2109834 0.024414526 0.26283827 0.07054868
-0.14021179 0.0006264066 -0.20191315 0.10614462 -0.07589201 -0.17343937 -0.09284914 -0.05527117
-0.0001320464 -3.6242095e-06 -7.142624e-25 2.8574084e-11 -3.7372292e-08 1.0462912e-15 1.2203185e-07 -5.757047e-20
-1.719904e-05 4.1906454e-14 -5.3952353e-06 2.0425703e-06 4.771983e-10 -1.0043e-41 -1.5762293e-10 -1.4359579e-10

interaction_encoder.0.bias f4 [40]
00000000: f6a3 933c b59b d995 45d0 a6bd 7db9 c7ba
00000010: 30f8 db3d 9510 01be 6c21 d0b9 0214 d73d
00000020: 2e14 1b3d b284 b83d e36e 019c 77dc 94bd
00000030: 758e 0fbe 40ed a0bd 1381 2b3d c25b bebd
00000040: 9d57 5bbd 95cd e9b4 b96d 22b8 a377 0bbc
00000050: dd18 d4bd 518e bb3c 0885 7d3b 2d1c 5a3e
00000060: d178 87a2 a3b1 79bb 4ef3 b3bd 0f6e 0b3d
00000070: c900 623a 598b dcbc 5948 8fbc 63c3 993c
00000080: 5653 16bd 70a2 133c 4552 d2bd 1862 b8bc
00000090: 9f92 05be b395 edbd 0918 a7bd 5392 33be
0.018022519 -8.7891264e-26 -0.08145193 -0.0015237775 0.107406974 -0.12603982 -0.00039697753 0.10501863
0.03786104 0.090096846 -4.2825837e-22 -0.07268613 -0.14019187 -0.07857752 0.04187114 -0.09294845
-0.05355035 -4.3549213e-07 -3.8725997e-05 -0.00851241 -0.10356305 0.02289501 0.003868403 0.2129981
-3.6719743e-18 -0.0038100265 -0.08786641 0.034040507 0.0008621333 -0.026921915 -0.017490553 0.018769925
-0.03670057 0.009010896 -0.10269598 -0.022507712 -0.13044213 -0.116008185 -0.08158881 -0.17536287

interaction_encoder.2.weight f4 [20, 40]
00000000: 2264 1bbc 7c1b 0080 8e03 adbb 90d9 8419
00000010: b498 24bc 42c9 4abb 341c 0000 f175 843b
00000020: 20e1 5dbb 0ac0 01bb b11b 0000 0639 cabb
00000030: edfb b13b e33b 2e3a 33ed 403c f374 0ebb
00000040: c3eb d6bb 651c 0080 a41c 0080 5787 cfb5
00000050: 944e 2cbb 371a 033a 8dce abbb ebce 0d3b
00000060: a21d 0000 cdf0 643c b454 15ba 5046 c53a
00000070: e538 7f3b f525 c23b 6aca 4f3b ab14 5b3b
00000080: 889f bf3b 1d4c 533b cdc9 c8bb 2169 a03b
00000090: cd2f 39bc 092f eb3b 812c 9e39 9291 f8bb
000000a0: 78b8 ad3e c672 5e1e 7498 893d e093 2e39
000000b0: 31b7 4c3e 5988 ac3d 5649 0838 431d 2e3e
000000c0: 79a8 c1bd 470c a53d 8285 979b 3fe8 ba3e
000000d0: 717a 35be fa45 09bd 45cc c33d 067a 203e
000000e0: be2c e3bd dfc9 e434 0988 cd2f b3b3 a5bb
000000f0: 9e12 423d 174d 2bbe d47f 4ebe 5cce f93e
00000100: 751b 0080 a15f 153d 6654 70bd 4a43 65be
00000110: 6610 013e a437 003e 77f3 c1bd 9f5e 5ebe
00000120: c441 b5be b918 843e 112a 06bd 66e5 8abd
00000130: d6a3 cdbd e1ba c4bd 6d06 773e 7faf a63d
00000140: 8bda 37be e255 a0a3 dbfa 19be 7a6f c238
00000150: ddd0 59be 88ec 5cbe b3c4 8e39 c686 bdbd
00000160: 8991 fabd 66a7 03bd e65c d316 30d6 adbe
00000170: a1c5 3bbe f363 14be c142 91be e37c 1b3e
00000180: d490 0f3d 865b ee35 b090 96b1 15ed abbb
00000190: 7267 573c 1b9d 7f3d cdba 453d 5f9a 72be
000001a0: 775d fd17 4aa7 4e3d 7599 093d 0557 42be
000001b0: 50b0 6b3d 4b65 ddbd 3926 b2be 9576 f1bd
000001c0: 20e3 9bbe dbb2 8ebe 560d 57bc d042 d1bd
000001d0: b81a 36be 5268 08be e179 58be 40f0 3cbe
000001e0: 8b3e 6a3b 671b 0000 1934 6a3b 0a2a ce19
000001f0: 8df6 bd3b b2cc 5e3b 211d 0000 70ec 1abc
00000200: ad63 e63b 88c5 94ba c81b 0000 1708 053c
00000210: f389 2fbc b6d5 663b 547d f6bb 102a c53b
00000220: 4fb3 153c 911b 0080 2a1d 0080 fa03 8936
00000230: c634 373c 6b01 183a c547 173c ae48 a3bb
00000240: cc1d 0000 ee20 aebc 932b 03ba e185 ae3a
00000250: b9e8 85bb 32c1 8a3b e8a8 f2b9 2951 5c39
00000260: 5070 93bb 425b 513b 77bc 6b3b 668b b8bb
00000270: 1a23 e13b ef74 19bc 8cad 53bb 577e 2c3c
00000280: f94b 723d 5c6f d19f c040 01bd a5a8 b1b8
00000290: 3dd2 d73c 62ee 9f3a eeb0 8637 bc60 4dbd
000002a0: 9a9f 80be 1097 a0ba a182 1c83 e5f6 70bd
000002b0: 2401 41be 5533 37be ba88 09be 8484 f03d
000002c0: b2c8 443d ad28 87b1 0210 b7a5 f781 d83a
000002d0: 090a 2c3e aef5 a33e 29d9 ac3e f369 9dbe
000002e0: 821b 0000 6f33 ca3d 2289 34bd 3ac5 cebd
000002f0: 60a4 473d b7e6 e63c 9ac9 02bd 6936 13bd
00000300: f91a 403d a7a9 1fbe e2d0 8a3d 7657 833d
00000310: 9611 2b3e 2447 553e 5394 a13d 6512 893e
00000320: 5f48 f9bd 16b5 e610 faac 263e 0cd7 3438
00000330: ceaf 7e3d bdbf 7e3e 994e 95b8 666c 32be
00000340: 2280 fd3d c9f9 8cbe a316 0080 6409 e6bd
00000350: 4df9 f6bc c912 0e3e 0864 62be 234d a33e
00000360: 9989 deba 3149 1632 90fc 9927 25f3 3aba
00000370: dd8a a23c 9178 e4bd 2cce 973d 63b0 40be
00000380: 731b 0000 e241 c13c 33d9 2b3d 1e0c 733d
00000390: 965c 223e ec0e c6bd 08eb b13d a280 183e
000003a0: d570 36be 3f6a 143e c493 0ebd a80f d23d
000003b0: dafc 803d d84c 483e a62f 9d3d f9fc fd3b
000003c0: b5a7 d03d 921b 0080 73b6 a7bd 7ac0 1ead
000003d0: bc7c 343d e0fa 86bd 5e07 2d35 5e85 a6bc
000003e0: 8662 10be a57b 9e3d 5d1b 0000 9156 0b3d
000003f0: 1035 a3bd 751c 2abe 639e e63d d90a 5b3d
-0.009484323 -9.86e-42 -0.005279965 1.3736353e-23 -0.010046173 -0.0030942713 1.0117e-41 0.00404238
-0.0033856109 -0.0019798302 9.934e-42 -0.0061713485 0.005431643 0.0006646497 0.011775303 -0.0021737188
-0.0065588667 -1.0186e-41 -1.0274e-41 -1.5462091e-06 -0.0026291953 0.000500116 -0.0052431286 0.0021638225
1.063e-41 0.013973427 -0.00056965207 0.0015050862 0.0038943824 0.005924935 0.0031706342 0.0033429067
0.005847875 0.0032241412 -0.006127572 0.004895345 -0.0113029005 0.007177238 0.00030169266 -0.0075857127
0.339298 1.1776317e-20 0.06718531 0.00016649021 0.19991757 0.08424444 3.2493226e-05 0.1700335
-0.09455962 0.08058982 -2.5067132e-22 0.36505315 -0.17722489 -0.033514 0.09560446 0.15671548
-0.11092518 4.261519e-07 3.7385942e-10 -0.005056822 0.047381036 -0.16728626 -0.2016595 0.48790252
-9.85e-42 0.036468152 -0.05867424 -0.2238895 0.12603912 0.12521225 -0.09470265 -0.21715783
-0.35401738 0.25800112 -0.03275496 -0.067820355 -0.10041015 -0.09605957 0.24123545 0.08138942
-0.17954461 -1.7383608e-17 -0.150371 9.271405e-05 -0.21271081 -0.21574605 0.00027230903 -0.092542216
-0.1223479 -0.032142065 3.4147516e-25 -0.33952475 -0.18337108 -0.14491253 -0.28371242 0.15184359
0.03505023 1.7759019e-06 -4.3820236e-09 -0.0052467682 0.013147222 0.062405687 0.04827385 -0.236917
1.6373336e-24 0.050452508 0.033593614 -0.18978508 0.05754119 -0.10810336 -0.34794787 -0.11790196
-0.3044672 -0.2787083 -0.013125738 -0.102178216 -0.1778363 -0.13321045 -0.21140243 -0.18451023
0.0035742845 9.83e-42 0.003573662 2.131688e-23 0.0057972134 0.003399652 1.045e-41 -0.009455785
0.0070309252 -0.0011350373 9.966e-42 0.008119605 -0.010714042 0.0035222596 -0.0075222645 0.006016977
0.009136989 -9.889e-42 -1.0462e-41 4.083381e-06 0.011182016 0.0005798551 0.00923342 -0.0049830293
1.0689e-41 -0.021255936 -0.00050037465 0.0013315046 -0.0040865806 0.0042344565 -0.00046283682 0.0002101107
-0.0044994727 0.0031945263 0.0035970488 -0.005631852 0.0068706395 -0.009366258 -0.0032299487 0.010528169
0.059154484 -8.869917e-20 -0.03155589 -8.47143e-05 0.026345367 0.0012201781 1.6056434e-05 -0.05014108
-0.25121766 -0.0012252051 -4.5994234e-37 -0.058829207 -0.18848091 -0.17890675 -0.13431063 0.11744025
0.04804296 -3.9336414e-09 -3.1756287e-16 0.0016518225 0.16800703 0.32023376 0.3375943 -0.30744895
9.868e-42 0.098730914 -0.044076093 -0.10096212 0.048740745 0.028186185 -0.031930543 -0.03594056
0.046900723 -0.15592061 0.067781225 0.06413166 0.16705927 0.20827919 0.07889619 0.26771846
-0.12172007 9.099801e-29 0.16276923 4.3115622e-05 0.06217938 0.2487783 -7.1195136e-05 -0.17424163
0.12377955 -0.2753432 -8.12e-42 -0.1123226 -0.030148173 0.13874353 -0.22108471 0.31894788
-0.0016978263 8.747791e-09 4.273986e-15 -0.0007131568 0.019841606 -0.11155809 0.07412371 -0.18817286
9.847e-42 0.023590986 0.041955184 0.059337728 0.15855631 -0.09670815 0.08687407 0.1489282
-0.1781648 0.14493655 -0.03480889 0.102568924 0.062982276 0.19560564 0.07675104 0.007751104
0.101882376 -9.89e-42 -0.08189096 -9.0239986e-12 0.04406427 -0.06590819 6.445824e-07 -0.020327266
-0.14100084 0.07738427 9.816e-42 0.034018103 -0.07969105 -0.16612418 0.112606786 0.053477142

interaction_encoder.2.bias f4 [20]
00000000: 59a8 d93a 42c8 82bd ad87 8d3e a7a2 01bb
00000010: 4e20 12bd 99ef 9ebc d862 8b3d eee9 cd3a
00000020: 112c 4abd ba20 f7bd aad9 1fbc 1a66 723a
00000030: 5b16 4c3d d755 11bb 3197 eb3c e4e0 f6bc
00000040: c8ac 683a e007 543c 2134 d9bd d6b8 0fbd
0.0016605958 -0.063858524 0.27642575 -0.0019780786 -0.03567534 -0.019401358 0.06805962 0.0015709975
-0.04935843 -0.12066789 -0.009756485 0.00092467817 0.049826007 -0.0022176409 0.028758617 -0.030136533
0.0008875844 0.012941331 -0.10605646 -0.035088383

sinkhorn_feature_layers.0.weight f4 [16, 20]
00000000: 5e5c 31b5 3617 b2b5 73bf abb2 050b 942f
00000010: ef8a f2b4 9d41 1b30 5923 28b3 3c15 b2ae
00000020: 0601 09b5 26c4 49b1 7bbf 2db4 5e73 4736
00000030: 94eb 95b3 5a50 91af a229 98b4 0a7d 73b4
00000040: e75b bbb3 9a3e c0b3 1bf0 99b4 dbc5 a3b0
00000050: 767b a1bd 71b2 763e a919 003e 611f de3d
00000060: 677e 963d 325f 4b3c 45eb 7c3e eda5 64be
00000070: caa2 f6bd 562d e1bd 83f5 8cbd 8351 febc
00000080: c12a a0bd 157d 043d e1eb 0abd 3fc3 ae3e
00000090: a9ec dfbd 3bf1 bbbd 61f4 bdbd b19c d2bd
000000a0: 4e3f 54be 9f9e 533c 644b 0fbe cbd8 96bd
000000b0: 02f3 8c3e 6279 33bd 3f0d e1bd d294 a1bd
000000c0: 7cc0 e93e ed9a 57be 5fa3 473e ab4e 2d3e
000000d0: 74b2 36be 229d 32bd 20f6 203e 0285 833b
000000e0: a7d2 963d 89d0 52be 4ddf 513e 6196 0c3e
000000f0: a924 013d b5b3 6f3e af22 bfbd e162 3bbe
00000100: 82ff 1fbe 8dd3 89bd 9c91 c13d e764 04be
00000110: e31b b93e c91c 1c3e 10b6 1ebd f518 a03c
00000120: 0e88 463e f38c e63c 9553 fabe 12d6 3c3e
00000130: b199 f33d 0003 8ebd fe1c 96bc 781f c23d
00000140: 6d7c 6ab4 d286 14b4 1285 06b3 df27 2633
00000150: 0ed2 f5b3 ea7c d132 74e8 b0b3 d9ee 49b2
00000160: 1b9a 13b4 1d29 0bb3 5a7e 0bb4 843f 7735
00000170: 4414 80b3 a661 6c30 fa6e 9bb4 850a beb3
00000180: adb3 06b4 7f19 a8b3 c18b 04b4 8be2 3eb2
00000190: 2077 b73e afee dfbe 1486 183e 046e 403c
000001a0: bb12 0bbd ae05 acbd 71e1 59be 3164 0d3a
000001b0: 3c54 2a3e a429 01ba 6129 e23d fe7f 96bd
000001c0: 2861 f9bd 2e46 af3c 9b66 e23c 9abe e4bd
000001d0: 77c7 ab3e 962d da3d 1363 2a3c 66dd d43d
000001e0: e775 ba3c 7732 55be 9304 91bd 30c4 753d
000001f0: ca94 933e 3954 7abd 7d07 003e c76d d13d
00000200: 239a 223b 8ea3 18be 511e ad3e a0b5 eabd
00000210: 739b a5bd 5d6a dd3c 0657 113b e975 a03e
00000220: d6ae 01bf 7337 4c3e 10a4 e4bd c8f0 453d
00000230: fd0e 7837 0f9b 1fb6 f318 04ac a4f1 9621
00000240: 698a 32b4 cd2d bf14 4311 1fab bf24 0729
00000250: 5448 83b7 db85 961d cdfe fdb3 046e 9c37
00000260: 3856 fbb4 b71b 0080 a64e 05b4 5e74 edaf
00000270: 0c98 8937 961c 222c 97ed 39b3 08e7 d626
00000280: c0e9 6ab9 85d3 69b9 35cf 8036 1ce0 2333
00000290: ad37 84b8 9174 0a2e 0f28 fd34 db80 c7b1
000002a0: 08cb 0537 0692 3732 06fe efb9 dc6b 82b9
000002b0: d132 7e36 5c0c 0280 182e 2fb9 9402 30b8
000002c0: d392 a8b8 2643 4db5 a3b2 20b8 deb1 902f
000002d0: a15d 4db8 2327 95b8 bec0 d8b2 467e e0ac
000002e0: 6efe 0eb8 a75f f2a5 7587 53b3 266a b9af
000002f0: e52e b3b8 2def 3bb0 046f 99b7 f30b 4039
00000300: 5b74 17b5 2e50 1917 810a 19b4 5ef2 0bb3
00000310: 1420 21b7 c3cb 80b2 9e06 1d37 4e92 05af
00000320: c0ed 5cbe 8e3a 913e 13f3 2c3e 4625 c93c
00000330: c2e8 3d3e f302 933b d34d 0d3b 774d 143e
00000340: 4109 8abe c087 313d 0744 583e a1c2 0abe
00000350: 70a0 0c3d 3b65 33bd 1e50 f6bc 9618 c0bd
00000360: eafa 0cbe a19b 4bbd 544b bebd 4205 47bd
00000370: 878f 0c99 2dd9 9d9e 5618 9206 bc97 0287
00000380: c4e7 ba9d 73e1 8605 1077 7385 a99d 0f86
00000390: 2ec4 27a3 4ab7 1e86 38c3 2b15 c973 e825
000003a0: 5bee 3807 6642 1b86 983f 60a0 618f 2a87
000003b0: 9491 3a8a aa00 4686 8857 0407 c336 5986
000003c0: 9aae a83e cde1 0f3d 2f2e 88bd 401d b63d
000003d0: 0ca3 fb3b 7978 6fbd e537 5a3e bf29 79be
000003e0: 948e 37bd e2a3 09be 872c 11be 49ad 91bc
000003f0: 16ad a3be 8fd4 18bb 7660 bd3d 1fcc 0d3f
-6.607205e-07 -1.3268789e-06 -1.9994081e-08 2.6928873e-10 -4.51771e-07 5.6481914e-10 -3.9147697e-08 -8.098275e-11
-5.1037966e-07 -2.9360847e-09 -1.6181541e-07 2.9720463e-06 -6.9812046e-08 -2.643244e-10 -2.8342498e-07 -2.2676628e-07
-8.724583e-08 -8.952084e-08 -2.867317e-07 -1.1916045e-09 -0.078848764 0.24091507 0.12509789 0.10845829
0.07348328 0.012412833 0.24699123 -0.2232892 -0.12042768 -0.10994975 -0.06882765 -0.031044727
-0.07820655 0.03234585 -0.033916358 0.34133336 -0.10933811 -0.091768704 -0.09275127 -0.10283793
-0.20727274 0.012916236 -0.13993603 -0.07365569 0.2752915 -0.04381693 -0.109888546 -0.07889713
0.45654666 -0.21055193 0.19495915 0.1692454 -0.17841512 -0.043606885 0.15718889 0.0040136585
0.073643975 -0.20587362 0.20495339 0.1372924 0.031529102 0.23408397 -0.09332787 -0.18299438
-0.15624812 -0.06729803 0.09451601 -0.12929116 0.36154088 0.15245356 -0.038747847 0.01954315
0.19387838 0.028143382 -0.48891893 0.18441036 0.11894549 -0.06934166 -0.018324371 0.094786584
-2.1838214e-07 -1.3832621e-07 -3.1320333e-08 3.868615e-08 -1.144691e-07 2.4387607e-08 -8.2379216e-08 -1.17540475e-08
-1.3746505e-07 -3.2400852e-08 -1.299135e-07 9.21071e-07 -5.964151e-08 8.5995067e-10 -2.8951746e-07 -8.849478e-08
-1.2545088e-07 -7.827747e-08 -1.23443e-07 -1.11109655e-08 0.35833073 -0.4373679 0.14894897 0.01174498
-0.03395341 -0.08399521 -0.21277405 0.0005393653 0.16633695 -0.00049271644 0.11043049 -0.07348631
-0.12176734 0.021395769 0.027636817 -0.11169167 0.33550617 0.10653226 0.010399598 0.10393791
0.022761298 -0.20820032 -0.070809506 0.060001552 0.28824455 -0.061115477 0.12502857 0.102260165
0.002481111 -0.14906141 0.33812192 -0.114604235 -0.0808629 0.027028257 0.0022177114 0.31339958
-0.50657403 0.19943027 -0.11164105 0.04832533 1.4785442e-05 -2.3783102e-06 -1.8772178e-12 1.0228357e-18
-1.6627895e-07 1.9304137e-26 -5.6512103e-13 3.0007894e-14 -1.5650097e-05 3.9843073e-21 -1.18275786e-07 1.864788e-05
-4.6815126e-07 -9.942e-42 -1.2415202e-07 -4.3192733e-10 1.6402475e-05 2.3037453e-12 -4.3289756e-08 1.4911854e-15
-0.00022403058 -0.00022299409 3.8388193e-06 3.815522e-08 -6.304621e-05 3.14811e-11 4.715407e-07 -5.8063114e-09
7.97469e-06 1.0685204e-08 -0.00045774895 -0.00024875894 3.7878528e-06 -1.88105e-40 -0.00016706472 -4.196407e-05
-8.0382124e-05 -7.6466165e-07 -3.831334e-05 2.631983e-10 -4.8963007e-05 -7.1121634e-05 -2.5233359e-08 -6.380482e-12
-3.4092394e-05 -4.2045125e-16 -4.9250463e-08 -3.3726727e-10 -8.54412e-05 -6.8370093e-10 -1.8290717e-05 0.00018314998
-5.6421203e-07 4.9538167e-25 -1.4253057e-07 -3.258389e-08 -9.603817e-06 -1.4993821e-08 9.35947e-06 -1.2148257e-10
-0.2157507 0.28364986 0.168896 0.024553906 0.18545821 0.0044864356 0.002156128 0.14482675
-0.26960185 0.043342352 0.211197 -0.13550808 0.034332693 -0.043797713 -0.0300675 -0.093796894
-0.13767591 -0.049708966 -0.092917114 -0.048589 -7.2668155e-24 -1.6712843e-20 5.4954855e-35 -9.824704e-35
-4.947343e-21 1.2684116e-35 -1.14476734e-35 -2.701114e-35 -9.094631e-18 -2.9851157e-35 3.4687175e-26 4.0324044e-16
1.3912668e-34 -2.9201042e-35 -1.899458e-19 -1.2831514e-34 -8.9829544e-33 -3.724015e-35 9.956299e-35 -4.0853396e-35
0.3294571 0.03512745 -0.06649434 0.08892298 0.007679349 -0.0584645 0.21310385 -0.24332331
-0.044813707 -0.13441423 -0.14177142 -0.017782824 -0.31967992 -0.0023320054 0.09246914 0.5538959
