paper_artifacts/collection/gmn_iterative_refinement_scoring=sinkhorn_pp=lrl___tp=sinkhorn_pp=lrl_when=pre___unify=true_T=3_K=10/trained_models/gmn_iterative_refinement_scoring=sinkhorn_pp=lrl___tp=sinkhorn_pp=lrl_when=pre___unify=true_T=3_K=10_ptc_mm_large_dataset_seed_7762_2024-05-01_18:29:14.pth (torch, 16111 bytes, 22 tensors)

encoder.MLP1.0.weight f4 [10, 1]
0	0x3d677726	0.056510113
1	0xb9b8a1a5	-0.0003521565
2	0xbd046920	-0.032326818
3	0x3e86317d	0.26209632
4	0xbdc72cda	-0.09725352
5	0xbd9c6af9	-0.07637591
6	0x3dc3fa8d	0.09569273
7	0x3e247b52	0.16062668
8	0x3d62ba10	0.055353224
9	0xbd8276b8	-0.063703

encoder.MLP1.0.bias f4 [10]
0	0x3d677731	0.056510154
1	0xb9b8a5aa	-0.00035218644
2	0xbd04691f	-0.032326814
3	0x3e86317c	0.2620963
4	0xbdc72cd3	-0.097253464
5	0xbd9c6af1	-0.07637585
6	0x3dc3fa92	0.09569277
7	0x3e247b55	0.16062672
8	0x3d62ba0e	0.055353217
9	0xbd8276ab	-0.0637029

prop_layer._message_net.0.weight f4 [20, 21]
0	0x3e287958	0.16452539
1	0xbe002d07	-0.12517177
2	0xbdc8beff	-0.098020546
3	0x3c40a04d	0.011756969
4	0xbe433a76	-0.1906527
5	0xbdf6c5fd	-0.12049482
6	0xbdad53df	-0.08463263
7	0xbe28a630	-0.16469646
8	0xbcd366db	-0.025805881
9	0x3e767add	0.24070306
10	0xbd49140b	-0.04909138
11	0xbe2ab608	-0.16671002
12	0xbd959064	-0.07302931
13	0x3e667963	0.22507243
14	0xbd7acd75	-0.061231095
15	0xbddcd27f	-0.107823364
16	0xbd2209c1	-0.039560083
17	0xbd835624	-0.064129144
18	0xbd84ce5c	-0.064846724
19	0x3e463e3a	0.19359675
20	0x3d4e2022	0.050323613
21	0x3e1e2a3b	0.15445797
22	0xbddf6cb8	-0.10909408
23	0x3daa379d	0.08311389
24	0x3cc2f7ea	0.023799855
25	0x3eb26ecc	0.34850156
26	0x3dcff5c1	0.10154296
27	0x3d5d2b47	0.05399635
28	0xbda0af7f	-0.07845973
29	0x3df1077a	0.11769004
30	0x3e0a2fb9	0.13494767
31	0xbe01d371	-0.12678315
32	0xbe7f9450	-0.2495892
33	0xbd744c2e	-0.059642963
34	0xbdf21625	-0.1182063
35	0x3c05ad56	0.008159002
36	0xbd8b8fde	-0.0681455
37	0x3d01bd4a	0.03167466
38	0xbd6e3450	-0.058155358
39	0xbe1239ec	-0.14279908
40	0x3c872000	0.016494751
41	0xbdc6b0d6	-0.097016975
42	0x3e948a22	0.29011637
43	0xbe181ee3	-0.14855532
44	0xbdd08c46	-0.10183005
45	0xbec82034	-0.3908707
46	0xbf17434b	-0.59087056
47	0xbe938897	-0.28815147
48	0x3eb282a4	0.34865296
49	0xbe8b319b	-0.27186283
50	0xbeaed866	-0.34149474
51	0x3dc1327f	0.094334595
52	0x3e38ecbc	0.18059057
53	0xbddc7973	-0.10765352
54	0xbd91d88a	-0.0712138
55	0x3e358021	0.17724659
56	0x3e2d218b	0.16907327
57	0xbe1d180b	-0.15341203
58	0x3df2677e	0.11836146
59	0x3e008dd0	0.12554097
60	0xbd502aa3	-0.05082191
61	0xbcb4581d	-0.022014672
62	0xbe9a22d0	-0.30104685
63	0x3ac04dfd	0.001467168
64	0x3b0cff57	0.00215145
65	0x3af935ab	0.0019013187
66	0xb9bcc587	-0.00036005324
67	0xbb69766b	-0.003562356
68	0xbb21635e	-0.0024625878
69	0xbae91c78	-0.0017784974
70	0xba3e751d	-0.0007265376
71	0xbb9c191d	-0.004763736
72	0x39b6308d	0.00034749918
73	0xbadacc2f	-0.0016692932
74	0xbb03107a	-0.0019998834
75	0x3b5fcdb1	0.0034149701
76	0xbb216a40	-0.002462998
77	0xbada7bbe	-0.0016668958
78	0xb8c0997c	-9.183862e-05
79	0x3ada0dd9	0.0016636207
80	0xb9eb0fba	-0.0004483441
81	0xbb521bdd	-0.0032060065
82	0xbb55e064	-0.0032634968
83	0x3b497cb6	0.00307445
84	0xbb0f4492	-0.002186094
85	0xbb8e6acb	-0.004346227
86	0x3b64320b	0.0034819867
87	0xbb0e88d7	-0.0021749043
88	0xbbc493df	-0.005999073
89	0xbb1b2aa4	-0.002367654
90	0xbc4e23e6	-0.012581801
91	0xbba36f75	-0.004987652
92	0xbbfaa98f	-0.0076496075
93	0x3b782326	0.0037862747
94	0x3957cc9f	0.00020580225
95	0x3aee32b2	0.0018173067
96	0xbaa08ffa	-0.001224994
97	0xbac25eec	-0.0014829314
98	0xbb71bba0	-0.0036885515
99	0x3b39dd35	0.002836061
100	0xbb8158c5	-0.0039473497
101	0xb9d5470d	-0.00040679463
102	0xbc015f88	-0.007896312
103	0xbbd05e41	-0.006358892
104	0x3aed84ab	0.0018121203
105	0x3e9631d0	0.2933488
106	0x3e1d3359	0.15351619
107	0xbeb50835	-0.35357824
108	0xbe4ebb83	-0.20188718
109	0x3e8a76d9	0.270438
110	0x3d11e43a	0.035618044
111	0xbe586ab9	-0.21134461
112	0xbe8fb8f2	-0.2807079
113	0xbe07cb97	-0.13261257
114	0x3d0c3a56	0.03423532
115	0x3ed3b65b	0.41350064
116	0xbe731778	-0.23739421
117	0x3e83022b	0.25587592
118	0xbeb806e0	-0.35942745
119	0xbe41e450	-0.1893475
120	0xbd84500a	-0.06460579
121	0x3e49a3c8	0.19691384
122	0xbe0cbb18	-0.13743246
123	0xbd2d4e58	-0.042311043
124	0x3c948f41	0.018134715
125	0x3e505513	0.20344953
126	0x3b2ad8d2	0.0026069176
127	0xbb5c4d29	-0.0033615327
128	0x3b3d4efa	0.0028886185
129	0xbab45fc7	-0.0013761454
130	0x3b7a2b5b	0.0038172815
131	0x3b520a72	0.0032049683
132	0x3a67eaa0	0.00088469125
133	0xbb989ea7	-0.0046575847
134	0xb9aea191	-0.00033308243
135	0xbb3ee687	-0.0029129104
136	0x3a38543c	0.0007031595
137	0xbb8e99fc	-0.0043518525
138	0x3b898e07	0.004197839
139	0xbbb66cf2	-0.0055671865
140	0xbb9449bf	-0.004525393
141	0xb91baffb	-0.0001484751
142	0x3aa2497e	0.0012381522
143	0x3a914fd2	0.001108641
144	0xbbeeb883	-0.007285179
145	0xbad3209a	-0.0016107738
146	0x3b224792	0.0024761898
147	0xbeb8db85	-0.3610498
148	0xbdd4aa48	-0.10384041
149	0x3ee69f9a	0.4504364
150	0x3ebdfea1	0.3710833
151	0xbe78abaa	-0.24284235
152	0xbeca373b	-0.39495263
153	0x3e802b38	0.25032973
154	0xbcc55ecc	-0.024093054
155	0xbd51614e	-0.051118188
156	0x3d306a9e	0.043070428
157	0x3cc445ef	0.023959128
158	0xbda12882	-0.078690544
159	0xbe8bcd0d	-0.2730488
160	0xbe8eed37	-0.27915356
161	0xbd9757e9	-0.073898144
162	0xbe18dc35	-0.14927752
163	0xbe9bd743	-0.3043767
164	0xbe2e3e17	-0.17015873
165	0x3d034226	0.032045506
166	0x3e38b2a1	0.18036892
167	0x3d847731	0.064680465
168	0xbb13443e	-0.0022471095
169	0x3a47a548	0.00076158764
170	0xbb6d26a9	-0.0036186373
171	0x3a7b2117	0.0009579821
172	0x3b6d3069	0.0036192185
173	0x3b3c4af9	0.002873121
174	0x3b9e5be5	0.004832732
175	0x3b6e879c	0.0036396747
176	0x3bca0e2c	0.00616624
177	0xb9ccd3e2	-0.00039067777
178	0xb81d2851	-3.7469264e-05
179	0x3accb56f	0.0015618036
180	0xbb270fd9	-0.0025491624
181	0x3b8e7fb2	0.0043487186
182	0x3ab360e6	0.0013685494
183	0x3a7a0a21	0.00095382525
184	0x3a56aeff	0.00081895286
185	0x3b177034	0.002310765
186	0x3bd43aae	0.0064767217
187	0x3ae46c06	0.0017427213
188	0xbb6ad9bd	-0.0035835349
189	0xb8f17635	-0.00011513793
190	0xbab63a82	-0.0013902935
191	0x3aebb49a	0.0017982901
192	0xbb7e45ed	-0.0038799003
193	0xbbeb0e35	-0.0071733245
194	0xbc0934a2	-0.008374365
195	0xbb490b37	-0.003067685
196	0x3b385426	0.0028126328
197	0xbc4d44dd	-0.012528625
198	0xb858f053	-5.1722232e-05
199	0xbb495c89	-0.0030725321
200	0x3b4dfb95	0.0031430472
201	0x3bbab0aa	0.0056973295
202	0xbaa80ec1	-0.001282178
203	0xb9353f6c	-0.00017285132
204	0x3b23d5a2	0.0024999161
205	0xbb131609	-0.0022443554
206	0x3b372890	0.002794776
207	0x3bd3fd78	0.006469425
208	0xbbee14f3	-0.007265681
209	0xba272adc	-0.0006376931
210	0xba81b0d7	-0.0009894621
211	0xbb80fbe6	-0.0039362786
212	0x3ac20029	0.0014801073
213	0xba86e8f6	-0.0010292816
214	0xbbe4b2e0	-0.0069793314
215	0xbb019e5d	-0.001977823
216	0xbc28d131	-0.010303781
217	0xbbd21bf2	-0.0064120227
218	0xbc2bab6a	-0.01047788
219	0x3b0dcfac	0.0021638675
220	0xb9ac6f16	-0.00032889162
221	0x3b312171	0.002702799
222	0xb9dac98c	-0.00041730364
223	0xbb3eca35	-0.0029112224
224	0xbb3d6dc0	-0.0028904527
225	0x3b567bb1	0.0032727534
226	0xbb81c020	-0.0039596707
227	0xbab98a32	-0.0014155565
228	0xbbfb6ca0	-0.007672861
229	0xbb966643	-0.0045898273
230	0x3ae595d5	0.0017515967
231	0xbb084cc4	-0.002079771
232	0x3b93ca3e	0.004510193
233	0x3b4b128c	0.0030986397
234	0x3859f2d7	5.1962994e-05
235	0x38c41cff	9.351409e-05
236	0xbb713736	-0.003680659
237	0x3a1fc6f8	0.00060950173
238	0x3ba0ff2b	0.004913231
239	0x379a235f	1.8374702e-05
240	0x3abbe6b7	0.0014335726
241	0x3a46886a	0.0007573428
242	0x3b07aee6	0.0020703613
243	0x379a7052	1.8410534e-05
244	0x3b9d9a4c	0.0048096534
245	0x3b7ee75a	0.003889522
246	0xbbb6611e	-0.0055657765
247	0xba2924e5	-0.0006452336
248	0xbb7a5dd1	-0.0038202892
249	0x3a604287	0.0008554835
250	0xba35b5c8	-0.00069316896
251	0x3b290fb1	0.0025796706
252	0x3ded02d9	0.11572809
253	0xbd31f59d	-0.043447126
254	0xbe86474d	-0.26226273
255	0x3f069969	0.52577835

prop_layer._message_net.0.bias f4 [20]
0	0x3d37aebb	0.04484437
1	0xbdc23c40	-0.09484148
2	0xbe966091	-0.2937055
3	0x3b497cc1	0.0030744525
4	0x3aed855a	0.0018121407
5	0x3e5dcac8	0.21659386
6	0x3b224666	0.00247612
7	0x3d8c3737	0.06846469
8	0xbb6ad8c8	-0.0035834778
9	0xba27231f	-0.0006375778
10	0x3ae594fa	0.0017515712
11	0x3b290f0a	0.0025796317
12	0x3e19213f	0.14954089
13	0x3d640604	0.0556698
14	0x3e14e80a	0.14541641
15	0x3b96c78e	0.0046014255
16	0xbb0ed1d8	-0.0021792557
17	0x3e5accb1	0.21367146
18	0xbc36b5da	-0.011151755
19	0xba1c7c90	-0.0005969489

prop_layer._reverse_message_net.0.weight f4 [20, 21]
0	0x3e287958	0.16452539
1	0xbe002d07	-0.12517177
2	0xbdc8beff	-0.098020546
3	0x3c40a04d	0.011756969
4	0xbe433a76	-0.1906527
5	0xbdf6c5fd	-0.12049482
6	0xbdad53df	-0.08463263
7	0xbe28a630	-0.16469646
8	0xbcd366db	-0.025805881
9	0x3e767add	0.24070306
10	0xbd49140b	-0.04909138
11	0xbe2ab608	-0.16671002
12	0xbd959064	-0.07302931
13	0x3e667963	0.22507243
14	0xbd7acd75	-0.061231095
15	0xbddcd27f	-0.107823364
16	0xbd2209c1	-0.039560083
17	0xbd835624	-0.064129144
18	0xbd84ce5c	-0.064846724
19	0x3e463e3a	0.19359675
20	0x3d4e2022	0.050323613
21	0x3e1e2a3b	0.15445797
22	0xbddf6cb8	-0.10909408
23	0x3daa379d	0.08311389
24	0x3cc2f7ea	0.023799855
25	0x3eb26ecc	0.34850156
26	0x3dcff5c1	0.10154296
27	0x3d5d2b47	0.05399635
28	0xbda0af7f	-0.07845973
29	0x3df1077a	0.11769004
30	0x3e0a2fb9	0.13494767
31	0xbe01d371	-0.12678315
32	0xbe7f9450	-0.2495892
33	0xbd744c2e	-0.059642963
34	0xbdf21625	-0.1182063
35	0x3c05ad56	0.008159002
36	0xbd8b8fde	-0.0681455
37	0x3d01bd4a	0.03167466
38	0xbd6e3450	-0.058155358
39	0xbe1239ec	-0.14279908
40	0x3c872000	0.016494751
41	0xbdc6b0d6	-0.097016975
42	0x3e948a22	0.29011637
43	0xbe181ee3	-0.14855532
44	0xbdd08c46	-0.10183005
45	0xbec82034	-0.3908707
46	0xbf17434b	-0.59087056
47	0xbe938897	-0.28815147
48	0x3eb282a4	0.34865296
49	0xbe8b319b	-0.27186283
50	0xbeaed866	-0.34149474
51	0x3dc1327f	0.094334595
52	0x3e38ecbc	0.18059057
53	0xbddc7973	-0.10765352
54	0xbd91d88a	-0.0712138
55	0x3e358021	0.17724659
56	0x3e2d218b	0.16907327
57	0xbe1d180b	-0.15341203
58	0x3df2677e	0.11836146
59	0x3e008dd0	0.12554097
60	0xbd502aa3	-0.05082191
61	0xbcb4581d	-0.022014672
62	0xbe9a22d0	-0.30104685
63	0x3ac04dfd	0.001467168
64	0x3b0cff57	0.00215145
65	0x3af935ab	0.0019013187
66	0xb9bcc587	-0.00036005324
67	0xbb69766b	-0.003562356
68	0xbb21635e	-0.0024625878
69	0xbae91c78	-0.0017784974
70	0xba3e751d	-0.0007265376
71	0xbb9c191d	-0.004763736
72	0x39b6308d	0.00034749918
73	0xbadacc2f	-0.0016692932
74	0xbb03107a	-0.0019998834
75	0x3b5fcdb1	0.0034149701
76	0xbb216a40	-0.002462998
77	0xbada7bbe	-0.0016668958
78	0xb8c0997c	-9.183862e-05
79	0x3ada0dd9	0.0016636207
80	0xb9eb0fba	-0.0004483441
81	0xbb521bdd	-0.0032060065
82	0xbb55e064	-0.0032634968
83	0x3b497cb6	0.00307445
84	0xbb0f4492	-0.002186094
85	0xbb8e6acb	-0.004346227
86	0x3b64320b	0.0034819867
87	0xbb0e88d7	-0.0021749043
88	0xbbc493df	-0.005999073
89	0xbb1b2aa4	-0.002367654
90	0xbc4e23e6	-0.012581801
91	0xbba36f75	-0.004987652
92	0xbbfaa98f	-0.0076496075
93	0x3b782326	0.0037862747
94	0x3957cc9f	0.00020580225
95	0x3aee32b2	0.0018173067
96	0xbaa08ffa	-0.001224994
97	0xbac25eec	-0.0014829314
98	0xbb71bba0	-0.0036885515
99	0x3b39dd35	0.002836061
100	0xbb8158c5	-0.0039473497
101	0xb9d5470d	-0.00040679463
102	0xbc015f88	-0.007896312
103	0xbbd05e41	-0.006358892
104	0x3aed84ab	0.0018121203
105	0x3e9631d0	0.2933488
106	0x3e1d3359	0.15351619
107	0xbeb50835	-0.35357824
108	0xbe4ebb83	-0.20188718
109	0x3e8a76d9	0.270438
110	0x3d11e43a	0.035618044
111	0xbe586ab9	-0.21134461
112	0xbe8fb8f2	-0.2807079
113	0xbe07cb97	-0.13261257
114	0x3d0c3a56	0.03423532
115	0x3ed3b65b	0.41350064
116	0xbe731778	-0.23739421
117	0x3e83022b	0.25587592
118	0xbeb806e0	-0.35942745
119	0xbe41e450	-0.1893475
120	0xbd84500a	-0.06460579
121	0x3e49a3c8	0.19691384
122	0xbe0cbb18	-0.13743246
123	0xbd2d4e58	-0.042311043
124	0x3c948f41	0.018134715
125	0x3e505513	0.20344953
126	0x3b2ad8d2	0.0026069176
127	0xbb5c4d29	-0.0033615327
128	0x3b3d4efa	0.0028886185
129	0xbab45fc7	-0.0013761454
130	0x3b7a2b5b	0.0038172815
131	0x3b520a72	0.0032049683
132	0x3a67eaa0	0.00088469125
133	0xbb989ea7	-0.0046575847
134	0xb9aea191	-0.00033308243
135	0xbb3ee687	-0.0029129104
136	0x3a38543c	0.0007031595
137	0xbb8e99fc	-0.0043518525
138	0x3b898e07	0.004197839
139	0xbbb66cf2	-0.0055671865
140	0xbb9449bf	-0.004525393
141	0xb91baffb	-0.0001484751
142	0x3aa2497e	0.0012381522
143	0x3a914fd2	0.001108641
144	0xbbeeb883	-0.007285179
145	0xbad3209a	-0.0016107738
146	0x3b224792	0.0024761898
147	0xbeb8db85	-0.3610498
148	0xbdd4aa48	-0.10384041
149	0x3ee69f9a	0.4504364
150	0x3ebdfea1	0.3710833
151	0xbe78abaa	-0.24284235
152	0xbeca373b	-0.39495263
153	0x3e802b38	0.25032973
154	0xbcc55ecc	-0.024093054
155	0xbd51614e	-0.051118188
156	0x3d306a9e	0.043070428
157	0x3cc445ef	0.023959128
158	0xbda12882	-0.078690544
159	0xbe8bcd0d	-0.2730488
160	0xbe8eed37	-0.27915356
161	0xbd9757e9	-0.073898144
162	0xbe18dc35	-0.14927752
163	0xbe9bd743	-0.3043767
164	0xbe2e3e17	-0.17015873
165	0x3d034226	0.032045506
166	0x3e38b2a1	0.18036892
167	0x3d847731	0.064680465
168	0xbb13443e	-0.0022471095
169	0x3a47a548	0.00076158764
170	0xbb6d26a9	-0.0036186373
171	0x3a7b2117	0.0009579821
172	0x3b6d3069	0.0036192185
173	0x3b3c4af9	0.002873121
174	0x3b9e5be5	0.004832732
175	0x3b6e879c	0.0036396747
176	0x3bca0e2c	0.00616624
177	0xb9ccd3e2	-0.00039067777
178	0xb81d2851	-3.7469264e-05
179	0x3accb56f	0.0015618036
180	0xbb270fd9	-0.0025491624
181	0x3b8e7fb2	0.0043487186
182	0x3ab360e6	0.0013685494
183	0x3a7a0a21	0.00095382525
184	0x3a56aeff	0.00081895286
185	0x3b177034	0.002310765
186	0x3bd43aae	0.0064767217
187	0x3ae46c06	0.0017427213
188	0xbb6ad9bd	-0.0035835349
189	0xb8f17635	-0.00011513793
190	0xbab63a82	-0.0013902935
191	0x3aebb49a	0.0017982901
192	0xbb7e45ed	-0.0038799003
193	0xbbeb0e35	-0.0071733245
194	0xbc0934a2	-0.008374365
195	0xbb490b37	-0.003067685
196	0x3b385426	0.0028126328
197	0xbc4d44dd	-0.012528625
198	0xb858f053	-5.1722232e-05
199	0xbb495c89	-0.0030725321
200	0x3b4dfb95	0.0031430472
201	0x3bbab0aa	0.0056973295
202	0xbaa80ec1	-0.001282178
203	0xb9353f6c	-0.00017285132
204	0x3b23d5a2	0.0024999161
205	0xbb131609	-0.0022443554
206	0x3b372890	0.002794776
207	0x3bd3fd78	0.006469425
208	0xbbee14f3	-0.007265681
209	0xba272adc	-0.0006376931
210	0xba81b0d7	-0.0009894621
211	0xbb80fbe6	-0.0039362786
212	0x3ac20029	0.0014801073
213	0xba86e8f6	-0.0010292816
214	0xbbe4b2e0	-0.0069793314
215	0xbb019e5d	-0.001977823
216	0xbc28d131	-0.010303781
217	0xbbd21bf2	-0.0064120227
218	0xbc2bab6a	-0.01047788
219	0x3b0dcfac	0.0021638675
220	0xb9ac6f16	-0.00032889162
221	0x3b312171	0.002702799
222	0xb9dac98c	-0.00041730364
223	0xbb3eca35	-0.0029112224
224	0xbb3d6dc0	-0.0028904527
225	0x3b567bb1	0.0032727534
226	0xbb81c020	-0.0039596707
227	0xbab98a32	-0.0014155565
228	0xbbfb6ca0	-0.007672861
229	0xbb966643	-0.0045898273
230	0x3ae595d5	0.0017515967
231	0xbb084cc4	-0.002079771
232	0x3b93ca3e	0.004510193
233	0x3b4b128c	0.0030986397
234	0x3859f2d7	5.1962994e-05
235	0x38c41cff	9.351409e-05
236	0xbb713736	-0.003680659
237	0x3a1fc6f8	0.00060950173
238	0x3ba0ff2b	0.004913231
239	0x379a235f	1.8374702e-05
240	0x3abbe6b7	0.0014335726
241	0x3a46886a	0.0007573428
242	0x3b07aee6	0.0020703613
243	0x379a7052	1.8410534e-05
244	0x3b9d9a4c	0.0048096534
245	0x3b7ee75a	0.003889522
246	0xbbb6611e	-0.0055657765
247	0xba2924e5	-0.0006452336
248	0xbb7a5dd1	-0.0038202892
249	0x3a604287	0.0008554835
250	0xba35b5c8	-0.00069316896
251	0x3b290fb1	0.0025796706
252	0x3ded02d9	0.11572809
253	0xbd31f59d	-0.043447126
254	0xbe86474d	-0.26226273
255	0x3f069969	0.52577835

prop_layer._reverse_message_net.0.bias f4 [20]
0	0x3d37aebb	0.04484437
1	0xbdc23c40	-0.09484148
2	0xbe966091	-0.2937055
3	0x3b497cc1	0.0030744525
4	0x3aed855a	0.0018121407
5	0x3e5dcac8	0.21659386
6	0x3b224666	0.00247612
7	0x3d8c3737	0.06846469
8	0xbb6ad8c8	-0.0035834778
9	0xba27231f	-0.0006375778
10	0x3ae594fa	0.0017515712
11	0x3b290f0a	0.0025796317
12	0x3e19213f	0.14954089
13	0x3d640604	0.0556698
14	0x3e14e80a	0.14541641
15	0x3b96c78e	0.0046014255
16	0xbb0ed1d8	-0.0021792557
17	0x3e5accb1	0.21367146
18	0xbc36b5da	-0.011151755
19	0xba1c7c90	-0.0005969489

prop_layer.GRU.weight_ih_l0 f4 [30, 20]
0	0x3bc082e0	0.0058749765
1	0xbb8d1dac	-0.0043065157
2	0xbbf6af9b	-0.007528258
3	0xbaa83715	-0.0012833799
4	0xbb2833f0	-0.0025665723
5	0xbd0ba400	-0.03409195
6	0xbab0acfc	-0.0013479288
7	0xbc40ea9c	-0.011774685
8	0x3b098b9a	0.002098775
9	0xbb695593	-0.0035603985
10	0xbb0b9c20	-0.0021302775
11	0xb950590d	-0.000198696
12	0x3b7d2d15	0.0038631607
13	0x3a62071f	0.0008622277
14	0x3c8a5d89	0.016890304
15	0xbad55a16	-0.0016277458
16	0x3b6f9d7c	0.0036562374
17	0xbbb3a24b	-0.0054819933
18	0xbbc5e943	-0.00603977
19	0x3b60664f	0.0034240668
20	0x3c8bb138	0.017052278
21	0x3c684c2f	0.01417832
22	0xbc1486c1	-0.009065331
23	0xbaf935c1	-0.0019013212
24	0xbbc220d4	-0.0059243236
25	0xbe130ac2	-0.14359573
26	0xba049104	-0.00050570094
27	0xbbc4c319	-0.0060047028
28	0x3b54c471	0.003246572
29	0xbb82f06d	-0.003995946
30	0xbbea84c0	-0.0071569383
31	0x3b18fed7	0.0023345256
32	0x3d1e1bb5	0.038600642
33	0xbd276c9f	-0.040875074
34	0xbe032b04	-0.12809378
35	0xbacbf820	-0.0015561618
36	0x3bce1879	0.0062895385
37	0x3c1dd8a3	0.00963417
38	0xbdbe2960	-0.092852354
39	0x3bc62ab8	0.006047573
40	0x3cd98161	0.02655095
41	0xba62bccb	-0.0008649348
42	0x3d733f41	0.059386496
43	0xbb075f78	-0.002065627
44	0xbb8e9bd1	-0.004352071
45	0xbb57080a	-0.0032811188
46	0x392d0d2e	0.00016503475
47	0x3b0c5663	0.0021413795
48	0x3aa2d8dd	0.001242425
49	0xbc195527	-0.009358681
50	0xbb91c12d	-0.004448077
51	0x3b277625	0.0025552597
52	0xbdafb502	-0.085794464
53	0xba6c2232	-0.0009007781
54	0xbdd788e3	-0.10524156
55	0x3a822c64	0.0009931442
56	0xba995b96	-0.0011700268
57	0x3d8c9e24	0.068661004
58	0x3d664b0f	0.056223925
59	0x3baa4f49	0.00519744
60	0x3c1a8c20	0.0094328225
61	0xbc97ec23	-0.018545216
62	0xbb9b9015	-0.0047474005
63	0xbac8f251	-0.0015331005
64	0x3aab74e5	0.0013081102
65	0xbe108853	-0.14114504
66	0xbbca5c64	-0.0061755646
67	0xbbea59da	-0.0071518244
68	0x3b053aca	0.002032923
69	0x3b10eebc	0.0022114953
70	0x3abd135f	0.0014425329
71	0x39d70811	0.00041014006
72	0xbcdf0097	-0.027221961
73	0xbd189d17	-0.037259188
74	0xbcd25c91	-0.025678905
75	0xba4d0697	-0.00078211114
76	0xba84d0fa	-0.0010133081
77	0xbbf35c70	-0.007426791
78	0xbbbdbf80	-0.005790651
79	0xbaee424a	-0.0018177715
80	0x3d5ead49	0.054364476
81	0xbcbbc8dc	-0.022922926
82	0x3d3b73c0	0.045764685
83	0x3a027897	0.0004977076
84	0x3b70a853	0.0036721423
85	0xbe1aa4d6	-0.15101942
86	0xbad15d5a	-0.0015973256
87	0x3c8bf1f6	0.01708315
88	0xbae73a56	-0.0017641287
89	0x384d7b90	4.8990885e-05
90	0x3b8f6f3a	0.004377273
91	0x3ba9b174	0.0051786248
92	0xbd354c55	-0.04426225
93	0xbdc23281	-0.09482289
94	0xbda5321c	-0.08066198
95	0x3b08164b	0.002076524
96	0xbbd2c132	-0.006431722
97	0xbc2f2ecd	-0.0106923105
98	0xbdd30d03	-0.10305216
99	0xbb46dcae	-0.0030343938
100	0x396864d8	0.00022162811
101	0x3d173908	0.036919624
102	0xbe93a044	-0.2883321
103	0xbb385781	-0.0028128328
104	0xbaa6bec6	-0.001272165
105	0xbe039a2c	-0.1285178
106	0xbbda383e	-0.0066595366
107	0xbc171c8e	-0.009223117
108	0x3b7373f7	0.0037147978
109	0x3a213d2c	0.0006150778
110	0xbac027bc	-0.0014660279
111	0xbb5c611e	-0.0033627222
112	0x3ddfdea0	0.10931134
113	0xbdae99f7	-0.0852546
114	0x3e159762	0.14608529
115	0xbb3f052d	-0.0029147372
116	0xbb16ea4c	-0.0023027835
117	0x3b912772	0.004429751
118	0xbbb92a81	-0.005650819
119	0xba56eb89	-0.00081985496
120	0x3cabf672	0.020991538
121	0xbc2426ef	-0.010019048
122	0x3bf7ca92	0.00756199
123	0x3a652720	0.0008741487
124	0xbb306476	-0.0026915348
125	0x3d9d7684	0.07688621
126	0x3b769cff	0.0037630198
127	0xbd0980a4	-0.033569947
128	0xbb084083	-0.0020790405
129	0xbc04b306	-0.008099323
130	0xbb4809fe	-0.0030523534
131	0x3b1dfb55	0.0024106104
132	0xbc8616fc	-0.016368382
133	0x3d1c41f4	0.038148835
134	0xbd14379e	-0.036185853
135	0x3b8a4554	0.0042196903
136	0xbb27a748	-0.0025581885
137	0x3d859b35	0.06523744
138	0xbb1055b4	-0.002202374
139	0x3b8e6765	0.0043458217
140	0x3b0365ca	0.0020049685
141	0x3cc74d6c	0.02432891
142	0xbc259b28	-0.010107793
143	0xba9abd96	-0.0011805769
144	0xba971880	-0.0011527687
145	0x3cf32249	0.029679434
146	0xb8bf67b1	-9.126904e-05
147	0xbd01a187	-0.031648185
148	0x3aabd15a	0.0013108656
149	0xbb419800	-0.0029540062
150	0xb9eda95f	-0.00045330354
151	0x392cfda9	0.00016497694
152	0x3ac50282	0.0015030655
153	0x3d251720	0.040305257
154	0x3bade5ae	0.005306921
155	0x39081c76	0.00012980573
156	0x3ab5350d	0.0013825014
157	0xbbf92e4d	-0.0076043964
158	0x3c2b1427	0.010441816
159	0x3a85d1be	0.0010209603
160	0xbc794a94	-0.015215535
161	0x3b946e1c	0.0045297276
162	0x3db434e4	0.087991506
163	0x3abbe62d	0.0014335566
164	0x3b81cb7f	0.003961026
165	0xbd4790bc	-0.048722014
166	0xbacaad70	-0.0015463065
167	0xbd80c146	-0.06286864
168	0xbaa50008	-0.001258851
169	0x3b091ff7	0.0020923594
170	0x3ba18424	0.0049290825
171	0xba9e7e8f	-0.0012092161
172	0xbdc8d05f	-0.09805369
173	0xbe204a27	-0.15653287
174	0xbd7376e3	-0.05943955
175	0xba423874	-0.0007408925
176	0xba3323a7	-0.0006833621
177	0xbc5f8404	-0.013642315
178	0x3d39f5ba	0.04540036
179	0xbaa30878	-0.0012438437
180	0x3ca5eb51	0.02025381
181	0xbd1e177e	-0.038596623
182	0x3de3f0d0	0.11129916
183	0x3aa74df1	0.0012764317
184	0x3b00a26e	0.0019628066
185	0xbda1d30a	-0.07901581
186	0x3b8863b0	0.0041622743
187	0xbe011276	-0.12604699
188	0xbb22a3ef	-0.002481695
189	0xbb55bd97	-0.0032614225
190	0x3b33ce6e	0.0027436274
191	0x3b0ac174	0.0021172436
192	0xbe5931dc	-0.21210426
193	0x3e414c68	0.18876803
194	0xbdc9955f	-0.098429434
195	0x3b07fad2	0.0020748866
196	0xbb7ad733	-0.0038275241
197	0x3d8a3c89	0.067498274
198	0x3dda09b6	0.106463835
199	0xb8c99120	-9.6114585e-05
200	0xbe707425	-0.23481806
201	0xbe7b2253	-0.24524812
202	0xbe38d9f2	-0.1805189
203	0xbaf5f89d	-0.0018766109
204	0xbbe4d9c2	-0.0069839666
205	0x3e2704ea	0.16310468
206	0xbb960003	-0.004577638
207	0x3e3c6172	0.18396547
208	0x3b4ed1c1	0.0031558129
209	0xbb07a540	-0.0020697862
210	0xbb5cfe2a	-0.003372083
211	0x3b7cf38b	0.0038597311
212	0x3d80c9d0	0.06288493
213	0x3df6d0ca	0.12051542
214	0x3e81dc4c	0.25363386
215	0xbba96ed6	-0.0051706834
216	0x3bb456a1	0.005503491
217	0xbd69771f	-0.05699837
218	0x3deb9596	0.11503141
219	0x3c0d0036	0.008606007
220	0x3d24e943	0.04026152
221	0x3d3ff2f5	0.04686256
222	0xbcb10173	-0.021607136
223	0x3b745df8	0.0037287455
224	0x3c2f2d92	0.010692017
225	0xbd8965cb	-0.067088686
226	0xbb896b51	-0.0041937013
227	0xbe10e2c1	-0.14149
228	0xbbddc456	-0.00676779
229	0x3c960993	0.018315112
230	0x3c554f8d	0.013019455
231	0xbbcbed3c	-0.006223349
232	0x3dbbdc5f	0.09172892
233	0xbe2f01cb	-0.17090528
234	0x3e6cc62b	0.2312247
235	0x3c2862c8	0.010277458
236	0xbbfed206	-0.0077765016
237	0xbe31f4d1	-0.17378546
238	0xbd21a4fc	-0.039463982
239	0xbcad9701	-0.021190168
240	0x3e12df53	0.14343004
241	0x3e4f355f	0.20235203
242	0x3e6ba4c4	0.23012072
243	0x3c034fe4	0.008014653
244	0xbb0596c3	-0.002038405
245	0xbe91386e	-0.28363365
246	0x3bd80247	0.0065920684
247	0xbdbfe402	-0.09369661
248	0xbc250ea8	-0.010074295
249	0x3be9d38f	0.0071358155
250	0x3b9fc3ee	0.0048756516
251	0xbbe6d970	-0.0070449635
252	0x3dd117d2	0.102096215
253	0xbca5333a	-0.020166028
254	0xbea50359	-0.32229117
255	0x3b327a02	0.0027233367

prop_layer.GRU.weight_hh_l0 f4 [30, 10]
0	0xb820467a	-3.821261e-05
1	0x39e21344	0.00043120433
2	0xbcadf088	-0.021232858
3	0x3b5c01cd	0.003357041
4	0x3c4aaf6b	0.012370924
5	0x3c134cdc	0.008990493
6	0x3b5336a8	0.0032228623
7	0x38e9c684	0.00011147282
8	0x3b518b1d	0.0031973787
9	0x3aeb2461	0.0017939919
10	0xbc8c8d43	-0.017157203
11	0xbc335c60	-0.010947317
12	0xbbf76d69	-0.0075508845
13	0x3c5ff369	0.013668873
14	0x3d08fb5f	0.03344285
15	0x3bccec41	0.0062537496
16	0xbd3ab91b	-0.045586687
17	0xbb47d632	-0.003049266
18	0x3d183e16	0.037168585
19	0xbc8d7cdc	-0.017271452
20	0xbd31e1db	-0.043428283
21	0x39e379e6	0.00043387635
22	0xbcf40c37	-0.02979098
23	0xbd31b3b0	-0.043384254
24	0xbc87573a	-0.016521085
25	0x3d0cf6c3	0.034415018
26	0x3d2f4f9e	0.04280054
27	0xbd1fb17f	-0.038987633
28	0x3c49f7ca	0.012327144
29	0x3cc10f14	0.02356676
30	0xbd0d2d2c	-0.034466907
31	0x3b8e97b4	0.0043515805
32	0xbbf74f44	-0.007547291
33	0x3d008711	0.03137881
34	0x3be02479	0.0068402854
35	0x3cf375ca	0.029719252
36	0xbb901934	-0.0043975357
37	0xbd130344	-0.035891786
38	0x3cd3fd9b	0.025877764
39	0x3c5119f0	0.012762532
40	0xbcdbcf75	-0.026832322
41	0xbb9c45c7	-0.0047690603
42	0x3cfd42b0	0.030915588
43	0x3dccb279	0.099949785
44	0x3bf929a7	0.0076038423
45	0x3ce228c0	0.027607322
46	0x3d077e00	0.033079147
47	0xbd49af0d	-0.049239207
48	0x3d445451	0.047931973
49	0x39f70769	0.00047117032
50	0x3d27b055	0.040939648
51	0xbd33450e	-0.043767028
52	0xbd178b4f	-0.03699809
53	0x3db08fa8	0.0862115
54	0x3d7052ae	0.0586726
55	0x3d06f8ab	0.032951992
56	0xbd2608e6	-0.04053583
57	0x3d4023f4	0.046909288
58	0xbd315eac	-0.043303177
59	0x3ce9f901	0.028561117
60	0xbac4e9ce	-0.0015023293
61	0xbc0b76ef	-0.008512243
62	0x3b350f9b	0.002762771
63	0xbba54d50	-0.0050446168
64	0x3c07c2f1	0.008286224
65	0x3a076679	0.0005165111
66	0xbc453f69	-0.012039044
67	0xbc418c90	-0.011813298
68	0xb94dd3cf	-0.00019629228
69	0x3bc7f5d5	0.0061023035
70	0xbc32575d	-0.010885087
71	0xbc63f014	-0.01391222
72	0x3cff963d	0.031199569
73	0xbbc5a5db	-0.0060317344
74	0x3b280bd7	0.0025641823
75	0xbc4d86ba	-0.012544328
76	0x3c853e3b	0.016265025
77	0x3cb4dfcb	0.022079369
78	0x3b7176fa	0.0036844597
79	0x3c37d6ae	0.011220617
80	0xbca04e68	-0.019568637
81	0xbb886e1c	-0.0041635167
82	0xbcc68151	-0.024231585
83	0x3c0355e4	0.008016083
84	0xbd6b6e74	-0.057478383
85	0x3c651fbc	0.013984617
86	0x3d8e1bb8	0.06938881
87	0xbd975aee	-0.0739039
88	0x3a7e5aad	0.0009702843
89	0xbc247c98	-0.010039471
90	0xbcd91edd	-0.026503975
91	0x3c97c925	0.01852853
92	0xbc813ea9	-0.015776949
93	0x3d3d9ff1	0.04629511
94	0xbc9c8172	-0.019104693
95	0xbc22263b	-0.00989681
96	0xbc16c62d	-0.009202522
97	0xba87c857	-0.0010359389
98	0x3c0cb83b	0.008588846
99	0xbcd3646e	-0.025804725
100	0x3e04c642	0.12966254
101	0x3d95e0dd	0.0731828
102	0x3df0816d	0.11743436
103	0xbd1d95b8	-0.03847286
104	0xbd2b4ad0	-0.041819394
105	0x3d1f3bbf	0.038875338
106	0x3dbb6d06	0.09151654
107	0xbd8c6d94	-0.06856838
108	0x3de4b33a	0.11166997
109	0xbdef7e48	-0.11694008
110	0x3e042824	0.12905937
111	0x3cd4e0ff	0.025986193
112	0xbca43633	-0.020045375
113	0x3e7d84bb	0.24757664
114	0xbcc8e370	-0.024522513
115	0xbdd5aace	-0.10432969
116	0xbe1a9886	-0.15097246
117	0xb9a059db	-0.00030584526
118	0xbdbd9cb5	-0.09258405
119	0x3db35e9e	0.08758281
120	0xbbbd6ba2	-0.005780653
121	0xbc6e8f71	-0.014560566
122	0xbc2b1b7b	-0.010443564
123	0xbddfc688	-0.10926539
124	0xbcb5c82d	-0.022190178
125	0xbe00c2ce	-0.12574312
126	0x3da1201d	0.07867453
127	0x3e16d9f1	0.14731576
128	0xbd8a20d1	-0.067445405
129	0x3d22957b	0.039693337
130	0x3e2ffb41	0.1718569
131	0x3da639f5	0.08116523
132	0x3dc65051	0.09683288
133	0xbf0b95b7	-0.5452532
134	0x3cb6d02f	0.022316067
135	0xbdad825c	-0.0847213
136	0xbe81f28d	-0.25380364
137	0x3d205c7b	0.039150696
138	0x3e5cd75d	0.2156653
139	0xbd535549	-0.051595006
140	0xbd4beb4f	-0.049784955
141	0x3dda94a2	0.10672881
142	0xbd290d72	-0.041272588
143	0x3e32658b	0.17421548
144	0xbb877b2c	-0.0041345563
145	0xbd0fbe2c	-0.03509347
146	0xbdd1f684	-0.10252097
147	0x3d3c9e6c	0.04604952
148	0x3d7dbfc8	0.061950475
149	0xbe01cf02	-0.12676623
150	0xbe781412	-0.24226406
151	0x3d22abe0	0.039714694
152	0xbd99a957	-0.07503002
153	0xbe34b4d4	-0.17647105
154	0x3c402b24	0.0117290355
155	0x3e29483f	0.16531466
156	0xbdccc462	-0.099983945
157	0x3d047998	0.032342523
158	0x3d6f53ed	0.058429647
159	0xbdc13845	-0.09434561
160	0xbe06fc3a	-0.13182154
161	0x3c4ee700	0.012628317
162	0xbcb984d9	-0.022646355
163	0xbdec79c0	-0.115466595
164	0x3d12a905	0.03580572
165	0xbd55a1de	-0.05215632
166	0xbde53e83	-0.11193564
167	0x3df20626	0.11817579
168	0xbc3733af	-0.011181756
169	0xbdb2929f	-0.08719372
170	0x3e1ab230	0.15107036
171	0xbdc0335a	-0.093847945
172	0x3e1935ac	0.1496188
173	0x3e1e9b7b	0.15488999
174	0x3d2748d7	0.04084095
175	0xbe2d16f8	-0.16903293
176	0xbd6903a6	-0.056888245
177	0x3db2b898	0.08726615
178	0xbda69fb7	-0.08135932
179	0xbd818d9d	-0.06325839
180	0x3d67282f	0.056434806
181	0x3e1b7450	0.15181088
182	0x3cf23d96	0.029570382
183	0x3dcd4272	0.10022439
184	0x3e149083	0.14508252
185	0x399e78a1	0.00030225984
186	0x3c78a595	0.015176197
187	0xbc425345	-0.011860673
188	0x3e335bf9	0.17515554
189	0xbe0a0f4d	-0.134824
190	0xbcac8868	-0.021061137
191	0xbd20628d	-0.039156485
192	0xbbb78a13	-0.0056011765
193	0x3dfdb292	0.12387575
194	0x3cd95c47	0.02653326
195	0x3d43f87c	0.047844395
196	0x3c4967eb	0.012292842
197	0xbc413e42	-0.011794629
198	0xbcdbd4ce	-0.026834872
199	0x3d5039f4	0.05083652
200	0x3c105b23	0.008810791
201	0xbd5c8f12	-0.05384738
202	0x3df7b4b3	0.120950125
203	0xbca759c4	-0.020428546
204	0xbe1dcea5	-0.1541086
205	0xbd2798c8	-0.040917188
206	0x3d05a381	0.032626633
207	0xbcb1a17c	-0.021683447
208	0x3ae1632d	0.0017195694
209	0x3c7a40a8	0.015274204
210	0x3e2b77b3	0.1674488
211	0x3dd0734d	0.10178242
212	0x3cf654a4	0.030069657
213	0x3d3f1fd5	0.046661217
214	0xbdae400b	-0.08508309
215	0xbda99285	-0.082798995
216	0x3e2d322f	0.16913675
217	0x3d9c3257	0.07626789
218	0xbddd9c5f	-0.10820841
219	0xbac47771	-0.001498921
220	0x3e0b176f	0.13583158
221	0xbaf322c3	-0.0018549789
222	0x3e6f1133	0.23346405
223	0x3e4a8018	0.19775426
224	0xbcf1f5f7	-0.02953623
225	0xba99940b	-0.0011717094
226	0xbe6a417c	-0.22876543
227	0xbc80fbe9	-0.01574512
228	0xbdb079a5	-0.08616952
229	0x3db60ad2	0.088887826
230	0x3e130007	0.14355479
231	0xbc996b21	-0.01872784
232	0xbd868593	-0.06568446
233	0x3deba2ea	0.11505683
234	0x3d7f2cd0	0.062298596
235	0x3d249347	0.040179517
236	0x3c368c13	0.011141795
237	0x3da161d2	0.07879986
238	0xbd3ac3c7	-0.045596864
239	0x3c7adf16	0.015311977
240	0x3d8348c5	0.06410364
241	0x3b6316fa	0.0034651146
242	0x3e7fe32d	0.24989004
243	0x3e059a3d	0.13047118
244	0xbc2d52ca	-0.0105788205
245	0x3cf73a68	0.030179217
246	0x3e4d9eea	0.20080152
247	0x3d045bd8	0.03231415
248	0x3d913c1f	0.07091545
249	0x3d0a485d	0.033760417
250	0x3de305b0	0.11085069
251	0xbe47c5f2	-0.19509104
252	0xbd5e351e	-0.054249875
253	0x3e63e048	0.22253525
254	0x3e401ed8	0.18761766
255	0x3e70fc13	0.23533659

prop_layer.GRU.bias_ih_l0 f4 [30]
0	0x3c97fbed	0.018552745
1	0x3c18d167	0.009327269
2	0x3d46a039	0.048492644
3	0xb89717a7	-7.204647e-05
4	0x3d1d51c5	0.03840806
5	0x3d47971f	0.048728105
6	0x3d59e172	0.053193517
7	0x3d2ddc09	0.04244617
8	0xbcbf7f5f	-0.023376165
9	0x3c8fc2fe	0.017549034
10	0xbe2f81d3	-0.17139368
11	0xbd9d5cab	-0.07683691
12	0x3d41ff47	0.047362592
13	0x3eba7418	0.36416698
14	0xbe185687	-0.14876758
15	0x3d8fc138	0.070192754
16	0x3ce6bf06	0.028167259
17	0xbe91caba	-0.2847498
18	0xbc831cce	-0.016004946
19	0xbd9fc829	-0.078018494
20	0xbeda23e4	-0.42605507
21	0xbde47851	-0.11155761
22	0xbdfb44e4	-0.12268999
23	0xbe8123cd	-0.25222626
24	0x3e9a08eb	0.3008493
25	0x3e58dc39	0.21177758
26	0xbe4d9434	-0.20076066
27	0xbe92b342	-0.28652388
28	0xbec1ca63	-0.3784972
29	0x3f23cedf	0.63987535

prop_layer.GRU.bias_hh_l0 f4 [30]
0	0x3c97fbed	0.018552745
1	0x3c18d167	0.009327269
2	0x3d46a039	0.048492644
3	0xb89717a7	-7.204647e-05
4	0x3d1d51c5	0.03840806
5	0x3d47971f	0.048728105
6	0x3d59e172	0.053193517
7	0x3d2ddc09	0.04244617
8	0xbcbf7f5f	-0.023376165
9	0x3c8fc2fe	0.017549034
10	0xbe2f7fc7	-0.17138587
11	0xbd9d5caa	-0.0768369
12	0x3d41ff3d	0.047362555
13	0x3ec589b4	0.38581622
14	0xbe185687	-0.14876758
15	0x3d8fc0e8	0.07019216
16	0x3ce72278	0.028214678
17	0xbe91c37b	-0.28469452
18	0xbc833fd9	-0.016021656
19	0xbd9fc829	-0.078018494
20	0xbe20f9df	-0.15720318
21	0xbd4d2509	-0.050084148
22	0x3be29fed	0.0069160373
23	0xbd583b6a	-0.052791037
24	0x3e4e6bb4	0.20158273
25	0x3e4cfbf3	0.20017986
26	0xbd85c104	-0.065309554
27	0xbe050f32	-0.12994078
28	0xbdf5f029	-0.120086975
29	0x3e93eeca	0.2889312

interaction_layer.0.weight f4 [20, 20]
0	0x3e23f646	0.16011915
1	0xbd3f30b1	-0.046677295
2	0x3d5a5659	0.053305004
3	0xbde525ab	-0.11188825
4	0xbe374048	-0.17895615
5	0xbe935e39	-0.28782824
6	0xbe4637fb	-0.19357292
7	0x3f2d8815	0.6778577
8	0xbe5d2c3d	-0.21598907
9	0x3d5a4a96	0.053293787
10	0x3d1440d2	0.03619463
11	0x3eab413f	0.33448216
12	0x3dc331bf	0.09530973
13	0x3c1d54dd	0.0096027525
14	0xbcf614ef	-0.030039279
15	0xbe42c6c0	-0.1902113
16	0x3e3ee451	0.18641783
17	0x3e817ac2	0.2528897
18	0xbd6f62fb	-0.058444005
19	0x3e924172	0.28565556
20	0xbe0d3e41	-0.13793279
21	0x3e87732d	0.2645506
22	0x3d874011	0.066040166
23	0x3e55f505	0.20894249
24	0xbdef9e7d	-0.11700151
25	0x3e812bfd	0.25228873
26	0x3c1bb181	0.009502769
27	0xbdeb42da	-0.1148736
28	0xbec016d4	-0.37517416
29	0x3d8732d0	0.066014886
30	0x3ef5558f	0.4791684
31	0xbd09e5f1	-0.033666555
32	0x3ec99667	0.3937256
33	0xbe21c864	-0.15799099
34	0x3e3b488a	0.1828939
35	0x3e5a4018	0.21313512
36	0xbe22a178	-0.15881908
37	0x3eeaef94	0.4588591
38	0x3e264aba	0.16239443
39	0xbdb38907	-0.0876637
40	0xbe637342	-0.22211936
41	0x3db5125d	0.08841393
42	0xbe0c9024	-0.1372686
43	0x3deaec1c	0.114708155
44	0x3e790b88	0.24320805
45	0xbe1ecd6b	-0.15508048
46	0xbe8cce7b	-0.27501282
47	0xbe07102e	-0.13189766
48	0x3e72bd71	0.23705079
49	0xbe817e37	-0.25291607
50	0x3ddf033a	0.10889287
51	0x3e270b26	0.16312847
52	0x3e2d0051	0.16894652
53	0x3e89b4a5	0.26895633
54	0x3c8721b4	0.016495563
55	0x3e56cbb0	0.20976138
56	0x3e926246	0.28590602
57	0x3f01d0a5	0.5070899
58	0xbc7ad432	-0.01530938
59	0x3f03e2f6	0.5151819
60	0x3e8c70b9	0.2742975
61	0x3cc56002	0.024093632
62	0x3ec86170	0.3913684
63	0x3e3c889a	0.18411484
64	0xbe155f72	-0.14587191
65	0x3e12ad3f	0.143239
66	0xbee1a0d5	-0.44068018
67	0x3d0aedd4	0.033918217
68	0x3e88cd8a	0.26719314
69	0xbd1a9434	-0.037738994
70	0xbeb2a9d4	-0.34895194
71	0xbe45beea	-0.19311109
72	0x3e03fdec	0.12889832
73	0x3df6c4dc	0.12049267
74	0xbdad7416	-0.08469407
75	0x3e646f9b	0.22308199
76	0xbe99035e	-0.2988538
77	0x3da7a79e	0.08186267
78	0xbdd21f81	-0.10259915
79	0xbdd6c88c	-0.1048747
80	0x3e767b35	0.24070437
81	0xbe26fbea	-0.16307035
82	0x3c0cf8eb	0.008604269
83	0x3e6cb5ab	0.23116176
84	0xbe310d82	-0.17290309
85	0x3e2a93d1	0.1665795
86	0xbe4fd60b	-0.20296495
87	0xbd4086a2	-0.047003396
88	0xbe231f80	-0.15929985
89	0xbe2d9af5	-0.16953643
90	0x3ea5b10f	0.32361647
91	0xbdfc5ae9	-0.12322027
92	0xbdd6a265	-0.10480193
93	0x3e56674d	0.20937844
94	0x3cb726c0	0.022357345
95	0xbd88b46e	-0.06675039
96	0x3e5173f6	0.20454392
97	0xbe627ada	-0.22117177
98	0x3dfb0608	0.1225701
99	0xbd13630f	-0.03598314
100	0x3d2b6fc5	0.04185464
101	0x3d19af99	0.03752098
102	0x3e99a24e	0.3000664
103	0x3ebb7dd6	0.36619443
104	0x3dca511e	0.09878753
105	0xbd963c62	-0.07335736
106	0xbe814656	-0.25248975
107	0x3e74fa60	0.23923635
108	0x3ebd1a95	0.36934343
109	0xbf327658	-0.6971183
110	0x3e9138a6	0.28363532
111	0xbcc16658	-0.023608372
112	0x3ed83a9f	0.42232224
113	0x3df1c1c8	0.11804539
114	0x3cbacbfd	0.022802347
115	0x3e9817c5	0.29705635
116	0x3e26baf4	0.16282254
117	0x3e846c4a	0.25863868
118	0x3e2ef059	0.17083873
119	0x3ea177c9	0.315367
120	0xbe8a8efc	-0.27062213
121	0x3e899f14	0.2687918
122	0xbe67677a	-0.22598067
123	0xbdc797ca	-0.09745748
124	0x3cfeba6d	0.031094754
125	0xbebeba4c	-0.37251508
126	0xbec273af	-0.37978885
127	0xbd9aae83	-0.07552817
128	0xbe352404	-0.1768952
129	0xbd780718	-0.06055364
130	0xbe2c6dc0	-0.16838741
131	0x3be41184	0.006960096
132	0xbd841118	-0.06448573
133	0xbed54bf3	-0.41659507
134	0x3ddedce7	0.108819775
135	0xbbddea2f	-0.0067723016
136	0x3e064626	0.13112697
137	0x3e02512e	0.1272628
138	0xbea74e16	-0.32676762
139	0x3ec58ea2	0.38585383
140	0x3ea2de8e	0.3181042
141	0x3e53451e	0.20631835
142	0xbe8663d3	-0.26248035
143	0x3ea81736	0.3283021
144	0x3eb96b37	0.3621461
145	0xbef99199	-0.48743895
146	0x3e649a4d	0.22324486
147	0xbe6d13c9	-0.23152079
148	0x3e5fec48	0.21867478
149	0x3e395c72	0.18101671
150	0x3eb7c8a4	0.35895264
151	0x3e7511bb	0.23932545
152	0x3db58232	0.088627234
153	0xbb467761	-0.0030283558
154	0x3e5cdd7e	0.21568868
155	0xbe4e4475	-0.20143302
156	0x3e8aef4b	0.2713569
157	0x3ea46468	0.32107854
158	0x3cf50d6d	0.029913628
159	0x3e007a19	0.12546577
160	0xbe271368	-0.16315997
161	0x3e09c27a	0.13453093
162	0x3debcd90	0.11513817
163	0xbd79942a	-0.060932316
164	0x3e120aa4	0.14261872
165	0xbd9820a5	-0.074281015
166	0xbe19d816	-0.15023836
167	0xbea91008	-0.33020043
168	0x3d902745	0.0703874
169	0x3de0891a	0.1096365
170	0x3d4e6a6a	0.050394453
171	0x3ec39759	0.38201407
172	0x3bb9f01c	0.005674375
173	0xbdc0f3b2	-0.09421481
174	0x3dc2370d	0.09483156
175	0xbdc2f7e5	-0.095199384
176	0xbc4883ef	-0.012238487
177	0xbed0f29d	-0.408101
178	0xbe2abcb0	-0.16673541
179	0xbd96af7d	-0.073576905
180	0x3d96df99	0.073668666
181	0xbe190096	-0.1494163
182	0xbf00e7ff	-0.50354
183	0xbe0da95e	-0.1383414
184	0xbdd10d24	-0.102075845
185	0xbd0f2ff2	-0.034957834
186	0x3cdecb36	0.027196508
187	0xbc421201	-0.011845113
188	0xbea41f20	-0.32054996
189	0x3db98638	0.09058803
190	0x3dacd16f	0.08438384
191	0x3e13725b	0.14399092
192	0x3eb8c40f	0.3608708
193	0x3d367c9c	0.04455243
194	0x3e147d97	0.14501034
195	0x3d881cc7	0.06646114
196	0xbdd282b6	-0.102788374
197	0x3e863e04	0.2621919
198	0x3d7c0c04	0.061534896
199	0x3e8931d0	0.26795816
200	0x3d3a8821	0.04553998
201	0x3e174752	0.147733
202	0xbe3c7031	-0.18402173
203	0x3eaa95ab	0.33317313
204	0x3e096468	0.13417208
205	0xbd31574e	-0.04329615
206	0x3e9916a4	0.29900086
207	0xbe9b6d97	-0.30357048
208	0x3e9bbe07	0.30418417
209	0x3d1888fd	0.037240017
210	0xbdefc94d	-0.11708317
211	0xbe12f094	-0.14349586
212	0xbdcbb1c3	-0.09946015
213	0xbd62d700	-0.05538082
214	0xbd24a9ba	-0.040200926
215	0x3e2d3c80	0.1691761
216	0xbeaed063	-0.3414336
217	0x3e37448c	0.17897242
218	0xbe48ed5d	-0.19621797
219	0x3e80a4f0	0.25125837
220	0xb72903d6	-1.0074078e-05
221	0xb37a9c57	-5.834985e-08
222	0xb7e42892	-2.719861e-05
223	0xb28ef7bf	-1.6643638e-08
224	0x30ef48d5	1.7410239e-09
225	0xb38f672a	-6.677722e-08
226	0xb3616229	-5.247617e-08
227	0xb763c99d	-1.3577196e-05
228	0x282cdef7	9.596266e-15
229	0xb2721b2b	-1.4092431e-08
230	0xb4d20a17	-3.912289e-07
231	0xab9cc325	-1.113863e-12
232	0x329f28ea	1.8528642e-08
233	0x2746ee63	2.760725e-15
234	0x2a25bccc	1.4720446e-13
235	0x2b502245	7.3944003e-13
236	0xadab65af	-1.9485606e-11
237	0xb53c2824	-7.009387e-07
238	0xa6912e3e	-1.007393e-15
239	0xac2dc05b	-2.4691557e-12
240	0x3a3ae0ae	0.0007128817
241	0x3cc1fba4	0.023679562
242	0xbd002470	-0.03128475
243	0xbbb775a4	-0.0055987407
244	0xbcefa011	-0.02925113
245	0xbb06a12a	-0.0020542839
246	0xb95402c2	-0.00020218923
247	0xbc91d350	-0.017800957
248	0x3b4b0147	0.0030976103
249	0xbd0b72ba	-0.03404496
250	0x3b0a581d	0.0021109649
251	0xbbe94dfb	-0.0071198917
252	0xbc1ed2f2	-0.009693848
253	0x3a4377e3	0.0007456524
254	0xba40fd73	-0.00073619856
255	0xbb9691fc	-0.0045950394

interaction_layer.0.bias f4 [20]
0	0x3e067860	0.13131857
1	0xbbcb68ab	-0.0062075458
2	0xbe1cd1bd	-0.15314384
3	0xbe1a1944	-0.150487
4	0xbe88d1b4	-0.2672249
5	0x3e40e27f	0.18836401
6	0x3e620f70	0.22076201
7	0x3dcae1e2	0.09906365
8	0x3eb6079b	0.35552678
9	0xbe474bbc	-0.19462484
10	0x3e3ee203	0.18640904
11	0xb9b26a04	-0.00034029793
12	0xbcd8dd5d	-0.026472742
13	0xbdd9306f	-0.10604941
14	0x3e77f5aa	0.24214807
15	0x3e9449fe	0.28962702
16	0xbdc42afd	-0.09578512
17	0x3e04b45f	0.12959431
18	0xbd6c5c78	-0.057705373
19	0x3e080181	0.13281824

interaction_layer.2.weight f4 [10, 20]
0	0x3dfae584	0.12250808
1	0x3e0d1315	0.1377681
2	0xbea6c84f	-0.32574698
3	0x3f0c18c5	0.54725295
4	0x3e1efe04	0.15526587
5	0x3f01df50	0.5073137
6	0xbdf9a7ac	-0.12190184
7	0xbbb01cc3	-0.0053745224
8	0xbe9911f7	-0.2989652
9	0xbeb584f8	-0.3545301
10	0x3e4a1b74	0.19737035
11	0x3ab751c8	0.0013986165
12	0xbb361921	-0.0027785974
13	0x3e8023da	0.25027353
14	0xbe05ef3a	-0.13079539
15	0x3f0796c0	0.529644
16	0x3f0218bf	0.5081901
17	0x3de9201b	0.11383077
18	0xbebd383c	-0.36956966
19	0xbe537a32	-0.20652083
20	0xbdf3461a	-0.11878605
21	0xbdbc4d6a	-0.09194453
22	0xbf2aeb3b	-0.66765183
23	0xbe026c52	-0.12736633
24	0xbb77fa6b	-0.003783847
25	0x3decf6f3	0.11570539
26	0x3e80a57d	0.25126258
27	0x3d5acd30	0.05341834
28	0x3df61bdd	0.12017033
29	0xbebb20f9	-0.36548594
30	0xbd41da71	-0.047327463
31	0x32f8f663	2.8983044e-08
32	0xbc857f6b	-0.01629611
33	0xbe49f39e	-0.19721839
34	0x3ebd9455	0.3702723
35	0xbea304e7	-0.31839678
36	0x3a47ff3f	0.0007629282
37	0x3e4192b4	0.18903619
38	0xbe445569	-0.19173206
39	0xbe21cfab	-0.15801875
40	0xbefaeb21	-0.49007514
41	0xbe6a018e	-0.22852156
42	0x3eb9ebd1	0.36312726
43	0xbba30a55	-0.004975597
44	0x3dbd558e	0.09244834
45	0x3eac2c56	0.33627576
46	0xbdb7c9e2	-0.08974053
47	0x3e56bf6c	0.20971459
48	0x3ec828cd	0.3909363
49	0xbe04c0c4	-0.12964159
50	0x3c1a3c76	0.009413829
51	0x35e678ec	1.7171528e-06
52	0xbc25a7a6	-0.010110771
53	0xbe37a3af	-0.17933534
54	0xbe210cb5	-0.15727504
55	0x3e9a1cbc	0.30100048
56	0xbe6fb08a	-0.23407188
57	0xbed08f40	-0.4073429
58	0x3de10f75	0.10989276
59	0xbedc15b3	-0.42985305
60	0xbe61fd10	-0.22069192
61	0x3db38265	0.08765105
62	0xbe2c316c	-0.16815728
63	0x3d466cc3	0.048443567
64	0xbe0ea8b1	-0.13931538
65	0xbf2f8731	-0.6856566
66	0xbdd47afd	-0.10375021
67	0xbf55deb9	-0.8354297
68	0x3e734269	0.23755802
69	0x3d79b26f	0.060961183
70	0xbd8bc353	-0.068243645
71	0x362c0995	2.5635575e-06
72	0xbc69acb4	-0.014262367
73	0x3d9de941	0.07710505
74	0xbf080f02	-0.531479
75	0x3e560f36	0.2090424
76	0x3c898a18	0.016789481
77	0xbe46bb7a	-0.19407454
78	0x3cf7a87a	0.030231703
79	0x3d5bee8c	0.053694293
80	0x3f00b0e5	0.5026992
81	0xbeea1201	-0.4571686
82	0x3df2844f	0.11841642
83	0xbe4aa831	-0.19790722
84	0xbedae3b4	-0.4275185
85	0xbdeef4bb	-0.116677724
86	0xbed264fc	-0.4109267
87	0xbe47799a	-0.19479981
88	0xbe9dac5f	-0.3079557
89	0xbb459ae4	-0.0030152136
90	0xbe4fbfb2	-0.2028797
91	0xb564aa38	-8.518432e-07
92	0xbc7c7a0e	-0.0154099595
93	0x3ccd7588	0.025080457
94	0xbd6efcdf	-0.058346625
95	0xbd061bd9	-0.0327414
96	0x3dfc08a3	0.12306335
97	0xbe2f8a9f	-0.17142724
98	0x3c5c2e54	0.01343878
99	0xbe813b67	-0.25240633
100	0xbc3bec29	-0.011469879
101	0xbed190fa	-0.4093092
102	0xbd65c75a	-0.05609832
103	0x3ea7e8b6	0.32794732
104	0xbdcfe167	-0.10150414
105	0xbef670b6	-0.48132867
106	0xbe5063b9	-0.20350541
107	0x3d974f98	0.07388228
108	0xbe1bce54	-0.15215427
109	0x3ef28011	0.47363332
110	0xbd81e36d	-0.06342206
111	0x322b1224	9.957635e-09
112	0x3baf10c9	0.005342577
113	0x3d94bff5	0.072631754
114	0x3efacc80	0.48984146
115	0x3e8705b7	0.26371548
116	0xbc078b05	-0.008272891
117	0x3e33537e	0.17512318
118	0x3ed12a23	0.4085246
119	0xbd0b6681	-0.034033302
120	0xbf10bf91	-0.5654231
121	0x3db54f43	0.088530086
122	0x3e9996f3	0.29997978
123	0xbefe7ab8	-0.49703002
124	0xbe971782	-0.29510123
125	0x3e13b715	0.14425309
126	0xbf3d00d7	-0.73829406
127	0xbe3ce74a	-0.18447605
128	0xbd064c34	-0.032787517
129	0xbb8af02f	-0.004240058
130	0x3d994f02	0.07485773
131	0x3737accb	1.09478815e-05
132	0xbc819ae5	-0.01582093
133	0x3eb8343e	0.35977358
134	0xbbbb6138	-0.0057183765
135	0x3d811f3f	0.06304788
136	0x3d1cacab	0.038250607
137	0x3ef98a5d	0.48738375
138	0xbe03f4db	-0.12886374
139	0x3e5e9737	0.21737371
140	0x3d96ab08	0.0735684
141	0x3de19bb8	0.11016029
142	0x3bdd1ebd	0.006748049
143	0x3dd03148	0.1016565
144	0xbe9c82cd	-0.30568543
145	0x3e33d6ea	0.17562452
146	0xbdf663a0	-0.12030721
147	0xbee30741	-0.44341472
148	0xbea7d8b3	-0.32782516
149	0x3db82d2a	0.08992989
150	0xbee87690	-0.45402956
151	0xb8b787d5	-8.751421e-05
152	0xbbb04821	-0.005379692
153	0xbe2bc84d	-0.16775627
154	0xbdd4358d	-0.103617765
155	0xbe737ce0	-0.23778105
156	0xbec72f3f	-0.38903233
157	0xbe8dc169	-0.27686623
158	0xbd4da0f2	-0.050202318
159	0xbe8c51f4	-0.27406275
160	0xbd7a5906	-0.061120056
161	0xbed674f6	-0.4188611
162	0xbc55382f	-0.0130138835
163	0xbc829113	-0.015938317
164	0x3d679759	0.05654082
165	0xbc50caf4	-0.0127437
166	0xbe1fc308	-0.15601742
167	0x3e08043d	0.13282867
168	0xbd45f367	-0.04832783
169	0xbddf32c8	-0.10898358
170	0x3ee76e7e	0.45201486
171	0x34a6f86e	3.1100666e-07
172	0xbd146e66	-0.036238097
173	0xbe51ba4a	-0.2048122
174	0x3e350e3d	0.17681213
175	0xbe036fc4	-0.12835604
176	0xbdd26eac	-0.10275015
177	0xbe051787	-0.12997256
178	0xbe1b5d88	-0.15172398
179	0xbcd345a8	-0.02579005
180	0x3dccf047	0.10006767
181	0x3eff3f09	0.4985278
182	0xbd59229e	-0.05301153
183	0x3e0ef4b8	0.1396054
184	0x3caffef8	0.021483883
185	0xbed3344d	-0.4125084
186	0x3cbfef1d	0.023429448
187	0x3e9f7991	0.31147435
188	0x3e3a22d1	0.18177344
189	0xbde1560e	-0.11002742
190	0x3d78e6f6	0.060767137
191	0x342ee392	1.6287802e-07
192	0xb91ba8a5	-0.00014844777
193	0xbdfa8221	-0.12231851
194	0xbe79b4d3	-0.24385385
195	0xbd830d65	-0.06399039
196	0x3e450129	0.19238724
197	0x3cec4f13	0.0288463
198	0xbdc9d07e	-0.0985422
199	0xbe1dfcb6	-0.15428433

interaction_layer.2.bias f4 [10]
0	0xbe1c5a24	-0.15268761
1	0x3d50eb34	0.051005557
2	0x3df22b75	0.11824695
3	0x3d32c1ad	0.043641735
4	0x3eaab334	0.33339846
5	0x3e539e91	0.20665957
6	0x3d63dfcd	0.055633355
7	0x3e9a796f	0.3017077
8	0x3dc2197c	0.09477517
9	0x3e406969	0.18790211

scoring_alignment_preprocessor.0.weight f4 [16, 10]
0	0x3b53484e	0.0032239142
1	0x3d85fe41	0.06542636
2	0xbd83c6df	-0.06434416
3	0xbdb352cb	-0.08756026
4	0xbecbe914	-0.39826262
5	0xbd504038	-0.050842494
6	0xbbdc8470	-0.006729655
7	0x3dd84b9b	0.105612956
8	0xbc0e7bf0	-0.008696541
9	0x3df4a22d	0.11944995
10	0x394bb72f	0.0001942783
11	0xbd1198ec	-0.03554623
12	0x3bba7e45	0.005691322
13	0xbb8f34c7	-0.004370305
14	0x3c47eaa0	0.012201935
15	0xbc7608c1	-0.0150167355
16	0xbc801543	-0.015635138
17	0xbcf9d936	-0.030499082
18	0x3a83e3f5	0.0010062443
19	0xbc252b1c	-0.010081079
20	0x3ebe0f94	0.3712126
21	0x3da863b8	0.08222145
22	0x3ef17753	0.4716135
23	0x3e8613ec	0.26187074
24	0x3e362b95	0.17790063
25	0x3ce68f83	0.028144604
26	0xbe085842	-0.13314918
27	0xbd6fe16e	-0.058564596
28	0xbdf75f3e	-0.12078713
29	0x3e0f9a3f	0.14023684
30	0x3cdca81b	0.026935628
31	0xbeb5c640	-0.35502815
32	0x3cf8276e	0.030292239
33	0x3d82fc98	0.06395835
34	0xbda45fc9	-0.08026082
35	0x3e3c79df	0.18405865
36	0xbe5e2c40	-0.21696568
37	0xbe09ad07	-0.13444911
38	0xbca0348b	-0.019556304
39	0x3ddda98d	0.10823355
40	0x3c4f108a	0.012638221
41	0x3f28a3b1	0.65874773
42	0xbcc3fe1b	-0.023924878
43	0xbe97d1a7	-0.2965214
44	0xbe9527f2	-0.29132038
45	0x3ee2705b	0.44226345
46	0x3e0c89f3	0.13724498
47	0x3cc97ce0	0.024595678
48	0x3e3a24a3	0.18178038
49	0xbd9e4e5f	-0.07729792
50	0xbe584161	-0.2111869
51	0x3ed4406e	0.41455406
52	0x3e5e41bf	0.21704768
53	0xbdce8cb6	-0.10085432
54	0xbd1b5399	-0.03792152
55	0x3e1c31ed	0.1525342
56	0xbe775b16	-0.2415584
57	0x3ef934fb	0.48673233
58	0xbee65ad2	-0.44991165
59	0xbe0646ec	-0.13112992
60	0x3e0a3977	0.13498484
61	0xbe16c7a7	-0.14724599
62	0xbdf0a784	-0.11750701
63	0x3e0338d9	0.12814654
64	0xbe58017d	-0.21094318
65	0x3cb5d854	0.02219788
66	0x3d854bd6	0.06508605
67	0xbd5cbe74	-0.053892568
68	0x3db85565	0.09000663
69	0x3e0b81d5	0.13623746
70	0x3d3ea9f7	0.04654881
71	0x3c9d6758	0.019214317
72	0x3e83a10c	0.25708807
73	0xbeb924a5	-0.3616077
74	0x3f2838f5	0.6571191
75	0xbe13b0f8	-0.14422977
76	0xbe2ca665	-0.1686035
77	0x3d24c30d	0.040225077
78	0x3e8aa6a7	0.2708027
79	0xbeb9593f	-0.36200902
80	0x3e5b1543	0.2139483
81	0x3ec6d2a2	0.38832575
82	0x3ec62727	0.38701746
83	0x3e5e61ce	0.21716997
84	0xbd19fea1	-0.03759635
85	0xbde6fc28	-0.11278564
86	0x3f167edf	0.5878734
87	0x3f1923a3	0.5982
88	0xbe551d16	-0.20811877
89	0x3da353ec	0.07974991
90	0xb982841e	-0.00024893967
91	0xb65a9a1f	-3.2574242e-06
92	0x381f2508	3.7943042e-05
93	0x35385843	6.867378e-07
94	0x35118496	5.420965e-07
95	0xb5fcbca6	-1.8830367e-06
96	0x37af1aad	2.0874048e-05
97	0xb7616e63	-1.34367465e-05
98	0xb3a251ba	-7.558579e-08
99	0x35f02d93	1.7894657e-06
100	0x9e7ca9d2	-1.3375887e-20
101	0x97986a91	-9.849671e-25
102	0x9be59cb5	-3.7986142e-22
103	0x0066fc32	9.457691e-39
104	0x8c2ea4d4	-1.3454074e-31
105	0x89f57dcc	-5.9099903e-33
106	0x975c5d1d	-7.120336e-25
107	0x201f3e59	1.3488453e-19
108	0x00001b6b	9.836e-42
109	0x0774a47f	1.8404861e-34
110	0xbe107e44	-0.14110667
111	0xbe5c2ff3	-0.21502666
112	0xbe0090ff	-0.12555312
113	0x3e819367	0.25307772
114	0xbdc769f1	-0.097370036
115	0xbec07d86	-0.37595767
116	0x3e0f28aa	0.13980356
117	0x3e85da28	0.26143003
118	0xbe6e6402	-0.23280337
119	0x3e98c57a	0.29838163
120	0x3cea8b21	0.028630795
121	0xbcf303d6	-0.029664915
122	0xbb1f71ff	-0.0024329422
123	0x3d325276	0.043535672
124	0xbc18ded1	-0.009330467
125	0x3d46c85c	0.04853092
126	0xbd60df51	-0.05490047
127	0xbd135594	-0.035970286
128	0xbd21b453	-0.03947861
129	0xbc7054d9	-0.014668667
130	0xba107154	-0.0005510051
131	0x3deb0a2c	0.114765495
132	0xbe02913c	-0.12750715
133	0x3cb55bf7	0.022138579
134	0x3e43bccd	0.1911499
135	0xbe89dc8d	-0.2692608
136	0x3f0c75fe	0.5486754
137	0x3f2557ef	0.645873
138	0xbdda92e3	-0.10672548
139	0x3e290585	0.16506012
140	0xb7c14ce8	-2.3043205e-05
141	0xb39f08c2	-7.4056075e-08
142	0xb65e7117	-3.3146405e-06
143	0x33720e92	5.6358267e-08
144	0x31b4ac64	5.258288e-09
145	0xb43c7b58	-1.7553737e-07
146	0x348f4fd9	2.6693922e-07
147	0xb6959bfc	-4.458705e-06
148	0x30bf4e2c	1.3919297e-09
149	0x3487130b	2.5159565e-07
150	0x3df79639	0.120891996
151	0x3e8a5318	0.2701652
152	0x3da1f6c7	0.07908397
153	0x3e71ba11	0.23606135
154	0x3d44d927	0.048058655
155	0xbe80a15f	-0.25123116
156	0x3f13fbf0	0.578063
157	0xbf013e7b	-0.5048596
158	0x3e833292	0.2562452
159	0x3e021101	0.12701799

scoring_alignment_preprocessor.0.bias f4 [16]
0	0x3d8895ae	0.06669174
1	0xbd00bb7f	-0.03142881
2	0x3d41d2a6	0.04732003
3	0x3e1e456a	0.15456167
4	0x3e63383f	0.22189425
5	0x3e4bfddd	0.1992106
6	0x3cab684e	0.02092376
7	0x3ea85f33	0.3288513
8	0xbe78e7c6	-0.24307165
9	0xb9df4942	-0.00042588456
10	0xa86ade56	-1.3037821e-14
11	0x3e6284d9	0.2212099
12	0xbbd90a1d	-0.00662352
13	0x3d993f7f	0.07482814
14	0xb9093107	-0.00013083602
15	0x3e4600a6	0.19336185
