paper_artifacts/collection/gmn_baseline_scoring=sinkhorn_pp=lrl___tp=sinkhorn_pp=lrl_when=post___unify=true/trained_models/gmn_baseline_scoring=sinkhorn_pp=lrl___tp=sinkhorn_pp=lrl_when=post___unify=true_ptc_mm_large_dataset_seed_7762_2024-02-26_22:56:31.pth (torch, 13564 bytes, 18 tensors)

encoder.MLP1.0.weight f4 [10, 1]
-0.33617127 -0.3736986 0.28490895 0.23457256 -0.39652848 -0.120866075 -0.2889363 0.39399874
0.03635081 0.13319434
00000000: a41e acbe 6c55 bfbe 96df 913e ca33 703e
00000010: c805 cbbe a288 f7bd 75ef 93be 34ba c93e
00000020: 96e4 143d 1964 083e

encoder.MLP1.0.bias f4 [10]
-0.24408956 -0.39607015 -0.11931611 0.34435707 -0.5406034 0.3208641 -0.08763519 0.2053414
0.016945561 0.18237582
00000000: 9df2 79be b5c9 cabe 015c f4bd 924f b03e
00000010: fc64 0abf 4d48 a43e 147a b3bd 0445 523e
00000020: 6bd1 8a3c bac0 3a3e

prop_layer._message_net.0.weight f4 [20, 21]
0.18242688 0.11768931 0.21155968 -0.13217343 -0.15552682 -0.25709596 -0.79223895 0.3347212
-0.22177534 0.6472485 -0.019536689 -0.020171585 -0.28570858 -0.036150735 0.4402266 0.084797904
0.2213574 -0.1766283 -0.091107614 0.007844699 0.005664591 -0.17806353 0.09641531 0.17648815
0.15326409 0.19310182 -0.17986858 -0.14342809 -0.09975522 0.31515422 0.11239881 -0.015117289
-0.18296471 0.11565888 0.07829709 0.11810849 0.24205327 -0.1305792 -0.014075853 0.17238829
0.043225177 -0.09161361 0.004367259 -0.005570884 -2.695834e-05 0.0058212657 0.0017972054 -0.002900073
-0.0038059675 -0.0010382256 0.0017945255 -0.0016696245 -0.001472727 0.001990304 -0.00016072411 0.0025325248
0.0016736175 0.0027477029 -0.0063476097 -9.062317e-05 -0.0036108813 0.002152613 -0.0009009502 0.12519215
0.1423175 -0.23570195 0.22471674 -0.12177958 0.039708406 0.25090846 0.07951553 -0.14741565
0.2971177 -0.06201777 -0.4225062 0.3326337 -0.06488906 -0.28377977 0.02329728 -0.3951314
0.21616027 0.008388707 -0.05725059 0.3232699 0.0060840757 0.0031951414 0.0041045467 0.0017340129
0.0024888301 -0.0014551899 -0.0015685682 -0.005808034 0.0016248007 -0.0013484128 -0.008309117 -0.0042052423
0.0018749144 0.0010138606 0.0023090057 0.0025190325 -0.008559804 0.0035136624 0.0012403654 0.0053362255
0.0006883199 -0.5131462 0.21433496 -0.64204496 -0.119366065 0.19977959 0.12700339 0.20161906
0.16376433 0.14794223 0.040755633 0.13907816 0.03542225 0.06400423 -0.37728482 -0.39824253
-0.044721693 -0.14919761 0.16934684 0.11379139 0.22509709 -0.1197156 -0.20841357 0.34075478
-0.23055893 -0.108538546 -0.1475167 -0.65762377 0.15825367 -0.10787075 -0.04493153 -0.26515505
0.13947776 -0.15303582 0.16216387 0.14100648 0.07916279 0.366801 -0.07983205 0.27762592
-0.14460987 -0.112754844 -0.045628652 -0.37513122 0.03313497 -0.44057354 0.40232852 -0.031044563
-0.88788456 -0.17274612 -0.24600138 0.24506027 0.052470192 -0.23896009 0.44461274 0.15849696
-0.05070152 -0.010491808 -0.25033173 -0.021352837 0.17000528 0.008859333 -0.19101821 -0.025328094
0.6237234 -0.10305598 0.37117192 -0.01263376 0.23861857 0.1833408 -0.29080167 -0.30534366
0.34785417 -0.059342504 -0.06375925 0.14147003 0.12659587 -0.20312949 -0.14503092 0.30163443
0.039262872 0.00061589835 -0.031981185 -0.21364497 0.024696147 -0.3902482 0.17381603 -0.019772206
0.21775414 -0.18028302 0.18266818 -0.41041726 -0.10576897 -0.15840857 -0.08307825 0.17271571
-0.008051361 0.12798141 -0.17885458 0.16182165 0.033141717 -0.14260574 -0.22746728 0.29399246
-0.00049200637 -0.056842454 0.15571086 -0.10725619 -0.3138975 0.033698957 0.19315325 0.084123924
-0.15228166 -0.08031979 -0.15617782 0.3176019 -0.27749467 -0.06663718 0.28899142 -0.05450989
0.23724288 0.13419797 -0.008151779 0.08355413 0.015210699 0.12742545 0.009903483 -0.26256117
0.24171829 -0.1652119 -0.13829507 -0.049035247 -0.097313434 -0.053681158 0.3180938 0.0814873
-0.10272031 0.22699259 0.11345838 -0.37282982 0.0797298 -0.14159656 -0.08692975 0.16859137
0.101261094 0.07241671 0.05493681 -0.05078589 -0.15248354 -0.16148993 -0.14881799 0.42926523
00000000: 1dce 3a3e 1807 f13d 1aa3 583e 7958 07be
00000010: 6c42 1fbe 15a2 83be 2cd0 4abf 9460 ab3e
00000020: 1319 63be 14b2 253f 680b a0bc e13e a5bc
00000030: 6548 92be cb12 14bd 6265 e13e 86aa ad3d
00000040: 84ab 623e 0dde 34be a196 babd 0d87 003c
00000050: 099e b93b 4956 36be 6475 c53d 4fb9 343e
00000060: 43f1 1c3e 7cbc 453e 782f 38be d0de 12be
00000070: 774c ccbd e55b a13e 5931 e63d 81ae 77bc
00000080: 1a5b 3bbe 90de ec3d 3a5a a03d dde2 f13d
00000090: d0dc 773e 8eb6 05be 689e 66bc 8e86 303e
000000a0: e20c 313d eb9f bbbd 391b 8f3b f68b b6bb
000000b0: 9824 e2b7 51c0 be3b 3590 eb3a 270f 3ebb
000000c0: 8a6d 79bb 1215 88ba 4936 eb3a 4dd7 daba
000000d0: 8508 c1ba c36f 023b 0d88 28b9 b7f8 253b
000000e0: 495d db3a ce12 343b 9cff cfbb f20c beb8
000000f0: 89a4 6cbb da12 0d3b bf2d 6cba 5f32 003e
00000100: aebb 113e da5b 71be 251c 663e 9367 f9bd
00000110: 48a5 223d 1377 803e 0ad9 a23d 21f4 16be
00000120: d01f 983e 5806 7ebd bc52 d8be f74e aa3e
00000130: 8ee4 84bd 954b 91be f0d9 be3c aa4e cabe
00000140: 1e59 5d3e ca70 093c 987f 6abd a283 a53e
00000150: ed5c c73b 9465 513b 6f7f 863b d147 e33a
00000160: a41b 233b 12bc beba 6a98 cdba 5251 bebb
00000170: 44f7 d43a 3abd b0ba f622 08bc 21cc 89bb
00000180: b0bf f53a 84e3 843a b052 173b 5a16 253b
00000190: 6c3e 0cbc 7945 663b c293 a23a 81db ae3b
000001a0: 5e70 343a 8d5d 03bf a07a 5b3e 0f5d 24bf
000001b0: 3276 f4bd 0593 4c3e 2d0d 023e 3a75 4e3e
000001c0: d6b1 273e 2b7e 173e 61ef 263d 816a 0e3e
000001d0: ec16 113d a614 833d 7a2b c1be 72e6 cbbe
000001e0: 182e 37bd 42c7 18be 4269 2d3e 760b e93d
000001f0: da7f 663e 742d f5bd 5e6a 55be 6977 ae3e
00000200: a417 6cbe 7549 debd 9e0e 17be 085a 28bf
00000210: 400d 223e 57eb dcbd 200a 38bd 67c2 87be
00000220: 42d3 0e3e 6cb5 1cbe 490e 263e 0164 103e
00000230: 1a20 a23d 57cd bb3e fc7e a3bd fc24 8e3e
00000240: 9c14 14be 03ec e6bd 1ce5 3abd 3311 c0be
00000250: 89b8 073d db92 e1be 01fe cd3e 2b51 febc
00000260: 674c 63bf 5ce4 30be c9e7 7bbe 14f1 7a3e
00000270: fcea 563d f4b1 74be 48a4 e33e 074d 223e
00000280: 66ac 4fbd d5e5 2bbc 7b2b 80be 25ec aebc
00000290: dd15 2e3e bc26 113c 479a 43be dd7c cfbc
000002a0: 56ac 1f3f 030f d3bd 3f0a be3e d5fd 4ebc
000002b0: 6d58 743e b1bd 3b3e f5e3 94be 0156 9cbe
000002c0: f119 b23e 2011 73bd 3694 82bd 85dd 103e
000002d0: 59a2 013e 2d01 50be fc82 14be d46f 9a3e
000002e0: 1bd2 203d 3d74 213a b4fe 02bd bfc5 5abe
000002f0: 934f ca3c 9dce c7be d4fc 313e 52f9 a1bc
00000300: f1fa 5e3e 1d9c 38be 5e0d 3b3e 3622 d2be
00000310: 679d d8bd db35 22be ee24 aabd 63dc 303e
00000320: dbe9 03bc 8f0d 033e a825 37be 93b4 253e
00000330: 9cbf 073d 3d07 12be 2fed 68be 2e86 963e
00000340: fdf9 00ba a2d3 68bd ab72 1f3e 22a9 dbbd
00000350: 2cb7 a0be eb07 0a3d f7c9 453e 2a49 ac3d
00000360: b9ef 1bbe b47e a4bd 14ed 1fbe b79c a23e
00000370: c813 8ebe 1379 88bd aff6 933e c345 5fbd
00000380: ccef 723e 316b 093e 0a8f 05bc 6d1e ab3d
00000390: 4c36 793c d17b 023e 3842 223c 6b6e 86be
000003a0: 0085 773e 4f2d 29be 399d 0dbe 2fd9 48bd
000003b0: 444c c7bd c6e0 5bbd 31dd a23e d0e2 a63d
000003c0: 075f d2bd bf70 683e de5c e83d 8de3 bebe
000003d0: 6149 a33d b0fe 10be 3a08 b2bd 37a3 2c3e
000003e0: fa61 cf3d 364f 943d 6c05 613d de04 50bd
000003f0: a524 1cbe 9e5d 25be be63 18be a7c8 db3e

prop_layer._message_net.0.bias f4 [20]
-0.049067244 -0.07980535 -0.00072191644 0.29087466 0.00060985587 -0.09975764 -0.09124446 0.023261085
-0.0263534 -0.0059504216 -0.0073990547 -0.038239148 -0.0025086377 -0.016963622 -0.029529292 -0.12130945
-0.0028912479 0.0019765182 -0.029233458 0.021108184
00000000: bcfa 48bd fd70 a3bd fe3e 3dba 86ed 943e
00000010: bcde 1f3a bc4d ccbd 60de babd 088e be3c
00000020: 16e3 d7bc c1fb c2bb c573 f2bb a7a0 1cbd
00000030: f567 24bb 4bf7 8abc 6ae7 f1bc 1771 f8bd
00000040: 177b 3dbb 7988 013b 017b efbc 12eb ac3c

prop_layer._reverse_message_net.0.weight f4 [20, 21]
0.18242688 0.11768931 0.21155968 -0.13217343 -0.15552682 -0.25709596 -0.79223895 0.3347212
-0.22177534 0.6472485 -0.019536689 -0.020171585 -0.28570858 -0.036150735 0.4402266 0.084797904
0.2213574 -0.1766283 -0.091107614 0.007844699 0.005664591 -0.17806353 0.09641531 0.17648815
0.15326409 0.19310182 -0.17986858 -0.14342809 -0.09975522 0.31515422 0.11239881 -0.015117289
-0.18296471 0.11565888 0.07829709 0.11810849 0.24205327 -0.1305792 -0.014075853 0.17238829
0.043225177 -0.09161361 0.004367259 -0.005570884 -2.695834e-05 0.0058212657 0.0017972054 -0.002900073
-0.0038059675 -0.0010382256 0.0017945255 -0.0016696245 -0.001472727 0.001990304 -0.00016072411 0.0025325248
0.0016736175 0.0027477029 -0.0063476097 -9.062317e-05 -0.0036108813 0.002152613 -0.0009009502 0.12519215
0.1423175 -0.23570195 0.22471674 -0.12177958 0.039708406 0.25090846 0.07951553 -0.14741565
0.2971177 -0.06201777 -0.4225062 0.3326337 -0.06488906 -0.28377977 0.02329728 -0.3951314
0.21616027 0.008388707 -0.05725059 0.3232699 0.0060840757 0.0031951414 0.0041045467 0.0017340129
0.0024888301 -0.0014551899 -0.0015685682 -0.005808034 0.0016248007 -0.0013484128 -0.008309117 -0.0042052423
0.0018749144 0.0010138606 0.0023090057 0.0025190325 -0.008559804 0.0035136624 0.0012403654 0.0053362255
0.0006883199 -0.5131462 0.21433496 -0.64204496 -0.119366065 0.19977959 0.12700339 0.20161906
0.16376433 0.14794223 0.040755633 0.13907816 0.03542225 0.06400423 -0.37728482 -0.39824253
-0.044721693 -0.14919761 0.16934684 0.11379139 0.22509709 -0.1197156 -0.20841357 0.34075478
-0.23055893 -0.108538546 -0.1475167 -0.65762377 0.15825367 -0.10787075 -0.04493153 -0.26515505
0.13947776 -0.15303582 0.16216387 0.14100648 0.07916279 0.366801 -0.07983205 0.27762592
-0.14460987 -0.112754844 -0.045628652 -0.37513122 0.03313497 -0.44057354 0.40232852 -0.031044563
-0.88788456 -0.17274612 -0.24600138 0.24506027 0.052470192 -0.23896009 0.44461274 0.15849696
-0.05070152 -0.010491808 -0.25033173 -0.021352837 0.17000528 0.008859333 -0.19101821 -0.025328094
0.6237234 -0.10305598 0.37117192 -0.01263376 0.23861857 0.1833408 -0.29080167 -0.30534366
0.34785417 -0.059342504 -0.06375925 0.14147003 0.12659587 -0.20312949 -0.14503092 0.30163443
0.039262872 0.00061589835 -0.031981185 -0.21364497 0.024696147 -0.3902482 0.17381603 -0.019772206
0.21775414 -0.18028302 0.18266818 -0.41041726 -0.10576897 -0.15840857 -0.08307825 0.17271571
-0.008051361 0.12798141 -0.17885458 0.16182165 0.033141717 -0.14260574 -0.22746728 0.29399246
-0.00049200637 -0.056842454 0.15571086 -0.10725619 -0.3138975 0.033698957 0.19315325 0.084123924
-0.15228166 -0.08031979 -0.15617782 0.3176019 -0.27749467 -0.06663718 0.28899142 -0.05450989
0.23724288 0.13419797 -0.008151779 0.08355413 0.015210699 0.12742545 0.009903483 -0.26256117
0.24171829 -0.1652119 -0.13829507 -0.049035247 -0.097313434 -0.053681158 0.3180938 0.0814873
-0.10272031 0.22699259 0.11345838 -0.37282982 0.0797298 -0.14159656 -0.08692975 0.16859137
0.101261094 0.07241671 0.05493681 -0.05078589 -0.15248354 -0.16148993 -0.14881799 0.42926523
00000000: 1dce 3a3e 1807 f13d 1aa3 583e 7958 07be
00000010: 6c42 1fbe 15a2 83be 2cd0 4abf 9460 ab3e
00000020: 1319 63be 14b2 253f 680b a0bc e13e a5bc
00000030: 6548 92be cb12 14bd 6265 e13e 86aa ad3d
00000040: 84ab 623e 0dde 34be a196 babd 0d87 003c
00000050: 099e b93b 4956 36be 6475 c53d 4fb9 343e
00000060: 43f1 1c3e 7cbc 453e 782f 38be d0de 12be
00000070: 774c ccbd e55b a13e 5931 e63d 81ae 77bc
00000080: 1a5b 3bbe 90de ec3d 3a5a a03d dde2 f13d
00000090: d0dc 773e 8eb6 05be 689e 66bc 8e86 303e
000000a0: e20c 313d eb9f bbbd 391b 8f3b f68b b6bb
000000b0: 9824 e2b7 51c0 be3b 3590 eb3a 270f 3ebb
000000c0: 8a6d 79bb 1215 88ba 4936 eb3a 4dd7 daba
000000d0: 8508 c1ba c36f 023b 0d88 28b9 b7f8 253b
000000e0: 495d db3a ce12 343b 9cff cfbb f20c beb8
000000f0: 89a4 6cbb da12 0d3b bf2d 6cba 5f32 003e
00000100: aebb 113e da5b 71be 251c 663e 9367 f9bd
00000110: 48a5 223d 1377 803e 0ad9 a23d 21f4 16be
00000120: d01f 983e 5806 7ebd bc52 d8be f74e aa3e
00000130: 8ee4 84bd 954b 91be f0d9 be3c aa4e cabe
00000140: 1e59 5d3e ca70 093c 987f 6abd a283 a53e
00000150: ed5c c73b 9465 513b 6f7f 863b d147 e33a
00000160: a41b 233b 12bc beba 6a98 cdba 5251 bebb
00000170: 44f7 d43a 3abd b0ba f622 08bc 21cc 89bb
00000180: b0bf f53a 84e3 843a b052 173b 5a16 253b
00000190: 6c3e 0cbc 7945 663b c293 a23a 81db ae3b
000001a0: 5e70 343a 8d5d 03bf a07a 5b3e 0f5d 24bf
000001b0: 3276 f4bd 0593 4c3e 2d0d 023e 3a75 4e3e
000001c0: d6b1 273e 2b7e 173e 61ef 263d 816a 0e3e
000001d0: ec16 113d a614 833d 7a2b c1be 72e6 cbbe
000001e0: 182e 37bd 42c7 18be 4269 2d3e 760b e93d
000001f0: da7f 663e 742d f5bd 5e6a 55be 6977 ae3e
00000200: a417 6cbe 7549 debd 9e0e 17be 085a 28bf
00000210: 400d 223e 57eb dcbd 200a 38bd 67c2 87be
00000220: 42d3 0e3e 6cb5 1cbe 490e 263e 0164 103e
00000230: 1a20 a23d 57cd bb3e fc7e a3bd fc24 8e3e
00000240: 9c14 14be 03ec e6bd 1ce5 3abd 3311 c0be
00000250: 89b8 073d db92 e1be 01fe cd3e 2b51 febc
00000260: 674c 63bf 5ce4 30be c9e7 7bbe 14f1 7a3e
00000270: fcea 563d f4b1 74be 48a4 e33e 074d 223e
00000280: 66ac 4fbd d5e5 2bbc 7b2b 80be 25ec aebc
00000290: dd15 2e3e bc26 113c 479a 43be dd7c cfbc
000002a0: 56ac 1f3f 030f d3bd 3f0a be3e d5fd 4ebc
000002b0: 6d58 743e b1bd 3b3e f5e3 94be 0156 9cbe
000002c0: f119 b23e 2011 73bd 3694 82bd 85dd 103e
000002d0: 59a2 013e 2d01 50be fc82 14be d46f 9a3e
000002e0: 1bd2 203d 3d74 213a b4fe 02bd bfc5 5abe
000002f0: 934f ca3c 9dce c7be d4fc 313e 52f9 a1bc
00000300: f1fa 5e3e 1d9c 38be 5e0d 3b3e 3622 d2be
00000310: 679d d8bd db35 22be ee24 aabd 63dc 303e
00000320: dbe9 03bc 8f0d 033e a825 37be 93b4 253e
00000330: 9cbf 073d 3d07 12be 2fed 68be 2e86 963e
00000340: fdf9 00ba a2d3 68bd ab72 1f3e 22a9 dbbd
00000350: 2cb7 a0be eb07 0a3d f7c9 453e 2a49 ac3d
00000360: b9ef 1bbe b47e a4bd 14ed 1fbe b79c a23e
00000370: c813 8ebe 1379 88bd aff6 933e c345 5fbd
00000380: ccef 723e 316b 093e 0a8f 05bc 6d1e ab3d
00000390: 4c36 793c d17b 023e 3842 223c 6b6e 86be
000003a0: 0085 773e 4f2d 29be 399d 0dbe 2fd9 48bd
000003b0: 444c c7bd c6e0 5bbd 31dd a23e d0e2 a63d
000003c0: 075f d2bd bf70 683e de5c e83d 8de3 bebe
000003d0: 6149 a33d b0fe 10be 3a08 b2bd 37a3 2c3e
000003e0: fa61 cf3d 364f 943d 6c05 613d de04 50bd
000003f0: a524 1cbe 9e5d 25be be63 18be a7c8 db3e

prop_layer._reverse_message_net.0.bias f4 [20]
-0.049067244 -0.07980535 -0.00072191644 0.29087466 0.00060985587 -0.09975764 -0.09124446 0.023261085
-0.0263534 -0.0059504216 -0.0073990547 -0.038239148 -0.0025086377 -0.016963622 -0.029529292 -0.12130945
-0.0028912479 0.0019765182 -0.029233458 0.021108184
00000000: bcfa 48bd fd70 a3bd fe3e 3dba 86ed 943e
00000010: bcde 1f3a bc4d ccbd 60de babd 088e be3c
00000020: 16e3 d7bc c1fb c2bb c573 f2bb a7a0 1cbd
00000030: f567 24bb 4bf7 8abc 6ae7 f1bc 1771 f8bd
00000040: 177b 3dbb 7988 013b 017b efbc 12eb ac3c

prop_layer.GRU.weight_ih_l0 f4 [30, 30]
-0.012743951 0.0903029 -0.0028818906 0.13194641 0.007263396 -0.23753773 -0.06167345 -0.23841165
0.33889744 -0.051854737 0.12616079 -0.22694977 0.04457046 -0.03703743 0.11097182 -0.13777208
-0.003214725 0.00078723306 0.06975101 -0.0043813335 0.0629383 0.18963282 0.11345177 -0.005060593
0.14736919 -0.009307676 0.07541202 -0.17108037 -0.11603082 -0.1396561 -0.22921793 0.10411236
0.0039919545 -0.23011912 0.0068596243 -0.26158264 0.041647416 0.19175541 0.12888011 -0.1836412
-0.08280875 -0.00086199935 -0.08227258 -0.055715982 0.14213188 -0.15622933 0.0043727676 0.006202047
0.066216186 -0.14878964 -0.20452945 -0.058079362 0.054214954 0.30312878 -0.09296863 0.17396866
-0.0077171717 0.14538273 -0.045694396 0.02853072 -0.17794067 -0.0822923 0.00032511333 0.0339402
-0.001443818 0.17551598 0.18816349 -0.21127906 -0.09099283 -0.069954574 -0.11498127 0.044216678
-0.13412626 -0.061857063 -0.047870517 0.07254355 -0.0022216644 -4.886456e-05 -0.03082634 0.051524166
0.00090744474 0.011829649 -0.0434721 0.056642704 0.06368761 -0.042078596 -0.013373379 -0.0020884722
-0.053205267 -0.0037172642 -0.046507612 -0.009088032 0.005482327 0.21677512 0.00050445314 0.02876711
0.077724375 -0.16282426 0.096487045 -0.08051721 0.04380071 -0.0490809 0.052412353 0.19054726
-0.024471043 -0.12270456 0.0026355498 -0.0065101404 0.018236304 -0.08245757 0.034117814 0.11753621
0.047521956 -0.053408384 0.08766935 -0.026658775 0.0039245784 -0.045802344 -0.024071665 0.01905491
0.12523507 0.10125686 -0.013257815 0.07551099 0.010607769 0.09002271 0.11829101 0.38406584
-0.0019832416 -0.042809058 0.20719175 -0.0871412 0.074804895 0.14768349 0.05453813 0.11099133
-0.0095001515 -0.002071729 0.07707055 -0.0118981125 -0.21085662 -0.0015803229 0.20901187 0.020353667
0.04381474 0.062274214 0.10543897 0.12877722 -0.06786416 0.082825616 0.14923824 0.029240916
-0.015968248 -0.01935046 -0.00534714 0.1667729 0.0003566933 -0.17189011 -0.021379985 0.16066554
-0.039661106 0.18361051 -0.06812269 -0.03844982 -0.0592641 -0.047784857 -0.009138469 -0.012530245
-0.036663227 0.19099912 0.13795611 -0.1738652 -0.056661814 0.025195021 -0.2594851 0.0037576687
-0.28477365 0.12866169 0.03842141 0.100646935 0.30558413 -0.27983734 -0.0029231526 -0.13956401
-0.0009986972 -0.31427297 -0.18733998 -0.1745841 -0.019682566 -0.22696239 -0.13076743 0.08128183
-0.34151596 -0.22169043 0.07802881 0.1900936 0.0034534512 0.003393314 -0.055315554 0.22219956
0.2559941 0.06634902 -0.09197946 -0.19192049 0.007994263 -0.22480877 -0.062181663 -0.19020714
-0.0042511104 -0.11101273 0.044998065 0.21333387 0.0051529747 -0.024160555 0.0015148022 -0.021145074
0.001992977 -0.04895953 0.3412111 -0.060659714 -0.06080832 -0.17944944 -0.102179505 0.05347044
-0.050248835 -0.07028444 -0.0054950523 0.0062866695 0.059860095 -0.13768609 0.04230276 -0.12008399
0.041299712 -0.06483135 0.08231493 0.12781775 0.051867727 -0.19788028 0.024860477 -0.062215302
-0.013174176 0.22130987 0.0065685003 0.1299534 0.003109853 0.2336875 0.28596625 0.24227573
-0.2719763 -0.026701974 0.060849335 0.013258488 -0.12323454 -0.28050515 0.117398255 0.41607863
00000000: 01cc 50bc baf0 b83d 1ade 3cbb f61c 073e
00000010: c801 ee3b 173d 73be 4d9d 7cbd 2f22 74be
00000020: f783 ad3e a265 54bd 4b30 013e 8565 68be
00000030: 848f 363d 8fb4 17bd 3245 e33d 2014 0dbe
00000040: 23ae 52bb 515e 4e3a 9ed9 8e3d 4a91 8fbb
00000050: cce5 803d 1b2f 423e 6759 e83d 55d3 a5bb
00000060: f3e7 163e 397f 18bc 9e71 9a3d b12f 2fbe
00000070: 91a1 edbd 0202 0fbe 1bb8 6abe dc38 d53d
00000080: f1ce 823b 59a4 6bbe b3c6 e03b 29ee 85be
00000090: 7b96 2a3d 885b 443e 26f9 033e 700c 3cbe
000000a0: a297 a9bd ccf7 61ba 877e a8bd 7136 64bd
000000b0: 058b 113e 95fa 1fbe 6f49 8f3b 8b3a cb3b
000000c0: 5a9c 873d 505c 18be 2b70 51be a0e4 6dbd
000000d0: 8010 5e3d b233 9b3e 5666 bebd d724 323e
000000e0: 54e0 fcbb 36df 143e 0c2a 3bbd 42b9 e93c
000000f0: 1436 36be de88 a8bd f973 aa39 e104 0b3d
00000100: 7e3e bdba 76ba 333e eead 403e 8a59 58be
00000110: 735a babd 5844 8fbd 4d7b ebbd 8c1c 353d
00000120: 6558 09be d55d 7dbd e013 44bd b691 943d
00000130: 5899 11bb ecf3 4cb8 8587 fcbc 010b 533d
00000140: 96e1 6d3a 25d1 413c cd0f 32bd 2e02 683d
00000150: a66e 823d 9b5a 2cbd 041c 5bbc c0de 08bb
00000160: c4ed 59bd 589d 73bb c47e 3ebd f8e5 14bc
00000170: 18a5 b33b 4cfa 5d3e 473d 043a 01a9 eb3c
00000180: f52d 9f3d 67bb 26be 009b c53d 35e6 a4bd
00000190: 6068 333d 0e09 49bd 56ae 563d d21e 433e
000001a0: 7f77 c8bc 874c fbbd 30b9 2c3b 0453 d5bb
000001b0: 4d64 953c 84df a8bd 1fbf 0b3d d3b6 f03d
000001c0: 62a6 423d c0c2 5abd fd8b b33d 8163 dabc
000001d0: c099 803b 3d9b 3bbd f131 c5bc 0b19 9c3c
000001e0: 9f3d 003e c25f cf3d 4e37 59bc 82a5 9a3d
000001f0: 35cc 2d3c d45d b83d 8f42 f23d 47a4 c43e
00000200: 46f9 01bb 8d58 2fbd 132a 543e 1677 b2bd
00000210: 4f33 993d 573a 173e 6063 5f3d 6c4f e33d
00000220: 86a6 1bbc d8c5 07bb 2ad7 9d3d 4df0 42bc
00000230: ccea 57be d622 cfba 3507 563e bcbc a63c
00000240: 1677 333d 3f13 7f3d 63f0 d73d 2dde 033e
00000250: 5dfc 8abd 7aa0 a93d e9d1 183e a58a ef3c
00000260: d8cf 82bc db84 9ebc 1037 afbb 84c6 2a3e
00000270: 9002 bb39 f603 30be 1425 afbc 8285 243e
00000280: af73 22bd 6504 3c3e e983 8bbd 8f7d 1dbd
00000290: eabe 72bd 0eba 43bd 84b9 15bc a84b 4dbc
000002a0: 2e2c 16bd 4695 433e 5e44 0d3e b809 32be
000002b0: 3816 68bd ca65 ce3c 3bdb 84be 3843 763b
000002c0: dacd 91be e4bf 033e c55f 1d3d fb1f ce3d
000002d0: 8675 9c3e d746 8fbe 5d92 3fbb dee9 0ebe
000002e0: b8e6 82ba 63e8 a0be 0dd6 3fbe 2dc6 32be
000002f0: 553d a1bc d468 68be e6e7 05be 1777 a63d
00000300: 2edb aebe d102 63be 92cd 9f3d e6a7 423e
00000310: 4c53 623b 5d62 5e3b 9092 62bd 4888 633e
00000320: a911 833e ffe1 873d ba5f bcbd ce86 44be
00000330: 5ffa 023c 4534 66be 33b2 7ebd a9c5 42be
00000340: e64c 8bbb a45a e3bd e44f 383d 3274 5a3e
00000350: 49da a83b 5bec c5bc 548c c63a 6f38 adbc
00000360: 9b9c 023b ca89 48bd 39b3 ae3e 5276 78bd
00000370: 2512 79bd 98c1 37be 7d43 d1bd d203 5b3d
00000380: b9d1 4dbd 4af1 8fbd d70f b4bb 6800 ce3b
00000390: dc2f 753d 95fd 0cbe a945 2d3d 98ee f5bd
000003a0: e329 293d 4dc6 84bd bb94 a83d a8e2 023e
000003b0: 4173 543d 21a1 4abe 33a8 cb3c 79d5 7ebd
000003c0: 80d8 57bc 0e9f 623e 933c d73b 8112 053e
000003d0: adce 4b3b c74b 6f3e 2b6a 923e 2117 783e
000003e0: 7a40 8bbe 19be dabc 273d 793d 213a 593c
000003f0: 6462 fcbd 5f9e 8fbe 7f6e f03d 4208 d53e

prop_layer.GRU.weight_hh_l0 f4 [30, 10]
0.06552982 0.032623485 0.06873619 0.0018474293 0.000924842 0.08629361 -0.014166218 -0.029671391
-0.06027141 -0.06868129 -0.23784669 -0.03466955 0.021184137 0.1297855 -0.026622223 0.088609934
0.04484429 0.12213665 -0.035096005 -0.08070246 -0.011385476 -0.017908266 0.017830884 -0.029779796
-0.012697097 0.018605433 -0.048292484 0.012918688 -0.04877713 0.039410934 0.0047053588 -0.030432537
-0.0017607771 -0.067674905 -0.047557645 0.12796667 -0.066215225 0.09835771 -0.069450565 0.060707975
-0.09419438 -0.032779694 0.14741744 -0.063962154 -0.040457845 0.036770917 0.0017937683 0.07692399
-0.048372835 0.042549167 -0.08428091 -0.06752296 0.0101081515 0.12890732 -0.1021907 -0.061673902
-0.14579445 0.247426 0.07503769 0.13088939 0.049414944 0.06632508 -0.13296773 0.06710337
0.11087841 -0.12323978 -0.086304046 -0.20558664 0.010514038 -0.12104827 -0.019032745 -0.040324304
0.02168734 -0.1555083 -0.12200793 0.0017691061 -0.04033636 -0.07477875 -0.010681575 0.025096929
-0.070875034 -0.3293942 0.03315039 0.0912495 -0.15724315 0.01614704 -0.11394599 -0.10288299
0.051662702 -0.056521613 0.017674312 -0.010950148 -0.0036351022 -0.0074053085 0.016496673 0.06375409
-0.054057274 -0.04237143 0.020134704 -0.059417993 0.14280428 -0.13782097 -0.13730814 -0.07075168
-0.2424274 0.1791183 0.0072258194 -0.0069416203 0.080523014 -0.15273194 0.17926526 0.04245914
0.052997325 -0.010609367 -0.06494878 0.070867375 -0.0013074982 -0.07768811 0.01879244 -0.028976994
-0.18368983 -0.021008605 -0.021832712 -0.029158644 -0.18084821 -0.027662933 -0.020646222 -0.16000979
-0.12417158 -0.076608196 -0.022518123 0.00022118013 0.007915817 0.024041282 0.09975256 0.15460828
0.17901608 -0.10003828 0.025769303 -0.11535074 -0.17833614 -0.13065551 0.15073407 0.06930562
-0.1258186 0.25371286 0.016630368 -0.017365223 0.07003485 0.0060944567 -0.025208985 -0.1484699
0.05811339 -0.00967802 0.004563787 0.038758967 -0.009954974 0.036167845 -0.027915237 0.087321945
0.019089038 -0.19339964 -0.051551938 -0.105096914 -0.057453476 0.04879388 0.028419156 0.1472324
0.011743253 0.016115496 -0.17383039 -0.00716122 0.07996113 0.02117441 -0.04301159 0.0883194
-0.0035951338 -0.020337086 0.10075125 -0.11852582 -0.065840036 -0.3264669 0.078151196 -0.15407601
-0.15167679 0.20399396 -0.042415597 0.039576314 0.05876285 -0.041648716 0.24369083 -0.15347664
-0.04734549 0.111291766 -0.080313735 -0.09910749 -0.22855082 -0.08403175 0.07156632 0.20470122
-0.0018224347 0.26808652 -0.31620368 0.14196694 0.43740863 -0.26655704 -0.01044911 -0.004654631
-0.072853826 0.019019358 0.07174996 0.3365401 -0.33065078 -0.0849942 0.46132627 0.05702428
0.35762525 -0.11052524 0.030094806 -0.556241 -0.3376523 0.21466532 0.10862449 0.016369915
-0.21962681 -0.048319723 0.014219441 0.083207786 -0.00412162 -0.0018889109 0.19996801 -0.29387745
0.09615842 -0.12770718 -0.01281732 0.2886804 -0.19250911 0.054683004 -0.28217772 0.29760402
-0.04053024 0.30156425 -0.123669736 0.20017992 0.23626791 -0.4023753 0.027380053 -0.34015766
0.27429622 -0.12563531 -0.21655658 -0.2614397 0.21334457 0.073114224 -0.5830084 0.48554692
00000000: 8034 863d 34a0 053d 8fc5 8c3d 7125 f23a
00000010: 1971 723a b4ba b03d 6d19 68bc 6b11 f3bc
00000020: 27df 76bd c7a8 8cbd 158e 73be a801 0ebd
00000030: 5b8a ad3c 7de6 043e d916 dabc 2079 b53d
00000040: a5ae 373d c822 fa3d d4c0 0fbd 5547 a5bd
00000050: 268a 3abc 5bb4 92bc 1312 923c c2f4 f3bc
00000060: 7c07 50bc 6c6a 983c 57ce 45bd e8a8 533c
00000070: 87ca 47bd 5c6d 213d 692f 9a3b a84d f9bc
00000080: e0c9 e6ba 2499 8abd cecb 42bd b209 033e
00000090: d99b 87bd c46f c93d 193c 8ebd eda8 783d
000000a0: fce8 c0bd 0044 06bd 99f4 163e 97fe 82bd
000000b0: 20b7 25bd 1a9d 163d e01c eb3a 538a 9d3d
000000c0: 9822 46bd 0948 2e3d 789b acbd 7a49 8abd
000000d0: a99c 253c 4800 043e 5c49 d1bd c69d 7cbd
000000e0: 244b 15be 3e5d 7d3e 5cad 993d de07 063e
000000f0: 5367 4a3d 72d5 873d b128 08be 7e6d 893d
00000100: 3814 e33d 2365 fcbd 2dc0 b0bd 4e85 52be
00000110: 1243 2c3c 28e8 f7bd 8fea 9bbc 192b 25bd
00000120: a6a9 b13c 913d 1fbe 4bdf f9bd 5ae1 e73a
00000130: bd37 25bd 9a25 99bd c601 2fbc 1398 cd3c
00000140: ee26 91bd 5ba6 a8be b4c8 073d 05e1 ba3d
00000150: 5904 21be cc46 843c 845c e9bd 51b4 d2bd
00000160: 459c 533d 3583 67bd b8c9 903c 4068 33bc
00000170: e53a 6ebb 3ba8 f2bb 0824 873c 8191 823d
00000180: 296b 5dbd aa8d 2dbd 89f1 a43c 4860 73bd
00000190: 493b 123e f120 0dbe 819a 0cbe 42e6 90bd
000001a0: e33e 78be ca6a 373e 91c6 ec3b 8876 e3bb
000001b0: 40e9 a43d c365 1cbe 5091 373e a3e9 2d3d
000001c0: b913 593d e9d2 2dbc de03 85bd ea22 913d
000001d0: 5c60 abba f21a 9fbd 9af2 993c 2961 edbc
000001e0: 3019 3cbe 3d1a acbc 84da b2bc 1cde eebc
000001f0: 4630 39be 609d e2bc 4422 a9bc 9bd9 23be
00000200: ab4d febd c2e4 9cbd ed77 b8bc 97ec 6739
00000210: 58b1 013c 39f2 c43c 124b cc3d a251 1e3e
00000220: fe4f 373e dfe0 ccbd 251a d33c 023d ecbd
00000230: c09d 36be 8fca 05be 085a 1a3e 1bf0 8d3d
00000240: 97d6 00be a7e6 813e 693c 883c 8341 8ebc
00000250: 6e6e 8f3d 02b4 c73b 1383 cebc 7e08 18be
00000260: 4e08 6e3d 8f90 1ebc d28b 953b b9c1 1e3d
00000270: 301a 23bc bc24 143d 7fae e4bc d9d5 b23d
00000280: 9d60 9c3c 8e0a 46be 2028 53bd 0d3d d7bd
00000290: 5654 6bbd 17dc 473d 4acf e83c 17c4 163e
000002a0: c666 403c a504 843c 9800 32be aba8 eabb
000002b0: a9c2 a33d f575 ad3c ec2c 30bd cde0 b43d
000002c0: 569c 6bbb f699 a6bc ac56 ce3d aabd f2bd
000002d0: 24d7 86bd ab26 a7be bc0d a03d 1ac6 1dbe
000002e0: 2951 1bbe cbe3 503e fabb 2dbd c61a 223d
000002f0: 50b1 703d d897 2abd 178a 793e fb28 1dbe
00000300: 58ed 41bd f0ec e33d 877b a4bd def8 cabd
00000310: 3a09 6abe d718 acbd 5d91 923d 329d 513e
00000320: c3de eeba a342 893e 73e5 a1be c85f 113e
00000330: 06f4 df3e 2a7a 88be be32 2bbc e085 98bb
00000340: 6334 95bd 7cce 9b3c a5f1 923d fc4e ac3e
00000350: 0f4b a9be 7011 aebd f532 ec3e 4b92 693d
00000360: a81a b73e 0f5b e2bd 6289 f63c cf65 0ebf
00000370: c3e0 acbe 3ad1 5b3e 8476 de3d 331a 863c
00000380: dae5 60be e7ea 45bd a9f8 683c d868 aa3d
00000390: a80e 87bb 5595 f7ba 6ac4 4c3e 1b77 96be
000003a0: b5ee c43d acc5 02be bdff 51bc ebcd 933e
000003b0: 1c21 45be 49fb 5f3d 9979 90be 8e5f 983e
000003c0: 0903 26bd a166 9a3e 8f46 fdbd f7fb 4c3e
000003d0: 37f0 713e 2304 cebe 224c e03c 2529 aebe
000003e0: 8e70 8c3e 8ba6 00be 02c1 5dbe 6ddb 85be
000003f0: 0077 5a3e e9bc 953d 0a40 15bf 9b99 f83e

prop_layer.GRU.bias_ih_l0 f4 [30]
0.05142517 0.057050478 0.014728363 0.11022622 0.014980263 0.27516106 0.07176088 0.22133607
0.005262627 0.04799233 -0.15174292 -0.273503 -0.12639391 -0.31189996 -0.10891831 0.020009736
0.119485974 -0.09399555 0.086458944 0.13289116 0.35794985 -0.35382864 0.37793747 0.128606
0.25670892 0.3925715 -0.25766942 0.29873708 -0.07168695 -0.014925665
00000000: 33a3 523d c3ad 693d 3b4f 713c 49be e13d
00000010: c76f 753c e9e1 8c3e 5ef7 923d eca5 623e
00000020: 1d72 ac3b 9b93 443d 7f62 1bbe 9608 8cbe
00000030: 686d 01be 5ab1 9fbe 9010 dfbd 75eb a33c
00000040: 10b5 f43d bd80 c0bd 6311 b13d 9f14 083e
00000050: 3445 b73e 0729 b5be 0581 c13e 4bb1 033e
00000060: 5a6f 833e 22ff c83e 3fed 83be 11f4 983e
00000070: 9cd0 92bd c78a 74bc

prop_layer.GRU.bias_hh_l0 f4 [30]
0.05142491 0.057051476 0.014728363 0.11022622 0.014980263 0.2781121 0.071753405 0.2213372
0.0052659735 0.04799233 -0.15226834 -0.26055852 -0.11110956 -0.32307398 -0.11305367 0.007995869
0.11956216 -0.09359549 0.086475775 0.12929918 0.23079336 -0.112086006 0.032145515 0.15355754
0.10020973 0.25555676 -0.21560064 -0.046777874 -0.0945829 -0.042916756
00000000: eda2 523d cfae 693d 3b4f 713c 49be e13d
00000010: c76f 753c b664 8e3e 73f3 923d 38a6 623e
00000020: 308e ac3b 9b93 443d 3bec 1bbe ed67 85be
00000030: 698d e3bd f469 a5be af88 e7bd 1b01 033c
00000040: 01dd f43d feae bfbd 361a b13d 0167 043e
00000050: 1855 6c3e 598d e5bd 04ab 033d 303e 1d3e
00000060: c23a cd3d 56d8 823e 6ac6 5cbe 289a 3fbd
00000070: aeb4 c1bd 7bc9 2fbd

scoring_alignment_preprocessor.0.weight f4 [16, 10]
-3.878996e-08 -6.1038268e-06 -6.2258897e-07 4.3619726e-05 -0.00022963625 8.2656225e-06 1.2401279e-09 -3.4503555e-07
-7.143497e-06 -7.2201756e-06 -0.12823682 -0.16948299 0.15853965 0.42391074 0.09267377 0.070622444
-0.09464616 -0.885792 -0.11202176 0.009923384 -0.10756132 0.11014792 -0.2870674 -0.018113125
0.5904734 0.07291676 -0.07750935 -0.03981216 -0.25816005 0.049885787 -0.38620245 0.17092866
-0.13310403 -0.45028716 0.23172502 -0.02008507 0.23657642 0.26683012 0.08182254 0.010233706
0.14343838 0.31409496 0.16967715 0.16788332 -0.46113822 -0.30633432 0.14742012 0.23299448
0.006912337 0.03018941 0.32752073 -0.0049591246 0.058837976 0.44095746 0.010558396 0.30304742
-0.371012 -0.46536928 0.31394395 0.18529141 0.068834975 -0.14843054 0.09408643 -0.072553486
-0.00983171 -0.3719602 0.18116216 0.11980557 0.44833654 0.012397118 -0.023375524 -0.42181727
0.32522714 -0.101970114 0.53193617 -0.12741296 -0.3289021 0.55372363 -0.026973696 0.11056083
5.1500927e-20 -2.9541564e-25 4.9232224e-36 -1.8997068e-22 -2.4238969e-20 1.5371993e-23 -6.6272914e-35 1.1804364e-21
1.02989065e-23 3.490095e-29 0.2851804 0.46373242 -0.41763067 0.19357528 0.2947662 0.051236182
0.24092236 0.021028219 0.13638411 -0.079288304 -0.119015604 -0.24731353 -0.0581008 -0.6524668
0.2135396 0.0792767 0.10429257 0.016541814 0.24557948 -0.10577512 -0.18389748 -0.042379305
-0.16862339 -0.13211837 0.10978754 -0.047285337 -0.5913894 0.41943932 -0.35135466 0.04695017
0.14945802 0.30525365 0.1319815 0.27450356 -0.17301635 -0.58175546 0.19554545 -0.06965956
0.23372988 0.15280622 0.032218453 -0.23723628 -0.6044284 -0.203909 -0.2723705 -0.13980469
0.15462118 0.09025791 -0.21575414 -0.20047069 -0.3700512 0.023793079 -0.24060348 0.086911835
0.3904676 -0.13610357 0.082732074 0.043468263 0.34377486 -0.042667087 0.4040403 0.050359625
0.21645392 -0.011583022 0.15821892 -0.25178722 -0.03335724 0.35444838 0.5586474 -0.2233169
00000000: 039a 26b3 79cf ccb6 fd1f 27b5 53f4 3638
00000010: 83ca 70b9 94ac 0a37 1f71 aa30 533d b9b4
00000020: 2cb2 efb6 d644 f2b6 8350 03be f38c 2dbe
00000030: 3858 223e d40a d93e bfcb bd3d 80a2 903d
00000040: d9d5 c1bd 44c3 62bf aa6b e5bd b095 223c
00000050: 1c49 dcbd 3c95 e13d 80fa 92be fa61 94bc
00000060: 4429 173f 6255 953d 39bd 9ebd 1312 23bd
00000070: 8e2d 84be 0a55 4c3d 54bc c5be ec07 2f3e
00000080: 6c4c 08be 0a8c e6be 5349 6d3e 7289 a4bc
00000090: 1741 723e f59d 883e 9392 a73d 46ab 273c
000000a0: 83e1 123e 0ed1 a03e d9bf 2d3e 9be9 2b3e
000000b0: 4f1a ecbe dad7 9cbe 4df5 163e 1b96 6e3e
000000c0: e380 e23b c84f f73c ccb0 a73e 2780 a2bb
000000d0: 1700 713d 2dc5 e13e 1ffd 2c3c 0829 9b3e
000000e0: 49f5 bdbe e244 eebe 43bd a03e 08bd 3d3e
000000f0: 5af9 8c3d 2dfe 17be 63b0 c03d ec96 94bd
00000100: 2e15 21bc 9171 bebe 9382 393e 9f5c f53d
00000110: 5e8c e53e 481d 4b3c 077e bfbc 6ff8 d7be
00000120: 2c84 a63e b5d5 d0bd f82c 083f 8b78 02be
00000130: db65 a8be d5c0 0d3f f1f7 dcbc b76d e23d
00000140: cd34 731f 7ada b696 2569 d104 14a9 659b
00000150: 3bee e49e 36ab 9419 022f b086 ec61 b21c
00000160: b735 4719 06f8 3010 2a03 923e 566e ed3e
00000170: b0d3 d5be 9938 463e 98eb 963e 08dd 513d
00000180: 5ab4 763e 5f43 ac3c 47a8 0b3e e861 a2bd
00000190: 74be f3bd c23f 7dbe 1bfb 6dbd 1008 27bf
000001a0: 20aa 5a3e d35b a23d 5897 d53d b382 873c
000001b0: 3079 7b3e a0a0 d8bd 9f4f 3cbe ec95 2dbd
000001c0: 9cab 2cbe 0a4a 07be 4ad8 e03d 45ae 41bd
000001d0: 4c65 17bf c0c0 d63e c2e4 b3be d24e 403d
000001e0: 860b 193e 354a 9c3e 2926 073e bb8b 8c3e
000001f0: 332b 31be eded 14bf 113d 483e aca9 8ebd
00000200: e356 6f3e 3c79 1c3e 7ff7 033d 11ee 72be
00000210: d2bb 1abf 85cd 50be 2574 8bbe f628 0fbe
00000220: 0455 1e3e 24d9 b83d a7ee 5cbe 3048 4dbe
00000230: 5a77 bdbe b4e9 c23c c260 76be d5fe b13d
00000240: 5feb c73e bc5e 0bbe 6f6f a93d c70b 323d
00000250: 4203 b03e afc3 2ebd 5fde ce3e e545 4e3d
00000260: 19a6 5d3e b7c6 3dbc 2404 223e 41ea 80be
00000270: 9aa1 08bd 427a b53e 8403 0f3f 2fad 64be

scoring_alignment_preprocessor.0.bias f4 [16]
-0.0014240587 -0.013640116 -0.102707095 0.12240784 0.19489542 0.14674431 -0.039908204 0.044644106
-2.6138992e-11 0.20652348 0.089758076 0.1970585 0.08614472 0.12507425 -0.051906727 -0.015223265
00000000: 7ba7 baba cb7a 5fbc 1958 d2bd f6b0 fa3d
00000010: aa92 473e 2444 163e c976 23bd bddc 363d
00000020: c7eb e5ad e47a 533e 15d3 b73d b4c9 493e
00000030: a56c b03d 7713 003e 269c 54bd 006b 79bc

scoring_alignment_preprocessor.2.weight f4 [16, 16]
2.4882029e-08 0.15575369 0.099062 -0.11635733 0.13363475 0.121678114 0.3358518 -0.17680526
8.28e-42 -0.25160646 0.014024361 -0.22197035 0.38547155 0.23065786 0.14719018 -0.22630267
-4.497271e-09 0.26682848 0.39831656 0.44153962 -0.16950704 -0.42069098 -0.06874814 0.17610973
3.378264e-27 -0.09459069 -0.046281923 -0.17859998 0.057234693 -0.2300759 0.09845875 -0.20844659
-1.33739e-40 0.0040154075 0.0014536269 0.002011797 0.0011858043 -0.0014282375 8.021025e-05 0.0016658017
9.84e-42 0.00050477765 -0.0035514764 -0.006305365 0.0009915998 0.0035448235 -6.735715e-05 0.0001430731
-2.746942e-19 -0.076968074 0.13654868 -0.010581899 0.23148993 0.04023829 -0.033363435 -0.26023147
-9.813e-42 0.13856137 -0.13826191 0.120381005 0.10763018 -0.065540336 -0.12166485 -0.25797012
-9.505472e-09 0.37530535 -0.11720757 0.102869 0.04373224 0.07446391 0.117839746 -0.2892079
9.323794e-19 -0.1832208 0.49580702 0.1539017 -0.33000332 -0.12788102 -0.34283233 -0.30880472
-5.159335e-34 -0.15516035 -0.01479073 0.010386576 0.08316765 0.120929964 0.013569774 -0.26610163
9.878e-42 0.11062264 0.0451445 0.031088393 0.037836224 0.029527629 -0.015830498 -0.06839455
1.1431349e-07 -0.18073009 -0.3986774 -0.17301852 0.43147406 -0.3515843 0.09203364 0.11279234
-1.114519e-21 -0.2635876 0.036018033 0.07177538 0.02241365 0.23129499 -0.09616463 0.35313973
-3.7776978e-08 -0.1814107 -0.022721887 -0.39212993 0.25307345 0.505692 0.2675513 -0.43599048
-7.828075e-23 0.056440465 -0.15682556 -0.10876519 0.42879933 0.36854675 0.13262135 -0.168235
2.7246689e-17 -0.1675202 -0.1287833 0.19188961 0.05056927 -0.19820039 -0.118287 -0.3199877
6.450732e-39 0.15758465 0.17746313 -0.16052245 -0.21210146 0.10769964 -0.024713892 0.1387606
-8.743244e-13 -0.17390133 0.24874885 -0.05143376 0.30327803 0.00094894296 -0.23086983 -0.025922855
-1.7636595e-35 0.27085105 -0.4430248 0.4163076 0.13868038 -0.2594605 -0.2088796 -0.27036527
6.200867e-07 0.6472105 0.13629757 0.062753245 0.12868431 -0.11930555 0.23843835 0.20882618
2.3641235e-20 -0.50089 0.20943253 0.2583389 0.03833643 -0.2827303 -0.27780396 -0.4338071
1.37341e-40 0.0011462389 0.0042948117 0.003867045 0.0070159803 0.021085775 0.00010659045 -0.007622157
9.95e-42 -0.004570891 -0.0023274682 0.030366184 -0.00039621606 -0.017707383 -0.0016569424 -0.011938691
1.2741397e-09 0.23370324 -0.14653464 -0.2759291 -0.12968154 0.37587824 -0.12250679 0.34715128
2.0525506e-26 -0.030702619 0.008703457 0.54168564 -0.34780398 -0.37010637 -0.37657246 -0.0387416
-1.38681e-40 0.00093626254 -0.0015698153 0.000676307 0.0015629934 0.00038228362 0.00091720925 0.00016761856
-9.813e-42 0.0021843642 -0.0006810336 0.0012205577 -0.00069324294 0.0015338736 -0.00057734514 -0.0015698294
3.2244085e-31 -0.20230253 0.024068072 -0.037136585 0.19147359 0.045256056 -0.038303312 -0.24176319
-9.885e-42 0.16565293 -0.111928284 0.0882066 0.10695102 0.025982061 -0.03939171 -0.10712008
-1.0054601e-24 0.28289977 -0.077427104 -0.13489965 -0.21053419 0.17398115 0.174114 0.35392696
9.876e-42 -0.27957708 0.139686 0.06398296 -0.019423459 -0.06729672 0.017147537 0.042348966
00000000: 29bc d532 e57d 1f3e 05e1 ca3d c04c eebd
00000010: 8cd7 083e 6032 f93d c4f4 ab3e 700c 35be
00000020: 1517 0000 90d2 80be 6fc6 653c 324c 63be
00000030: 875c c53e 9331 6c3e 06b9 163e e3bb 67be
00000040: 6a86 9ab1 be9d 883e 26f0 cb3e 7b11 e23e
00000050: 4193 2dbe cf64 d7be d3cb 8cbd 1c56 343e
00000060: abd3 8513 c4b8 c1bd 1d92 3dbd eae2 36be
00000070: ed6e 6a3d 0499 6bbe bea4 c93d 0673 55be
00000080: cf74 0180 ae93 833b a087 be3a 5ad8 033b
00000090: fd6c 9b3a b333 bbba 8d36 a838 0857 da3a
000000a0: 6e1b 0000 0e53 043a e3bf 68bb 3c9d cebb
000000b0: 91f8 813a 4550 683b 1842 8db8 e505 1639
000000c0: 9d26 a2a0 70a1 9dbd 6bd3 0b3e b45f 2dbc
000000d0: b20b 6d3e e8d0 243d 19a8 08bd 0f3d 85be
000000e0: 5b1b 0080 08e3 0d3e 8894 0dbe 518a f63d
000000f0: 366d dc3d 033a 86bd 6c2b f9bd a914 84be
00000100: 824d 23b2 0628 c03e 860a f0bd fbac d23d
00000110: 9420 333d 8980 983d f755 f13d 0f13 94be
00000120: 4c98 8921 3c9e 3bbe 6bda fd3e 6898 1d3e
00000130: 32f6 a8be 3ef3 02be b887 afbe a71b 9ebe
00000140: c572 2b88 5be2 1ebe d154 72bc 752c 2a3c
00000150: cd53 aa3d 21aa f73d c253 5e3c 793e 88be
00000160: 891b 0000 1f8e e23d 70e9 383d 16ad fe3c
00000170: 28fa 1a3d ede3 f13c f6ae 81bc 7112 8cbd
00000180: 817c f533 4f11 39be 721f ccbe c42b 31be
00000190: 2bea dc3e db02 b4be 227c bc3d acff e63d
000001a0: de6b a89c f4f4 86be a587 133d f8fe 923d
000001b0: d59c b73c 98d8 6c3e f6f1 c4bd bbce b43e
000001c0: 3a40 22b3 bac3 39be 4023 babc 41c5 c8be
000001d0: d892 813e 0875 013f 7cfc 883e 253a dfbe
000001e0: 7045 bd9a 1e2e 673d e196 20be 49c0 debd
000001f0: 968b db3e 29b2 bc3e e4cd 073e cc45 2cbe
00000200: 6d4e fb23 6a8a 2bbe c5df 03be b67e 443e
00000210: b921 4f3d 0bf5 4abe 7440 f2bd 6ed5 a3be
00000220: 043e 4600 df5d 213e e5b8 353e ff5f 24be
00000230: 2031 59be a191 dc3d ca74 cabc 4217 0e3e
00000240: b619 76ab 3113 32be 05b8 7e3e 35ac 52bd
00000250: 4247 9b3e 7cc2 783a 2469 6cbe 2b5c d4bc
00000260: 618b bb85 fdac 8a3e 26d4 e2be 4526 d53e
00000270: 3b02 0e3e 02d8 84be 89e4 55be 516d 8abe
00000280: 0974 2635 96af 253f 9791 0b3e c684 803d
00000290: d2c5 033e 7856 f4bd 2f29 743e 88d6 553e
000002a0: 0049 df1e 543a 00bf 7b75 563e ff44 843e
000002b0: a906 1d3d 07c2 90be 523c 8ebe f71b debe
000002c0: da7e 0100 653d 963a 7ebb 8c3b 406e 7d3b
000002d0: 4fe6 e53b 13bc ac3c 5089 df38 4ac3 f9bb
000002e0: bd1b 0000 6ac7 95bb 7088 18bb 81c2 f83c
000002f0: 38bb cfb9 130f 91bc c32d d9ba 809a 43bc
00000300: ce1d af30 e74f 6f3e 2d0d 16be 9446 8dbe
00000310: 3dcb 04be 1d73 c03e d7e4 fabd d0bd b13e
00000320: 5746 cb14 0f84 fbbc f298 0e3c e9ab 0a3f
00000330: 5d13 b2be 957e bdbe 1bce c0be 83af 1ebd
00000340: 9682 0180 846f 753a 43c2 cdba 324a 313a
00000350: 5bdd cc3a 3d6d c839 df70 703a c4c2 2f39
00000360: 5b1b 0080 8d27 0f3b 6487 32ba 1ffb 9f3a
00000370: bfba 35ba 420c c93a fa58 17ba bcc2 cdba
00000380: ad46 d10c 6528 4fbe 682a c53c 881c 18bd
00000390: a711 443e 6a5e 393d efe3 1cbd c590 77be
000003a0: 8e1b 0080 eca0 293e a83a e5bd a9a5 b43d
000003b0: 2309 db3d 55d8 d43c 3459 21bd c661 dbbd
000003c0: 6196 9b97 3dd8 903e 1a92 9ebd 2223 0abe
000003d0: 4696 57be 1d28 323e f14a 323e ea35 b53e
000003e0: 881b 0000 ba24 8fbe d909 0f3e 8009 833d
000003f0: f21d 9fbc ddd2 89bd fe78 8c3c 1c76 2d3d

scoring_alignment_preprocessor.2.bias f4 [16]
0.027688636 0.12501013 0.002049039 0.08666459 0.12014832 0.016885664 0.040313747 -0.051307596
0.17047608 -0.012891626 0.0031087568 -0.011384011 -0.1633995 -0.0013475975 0.029412191 -0.16732964
00000000: 47d3 e23c a802 003e 2b49 063b 347d b13d
00000010: 5310 f63d ce53 8a3c 0720 253d ea27 52bd
00000020: 4891 2e3e 6637 53bc 49bc 4b3b 0184 3abc
00000030: 3352 27be dea1 b0ba d6f1 f03c 7658 2bbe

interaction_alignment_preprocessor.0.weight f4 [16, 10]
-3.878996e-08 -6.1038268e-06 -6.2258897e-07 4.3619726e-05 -0.00022963625 8.2656225e-06 1.2401279e-09 -3.4503555e-07
-7.143497e-06 -7.2201756e-06 -0.12823682 -0.16948299 0.15853965 0.42391074 0.09267377 0.070622444
-0.09464616 -0.885792 -0.11202176 0.009923384 -0.10756132 0.11014792 -0.2870674 -0.018113125
0.5904734 0.07291676 -0.07750935 -0.03981216 -0.25816005 0.049885787 -0.38620245 0.17092866
-0.13310403 -0.45028716 0.23172502 -0.02008507 0.23657642 0.26683012 0.08182254 0.010233706
0.14343838 0.31409496 0.16967715 0.16788332 -0.46113822 -0.30633432 0.14742012 0.23299448
0.006912337 0.03018941 0.32752073 -0.0049591246 0.058837976 0.44095746 0.010558396 0.30304742
-0.371012 -0.46536928 0.31394395 0.18529141 0.068834975 -0.14843054 0.09408643 -0.072553486
-0.00983171 -0.3719602 0.18116216 0.11980557 0.44833654 0.012397118 -0.023375524 -0.42181727
0.32522714 -0.101970114 0.53193617 -0.12741296 -0.3289021 0.55372363 -0.026973696 0.11056083
5.1500927e-20 -2.9541564e-25 4.9232224e-36 -1.8997068e-22 -2.4238969e-20 1.5371993e-23 -6.6272914e-35 1.1804364e-21
1.02989065e-23 3.490095e-29 0.2851804 0.46373242 -0.41763067 0.19357528 0.2947662 0.051236182
0.24092236 0.021028219 0.13638411 -0.079288304 -0.119015604 -0.24731353 -0.0581008 -0.6524668
0.2135396 0.0792767 0.10429257 0.016541814 0.24557948 -0.10577512 -0.18389748 -0.042379305
-0.16862339 -0.13211837 0.10978754 -0.047285337 -0.5913894 0.41943932 -0.35135466 0.04695017
0.14945802 0.30525365 0.1319815 0.27450356 -0.17301635 -0.58175546 0.19554545 -0.06965956
0.23372988 0.15280622 0.032218453 -0.23723628 -0.6044284 -0.203909 -0.2723705 -0.13980469
0.15462118 0.09025791 -0.21575414 -0.20047069 -0.3700512 0.023793079 -0.24060348 0.086911835
0.3904676 -0.13610357 0.082732074 0.043468263 0.34377486 -0.042667087 0.4040403 0.050359625
0.21645392 -0.011583022 0.15821892 -0.25178722 -0.03335724 0.35444838 0.5586474 -0.2233169
00000000: 039a 26b3 79cf ccb6 fd1f 27b5 53f4 3638
00000010: 83ca 70b9 94ac 0a37 1f71 aa30 533d b9b4
00000020: 2cb2 efb6 d644 f2b6 8350 03be f38c 2dbe
00000030: 3858 223e d40a d93e bfcb bd3d 80a2 903d
00000040: d9d5 c1bd 44c3 62bf aa6b e5bd b095 223c
00000050: 1c49 dcbd 3c95 e13d 80fa 92be fa61 94bc
00000060: 4429 173f 6255 953d 39bd 9ebd 1312 23bd
00000070: 8e2d 84be 0a55 4c3d 54bc c5be ec07 2f3e
00000080: 6c4c 08be 0a8c e6be 5349 6d3e 7289 a4bc
00000090: 1741 723e f59d 883e 9392 a73d 46ab 273c
000000a0: 83e1 123e 0ed1 a03e d9bf 2d3e 9be9 2b3e
000000b0: 4f1a ecbe dad7 9cbe 4df5 163e 1b96 6e3e
000000c0: e380 e23b c84f f73c ccb0 a73e 2780 a2bb
000000d0: 1700 713d 2dc5 e13e 1ffd 2c3c 0829 9b3e
000000e0: 49f5 bdbe e244 eebe 43bd a03e 08bd 3d3e
000000f0: 5af9 8c3d 2dfe 17be 63b0 c03d ec96 94bd
00000100: 2e15 21bc 9171 bebe 9382 393e 9f5c f53d
00000110: 5e8c e53e 481d 4b3c 077e bfbc 6ff8 d7be
00000120: 2c84 a63e b5d5 d0bd f82c 083f 8b78 02be
00000130: db65 a8be d5c0 0d3f f1f7 dcbc b76d e23d
00000140: cd34 731f 7ada b696 2569 d104 14a9 659b
00000150: 3bee e49e 36ab 9419 022f b086 ec61 b21c
00000160: b735 4719 06f8 3010 2a03 923e 566e ed3e
00000170: b0d3 d5be 9938 463e 98eb 963e 08dd 513d
00000180: 5ab4 763e 5f43 ac3c 47a8 0b3e e861 a2bd
00000190: 74be f3bd c23f 7dbe 1bfb 6dbd 1008 27bf
000001a0: 20aa 5a3e d35b a23d 5897 d53d b382 873c
000001b0: 3079 7b3e a0a0 d8bd 9f4f 3cbe ec95 2dbd
000001c0: 9cab 2cbe 0a4a 07be 4ad8 e03d 45ae 41bd
000001d0: 4c65 17bf c0c0 d63e c2e4 b3be d24e 403d
000001e0: 860b 193e 354a 9c3e 2926 073e bb8b 8c3e
000001f0: 332b 31be eded 14bf 113d 483e aca9 8ebd
00000200: e356 6f3e 3c79 1c3e 7ff7 033d 11ee 72be
00000210: d2bb 1abf 85cd 50be 2574 8bbe f628 0fbe
00000220: 0455 1e3e 24d9 b83d a7ee 5cbe 3048 4dbe
00000230: 5a77 bdbe b4e9 c23c c260 76be d5fe b13d
00000240: 5feb c73e bc5e 0bbe 6f6f a93d c70b 323d
00000250: 4203 b03e afc3 2ebd 5fde ce3e e545 4e3d
00000260: 19a6 5d3e b7c6 3dbc 2404 223e 41ea 80be
00000270: 9aa1 08bd 427a b53e 8403 0f3f 2fad 64be

interaction_alignment_preprocessor.0.bias f4 [16]
-0.0014240587 -0.013640116 -0.102707095 0.12240784 0.19489542 0.14674431 -0.039908204 0.044644106
-2.6138992e-11 0.20652348 0.089758076 0.1970585 0.08614472 0.12507425 -0.051906727 -0.015223265
00000000: 7ba7 baba cb7a 5fbc 1958 d2bd f6b0 fa3d
00000010: aa92 473e 2444 163e c976 23bd bddc 363d
00000020: c7eb e5ad e47a 533e 15d3 b73d b4c9 493e
00000030: a56c b03d 7713 003e 269c 54bd 006b 79bc

interaction_alignment_preprocessor.2.weight f4 [16, 16]
2.4882029e-08 0.15575369 0.099062 -0.11635733 0.13363475 0.121678114 0.3358518 -0.17680526
8.28e-42 -0.25160646 0.014024361 -0.22197035 0.38547155 0.23065786 0.14719018 -0.22630267
-4.497271e-09 0.26682848 0.39831656 0.44153962 -0.16950704 -0.42069098 -0.06874814 0.17610973
3.378264e-27 -0.09459069 -0.046281923 -0.17859998 0.057234693 -0.2300759 0.09845875 -0.20844659
-1.33739e-40 0.0040154075 0.0014536269 0.002011797 0.0011858043 -0.0014282375 8.021025e-05 0.0016658017
9.84e-42 0.00050477765 -0.0035514764 -0.006305365 0.0009915998 0.0035448235 -6.735715e-05 0.0001430731
-2.746942e-19 -0.076968074 0.13654868 -0.010581899 0.23148993 0.04023829 -0.033363435 -0.26023147
-9.813e-42 0.13856137 -0.13826191 0.120381005 0.10763018 -0.065540336 -0.12166485 -0.25797012
-9.505472e-09 0.37530535 -0.11720757 0.102869 0.04373224 0.07446391 0.117839746 -0.2892079
9.323794e-19 -0.1832208 0.49580702 0.1539017 -0.33000332 -0.12788102 -0.34283233 -0.30880472
-5.159335e-34 -0.15516035 -0.01479073 0.010386576 0.08316765 0.120929964 0.013569774 -0.26610163
9.878e-42 0.11062264 0.0451445 0.031088393 0.037836224 0.029527629 -0.015830498 -0.06839455
1.1431349e-07 -0.18073009 -0.3986774 -0.17301852 0.43147406 -0.3515843 0.09203364 0.11279234
-1.114519e-21 -0.2635876 0.036018033 0.07177538 0.02241365 0.23129499 -0.09616463 0.35313973
-3.7776978e-08 -0.1814107 -0.022721887 -0.39212993 0.25307345 0.505692 0.2675513 -0.43599048
-7.828075e-23 0.056440465 -0.15682556 -0.10876519 0.42879933 0.36854675 0.13262135 -0.168235
2.7246689e-17 -0.1675202 -0.1287833 0.19188961 0.05056927 -0.19820039 -0.118287 -0.3199877
6.450732e-39 0.15758465 0.17746313 -0.16052245 -0.21210146 0.10769964 -0.024713892 0.1387606
-8.743244e-13 -0.17390133 0.24874885 -0.05143376 0.30327803 0.00094894296 -0.23086983 -0.025922855
-1.7636595e-35 0.27085105 -0.4430248 0.4163076 0.13868038 -0.2594605 -0.2088796 -0.27036527
6.200867e-07 0.6472105 0.13629757 0.062753245 0.12868431 -0.11930555 0.23843835 0.20882618
2.3641235e-20 -0.50089 0.20943253 0.2583389 0.03833643 -0.2827303 -0.27780396 -0.4338071
1.37341e-40 0.0011462389 0.0042948117 0.003867045 0.0070159803 0.021085775 0.00010659045 -0.007622157
9.95e-42 -0.004570891 -0.0023274682 0.030366184 -0.00039621606 -0.017707383 -0.0016569424 -0.011938691
1.2741397e-09 0.23370324 -0.14653464 -0.2759291 -0.12968154 0.37587824 -0.12250679 0.34715128
2.0525506e-26 -0.030702619 0.008703457 0.54168564 -0.34780398 -0.37010637 -0.37657246 -0.0387416
-1.38681e-40 0.00093626254 -0.0015698153 0.000676307 0.0015629934 0.00038228362 0.00091720925 0.00016761856
-9.813e-42 0.0021843642 -0.0006810336 0.0012205577 -0.00069324294 0.0015338736 -0.00057734514 -0.0015698294
3.2244085e-31 -0.20230253 0.024068072 -0.037136585 0.19147359 0.045256056 -0.038303312 -0.24176319
-9.885e-42 0.16565293 -0.111928284 0.0882066 0.10695102 0.025982061 -0.03939171 -0.10712008
-1.0054601e-24 0.28289977 -0.077427104 -0.13489965 -0.21053419 0.17398115 0.174114 0.35392696
9.876e-42 -0.27957708 0.139686 0.06398296 -0.019423459 -0.06729672 0.017147537 0.042348966
00000000: 29bc d532 e57d 1f3e 05e1 ca3d c04c eebd
00000010: 8cd7 083e 6032 f93d c4f4 ab3e 700c 35be
00000020: 1517 0000 90d2 80be 6fc6 653c 324c 63be
00000030: 875c c53e 9331 6c3e 06b9 163e e3bb 67be
00000040: 6a86 9ab1 be9d 883e 26f0 cb3e 7b11 e23e
00000050: 4193 2dbe cf64 d7be d3cb 8cbd 1c56 343e
00000060: abd3 8513 c4b8 c1bd 1d92 3dbd eae2 36be
00000070: ed6e 6a3d 0499 6bbe bea4 c93d 0673 55be
00000080: cf74 0180 ae93 833b a087 be3a 5ad8 033b
00000090: fd6c 9b3a b333 bbba 8d36 a838 0857 da3a
000000a0: 6e1b 0000 0e53 043a e3bf 68bb 3c9d cebb
000000b0: 91f8 813a 4550 683b 1842 8db8 e505 1639
000000c0: 9d26 a2a0 70a1 9dbd 6bd3 0b3e b45f 2dbc
000000d0: b20b 6d3e e8d0 243d 19a8 08bd 0f3d 85be
000000e0: 5b1b 0080 08e3 0d3e 8894 0dbe 518a f63d
000000f0: 366d dc3d 033a 86bd 6c2b f9bd a914 84be
00000100: 824d 23b2 0628 c03e 860a f0bd fbac d23d
00000110: 9420 333d 8980 983d f755 f13d 0f13 94be
00000120: 4c98 8921 3c9e 3bbe 6bda fd3e 6898 1d3e
00000130: 32f6 a8be 3ef3 02be b887 afbe a71b 9ebe
00000140: c572 2b88 5be2 1ebe d154 72bc 752c 2a3c
00000150: cd53 aa3d 21aa f73d c253 5e3c 793e 88be
00000160: 891b 0000 1f8e e23d 70e9 383d 16ad fe3c
00000170: 28fa 1a3d ede3 f13c f6ae 81bc 7112 8cbd
00000180: 817c f533 4f11 39be 721f ccbe c42b 31be
00000190: 2bea dc3e db02 b4be 227c bc3d acff e63d
000001a0: de6b a89c f4f4 86be a587 133d f8fe 923d
000001b0: d59c b73c 98d8 6c3e f6f1 c4bd bbce b43e
000001c0: 3a40 22b3 bac3 39be 4023 babc 41c5 c8be
000001d0: d892 813e 0875 013f 7cfc 883e 253a dfbe
000001e0: 7045 bd9a 1e2e 673d e196 20be 49c0 debd
000001f0: 968b db3e 29b2 bc3e e4cd 073e cc45 2cbe
00000200: 6d4e fb23 6a8a 2bbe c5df 03be b67e 443e
00000210: b921 4f3d 0bf5 4abe 7440 f2bd 6ed5 a3be
00000220: 043e 4600 df5d 213e e5b8 353e ff5f 24be
00000230: 2031 59be a191 dc3d ca74 cabc 4217 0e3e
00000240: b619 76ab 3113 32be 05b8 7e3e 35ac 52bd
00000250: 4247 9b3e 7cc2 783a 2469 6cbe 2b5c d4bc
00000260: 618b bb85 fdac 8a3e 26d4 e2be 4526 d53e
00000270: 3b02 0e3e 02d8 84be 89e4 55be 516d 8abe
00000280: 0974 2635 96af 253f 9791 0b3e c684 803d
00000290: d2c5 033e 7856 f4bd 2f29 743e 88d6 553e
000002a0: 0049 df1e 543a 00bf 7b75 563e ff44 843e
000002b0: a906 1d3d 07c2 90be 523c 8ebe f71b debe
000002c0: da7e 0100 653d 963a 7ebb 8c3b 406e 7d3b
000002d0: 4fe6 e53b 13bc ac3c 5089 df38 4ac3 f9bb
000002e0: bd1b 0000 6ac7 95bb 7088 18bb 81c2 f83c
000002f0: 38bb cfb9 130f 91bc c32d d9ba 809a 43bc
00000300: ce1d af30 e74f 6f3e 2d0d 16be 9446 8dbe
00000310: 3dcb 04be 1d73 c03e d7e4 fabd d0bd b13e
00000320: 5746 cb14 0f84 fbbc f298 0e3c e9ab 0a3f
00000330: 5d13 b2be 957e bdbe 1bce c0be 83af 1ebd
00000340: 9682 0180 846f 753a 43c2 cdba 324a 313a
00000350: 5bdd cc3a 3d6d c839 df70 703a c4c2 2f39
00000360: 5b1b 0080 8d27 0f3b 6487 32ba 1ffb 9f3a
00000370: bfba 35ba 420c c93a fa58 17ba bcc2 cdba
00000380: ad46 d10c 6528 4fbe 682a c53c 881c 18bd
00000390: a711 443e 6a5e 393d efe3 1cbd c590 77be
000003a0: 8e1b 0080 eca0 293e a83a e5bd a9a5 b43d
000003b0: 2309 db3d 55d8 d43c 3459 21bd c661 dbbd
000003c0: 6196 9b97 3dd8 903e 1a92 9ebd 2223 0abe
000003d0: 4696 57be 1d28 323e f14a 323e ea35 b53e
000003e0: 881b 0000 ba24 8fbe d909 0f3e 8009 833d
000003f0: f21d 9fbc ddd2 89bd fe78 8c3c 1c76 2d3d

interaction_alignment_preprocessor.2.bias f4 [16]
0.027688636 0.12501013 0.002049039 0.08666459 0.12014832 0.016885664 0.040313747 -0.051307596
0.17047608 -0.012891626 0.0031087568 -0.011384011 -0.1633995 -0.0013475975 0.029412191 -0.16732964
00000000: 47d3 e23c a802 003e 2b49 063b 347d b13d
00000010: 5310 f63d ce53 8a3c 0720 253d ea27 52bd
00000020: 4891 2e3e 6637 53bc 49bc 4b3b 0184 3abc
00000030: 3352 27be dea1 b0ba d6f1 f03c 7658 2bbe
