paper_artifacts/collection/gmn_baseline_scoring=agg___tp=attention_pp=identity_when=post_K=10/trained_models/gmn_baseline_scoring=agg___tp=attention_pp=identity_when=post_K=10_aids_large_dataset_seed_7366_2024-05-01_18:16:33.pth (torch, 12412 bytes, 14 tensors)

encoder.MLP1.0.weight f4 [10, 1]
000000 11 e6 11 3e 61 da a7 bc 0c ba 25 be 5e 7a a9 3e
       0.1424792 -0.020489873 -0.16184253 0.3310117
000010 d8 5e 10 bf f1 c6 89 3e a3 2e 12 bd 9d 27 84 3d
       -0.5639472 0.26909593 -0.035689007 0.06452868
000020 3f 59 0a 3d 50 73 54 3d
       0.033776518 0.051867783

encoder.MLP1.0.bias f4 [10]
000000 09 b7 10 3e df 5c b1 3d 5f b3 24 be c7 fd a1 3e
       0.14132322 0.08660292 -0.1608405 0.3163893
000010 29 6e 15 bf 8c fb 95 3e e7 4d 4c be b2 34 8d 3c
       -0.58371216 0.29293478 -0.19951592 0.017237041
000020 5a 69 0f 3d e3 86 54 3d
       0.03501258 0.05188645

prop_layer._message_net.0.weight f4 [20, 21]
000000 6d 0a db 3e 95 01 81 bd 98 ca 4e 3e af 7c ab 3d
       0.42781392 -0.0629913 0.20194471 0.08373391
000010 eb 46 b8 3d dd 5d 2c be ce 16 21 3f 6b 5d a0 3e
       0.089979015 -0.16832681 0.6292542 0.31321272
000020 13 23 8c 3e a3 04 cf be b4 9e 29 bd a3 ac 7a 3e
       0.2737051 -0.40433225 -0.041411117 0.24479918
000030 33 a9 34 3d 62 26 9b be d5 a5 d4 be ba a0 80 bc
       0.044106673 -0.3030272 -0.4153277 -0.01570164
000040 be ad 99 be 1f cd ce 3e a7 5c a7 bd e3 18 e7 39
       -0.30015367 0.4039087 -0.08171969 0.00044078295
000050 f2 0d a5 bd 7d f1 83 be 4b 0a ae 3b a5 fa b8 3d
       -0.080593005 -0.25770178 0.0053112856 0.09032182
000060 52 93 a0 3e c5 c7 23 3d 91 8c 28 3d ee 99 ae 3e
       0.31362396 0.039985437 0.04114968 0.34101814
000070 e1 98 6d be 8f 96 0f be 4c 38 a2 be ea 5d 81 3e
       -0.2320285 -0.14022277 -0.31683576 0.25266963
000080 0d ce d0 3d 64 3c 05 bf e3 1c e4 bd 12 34 bb 3d
       0.10195551 -0.52045274 -0.11138322 0.09140791
000090 ba cb e7 3d cf 67 d9 be 4e 23 53 3d 5f 6f f8 3d
       0.11318155 -0.42462012 0.05154734 0.12130617
0000a0 d6 f6 ce 3d 61 9f 99 3d 3e a7 71 3e 85 86 1d 3e
       0.10105674 0.07501102 0.23598954 0.15383346
0000b0 63 7b 13 be 03 7d 06 3e 20 c3 2a be 16 66 ca be
       -0.14402537 0.13133626 -0.16675997 -0.3953101
0000c0 79 10 37 bf 28 68 67 3f 01 cf a5 be 34 aa bd 3d
       -0.7150951 0.90393305 -0.32384494 0.09260979
0000d0 1b 6d e2 bd f8 d0 8f be 8c 28 17 3d e9 74 54 be
       -0.110559665 -0.28089118 0.036903903 -0.20747723
0000e0 26 49 0f bd 97 f8 f6 bd 4b dd 0a 3e e5 8d 73 3d
       -0.03498187 -0.120591335 0.13560979 0.059461493
0000f0 18 15 18 3e 40 46 49 bd 06 d2 3c bd 9c 36 70 be
       0.14851797 -0.04913926 -0.04609873 -0.23458332
000100 84 11 e8 3c 68 21 81 3e f3 09 98 3d 36 49 81 be
       0.028328665 0.252208 0.07423773 -0.25251168
000110 f4 ed 5c be 13 a2 73 bd 37 a9 86 bd 06 da f6 bc
       -0.21575147 -0.059480738 -0.06575244 -0.030133259
000120 8c 28 a4 be c9 76 b2 3e 7f 1d 01 3e 6f 1e cb bd
       -0.32062185 0.3485625 0.12608908 -0.09917914
000130 72 d8 51 3e 26 74 5c bd de 89 ab be 70 7c 5b 3e
       0.20492724 -0.053821705 -0.33503622 0.21434188
000140 79 4c a2 bd 1e ae 80 3e 36 7b c9 3d 57 76 c7 3c
       -0.07924742 0.2513284 0.09837954 0.024348421
000150 cb e2 99 bd ef c2 82 3d 2a b2 36 3e 3a cd 8f 3d
       -0.075139605 0.06384837 0.17841402 0.07021566
000160 01 4a f2 3e 89 64 37 3e 5f 1a 1a bd 72 e1 18 3e
       0.47322085 0.17909445 -0.037622806 0.1492975
000170 07 81 88 3d 7d 19 c6 bc 67 82 a2 3d ba a5 53 be
       0.06665235 -0.024182076 0.079350285 -0.20668688
000180 cb f0 c1 bd 0f 6b 9d bd 9b 15 9f bd 84 7d 1e be
       -0.09469756 -0.076864354 -0.07767793 -0.15477568
000190 1f 72 52 3d 6f dc fd bd 44 d6 1f 3e ba ac 9a 3e
       0.051378366 -0.1239556 0.1560908 0.30209905
0001a0 08 dd 40 bd 2c 5f 37 3b bc 57 65 3b cd c5 9c 3b
       -0.04708579 0.002798031 0.003499492 0.004784322
0001b0 17 05 a6 3b e5 16 a3 3b a2 3d 54 b8 8c be 90 3b
       0.0050665247 0.0049770945 -5.060214e-05 0.004417246
0001c0 96 92 bd 3b e8 6c 1e 3a 12 9e 2c 3b 95 ef f6 3b
       0.0057852967 0.000604345 0.0026339334 0.0075358846
0001d0 6d 25 b5 3b 64 d6 20 bb fe 51 60 3c da 6e ad 3a
       0.005528143 -0.002454185 0.013691423 0.0013231889
0001e0 09 63 9c 39 f6 ae 2f 3b 21 eb 70 3a 50 6b b3 b8
       0.00029828426 0.0026807166 0.00091903104 -8.555374e-05
0001f0 fa 84 fe bb 08 04 5d 3b ad 93 a6 3a 29 75 d0 39
       -0.007767317 0.0033724327 0.0012708806 0.00039760143
000200 c6 9e ad ba 84 a6 9b ba 7d be 3e ba 2c cd 1d 3c
       -0.0013246171 -0.0011875187 -0.000727631 0.009631436
000210 bf 02 53 bb e7 a0 a7 3b 38 b1 62 3b 6c 33 d9 bb
       -0.0032197682 0.0051156166 0.0034590494 -0.0066284444
000220 50 a5 b1 3a 5a 84 b5 3b 4e c0 66 bb 78 00 1d 3c
       0.0013553295 0.005539459 -0.0035209837 0.009582631
000230 5e 7d 69 3b bc 52 a7 bb 25 ca c8 3a 36 a9 67 3b
       0.0035627703 -0.0051062983 0.0015319033 0.003534866
000240 00 ee 7b 39 f7 0d 81 ba 59 8c a1 3b b3 1b 41 3e
       0.00024025887 -0.0009846081 0.004930061 0.18858223
000250 72 f2 6e be 7a 84 81 3e 14 67 99 bd ce 45 e7 3b
       -0.23334673 0.25296384 -0.07490364 0.007057882
000260 21 84 e2 bd 15 80 36 be f1 0d 6e be a6 54 b2 3d
       -0.11060358 -0.17822297 -0.23247506 0.08707552
000270 ae 0b 57 3e 3c 3b 47 bc ae 86 0a bd 94 b9 6a bd
       0.21000549 -0.012160119 -0.033819847 -0.057305887
000280 cc 5b 91 bb df 3c 89 3d bd 8f 32 bd ef 3f 49 bd
       -0.004435992 0.06701063 -0.04359411 -0.049133237
000290 0c 24 89 3d d3 6d cf bd 3a 0a a6 3d 33 f1 9d 3d
       0.066963285 -0.10128369 0.08107419 0.07712021
0002a0 64 1e 52 3d a8 58 c7 3d b1 19 1c bd 57 09 ba 3e
       0.051298514 0.09733707 -0.03811044 0.3633525
0002b0 6e cc de bd 6f 7a 9b be aa 4f 7a be 52 ff e0 be
       -0.108788356 -0.30366847 -0.24444452 -0.43944794
0002c0 c8 db 20 bf 27 41 5a be 46 ce ca be e2 4d 5f be
       -0.6283536 -0.21313916 -0.396105 -0.21807054
0002d0 63 7d 95 bc 57 f6 f9 bc 49 97 57 3e 45 1c 50 be
       -0.018248266 -0.030512972 0.21053804 -0.20323284
0002e0 e1 9c 71 be 78 2b ee 3e 1a 62 cc 3e 82 2d 90 3d
       -0.23595001 0.4651754 0.39918596 0.0703993
0002f0 7f f9 55 bd 38 d3 64 be 50 9e d4 3e 09 a0 99 3e
       -0.05223989 -0.22346199 0.41527033 0.3000491
000300 13 e4 29 be 00 09 38 be 5d 79 b2 bd 77 af 06 3e
       -0.1659091 -0.17972183 -0.087145545 0.13152872
000310 22 3f 8d 3d 17 2b a4 bc e1 b8 ee bd d2 f7 08 be
       0.06896807 -0.020040078 -0.116563566 -0.13375786
000320 b1 08 e5 3d 45 94 f2 bd 33 22 e4 3d e8 c8 c3 be
       0.111832984 -0.118446864 0.111393355 -0.38239217
000330 b6 f2 24 be b7 b1 8b bd 3c 11 9d 3e c6 ae e9 bd
       -0.16108212 -0.06821006 0.3067721 -0.114102885
000340 ea 2e e0 3d 0a a8 61 3c 84 b5 44 3e 8f 63 b3 3e
       0.10946448 0.013772974 0.19209868 0.35036895
000350 bf 47 7a 3c af 8a 5c 3e ed 64 73 be 8b ed ea 3e
       0.015275895 0.21537279 -0.23768969 0.45884356
000360 da 97 84 be 71 6f 3c bf 44 49 55 be 1e 8b 2a 3d
       -0.25897104 -0.73607546 -0.2082873 0.04163658
000370 66 49 a7 bd f3 ef dd be 4f 65 34 3e 30 bf 61 be
       -0.081682965 -0.4334713 0.17616771 -0.22045588
000380 8b 83 f2 3d 68 50 9a 3e 01 b9 a1 bd f2 4d bf bd
       0.11841496 0.3013947 -0.07896615 -0.09341039
000390 5d 37 96 3e 4a 31 3e 3d a3 05 f5 bd c6 ab 57 39
       0.29339114 0.046433724 -0.11963966 0.00020567988
0003a0 17 c7 ef b9 b4 b8 ce 39 a9 12 76 b8 0e fd b7 b9
       -0.00045733966 0.00039428996 -5.866835e-05 -0.0003509302
0003b0 d7 06 1a bc 7a 72 4a 3b af 16 d8 bb 6f 13 21 bb
       -0.009401045 0.0030890987 -0.006594501 -0.0024578234
0003c0 b0 03 eb 3b 5a 6b 36 bb b8 41 c9 bb ac 30 64 3b
       0.0071720704 -0.0027834983 -0.0061418675 0.003481905
0003d0 bd e5 33 bc 45 60 8b bb 49 e3 9e 3b 8f 99 09 bb
       -0.010980067 -0.0042534196 0.004848872 -0.002099607
0003e0 08 0d 24 bb d4 e0 2d ba 8a 9d 9a 38 3d 84 97 bb
       -0.0025032181 -0.0006632928 7.372636e-05 -0.0046239183
0003f0 5c 24 9b bd 12 f0 2d bf 62 0d 66 be fb 81 a8 be
       -0.075752944 -0.67944443 -0.22466043 -0.32911667

prop_layer._message_net.0.bias f4 [20]
000000 42 81 b9 bd ae 89 62 3c 36 4c 42 be 1d 59 da 3b
       -0.09057857 0.013826771 -0.18974385 0.006663455
000010 70 12 ed bd 13 57 5c 3b 27 8c a1 3b 63 33 9d 3d
       -0.11575782 0.0033621236 0.0049300375 0.07675817
000020 49 06 6f bd 79 77 16 3d 79 6f 4b be 92 84 97 bb
       -0.058355603 0.03673503 -0.19866742 -0.004623958
000030 7c 05 2c be ca 59 85 3b ef 66 33 3d 38 56 01 be
       -0.16798967 0.0040695416 0.043799337 -0.12630546
000040 46 7b d8 bd 17 b6 b2 bd 2a 2a a3 3d 2a 9b 9d bb
       -0.105703875 -0.08726137 0.079670265 -0.0048097568

prop_layer._reverse_message_net.0.weight f4 [20, 21]
000000 6d 0a db 3e 95 01 81 bd 98 ca 4e 3e af 7c ab 3d
       0.42781392 -0.0629913 0.20194471 0.08373391
000010 eb 46 b8 3d dd 5d 2c be ce 16 21 3f 6b 5d a0 3e
       0.089979015 -0.16832681 0.6292542 0.31321272
000020 13 23 8c 3e a3 04 cf be b4 9e 29 bd a3 ac 7a 3e
       0.2737051 -0.40433225 -0.041411117 0.24479918
000030 33 a9 34 3d 62 26 9b be d5 a5 d4 be ba a0 80 bc
       0.044106673 -0.3030272 -0.4153277 -0.01570164
000040 be ad 99 be 1f cd ce 3e a7 5c a7 bd e3 18 e7 39
       -0.30015367 0.4039087 -0.08171969 0.00044078295
000050 f2 0d a5 bd 7d f1 83 be 4b 0a ae 3b a5 fa b8 3d
       -0.080593005 -0.25770178 0.0053112856 0.09032182
000060 52 93 a0 3e c5 c7 23 3d 91 8c 28 3d ee 99 ae 3e
       0.31362396 0.039985437 0.04114968 0.34101814
000070 e1 98 6d be 8f 96 0f be 4c 38 a2 be ea 5d 81 3e
       -0.2320285 -0.14022277 -0.31683576 0.25266963
000080 0d ce d0 3d 64 3c 05 bf e3 1c e4 bd 12 34 bb 3d
       0.10195551 -0.52045274 -0.11138322 0.09140791
000090 ba cb e7 3d cf 67 d9 be 4e 23 53 3d 5f 6f f8 3d
       0.11318155 -0.42462012 0.05154734 0.12130617
0000a0 d6 f6 ce 3d 61 9f 99 3d 3e a7 71 3e 85 86 1d 3e
       0.10105674 0.07501102 0.23598954 0.15383346
0000b0 63 7b 13 be 03 7d 06 3e 20 c3 2a be 16 66 ca be
       -0.14402537 0.13133626 -0.16675997 -0.3953101
0000c0 79 10 37 bf 28 68 67 3f 01 cf a5 be 34 aa bd 3d
       -0.7150951 0.90393305 -0.32384494 0.09260979
0000d0 1b 6d e2 bd f8 d0 8f be 8c 28 17 3d e9 74 54 be
       -0.110559665 -0.28089118 0.036903903 -0.20747723
0000e0 26 49 0f bd 97 f8 f6 bd 4b dd 0a 3e e5 8d 73 3d
       -0.03498187 -0.120591335 0.13560979 0.059461493
0000f0 18 15 18 3e 40 46 49 bd 06 d2 3c bd 9c 36 70 be
       0.14851797 -0.04913926 -0.04609873 -0.23458332
000100 84 11 e8 3c 68 21 81 3e f3 09 98 3d 36 49 81 be
       0.028328665 0.252208 0.07423773 -0.25251168
000110 f4 ed 5c be 13 a2 73 bd 37 a9 86 bd 06 da f6 bc
       -0.21575147 -0.059480738 -0.06575244 -0.030133259
000120 8c 28 a4 be c9 76 b2 3e 7f 1d 01 3e 6f 1e cb bd
       -0.32062185 0.3485625 0.12608908 -0.09917914
000130 72 d8 51 3e 26 74 5c bd de 89 ab be 70 7c 5b 3e
       0.20492724 -0.053821705 -0.33503622 0.21434188
000140 79 4c a2 bd 1e ae 80 3e 36 7b c9 3d 57 76 c7 3c
       -0.07924742 0.2513284 0.09837954 0.024348421
000150 cb e2 99 bd ef c2 82 3d 2a b2 36 3e 3a cd 8f 3d
       -0.075139605 0.06384837 0.17841402 0.07021566
000160 01 4a f2 3e 89 64 37 3e 5f 1a 1a bd 72 e1 18 3e
       0.47322085 0.17909445 -0.037622806 0.1492975
000170 07 81 88 3d 7d 19 c6 bc 67 82 a2 3d ba a5 53 be
       0.06665235 -0.024182076 0.079350285 -0.20668688
000180 cb f0 c1 bd 0f 6b 9d bd 9b 15 9f bd 84 7d 1e be
       -0.09469756 -0.076864354 -0.07767793 -0.15477568
000190 1f 72 52 3d 6f dc fd bd 44 d6 1f 3e ba ac 9a 3e
       0.051378366 -0.1239556 0.1560908 0.30209905
0001a0 08 dd 40 bd 2c 5f 37 3b bc 57 65 3b cd c5 9c 3b
       -0.04708579 0.002798031 0.003499492 0.004784322
0001b0 17 05 a6 3b e5 16 a3 3b a2 3d 54 b8 8c be 90 3b
       0.0050665247 0.0049770945 -5.060214e-05 0.004417246
0001c0 96 92 bd 3b e8 6c 1e 3a 12 9e 2c 3b 95 ef f6 3b
       0.0057852967 0.000604345 0.0026339334 0.0075358846
0001d0 6d 25 b5 3b 64 d6 20 bb fe 51 60 3c da 6e ad 3a
       0.005528143 -0.002454185 0.013691423 0.0013231889
0001e0 09 63 9c 39 f6 ae 2f 3b 21 eb 70 3a 50 6b b3 b8
       0.00029828426 0.0026807166 0.00091903104 -8.555374e-05
0001f0 fa 84 fe bb 08 04 5d 3b ad 93 a6 3a 29 75 d0 39
       -0.007767317 0.0033724327 0.0012708806 0.00039760143
000200 c6 9e ad ba 84 a6 9b ba 7d be 3e ba 2c cd 1d 3c
       -0.0013246171 -0.0011875187 -0.000727631 0.009631436
000210 bf 02 53 bb e7 a0 a7 3b 38 b1 62 3b 6c 33 d9 bb
       -0.0032197682 0.0051156166 0.0034590494 -0.0066284444
000220 50 a5 b1 3a 5a 84 b5 3b 4e c0 66 bb 78 00 1d 3c
       0.0013553295 0.005539459 -0.0035209837 0.009582631
000230 5e 7d 69 3b bc 52 a7 bb 25 ca c8 3a 36 a9 67 3b
       0.0035627703 -0.0051062983 0.0015319033 0.003534866
000240 00 ee 7b 39 f7 0d 81 ba 59 8c a1 3b b3 1b 41 3e
       0.00024025887 -0.0009846081 0.004930061 0.18858223
000250 72 f2 6e be 7a 84 81 3e 14 67 99 bd ce 45 e7 3b
       -0.23334673 0.25296384 -0.07490364 0.007057882
000260 21 84 e2 bd 15 80 36 be f1 0d 6e be a6 54 b2 3d
       -0.11060358 -0.17822297 -0.23247506 0.08707552
000270 ae 0b 57 3e 3c 3b 47 bc ae 86 0a bd 94 b9 6a bd
       0.21000549 -0.012160119 -0.033819847 -0.057305887
000280 cc 5b 91 bb df 3c 89 3d bd 8f 32 bd ef 3f 49 bd
       -0.004435992 0.06701063 -0.04359411 -0.049133237
000290 0c 24 89 3d d3 6d cf bd 3a 0a a6 3d 33 f1 9d 3d
       0.066963285 -0.10128369 0.08107419 0.07712021
0002a0 64 1e 52 3d a8 58 c7 3d b1 19 1c bd 57 09 ba 3e
       0.051298514 0.09733707 -0.03811044 0.3633525
0002b0 6e cc de bd 6f 7a 9b be aa 4f 7a be 52 ff e0 be
       -0.108788356 -0.30366847 -0.24444452 -0.43944794
0002c0 c8 db 20 bf 27 41 5a be 46 ce ca be e2 4d 5f be
       -0.6283536 -0.21313916 -0.396105 -0.21807054
0002d0 63 7d 95 bc 57 f6 f9 bc 49 97 57 3e 45 1c 50 be
       -0.018248266 -0.030512972 0.21053804 -0.20323284
0002e0 e1 9c 71 be 78 2b ee 3e 1a 62 cc 3e 82 2d 90 3d
       -0.23595001 0.4651754 0.39918596 0.0703993
0002f0 7f f9 55 bd 38 d3 64 be 50 9e d4 3e 09 a0 99 3e
       -0.05223989 -0.22346199 0.41527033 0.3000491
000300 13 e4 29 be 00 09 38 be 5d 79 b2 bd 77 af 06 3e
       -0.1659091 -0.17972183 -0.087145545 0.13152872
000310 22 3f 8d 3d 17 2b a4 bc e1 b8 ee bd d2 f7 08 be
       0.06896807 -0.020040078 -0.116563566 -0.13375786
000320 b1 08 e5 3d 45 94 f2 bd 33 22 e4 3d e8 c8 c3 be
       0.111832984 -0.118446864 0.111393355 -0.38239217
000330 b6 f2 24 be b7 b1 8b bd 3c 11 9d 3e c6 ae e9 bd
       -0.16108212 -0.06821006 0.3067721 -0.114102885
000340 ea 2e e0 3d 0a a8 61 3c 84 b5 44 3e 8f 63 b3 3e
       0.10946448 0.013772974 0.19209868 0.35036895
000350 bf 47 7a 3c af 8a 5c 3e ed 64 73 be 8b ed ea 3e
       0.015275895 0.21537279 -0.23768969 0.45884356
000360 da 97 84 be 71 6f 3c bf 44 49 55 be 1e 8b 2a 3d
       -0.25897104 -0.73607546 -0.2082873 0.04163658
000370 66 49 a7 bd f3 ef dd be 4f 65 34 3e 30 bf 61 be
       -0.081682965 -0.4334713 0.17616771 -0.22045588
000380 8b 83 f2 3d 68 50 9a 3e 01 b9 a1 bd f2 4d bf bd
       0.11841496 0.3013947 -0.07896615 -0.09341039
000390 5d 37 96 3e 4a 31 3e 3d a3 05 f5 bd c6 ab 57 39
       0.29339114 0.046433724 -0.11963966 0.00020567988
0003a0 17 c7 ef b9 b4 b8 ce 39 a9 12 76 b8 0e fd b7 b9
       -0.00045733966 0.00039428996 -5.866835e-05 -0.0003509302
0003b0 d7 06 1a bc 7a 72 4a 3b af 16 d8 bb 6f 13 21 bb
       -0.009401045 0.0030890987 -0.006594501 -0.0024578234
0003c0 b0 03 eb 3b 5a 6b 36 bb b8 41 c9 bb ac 30 64 3b
       0.0071720704 -0.0027834983 -0.0061418675 0.003481905
0003d0 bd e5 33 bc 45 60 8b bb 49 e3 9e 3b 8f 99 09 bb
       -0.010980067 -0.0042534196 0.004848872 -0.002099607
0003e0 08 0d 24 bb d4 e0 2d ba 8a 9d 9a 38 3d 84 97 bb
       -0.0025032181 -0.0006632928 7.372636e-05 -0.0046239183
0003f0 5c 24 9b bd 12 f0 2d bf 62 0d 66 be fb 81 a8 be
       -0.075752944 -0.67944443 -0.22466043 -0.32911667

prop_layer._reverse_message_net.0.bias f4 [20]
000000 42 81 b9 bd ae 89 62 3c 36 4c 42 be 1d 59 da 3b
       -0.09057857 0.013826771 -0.18974385 0.006663455
000010 70 12 ed bd 13 57 5c 3b 27 8c a1 3b 63 33 9d 3d
       -0.11575782 0.0033621236 0.0049300375 0.07675817
000020 49 06 6f bd 79 77 16 3d 79 6f 4b be 92 84 97 bb
       -0.058355603 0.03673503 -0.19866742 -0.004623958
000030 7c 05 2c be ca 59 85 3b ef 66 33 3d 38 56 01 be
       -0.16798967 0.0040695416 0.043799337 -0.12630546
000040 46 7b d8 bd 17 b6 b2 bd 2a 2a a3 3d 2a 9b 9d bb
       -0.105703875 -0.08726137 0.079670265 -0.0048097568

prop_layer.GRU.weight_ih_l0 f4 [30, 30]
000000 96 15 c2 3e 83 ad 46 3e 4d 24 74 bb ee e1 db bd
       0.37907094 0.19402127 -0.0037253082 -0.10736452
000010 f1 34 66 3c 08 fc 11 3c 4c 5d 30 bc 4c 1d 52 3d
       0.014050708 0.008910187 -0.010764431 0.05129747
000020 06 7d 23 3e 00 fd 8b 3e dd 64 8a 3d fc 7e 26 3c
       0.15965661 0.2734146 0.067575194 0.010162111
000030 a7 41 8b 3d 2b 12 29 3c ce 1e 3f 3e fb 30 d7 bc
       0.067996316 0.010319273 0.18664095 -0.026268473
000040 fb 08 bc bc e6 95 9c bc 4e c7 10 be 51 c1 84 3b
       -0.022953501 -0.019114446 -0.14138529 0.0040513654
000050 4d 3d 97 bd 43 bb 27 be 3f a8 35 3d ea 6a 7a 3e
       -0.07384739 -0.16380028 0.044349905 0.24454847
000060 53 93 5a be f9 30 ab 3e 65 8c c8 bd 4a 8e 3a 3e
       -0.21345262 0.334358 -0.09792403 0.18218341
000070 28 21 4e 3d 95 de 92 be a0 66 11 3e 89 f5 3a 3d
       0.05032459 -0.28685442 0.14199305 0.045644317
000080 d9 6b a1 bd 6f f9 e6 3c 5a c2 08 3e 22 0d 17 3b
       -0.078818984 0.028195111 0.13355389 0.00230486
000090 ab c7 df bb bf 17 5b 3d e9 2f 41 3e a9 7a 07 3e
       -0.006829222 0.053489443 0.18865933 0.13230385
0000a0 52 73 4d 3e da 77 c4 3b cb a6 d2 3e 1f 40 fb bb
       0.20063522 0.0059957327 0.41142878 -0.007667556
0000b0 06 5c cf 3e 5a b0 97 3b c2 1c 5d be 75 80 80 bd
       0.40499896 0.004629177 -0.21593001 -0.06274501
0000c0 54 b9 87 bc 73 c5 ec 3b 8b 65 84 3e 94 3d d6 bd
       -0.016567864 0.007225686 0.2585872 -0.10460964
0000d0 8d b2 1a 3e 92 1e 34 3e 9e 9d 8c be 92 aa 9c bd
       0.15107174 0.17589787 -0.27464002 -0.07649721
0000e0 f8 05 3c be 41 bf 1b be c3 7d 17 be b4 bd 25 3e
       -0.18361652 -0.15209676 -0.14794068 0.16185647
0000f0 c9 91 d8 bd ad 44 a2 be 15 fe 8e be a4 a0 26 3e
       -0.10574681 -0.3169302 -0.27928224 0.16272217
000100 37 d7 ca bd 92 7c 26 3b 95 4e 0b 3c ca f5 44 3c
       -0.0990433 0.002540384 0.008502622 0.012021491
000110 4e ba c6 be 66 71 90 3d 18 c2 ae be 02 46 fb bb
       -0.38814014 0.07052879 -0.34132457 -0.0076682577
000120 1f 61 1e 3e d3 65 68 39 14 b0 03 3c 9c 94 31 3e
       0.15466736 0.00022163177 0.008037586 0.17341846
000130 76 35 c6 ba 4f 64 00 3d b5 81 84 3c 51 f7 22 ba
       -0.0015122134 0.03134566 0.01617513 -0.00062166626
000140 31 41 d1 bc 37 6b a1 3d 7c 97 ce bd 2c 95 93 bd
       -0.025543781 0.07881778 -0.10087487 -0.07206187
000150 42 24 bb 3d 0f cd 34 be 83 25 b2 3d 4b 98 63 3b
       0.09137775 -0.17656349 0.08698561 0.0034728225
000160 c8 5b 15 3d 94 a6 8d 3e c2 6f 8e bd d9 99 47 be
       0.036464483 0.27666152 -0.0695491 -0.19492282
000170 a3 2e 5b be 30 3f c7 3d 76 56 1d 3d 51 c2 16 b9
       -0.21404509 0.09728849 0.038412534 -0.00014377503
000180 1f 0b 63 3b 15 1a 2f 3d 62 72 17 3e 12 44 31 bc
       0.003464408 0.042749483 0.14789727 -0.010819452
000190 73 28 19 be 77 1e 8b bb 65 f6 47 3e 73 b1 18 bc
       -0.14956836 -0.004245575 0.19527586 -0.009319651
0001a0 06 88 5b 3d 13 57 55 bd ef 81 08 bd e2 f6 2a be
       0.05359652 -0.052084994 -0.03332704 -0.16695741
0001b0 c5 e3 ba bd 77 79 96 3a 3e fd 0f 3d 7f 03 c0 3c
       -0.09125475 0.0011480291 0.03515362 0.023439167
0001c0 6b 10 e3 3d 00 36 05 3e a4 4e f1 bd b3 23 8d 3d
       0.11087116 0.1300888 -0.11782578 0.06891575
0001d0 dd 6e 88 bd 7c 15 53 bd a5 07 fe 3c 10 66 1d bd
       -0.066617705 -0.05153416 0.031009505 -0.038427413
0001e0 69 13 12 bf fe 22 18 be 2f b1 70 3e 98 24 9d 3d
       -0.5706087 -0.14857098 0.2350509 0.07672995
0001f0 3e b3 a8 3c 87 26 95 3b 1f 1a e0 3a 5d 7b b4 3d
       0.020593282 0.004551712 0.0017097628 0.08812592
000200 48 4e 43 be b5 29 b3 bd 50 d2 bf 3e d0 6a 0f bb
       -0.1907283 -0.08748189 0.37465143 -0.0021883734
000210 c0 bd c5 be 6f 50 40 bb c1 25 3a 3e 83 6c f6 bd
       -0.3862133 -0.0029344817 0.18178464 -0.12032416
000220 6d 96 04 bf 26 aa b7 bb 92 bc ec bd 5f 43 5e 3a
       -0.5179203 -0.005605 -0.115594044 0.0008478667
000230 eb 68 86 bd 50 98 28 3e 0f ca 30 3e 9f a3 b5 3c
       -0.0656298 0.16464353 0.17264579 0.022172747
000240 9b ad 6f 3d 24 96 37 3d 32 d6 29 be 30 56 80 bd
       0.058515172 0.04482092 -0.16585615 -0.06266439
000250 ef 50 01 3e 69 ec 8b bd 97 5e 10 3e e8 ad 7d be
       0.1262853 -0.06832201 0.14098583 -0.24773371
000260 a8 8d 9a 3e 01 e0 37 be 29 9f 0b 3e 85 04 26 3b
       0.301862 -0.17956544 0.13634934 0.0025332284
000270 51 42 88 3b 0d b4 76 3e 11 b0 a2 be 1a d9 9f 3e
       0.004158296 0.24092121 -0.31774953 0.31220323
000280 10 db b5 be c3 26 39 bb 8a 0b e0 3e 35 9c 19 3c
       -0.35518694 -0.0028251864 0.43758804 0.009375622
000290 ba 77 93 3e 1a b4 99 be 09 c3 b8 3c 22 b0 6e 3e
       0.28802282 -0.3002022 0.022553938 0.23309377
0002a0 98 d5 6f be 50 62 8d bb 68 76 22 3e c5 63 05 3e
       -0.23421323 -0.0043146983 0.15865481 0.1302634
0002b0 29 8f 06 3e 56 6a 02 3e ec fe 36 bd ab 7a 9e bd
       0.13140549 0.12735876 -0.044676706 -0.07738241
0002c0 50 08 54 3e b1 70 40 3e 16 28 00 be d0 34 13 3d
       0.20706296 0.18792988 -0.12515292 0.035939038
0002d0 96 ef d8 bb b8 bf 27 be 3c a2 42 be cd f5 cc bd
       -0.0066203577 -0.16381729 -0.190072 -0.1000782
0002e0 81 6b 75 bd 40 80 af 3b 2c 22 03 3c 72 1f 76 3d
       -0.059916977 0.0053558648 0.008003753 0.060088582
0002f0 29 07 83 be 1e 2f ed bd 60 c0 02 3d f0 23 0f bc
       -0.255914 -0.115812525 0.031921744 -0.0087365955
000300 30 a1 dd 3e a8 d6 b4 3b b5 31 21 be 64 9a 86 3e
       0.4328704 0.005518753 -0.15741618 0.26289666
000310 cb ce ce 3d 29 3f 15 3c 60 22 9e 3c 51 2e b3 bb
       0.100980364 0.009109297 0.0193035 -0.005468168
000320 3b 31 0c bd e7 04 2f 3e c4 82 69 bd 46 c8 88 3d
       -0.034226637 0.17091714 -0.057009473 0.06678824
000330 ab 1a 98 3a 27 df 3f 3d fd 88 b3 3d 27 0d 9a bd
       0.0011604627 0.046843674 0.08766363 -0.0752204
000340 ec 57 aa bc 92 45 bf bd c8 22 93 bc e6 ff 3c be
       -0.020793878 -0.09339441 -0.01796092 -0.18456993
000350 dc 2e f2 3e 73 0c 48 bd 82 9d 14 3d f3 26 9f bb
       0.47301376 -0.048839998 0.036283024 -0.004856938
000360 7c b8 7a 3a 8b 0c 3b bd 5f 5b 67 3e 92 0e 05 bd
       0.00095642335 -0.04566626 0.22593449 -0.0324846
000370 61 0a a3 be 34 01 10 b9 fc 16 a1 3e 4d 93 24 bc
       -0.31843856 -0.00013733358 0.31462848 -0.010044885
000380 0e 61 f5 3d 48 3a 50 3e 42 25 dc be 53 f3 20 3e
       0.11981402 0.20334733 -0.42997175 0.15717821
000390 d8 ef 90 3d 8d 54 60 3b c3 2d fb bd 87 c7 a0 3d
       0.070769966 0.0034230084 -0.12264588 0.07850557
0003a0 72 5c b1 be 31 37 8f be c8 68 ed 3d 4f 77 af be
       -0.34640843 -0.27971795 0.11592251 -0.34270713
0003b0 9c c8 68 be fe 5c 41 be 49 0b 49 3e 67 88 86 3e
       -0.22732776 -0.1888313 0.19633211 0.26275942
0003c0 80 a4 c1 3e b5 59 1e 3e 1e 1f 61 3c 9a 04 87 be
       0.37820816 0.15463908 0.013740329 -0.26370698
0003d0 96 54 54 3e 2a 32 4d bc 33 cd 66 bc 20 b6 09 be
       0.20735392 -0.012524167 -0.014087009 -0.13448381
0003e0 d5 13 23 3e 1d 6c d3 3d 17 ff e8 3e fc 94 85 3c
       0.15925534 0.10323355 0.45507118 0.016306393
0003f0 4d f0 4a 3d 4b 2c 3b bc 25 17 41 bd e1 30 6b bd
       0.049545575 -0.0114241345 -0.047141213 -0.05741966

prop_layer.GRU.weight_hh_l0 f4 [30, 10]
000000 9c 24 d8 3c 41 c0 88 bd 30 50 ab bc cb 41 10 3e
       0.026384644 -0.066772945 -0.02091226 0.14087598
000010 93 1d 3d be 17 38 c0 3d 68 73 b0 bd 81 bf 5e 3e
       -0.18468313 0.09385698 -0.08615762 0.2175274
000020 7c 7a 92 3d 70 a0 46 bc ba d1 c9 3b bb da 2a be
       0.07152268 -0.012123212 0.0061590346 -0.16685002
000030 4f 6a 15 3d 9c a3 52 3d ec c9 95 be 82 83 5d bd
       0.036478337 0.05142556 -0.29255617 -0.054080494
000040 c4 e0 4b be a3 56 8d bd 6f fd 7e 3d 29 c9 1b 3d
       -0.1990996 -0.0690129 0.06225341 0.03803364
000050 57 14 9f 3d ae df 84 3b 66 0c ad bc ff 31 64 3e
       0.077675514 0.004054985 -0.021124076 0.22284697
000060 a9 a2 bc bd a4 be e4 39 72 13 0c 3e 8f fa 82 bc
       -0.092107125 0.00043629587 0.13679293 -0.015988616
000070 4a 1d 9b bd a2 81 09 be a0 00 5d bd b1 d0 ea 3c
       -0.07573946 -0.13428357 -0.053955674 0.028663965
000080 58 9a b5 3d c4 b4 ab 3b 3c 7b 8b bd 02 37 15 be
       0.08867329 0.005240055 -0.068106145 -0.14571765
000090 4d fa 05 bc 89 6c 39 3d 61 dc 6d 3d c4 d6 b7 bd
       -0.008177352 0.045269523 0.058071498 -0.0897651
0000a0 a9 cd 84 bd c1 80 41 be 83 27 71 bc b0 ff 23 3e
       -0.06484539 -0.18896772 -0.014718893 0.16015506
0000b0 10 80 12 3c 28 bc b9 3d 68 e9 aa 3d 4f f2 a2 3a
       0.008941665 0.09069091 0.083453 0.0012431833
0000c0 c7 1e 0e 3e 82 f0 0d be 49 d2 1d 3c 16 60 31 bd
       0.13878928 -0.13861278 0.009632655 -0.043304525
0000d0 c5 78 3d bd 9b de 88 bd bf 1c 62 be c4 4e 83 3d
       -0.046257753 -0.066830836 -0.22081278 0.06411508
0000e0 04 48 6c be ff fd 9a bd 33 1e f8 bd 1f b4 ca 3c
       -0.23074347 -0.07567977 -0.12115135 0.024744092
0000f0 51 0a d9 3d 1a e1 9a bc 37 ee eb 3c c4 50 85 3c
       0.10597671 -0.018906165 0.028800113 0.016273864
000100 13 cd ca bd 1c 7d aa bc f0 b6 3f 3d 28 c3 a5 ba
       -0.09902396 -0.02081161 0.046805322 -0.0012646662
000110 3e 63 80 bd 9c a4 5a bd 0b a0 27 3e 9d 5b d9 bc
       -0.06268929 -0.05337964 0.16369645 -0.026532942
000120 4a 23 6b 3c 9c 81 68 3e 29 d0 7f bd c1 ac e6 3c
       0.014351675 0.22705692 -0.062454376 0.028158547
000130 04 08 57 3b b4 55 b5 3d d9 95 8a 3c ec 65 1d bc
       0.0032811174 0.08854237 0.016917156 -0.00960682
000140 5f 48 d4 bd 83 ec d6 3d d5 2b 3f bd c9 c7 0d be
       -0.10365366 0.1049433 -0.04667266 -0.13845743
000150 1b 80 ed bd c1 cc 5e bd 50 59 7d be 0a d5 2f bd
       -0.115967 -0.054394487 -0.24741101 -0.04292778
000160 1a ee 99 bd 05 bf 66 bd 80 70 ce 3d 22 49 24 bb
       -0.075161174 -0.056334514 0.100800514 -0.0025068005
000170 58 ab 2e 3d c9 d5 0c 3d a5 44 46 bc 69 c9 70 3d
       0.042643875 0.03438357 -0.012101327 0.05878583
000180 ab de 3b 3d 26 07 60 bd 43 b3 e5 bc 06 19 8a bd
       0.04586665 -0.054694317 -0.02803958 -0.06743054
000190 d0 84 0c 3d f6 f3 44 be 2c 0e a1 3c e5 79 c9 3e
       0.034306347 -0.19233689 0.019660078 0.3935081
0001a0 cc cd 2d 3e ec 14 63 3d 69 e5 66 bd 44 fd 7c 3e
       0.16973037 0.055439875 -0.056371126 0.24705988
0001b0 14 a6 88 bc ba 39 25 be e1 d6 8a 3d 80 c7 90 3d
       -0.016680755 -0.16135302 0.06779266 0.070693016
0001c0 71 1d 32 be eb 04 e7 bd 99 7d 9e 3e 50 e1 b8 ba
       -0.17394044 -0.11280235 0.30955198 -0.0014105234
0001d0 4e cb a1 bd 14 19 7a bd c5 cc 06 bc dc f9 91 bb
       -0.079001054 -0.061059073 -0.008227532 -0.0044548344
0001e0 84 7c ac 3d 24 9c 58 3e c7 07 a0 bc ea b5 84 3d
       0.08422187 0.21153313 -0.019534959 0.0648001
0001f0 3d b0 36 3a 03 06 b5 bd 3f 41 af 3d 4e 00 3f bc
       0.00069690106 -0.08839037 0.085573666 -0.0116577875
000200 f9 6e 35 3d ae 36 09 3e bf 37 5f 3e bc 4d 3b 3e
       0.044295285 0.13399765 0.21798609 0.18291372
000210 03 78 76 be 49 f8 41 bd f5 41 35 3e 03 14 b1 3d
       -0.24069218 -0.047355924 0.17700942 0.08646395
000220 7e 20 3f be a3 08 44 3d df 57 8c bd 19 4f 35 3d
       -0.18664739 0.0478598 -0.068526976 0.044264887
000230 d6 07 2e bc a0 7d 94 be 9d 8a 2b be cb dc 6d 3e
       -0.010621985 -0.29002094 -0.16752096 0.23228757
000240 a7 ee ea be a9 8f 30 3c 0a 20 0b 3e b7 5b 27 be
       -0.45885202 0.010776439 0.1358644 -0.1634358
000250 9c 54 3a 3e c3 b7 02 3e 37 28 9a 3d 2c 81 3b bd
       0.18196338 0.12765412 0.075272016 -0.045777485
000260 42 f3 94 bd a4 d5 57 3e 89 5d 59 3e 4f 9b 9c 3a
       -0.0727296 0.21077591 0.21227087 0.0011948141
000270 2e b2 a7 3d a9 32 c4 3c 6a df 9d 3b 87 e3 f8 3c
       0.08188282 0.023949938 0.004817893 0.030381931
000280 7e 81 ae 3d 32 ef 20 be 95 dd ed bd 72 61 19 be
       0.085207924 -0.15716246 -0.11614529 -0.14978579
000290 58 80 02 be 60 cc a2 3e a5 11 1e be 33 7f 80 3e
       -0.12744272 0.3179655 -0.15436418 0.25097045
0002a0 b3 9a 29 3d 8d b6 9f be f0 f5 89 bc 4c a6 7e 3e
       0.0414073 -0.31193963 -0.016840905 0.24868125
0002b0 95 1f 86 3c e4 b3 cf bd 72 8b d7 3e bd f2 40 be
       0.016372481 -0.10141733 0.42098576 -0.18842597
0002c0 9b 9e 03 bf 7f f5 93 3e 9a f6 6c bd 8d 4c 19 3e
       -0.5141389 0.28898236 -0.057852365 0.14970608
0002d0 38 b1 5e bd 5d d6 64 3d 44 c7 20 3e 32 83 ab 3d
       -0.054368228 0.055868495 0.15701014 0.08374633
0002e0 88 1a aa bc 14 c6 2c be 98 43 84 3d 37 e0 21 3d
       -0.020764604 -0.16872436 0.06458205 0.03952047
0002f0 7c 45 9f 3d d1 03 33 3e ab f4 ba bb e3 c1 8b 3e
       0.07776925 0.17481925 -0.005705436 0.2729636
000300 c4 14 67 bd 08 fe e7 3c c6 a4 50 3c 3f fe 4a be
       -0.056416288 0.028319374 0.012734598 -0.1982355
000310 c5 e7 c2 bc 1e 22 c6 3d 0d 2b d5 bd 1f ee 64 3e
       -0.023792157 0.09674476 -0.10408602 0.22356461
000320 6b 6c 17 3f 32 5b a4 be 9c 17 df be 0b 9c 11 3e
       0.5914981 -0.32100827 -0.435727 0.14219682
000330 74 dd 9a 3d b2 5a b3 3d ea d7 e6 3e 4c fa f9 3c
       0.0756177 0.08757533 0.45086604 0.030514859
000340 0b 9a fd be 49 ee ae 3d 6a 72 76 bb 7a f4 0d 3f
       -0.49531588 0.08541543 -0.0037604817 0.55451167
000350 5f 0e 7c 3e 82 d2 a0 be 97 3c 38 3f c4 5b c0 3e
       0.24614857 -0.31410605 0.7196745 0.37570012
000360 b6 2a 15 3f de e0 b2 3e d2 81 aa bd a2 49 34 bd
       0.58268297 0.34937185 -0.083255425 -0.044015534
000370 5e db 37 3e de 6e 08 3e 9c 00 5f be 32 5b 06 bf
       0.17954776 0.13323542 -0.21777576 -0.52482903
000380 08 db e9 3d 0e c0 9d be 6d dc 07 3f d1 ad 5d be
       0.1141873 -0.3081059 0.5307072 -0.21648337
000390 2b 58 ed be cf e7 63 3e 7e 29 64 be 85 2c e5 3e
       -0.4635633 0.22256397 -0.22281453 0.44760528
0003a0 74 4c 3e 3e 94 e2 f2 3d 18 40 40 bd 2b 2d b1 bd
       0.18583852 0.118596226 -0.046936125 -0.08651193
0003b0 bf 5c bc 3e 1c c5 72 bd 18 99 cb 3c 16 12 38 be
       0.3678951 -0.05927001 0.024853274 -0.17975649
0003c0 c8 4c 57 be f1 e0 9d 3c 3a 4e 5c 3d 7d d8 2d 3d
       -0.21025383 0.0192723 0.05378554 0.042442787
0003d0 f0 1e ba 3d 59 19 e1 be d9 00 53 3f 6e a0 5b 3e
       0.09087932 -0.4396465 0.8242317 0.21447918
0003e0 82 48 5c 3e 87 09 2a be 00 e6 f7 be a7 fb 2f 3f
       0.21512035 -0.16605197 -0.48417664 0.68743366
0003f0 44 d2 d8 3e a5 c4 f2 be 6a 24 22 3f 33 36 90 be
       0.4234792 -0.47415653 0.63336813 -0.2816635

prop_layer.GRU.bias_ih_l0 f4 [30]
000000 ee c5 a0 3d 37 b8 ea 3d 9f a9 c8 3d 8c 03 3f 3d
       0.07850252 0.114609174 0.09797978 0.046634242
000010 03 1d 00 bd df 1e 3d 3e 1c 8e 78 bd aa 78 c6 ba
       -0.031277668 0.18468808 -0.0606824 -0.0015142162
000020 d5 5b 08 3d 34 ee 1c bc 4b 9e b7 bd c1 47 ea 3c
       0.033290703 -0.009578276 -0.08965739 0.028598668
000030 6b 64 c0 bd 59 3e 49 3e 83 8e 2e be 15 9e 25 be
       -0.09394153 0.1965269 -0.17046551 -0.16173585
000040 e5 e1 8b 3e cf ab ad bd 1b 3f 58 bd 83 54 91 bd
       0.2732078 -0.084800355 -0.052794557 -0.070961975
000050 ed 49 a3 3e 00 db 5d 3d 56 1d 81 be bc ac 7b be
       0.31892338 0.054163933 -0.25217694 -0.24577612
000060 9a ab 3b be 17 7a 4e 3e 14 db 45 3d e6 7a a5 3e
       -0.1832718 0.20163761 0.048304632 0.32320327
000070 95 dd 0f be d9 56 9d be
       -0.1404937 -0.30730322

prop_layer.GRU.bias_hh_l0 f4 [30]
000000 3b c6 a0 3d 3b b8 ea 3d 3e a9 c8 3d 8c 03 3f 3d
       0.078503095 0.114609204 0.097979054 0.046634242
000010 c7 1e 00 bd ab 1e 3d 3e 1c 8e 78 bd f2 47 bc ba
       -0.03127935 0.1846873 -0.0606824 -0.0014364703
000020 bc 56 08 3d 07 ee 1c bc 77 27 ba bd b0 55 ec 3c
       0.03328584 -0.0095782345 -0.090895586 0.028849453
000030 74 46 c3 bd 11 85 44 3e bc 1e 35 be f1 f6 26 be
       -0.09534922 0.19191386 -0.17687505 -0.16305138
000040 0b ce 8a 3e 31 02 b4 bd 1a 1d 58 bd f5 63 91 bd
       0.27110323 -0.087894805 -0.05276213 -0.070991434
000050 fd 5b 09 3e 7a 65 bc 3c 3a 3c 75 bd 8f cd 66 bd
       0.13413997 0.022997607 -0.05987189 -0.05634838
000060 9f 89 1d be e6 6b 1e 3e 06 c2 0a bd ef 53 61 3d
       -0.1538453 0.15470847 -0.03387644 0.055011686
000070 c1 69 5a bd aa 6b 19 be
       -0.05332351 -0.14982477

aggregator.MLP1.0.weight f4 [20, 10]
000000 0a 63 43 3e d9 b7 f6 bd a3 3d a6 be 46 a9 f7 be
       0.19080749 -0.12046785 -0.324689 -0.48371333
000010 10 9a 2a bd 76 9f ef be 08 1c 37 3e be 53 72 be
       -0.04165083 -0.46801347 0.17881787 -0.23664758
000020 b5 2c a8 3d 54 be 7b 3e b6 ea e4 be e4 8e 9c 3e
       0.08211652 0.24584323 -0.4471032 0.30577767
000030 be 04 68 3e 69 be 2d 3e 23 9d 9f be d0 78 19 bd
       0.22658059 0.16967167 -0.31174573 -0.03746873
000040 9a 3f be be 30 85 eb 3c 47 9d 07 3f c1 a2 91 be
       -0.371579 0.028750032 0.5297436 -0.28444484
000050 ca 27 13 3e 85 a8 5f be 8a 6f 4e 3e f1 a1 46 3e
       0.14370647 -0.21841629 0.20159736 0.19397713
000060 3e f4 2e bd f7 41 85 bb 32 1d 26 3d dd 31 c1 3e
       -0.042713396 -0.0040667015 0.040555187 0.37733355
000070 1c 46 db bd c6 81 84 3e 6a b2 28 3e 25 c5 41 be
       -0.10706732 0.2588026 0.1647431 -0.18922861
000080 47 02 ec 3d 54 90 0a 3e 9d 5c eb bd 09 6b c1 bb
       0.11523872 0.1353162 -0.11492274 -0.005902652
000090 39 60 49 3c fe 25 c6 3d 10 08 3d 3c 8c 29 65 3c
       0.012291008 0.09675215 0.011537567 0.013986956
0000a0 e8 a9 c8 b9 fb ed 5c b9 25 1d 40 ba c2 13 24 ba
       -0.00038273563 -0.0002106949 -0.00073285616 -0.00062590477
0000b0 6d 37 29 3a 3d ea f2 b9 a8 18 7f 39 8e d5 2d 3a
       0.00064550975 -0.00046332358 0.0002432788 0.00066312484
0000c0 ad 67 c5 b8 4b 18 69 3a 03 cf ce 3b f4 9d d9 bb
       -9.413003e-05 0.00088918646 0.006311299 -0.006641144
0000d0 9c bd 14 bd 24 33 39 bd de 87 09 3d 82 a4 94 3c
       -0.036313638 -0.045214787 0.03357684 0.01814485
0000e0 f5 c6 cf bb 5f 1f 04 bd 15 81 a2 3c 88 3c 4e 3c
       -0.006340856 -0.03225648 0.019836942 0.012587674
0000f0 7b 62 ea b9 a9 a7 2b b9 ea 39 41 ba 30 8f 16 ba
       -0.00044705332 -0.00016370289 -0.00073709956 -0.00057433825
000100 33 fc 28 3a a1 16 07 ba 94 c0 61 39 4d 6b 2c 3a
       0.0006446272 -0.0005153213 0.00021529413 0.00065772684
000110 4e 16 aa b8 3b c8 60 3a 68 29 80 3e 7c ec 94 be
       -8.110386e-05 0.00085747585 0.2503159 -0.29086673
000120 40 ca 26 bc 61 a5 e5 3d 1f 99 10 be 58 c8 29 3e
       -0.010180056 0.11213184 -0.14120911 0.16580331
000130 35 89 9f bd 50 3b 84 3e 9c 6f 22 bd 22 38 3d bd
       -0.07789842 0.25826502 -0.03965722 -0.04619611
000140 7e 70 1a bb ad 6a 94 39 3a b5 6c bb e4 8b 43 ba
       -0.0023565586 0.0002830824 -0.0036118762 -0.0007459505
000150 1f e5 72 3b 40 ff 4e bb e3 19 d0 b9 d5 af eb 3a
       0.0037062836 -0.0031585246 -0.0003969214 0.0017981479
000160 15 c4 33 3a ca 67 49 3b e6 ab 2a be 7d fb b4 be
       0.00068575266 0.003073203 -0.16667137 -0.3534812
000170 86 b4 94 bd aa 82 85 bd 21 20 cc 3d 4c 5d 09 be
       -0.072609946 -0.06519063 0.099670656 -0.13414496
000180 75 77 ae 3e 6c b6 5f 3e 03 7a a7 be 28 55 f8 3e
       0.34075513 0.21846932 -0.32710275 0.4850247
000190 1b a8 38 be c0 4a b5 3d f6 14 c2 be 9d 50 37 be
       -0.18032877 0.08852148 -0.37906617 -0.17901845
0001a0 71 07 fe bd dc 09 f1 be 91 ae bf be a9 51 4b 3e
       -0.12403763 -0.47077835 -0.3743787 0.1985537
0001b0 35 e8 13 3e 64 ea a1 3c bf 0f 28 3f 10 9d b5 be
       0.14444049 0.019765086 0.65649027 -0.35471392
0001c0 a6 6c 41 3d 04 74 ca be f6 05 3f be 55 07 e0 be
       0.047222756 -0.39541638 -0.18654618 -0.43755594
0001d0 28 9e 90 3d 7b 69 01 3f 66 9a c5 bd 5d 53 c8 3d
       0.07061416 0.50551575 -0.0964859 0.09781525
0001e0 7d 24 ac 3d 6d fb 68 be 83 a8 cd bb 6a be 14 3f
       0.08405397 -0.22752161 -0.0062761917 0.5810305
0001f0 83 51 cc 3c d2 ce 8a be 03 37 a3 3a dd b3 bc 3e
       0.024941212 -0.27110916 0.0012452308 0.36855975
000200 89 77 7d bd e5 2e 6c be 7a 67 4e be c0 61 e2 bd
       -0.061881576 -0.23064764 -0.2015666 -0.110538006
000210 7b 68 d0 3e 55 ed 23 be 4a 41 65 be b3 13 7c be
       0.40704712 -0.16008504 -0.22388187 -0.2461689
000220 db 52 ab be 57 4b 9e be 62 92 ce 3c 0e 48 88 3e
       -0.3346165 -0.30916855 0.025216285 0.26617473
000230 ac e2 28 3b c8 68 8e 3a b5 df 37 3b 8c 35 10 3a
       0.0025769873 0.0010864967 0.0028056924 0.0005501143
000240 26 bc b0 3b 2e 31 2c 3b a7 e6 c7 3b 37 f4 16 bb
       0.005393523 0.002627443 0.006100494 -0.0023033747
000250 b3 a0 cb 3b 1d 3a 63 3a d1 3a ec 3d 74 88 99 bd
       0.006214225 0.00086680223 0.11534656 -0.074967295
000260 07 43 3d be 82 7c 37 3d 0d c2 21 3e 56 15 fd bc
       -0.184826 0.044796474 0.15796681 -0.030893963
000270 5a e9 d9 bc de e3 6f be 9d 97 32 3d dd ae 17 bd
       -0.026600529 -0.23426768 0.04360162 -0.037031997
000280 fc a1 5c bb b5 e5 00 bb d4 73 2e bb f4 60 c5 b7
       -0.0033665886 -0.0019668166 -0.0026619332 -2.3529377e-05
000290 6f b3 be bb 3e cc 23 bb 53 04 d5 bb 1b 6f a6 3a
       -0.00581973 -0.0024993564 -0.0065007596 0.0012697907
0002a0 e3 4e a7 bb 7f 5b 86 ba ef f4 43 be 5e c6 89 3d
       -0.0051058396 -0.0010250657 -0.19136404 0.06727289
0002b0 3d 67 5f 3d c1 37 9f 3e d3 9c 49 3e ca 91 ea be
       0.054541815 0.31097224 0.1968873 -0.45814353
0002c0 02 8e e8 3e 33 88 9b 3e 59 b4 fd 3c ac 82 f7 bc
       0.45420843 0.3037735 0.030969786 -0.030213676
0002d0 4e 4a f9 bb 5a 5f 94 bb 2f 8f 05 bc d3 62 40 3b
       -0.0076077348 -0.0045279684 -0.008151813 0.0029355779
0002e0 86 27 95 ba 66 ba 06 bc d5 e2 c5 ba fd c0 2a bb
       -0.0011379577 -0.008223152 -0.0015097508 -0.0026054971
0002f0 84 fe d3 3b 10 fe f2 3a 8d 8e 6f bd c4 ce 4b 3c
       0.0064695496 0.0018538851 -0.058485556 0.0124394335
000300 2c 18 97 3e a2 bf b2 be cc 84 4d 3e 4d 8d 80 be
       0.2951063 -0.3491183 0.20070189 -0.25107804
000310 26 bd 99 3d b9 0d 74 be eb 6f da 3e 7e b6 c6 be
       0.0750678 -0.2383336 0.42663512 -0.38811105

aggregator.MLP1.0.bias f4 [20]
000000 d5 86 c3 bc 4b e3 9c bc 1b 15 ea 3c e0 21 ed 3d
       -0.023868004 -0.01915135 0.028574517 0.11578727
000010 cf e0 57 ba 78 19 fd 3c 58 da 62 ba 07 dc 8b 3d
       -0.0008235098 0.030895934 -0.00086537516 0.06829076
000020 a1 91 82 bb 4c 5b d2 bc 15 8a 85 be 0a 62 29 3e
       -0.0039846455 -0.0256783 -0.2608191 0.16541305
000030 b2 04 53 3e e8 05 9a 3d 29 bf 3a 3a a4 a5 d2 3d
       0.2060726 0.07520658 0.0007123822 0.102855
000040 e9 8f 17 b9 e5 1c 80 3e 24 79 18 3b f4 3e b4 be
       -0.00014454093 0.25022045 0.0023265565 -0.3520428

aggregator.MLP2.0.weight f4 [10, 10]
000000 67 2f 11 bf ad af ab bd 78 d6 80 3d 22 3c 8e 3d
       -0.56712955 -0.08383117 0.06290907 0.06945063
000010 ac 90 27 3b 47 27 4a 3d a4 30 2b bb ce 90 1e 3e
       0.002556841 0.049353864 -0.0026121521 0.15484926
000020 ac 94 f0 3b b3 96 b3 bb 79 24 59 3e 80 77 0e bf
       0.007341942 -0.005480611 0.2120532 -0.5565109
000030 88 27 a4 3e 5d dc 01 be 2a 65 2e 3a 53 b2 24 3d
       0.3206141 -0.12681718 0.0006652648 0.040209126
000040 2c 8b c6 ba 54 2d a2 bd e9 f5 99 b8 4b e1 a8 3c
       -0.0015147678 -0.07918802 -7.341413e-05 0.02061524
000050 7c 74 d4 3d 1c 91 e2 be ce 10 fc 3d 28 0e 49 3e
       0.1037378 -0.44251335 0.12307893 0.19634306
000060 95 86 d1 3b 90 a6 e3 3d 0c 3c aa bb c2 14 e3 3e
       0.0063942173 0.11115754 -0.0051951464 0.44351774
000070 98 1e 76 3c 7c 19 db bd 82 7d 8c 3d 7b 3b bd bd
       0.015021943 -0.1069822 0.06859876 -0.092398606
000080 0f d7 cf 3e 81 74 2e 3e 8b 5f 63 bb 02 b2 56 3e
       0.40593764 0.1703663 -0.00346944 0.20966342
000090 1d a9 96 3b e8 ec 0f be 73 07 65 3c e3 7d 08 be
       0.0045977966 -0.14055216 0.013978827 -0.13329272
0000a0 c8 09 e4 3d 6d 5a 46 be ac f2 37 3e d0 6e b1 be
       0.11134678 -0.19370432 0.17963666 -0.34654856
0000b0 d2 d5 67 bb 16 ab 4b bd bd 3e 23 3b e5 1d 06 3e
       -0.003537525 -0.049723707 0.002490922 0.13097341
0000c0 e1 bf e5 bb b3 87 16 be ca 61 77 bd 9a 92 5a be
       -0.007011399 -0.14700203 -0.060395993 -0.21344987
0000d0 e7 0f 29 3c 37 09 b9 3e 1b 2c 95 bb 04 cc 54 be
       0.010318733 0.36139843 -0.004552377 -0.20780951
0000e0 51 16 6c 3b d1 00 c0 3d f8 a2 76 bb a9 11 d4 be
       0.0036024044 0.09375156 -0.0037633758 -0.41419724
0000f0 4f 11 19 3d fc 1f 4f be 88 45 44 3c c8 b3 0e be
       0.037370022 -0.20227045 0.011979468 -0.13935769
000100 12 d7 0b 3a 1b 3c d8 3c e6 f2 a5 b8 6e f1 77 3e
       0.0005334477 0.026395848 -7.9130565e-05 0.24213192
000110 7b 0d 66 3a b2 89 1c bf fa 8a 1c 3e 12 c1 f1 be
       0.00087758125 -0.61147606 0.1528739 -0.47217613
000120 f3 65 11 bd 0d 28 6b be 2f 04 c8 39 b8 25 14 3d
       -0.035497617 -0.22964497 0.0003815009 0.036168784
000130 ee 3b 99 b9 3c 30 75 be 8e 30 19 bc 4d bd 9b be
       -0.00029227085 -0.23944181 -0.009349955 -0.30417863
000140 f1 21 c0 be d0 90 4c be 53 87 a3 be d8 aa f8 bd
       -0.37525895 -0.19977117 -0.31939182 -0.12141961
000150 26 e7 fc ba 60 9c 7f bb dd 2a 0b 3b bc 64 30 bd
       -0.0019294962 -0.003900312 0.0021235265 -0.043064818
000160 90 86 89 3b 62 ad ec 3d 09 5a 38 3d 81 36 dd be
       0.0041969493 0.11556508 0.04500774 -0.43205646
000170 04 fb f5 be 96 3f a8 3e f8 e5 2a 3a d2 8f 84 bc
       -0.48043072 0.32861012 0.00065192534 -0.01618186
000180 33 80 08 ba e7 e1 ff be a1 6e 12 3c cf 94 ba bd
       -0.00052070915 -0.49977037 0.008937509 -0.09110414

aggregator.MLP2.0.bias f4 [10]
000000 8c 1b 00 00 b8 1e 00 00 a0 1b 00 80 95 1b 00 00
       9.882e-42 1.102e-41 -9.91e-42 9.895e-42
000010 8c 1b 00 80 62 1b 00 00 c2 1b 00 80 84 1b 00 00
       -9.882e-42 9.823e-42 -9.958e-42 9.871e-42
000020 a1 1b 00 00 85 1b 00 00
       9.911e-42 9.872e-42
