paper_artifacts/collection/edge_early_interaction_baseline_1_pre/trained_models/edge_early_interaction_baseline_1_pre_ptc_fm_large_dataset_seed_7474_2024-04-28_04:33:45.pth (torch, 25641 bytes, 20 tensors)

encoder.MLP1.0.weight f4 [10, 1]
0.23919363 -0.048564825 0.30143452 -0.558025 -0.6285626 -0.17029963 -0.0024691825 -0.3392865
0.117765725 -0.04937002
00000000: 2def 743e e9eb 46bd a055 9a3e bada 0ebf
00000010: 7be9 20bf 0763 2ebe 02d2 21bb f6b6 adbe
00000020: 282f f13d 3838 4abd

encoder.MLP1.0.bias f4 [10]
0.23921087 -0.04778063 0.30192792 -0.5598447 -0.6285624 -0.17029972 0.00057359954 -0.3244344
0.11773862 -0.049378257
00000000: b2f3 743e 9fb5 43bd 4c96 9a3e fb51 0fbf
00000010: 77e9 20bf 0d63 2ebe 9d5d 163a 441c a6be
00000020: f220 f13d db40 4abd

encoder.MLP2.0.weight f4 [20, 1]
0.006250935 0.008934067 0.0076728896 -0.017627185 -0.0045005674 -0.016730292 0.006416809 -0.0046161795
-0.0021349469 -0.011474802 0.011830434 -0.006071351 -0.0018784835 -0.006694699 -0.011503485 -0.0108173685
-0.010789505 0.002274787 -0.0023454593 -1.180537e-05
00000000: a5d4 cc3b 3160 123c dd6c fb3b e366 90bc
00000010: 7f79 93bb f70d 89bc 1844 d23b 5243 97bb
00000020: 77ea 0bbb cf00 3cbc 70d4 413c 2ff2 c6bb
00000030: 7237 f6ba 355f dbbb 1d79 3cbc 553b 31bc
00000040: 77c6 30bc 9814 153b 47b6 19bb ae0f 46b7

encoder.MLP2.0.bias f4 [20]
0.006250938 0.008934059 0.0076729017 -0.017627195 -0.004500555 -0.016730295 0.0064168214 -0.0046161786
-0.002134945 -0.011474806 0.011830426 -0.006071347 -0.0018784835 -0.0066946764 -0.011503489 -0.010817372
-0.010789507 0.0022747908 -0.00234546 -1.1791414e-05
00000000: abd4 cc3b 2960 123c f76c fb3b e866 90bc
00000010: 6479 93bb f90d 89bc 3344 d23b 5043 97bb
00000020: 6fea 0bbb d300 3cbc 67d4 413c 26f2 c6bb
00000030: 7237 f6ba 045f dbbb 2179 3cbc 593b 31bc
00000040: 79c6 30bc a814 153b 4ab6 19bb bdd3 45b7

prop_layer._message_net.0.weight f4 [20, 40]
0.22243784 0.0480411 0.12832548 -0.14374626 0.040477484 0.5373633 0.029790288 -0.53670186
-0.0030296142 -0.06532272 -0.105457135 0.03755229 -0.028501263 0.2695414 0.035924286 -0.06833774
0.04518543 -0.11590966 -0.09365355 0.12050931 0.0063381363 -0.012860991 -0.032213982 -0.230851
-0.031973705 0.29798996 -0.00086269755 -0.09964665 0.0075592706 0.006556895 -0.19986704 0.09337546
0.040941745 0.009102855 -0.2532103 0.011684627 -0.25457883 0.007297849 -0.01022803 -0.00324398
-0.00022974244 -0.056320928 0.27730477 0.63120604 0.26105824 0.16432652 -0.4735717 0.40989852
0.42027178 -0.13171323 0.07456232 -0.09014967 -0.017732404 -0.16296624 -0.06734601 0.0037042173
0.026515868 -0.12676337 0.017810183 0.1934291 -0.00075385504 -0.0067374976 -0.0056751813 0.20168182
0.046460066 0.10578803 -0.0005450399 0.23944026 -0.0003893651 0.0023616084 0.0148324035 0.0046249144
0.055235635 0.005460226 -0.15152034 -0.006813126 -0.00779944 -0.00074000086 -0.0030368043 -0.0025087956
0.24384588 -0.05000958 0.042310365 -0.16117825 0.1762719 0.28586173 -0.3356503 -0.05609394
0.13438031 0.092832975 0.070671976 -0.09109316 -0.034117736 -0.15018621 0.17556326 0.029341206
-0.46404612 -0.029046934 -0.2403568 0.17377788 0.009629561 -0.006074272 0.24802764 0.0050550434
0.054561656 -0.20297518 -0.0043800394 -0.13592288 0.010200326 0.014796066 -0.16173564 -0.042870704
-0.17662844 -0.0006192902 0.09367932 0.09496689 0.013893127 0.010251011 -0.0136697525 -0.007206503
-0.26066887 0.2896777 -0.1758205 -0.021180792 0.05550019 -0.16378398 -0.19219017 -0.27792686
0.20092343 -0.01819852 -0.18607679 -0.048172355 0.005064786 -0.08829333 -0.0015299714 -0.12437557
-0.037125163 -0.31394354 -0.20216879 0.16687931 -0.0080082575 0.0056437124 -0.11719945 0.121205546
-0.007171909 0.0027623863 0.0033706732 -0.26112613 -0.0077834614 -0.009498396 0.17065565 -0.113626055
-0.08018043 -0.0003493595 -0.044211965 -0.23683687 -0.120188884 -0.007876306 0.010754795 0.0062536327
-0.07045701 -0.16222058 -0.066242434 -0.098752506 0.3134084 -0.2844738 -0.18335092 0.15635724
0.12678137 -0.08692421 0.026313933 -0.13032511 0.3862124 -0.07198352 0.56816787 -0.18841021
0.012232553 0.2586092 0.3160956 -0.25600353 0.017076263 -0.008980367 0.09370722 -0.13605194
0.10035868 0.11205659 -0.0059937392 -0.05666871 0.020979196 0.015319846 0.3958032 0.41861755
-0.17449115 -0.00013234414 -0.1953505 0.07625668 0.19526571 0.018513953 -0.025780702 -0.008695028
0.016877078 0.16171165 -0.46181858 -0.15885669 -0.15952788 -0.06457641 -0.066839784 0.12515715
0.41694105 0.14207998 0.34737366 -0.38063064 -0.07547547 0.0037843613 -0.04518516 0.051622722
0.09939246 -0.00857141 -0.14049171 0.070196696 0.0057766666 -0.02563849 0.19699876 -0.13242291
0.50815034 0.028062353 0.00043630064 0.043513466 0.00010455981 0.010694618 0.08455707 0.08955176
-0.0011533734 0.0214247 -0.19323084 -0.07874577 0.21274582 0.0034813918 -0.012145089 -0.0069911196
-0.06615089 -0.31438744 0.12233762 -0.03450862 -0.33086252 0.56345415 -0.04520486 -0.17042857
0.081140794 0.22314505 -0.34820992 0.015848245 -0.207703 -0.034604065 0.003371608 0.0272294
00000000: bfc6 633e bfc6 443d c167 033e 3832 13be
00000010: b8cb 253d a490 093f c30a f43c 4b65 09bf
00000020: 7e8c 46bb ebc7 85bd e9f9 d7bd 6ed0 193d
00000030: 7b7b e9bc 5501 8a3e 5825 133d a8f4 8bbd
00000040: 5c14 393d 0b62 edbd 6fcd bfbd 96cd f63d
00000050: 24b0 cf3b e8b6 52bc cff2 03bd 3464 6cbe
00000060: dcf6 02bd 2492 983e a726 62ba 8b13 ccbd
00000070: c2b3 f73b 39db d63b f2a9 4cbe a23b bf3d
00000080: 88b2 273d 2424 153c c8a4 81be e170 3f3c
00000090: 2858 82be cb22 ef3b 7893 27bc f498 54bb
000000a0: 04e7 70b9 c6b0 66bd e4fa 8d3e b896 213f
000000b0: 6da9 853e 3645 283e fd77 f2be 38de d13e
000000c0: dd2d d73e d5df 06be 21b4 983d 64a0 b8bd
000000d0: 8c43 91bc 9fe0 26be b4ec 89bd 74c2 723b
000000e0: ce37 d93c 42ce 01be a9e6 913c 4712 463e
000000f0: 5b9e 45ba 3ac6 dcbb dff6 b9bb ae85 4e3e
00000100: e94c 3e3d 65a7 d83d 02e1 0eba d42f 753e
00000110: b323 ccb9 37c5 1a3b 9c03 733c 988c 973b
00000120: c33e 623d b2eb b23b 2628 1bbe a540 dfbb
00000130: 7292 ffbb 9efc 41ba 1f05 47bb 9b6a 24bb
00000140: bcb2 793e d8d6 4cbd a24d 2d3d e90b 25be
00000150: 9f80 343e 785c 923e 5bda abbe c2c2 65bd
00000160: fe9a 093e 371f be3d 78bc 903d 0d8f babd
00000170: 0abf 0bbd 6aca 19be dbc6 333e f85c f03c
00000180: 7497 edbe d6f3 edbc 1820 76be d4f2 313e
00000190: 4ec5 1d3c b00a c7bb f5fa 7d3e c7a4 a53b
000001a0: 0b7c 5f3d bad8 4fbe 6f86 8fbb 5e2f 0bbe
000001b0: 451f 273c 336b 723c 079e 25be 3199 2fbd
000001c0: 16de 34be dd57 22ba f1da bf3d 007e c23d
000001d0: 00a0 633c dbf3 273c 19f7 5fbc 8724 ecbb
000001e0: 6476 85be a350 943e 4a0a 34be 5783 adbc
000001f0: 2b54 633d fdb6 27be 80cd 44be 6e4c 8ebe
00000200: dfbe 4d3e 1015 95bc ea8a 3ebe 6050 45bd
00000210: 81f6 a53b 22d3 b4bd 5289 c8ba 9eb8 febd
00000220: 8e10 18bd 35bd a0be 5605 4fbe 69e2 2a3e
00000230: 1135 03bc e4ee b83b 4406 f0bd 9d3a f83d
00000240: 5502 ebbb 2709 353b 83e6 5c3b 53b2 85be
00000250: 680c ffbb 299f 1bbc 5bc0 2e3e c7b4 e8bd
00000260: a335 a4bd 3d2a b7b9 9b17 35bd 5d85 72be
00000270: 9725 f6bd 9f0b 01bc e134 303c 46eb cc3b
00000280: c44b 90bd 271d 26be 1daa 87bd c13e cabd
00000290: 1177 a03e 8da6 91be 58c0 3bbe 1d1c 203e
000002a0: fad2 013e 5205 b2bd 5190 d73c f273 05be
000002b0: a2bd c53e 196c 93bd 7373 113f 9bee 40be
000002c0: 0c6b 483c 6d68 843e 48d7 a13e e512 83be
000002d0: 85e3 8b3c 6422 13bc 92e9 bf3d 3351 0bbe
000002e0: da88 cd3d ed7d e53d 2167 c4bb 731d 68bd
000002f0: 90dc ab3c 1700 7b3c b8a6 ca3e 0a55 d63e
00000300: cfad 32be dcc5 0ab9 f609 48be 762c 9c3d
00000310: bcf3 473e 93aa 973c 0d32 d3bc 9775 0ebc
00000320: cc41 8a3c bd97 253e 7c73 ecbe 54ab 22be
00000330: 475b 23be a340 84bd 4ce3 88bd 3229 003e
00000340: 4c79 d53e 6a7d 113e f6da b13e 05e2 c2be
00000350: e292 9abd 0c03 783b 1314 39bd 5972 533d
00000360: 468e cb3d 196f 0cbc 0fdd 0fbe 49c3 8f3d
00000370: 314a bd3b d007 d2bc 0bba 493e df99 07be
00000380: 2416 023f 05e3 e53c 48bf e439 2d3b 323d
00000390: 1f47 db38 7b38 2f3c 422c ad3d ea66 b73d
000003a0: ca2c 97ba da82 af3c 4ede 45be 7645 a1bd
000003b0: 0ada 593e 1028 643b 32fc 46bc c315 e5bb
000003c0: 1e7a 87bd 64f7 a0be 258c fa3d e958 0dbd
000003d0: d066 a9be 883e 103f bb28 39bd d484 2ebe
000003e0: 252d a63d 2380 643e 9248 b2be 2ed4 813c
000003f0: 18b0 54be febc 0dbd 32f6 5c3b 3110 df3c

prop_layer._message_net.0.bias f4 [20]
0.021005673 0.28891695 0.17845137 0.22268201 0.110786475 0.12765338 0.032768182 -0.002568155
0.082274154 0.023311725 0.04314595 0.069464356 -0.03188654 0.2171161 0.07301222 -0.007819794
-0.02853066 -0.014109954 0.1534894 -0.009807611
00000000: 1714 ac3c ecec 933e f5bb 363e c106 643e
00000010: 05e4 e23d 91b7 023e ee37 063d 7e4e 28bb
00000020: 5a7f a83d 3bf8 be3c cfb9 303d 5443 8e3d
00000030: 769b 02bd af53 5e3e 6e87 953d 981e 00bc
00000040: 21b9 e9bc 702d 67bc 532c 1d3e 1ab0 20bc

prop_layer._reverse_message_net.0.weight f4 [20, 40]
0.22243784 0.0480411 0.12832548 -0.14374626 0.040477484 0.5373633 0.029790288 -0.53670186
-0.0030296142 -0.06532272 -0.105457135 0.03755229 -0.028501263 0.2695414 0.035924286 -0.06833774
0.04518543 -0.11590966 -0.09365355 0.12050931 0.0063381363 -0.012860991 -0.032213982 -0.230851
-0.031973705 0.29798996 -0.00086269755 -0.09964665 0.0075592706 0.006556895 -0.19986704 0.09337546
0.040941745 0.009102855 -0.2532103 0.011684627 -0.25457883 0.007297849 -0.01022803 -0.00324398
-0.00022974244 -0.056320928 0.27730477 0.63120604 0.26105824 0.16432652 -0.4735717 0.40989852
0.42027178 -0.13171323 0.07456232 -0.09014967 -0.017732404 -0.16296624 -0.06734601 0.0037042173
0.026515868 -0.12676337 0.017810183 0.1934291 -0.00075385504 -0.0067374976 -0.0056751813 0.20168182
0.046460066 0.10578803 -0.0005450399 0.23944026 -0.0003893651 0.0023616084 0.0148324035 0.0046249144
0.055235635 0.005460226 -0.15152034 -0.006813126 -0.00779944 -0.00074000086 -0.0030368043 -0.0025087956
0.24384588 -0.05000958 0.042310365 -0.16117825 0.1762719 0.28586173 -0.3356503 -0.05609394
0.13438031 0.092832975 0.070671976 -0.09109316 -0.034117736 -0.15018621 0.17556326 0.029341206
-0.46404612 -0.029046934 -0.2403568 0.17377788 0.009629561 -0.006074272 0.24802764 0.0050550434
0.054561656 -0.20297518 -0.0043800394 -0.13592288 0.010200326 0.014796066 -0.16173564 -0.042870704
-0.17662844 -0.0006192902 0.09367932 0.09496689 0.013893127 0.010251011 -0.0136697525 -0.007206503
-0.26066887 0.2896777 -0.1758205 -0.021180792 0.05550019 -0.16378398 -0.19219017 -0.27792686
0.20092343 -0.01819852 -0.18607679 -0.048172355 0.005064786 -0.08829333 -0.0015299714 -0.12437557
-0.037125163 -0.31394354 -0.20216879 0.16687931 -0.0080082575 0.0056437124 -0.11719945 0.121205546
-0.007171909 0.0027623863 0.0033706732 -0.26112613 -0.0077834614 -0.009498396 0.17065565 -0.113626055
-0.08018043 -0.0003493595 -0.044211965 -0.23683687 -0.120188884 -0.007876306 0.010754795 0.0062536327
-0.07045701 -0.16222058 -0.066242434 -0.098752506 0.3134084 -0.2844738 -0.18335092 0.15635724
0.12678137 -0.08692421 0.026313933 -0.13032511 0.3862124 -0.07198352 0.56816787 -0.18841021
0.012232553 0.2586092 0.3160956 -0.25600353 0.017076263 -0.008980367 0.09370722 -0.13605194
0.10035868 0.11205659 -0.0059937392 -0.05666871 0.020979196 0.015319846 0.3958032 0.41861755
-0.17449115 -0.00013234414 -0.1953505 0.07625668 0.19526571 0.018513953 -0.025780702 -0.008695028
0.016877078 0.16171165 -0.46181858 -0.15885669 -0.15952788 -0.06457641 -0.066839784 0.12515715
0.41694105 0.14207998 0.34737366 -0.38063064 -0.07547547 0.0037843613 -0.04518516 0.051622722
0.09939246 -0.00857141 -0.14049171 0.070196696 0.0057766666 -0.02563849 0.19699876 -0.13242291
0.50815034 0.028062353 0.00043630064 0.043513466 0.00010455981 0.010694618 0.08455707 0.08955176
-0.0011533734 0.0214247 -0.19323084 -0.07874577 0.21274582 0.0034813918 -0.012145089 -0.0069911196
-0.06615089 -0.31438744 0.12233762 -0.03450862 -0.33086252 0.56345415 -0.04520486 -0.17042857
0.081140794 0.22314505 -0.34820992 0.015848245 -0.207703 -0.034604065 0.003371608 0.0272294
00000000: bfc6 633e bfc6 443d c167 033e 3832 13be
00000010: b8cb 253d a490 093f c30a f43c 4b65 09bf
00000020: 7e8c 46bb ebc7 85bd e9f9 d7bd 6ed0 193d
00000030: 7b7b e9bc 5501 8a3e 5825 133d a8f4 8bbd
00000040: 5c14 393d 0b62 edbd 6fcd bfbd 96cd f63d
00000050: 24b0 cf3b e8b6 52bc cff2 03bd 3464 6cbe
00000060: dcf6 02bd 2492 983e a726 62ba 8b13 ccbd
00000070: c2b3 f73b 39db d63b f2a9 4cbe a23b bf3d
00000080: 88b2 273d 2424 153c c8a4 81be e170 3f3c
00000090: 2858 82be cb22 ef3b 7893 27bc f498 54bb
000000a0: 04e7 70b9 c6b0 66bd e4fa 8d3e b896 213f
000000b0: 6da9 853e 3645 283e fd77 f2be 38de d13e
000000c0: dd2d d73e d5df 06be 21b4 983d 64a0 b8bd
000000d0: 8c43 91bc 9fe0 26be b4ec 89bd 74c2 723b
000000e0: ce37 d93c 42ce 01be a9e6 913c 4712 463e
000000f0: 5b9e 45ba 3ac6 dcbb dff6 b9bb ae85 4e3e
00000100: e94c 3e3d 65a7 d83d 02e1 0eba d42f 753e
00000110: b323 ccb9 37c5 1a3b 9c03 733c 988c 973b
00000120: c33e 623d b2eb b23b 2628 1bbe a540 dfbb
00000130: 7292 ffbb 9efc 41ba 1f05 47bb 9b6a 24bb
00000140: bcb2 793e d8d6 4cbd a24d 2d3d e90b 25be
00000150: 9f80 343e 785c 923e 5bda abbe c2c2 65bd
00000160: fe9a 093e 371f be3d 78bc 903d 0d8f babd
00000170: 0abf 0bbd 6aca 19be dbc6 333e f85c f03c
00000180: 7497 edbe d6f3 edbc 1820 76be d4f2 313e
00000190: 4ec5 1d3c b00a c7bb f5fa 7d3e c7a4 a53b
000001a0: 0b7c 5f3d bad8 4fbe 6f86 8fbb 5e2f 0bbe
000001b0: 451f 273c 336b 723c 079e 25be 3199 2fbd
000001c0: 16de 34be dd57 22ba f1da bf3d 007e c23d
000001d0: 00a0 633c dbf3 273c 19f7 5fbc 8724 ecbb
000001e0: 6476 85be a350 943e 4a0a 34be 5783 adbc
000001f0: 2b54 633d fdb6 27be 80cd 44be 6e4c 8ebe
00000200: dfbe 4d3e 1015 95bc ea8a 3ebe 6050 45bd
00000210: 81f6 a53b 22d3 b4bd 5289 c8ba 9eb8 febd
00000220: 8e10 18bd 35bd a0be 5605 4fbe 69e2 2a3e
00000230: 1135 03bc e4ee b83b 4406 f0bd 9d3a f83d
00000240: 5502 ebbb 2709 353b 83e6 5c3b 53b2 85be
00000250: 680c ffbb 299f 1bbc 5bc0 2e3e c7b4 e8bd
00000260: a335 a4bd 3d2a b7b9 9b17 35bd 5d85 72be
00000270: 9725 f6bd 9f0b 01bc e134 303c 46eb cc3b
00000280: c44b 90bd 271d 26be 1daa 87bd c13e cabd
00000290: 1177 a03e 8da6 91be 58c0 3bbe 1d1c 203e
000002a0: fad2 013e 5205 b2bd 5190 d73c f273 05be
000002b0: a2bd c53e 196c 93bd 7373 113f 9bee 40be
000002c0: 0c6b 483c 6d68 843e 48d7 a13e e512 83be
000002d0: 85e3 8b3c 6422 13bc 92e9 bf3d 3351 0bbe
000002e0: da88 cd3d ed7d e53d 2167 c4bb 731d 68bd
000002f0: 90dc ab3c 1700 7b3c b8a6 ca3e 0a55 d63e
00000300: cfad 32be dcc5 0ab9 f609 48be 762c 9c3d
00000310: bcf3 473e 93aa 973c 0d32 d3bc 9775 0ebc
00000320: cc41 8a3c bd97 253e 7c73 ecbe 54ab 22be
00000330: 475b 23be a340 84bd 4ce3 88bd 3229 003e
00000340: 4c79 d53e 6a7d 113e f6da b13e 05e2 c2be
00000350: e292 9abd 0c03 783b 1314 39bd 5972 533d
00000360: 468e cb3d 196f 0cbc 0fdd 0fbe 49c3 8f3d
00000370: 314a bd3b d007 d2bc 0bba 493e df99 07be
00000380: 2416 023f 05e3 e53c 48bf e439 2d3b 323d
00000390: 1f47 db38 7b38 2f3c 422c ad3d ea66 b73d
000003a0: ca2c 97ba da82 af3c 4ede 45be 7645 a1bd
000003b0: 0ada 593e 1028 643b 32fc 46bc c315 e5bb
000003c0: 1e7a 87bd 64f7 a0be 258c fa3d e958 0dbd
000003d0: d066 a9be 883e 103f bb28 39bd d484 2ebe
000003e0: 252d a63d 2380 643e 9248 b2be 2ed4 813c
000003f0: 18b0 54be febc 0dbd 32f6 5c3b 3110 df3c

prop_layer._reverse_message_net.0.bias f4 [20]
0.021005673 0.28891695 0.17845137 0.22268201 0.110786475 0.12765338 0.032768182 -0.002568155
0.082274154 0.023311725 0.04314595 0.069464356 -0.03188654 0.2171161 0.07301222 -0.007819794
-0.02853066 -0.014109954 0.1534894 -0.009807611
00000000: 1714 ac3c ecec 933e f5bb 363e c106 643e
00000010: 05e4 e23d 91b7 023e ee37 063d 7e4e 28bb
00000020: 5a7f a83d 3bf8 be3c cfb9 303d 5443 8e3d
00000030: 769b 02bd af53 5e3e 6e87 953d 981e 00bc
00000040: 21b9 e9bc 702d 67bc 532c 1d3e 1ab0 20bc

prop_layer.GRU.weight_ih_l0 f4 [30, 20]
0.010831467 0.004857862 0.041210797 0.0067479466 -0.10555402 0.12694298 0.20984712 -0.060082003
-0.0407969 0.024427138 0.13204803 -0.017929591 0.090745 -0.035530988 0.3629322 0.027281841
0.15362567 -0.06598835 -0.09746769 0.006682206 7.530113e-05 -0.019923763 -0.0068801576 -0.018145537
-0.016919482 -0.004005319 -0.008242969 0.017538713 0.0013654021 0.00867401 0.011017347 -0.0037765172
-0.009169624 -0.0278776 0.045709953 0.008468618 0.0105295805 -0.0018957726 0.006252574 0.00041867467
0.0034318182 -0.05285183 -0.01958171 -0.06451864 -0.0639824 -0.013604302 -0.0462396 0.00076496816
-0.014193351 -0.0147408 0.044272322 0.021795418 -0.025681423 0.042946663 0.009412292 0.009808158
-0.058130596 0.048561666 0.0019258439 -0.006248317 -0.003442921 0.015551393 0.002545426 -0.033655096
-0.015049737 0.013598766 -0.015048632 -0.061820965 0.044870455 -0.0032671625 -0.07723512 -0.021702493
0.014177973 0.015017001 -0.04636449 0.0017298699 0.010040402 -0.035348013 0.0069860714 0.029601842
0.04734763 0.028619345 0.029308809 -0.023037335 -0.074563496 0.010797859 -0.018140905 0.048048303
-0.0008336922 0.0019214638 -0.0921442 -0.006392517 0.034690697 -0.078459814 -0.051662426 0.00085355557
-0.022708325 0.027444921 0.049765952 -0.029831111 -0.057145562 0.08527988 -0.029273234 0.033863287
-0.072533384 -0.045571953 -0.0073184837 -0.048016023 0.020018473 0.005730357 0.022690367 -0.017158635
-0.057544656 -0.06552086 0.048231747 -0.0033196504 0.028612856 -0.08859875 -0.050379682 -0.07727524
-0.012977555 0.006951342 0.0075168745 -0.005258754 -0.003926092 -0.008468067 -0.00094255444 -0.0031132682
0.0037379714 -0.008391338 -0.0025901457 -0.0010611973 -0.0014665964 -0.0018708592 0.00083555956 0.0014784228
0.0015201567 -0.009000732 0.0036661543 0.0011609106 -0.024783349 -0.026715431 -0.020932565 -0.0020732314
-0.02316532 -0.020957915 0.016499577 -0.0031586597 -0.0038872298 -0.00025364818 -0.0059198956 0.0031934741
-0.006804159 -0.00834826 -0.023760358 0.0030650694 -0.0056046983 -0.0012757388 0.0038246498 -0.0023684392
-0.021026127 0.019840937 0.009567459 -0.010297234 0.00892096 -0.014370877 0.0056817173 0.017249528
0.009657791 0.00729018 -0.018678535 -0.015470444 0.011738806 -0.026572146 0.0260356 0.014025879
0.023764294 -0.009151065 0.00014303441 -0.00017706066 -0.0076721557 0.018569378 0.013405057 -0.028580137
-0.0329527 0.018693995 0.03350713 -0.02125082 -0.0073891585 -0.014254178 -0.032645024 -0.00049210107
0.022905348 0.035116974 0.032128867 -0.012544605 0.022711491 -0.024517996 -0.016472755 0.014969042
-0.21642213 0.08392135 0.099291585 -0.3011073 -0.08160276 0.13623196 -0.17509492 0.06501316
0.23739211 -0.07363002 -0.012006934 0.015360931 -0.21594553 -0.28840396 -0.15267462 -0.034967117
0.21875899 -0.0971964 0.15749866 -0.006322768 0.17840165 -0.18595816 0.06529165 -0.023619698
-0.026702778 -0.0033476816 0.086825736 0.09259084 -0.19621113 -0.008566224 0.05532562 0.03772286
0.08030939 -0.092104964 0.16015968 0.028351054 -0.05303861 0.2896506 -0.057168927 0.08222579
-0.044054296 -0.42517397 -0.032240015 0.20523499 -0.20472607 -0.10206727 -0.17177288 0.16744237
-0.08652992 -0.026708823 0.28012842 0.03632626 0.13097245 -0.02689999 -0.011079034 -0.004881566
00000000: 7776 313c b32e 9f3b a7cc 283d e11d dd3b
00000010: b52c d8bd 57fd 013e 2ae2 563e 8c18 76bd
00000020: a61a 27bd 6c1b c83c 9937 073e 14e1 92bc
00000030: 84d8 b93d f188 11bd 40d2 b93e 2b7e df3c
00000040: 0c50 1d3e e624 87bd 249d c7bd 68f6 da3b
00000050: fdea 9d38 2937 a3bc f272 e1bb f3a5 94bc
00000060: ba9a 8abc 0d3f 83bb 850d 07bc 59ad 8f3c
00000070: 4bf7 b23a 6f1d 0e3c 1a82 343c 727f 77bb
00000080: 313c 16bc 915f e4bc 5c3a 3b3d f5bf 0a3c
00000090: 4384 2c3c 937b f8ba 64e2 cc3b 9081 db39
000000a0: 5be8 603b 297b 58bd d369 a0bc 5922 84bd
000000b0: 3409 83bd 94e4 5ebc bc65 3dbd 2588 483a
000000c0: 3b8b 68bc 6583 71bc e556 353d 4e8c b23c
000000d0: d961 d2bc d7e8 2f3d 0436 1a3c 65b2 203c
000000e0: 591a 6ebd 99e8 463d 996c fc3a afbe ccbb
000000f0: a1a2 61bb 45cb 7e3c 29d1 263b edd9 09bd
00000100: 2c93 76bc 5ccd 5e3c 8a8e 76bc fb37 7dbd
00000110: 15ca 373d e41d 56bb 722d 9ebd 6dc9 b1bc
00000120: bb4a 683c de09 763c b1e8 3dbd cdbc e23a
00000130: 8080 243c 14c9 10bd 6aeb e43b 907f f23c
00000140: 97ef 413d 1e73 ea3c 0719 f03c cbb8 bcbc
00000150: bfb4 98bd 81e9 303c 3c9c 94bc 4cce 443d
00000160: 238c 5aba a0d9 fb3a 19b6 bcbd 5278 d1bb
00000170: d517 0e3d 8aaf a0bd fb9b 53bd 25c1 5f3a
00000180: cf06 babc 2cd4 e03c 62d7 4b3d 6060 f4bc
00000190: 7711 6abd 38a7 ae3d 6cce efbc 3bb4 0a3d
000001a0: 628c 94bd a8a9 3abd e4cf efbb 73ac 44bd
000001b0: c8fd a33c b8c5 bb3b 26e1 b93c 4490 8cbc
000001c0: f2b3 6bbd cd2f 86bd a78e 453d 7e8e 59bb
000001d0: 8265 ea3c 4373 b5bd ed5a 4ebd 7b42 9ebd
000001e0: d09f 54bc 15c8 e33b 1d50 f63b a051 acbb
000001f0: 72a6 80bb a6bd 0abc c215 77ba f907 4cbb
00000200: c1f8 743b d37b 09bc 6fbf 29bb df17 8bba
00000210: cf3a c0ba 9e37 f5ba 7409 5b3a a3c7 c13a
00000220: ff3f c73a ce77 13bc dd43 703b b229 983a
00000230: 7306 cbbc 52da dabc c57a abbc 0ddf 07bb
00000240: 32c5 bdbc efaf abbc 1f2a 873c 8401 4fbb
00000250: e5c0 7ebb 15fc 84b9 affb c1bb 9b49 513b
00000260: 6cf5 debb 24c7 08bc 15a5 c2bc 55df 483b
00000270: 9ea7 b7bb b136 a7ba faa6 7a3b d137 1bbb
00000280: fc3e acbc 7689 a23c d5c0 1c3c bbb5 28bc
00000290: 3829 123c d473 6bbc b32d ba3b e24e 8d3c
000002a0: b63b 1e3c 76e2 ee3b ba03 99bc bf77 7dbc
000002b0: 1f54 403c d4ad d9bc 9c48 d53c cdcc 653c
000002c0: 56ad c23c 59ee 15bc 82fb 1539 5ca9 39b9
000002d0: b566 fbbb cf1e 983c e2a0 5b3c e420 eabc
000002e0: 69f9 06bd 2624 993c c63e 093d 3316 aebc
000002f0: c120 f2bb 5b8a 69bc cab6 05bd 5800 01ba
00000300: ffa3 bb3c d1d6 0f3d 8f99 033d e387 4dbc
00000310: 730d ba3c f7d9 c8bc dff1 86bc b640 753c
00000320: c39d 5dbe f5de ab3d 6359 cb3d bc2a 9abe
00000330: 591f a7bd 6480 0b3e 154c 33be 9f25 853d
00000340: eb16 733e 56cb 96bd bbb8 44bc 6aac 7b3c
00000350: d320 5dbe afa9 93be bc56 1cbe ae39 0fbd
00000360: 5b02 603e e80e c7bd 5447 213e 392f cfbb
00000370: ecae 363e d16b 3ebe a1b7 853d 197e c1bc
00000380: c9bf dabc c764 5bbb b1d1 b13d 44a0 bd3d
00000390: 92eb 48be 5959 0cbc 1e9d 623d 4983 1a3d
000003a0: 4079 a43d 87a1 bcbd e600 243e 7840 e83c
000003b0: 033f 59bd 154d 943e f729 6abd ff65 a83d
000003c0: 4772 34bd 67b0 d9be 1b0e 04bd 1f29 523e
000003d0: b6a3 51be a508 d1bd 3be5 2fbe 0376 2b3e
000003e0: 9936 b1bd 76cc dabc fe6c 8f3e d8ca 143d
000003f0: a41d 063e 5e5d dcbc d684 35bc 8bf5 9fbb

prop_layer.GRU.weight_hh_l0 f4 [30, 10]
0.069337375 -0.023197904 0.041114584 -0.16086152 -0.20046705 -0.10552221 -0.012444141 -0.09906162
0.049451377 -0.015426828 0.01026761 0.00022947341 0.0074671633 -0.0047809957 -0.0018049665 0.0053235246
0.008540815 -0.0091264 -0.004458908 -0.0030110667 -0.008698188 -0.014637756 -0.0065058186 0.016395012
-0.024866026 0.036734805 0.01613232 0.023506334 -0.024810078 0.0052916184 0.017216729 -0.0037213443
-0.011365956 -0.013745946 9.6033735e-05 -0.0049736868 0.0110863885 -0.008594842 -0.022856072 -0.0019724155
0.0072855665 -0.021836352 -0.023420678 0.017463602 -0.0042592557 -0.0074381903 0.011780153 -0.015312989
-0.021743573 0.00033063625 0.05299914 0.019912353 0.023004906 -0.0900997 -0.09159166 -0.06115964
-0.0019101084 -0.0712951 -0.001832987 -0.017306574 -0.0050301957 0.0068321335 -0.0025195852 -0.0053535854
0.004642113 0.008462398 -0.0048878496 0.0018374536 0.0030621807 0.0011382537 -0.027473092 -0.0033383514
0.008635393 0.014625871 0.004151524 -0.011355016 -0.016959513 -0.0013379508 -0.0014309891 -0.0009928556
0.004393135 -0.01065199 0.00068367994 -0.0061740614 0.011570553 -0.008383537 0.00089006225 -0.0057769753
-0.005102586 -0.0004666245 0.018128222 0.0049632075 -0.01073089 -0.00932737 -0.0101058865 -0.008329814
-0.00042826103 0.0066995337 0.00018429759 -0.01785715 0.119340934 0.0037056499 -0.08362019 -0.032122217
0.012106183 -0.011811478 -0.0226641 -0.07748233 -0.12834884 0.037893068 0.009758631 -0.062236853
0.07100459 0.06225831 -0.023952024 -0.12558416 0.0721965 0.05172536 -0.10291712 -0.03039186
0.05253233 0.15092297 -0.07374532 0.039925113 -0.07959074 -0.12421909 -0.058851305 -0.1461085
0.12193517 0.012448304 0.12994902 0.09748785 0.2005971 -0.31680933 -0.4234266 -0.32828397
-0.10701821 -0.18043898 0.063489676 -0.019529128 0.09112767 0.008687207 0.31370085 -0.4420304
-0.4092727 -0.03326672 -0.01831792 -0.29617417 0.15243304 0.039753366 0.20411514 -0.18986732
-0.09980503 0.04815912 0.16054037 0.12199155 0.018312274 0.2557681 -0.047591526 -0.028842295
0.02126057 -0.0027311181 0.032152902 -0.029309489 -0.10386 -0.06840163 -0.045053374 -0.16122463
-0.048900507 0.0728715 -0.04661807 0.020562973 0.13218252 -0.056357365 -0.12959164 -0.23633294
-0.17002393 -0.10242346 0.016414188 0.026086349 0.047692187 0.03429015 0.0035989408 0.067337714
-0.024110189 -0.03783044 -0.06840986 -0.0708534 -0.028570557 -0.008169602 0.062751845 -0.06644112
0.05253727 0.056436148 -0.031674527 -0.16513696 -0.016069122 -0.04897393 -0.028724588 -0.03419517
0.30834496 -0.10253757 0.18150291 -0.49568927 -0.5398885 -0.32336202 -0.03984434 -0.18330401
0.13934341 -0.103790745 -0.01145369 0.0942679 -0.07371503 -0.004294448 -0.087043 -0.00092940655
-0.030097572 0.024886405 -0.034820616 0.0020188026 -0.17648274 0.11146123 0.039077587 -0.07163414
-0.042941388 0.025965603 -0.110916205 0.02862553 0.06419582 0.07413943 0.06475038 -0.110088855
-0.044132825 -0.01093897 0.1473344 0.017197598 0.052432157 0.030449232 -0.12407392 0.05188272
0.06979882 -0.074400015 -0.110589 0.03228111 0.094846494 -0.11759767 0.1381651 -0.12047501
-0.21189722 0.04384853 -0.2289576 -0.06409782 0.031829696 0.31761608 0.23506884 0.18220222
00000000: c100 8e3d 8809 bebc c467 283d e2b8 24be
00000010: 3c47 4dbe 071c d8bd 83e2 4bbc d2e0 cabd
00000020: 878d 4a3d cec0 7cbc 7a39 283c cd9e 7039
00000030: 1baf f43b e6a9 9cbb a094 ecba f670 ae3b
00000040: c6ee 0b3c e586 15bc 081c 92bb 5155 45bb
00000050: d882 0ebc 33d3 6fbc c32e d5bb d54e 863c
00000060: d6b3 cbbc 3c77 163d ed27 843c 5b90 c03c
00000070: 813e cbbc 5065 ad3b 190a 8d3c cce1 73bb
00000080: 4638 3abc ad36 61bc b865 c938 4ffa a2bb
00000090: afa3 353c 61d1 0cbc a83c bbbc a443 01bb
000000a0: c3bb ee3b 26e2 b2bc b9dc bfbc d40f 8f3c
000000b0: 3a91 8bbb 10bc f3bb 8b01 413c 55e3 7abc
000000c0: 941f b2bc 3f59 ad39 a015 593d 3b1f a33c
000000d0: c974 bc3c 3186 b8bd 6994 bbbd 8882 7abd
000000e0: 9a5c faba 2a03 92bd d640 f0ba 84c6 8dbc
000000f0: 57d4 a4bb 17e0 df3b a01f 25bb 216d afbb
00000100: de1c 983b dfa5 0a3c 412a a0bb b6d6 f03a
00000110: deae 483b 7531 953a 400f e1bc 3ec8 5abb
00000120: 777b 0d3c 59a1 6f3c 8209 883b 640a 3abc
00000130: adee 8abc 2e5e afba 0790 bbba b522 82ba
00000140: 4af4 8f3b af85 2ebc fc38 333a c84f cabb
00000150: 6b92 3d3c 1a5b 09bc 1153 693a c84c bdbb
00000160: 9833 a7bb 48a5 f4b9 a381 943c 67a2 a23b
00000170: 9dd0 2fbc d3d1 18bc 2993 25bc c679 08bc
00000180: 3988 e0b9 c387 db3b 0240 4139 2849 92bc
00000190: 0569 f43d 7dda 723b 1041 abbd 9692 03bd
000001a0: 0359 463c ee84 41bc 10aa b9bc 0eaf 9ebd
000001b0: e16d 03be c335 1b3d aae2 1f3c 12ec 7ebd
000001c0: db6a 913d 9202 7f3d 0937 c4bc 2299 00be
000001d0: c2db 933d f9dd 533d 36c6 d2bd 5af8 f8bc
000001e0: 242c 573d 8d8b 1a3e c907 97bd 8488 233d
000001f0: 7800 a3bd 9466 febd 110e 71bd 779d 15be
00000200: 25b9 f93d f9f3 4b3c 5b11 053e b6a7 c73d
00000210: 5469 4d3e d534 a2be 5fcb d8be d614 a8be
00000220: 5d2c dbbd ffc4 38be e006 823d 8dfb 9fbc
00000230: 25a1 ba3d c954 0e3c 669d a03e cf51 e2be
00000240: 318c d1be af42 08bd 760f 96bc 24a4 97be
00000250: 6817 1c3e 6dd4 223d 8f03 513e 946c 42be
00000260: 9466 ccbd 7f42 453d b264 243e b5d6 f93d
00000270: 9f03 963c 09f4 823e 55ef 42bd ad46 ecbc
00000280: a62a ae3c 8ffc 32bb c3b2 033d 741a f0bc
00000290: 8db4 d4bd 2716 8cbd e389 38bd 1218 25be
000002a0: e64b 48bd a73d 953d 97f2 3ebd ae73 a83c
000002b0: db5a 073e fbd6 66bd acb3 04be 4301 72be
000002c0: c11a 2ebe 64c3 d1bd 0c77 863c 0ab3 d53c
000002d0: e258 433d d473 0c3d 35dc 6b3b 5be8 893d
000002e0: bb82 c5bc 17f4 1abd 781a 8cbd 961b 91bd
000002f0: cd0c eabc cbd9 05bc 0a84 803d 4812 88bd
00000300: 5231 573d 9729 673d 26bd 01bd aa19 29be
00000310: 64a3 83bc e398 48bd d44f ebbc 3c10 0cbd
00000320: 64df 9d3e 38ff d1bd e6db 393e fcca fdbe
00000330: 2236 0abf b58f a5be d233 23bd 0cb4 3bbe
00000340: 0ab0 0e3e 3e90 d4bd 42a8 3bbc 870f c13d
00000350: e8f7 96bd 71b8 8cbb 9a43 b2bd 6ba3 73ba
00000360: 2f8f f6bc 93de cb3c 10a0 0ebd e34d 043b
00000370: e4b7 34be c945 e43d d20f 203d ecb4 92bd
00000380: 4fe3 2fbd d1b5 d43c 0928 e3bd 1680 ea3c
00000390: 1979 833d 6ad6 973d d99b 843d 4476 e1bd
000003a0: 9fc4 34bd 5e39 33bc d4de 163e fae1 8c3c
000003b0: 1ac3 563d ab70 f93c 781a febd fa82 543d
000003c0: aff2 8e3d 095f 98bd 7c7c e2bd 3239 043d
000003d0: e13e c23d 0cd7 f0bd 277b 0d3e 9abb f6bd
000003e0: 96fb 58be 849a 333d dc73 6abe b845 83bd
000003f0: db5f 023d 939e a23e e3b5 703e 3893 3a3e

prop_layer.GRU.bias_ih_l0 f4 [30]
0.13743338 -0.0241137 0.0047182166 -0.013713327 0.0206613 0.06430161 -0.018211737 -0.014976397
-0.03313775 0.015320066 -0.25480506 -0.016553793 0.06777904 0.036801934 0.22884695 -0.28166237
0.19206248 0.15277092 -0.11444413 0.10843623 0.029635755 0.3381636 -0.16107479 -0.2930994
-0.12049619 -0.02521174 0.2215541 -0.14806744 0.039986145 -0.1550498
00000000: 56bb 0c3e 188a c5bc 459b 9a3b ddad 60bc
00000010: e341 a93c 90b0 833d c830 95bc 905f 75bc
00000020: 73bb 07bd 0401 7b3c cf75 82be d29b 87bc
00000030: bdcf 8a3d a0bd 163d db56 6a3e 0d36 90be
00000040: 07ac 443e fb6f 1c3e af61 eabd d013 de3d
00000050: afc6 f23c c823 ad3e caf0 24be 2011 96be
00000060: b5c6 f6bd da88 cebc 14df 623e fe9e 17be
00000070: 83c8 233d 60c5 1ebe

prop_layer.GRU.bias_hh_l0 f4 [30]
0.13743338 -0.0241137 0.0047182166 -0.013713327 0.0206613 0.06430161 -0.018211737 -0.014976397
-0.03313775 0.015320066 -0.25480473 -0.016548252 0.06778062 0.037003595 0.2287554 -0.28103957
0.19206251 0.1527706 -0.11444414 0.10843623 0.12284217 0.04945389 -0.03986182 -0.03410411
-0.0074599274 -0.020833384 0.031940207 -0.029189466 -0.0061418097 -0.06265661
00000000: 56bb 0c3e 188a c5bc 459b 9a3b ddad 60bc
00000010: e341 a93c 90b0 833d c830 95bc 905f 75bc
00000020: 73bb 07bd 0401 7b3c c475 82be 3390 87bc
00000030: 91d0 8a3d 1591 173d db3e 6a3e 6be4 8fbe
00000040: 09ac 443e e56f 1c3e b061 eabd d013 de3d
00000050: ad94 fb3d 2a90 4a3d 2646 23bd c0b0 0bbd
00000060: 6872 f4bb c6aa aabc bcd3 023d bf1e efbc
00000070: 3c41 c9bb 1c52 80bd

interaction_encoder.0.weight f4 [40, 40]
0.00031610017 -0.001377009 7.580236e-06 -0.0016819674 0.0008801122 -0.000399295 -2.8102464e-05 -8.790817e-06
0.00010264353 -4.484392e-05 -0.0015776925 -4.1007024e-05 0.0015227606 -1.8488901e-05 5.4527e-05 -1.517935e-05
4.4693894e-05 0.00010439708 -0.00073000026 0.00015766153 -3.7246704e-05 -0.0003382803 1.118575e-05 -0.0003826019
-0.00015005417 -9.1835114e-05 -6.1664025e-05 4.5490415e-05 0.00015286935 -2.931121e-05 0.00050880446 -4.7602447e-05
-0.00015299779 -6.6235174e-05 -0.00013722415 -1.7987139e-05 0.000104846804 0.00014105008 -0.00039027983 8.094875e-05
0.0058719525 -0.1834416 -0.06819926 0.20856245 -0.056212455 0.11754155 -0.07781041 -0.004226424
0.026064811 0.07250162 -0.2451619 0.07157359 -0.03730332 -0.07479911 0.27913857 0.021851383
0.081689 -0.024228845 0.0051576537 -0.06482758 -0.020688929 -0.2286217 0.15705648 -0.022782452
-0.19880709 0.024602387 0.08925747 0.048661087 -0.036671825 -0.040676065 -0.07184643 -0.11256688
0.069594905 -0.08938007 -0.08399576 -0.026912246 -0.1529117 0.09275195 -0.23222208 0.106136166
0.09040765 -0.240053 0.010798912 -0.0058182008 -0.15789628 -0.14361052 0.08776738 0.006487122
-0.026905764 0.0971808 -0.16171695 -0.13494304 0.15179597 -0.015566101 0.24126303 0.070791595
0.09328316 0.020597646 -0.0052100606 0.022676822 -0.14397562 -0.023051076 -0.08237708 0.1500335
0.15622061 -0.03955963 -0.08538572 -0.09332966 -0.043554187 0.0051486534 0.17246489 0.035504617
-0.06822593 0.07261357 0.09313437 -0.031769186 -0.19433798 -0.094413094 -0.19440125 0.03315798
-0.0026015013 -0.030219253 -0.004013163 -0.020774705 -0.0020907675 -0.008753419 -0.0013318146 -0.005056072
0.00012519618 -0.00022081194 -0.016541244 -0.0004492996 0.001918745 -0.0035810235 0.0075260294 8.0639395e-05
-0.002608261 0.00037144904 -0.012067833 0.0017504859 -0.0021365967 -0.004678968 -0.00035722472 0.013103296
-0.008573392 -0.019757705 0.0019628596 0.0007623558 -0.0010827786 -6.45719e-05 0.0016252327 -0.00023088114
0.0026245215 -0.0083289 -0.0023498153 -8.663104e-06 -0.0001602568 1.2013816e-05 -0.00645982 -0.0019394237
0.0096976645 -0.15364869 0.015925614 -0.040676475 -0.27472043 0.15284865 -0.1695539 0.00094652205
0.10299164 0.071924314 0.02671985 -0.019465707 -0.08416578 0.015943142 0.3779695 -0.0047201593
-0.021366954 0.021807663 -0.048850175 0.13011596 0.107326 -0.033245243 0.017274916 -0.06482122
-0.09049949 0.16351992 0.041986264 -0.05125134 0.081169054 0.07424589 -0.07619463 0.0005365968
-0.08528965 0.10708112 0.15088409 0.035305344 -0.054738637 -0.0023069314 0.097541906 0.08279281
-0.0007501681 -0.006069461 -0.0005270745 -0.0030289337 -9.717334e-05 -0.0068235705 0.0028135937 -0.0048982794
-0.0012404161 -0.0047210706 -0.007328938 -0.0030704092 -0.004545293 0.00041746956 -0.0016348856 -0.0024239223
-0.0019414864 0.0015670181 -0.011497983 0.00017053257 -0.00605664 -0.0068536084 -0.002809839 -0.0023760686
4.1410338e-05 -0.0039630467 -0.0026393256 0.00269894 -0.0013401918 -0.0014480646 -0.0020012967 -0.0014414259
-0.004061914 -0.0010421061 -0.0054663704 1.1962452e-05 0.0033258675 0.00055315706 -0.009147022 0.0083024455
-8.4946434e-05 -0.003007684 -0.00065218925 -0.00024937987 -0.0011015513 -0.0010282274 -0.00016189319 0.00014944172
3.6945464e-06 3.4496181e-06 -0.0031953827 7.017861e-07 -0.0013759884 -0.0015629944 0.0018659037 -2.884409e-07
00000000: 3fba a539 c17c b4ba bb59 fe36 7675 dcba
00000010: 54b7 663a 7858 d1b9 95bd ebb7 467c 13b7
00000020: 5342 d738 cb16 3cb8 93ca ceba f5fe 2bb8
00000030: 5e97 c73a 9d18 9bb7 ecb3 6438 d0aa 7eb7
00000040: b475 3b38 c1ef da38 7d5d 3fba f251 2539
00000050: 5839 1cb8 375b b1b9 6eaa 3b37 f597 c8b9
00000060: dc57 1db9 9a97 c0b8 9f51 81b8 f6cc 3e38
00000070: 8e4b 2039 58e1 f5b7 4a61 053a bda8 47b8
00000080: 086e 20b9 bde7 8ab8 d4e3 0fb9 16e3 96b7
00000090: 33e1 db38 d8e6 1339 799e ccb9 07c3 a938
000000a0: 8269 c03b 1dd8 3bbe 0eac 8bbd 6591 553e
000000b0: 083f 66bd a0b9 f03d 105b 9fbd d07d 8abb
000000c0: df85 d53c bb7b 943d b90b 7bbe 2d95 923d
000000d0: 5ecb 18bd 4730 99bd 40eb 8e3e ac01 b33c
000000e0: 904c a73d 927b c6bc 8901 a93b 52c4 84bd
000000f0: d47b a9bc cf1b 6abe 6ad3 203e 44a2 babc
00000100: 1694 4bbe f28a c93c 9fcc b63d d950 473d
00000110: 3235 16bd f29b 26bd 3924 93bd 7789 e6bd
00000120: c687 8e3d e60c b7bd f805 acbd 1277 dcbc
00000130: e294 1cbe bcf4 bd3d a0cb 6dbe eb5d d93d
00000140: a527 b93d 74d0 75be ebed 303c 9ba6 bebb
00000150: 90af 21be a30e 13be 62bf b33d ec91 d43b
00000160: 7a69 dcbc ba06 c73d 2199 25be 822e 0abe
00000170: 6770 1b3e f608 7fbc a80d 773e 2ffb 903d
00000180: 3e0b bf3d 65bc a83c 28b9 aabb bec4 b93c
00000190: 586e 13be 9cd5 bcbc 51b5 a8bd 62a2 193e
000001a0: 4cf8 1f3e 4709 22bd b5de aebd 9f23 bfbd
000001b0: e065 32bd 09b6 a83b a39a 303e 4a6d 113d
000001c0: 09ba 8bbd 6cb6 943d 3cbd be3d 6820 02bd
000001d0: 8900 47be a75b c1bd 1f11 47be a9d0 073d
000001e0: f37d 2abb 5e8e f7bc da80 83bb b72f aabc
000001f0: 4205 09bb 806a 0fbc 4890 aeba 68ad a5bb
00000200: 1847 0339 c189 67b9 8181 87bc f98f ebb9
00000210: 667e fb3a 9baf 6abb e99c f63b f21c a938
00000220: 5cef 2abb 0cbf c239 29b8 45bc 8f70 e53a
00000230: 2506 0cbb 0752 99bb e449 bbb9 35af 563c
00000240: 6a77 0cbc e9da a1bc 52a3 003b d5d8 473a
00000250: 05ec 8dba c66a 87b8 c305 d53a af18 72b9
00000260: 2a00 2c3b f075 08bc 5cff 19bb c057 11b7
00000270: 9b0a 28b9 f28e 4937 e6ac d3bb 4334 feba
00000280: f4e2 1e3c 1556 1dbe 6f76 823c 609c 26bd
00000290: 28a8 8cbe 5b84 1c3e 8a9f 2dbe 0520 783a
000002a0: 48ed d23d 0e4d 933d 96e3 da3c 8c76 9fbc
000002b0: 1c5f acbd 319b 823c 3885 c13e 91ab 9abb
000002c0: c009 afbc fca5 b23c 1f17 48bd 1e3d 053e
000002d0: bccd db3d 2a2c 08bd 2084 8d3c fdc0 84bd
000002e0: cc57 b9bd c471 273e caf9 2b3d edec 51bd
000002f0: f63b a63d 3b0e 983d ee0b 9cbd 67aa 0c3a
00000300: 57ac aebd 594d db3d 5c81 1a3e 569c 103d
00000310: 9f35 60bd e32f 17bb 0dc4 c73d 478f a93d
00000320: eea6 44ba 54e2 c6bb 5f2b 0aba 1381 46bb
00000330: 8ac9 cbb8 4298 dfbb 4564 383b bf81 a0bb
00000340: 7595 a2ba 36b3 9abb 9727 f0bb eb38 49bb
00000350: aef0 94bb d1df da39 a849 d6ba abda 1ebb
00000360: 7979 feba 6764 cd3a 0962 3cbc fdd0 3239
00000370: c776 c6bb 3c94 e0bb 4725 38bb d1b7 1bbb
00000380: 03b0 2d38 72dc 81bb 89f8 2cbb b3e0 303b
00000390: 60a9 afba fccc bdba 3028 03bb 3aee bcba
000003a0: ce19 85bb 4797 88ba 3d1f b3bb 57b2 4837
000003b0: ccf6 593b be01 113a 64dd 15bc fb06 083c
000003c0: 4525 b2b8 901c 45bb aef7 2aba 33bf 82b9
000003d0: ee61 90ba 96c5 86ba dfc1 29b9 75b3 1c39
000003e0: d3ef 7736 fd7f 6736 a069 51bb 6062 3c35
000003f0: 825a b4ba 64dd ccba 5791 f43a 04db 9ab4

interaction_encoder.0.bias f4 [40]
-0.0048445933 0.009479383 -0.15759039 -0.046755753 -0.010048816 -0.01306866 -0.0057131634 0.0035142456
-0.0015685546 -0.045490105 -0.048128195 -0.019296862 -0.0111665735 0.10971626 -0.02993447 -0.12760523
-0.0006136986 -0.1546827 -0.07141307 -0.0014977746 -0.08438363 -0.08293116 0.06980592 0.057100825
-0.07591836 -0.0059366953 -0.09362527 -0.20266026 -0.12772743 -0.04387383 -0.00038757612 0.030856423
-0.088181145 -0.0020080544 -0.015612905 -0.01436404 -0.032020524 -0.03938431 0.0091235265 -0.0069179763
00000000: 65bf 9ebb 6a4f 1b3c 605f 21be f682 3fbd
00000010: caa3 24bc ef1d 56bc 7d35 bbbb 424f 663b
00000020: f597 cdba d553 3abd 1222 45bd 7414 9ebc
00000030: 01f4 36bc ebb2 e03d 2239 f5bc f2aa 02be
00000040: 9ee0 20ba 2465 1ebe 0441 92bd fa50 c4ba
00000050: 53d1 acbd d0d7 a9bd 68f6 8e3d 8ee2 693d
00000060: 167b 9bbd 9c88 c2bb 9bbe bfbd 2c86 4fbe
00000070: fbca 02be 0cb5 33bd 9633 cbb9 9cc6 fc3c
00000080: 5198 b4bd 9099 03bb 45cd 7fbc 2757 6bbc
00000090: f427 03bd 7151 21bd d87a 153c 31b0 e2bb

interaction_encoder.2.weight f4 [20, 40]
-1.0186401e-07 -0.007338247 -0.015909515 4.532014e-13 0.013975516 -3.0044956e-05 -3.0358514e-11 0.003026815
-2.5599112e-08 -0.0012146315 0.0004777531 -0.0045554275 -0.0005715803 0.0005355239 2.4510683e-07 -0.01977556
-6.0154465e-10 0.004455954 -0.0023843737 -1.5359353e-19 -0.00045093527 0.0010603362 0.018326867 0.001832048
-0.0012435915 0.00036098488 -0.00070363225 0.008344292 -0.0074927737 -0.001196643 -1.0162e-41 0.004524606
0.008065928 -8.60451e-05 -0.013733881 -0.0036028882 2.8317535e-09 -0.008416421 -0.018346587 -0.0029061001
1.1871143e-07 0.0126108965 0.024096344 7.0154136e-13 -0.023100587 9.381954e-05 2.1543577e-10 0.0058391807
3.2998983e-08 0.0068612034 0.0007870433 -3.183525e-05 0.016853934 -0.0025083032 -1.1560439e-11 0.04008432
-1.576972e-10 -0.0012854678 -0.0059677646 -2.413543e-18 0.0033897592 0.012977275 0.013183373 0.004495197
0.0037902943 -0.0006034379 -0.0087270355 -0.0043301624 0.008463651 0.0023295789 9.88e-42 0.008601444
-0.0072950926 0.00083824864 0.008895087 -0.0024428149 6.7480905e-09 -0.0049827583 -0.0003920008 -0.0073756794
0.0020984202 0.00038009262 0.110338315 -0.001085243 -0.4069844 -0.001749901 -0.004874206 -0.16755895
0.00011279641 -0.20650303 -0.007243697 0.13709372 0.11463149 -0.07137211 0.007425273 0.06747086
-2.342671e-05 0.12840186 -0.3723118 0.00077322725 -0.1071037 -0.22838005 0.0070629017 0.057321507
0.061627995 0.002224671 0.17304909 0.21942951 -0.26411718 0.0106782755 2.6113844e-06 0.3906146
-0.07848913 0.0017092006 0.19999 -0.000978496 0.024305152 0.1501513 -0.024505176 -0.112207316
-0.00067457836 0.1516846 0.08015557 -0.014615898 -0.0759491 0.006162263 6.257456e-05 -0.09699539
3.9473445e-05 0.19920117 -0.0058811 0.105301805 -0.07142578 0.019462567 -0.005819377 0.1312198
-1.9816362e-06 0.05212752 0.023669476 2.2493652e-05 -0.13401361 0.21350193 0.056438494 0.10770419
-0.10533319 -0.007921307 0.23614559 -0.086149685 -0.050582167 0.01624805 -1.6566418e-06 -0.04824985
-0.12332433 0.0005097481 -0.11646121 -0.0009995287 0.0052967854 -0.22979595 -0.088244736 -0.14244288
0.0012151232 -0.08488792 -0.24300794 -0.011521764 -0.010256633 0.00053158565 -0.0053723757 -0.13414808
0.00085329026 -0.11224325 -0.0057692104 0.14934772 0.41657674 -0.0055772318 -0.011702647 -0.42289066
0.00044996804 -0.26045042 0.08609927 0.0033908277 0.2278821 -0.17779262 -0.3489954 0.002513214
-0.09520445 -0.004410463 0.07485534 -0.16561799 -0.1566725 -0.015722003 -0.0008084986 -0.12496257
-0.33037153 -0.0004475312 0.13099642 -0.019252341 0.023250505 -0.039529763 -0.30956128 0.07430066
0.0017523003 -0.19444655 -0.20675369 -0.002327426 0.053246174 0.00048709556 -0.0002482981 -0.19287848
-5.1735577e-05 -0.14151275 0.0061397767 -0.12787393 0.07164483 0.012706708 -0.012122189 0.081241
3.555229e-06 -0.17970829 -0.008860583 -0.00021061911 0.015692666 -0.078658134 0.0159501 -0.036525585
0.22227526 -0.0034296897 0.015419678 -0.018783716 0.10644825 -0.030324157 -1.5645506e-05 0.16475336
0.11855769 -0.0011181186 0.034263197 -0.002267846 0.0064200037 0.21948422 -0.19459572 -0.13735777
3.3460157e-08 0.0022186188 -0.004586101 1.1746411e-12 -0.006359817 3.4408888e-05 -3.324032e-11 -0.0006218825
4.328594e-09 0.0037970135 -5.6191973e-05 0.002968963 0.0027664364 0.002917317 5.5826687e-13 0.0053218277
00000000: 55c0 dab3 ad75 f0bb ac54 82bc 3421 ff2a
00000010: 90f9 643c 0d09 fcb7 a684 05ae 875d 463b
00000020: 0be5 dbb2 4534 9fba f07a fa39 b245 95bb
00000030: 1bd6 15ba 6762 0c3a 3a97 8334 5b00 a2bc
00000040: f159 25b0 4003 923b 2743 1cbb cc54 35a0
00000050: 826b ecb9 fbfa 8a3a 3a22 963c 5421 f03a
00000060: 0200 a3ba 9242 bd39 f673 38ba 7fb6 083c
00000070: f185 f5bb add8 9cba 541c 0080 2543 943b
00000080: f426 043c 1c73 b4b8 1204 61bc 6f1e 6cbb
00000090: bc98 4231 07e5 09bc 954b 96bc 4574 3ebb
000000a0: 4cee fe33 ef9d 4e3c b265 c53c 6277 452b
000000b0: 713d bdbc fbc0 c438 c7df 6c2f 9956 bf3b
000000c0: c4ba 0d33 f2d3 e03b 9551 4e3a d786 05b8
000000d0: 4311 8a3c 5862 24bb 975f 4bad 752f 243d
000000e0: d163 2daf 247d a8ba 3d8d c3bb 8a16 32a2
000000f0: b926 5e3b a39e 543c 13ff 573c 724c 933b
00000100: 9666 783b 0830 1eba d7fb 0ebc 09e4 8dbb
00000110: 20ab 0a3c d9ab 183b 8b1b 0000 12ed 0c3c
00000120: ac0b efbb eabd 5b3a b3bc 113c a217 20bb
00000130: d5dc e731 6846 a3bb 7585 cdb9 afaf f1bb
00000140: a685 093b 2b47 c739 0ef9 e13d b63e 8eba
00000150: 4260 d0be ef5c e5ba ceb7 9fbb 9394 2bbe
00000160: 1d8d ec38 8875 53be 895c edbb 4c62 0c3e
00000170: eac3 ea3d 8a2b 92bd b44f f33b 2a2e 8a3d
00000180: 7a84 c4b7 c77b 033e a79f bebe 67b2 4a3a
00000190: 2f59 dbbd 76dc 69be ea6f e73b f5c9 6a3d
000001a0: a36d 7c3d c9cb 113b c833 313e 21b2 603e
000001b0: 5e3a 87be eff3 2e3c 3e3f 2f36 a3fe c73e
000001c0: e9be a0bd 4107 e03a 2eca 4c3e e140 80ba
000001d0: 991b c73c 43c1 193e 14bf c8bc f3cc e5bd
000001e0: 30d6 30ba 3553 1b3e 9a28 a43d 8577 6fbc
000001f0: 348b 9bbd cfec c93b 763a 8338 85a5 c6bd
00000200: 4a90 2538 64fb 4b3e 3eb6 c0bb 79a8 d73d
00000210: ae47 92bd f66f 9f3c 79b0 bebb 7c5e 063e
00000220: 40fc 04b6 ab83 553d 7de6 c13c c0b0 bc37
00000230: dd3a 09be 40a0 5a3e 0d2c 673d 0494 dc3d
00000240: edb8 d7bd 5fc8 01bc 26d0 713e 3f6f b0bd
00000250: 3f2f 4fbd a11a 853c c759 deb5 a2a1 45bd
00000260: 7791 fcbd 9ea0 053a 3783 eebd 9e02 83ba
00000270: a890 ad3b a14f 6bbe a8b9 b4bd 8cdc 11be
00000280: c544 9f3a b8d9 adbd 13d7 78be c8c5 3cbc
00000290: 700b 28bc 1c5a 0b3a c10a b0bb 1d5e 09be
000002a0: 57af 5f3a cadf e5bd a50b bdbb 9cee 183e
000002b0: 8c49 d53e 36c1 b6bb 76bc 3fbc 2085 d8be
000002c0: b0e9 eb39 c259 85be d054 b03d a638 5e3b
000002d0: ed59 693e 450f 36be 86af b2be bcb4 243b
000002e0: 8dfa c2bd a585 90bb c24d 993d c397 29be
000002f0: c16e 20be 6ecb 80bc 6cf1 53ba 60ec ffbd
00000300: 7526 a9be 9fa2 eab9 ed23 063e 16b7 9dbc
00000310: d877 be3c f6e9 21bd d17e 9ebe f22a 983d
00000320: 71ad e53a ff1c 47be 3db7 53be bb87 18bb
00000330: a918 5a3d dc60 ff39 022e 82b9 f081 45be
00000340: a7fe 58b8 b8e8 10be 2e30 c93b 62f1 02be
00000350: 86ba 923d cc2f 503c 259c 46bc ae61 a63d
00000360: 5e96 6e36 7305 38be fb2b 11bc a3d9 5cb9
00000370: e88d 803c 8417 a1bd c9a9 823c da9b 15bd
00000380: 209c 633e a5c4 60bb d1a2 7c3c 4fe0 99bc
00000390: 8a01 da3d 5e6a f8bc 783e 83b7 1bb5 283e
000003a0: 60ce f23d d68d 92ba 9157 0c3d 24a0 14bb
000003b0: e55e d23b 79c0 603e 1a44 47be 84a7 0cbe
000003c0: d5b5 0f33 3f66 113b 0147 96bb e850 a52b
000003d0: 0366 d0bb 4352 1038 4631 12ae d405 23ba
000003e0: b7ba 9431 51d7 783b acaf 6bb8 ef92 423b
000003f0: 1a4d 353b 7530 3f3b 5e23 1d2b ba62 ae3b

interaction_encoder.2.bias f4 [20]
0.000795706 0.0001089198 0.075134836 0.023723835 0.14498718 0.010085261 -0.00048302516 -0.021938901
0.0024426428 0.000627955 0.28518796 -0.06118264 -0.10846363 -0.0015807509 -0.03713311 0.03041696
-0.08696038 0.0016881968 -0.001919467 -0.00043287125
00000000: ed96 503a df6b e438 4be0 993d 7d58 c23c
00000010: 8577 143e a73c 253c 8a3e fdb9 36b9 b3bc
00000020: bf14 203b 599d 243a 2804 923e a69a 7abd
00000030: 2e22 debd 3331 cfba e318 18bd fd2c f93c
00000040: 4918 b2bd 7c46 dd3a a096 fbba fff2 e2b9

sinkhorn_feature_layers.0.weight f4 [16, 20]
-0.09251344 0.028545292 0.03134238 0.22271003 -0.030160312 0.13328886 0.033704598 -0.03705244
-0.10559175 -0.066539064 -0.04031655 0.010262262 0.04751856 0.056279596 -0.17279372 -0.006223526
0.11797909 -0.071328074 -0.07935818 -0.009308775 -0.15051539 -0.114637636 0.07300866 -0.25888348
0.3403983 0.026752133 -0.14006598 -0.17500864 -0.09593784 -0.08904348 0.11181326 0.026590053
-0.18138713 0.16341285 0.49393937 0.06290472 0.17662808 -0.09681331 -0.10636024 0.12981139
0.0055059143 -0.003998028 -0.0042634667 -0.011676991 -0.015345825 0.0018229149 -0.0007249569 0.00078774017
-0.0026239166 -0.0011163926 -0.006154292 -0.0019434504 -0.0073375287 -0.017455127 0.011883188 -0.0010108267
0.0031589959 0.00035619436 -0.009069472 0.00033282046 0.14911255 -0.101573944 -0.00015527729 -0.18931592
-0.34369993 0.035521902 -0.015732316 0.009956541 -0.05655589 0.09415093 0.22049366 -0.038429372
0.06338845 -0.29533646 0.22782391 -0.047254473 -0.20740347 -0.02441075 0.17503832 0.04322681
0.13697705 0.013119252 -0.03852171 -0.23732089 0.009373315 0.2811619 0.22082533 -0.062877886
0.10022893 0.029535122 0.06898809 0.17602366 0.117592536 0.43047082 0.37251723 -0.018025089
-0.13757095 -0.0063732076 0.011400052 0.11359036 0.013279072 0.28936437 0.34139833 -0.15769178
0.35447243 0.15718003 -0.05716846 0.1443748 0.027460996 -0.12564135 -0.42235324 0.12701306
0.05671354 -0.077316046 0.05309645 -8.228125e-05 -0.042342093 0.037327893 0.2725483 0.016593099
0.0114541715 -0.13957287 0.0018057644 -0.19455087 -0.038883824 0.22732961 -0.0516144 -0.12082437
-0.102788575 0.023062514 -0.011926584 0.016629009 0.23953113 -0.3022508 0.14081396 0.069911376
-0.13007906 -0.051650617 0.46900624 -0.3491862 0.39183044 0.272143 -0.11233673 0.0021513067
0.034692675 -0.056633618 -0.047978334 0.21366674 0.28137413 0.1137583 -0.044484224 0.048766557
-0.15367603 -0.19981432 0.34435442 -0.11096582 -0.11166048 0.15439016 0.16566591 0.38952208
0.06627306 0.16525948 0.1699225 0.38333747 0.20747486 0.007368774 0.2207096 -0.15418257
-0.018593248 -0.15311693 -0.32857585 -0.019153057 0.05792816 0.19116333 -0.26545033 -0.040535577
0.10905389 -0.013415012 -0.023515066 0.059796117 0.2579362 0.007744142 -0.022923153 -0.19014613
-0.4051093 0.090699114 0.2243572 0.10482826 0.09081118 0.16047864 -0.40526828 -0.016560007
0.1477549 0.2252418 -0.22704236 0.041313853 0.00866228 -0.035820827 0.21385752 0.09773397
-0.017161174 0.027380995 0.16581018 0.034050956 -0.30347973 0.1229437 -0.12479011 -0.06170069
0.039800804 -0.08489731 -0.04515578 0.06748287 -0.20435311 0.15297487 0.11914572 -0.0855035
-0.076499656 0.0025596165 -0.29900935 0.18485168 9.9e-42 -1.0185e-41 9.865e-42 -9.839e-42
-7.749798e-39 -9.907e-42 9.893e-42 -9.847e-42 -9.858e-42 -9.897e-42 -9.895e-42 -9.829e-42
-9.81e-42 9.9e-42 -9.119735e-36 9.921e-42 9.879e-42 -9.89e-42 -1.1795619e-38 8.875e-41
-0.07708914 0.12860827 -0.044679157 -0.09410093 -0.45713675 0.49475396 0.18322009 0.07341113
-0.28446037 -0.06901732 -0.09391138 0.19815932 0.07965318 -0.21497236 0.33007544 -0.12533017
00000000: b077 bdbd d1d7 e93c de60 003d 190e 643e
00000010: c212 f7bc e07c 083e d50d 0a3d 4dc4 17bd
00000020: 7d40 d8bd a245 88bd f722 25bd 0c23 283c
00000030: d2a2 423d 6f85 663d d6f0 30be b8ee cbbb
00000040: 059f f13d 7414 92bd 8b86 a2bd d583 18bc
00000050: b520 1abe 23c7 eabd 9085 953d 608c 84be
00000060: b048 ae3e 4a27 db3c 756d 0fbe 7735 33be
00000070: 0f7b c4bd 6e5c b6bd 5afe e43d 62d3 d93c
00000080: 8cbd 39be b355 273e 9fe5 fc3e 31d4 803d
00000090: fedd 343e 0f46 c6bd 66d3 d9bd 47ed 043e
000000a0: f56a b43b e401 83bb 8db4 8bbb da50 3fbc
000000b0: 0e6d 7bbc e0ee ee3a 090b 3eba 5980 4e3a
000000c0: 04f6 2bbb eb53 92ba f1a9 c9bb 60bb feba
000000d0: a76f f0bb 0efe 8ebc b4b1 423c b77d 84ba
000000e0: 2807 4f3b 99bf ba39 1f98 14bc 687e ae39
000000f0: f6b0 183e 0006 d0bd eed1 22b9 08dc 41be
00000100: 70f9 afbe 6a7f 113d 0fe1 80bc c220 233c
00000110: 26a7 67bd 34d2 c03d 17c9 613e 1e68 1dbd
00000120: ced1 813d 5736 97be ac4a 693e e88d 41bd
00000130: 9361 54be 0ef9 c7bc 3f3d 333e 980e 313d
00000140: b643 0c3e 22f2 563c f1c8 1dbd 3f04 73be
00000150: 8892 193c 74f4 8f3e 0920 623e 1fc6 80bd
00000160: d344 cd3d a4f3 f13c a149 8d3d 8c3f 343e
00000170: 5bd4 f03d ac66 dc3e 94ba be3e 5aa9 93bc
00000180: 66df 0cbe 57d6 d0bb 49c7 3a3c 10a2 e83d
00000190: 7790 593c 9127 943e c3cb ae3e f479 21be
000001a0: 697d b53e cdf3 203e 7a29 6abd fdd6 133e
000001b0: e2f5 e03c 20a8 00be af3e d8be b60f 023e
000001c0: 754c 683d e057 9ebd aa7b 593d 698e acb8
000001d0: e76e 2dbd 22e5 183d 738b 8b3e 40ee 873c
000001e0: 47aa 3b3c 31ec 0ebe 66af ec3a 5838 47be
000001f0: a544 1fbd 18c9 683e 9f69 53bd c472 f7bd
00000200: d182 d2bd 99ed bc3c b867 43bc 8f39 883c
00000210: a647 753e 9ec0 9abe 8931 103e b22d 8f3d
00000220: 7233 05be 998f 53bd 9621 f03e 89c8 b2be
00000230: 009e c83e 5456 8b3e cd10 e6bd f0fc 0c3b
00000240: e819 0e3d a7f8 67bd ee84 44bd 74cb 5a3e
00000250: 4510 903e 1dfa e83d 1735 36bd 71bf 473d
00000260: 405d 1dbe 209c 4cbe 394f b03e 0c42 e3bd
00000270: 40ae e4bd 7418 1e3e 53a4 293e 706f c73e
00000280: 2cba 873d c839 293e 2a00 2e3e cf44 c43e
00000290: 4a74 543e c275 f13b b301 623e 09e2 1dbe
000002a0: de50 98bc afca 1cbe 183b a8be dfe6 9cbc
000002b0: 1446 6d3d 52c0 433e 1be9 87be a208 26bd
000002c0: a557 df3d a3ca 5bbc aba2 c0bc c6ec 743d
000002d0: 3710 843e 92c2 fd3b 56c9 bbbc abb5 42be
000002e0: 7c6a cfbe 75c0 b93d e5bd 653e 33b0 d63d
000002f0: 36fb b93d 8354 243e 537f cfbe daa8 87bc
00000300: 0f4d 173e c9a5 663e cb7d 68be b738 293d
00000310: 3cec 0d3c dcb8 12bd 77fd 5a3e bf28 c83d
00000320: 9795 8cbc 1c4e e03c 25ca 293e 0479 0b3d
00000330: b261 9bbe e8c9 fb3d f591 ffbd ddb9 7cbd
00000340: 2b06 233d a4de adbd 44f5 38bd 7534 8a3d
00000350: f141 51be 72a5 1c3e ac02 f43d 761c afbd
00000360: daab 9cbd 3dbf 273b c117 99be c249 3d3e
00000370: 991b 0000 641c 0080 801b 0000 6d1b 0080
00000380: 4963 5480 9e1b 0080 941b 0000 731b 0080
00000390: 7b1b 0080 971b 0080 951b 0080 661b 0080
000003a0: 591b 0080 991b 0000 8ff4 4185 a81b 0000
000003b0: 8a1b 0000 921b 0080 6371 8080 66f7 0000
000003c0: e9e0 9dbd e3b1 033e 7e01 37bd fdb7 c0bd
000003d0: d40d eabe 6450 fd3e 0c9e 3b3e 9358 963d
000003e0: caa4 91be f458 8dbd 9c54 c0bd 47ea 4a3e
000003f0: 3521 a33d b721 5cbe a6ff a83e 8d56 00be
