paper_artifacts/collection/gmn_iterative_refinement_scoring=sinkhorn_pp=lrl___tp=sinkhorn_pp=lrl_when=post___unify=true/trained_models/gmn_iterative_refinement_scoring=sinkhorn_pp=lrl___tp=sinkhorn_pp=lrl_when=post___unify=true_mutag_large_dataset_seed_7762_2024-04-04_21:39:59.pth (torch, 13564 bytes, 18 tensors)

encoder.MLP1.0.weight f4 [10, 1]
000000 55 9f 7b bd 0e 6d 15 be 00 4b 4f 3d cd 9f ef 3e
       -0.061431248 -0.14592382 0.050608635 0.46801606
000010 c0 fa 9c be 17 38 67 be 31 01 71 3e 01 91 b9 3e
       -0.30660057 -0.2257999 0.2353561 0.36243442
000020 74 60 6f 3e 7e 6d 01 bd
       0.23376638 -0.03159856

encoder.MLP1.0.bias f4 [10]
000000 39 dd f9 3c 19 91 15 be 32 9a e5 bc fe ff fb 3e
       0.030500995 -0.14606132 -0.028027628 0.49218744
000010 95 70 a7 be 6f c2 59 be 9c a5 86 3e 3d ba b5 3e
       -0.3270308 -0.21265577 0.26298225 0.3549365
000020 f2 09 3b 3e a7 8b c8 bc
       0.18265513 -0.024480654

prop_layer._message_net.0.weight f4 [20, 21]
000000 02 8c a6 3e 60 2c 8e be b4 e3 95 bc 6d f6 37 bf
       0.32528692 -0.2776823 -0.018297054 -0.7186039
000010 12 c5 1b be 2c be 64 be cd bb e8 3d b8 d4 65 3c
       -0.15211895 -0.2233817 0.11363945 0.014027767
000020 0e 63 a6 bd e9 11 fa be ae 83 29 be 8a 87 45 3e
       -0.08124362 -0.4884179 -0.16554138 0.19289985
000030 ca 9a 85 bd 8e a4 d6 3e 67 33 a6 3d a0 38 51 3d
       -0.06523664 0.4192242 0.08115273 0.051079392
000040 ef b8 b5 3d 7a 1c a2 bd d5 5a 8e bd 2c 05 60 bc
       0.08873164 -0.07915588 -0.069509186 -0.013673108
000050 d8 fc 95 3d 24 76 a4 3e b4 a3 8d 3d 16 7b 8e 3d
       0.07323617 0.32121384 0.069159895 0.069570705
000060 54 b3 ae bd 3a d4 94 3e 32 bb 39 be 90 47 9c 3e
       -0.08530298 0.29068166 -0.18137816 0.30523348
000070 2d 97 ee be 92 1e 0d 3e 43 4e 06 3e c3 ad df 3a
       -0.46599713 0.13781193 0.13115792 0.0017065335
000080 6b 88 31 be ec 5a ea 3e e9 e3 0a bf 7c 70 51 bc
       -0.17337196 0.45772493 -0.54254013 -0.012783166
000090 e5 30 14 3f 53 ab 67 3c 4a 76 2a 3e 16 0f e1 bd
       0.5788711 0.014139968 0.16646686 -0.109892055
0000a0 56 58 88 3d 33 1c 97 be 95 78 04 3c 93 99 9d bb
       0.06657474 -0.29513702 0.00808539 -0.0048095672
0000b0 93 1f 8d bb ec 48 da bb 52 a6 c5 ba 65 32 48 3c
       -0.0043067425 -0.006661525 -0.0015079475 0.012219046
0000c0 48 40 ab bc 33 26 bb 3b 47 5f a8 bb 3f 68 43 bb
       -0.020904675 0.005711341 -0.005138311 -0.0029816774
0000d0 52 c4 c5 3b 1c ec 47 bb 16 55 13 3b ad c5 81 bb
       0.006035366 -0.0030505722 0.0022481135 -0.0039603324
0000e0 86 50 49 bb 5e 67 c5 3c b4 e8 34 3b 34 05 7a ba
       -0.0030718162 0.02409714 0.0027604522 -0.00095375185
0000f0 c1 71 26 bb b4 29 a4 3b 25 03 9f b9 d2 df a4 bb
       -0.0025397392 0.005009854 -0.00030329186 -0.0050315643
000100 b5 7f ad 3b 63 0e c4 3b 81 c2 75 bb 59 2f 98 ba
       0.005294765 0.0059831603 -0.0037499967 -0.001161079
000110 f2 c6 1c bc 6e d5 82 3b 39 4a 00 3b 2f 0d 95 3b
       -0.009568917 0.003992728 0.001957549 0.0045486907
000120 8a 9e 5f 3a a1 04 62 bb df 35 19 3b 70 59 aa ba
       0.0008530399 -0.0034487622 0.0023378057 -0.0012996625
000130 53 60 fb 3b 4c ed a3 3b 31 5f a4 bb 5d bf b6 bb
       0.007671395 0.005002653 -0.0050162305 -0.0055770115
000140 24 98 bb b9 de 3b 24 b9 79 a9 82 bb 12 56 c8 3a
       -0.00035780773 -0.00015662561 -0.003987488 0.001528444
000150 7b 39 c8 3d a2 3f 28 3e 1d 45 4a be 35 a8 5f 3e
       0.097765885 0.16430524 -0.19752927 0.2184151
000160 7c 6f 18 be 9f 43 0d bf b9 13 2a be a1 ae ad bd
       -0.14886278 -0.55181307 -0.16609086 -0.084805734
000170 76 17 e0 3e a2 f0 86 be 0c 58 c0 bd 89 e5 47 3d
       0.437679 -0.26355463 -0.093917936 0.048802886
000180 b5 36 bc be fc c7 04 3f 71 29 b0 be dc a7 f6 3d
       -0.36760488 0.5186765 -0.34406617 0.120437354
000190 6a a1 d5 bb 2d 50 41 3e 3b 9e b8 bd 09 cf 3e be
       -0.006519486 0.18878241 -0.09014555 -0.18633665
0001a0 4a 58 d6 bd f7 fd ac 3e bb d7 98 bd ae e4 7c 3b
       -0.104660586 0.3378751 -0.07463022 0.0038588452
0001b0 fb d5 f3 3d 03 be 37 bf 00 c9 f1 3e 74 2d 89 3e
       0.11906048 -0.7177431 0.47223663 0.2679249
0001c0 5c f7 04 3e f6 91 11 3e 3d cc d7 3c fd 5a 35 3e
       0.12984985 0.14215836 0.026342506 0.1771049
0001d0 12 31 02 bd a0 43 58 3e 48 53 89 be cf e8 7f 3c
       -0.03178508 0.21119547 -0.2682135 0.015619471
0001e0 7f a6 66 bd 73 7d 11 be 2b c6 18 be ee eb 9f 3e
       -0.056311127 -0.14208011 -0.14919345 0.31234688
0001f0 43 f7 7a 3e 36 0e 65 3b f3 ed dc bb 71 63 45 3b
       0.24508385 0.0034951097 -0.006742233 0.0030119086
000200 3d 7f c5 3b 64 22 02 3c c1 83 27 3b d7 ae 00 bc
       0.006027131 0.00794277 0.002556071 -0.007854185
000210 88 a9 8f 3c 5c 7e 6b bb 76 f3 f1 3b 37 10 41 3b
       0.017536893 -0.003593347 0.007383759 0.0029459128
000220 25 a2 8f bb e3 a3 28 3b 35 b8 86 bb 95 60 4f 3b
       -0.004383343 0.002573245 -0.0041113147 0.003164326
000230 5b b9 0e 3b 69 2b b3 bc 1a 8c 19 bb 4b 1a e3 3a
       0.002177796 -0.021871286 -0.0023429454 0.0017326562
000240 85 35 80 3b 2b 54 92 bb 44 f8 a2 3a e0 4b b3 bd
       0.00391263 -0.0044656 0.0012433608 -0.087547064
000250 e9 48 f2 be 89 f0 04 be 00 02 29 3e 84 48 35 be
       -0.4732125 -0.12982382 0.16504669 -0.17703444
000260 21 99 c4 be 05 86 1a bf 4d 35 a9 3b 30 24 9e 3e
       -0.38398078 -0.6036075 0.0051638247 0.30886984
000270 06 fb c8 3e 78 7a aa bd f1 0b 6c bd 43 04 86 3e
       0.39254016 -0.0832414 -0.057628576 0.26175126
000280 1b 07 96 bd 61 66 93 3e 53 c7 c9 3d 76 87 a6 be
       -0.07325574 0.28789046 0.09852471 -0.32525223
000290 bf a0 1f 3e 15 6e 19 bd 72 2c 0f be 3a e6 c8 bd
       0.15588664 -0.037458498 -0.13981798 -0.09809537
0002a0 7e 25 ec bc 07 86 0e 3e 2d e6 b4 3d d2 d9 5a 3d
       -0.028826471 0.13918315 0.08832965 0.053430386
0002b0 9b c0 5a 3d 33 46 22 3d 8a 21 bd bb 00 a8 08 3e
       0.05340634 0.03961773 -0.0057718204 0.13345337
0002c0 7d 7f 28 3e 32 74 7b be 34 54 18 bd d6 27 27 be
       0.16454883 -0.24556044 -0.037189677 -0.1632379
0002d0 c5 de 17 be 3a 65 0b bc a6 2f c9 3b 8a 66 d5 3c
       -0.14831074 -0.008508021 0.0061397133 0.026049871
0002e0 f9 a5 d8 bd d5 d0 1b bc 51 f8 5b be 0f 2b 31 3e
       -0.10578532 -0.009510239 -0.21481444 0.17301582
0002f0 37 bd 06 bc e7 8d 08 3d ed c2 a1 3d 92 c3 39 3e
       -0.008223823 0.033338454 0.07898507 0.1814101
000300 30 a5 ca 3e 44 75 d7 bd 7d 8d be 3e 25 9e 55 bd
       0.39579153 -0.105204135 0.37217322 -0.05215277
000310 e2 7b e5 be ed 6d 1d be d7 06 02 bf 1f 3b a1 3d
       -0.44821078 -0.15373965 -0.50791687 0.078726046
000320 5c f5 9e be d8 35 16 bc e2 11 45 3d 29 be 3b bb
       -0.3104657 -0.009168111 0.048112758 -0.002864728
000330 95 a1 b3 be c9 c4 c0 bd 54 f0 b5 bd b3 e1 44 3d
       -0.35084215 -0.09412534 -0.088837296 0.048066806
000340 5e 27 ab 3e 4d 2f df bb 57 30 c5 bb 88 61 c0 3a
       0.33428472 -0.0068110586 -0.0060177254 0.0014677504
000350 0d b0 11 3b c2 05 e8 3b f3 c7 f1 39 0a 20 c0 bb
       0.0022230179 0.0070807645 0.00046116076 -0.0058631944
000360 f5 dd 48 3c d0 f3 35 bb f8 41 e4 3b c5 d3 a5 3b
       0.01225995 -0.0027763732 0.006965872 0.0050606453
000370 4e 76 39 bb 2a 49 d0 3b 34 6f 10 bb 4c 6f 8a 3b
       -0.0028299275 0.006356378 -0.0022038938 0.0042246934
000380 69 4b 82 3b fc 48 9a bc a2 70 4f bb 24 5a cb ba
       0.0039762747 -0.01883363 -0.0031652828 -0.0015514535
000390 21 ec 89 3b 23 c7 3c bb 9c e0 82 3b 68 26 f0 39
       0.004209057 -0.0028805218 0.0039940607 0.00045804982
0003a0 e2 88 43 bb 25 24 74 b8 90 49 fc ba dd 72 7b bb
       -0.0029836227 -5.8207796e-05 -0.0019247998 -0.0038368024
0003b0 99 d3 86 38 38 61 d7 bb 37 92 0d 3b 17 79 78 bb
       6.429031e-05 -0.0065728687 0.0021602043 -0.0037913972
0003c0 6e 43 ad 3b f7 6e b9 b9 51 d0 5e 3b 5d 35 0f bb
       0.0052875793 -0.00035368625 0.0033998678 -0.0021851875
0003d0 bf fa 57 38 f0 e6 e3 39 28 4c 19 3c 29 fe 94 3a
       5.149352e-05 0.00043468876 0.009356536 0.001136725
0003e0 01 38 5c bb 90 2f 6e bb 33 c9 4c ba cd 5a 98 38
       -0.0033602717 -0.0036344267 -0.00078119634 7.264838e-05
0003f0 c0 46 31 bd 84 e4 db be c0 c1 1f bf b3 53 2a 3f
       -0.043280363 -0.4294778 -0.62405014 0.66533965

prop_layer._message_net.0.bias f4 [20]
000000 52 25 70 3d cd 6d 83 be 44 05 9f b9 36 54 c8 3a
       0.05862934 -0.2566971 -0.00030330766 0.0015283886
000010 1e 60 ee bd 60 53 34 3c 6a f9 a2 3a 14 f9 a3 bd
       -0.11639427 0.011006206 0.001243395 -0.08006492
000020 90 fb 3a bc dc 99 94 3c 8a e0 82 3b 91 55 98 38
       -0.011412516 0.018139772 0.0039940523 7.263863e-05
000030 4c 87 3a 3e a6 01 c7 3d 6a 59 c8 ba c4 e7 f8 3b
       0.18215674 0.09717111 -0.0015285437 0.007595988
000040 69 72 48 3b ef e5 87 3b ef 0c ba bd cc e7 25 bd
       0.0030585772 0.0041472833 -0.09084498 -0.04050426

prop_layer._reverse_message_net.0.weight f4 [20, 21]
000000 02 8c a6 3e 60 2c 8e be b4 e3 95 bc 6d f6 37 bf
       0.32528692 -0.2776823 -0.018297054 -0.7186039
000010 12 c5 1b be 2c be 64 be cd bb e8 3d b8 d4 65 3c
       -0.15211895 -0.2233817 0.11363945 0.014027767
000020 0e 63 a6 bd e9 11 fa be ae 83 29 be 8a 87 45 3e
       -0.08124362 -0.4884179 -0.16554138 0.19289985
000030 ca 9a 85 bd 8e a4 d6 3e 67 33 a6 3d a0 38 51 3d
       -0.06523664 0.4192242 0.08115273 0.051079392
000040 ef b8 b5 3d 7a 1c a2 bd d5 5a 8e bd 2c 05 60 bc
       0.08873164 -0.07915588 -0.069509186 -0.013673108
000050 d8 fc 95 3d 24 76 a4 3e b4 a3 8d 3d 16 7b 8e 3d
       0.07323617 0.32121384 0.069159895 0.069570705
000060 54 b3 ae bd 3a d4 94 3e 32 bb 39 be 90 47 9c 3e
       -0.08530298 0.29068166 -0.18137816 0.30523348
000070 2d 97 ee be 92 1e 0d 3e 43 4e 06 3e c3 ad df 3a
       -0.46599713 0.13781193 0.13115792 0.0017065335
000080 6b 88 31 be ec 5a ea 3e e9 e3 0a bf 7c 70 51 bc
       -0.17337196 0.45772493 -0.54254013 -0.012783166
000090 e5 30 14 3f 53 ab 67 3c 4a 76 2a 3e 16 0f e1 bd
       0.5788711 0.014139968 0.16646686 -0.109892055
0000a0 56 58 88 3d 33 1c 97 be 95 78 04 3c 93 99 9d bb
       0.06657474 -0.29513702 0.00808539 -0.0048095672
0000b0 93 1f 8d bb ec 48 da bb 52 a6 c5 ba 65 32 48 3c
       -0.0043067425 -0.006661525 -0.0015079475 0.012219046
0000c0 48 40 ab bc 33 26 bb 3b 47 5f a8 bb 3f 68 43 bb
       -0.020904675 0.005711341 -0.005138311 -0.0029816774
0000d0 52 c4 c5 3b 1c ec 47 bb 16 55 13 3b ad c5 81 bb
       0.006035366 -0.0030505722 0.0022481135 -0.0039603324
0000e0 86 50 49 bb 5e 67 c5 3c b4 e8 34 3b 34 05 7a ba
       -0.0030718162 0.02409714 0.0027604522 -0.00095375185
0000f0 c1 71 26 bb b4 29 a4 3b 25 03 9f b9 d2 df a4 bb
       -0.0025397392 0.005009854 -0.00030329186 -0.0050315643
000100 b5 7f ad 3b 63 0e c4 3b 81 c2 75 bb 59 2f 98 ba
       0.005294765 0.0059831603 -0.0037499967 -0.001161079
000110 f2 c6 1c bc 6e d5 82 3b 39 4a 00 3b 2f 0d 95 3b
       -0.009568917 0.003992728 0.001957549 0.0045486907
000120 8a 9e 5f 3a a1 04 62 bb df 35 19 3b 70 59 aa ba
       0.0008530399 -0.0034487622 0.0023378057 -0.0012996625
000130 53 60 fb 3b 4c ed a3 3b 31 5f a4 bb 5d bf b6 bb
       0.007671395 0.005002653 -0.0050162305 -0.0055770115
000140 24 98 bb b9 de 3b 24 b9 79 a9 82 bb 12 56 c8 3a
       -0.00035780773 -0.00015662561 -0.003987488 0.001528444
000150 7b 39 c8 3d a2 3f 28 3e 1d 45 4a be 35 a8 5f 3e
       0.097765885 0.16430524 -0.19752927 0.2184151
000160 7c 6f 18 be 9f 43 0d bf b9 13 2a be a1 ae ad bd
       -0.14886278 -0.55181307 -0.16609086 -0.084805734
000170 76 17 e0 3e a2 f0 86 be 0c 58 c0 bd 89 e5 47 3d
       0.437679 -0.26355463 -0.093917936 0.048802886
000180 b5 36 bc be fc c7 04 3f 71 29 b0 be dc a7 f6 3d
       -0.36760488 0.5186765 -0.34406617 0.120437354
000190 6a a1 d5 bb 2d 50 41 3e 3b 9e b8 bd 09 cf 3e be
       -0.006519486 0.18878241 -0.09014555 -0.18633665
0001a0 4a 58 d6 bd f7 fd ac 3e bb d7 98 bd ae e4 7c 3b
       -0.104660586 0.3378751 -0.07463022 0.0038588452
0001b0 fb d5 f3 3d 03 be 37 bf 00 c9 f1 3e 74 2d 89 3e
       0.11906048 -0.7177431 0.47223663 0.2679249
0001c0 5c f7 04 3e f6 91 11 3e 3d cc d7 3c fd 5a 35 3e
       0.12984985 0.14215836 0.026342506 0.1771049
0001d0 12 31 02 bd a0 43 58 3e 48 53 89 be cf e8 7f 3c
       -0.03178508 0.21119547 -0.2682135 0.015619471
0001e0 7f a6 66 bd 73 7d 11 be 2b c6 18 be ee eb 9f 3e
       -0.056311127 -0.14208011 -0.14919345 0.31234688
0001f0 43 f7 7a 3e 36 0e 65 3b f3 ed dc bb 71 63 45 3b
       0.24508385 0.0034951097 -0.006742233 0.0030119086
000200 3d 7f c5 3b 64 22 02 3c c1 83 27 3b d7 ae 00 bc
       0.006027131 0.00794277 0.002556071 -0.007854185
000210 88 a9 8f 3c 5c 7e 6b bb 76 f3 f1 3b 37 10 41 3b
       0.017536893 -0.003593347 0.007383759 0.0029459128
000220 25 a2 8f bb e3 a3 28 3b 35 b8 86 bb 95 60 4f 3b
       -0.004383343 0.002573245 -0.0041113147 0.003164326
000230 5b b9 0e 3b 69 2b b3 bc 1a 8c 19 bb 4b 1a e3 3a
       0.002177796 -0.021871286 -0.0023429454 0.0017326562
000240 85 35 80 3b 2b 54 92 bb 44 f8 a2 3a e0 4b b3 bd
       0.00391263 -0.0044656 0.0012433608 -0.087547064
000250 e9 48 f2 be 89 f0 04 be 00 02 29 3e 84 48 35 be
       -0.4732125 -0.12982382 0.16504669 -0.17703444
000260 21 99 c4 be 05 86 1a bf 4d 35 a9 3b 30 24 9e 3e
       -0.38398078 -0.6036075 0.0051638247 0.30886984
000270 06 fb c8 3e 78 7a aa bd f1 0b 6c bd 43 04 86 3e
       0.39254016 -0.0832414 -0.057628576 0.26175126
000280 1b 07 96 bd 61 66 93 3e 53 c7 c9 3d 76 87 a6 be
       -0.07325574 0.28789046 0.09852471 -0.32525223
000290 bf a0 1f 3e 15 6e 19 bd 72 2c 0f be 3a e6 c8 bd
       0.15588664 -0.037458498 -0.13981798 -0.09809537
0002a0 7e 25 ec bc 07 86 0e 3e 2d e6 b4 3d d2 d9 5a 3d
       -0.028826471 0.13918315 0.08832965 0.053430386
0002b0 9b c0 5a 3d 33 46 22 3d 8a 21 bd bb 00 a8 08 3e
       0.05340634 0.03961773 -0.0057718204 0.13345337
0002c0 7d 7f 28 3e 32 74 7b be 34 54 18 bd d6 27 27 be
       0.16454883 -0.24556044 -0.037189677 -0.1632379
0002d0 c5 de 17 be 3a 65 0b bc a6 2f c9 3b 8a 66 d5 3c
       -0.14831074 -0.008508021 0.0061397133 0.026049871
0002e0 f9 a5 d8 bd d5 d0 1b bc 51 f8 5b be 0f 2b 31 3e
       -0.10578532 -0.009510239 -0.21481444 0.17301582
0002f0 37 bd 06 bc e7 8d 08 3d ed c2 a1 3d 92 c3 39 3e
       -0.008223823 0.033338454 0.07898507 0.1814101
000300 30 a5 ca 3e 44 75 d7 bd 7d 8d be 3e 25 9e 55 bd
       0.39579153 -0.105204135 0.37217322 -0.05215277
000310 e2 7b e5 be ed 6d 1d be d7 06 02 bf 1f 3b a1 3d
       -0.44821078 -0.15373965 -0.50791687 0.078726046
000320 5c f5 9e be d8 35 16 bc e2 11 45 3d 29 be 3b bb
       -0.3104657 -0.009168111 0.048112758 -0.002864728
000330 95 a1 b3 be c9 c4 c0 bd 54 f0 b5 bd b3 e1 44 3d
       -0.35084215 -0.09412534 -0.088837296 0.048066806
000340 5e 27 ab 3e 4d 2f df bb 57 30 c5 bb 88 61 c0 3a
       0.33428472 -0.0068110586 -0.0060177254 0.0014677504
000350 0d b0 11 3b c2 05 e8 3b f3 c7 f1 39 0a 20 c0 bb
       0.0022230179 0.0070807645 0.00046116076 -0.0058631944
000360 f5 dd 48 3c d0 f3 35 bb f8 41 e4 3b c5 d3 a5 3b
       0.01225995 -0.0027763732 0.006965872 0.0050606453
000370 4e 76 39 bb 2a 49 d0 3b 34 6f 10 bb 4c 6f 8a 3b
       -0.0028299275 0.006356378 -0.0022038938 0.0042246934
000380 69 4b 82 3b fc 48 9a bc a2 70 4f bb 24 5a cb ba
       0.0039762747 -0.01883363 -0.0031652828 -0.0015514535
000390 21 ec 89 3b 23 c7 3c bb 9c e0 82 3b 68 26 f0 39
       0.004209057 -0.0028805218 0.0039940607 0.00045804982
0003a0 e2 88 43 bb 25 24 74 b8 90 49 fc ba dd 72 7b bb
       -0.0029836227 -5.8207796e-05 -0.0019247998 -0.0038368024
0003b0 99 d3 86 38 38 61 d7 bb 37 92 0d 3b 17 79 78 bb
       6.429031e-05 -0.0065728687 0.0021602043 -0.0037913972
0003c0 6e 43 ad 3b f7 6e b9 b9 51 d0 5e 3b 5d 35 0f bb
       0.0052875793 -0.00035368625 0.0033998678 -0.0021851875
0003d0 bf fa 57 38 f0 e6 e3 39 28 4c 19 3c 29 fe 94 3a
       5.149352e-05 0.00043468876 0.009356536 0.001136725
0003e0 01 38 5c bb 90 2f 6e bb 33 c9 4c ba cd 5a 98 38
       -0.0033602717 -0.0036344267 -0.00078119634 7.264838e-05
0003f0 c0 46 31 bd 84 e4 db be c0 c1 1f bf b3 53 2a 3f
       -0.043280363 -0.4294778 -0.62405014 0.66533965

prop_layer._reverse_message_net.0.bias f4 [20]
000000 52 25 70 3d cd 6d 83 be 44 05 9f b9 36 54 c8 3a
       0.05862934 -0.2566971 -0.00030330766 0.0015283886
000010 1e 60 ee bd 60 53 34 3c 6a f9 a2 3a 14 f9 a3 bd
       -0.11639427 0.011006206 0.001243395 -0.08006492
000020 90 fb 3a bc dc 99 94 3c 8a e0 82 3b 91 55 98 38
       -0.011412516 0.018139772 0.0039940523 7.263863e-05
000030 4c 87 3a 3e a6 01 c7 3d 6a 59 c8 ba c4 e7 f8 3b
       0.18215674 0.09717111 -0.0015285437 0.007595988
000040 69 72 48 3b ef e5 87 3b ef 0c ba bd cc e7 25 bd
       0.0030585772 0.0041472833 -0.09084498 -0.04050426

prop_layer.GRU.weight_ih_l0 f4 [30, 30]
000000 eb 10 15 be 69 56 f9 3d f4 ac 72 3c 47 69 44 3c
       -0.14557235 0.121746846 0.014811743 0.011987991
000010 37 e6 9d 3d ee b6 fc bd 52 82 5b bc 02 90 b5 3d
       0.077099256 -0.123395786 -0.01339777 0.08865358
000020 d9 cd 5a 3d 2b 89 62 3d ce b1 dc bb 27 10 02 3c
       0.053418968 0.055306595 -0.006735063 0.007938421
000030 c5 d5 3a 3e d0 db 0b 3e f0 11 e1 3b c0 30 96 3c
       0.18245609 0.1365807 0.0068685934 0.018333793
000040 ed a0 9b bb 51 54 69 bb b8 10 34 bd 14 13 4c bc
       -0.0047494085 -0.0035603235 -0.043961257 -0.01245572
000050 7d 16 12 bd 65 22 2a be 34 7e 31 be 6a 89 e8 bc
       -0.035665978 -0.16614683 -0.17333299 -0.028385837
000060 51 de 9c bd eb 47 81 3b a4 6d 56 3d 77 6f 15 3b
       -0.07659591 0.003945341 0.052350655 0.0022802034
000070 8c 30 cc bd ef ce 9d 3d ca 7b ea 3d bf 9f 9a 3d
       -0.09970197 0.07705485 0.11449392 0.075500004
000080 f2 8e 22 3c 73 53 69 bc 51 1b b6 be 7d 8d 7b 3e
       0.009921776 -0.014241087 -0.35567716 0.24565692
000090 72 7f fd bb 46 1d 80 be 70 9a b5 3c 32 ff d9 bd
       -0.00773614 -0.25022334 0.022168368 -0.10644378
0000a0 2b 6f 11 bc b4 d9 9e 3b 2e a4 4a be 78 7e b7 3d
       -0.008876602 0.0048477296 -0.19789192 0.08959669
0000b0 f0 1e 00 3c 7f 02 9c 3b 57 f0 17 bc 93 45 24 bc
       0.007819876 0.0047610397 -0.00927361 -0.010026353
0000c0 d5 c4 c0 3d 38 fd 3d 3e 10 33 0f 3d 98 28 12 3e
       0.09412543 0.18553627 0.034960806 0.14273298
0000d0 f6 be 4f be f4 34 e2 bc f4 72 e0 bd 70 d3 18 3e
       -0.2028769 -0.02761314 -0.109594256 0.14924407
0000e0 46 de e0 bc 84 fd fd bb 65 12 9d bd d8 3b 3b 3c
       -0.027449738 -0.0077511687 -0.07669524 0.011427842
0000f0 35 6b 54 bd 66 76 37 3e 6b 13 b7 bb 08 e0 1e 3b
       -0.051860053 0.17916259 -0.0055870316 0.002424242
000100 3f 91 ec bd 11 51 0c 3e f8 01 07 3c 4f 95 47 bd
       -0.11551141 0.137028 0.0082402155 -0.048726376
000110 35 93 26 bc b5 f0 2f bd 97 e0 87 3c 2d 43 a4 ba
       -0.010166933 -0.042954165 0.016586585 -0.0012532227
000120 38 7e 0f 3d 9a f3 20 3e 39 09 c9 bb c3 7d e4 3b
       0.03503248 0.15717927 -0.0061351326 0.006973
000130 f3 5f 58 3c 0b 7c 84 3c 4d eb 02 3d ac 7a 34 3d
       0.01320647 0.01617243 0.03196268 0.0440623
000140 b7 b0 3a bb 82 b4 da 3b e9 ae 55 bd ae 1b 6a 3d
       -0.0028486678 0.0066743502 -0.05216876 0.057155304
000150 5c 99 6e bd 8a 45 a3 bd 88 11 0e bc a4 0e d1 bb
       -0.058251724 -0.07972248 -0.008671172 -0.006379919
000160 48 6d bd 3d 6a a0 9d 3d 58 30 56 be 96 ce b9 3e
       0.09249359 0.07696612 -0.20916879 0.36290425
000170 ab 2f 58 bc c0 62 31 3c 80 2b 80 be 14 09 79 3e
       -0.013194959 0.0108267665 -0.25033188 0.2431987
000180 6c 52 59 3c d4 e3 f7 3c 0d 3d 8f bc c5 2d 00 3d
       0.01326428 0.030260004 -0.017485166 0.03129365
000190 6a ad 27 3c d6 6a a9 bb e8 8f 2d be 1e 36 25 bd
       0.010234216 -0.0051702065 -0.16949427 -0.040334813
0001a0 9f 14 cb bb 46 c7 f4 bb 28 42 23 3c 2d a8 20 3c
       -0.0061975266 -0.0074700443 0.009964503 0.009805721
0001b0 6f 24 19 bd c9 6a 17 3d 5a e4 38 3c af 6e 10 3e
       -0.03738826 0.036967073 0.011284912 0.14104722
0001c0 97 4a b2 3d 2d 90 16 3e f2 6c 14 bd 75 e0 58 bd
       0.08705633 0.14703436 -0.03623671 -0.052948434
0001d0 53 d7 32 be db f2 95 3d 3d d4 a4 3d b5 ec 30 3d
       -0.17464952 0.07321712 0.08048294 0.04319449
0001e0 27 a2 8b bd 73 38 14 3d cb 40 8b 3a 10 95 9d bc
       -0.068180375 0.036186647 0.0010624168 -0.019236118
0001f0 c7 fb ac 3c 1e 5a 0c be 8f c8 e3 ba 61 b5 3a 3e
       0.02111615 -0.13706252 -0.0017378497 0.18233253
000200 54 b8 aa bc 01 f2 f1 bc 9e 85 b8 bb b4 51 3d ba
       -0.020839848 -0.029534342 -0.005631163 -0.00072219525
000210 78 ab 13 3e 75 09 5f bd 99 bc 81 3b e0 7f 71 bc
       0.14420879 -0.05445238 0.00395925 -0.01473996
000220 68 00 18 bc 5e aa 40 bc 78 6c d9 3d cc 40 b9 3c
       -0.009277441 -0.011759369 0.10616392 0.022613905
000230 8b a6 83 bd 21 e8 12 bc 7b 19 8c bc 74 a2 98 bc
       -0.0642825 -0.008966477 -0.017101994 -0.018632151
000240 11 aa bb bd 5e 02 5b bd 58 c7 47 bc 77 f7 0b 3d
       -0.09163297 -0.053469054 -0.012193523 0.034171548
000250 7f a0 13 3d 6c cd 7e 3d 89 7b 59 bd 65 18 f1 bd
       0.036041733 0.062207624 -0.053096328 -0.11772231
000260 3b 50 87 3b f4 b4 b3 3c 35 6d 9d 3e d9 ec bb bd
       0.0041294373 0.021936871 0.3074738 -0.091760345
000270 04 b6 12 bb 89 92 d1 3d 0e fc 7f 3e 9d 25 44 3e
       -0.0022386322 0.102330275 0.24998495 0.19154973
000280 22 b0 56 3b 16 43 d1 3b a3 92 b1 be 40 18 28 3d
       0.0032758792 0.006386171 -0.34682187 0.04103875
000290 9b cb 80 3a ab e0 59 3c a5 7e 05 3c 02 28 1a 3c
       0.0009826304 0.013298194 0.00814787 0.009408953
0002a0 e3 75 61 be a7 7a 52 be 32 62 23 be d7 3e 2c be
       -0.22017626 -0.205546 -0.15955427 -0.16820846
0002b0 80 98 93 be 57 73 7d be 10 64 94 be 64 a9 10 3e
       -0.28827286 -0.2475103 -0.28982592 0.14127117
0002c0 63 58 68 be 29 e2 33 be 9f 75 24 be 0d ae 06 3e
       -0.22689967 -0.17566742 -0.16060494 0.13152333
0002d0 dd ee 02 bf 80 20 bb 3e 34 4d d4 3b 91 96 20 3a
       -0.51145726 0.36548233 0.00647893 0.0006125952
0002e0 13 ec b1 3e b8 fe 21 3c 66 61 a5 bb c0 a5 83 bb
       0.34750423 0.00988739 -0.005047011 -0.0040175617
0002f0 28 ab 02 3d c0 8c 84 3e bf da e5 ba 0c 41 a6 3b
       0.03190151 0.25888634 -0.0017536505 0.005073672
000300 25 2d d8 3e 47 26 8c 3c 4f 4a 91 3b d1 b9 c2 3a
       0.42221943 0.017108096 0.004433907 0.0014856403
000310 9d 8f a7 ba ff ce 4f bb 3e 7e 3e 3e e8 e1 37 3e
       -0.0012783889 -0.0031709073 0.18602845 0.1795727
000320 b8 cb cf 3d 82 59 9f 3d 9f e4 92 3d 76 ca c0 3d
       0.10146278 0.07780744 0.07172512 0.09413616
000330 27 c4 e2 bd 05 47 ba 3d 25 57 06 be 5b 4f cd 3d
       -0.11072569 0.09095577 -0.1311918 0.100249015
000340 c7 1e d4 3c be ef dd 3d d0 c5 2b be d7 8c c4 bc
       0.025893582 0.10836743 -0.16774678 -0.023992939
000350 25 5d 87 bc 76 1b c4 bb 20 64 53 3e e9 8b 18 be
       -0.016523907 -0.005984719 0.20643663 -0.14897121
000360 28 e2 2e 3c 5c 18 3e 3e 6b bc cf 3b 66 1a c3 3c
       0.010674037 0.1856398 0.0063396 0.023816299
000370 86 a1 a6 3b ed 96 06 3b a0 de c7 3c 1b 3e 47 be
       0.005085173 0.0020536736 0.024398148 -0.19457285
000380 d8 6a b7 bb d9 29 25 bd 08 01 e0 3b 91 c7 7e 3b
       -0.0055974536 -0.040323112 0.0068360604 0.0038876275
000390 ad b0 a7 3e 1d bc 10 be be b4 1b be 36 a2 3f bc
       0.3275198 -0.1413426 -0.15205666 -0.011696389
0003a0 78 82 c2 3b 80 39 2f be 36 92 b3 bd 5e 53 b4 bd
       0.0059359632 -0.17111778 -0.08768122 -0.088049635
0003b0 1b de 14 bd e4 b1 1f 3e fe 85 92 3d 58 78 04 3e
       -0.03634463 0.15595204 0.07154463 0.12936532
0003c0 b8 dc c7 3e 06 e9 b7 bd 1a b2 86 bc 89 5f e4 3b
       0.39035583 -0.089799926 -0.016442347 0.0069693965
0003d0 58 8f c8 3d 5e 37 22 3a 5e 01 43 3c e3 88 a5 be
       0.09792966 0.000618806 0.011902181 -0.32331
0003e0 f0 c2 f9 3c bc 56 4b 3d fb dd 76 3b 9a 1a 99 bc
       0.030488461 0.049643263 0.0037668932 -0.018689442
0003f0 03 21 8c be 90 4a 11 bd 55 7c 41 bc 7f 94 01 bd
       -0.27368936 -0.0354715 -0.011809428 -0.031635758

prop_layer.GRU.weight_hh_l0 f4 [30, 10]
000000 32 0f bb bd 88 8f da bd c8 2f ee 3a 89 3c 98 bd
       -0.09133758 -0.10671908 0.0018172199 -0.07433421
000010 c8 25 b3 bb 69 4c 81 3d 77 bc a7 3d a6 fb 9a 3d
       -0.0054671504 0.06313402 0.08190244 0.075675294
000020 ad 25 1a 3c 20 2d 6f 3d 19 4b da 3c c9 2c 30 3c
       0.009408397 0.058392644 0.026647137 0.010752865
000030 14 a5 ac bc 56 e6 9f 3c ca 2e 55 3d f3 55 ef 3d
       -0.02107481 0.019519012 0.052046575 0.116863154
000040 bd df a8 3d fc 82 4f 3d 0f a4 38 3c ae 40 15 bc
       0.082458 0.050662026 0.011269583 -0.009109659
000050 37 ef 11 bb ec be 32 bd 8c cf 01 bd 04 56 81 bd
       -0.0022267827 -0.04363911 -0.031692073 -0.06315234
000060 0e d1 99 bb 68 ec 22 3d d0 09 44 3d ce 50 6f 3d
       -0.0046941107 0.039776236 0.04786092 0.05842667
000070 52 46 59 3d 0d f7 c0 39 fc 9a 84 3b 5c 6c 28 be
       0.05304558 0.0003680516 0.004046796 -0.16447586
000080 40 18 bf 3c bb a9 00 bd 21 f0 49 bb 3e 14 8a 3c
       0.023326993 -0.031411868 -0.0030813294 0.016855355
000090 83 19 b6 3d c8 e2 a2 3e 77 77 23 3e d6 1b 80 bc
       0.08891585 0.31813645 0.15963541 -0.015638273
0000a0 9b 67 7e bd 6e ab 85 bd 28 68 36 3b 89 ab 84 bd
       -0.062110525 -0.06526838 0.0027833078 -0.0647803
0000b0 75 d1 46 bb 46 94 6a 3c a2 ba a7 3c 78 64 49 3d
       -0.0030337248 0.014317578 0.020474736 0.04916808
0000c0 ff 2a 88 3d 16 67 38 3d b5 3e 00 be 4c e3 11 be
       0.06648826 0.045020185 -0.12523921 -0.14246863
0000d0 29 c3 17 be 90 34 06 bd 81 18 c0 3d ee 72 81 3d
       -0.14820541 -0.03276497 0.09379674 0.06320749
0000e0 b2 3e 23 be b6 8f 31 3d 30 05 3c bc 03 66 1e 3e
       -0.15941885 0.043349944 -0.011475846 0.15468602
0000f0 30 c4 21 bd 61 a7 f4 3c b7 a5 75 bd f4 cd a1 bd
       -0.03949374 0.029864969 -0.05997249 -0.079006106
000100 dd a7 f7 bd 44 af 47 3d 10 d8 ba 3d 1d dd c9 3d
       -0.12092564 0.04875113 0.09123242 0.09856627
000110 c4 ee 1b 3d 69 fa 40 3e 17 ad 1c bd 07 e0 e7 3c
       0.0380695 0.18845524 -0.03825101 0.028305067
000120 1b 98 80 bd 36 1d df 3d 35 33 ab bd a3 53 c8 bc
       -0.06279012 0.108942434 -0.08359376 -0.024453944
000130 93 ed cd bd 1b 78 00 be b3 0c c1 3d 16 d9 9f 3d
       -0.10055079 -0.12545817 0.0942625 0.07805078
000140 18 ae 4e bd a9 18 98 bd a7 e6 d0 bd 29 4b f7 bd
       -0.050458997 -0.074265786 -0.102002434 -0.120748825
000150 03 49 43 bd 10 b0 26 3d f9 5c 91 3b 96 65 0e 3d
       -0.04767705 0.04069525 0.004436132 0.03476485
000160 5c 51 3c bd 54 bb 8e bd db 9e df bc 90 71 74 bd
       -0.045976028 -0.06969324 -0.027297428 -0.059678614
000170 3d e9 4a bd 07 67 02 bd c2 75 02 bd 5e 8a 65 3d
       -0.04953884 -0.031836536 -0.031850584 0.05604016
000180 6b 5b 25 3c 64 c8 46 ba ec ac 0d bd 6c 68 3b 3c
       0.0100925965 -0.0007582961 -0.03458874 0.01143847
000190 f8 3b 96 bd 41 53 8d bd 11 c2 b1 bd e0 ab e2 bc
       -0.07335657 -0.06900645 -0.08679593 -0.027669847
0001a0 68 98 37 be a2 11 9f 3d d2 f7 a6 bd e8 50 d0 bd
       -0.17929232 0.07767035 -0.08152737 -0.10171682
0001b0 b3 e8 d0 bc 20 78 00 3d f3 3d a2 bd 1a b9 2f 3a
       -0.025501585 0.03136456 -0.07921972 0.00067033025
0001c0 a4 2f 33 bc 41 7e 87 bd 35 54 cd bd 0a 48 77 3e
       -0.010936651 -0.06615878 -0.10025827 0.24148574
0001d0 10 ab 53 bd f0 25 fe 3d 97 96 d7 bd 75 49 e1 bd
       -0.05167681 0.1240958 -0.105267696 -0.11000339
0001e0 22 13 d9 bd 21 6b 89 bd 2f ef 2b 3e e1 8c 80 be
       -0.105993524 -0.06709886 0.1679046 -0.25107482
0001f0 da c0 fa bd 22 51 10 3d 7c 5d 4f bb 58 61 cd bd
       -0.12243815 0.035233624 -0.0031641414 -0.100283325
000200 e2 59 91 bd 1c f7 3a 3b c3 87 87 3e c0 ac 61 bd
       -0.07097222 0.0028528636 0.26470765 -0.055096388
000210 ee a6 80 3d 31 26 93 be f7 72 a8 3c 5e 23 0c bd
       0.06281839 -0.28740075 0.020562632 -0.034213416
000220 a6 19 af bd 20 b4 0c be e4 d7 c3 bd 05 6c d1 bd
       -0.08549814 -0.13740587 -0.09562662 -0.10225681
000230 74 a4 6f 3d 2a 2e e7 3d 81 2c 93 bc 3a 0e 20 3e
       0.058506444 0.11288102 -0.017965557 0.15630427
000240 2d 4a 0b bd 75 93 03 bd 91 c8 10 3d 82 37 2a be
       -0.034006286 -0.032123048 0.035347525 -0.16622737
000250 43 c7 1a 3e d7 74 4b 3c 06 13 cd bd f8 cc 46 bd
       0.15115075 0.0124179935 -0.10013394 -0.048535317
000260 15 18 61 3e 91 1f 11 be 64 80 c8 3c 61 9c 0d 3d
       0.21981843 -0.14172198 0.024475284 0.034572963
000270 2d 00 7f bd c1 72 ec bd 38 11 8f 3d 2f c4 6b 3e
       -0.062256027 -0.11545325 0.06985706 0.23024057
000280 ad 23 dd 3c 5b 7f 21 be 55 b2 3c be 41 0c cc 3d
       0.02699455 -0.15771239 -0.18427403 0.09963275
000290 49 e9 b7 bd e7 22 45 3e a3 44 5e bc 92 26 7b bd
       -0.089800425 0.19251595 -0.013566169 -0.06131608
0002a0 33 55 17 be 50 4d c1 3d 81 46 0e be 7f cb 2f bd
       -0.14778595 0.09438574 -0.13894083 -0.04291868
0002b0 00 80 30 bd ef 69 83 bd bf b1 60 be 84 e5 61 bd
       -0.04309082 -0.064166896 -0.21942805 -0.055150524
0002c0 76 54 b3 3c 60 9e 71 3c 31 7f 79 bd f0 fe ba 3c
       0.02189086 0.014747232 -0.060912315 0.022826642
0002d0 52 51 49 bd dc 4a 47 3e ab 20 d1 bd 4f 71 91 3d
       -0.04914982 0.1946215 -0.10211309 0.0710169
0002e0 20 dd 89 be ce 30 8d 3d 32 77 36 bd 3d 99 6c be
       -0.26926517 0.068940744 -0.044547267 -0.23105331
0002f0 3c 8a d1 3c 14 51 b5 3c 57 87 07 3c 49 2a 5d 3d
       0.02557861 0.022133388 0.008272014 0.053995404
000300 4b 88 fd 3d 76 53 13 3c d8 ac dd bd ae 71 d7 bd
       0.123795114 0.008992067 -0.10823983 -0.105197296
000310 87 05 d9 bb dc a6 b9 3d 51 1f f5 bd 9c dc e1 bc
       -0.0066229734 0.09065029 -0.11968864 -0.027571015
000320 e1 3b eb 3d 94 f8 d0 3e af 05 81 3d 94 d1 6e 3e
       0.1148603 0.4081465 0.06299912 0.23322135
000330 f6 a2 87 3d dc bd 44 be e0 0a 8f be 1a 24 63 be
       0.06622879 -0.1921305 -0.27937984 -0.2218174
000340 2e c4 0f be ae 8b 03 be e9 af aa 3c 5a ef 4b be
       -0.1403968 -0.12846252 0.020835834 -0.19915524
000350 6f c3 f1 bd e9 57 a9 be 07 cc 40 be f4 a4 ff 3e
       -0.11804854 -0.33074883 -0.1882783 0.49930537
000360 e2 9b 9b be 4d 0b e4 be 41 36 3a be c6 d8 86 bd
       -0.30392367 -0.44539872 -0.18184759 -0.06584315
000370 50 97 84 3e 1e e6 b5 3d cd da 0a be 08 42 b0 3e
       0.25896692 0.08881782 -0.13560028 0.34425378
000380 d9 04 84 be 24 04 30 be b8 28 34 bd 9c 81 dc bb
       -0.25784948 -0.1718908 -0.043984145 -0.006729318
000390 96 60 2d 3e f7 8e 74 3d a4 64 ac 3d e0 9c 36 3e
       0.16931376 0.059706654 0.08417633 0.1783328
0003a0 50 75 5f 3e 54 c8 87 be 40 23 57 be 53 71 17 3f
       0.21822095 -0.26520026 -0.2100954 0.59157294
0003b0 9c 27 e9 be a8 79 af be 28 99 c1 be d0 a6 b6 ba
       -0.45538032 -0.34272504 -0.3781216 -0.0013935212
0003c0 db 37 13 3e 55 46 6d 3e 44 00 94 be f9 d6 80 3e
       0.14376776 0.23171361 -0.28906453 0.2516401
0003d0 3d 95 a2 3e b1 41 c3 bd f2 ff 13 be 00 11 36 be
       0.31754485 -0.09534014 -0.14453104 -0.17779922
0003e0 e7 1e e9 bc 5e 5c a5 bd 8b 2f 42 bc d5 18 9d be
       -0.028457118 -0.08074258 -0.011852155 -0.30683008
0003f0 72 19 71 be 78 a6 ee be bb 69 2c bd ee dd 0d 3f
       -0.23544863 -0.4661138 -0.04209302 0.5541676

prop_layer.GRU.bias_ih_l0 f4 [30]
000000 a4 a8 6c 3d 17 f8 49 3e 4a c7 9b 3d c3 0c 90 3e
       0.057778016 0.19723545 0.07606371 0.28134736
000010 78 45 a8 3d 2e b4 5a 3e 00 87 0b bd bd 0d 64 bc
       0.08216375 0.21357796 -0.034064293 -0.013919291
000020 8f 7b af 3d 46 4e 1f bb 84 f5 f4 bd 9e f1 3b 3e
       0.08568489 -0.002430813 -0.11960891 0.18353888
000030 75 7f 8e bd 87 45 fc b9 94 50 25 be f5 30 6b bd
       -0.06957904 -0.00048116987 -0.1614402 -0.057419736
000040 74 40 a6 3c 96 04 51 be 5e 18 8f be af 91 15 be
       0.020294406 -0.20411906 -0.27948278 -0.14606355
000050 ff 81 e1 bd 8c a4 f9 be b1 03 0a 3e f6 31 01 bf
       -0.11011123 -0.48758352 0.1347797 -0.5046686
000060 d6 8d a1 bc 88 21 45 3f a8 ad 8c bc 24 f7 a4 3e
       -0.019720953 0.7700429 -0.01717265 0.32219803
000070 b4 96 9d bb 87 71 9b be
       -0.004809225 -0.30360052

prop_layer.GRU.bias_hh_l0 f4 [30]
000000 a4 a8 6c 3d 17 f8 49 3e 4a c7 9b 3d be f2 90 3e
       0.057778016 0.19723545 0.07606371 0.28310198
000010 78 45 a8 3d 60 b4 5a 3e 00 87 0b bd bd 0d 64 bc
       0.08216375 0.2135787 -0.034064293 -0.013919291
000020 8f 7b af 3d 46 4e 1f bb 2f 0c f5 bd d7 57 3c 3e
       0.08568489 -0.002430813 -0.119652145 0.18392883
000030 fb 78 8e bd f7 bc 01 ba 48 65 25 be 6e d3 6d bd
       -0.06956669 -0.00049491174 -0.16151917 -0.058062963
000040 a1 5d a6 3c 96 04 51 be 58 18 8f be 35 92 15 be
       0.020308318 -0.20411906 -0.2794826 -0.14606555
000050 52 0a 19 bd 52 df b1 bd 20 45 8e 3d 6f 7c 21 be
       -0.037363358 -0.08685173 0.06946778 -0.15770124
000060 26 b6 b4 b8 62 fe 0d 3f 48 26 75 be a7 07 08 3e
       -8.616997e-05 0.5546628 -0.23940384 0.13284169
000070 23 32 5f 3b c5 86 50 bd
       0.0034056983 -0.050909776

scoring_alignment_preprocessor.0.weight f4 [16, 10]
000000 1f be 88 17 d2 c9 7d 26 a9 a4 d2 96 66 2c ba 9f
       8.836787e-25 8.8050525e-16 -3.4031245e-25 -7.8847515e-20
000010 df eb 88 a1 d3 44 bc aa 66 14 00 00 e1 28 1d 00
       -9.278153e-19 -3.3443265e-13 7.318e-42 2.677894e-39
000020 c5 1b 00 00 ed 99 73 02 f0 f0 cf bd 1f 37 dc 3d
       9.962e-42 1.7896995e-37 -0.10153377 0.10752701
000030 04 99 0f be 9a 92 0f 3d b3 8b 9c 3d a0 e2 b3 3e
       -0.14023215 0.03505192 0.07643833 0.3513384
000040 3c ca 8b 3d 5c b3 c6 bd 5e 31 0f bf 0b 8b 95 bd
       0.068256825 -0.09702179 -0.55934703 -0.07301911
000050 24 f2 09 3e 00 1a 1b bf 58 c9 09 bd b7 67 bc bd
       0.13471276 -0.6058655 -0.033639282 -0.091994695
000060 79 53 fa 3e da ca de 3e c4 4a af be 6b f4 30 be
       0.4889181 0.43514138 -0.3423673 -0.17280738
000070 f4 0d 77 3e f9 53 e2 bc bd db da bd 79 79 9b bd
       0.24126416 -0.027627932 -0.10686443 -0.075915284
000080 b7 15 33 be bf b3 0b bc e3 88 02 3f b0 47 d2 be
       -0.17488752 -0.0085267415 0.5099012 -0.41070318
000090 47 de 8e 3e 2b e3 e1 3d c2 b3 47 3e 30 10 9e 3e
       0.2790396 0.11029657 0.19502166 0.30871725
0000a0 ab 3a 91 3c 4b 14 88 3e 67 77 c8 38 ce 40 45 3e
       0.01772817 0.26577982 9.5589836e-05 0.19263002
0000b0 a8 2c 09 3d a4 89 ca be 29 17 83 3e 2f 34 7c 3e
       0.033489853 -0.39558136 0.25603607 0.24629281
0000c0 1f fd 1c bd a1 ee 8d be f7 c9 be bd ff 4f 46 3f
       -0.038327333 -0.27721122 -0.093158655 0.77465814
0000d0 b9 87 ee 3d 0a 24 d5 bb 88 27 6d 3e ba 1f 3d 3e
       0.11646981 -0.0065045403 0.23159611 0.18469134
0000e0 3c e7 47 bc 3f 19 2e be bf 4f 0f bf ce d1 9f 3d
       -0.012201127 -0.17001818 -0.5598106 0.07803689
0000f0 f6 77 26 3f ae f5 1c 3e c6 81 bf 3d 23 05 e5 3e
       0.65026796 0.15328094 0.09350924 0.44730482
000100 cd 2d b4 bd 0f be 21 3e c4 10 69 be bf 7e 10 3d
       -0.08797798 0.15795158 -0.22760302 0.035277124
000110 1e d3 1b 3c 58 37 89 3e 08 08 33 3e b9 32 8d 3e
       0.0095107835 0.26800036 0.17483532 0.2757776
000120 d5 e2 cd 3e c5 75 31 3d f1 cc b1 bc 0a 6e 0a be
       0.40212122 0.043325204 -0.021704169 -0.13518539
000130 bf 57 03 bf 9d e1 30 3d 09 cb 09 3f ec 38 a6 3d
       -0.51305765 0.04318391 0.5382543 0.08116326
000140 b4 88 c3 88 4f d4 9b 1e 0a b5 8c 14 e5 a4 9c 8f
       -1.1768274e-33 1.6499072e-20 1.4207795e-26 -1.5446303e-29
000150 4f e4 e1 a2 d4 be 38 91 88 98 01 80 fb 8e 4d 00
       -6.1228103e-18 -1.4573844e-28 -1.46553e-40 7.122625e-39
000160 0e a1 6d 1f 99 1b 00 80 0b 92 0d 3e 3f da 0e bd
       5.0319923e-20 -9.9e-42 0.13825242 -0.034876104
000170 71 a6 81 3e 3c 2d c8 3e 34 3e b1 3e 7d 43 8f be
       0.25322297 0.3909701 0.3461777 -0.27981177
000180 e4 fd c3 be 07 5d 40 3f 49 e2 a2 be 5d 84 11 be
       -0.3827964 0.7514195 -0.31813267 -0.14210649
000190 c1 a2 d2 3e 4e 89 cc bd 4f dd 61 3e d4 e1 2b bf
       0.41139796 -0.09987126 0.22057079 -0.6714146
0001a0 1d 77 4e 3e d9 38 03 3c 62 76 ef 3c 25 49 2f 3e
       0.20162626 0.008009159 0.029231254 0.17117746
0001b0 3a ce 36 be 78 fb a8 bd e6 31 c4 3c f4 9d 02 3e
       -0.17852107 -0.08251089 0.023949575 0.12755567
0001c0 dd 0c 78 be e0 a5 0a be 4d 65 9d be cc 4b 3b 3c
       -0.24223657 -0.13539839 -0.3074135 0.011431646
0001d0 38 32 b3 be cd f2 78 bc 52 37 83 3d 3b cb af be
       -0.3499925 -0.015194607 0.06407036 -0.3433474
0001e0 90 99 15 be 3d c0 d9 bd 77 2f d5 3e 8e 6a a6 3e
       -0.1460936 -0.1063237 0.41637775 0.3250317
0001f0 17 e8 4f be e3 f7 1c 3e b4 b1 1d 3f 31 bc 31 be
       -0.20303379 0.15328936 0.6159928 -0.17356946
000200 7b 88 9d 3e bd f9 79 3e 10 cc 15 3e 1e aa 92 3d
       0.3076819 0.24411674 0.14628625 0.071613535
000210 94 63 ff 3e f4 19 d9 3e a8 78 47 bd d9 db 38 be
       0.4988066 0.42402613 -0.04869905 -0.18052615
000220 67 a2 95 be 65 59 94 be 53 f7 2f be 1e 72 0c be
       -0.29225466 -0.28974453 -0.1718419 -0.13715407
000230 55 52 f7 be 9a 1a e1 3d b4 95 90 3e 12 ba d6 bc
       -0.48305002 0.10991402 0.28239214 -0.026211772
000240 6a a5 32 3e 7e 30 09 3e 56 57 9e be 3d 12 b5 bd
       0.17445913 0.13397405 -0.30926007 -0.08841369
000250 f9 52 4b 3e be f6 0d 3d 82 7a 30 3e db 75 c0 bc
       0.1985587 0.03465914 0.17234233 -0.023493698
000260 8d 92 83 3b ee 5c c2 3e ff c5 8e 3e 98 aa 69 be
       0.004015273 0.37961525 0.27885434 -0.22818983
000270 12 f7 cc 3e 17 88 2e bd f5 23 26 be ac ed ce bd
       0.4003225 -0.042610254 -0.16224654 -0.10103926

scoring_alignment_preprocessor.0.bias f4 [16]
000000 01 81 d6 b1 9e 53 90 3e 5e ad 17 3e 3c 7f dd 3d
       -6.2428858e-09 0.28188795 0.14812228 0.10815284
000010 7b 99 82 3e df 05 6d 3e 26 13 89 3d b9 5e 25 3e
       0.2550772 0.23146771 0.066931054 0.16149415
000020 39 61 1b a8 cb 72 a6 3d 96 39 5b 3e fa 03 ce 3e
       -8.62531e-15 0.08127364 0.21408686 0.4023741
000030 e5 e2 72 3d 13 0d 07 be 28 27 c5 3d 13 a6 93 3d
       0.059298415 -0.13188581 0.09626609 0.072094105

scoring_alignment_preprocessor.2.weight f4 [16, 16]
000000 7e 1b 00 80 16 05 f4 3d bb f0 30 bc b5 4f 3c bd
       -9.862e-42 0.119150326 -0.010799582 -0.045974452
000010 84 68 1b bd 46 54 90 bd 12 b5 bd bb 94 42 c8 bd
       -0.03794147 -0.07047324 -0.0057894075 -0.09778324
000020 9e 1b 00 00 ba 1c 1b be 7f 43 8a 3e 46 e3 94 be
       9.907e-42 -0.15147677 0.2700462 -0.29079646
000030 4c 2b c3 3e 39 0b 18 bb 55 0a 2c 3d 87 94 0c bd
       0.3811897 -0.0023200049 0.04200204 -0.034321334
000040 85 2f 00 80 d1 e6 e5 ba 9b 4a 35 3b 07 26 5c bb
       -1.7047e-41 -0.0017540102 0.0027662877 -0.0033592002
000050 29 9e bc 3a 70 80 a7 3a 6b 4b 30 3a ab 64 ac bb
       0.0014390397 0.0012779366 0.00067251053 -0.005261024
000060 df 1b 00 80 9c b7 76 ba 15 21 cd b9 df 63 28 3a
       -9.998e-42 -0.0009411515 -0.00039125295 0.00064235734
000070 2c f3 76 36 72 4c ac 3b 12 ac b8 3b a9 48 1d bb
       3.6798401e-06 0.0052581364 0.0056357468 -0.0023999608
000080 f4 1b 00 80 e5 43 80 be ba 4a 77 3e b5 52 76 3e
       -1.0028e-41 -0.250518 0.241496 0.24054988
000090 e7 ba 42 be 5b dd a6 bc a6 19 af bc c2 c2 32 3e
       -0.1901661 -0.020369222 -0.021374535 0.17457107
0000a0 28 22 00 80 00 89 2c bf ad ae f0 bd b3 fb 45 bd
       -1.2253e-41 -0.67396545 -0.11752067 -0.048335742
0000b0 5c e1 0d 3c 5c c5 53 3e 42 60 e3 3d 46 0e 25 3d
       0.008659687 0.20680755 0.11102344 0.040296815
0000c0 d0 82 14 9e 17 50 79 3e a5 3f d8 bd 4c 4e df bd
       -7.862106e-21 0.24346958 -0.10559014 -0.10903606
0000d0 29 6e 89 be 60 fa a0 3e c8 cf 46 be 87 7c 43 be
       -0.26841858 0.3144102 -0.194152 -0.19090472
0000e0 9c 1b 00 80 09 18 c2 bd 89 ad 17 3e cc 31 51 3e
       -9.904e-42 -0.094772406 0.14812292 0.20429152
0000f0 80 7d 3d be 25 ab 13 bf 2f bd 41 3d 91 ac 0a bf
       -0.18504906 -0.5768302 0.04729956 -0.54169565
000100 92 1b 00 80 69 b5 81 bd 08 a5 42 3e af ac bb bd
       -9.89e-42 -0.06333429 0.19008267 -0.09163796
000110 b4 24 a1 be 58 46 12 3a f7 e7 87 3e 17 c7 27 3e
       -0.31473315 0.000557994 0.26544163 0.1638454
000120 81 1b 00 80 e5 f7 4b be 0c fe 82 3e 7d ec a7 bd
       -9.867e-42 -0.19918783 0.25584447 -0.081994034
000130 a5 b1 dc 3d 1b 6e 2d 3e 45 1e 77 3c 0e 42 62 be
       0.107760705 0.16936533 0.0150829 -0.2209551
000140 f5 1b 00 80 1f 41 ad 3e eb 04 db be d8 e4 03 be
       -1.0029e-41 0.33838746 -0.4277719 -0.12880266
000150 36 cb 8a 3e 7d a9 9a 3e eb ad 2f 3e 9d 06 78 bd
       0.27108163 0.30207434 0.17156188 -0.060553182
000160 7d 1b 00 00 c6 fb 79 3e 8d 1c b9 bd bb 95 20 3d
       9.861e-42 0.2441245 -0.09038649 0.039205294
000170 df 22 8c bc cd 49 94 bd 31 b6 cb bd 45 05 aa 3d
       -0.017106472 -0.07240639 -0.0994686 0.08301786
000180 03 22 00 80 09 62 7a 3c 35 f5 80 3c 62 b1 74 bb
       -1.2201e-41 0.015282162 0.015741924 -0.0037337174
000190 1d cd 40 3c 41 97 9e 3c 32 bb 4a ba a4 8e 63 bb
       0.011767653 0.019359233 -0.0007733583 -0.0034722472
0001a0 e7 1b 00 00 ce cb a1 bb 6d 91 2c 3c 31 93 c2 3c
       1.001e-41 -0.0049376255 0.010532719 0.023751827
0001b0 6b 60 18 3c 05 af 88 3c 8b e2 00 3c 0f 50 c4 3b
       0.009300332 0.016685018 0.007866512 0.005990989
0001c0 51 a6 3a 8a 89 67 8d 3e 8e bf 75 3e 96 a8 1f bf
       -8.986855e-33 0.27618054 0.23998854 -0.62366617
0001d0 b4 09 67 bd a4 be e3 3e 4d 28 42 be 44 a9 3a bf
       -0.056405738 0.44481385 -0.18960686 -0.7291453
0001e0 7d 1b 00 00 da 74 d4 3d 86 1e 88 bd cb a5 c0 be
       9.861e-42 0.1037385 -0.06646447 -0.3762649
0001f0 76 4d e8 3e 55 88 35 be 5c 39 3e b7 2b b1 f8 3d
       0.45371598 -0.17727788 -1.13382375e-05 0.12143167
000200 6d 1b 00 00 b8 84 a6 3e f6 e0 15 bf 3c d5 a1 3e
       9.839e-42 0.3252313 -0.5854639 0.31607997
000210 2f c4 c1 3e 07 6d a8 3d 38 55 37 3e a6 29 fd 3d
       0.3784499 0.0822392 0.17903602 0.123614594
000220 5f 1b 00 00 83 3b 09 bd 79 14 af bc c3 2c af 3d
       9.819e-42 -0.03350402 -0.021372067 0.085534595
000230 c0 0d 56 be 81 fb 41 be ee 52 87 be 6e 97 3e 3e
       -0.20903683 -0.18943597 -0.26430458 0.18612453
000240 5f 1b 00 00 eb 52 55 3d 22 b8 d9 be 1d 57 99 3a
       9.819e-42 0.05208103 -0.42523295 0.0011698935
000250 db a6 6f 3d 47 15 31 3e 37 9e 1f bd f7 4c a5 3e
       0.058508735 0.17293273 -0.038969245 0.32285282
000260 76 1b 00 00 2e de a4 3a 3b 6d d3 be 23 b1 88 3e
       9.851e-42 0.0012578422 -0.41294274 0.26697645
000270 e8 eb 24 3d 6d 22 94 3e 28 a2 e2 3e 68 5e 58 be
       0.04026404 0.28932515 0.4426434 -0.21129763
000280 85 1f 00 00 cd 98 87 bb d9 72 d1 3b 2a 5e 43 bb
       1.1307e-41 -0.0041380883 0.0063918647 -0.0029810765
000290 e4 8d ce ba c5 14 55 3b 38 9a 09 ba 69 c6 97 bb
       -0.001575884 0.00325136 -0.00052491156 -0.0046318066
0002a0 31 1c 00 00 46 13 d6 ba 0a 32 d1 3a 76 fd 1b 3a
       1.0113e-41 -0.0016332648 0.0015960347 0.00059505494
0002b0 65 bb 28 3b 5c c0 b3 3b 0b a6 eb 3b cd b8 c0 bb
       0.0025746461 0.0054855775 0.0071914247 -0.005881405
0002c0 8e 1b 00 80 ad d4 4d 3e 1a aa 7d be b1 db 70 bd
       -9.885e-42 0.2010066 -0.2477192 -0.058803264
0002d0 86 4d 08 3d 08 39 2e 3f c7 46 c7 3e e8 4d 2c 3e
       0.033277057 0.6805577 0.38921186 0.16826594
0002e0 a0 1b 00 80 2e 1c 18 bf 99 43 c5 be 09 b0 6c 3d
       -9.91e-42 -0.59418 -0.38528135 0.057785068
0002f0 d0 95 8a bc e0 0f a6 3e 5a 9b c7 b9 91 55 18 3e
       -0.01691714 0.32433987 -0.00038071984 0.14876391
000300 ab 1b 00 80 43 b5 61 be d2 ac b2 3e a7 18 5f be
       -9.925e-42 -0.22041802 0.34897476 -0.21786748
000310 79 a9 01 be 64 ca 78 3e fe 04 8e 3e 3a db a7 3d
       -0.12662305 0.24295956 0.27738184 0.08196111
000320 67 1b 00 80 24 33 ad 3e 40 95 7a be 2f 56 b7 3e
       -9.83e-42 0.3382808 -0.24470997 0.3580794
000330 81 c7 27 bf 7a 7b 06 3d 2b 93 60 be eb 82 29 3d
       -0.65538794 0.0328326 -0.2193114 0.04138462
000340 7d 0c 00 80 6f 4a f2 3b ad 3d 97 bb 3d d3 84 3b
       -4.48e-42 0.007394127 -0.0046155066 0.004053502
000350 97 20 42 3b 00 a2 97 3a 66 9f e7 3a 09 f3 00 3c
       0.0029621476 0.0011568666 0.0017671406 0.007870444
000360 7e 1b 00 80 90 81 0b ba 07 f5 c4 ba e8 cd a8 3a
       -9.862e-42 -0.00053217355 -0.0015026637 0.0012878748
000370 10 38 a8 bb e4 6c 3a bb 05 12 07 bc 3b 01 b1 3b
       -0.0051336363 -0.0028446252 -0.008244042 0.005401758
000380 ce 1b 00 00 d4 8c 50 be d1 e0 1d bd bb 0f 5f 3d
       9.974e-42 -0.20366222 -0.03854448 0.05445836
000390 5b 52 34 3e ec 09 3a be ca 23 17 bf b4 bc a5 bd
       0.17609541 -0.18167847 -0.59038985 -0.08092633
0003a0 5f 1b 00 80 95 61 b5 3e 44 20 f3 be 36 66 65 3e
       -9.819e-42 0.35426012 -0.47485554 0.22402272
0003b0 36 5d 1e bd f4 60 bb 3c 2a 4b d5 3e 15 1a 00 bc
       -0.03866311 0.02287338 0.41658908 -0.007818718
0003c0 fa 1e 00 80 66 9d 0e 3c c6 43 7a 3a 52 da dc 39
       -1.1112e-41 0.008704519 0.0009546842 0.0004212433
0003d0 45 63 43 3a fd ef a6 39 0b a6 0b 3b a4 7e 2f 3b
       0.0007453452 0.00031840793 0.0021308686 0.0026778365
0003e0 70 1b 00 80 4a 36 8a bb 5f 3e 22 3b d3 d4 4d 3b
       -9.843e-42 -0.0042178975 0.0024756414 0.003140737
0003f0 ad 84 f3 3a 49 28 bb ba 0d 78 0b b9 4e 59 64 3b
       0.0018578969 -0.0014278974 -0.00013300795 0.0034843269

scoring_alignment_preprocessor.2.bias f4 [16]
000000 1e 83 ca bc b9 bd 8e 3b 97 97 c3 3c 5a b2 d9 bd
       -0.024720725 0.004356113 0.023875995 -0.10629721
000010 6f 82 d7 bd 3a cc a0 3d 02 6b 98 3c 18 ff aa bd
       -0.10522925 0.07851453 0.018605713 -0.083494365
000020 1c f0 0f 3e 91 45 2b 3e 52 6b 8c 3b 00 3a a9 3d
       0.14056438 0.16725756 0.0042852545 0.08263016
000030 33 ad cc bd c5 82 f8 39 54 37 d7 3d cc f0 d2 3a
       -0.09993973 0.00047399677 0.105086 0.0016093492

interaction_alignment_preprocessor.0.weight f4 [16, 10]
000000 1f be 88 17 d2 c9 7d 26 a9 a4 d2 96 66 2c ba 9f
       8.836787e-25 8.8050525e-16 -3.4031245e-25 -7.8847515e-20
000010 df eb 88 a1 d3 44 bc aa 66 14 00 00 e1 28 1d 00
       -9.278153e-19 -3.3443265e-13 7.318e-42 2.677894e-39
000020 c5 1b 00 00 ed 99 73 02 f0 f0 cf bd 1f 37 dc 3d
       9.962e-42 1.7896995e-37 -0.10153377 0.10752701
000030 04 99 0f be 9a 92 0f 3d b3 8b 9c 3d a0 e2 b3 3e
       -0.14023215 0.03505192 0.07643833 0.3513384
000040 3c ca 8b 3d 5c b3 c6 bd 5e 31 0f bf 0b 8b 95 bd
       0.068256825 -0.09702179 -0.55934703 -0.07301911
000050 24 f2 09 3e 00 1a 1b bf 58 c9 09 bd b7 67 bc bd
       0.13471276 -0.6058655 -0.033639282 -0.091994695
000060 79 53 fa 3e da ca de 3e c4 4a af be 6b f4 30 be
       0.4889181 0.43514138 -0.3423673 -0.17280738
000070 f4 0d 77 3e f9 53 e2 bc bd db da bd 79 79 9b bd
       0.24126416 -0.027627932 -0.10686443 -0.075915284
000080 b7 15 33 be bf b3 0b bc e3 88 02 3f b0 47 d2 be
       -0.17488752 -0.0085267415 0.5099012 -0.41070318
000090 47 de 8e 3e 2b e3 e1 3d c2 b3 47 3e 30 10 9e 3e
       0.2790396 0.11029657 0.19502166 0.30871725
0000a0 ab 3a 91 3c 4b 14 88 3e 67 77 c8 38 ce 40 45 3e
       0.01772817 0.26577982 9.5589836e-05 0.19263002
0000b0 a8 2c 09 3d a4 89 ca be 29 17 83 3e 2f 34 7c 3e
       0.033489853 -0.39558136 0.25603607 0.24629281
0000c0 1f fd 1c bd a1 ee 8d be f7 c9 be bd ff 4f 46 3f
       -0.038327333 -0.27721122 -0.093158655 0.77465814
0000d0 b9 87 ee 3d 0a 24 d5 bb 88 27 6d 3e ba 1f 3d 3e
       0.11646981 -0.0065045403 0.23159611 0.18469134
0000e0 3c e7 47 bc 3f 19 2e be bf 4f 0f bf ce d1 9f 3d
       -0.012201127 -0.17001818 -0.5598106 0.07803689
0000f0 f6 77 26 3f ae f5 1c 3e c6 81 bf 3d 23 05 e5 3e
       0.65026796 0.15328094 0.09350924 0.44730482
000100 cd 2d b4 bd 0f be 21 3e c4 10 69 be bf 7e 10 3d
       -0.08797798 0.15795158 -0.22760302 0.035277124
000110 1e d3 1b 3c 58 37 89 3e 08 08 33 3e b9 32 8d 3e
       0.0095107835 0.26800036 0.17483532 0.2757776
000120 d5 e2 cd 3e c5 75 31 3d f1 cc b1 bc 0a 6e 0a be
       0.40212122 0.043325204 -0.021704169 -0.13518539
000130 bf 57 03 bf 9d e1 30 3d 09 cb 09 3f ec 38 a6 3d
       -0.51305765 0.04318391 0.5382543 0.08116326
000140 b4 88 c3 88 4f d4 9b 1e 0a b5 8c 14 e5 a4 9c 8f
       -1.1768274e-33 1.6499072e-20 1.4207795e-26 -1.5446303e-29
000150 4f e4 e1 a2 d4 be 38 91 88 98 01 80 fb 8e 4d 00
       -6.1228103e-18 -1.4573844e-28 -1.46553e-40 7.122625e-39
000160 0e a1 6d 1f 99 1b 00 80 0b 92 0d 3e 3f da 0e bd
       5.0319923e-20 -9.9e-42 0.13825242 -0.034876104
000170 71 a6 81 3e 3c 2d c8 3e 34 3e b1 3e 7d 43 8f be
       0.25322297 0.3909701 0.3461777 -0.27981177
000180 e4 fd c3 be 07 5d 40 3f 49 e2 a2 be 5d 84 11 be
       -0.3827964 0.7514195 -0.31813267 -0.14210649
000190 c1 a2 d2 3e 4e 89 cc bd 4f dd 61 3e d4 e1 2b bf
       0.41139796 -0.09987126 0.22057079 -0.6714146
0001a0 1d 77 4e 3e d9 38 03 3c 62 76 ef 3c 25 49 2f 3e
       0.20162626 0.008009159 0.029231254 0.17117746
0001b0 3a ce 36 be 78 fb a8 bd e6 31 c4 3c f4 9d 02 3e
       -0.17852107 -0.08251089 0.023949575 0.12755567
0001c0 dd 0c 78 be e0 a5 0a be 4d 65 9d be cc 4b 3b 3c
       -0.24223657 -0.13539839 -0.3074135 0.011431646
0001d0 38 32 b3 be cd f2 78 bc 52 37 83 3d 3b cb af be
       -0.3499925 -0.015194607 0.06407036 -0.3433474
0001e0 90 99 15 be 3d c0 d9 bd 77 2f d5 3e 8e 6a a6 3e
       -0.1460936 -0.1063237 0.41637775 0.3250317
0001f0 17 e8 4f be e3 f7 1c 3e b4 b1 1d 3f 31 bc 31 be
       -0.20303379 0.15328936 0.6159928 -0.17356946
000200 7b 88 9d 3e bd f9 79 3e 10 cc 15 3e 1e aa 92 3d
       0.3076819 0.24411674 0.14628625 0.071613535
000210 94 63 ff 3e f4 19 d9 3e a8 78 47 bd d9 db 38 be
       0.4988066 0.42402613 -0.04869905 -0.18052615
000220 67 a2 95 be 65 59 94 be 53 f7 2f be 1e 72 0c be
       -0.29225466 -0.28974453 -0.1718419 -0.13715407
000230 55 52 f7 be 9a 1a e1 3d b4 95 90 3e 12 ba d6 bc
       -0.48305002 0.10991402 0.28239214 -0.026211772
000240 6a a5 32 3e 7e 30 09 3e 56 57 9e be 3d 12 b5 bd
       0.17445913 0.13397405 -0.30926007 -0.08841369
000250 f9 52 4b 3e be f6 0d 3d 82 7a 30 3e db 75 c0 bc
       0.1985587 0.03465914 0.17234233 -0.023493698
000260 8d 92 83 3b ee 5c c2 3e ff c5 8e 3e 98 aa 69 be
       0.004015273 0.37961525 0.27885434 -0.22818983
000270 12 f7 cc 3e 17 88 2e bd f5 23 26 be ac ed ce bd
       0.4003225 -0.042610254 -0.16224654 -0.10103926

interaction_alignment_preprocessor.0.bias f4 [16]
000000 01 81 d6 b1 9e 53 90 3e 5e ad 17 3e 3c 7f dd 3d
       -6.2428858e-09 0.28188795 0.14812228 0.10815284
000010 7b 99 82 3e df 05 6d 3e 26 13 89 3d b9 5e 25 3e
       0.2550772 0.23146771 0.066931054 0.16149415
000020 39 61 1b a8 cb 72 a6 3d 96 39 5b 3e fa 03 ce 3e
       -8.62531e-15 0.08127364 0.21408686 0.4023741
000030 e5 e2 72 3d 13 0d 07 be 28 27 c5 3d 13 a6 93 3d
       0.059298415 -0.13188581 0.09626609 0.072094105
