paper_artifacts/collection/gmn_iterative_refinement_scoring=sinkhorn_pp=lrl___tp=sinkhorn_pp=lrl_when=post___unify=true/trained_models/gmn_iterative_refinement_scoring=sinkhorn_pp=lrl___tp=sinkhorn_pp=lrl_when=post___unify=true_ptc_fr_large_dataset_seed_7762_2024-04-02_13:59:14.pth (torch, 13564 bytes, 18 tensors)

encoder.MLP1.0.weight f4 [10, 1]
00000000: d430 043e a959 04bf 530a eabe b321 9ebe
00000010: 31f0 b8be 4b2d cd3d 205d 013f e918 953e
00000020: 5ee7 c9bd 7c0d 943d
0.12909251 -0.5169931 -0.45711002 -0.30885085 -0.36120752 0.100184046 0.5053272 0.29120567
-0.09858583 0.072291344

encoder.MLP1.0.bias f4 [10]
00000000: fc9f 053e e371 04bf 566f edbe 2ffc 9dbe
00000010: 3c7f b9be 9587 cd3d c513 083f 6eaa 8d3e
00000020: 6e3b cbbd d11e 953d
0.1304931 -0.5173628 -0.46374005 -0.30856463 -0.36229885 0.10035626 0.53155166 0.2766909
-0.09923445 0.072812684

prop_layer._message_net.0.weight f4 [20, 21]
00000000: 9e53 2cbd 5439 70bd 0c16 283f bf64 4fbe
00000010: d759 32be d37a 383e 492f c7be ef96 cf3e
00000020: 0c8b 9abe 0a91 a33d 9606 273e 0dac 6e3e
00000030: 73aa afbe 1bce 9cbd fdce 443e b382 253d
00000040: 37a1 573c 0b9a 1cbe 32a5 51bd 0c4f 0cbc
00000050: bf3e 383e 4846 ecbd b87d 113e aee0 4d3c
00000060: 2886 e43e e009 96bd 343a e9ba 7fde 813d
00000070: 059d c0bd 8223 123e b936 a73e 6097 18bd
00000080: 880b b0be 34d9 80be d3ac aebd 71f4 553e
00000090: 2e2c 203e f1f3 373e 6ca3 0e3e a26b 7bbd
000000a0: 99f6 033f db11 613d 3612 073a 3463 5b3b
000000b0: 6869 793b 6f72 63bb f67b 6f39 ebe7 c5ba
000000c0: f0c5 d9ba 56a8 73bb b157 87bb d663 9f3b
000000d0: 4536 343b 23fa 5ebb e6b4 adbb acad f738
000000e0: 16da 803a 0bae 17bb 7a2f 2bbb 30b7 893b
000000f0: 234d 88bb e5c2 56bb bbc6 5739 f994 b93a
00000100: 5113 893a 564b 0e3b 7fa0 8aba bca9 3a3b
00000110: 5802 a7bb 6285 df3b bcf9 b4bb b8d1 b03b
00000120: e3fd b439 0e87 6739 3542 c4ba 08df b7ba
00000130: 101a 423b ce18 56bb e325 7e3b f551 8bbb
00000140: 6972 0c3b 17bf c63a 875e adbb 1d43 afba
00000150: 8a58 4f3a 340b 72bb 4bd2 44ba 3f5c 50ba
00000160: 0449 23ba 2e77 b5ba fd34 ce3b 7760 303a
00000170: 7f2f bab9 4a71 39bb 8bbf 4abb 83f1 223b
00000180: 6bb7 8d3b 045b a039 a828 173a e5f9 bc3a
00000190: 6f57 c83a b475 ffba 2f8b c83b 5877 183b
000001a0: 68b8 b63a 4d4f 69b9 1bb2 793b cde8 3d3b
000001b0: 5ccb 94bb 2797 02ba c38b 32ba 97af 9dbb
000001c0: eae4 b4ba 99fc 98bb 67c4 ce3b 77c5 143b
000001d0: 62bc 88bb 79ed a1bb 4933 40ba 045c 333a
000001e0: 1013 36bb 8da2 10bb 447e 883b 10d7 b2bb
000001f0: e8da 3ebb 2705 7b37 45c6 333b 2c65 99bb
00000200: 0b68 5c3a 8656 2d3b f1b6 ad39 e2f5 4b39
00000210: 39d5 ef3b 70a3 ebb9 a29a 993b bb4b 15bc
00000220: 8b63 b6ba 8e75 c13b ddae 813b cd93 313b
00000230: baf4 363a 4cd8 803b aad4 1c3a c858 a0bb
00000240: 5d4d b33b 7f78 5b3b 2ed6 ad38 af00 28bf
00000250: 15a0 28be ebb4 67be ff00 df3e 4d59 63be
00000260: b33d 86be b1e6 5abe b9f4 f3bd fdc5 d83c
00000270: 5998 dd3d 5fbb 9cbe 65b1 4c3e 19e8 2f3d
00000280: 98a8 bcbb 4521 61be 9f9e c4bd d767 2bbd
00000290: 3a2e a23e 91ce 0b3e 3f72 533e 082c fd3d
000002a0: e04a 6dba 345e 50bb dee1 8abb 721a 843b
000002b0: 87ee 3c38 3ef3 9e3a 1940 053b 11ff 7b3b
000002c0: 25fe 953b 6b07 a0bb c082 2cbb f5bf 6c3b
000002d0: cd7e bc3b 13b2 dbb9 d80e c1ba bc36 373b
000002e0: e97e 183b e429 a2bb f3f2 973b c5dc 593b
000002f0: 010e 41b9 6d67 09bf 1c62 dd3e 5077 9e3e
00000300: a2cc a83e 91d8 c53e 9458 40bc 450a 89be
00000310: ea48 fabe 2195 793e f597 0bbf 00e4 9b3e
00000320: 8273 403e 9062 95ba 5233 05be a3e4 0bbe
00000330: 2df4 a5be bd1b 163e 460e 54bd 2407 723e
00000340: cdc6 843e 1bcd d1bc b055 cebc 2e13 253c
00000350: 015e e23c 2fc0 4dbe 937b 813d 7c04 3abe
00000360: db0b 193e fb7b 22be 1b5e 3cbe c547 2a3d
00000370: 05bf cebd d9e9 c5bd dc29 c53d 24f2 273e
00000380: b60c e13d 58cc 4c3d 8734 4dbd f227 8c3e
00000390: 3d95 903d f2f1 973c 7595 dcbc 829c f7b9
000003a0: 5e19 77bb 6041 48bb c39f 8e3b 6b09 9439
000003b0: 412d a93a c990 483b 86ef 093b 6da8 903b
000003c0: 7020 abbb 377e 10bb ed8f 7e3b 5f55 9c3b
000003d0: 5e83 aab7 cb63 8cba 6dd6 103b 82bc 213b
000003e0: 0c07 8abb 4a86 a03b a59b 393b ee08 3a37
000003f0: 2d9c bebe b929 30bd 84ce e5be 94e7 11bd
-0.04207193 -0.058648422 0.6565864 -0.20253275 -0.17417084 0.18015604 -0.38903263 0.4054484
-0.3018421 0.079866484 0.16311106 0.2330782 -0.3430973 -0.07656499 0.19219585 0.040407848
0.013160995 -0.15293138 -0.051182933 -0.008563768 0.17992686 -0.115368426 0.14208114 0.012565775
0.44633603 -0.07326102 -0.0017793835 0.06341266 -0.09404949 0.14271358 0.32658938 -0.037253737
-0.34383798 -0.25165713 -0.08529057 0.20894028 0.15641853 0.1796415 0.13929528 -0.061381944
0.51548153 0.05494867 0.0005152555 0.0033475878 0.0038057212 -0.003470566 0.00022838995 -0.0015099024
-0.0016614776 -0.0037179193 -0.0041303267 0.0048641963 0.0027498167 -0.0034023605 -0.005301106 0.00011810227
0.000983062 -0.002314451 -0.0026120828 0.004202746 -0.004159586 -0.0032769975 0.0002057803 0.0014158777
0.0010458027 0.0021712384 -0.0010576396 0.0028482517 -0.005096715 0.0068213204 -0.0055229347 0.005396094
0.00034521436 0.00022080189 -0.0014973345 -0.001402826 0.0029617585 -0.0032668593 0.0038779906 -0.0042517134
0.0021430498 0.001516315 -0.0052908096 -0.0013371442 0.00079096167 -0.0036932947 -0.0007508143 -0.0007948316
-0.0006228837 -0.0013844722 0.006292938 0.00067282416 -0.00035512072 -0.0028296285 -0.0030936922 0.002486319
0.0043248436 0.0003058539 0.0005766251 0.0014417736 0.0015284846 -0.0019490034 0.0061201076 0.0023264494
0.0013940455 -0.00022250153 0.0038100544 0.0028977871 -0.004540844 -0.000498163 -0.0006810987 -0.0048121917
-0.0013801132 -0.004668784 0.006310034 0.0022700706 -0.0041728476 -0.004941639 -0.0007331861 0.00068420195
-0.0027782358 -0.0022069544 0.0041654427 -0.0054577664 -0.0029122178 1.49619655e-05 0.002743141 -0.00468125
0.00084078376 0.0026449277 0.00033133433 0.00019451187 0.0073191193 -0.00044944463 0.004687623 -0.009112294
-0.0013915164 0.005903906 0.003957613 0.0027096153 0.0006979216 0.0039320346 0.0005982617 -0.004893396
0.005471869 0.003348857 8.289177e-05 -0.65626043 -0.16467316 -0.22627608 0.43555447 -0.22202034
-0.26218948 -0.21377064 -0.119119115 0.026461596 0.10820074 -0.30611703 0.19989546 0.042945955
-0.0057574026 -0.21985348 -0.09600567 -0.041847076 0.31675893 0.13653018 0.2064905 0.12361914
-0.000905199 -0.003179443 -0.0042383512 0.004031473 4.504484e-05 0.0012126935 0.0020332395 0.0038451592
0.0045774155 -0.004883697 -0.002632305 0.0036125157 0.0057524205 -0.0004190361 -0.0014729155 0.0027956208
0.0023269004 -0.0049488414 0.004637116 0.003324316 -0.00018411131 -0.5367344 0.43238914 0.30950403
0.32968622 0.3864179 -0.011739869 -0.26765648 -0.48883754 0.24373294 -0.54528743 0.30447388
0.18794063 -0.0011397172 -0.13007858 -0.13661437 -0.32412854 0.14659019 -0.051771425 0.23635536
0.25932923 -0.025610497 -0.025187343 0.010075374 0.027632715 -0.20092843 0.06322398 -0.18165773
0.14945929 -0.15867607 -0.18395273 0.04157235 -0.10095028 -0.096637435 0.09627125 0.16400963
0.109887525 0.049999565 -0.050098922 0.27374226 0.07059715 0.018547986 -0.026926735 -0.0004722812
-0.003770433 -0.0030556545 0.004352541 0.00028235777 0.0012907163 0.0030603877 0.0021047308 0.004414609
-0.0052223727 -0.0022047886 0.003884311 0.004770919 -2.0326752e-05 -0.0010710893 0.0022100464 0.002467901
-0.004212266 0.004898821 0.002832153 1.1088543e-05 -0.37228528 -0.04300854 -0.4488412 -0.03562124

prop_layer._message_net.0.bias f4 [20]
00000000: 3eea 253e 818e 713d 0fc4 5739 0f8f b0ba
00000010: 52b6 b63a 1ba2 7937 4ce4 ad38 8e6b 143e
00000020: ec0c 41b9 e4d5 e53c b835 ecbc 27d5 3937
00000030: 0971 9c3d 5a06 feb9 6f6d 3c3e 978c 0fbe
00000040: 9a1a 133c ad93 9eb9 bd38 b23d adc3 653e
0.16202638 0.058973793 0.00020577035 -0.0013470369 0.0013939834 1.48793e-05 8.2918064e-05 0.14494154
-0.00018410728 0.028056093 -0.028834209 1.1076488e-05 0.07638747 -0.00048451388 0.1840112 -0.14018475
0.00897851 -0.00030246135 0.08702228 0.22437926

prop_layer._reverse_message_net.0.weight f4 [20, 21]
00000000: 9e53 2cbd 5439 70bd 0c16 283f bf64 4fbe
00000010: d759 32be d37a 383e 492f c7be ef96 cf3e
00000020: 0c8b 9abe 0a91 a33d 9606 273e 0dac 6e3e
00000030: 73aa afbe 1bce 9cbd fdce 443e b382 253d
00000040: 37a1 573c 0b9a 1cbe 32a5 51bd 0c4f 0cbc
00000050: bf3e 383e 4846 ecbd b87d 113e aee0 4d3c
00000060: 2886 e43e e009 96bd 343a e9ba 7fde 813d
00000070: 059d c0bd 8223 123e b936 a73e 6097 18bd
00000080: 880b b0be 34d9 80be d3ac aebd 71f4 553e
00000090: 2e2c 203e f1f3 373e 6ca3 0e3e a26b 7bbd
000000a0: 99f6 033f db11 613d 3612 073a 3463 5b3b
000000b0: 6869 793b 6f72 63bb f67b 6f39 ebe7 c5ba
000000c0: f0c5 d9ba 56a8 73bb b157 87bb d663 9f3b
000000d0: 4536 343b 23fa 5ebb e6b4 adbb acad f738
000000e0: 16da 803a 0bae 17bb 7a2f 2bbb 30b7 893b
000000f0: 234d 88bb e5c2 56bb bbc6 5739 f994 b93a
00000100: 5113 893a 564b 0e3b 7fa0 8aba bca9 3a3b
00000110: 5802 a7bb 6285 df3b bcf9 b4bb b8d1 b03b
00000120: e3fd b439 0e87 6739 3542 c4ba 08df b7ba
00000130: 101a 423b ce18 56bb e325 7e3b f551 8bbb
00000140: 6972 0c3b 17bf c63a 875e adbb 1d43 afba
00000150: 8a58 4f3a 340b 72bb 4bd2 44ba 3f5c 50ba
00000160: 0449 23ba 2e77 b5ba fd34 ce3b 7760 303a
00000170: 7f2f bab9 4a71 39bb 8bbf 4abb 83f1 223b
00000180: 6bb7 8d3b 045b a039 a828 173a e5f9 bc3a
00000190: 6f57 c83a b475 ffba 2f8b c83b 5877 183b
000001a0: 68b8 b63a 4d4f 69b9 1bb2 793b cde8 3d3b
000001b0: 5ccb 94bb 2797 02ba c38b 32ba 97af 9dbb
000001c0: eae4 b4ba 99fc 98bb 67c4 ce3b 77c5 143b
000001d0: 62bc 88bb 79ed a1bb 4933 40ba 045c 333a
000001e0: 1013 36bb 8da2 10bb 447e 883b 10d7 b2bb
000001f0: e8da 3ebb 2705 7b37 45c6 333b 2c65 99bb
00000200: 0b68 5c3a 8656 2d3b f1b6 ad39 e2f5 4b39
00000210: 39d5 ef3b 70a3 ebb9 a29a 993b bb4b 15bc
00000220: 8b63 b6ba 8e75 c13b ddae 813b cd93 313b
00000230: baf4 363a 4cd8 803b aad4 1c3a c858 a0bb
00000240: 5d4d b33b 7f78 5b3b 2ed6 ad38 af00 28bf
00000250: 15a0 28be ebb4 67be ff00 df3e 4d59 63be
00000260: b33d 86be b1e6 5abe b9f4 f3bd fdc5 d83c
00000270: 5998 dd3d 5fbb 9cbe 65b1 4c3e 19e8 2f3d
00000280: 98a8 bcbb 4521 61be 9f9e c4bd d767 2bbd
00000290: 3a2e a23e 91ce 0b3e 3f72 533e 082c fd3d
000002a0: e04a 6dba 345e 50bb dee1 8abb 721a 843b
000002b0: 87ee 3c38 3ef3 9e3a 1940 053b 11ff 7b3b
000002c0: 25fe 953b 6b07 a0bb c082 2cbb f5bf 6c3b
000002d0: cd7e bc3b 13b2 dbb9 d80e c1ba bc36 373b
000002e0: e97e 183b e429 a2bb f3f2 973b c5dc 593b
000002f0: 010e 41b9 6d67 09bf 1c62 dd3e 5077 9e3e
00000300: a2cc a83e 91d8 c53e 9458 40bc 450a 89be
00000310: ea48 fabe 2195 793e f597 0bbf 00e4 9b3e
00000320: 8273 403e 9062 95ba 5233 05be a3e4 0bbe
00000330: 2df4 a5be bd1b 163e 460e 54bd 2407 723e
00000340: cdc6 843e 1bcd d1bc b055 cebc 2e13 253c
00000350: 015e e23c 2fc0 4dbe 937b 813d 7c04 3abe
00000360: db0b 193e fb7b 22be 1b5e 3cbe c547 2a3d
00000370: 05bf cebd d9e9 c5bd dc29 c53d 24f2 273e
00000380: b60c e13d 58cc 4c3d 8734 4dbd f227 8c3e
00000390: 3d95 903d f2f1 973c 7595 dcbc 829c f7b9
000003a0: 5e19 77bb 6041 48bb c39f 8e3b 6b09 9439
000003b0: 412d a93a c990 483b 86ef 093b 6da8 903b
000003c0: 7020 abbb 377e 10bb ed8f 7e3b 5f55 9c3b
000003d0: 5e83 aab7 cb63 8cba 6dd6 103b 82bc 213b
000003e0: 0c07 8abb 4a86 a03b a59b 393b ee08 3a37
000003f0: 2d9c bebe b929 30bd 84ce e5be 94e7 11bd
-0.04207193 -0.058648422 0.6565864 -0.20253275 -0.17417084 0.18015604 -0.38903263 0.4054484
-0.3018421 0.079866484 0.16311106 0.2330782 -0.3430973 -0.07656499 0.19219585 0.040407848
0.013160995 -0.15293138 -0.051182933 -0.008563768 0.17992686 -0.115368426 0.14208114 0.012565775
0.44633603 -0.07326102 -0.0017793835 0.06341266 -0.09404949 0.14271358 0.32658938 -0.037253737
-0.34383798 -0.25165713 -0.08529057 0.20894028 0.15641853 0.1796415 0.13929528 -0.061381944
0.51548153 0.05494867 0.0005152555 0.0033475878 0.0038057212 -0.003470566 0.00022838995 -0.0015099024
-0.0016614776 -0.0037179193 -0.0041303267 0.0048641963 0.0027498167 -0.0034023605 -0.005301106 0.00011810227
0.000983062 -0.002314451 -0.0026120828 0.004202746 -0.004159586 -0.0032769975 0.0002057803 0.0014158777
0.0010458027 0.0021712384 -0.0010576396 0.0028482517 -0.005096715 0.0068213204 -0.0055229347 0.005396094
0.00034521436 0.00022080189 -0.0014973345 -0.001402826 0.0029617585 -0.0032668593 0.0038779906 -0.0042517134
0.0021430498 0.001516315 -0.0052908096 -0.0013371442 0.00079096167 -0.0036932947 -0.0007508143 -0.0007948316
-0.0006228837 -0.0013844722 0.006292938 0.00067282416 -0.00035512072 -0.0028296285 -0.0030936922 0.002486319
0.0043248436 0.0003058539 0.0005766251 0.0014417736 0.0015284846 -0.0019490034 0.0061201076 0.0023264494
0.0013940455 -0.00022250153 0.0038100544 0.0028977871 -0.004540844 -0.000498163 -0.0006810987 -0.0048121917
-0.0013801132 -0.004668784 0.006310034 0.0022700706 -0.0041728476 -0.004941639 -0.0007331861 0.00068420195
-0.0027782358 -0.0022069544 0.0041654427 -0.0054577664 -0.0029122178 1.49619655e-05 0.002743141 -0.00468125
0.00084078376 0.0026449277 0.00033133433 0.00019451187 0.0073191193 -0.00044944463 0.004687623 -0.009112294
-0.0013915164 0.005903906 0.003957613 0.0027096153 0.0006979216 0.0039320346 0.0005982617 -0.004893396
0.005471869 0.003348857 8.289177e-05 -0.65626043 -0.16467316 -0.22627608 0.43555447 -0.22202034
-0.26218948 -0.21377064 -0.119119115 0.026461596 0.10820074 -0.30611703 0.19989546 0.042945955
-0.0057574026 -0.21985348 -0.09600567 -0.041847076 0.31675893 0.13653018 0.2064905 0.12361914
-0.000905199 -0.003179443 -0.0042383512 0.004031473 4.504484e-05 0.0012126935 0.0020332395 0.0038451592
0.0045774155 -0.004883697 -0.002632305 0.0036125157 0.0057524205 -0.0004190361 -0.0014729155 0.0027956208
0.0023269004 -0.0049488414 0.004637116 0.003324316 -0.00018411131 -0.5367344 0.43238914 0.30950403
0.32968622 0.3864179 -0.011739869 -0.26765648 -0.48883754 0.24373294 -0.54528743 0.30447388
0.18794063 -0.0011397172 -0.13007858 -0.13661437 -0.32412854 0.14659019 -0.051771425 0.23635536
0.25932923 -0.025610497 -0.025187343 0.010075374 0.027632715 -0.20092843 0.06322398 -0.18165773
0.14945929 -0.15867607 -0.18395273 0.04157235 -0.10095028 -0.096637435 0.09627125 0.16400963
0.109887525 0.049999565 -0.050098922 0.27374226 0.07059715 0.018547986 -0.026926735 -0.0004722812
-0.003770433 -0.0030556545 0.004352541 0.00028235777 0.0012907163 0.0030603877 0.0021047308 0.004414609
-0.0052223727 -0.0022047886 0.003884311 0.004770919 -2.0326752e-05 -0.0010710893 0.0022100464 0.002467901
-0.004212266 0.004898821 0.002832153 1.1088543e-05 -0.37228528 -0.04300854 -0.4488412 -0.03562124

prop_layer._reverse_message_net.0.bias f4 [20]
00000000: 3eea 253e 818e 713d 0fc4 5739 0f8f b0ba
00000010: 52b6 b63a 1ba2 7937 4ce4 ad38 8e6b 143e
00000020: ec0c 41b9 e4d5 e53c b835 ecbc 27d5 3937
00000030: 0971 9c3d 5a06 feb9 6f6d 3c3e 978c 0fbe
00000040: 9a1a 133c ad93 9eb9 bd38 b23d adc3 653e
0.16202638 0.058973793 0.00020577035 -0.0013470369 0.0013939834 1.48793e-05 8.2918064e-05 0.14494154
-0.00018410728 0.028056093 -0.028834209 1.1076488e-05 0.07638747 -0.00048451388 0.1840112 -0.14018475
0.00897851 -0.00030246135 0.08702228 0.22437926

prop_layer.GRU.weight_ih_l0 f4 [30, 30]
00000000: 4672 eebd 7610 9e3e fd07 8e3b 8b0d dc3b
00000010: 622d 773b 0006 ea3a 1c6e a53a ac45 dbbb
00000020: ecf4 81bb fdab 453b 3efa ae3c 4934 3ebb
00000030: 95bb 873d 648a e33b c46e 61bc 4bf7 cdbd
00000040: 83b7 18bb 8622 b93b 2bdc da3d 9b15 003e
00000050: 080c 44bd c12b febd c3a5 b8bd 8e4c 9a3d
00000060: 625f df3c d527 fc3d 4e25 51bc 206f cdbd
00000070: 8022 2dbd f0e8 e93d b2aa 0a3e 59c9 e1bc
00000080: c65a fb3a 0155 233b 6de0 4aba b5e0 043a
00000090: 3e0c aa3a 55cb 6c3d fc9c f8ba 893c 073e
000000a0: 6433 1ebc 5b24 73ba d3c3 39be 6142 c73a
000000b0: dd07 4abd b193 9f3c fbe0 a33c 4726 193b
000000c0: 4f83 053d 00a0 6c3e 7ff7 ddbc 7393 d43c
000000d0: 60f0 3b3d a46c 7c3d 6ddd 5d3c f544 07bd
000000e0: 3ca7 2dbe 9e0e a0bc 616a fd3c 1d19 273b
000000f0: 8379 78be ff99 b43d 4758 5ebb e20a 45ba
00000100: f390 d83a 17a1 48bb ab98 643b 8406 f73d
00000110: 9e66 5d3b bb56 b6bd 7490 213c c380 393b
00000120: 4cf9 eabb 51ec c43a 5189 d7be 76ce 02be
00000130: 7abe 89bd 94c0 4cba 5453 7e3e b368 3f3e
00000140: 4e69 e7bd c438 abbc 87a1 8abb 5f99 4dbd
00000150: 45f1 6abd 8f9c 0a3e 53fe 243e 9c77 c23b
00000160: 7e68 913d 2942 bbbd a2ef 6b3c 6289 283e
00000170: 4ab8 3839 eec6 0e3a aaa0 d0b9 dd76 b9b8
00000180: a1f9 8039 c63e 36be a72d 6239 6b27 103b
00000190: fdee e23b 45e7 6ab9 5fbe b93d 52bb ee39
000001a0: fb05 b2bd 46ac 0dbe 38ca 0a3d 64f4 07b9
000001b0: c364 873d c471 183e e8f4 03bb 4d05 1fbd
000001c0: bed3 70bd 5204 93bd aa08 6a3d 0174 42bd
000001d0: e773 823d 0f82 d73c ca71 4b3d 06e5 97bd
000001e0: 96d9 40be 18e3 463e 6891 653b 86bf 33ba
000001f0: 2d4a e8ba 6502 a13b d3d3 9fbb c001 5a3d
00000200: dcc8 83bb 62f1 223e 0ca8 773d 6578 83bb
00000210: 4822 82bd 5e13 05bb 855e bebd b445 683d
00000220: 0c1f 963d b7b9 503a 736b 173e f5f8 21bd
00000230: e469 07be 40dd 533c 2194 53bc ecd2 933b
00000240: 1510 b7bc 99c7 523d 8ba4 1e38 1ff5 99bd
00000250: 78f3 b43d a4bc 5e3d a647 503e 938d 5d3e
00000260: 3171 4c3c f19c a73b 0211 00bc 4a20 643c
00000270: 98ce 3dbc f821 2ebe 5780 5fbc efe6 68be
00000280: e674 243e d228 59bc f000 04be 8b77 12b9
00000290: f7c4 b7bc d5ed 8ebe 8f29 1b3e 122a b03b
000002a0: 9430 893e dfe9 27be 510a 20be 5bc8 2dbe
000002b0: e0fe f8bd d0c3 a6bc aa54 2bbd c880 2abe
000002c0: 9b01 943e 1d6b 4d3b d52d 133e 8dac 293e
000002d0: 2796 803e 83a0 c7be ac90 48bb 3f19 1cbb
000002e0: dce2 993b 81ec 5dbb 2179 833b e3db a9be
000002f0: c329 273b acc4 16bc c5a4 f03b 1fcc 413b
00000300: abd3 31be 745d 8ebb 2b13 a2be 1326 22be
00000310: cb5d b4bc 764f 9dbb 607b c13d a89b 28be
00000320: 8576 133e a9f9 8b3d d6bd d63d 94f6 35be
00000330: e65c eebd a446 28bd 0891 f03d 2f0f 833e
00000340: 8423 3dbd f005 893b 3064 8bbd 9eea 393e
00000350: e685 b53b af39 e73b 661a 7f3a aa13 9f3b
00000360: 40ad 12bb fe2d 133d 187d b4bb 0957 263e
00000370: 3cd7 833d d454 a6bb 2912 2fbd f2df ee3b
00000380: 01b0 a03c b9af ddbd c283 f23d 3448 e43b
00000390: f5c2 023e 10eb 27be 9ec7 2c3d 49f0 b93d
000003a0: cbdc dc3d b445 28bc 4ebd a83c 8f40 6dbd
000003b0: a2a5 453d c768 253d 4143 fe3c f417 d33c
000003c0: 67bf 86be 73dc 043d 6827 c7bb 55c3 aa3a
000003d0: 3cd8 f63a cfd3 aabb b1b5 1fbb 54c0 0d3e
000003e0: 0912 dd3b 942a 723e 88f5 aebc 34fb ad3b
000003f0: e760 b03c a886 403b 9ef5 69bd 8ca9 5b3d
-0.1164289 0.30871934 0.0043344484 0.0067154816 0.003771626 0.0017854571 0.0012621316 -0.006691655
-0.0039659645 0.0030162327 0.02135956 -0.0029022864 0.06627575 0.0069439877 -0.013759319 -0.10056933
-0.002330274 0.0056498675 0.10686525 0.12508242 -0.047863036 -0.12410689 -0.090159915 0.07534133
0.027267162 0.12312285 -0.012765242 -0.10030961 -0.04226923 0.114213824 0.13541678 -0.02756183
0.0019176833 0.0024922492 -0.00077391305 0.00050688843 0.0012973619 0.0578111 -0.0018967683 0.13206686
-0.009655807 -0.0009275132 -0.18141107 0.0015202278 -0.049323905 0.019479604 0.02000474 0.0023368762
0.03259593 0.2310791 -0.027095554 0.025949216 0.045883536 0.061627045 0.013541562 -0.033024747
-0.16958326 -0.01953822 0.030934514 0.0025497146 -0.24265103 0.08818435 -0.003392713 -0.0007516575
0.001652269 -0.0030613595 0.0034881036 0.1206179 0.0033783088 -0.08903261 0.0098611 0.0028305508
-0.007170832 0.0015024041 -0.42096952 -0.12774071 -0.06725784 -0.0007810679 0.24836475 0.18692283
-0.11299382 -0.020901091 -0.0042306813 -0.050195094 -0.057359 0.13536285 0.16112642 0.0059346687
0.071000084 -0.091434784 0.014400395 0.16458657 0.0001761626 0.0005446513 -0.00039792556 -8.8436274e-05
0.0002460005 -0.17797384 0.00021570046 0.0021996151 0.0069254623 -0.00022402134 0.090695135 0.00045534462
-0.08692547 -0.13835248 0.033884257 -0.00012965646 0.06611016 0.14887148 -0.002013499 -0.038823415
-0.058795683 -0.071785584 0.05713717 -0.04747391 0.06369763 0.026307134 0.049669065 -0.0741673
-0.18833002 0.19422567 0.0035029296 -0.00068568473 -0.0017722301 0.0049136155 -0.0048775463 0.053224325
-0.004021747 0.15912393 0.060462996 -0.004012155 -0.06354195 -0.0020305733 -0.09295372 0.0567071
0.073301405 0.0007962244 0.14787082 -0.039544065 -0.13223988 0.012931168 -0.012913735 0.004511228
-0.022346536 0.051459882 3.7823378e-05 -0.07517456 0.088355005 0.05437912 0.20339832 0.21636038
0.012478159 0.0051151444 -0.007816555 0.013923714 -0.0115849 -0.17005146 -0.013641438 -0.22744344
0.16060218 -0.013254361 -0.12890983 -0.00013968178 -0.022432787 -0.27915826 0.15152572 0.005376109
0.26794875 -0.16397808 -0.15628935 -0.16970961 -0.121579885 -0.020357043 -0.04182879 -0.16650689
0.28907475 0.0031344362 0.14372952 0.16569729 0.25114557 -0.38989648 -0.003060381 -0.0023818759
0.004696233 -0.003386289 0.0040122424 -0.33175573 0.002550707 -0.009202164 0.007343861 0.0029571129
-0.17365901 -0.0043446366 -0.3165525 -0.15834837 -0.02201738 -0.0048007322 0.0944736 -0.16465628
0.1440068 0.06834728 0.10485427 -0.17769843 -0.11638813 -0.041082993 0.117464125 0.25597522
-0.04617645 0.004181616 -0.068062186 0.18155906 0.0055396436 0.007056437 0.00097314117 0.004854639
-0.0022381097 0.035932533 -0.0055080764 0.16244139 0.06437537 -0.0050760303 -0.04274193 0.00728988
0.019615175 -0.10824532 0.11841537 0.006966615 0.12769683 -0.16398263 0.042182557 0.09079034
0.107843004 -0.010270525 0.02059808 -0.057922896 0.048253663 0.040383127 0.031037929 0.025768258
-0.26317903 0.0324368 -0.0060776956 0.0013028184 0.0018832753 -0.005213238 -0.002436977 0.13842899
0.0067465347 0.23649055 -0.021357313 0.0053094868 0.021530582 0.0029377136 -0.057119004 0.05362849

prop_layer.GRU.weight_hh_l0 f4 [30, 10]
00000000: 514d a2bc 5346 f6bd 9e78 69bd 1ab0 953d
00000010: cca3 663d 9a77 cd3d 499a 4dbc bca3 e0bc
00000020: fc80 86bc 2f2b 103d 955e cdbc cfce 29bd
00000030: 74c1 a93b 73dd 603d 6be9 643d 7ca0 d0b9
00000040: d55e 12be 8281 833b 83ed 853d b86c 09bd
00000050: 56d2 8abe 5497 88bd cf76 16be 4abb 69bc
00000060: 0dd6 013c e18d 0a3e 8602 ed3d 4229 81bd
00000070: 26b5 c13d e33d 40bd 730a ae3c 4466 9bbd
00000080: 1e33 1fbd 506a f0bc d688 b93d 985c b93d
00000090: 87bd d73d 5788 97bb 3151 b63c aa22 0bbd
000000a0: 0e1b c0bd 4a73 8abd c63f d13c 88a1 07bd
000000b0: ef15 fd3c 7f9d bd3d 209d a73d 630b 7cbc
000000c0: 7ce7 e93d aa7e 54bb 8cb4 49bc b678 3cbe
000000d0: 422b bf3c 1671 60bd 4775 8e3c 93c8 bb3c
000000e0: 8291 673d a921 a43d 0185 cebd bfd4 b73d
000000f0: 2d55 09bd 9013 dbbc e984 0d3b c9d7 0fbe
00000100: e12d 25be e2b0 4ebd cbd1 d23c a301 3b3e
00000110: 9194 6dbc 2092 abbd 1082 903c 5a27 55bd
00000120: 5612 883d 7758 24bb 253a 1a3d bef2 9d3d
00000130: 0319 0c3d 0208 913d 736a 873c 9674 68bd
00000140: 1a41 03be 51bd 73bd 2b2f 6cbc bb6b 72bd
00000150: 965d 8ebd f5c9 b7bc 1fdd d83d 27fc 853c
00000160: 4e6f b53d f290 603c e9aa 023e 1bf8 063e
00000170: 672b b03b c555 683b f1d8 fa3d 7c33 fe3b
00000180: d020 133d 07ca 9e3c 822b c0bd 6540 d43c
00000190: 7842 713e 7436 80bd 01d2 53bc 3546 99be
000001a0: 5315 40be afc7 253e 4585 913e 2765 ecbc
000001b0: e80d 7e3c 3946 753e 0b37 dd3d 01f1 e1bd
000001c0: 1cd5 03be bf1e afbc ed3d 4abd 4d7b 35bb
000001d0: 73da d43d 56e0 6a3d ee65 1d3e e52b 3e3e
000001e0: 076f b2bd 1c46 7bbc 816f 08be 6f8d 953c
000001f0: 232b 4f3d 0e2d 4b3e 15fc ccbd 9ffc ebbd
00000200: d401 84be 679c 263d 88f3 933d 72f8 8a3d
00000210: b1c9 693d 6329 73be 42fb 133d f36a d93d
00000220: 311d 603d 8971 85bd fb46 9b3d e906 34be
00000230: 5e95 74be 1136 69bb 1ecd 4f3d bd2a cebd
00000240: 12e5 58be a960 f9bd 109d bd3d e40e 5ebd
00000250: 000a 57bb ca75 fd3a cec4 f93d aa8a a5bc
00000260: 1687 b83c c91f cfbd b97f 643c 9da7 cf3d
00000270: 9e01 53bd ca24 8ebc b9e7 a73d d5e9 163e
00000280: 4317 e13c e5d7 1ebe 312e 24be 9abd 2dbe
00000290: 5aeb 87bd 1087 1e3e c505 903e 6d5c 3cbe
000002a0: c935 46be 8f7d f4bd b97e 213d 726b 2d3e
000002b0: 7bf8 c33d 9c24 4ebd 1a5c 34be d5fb 773d
000002c0: ef85 bfbc 7b37 813d 0fed 443e e7c9 19bd
000002d0: 8993 1d3e c22f c7bc e1b3 4dbc fe9c e3bd
000002e0: fe9e 83bc 2584 673e d5d2 e23c 2972 07be
000002f0: c639 e2bd 84ba 093e af46 453e 97ae 863b
00000300: 4e6e 013e 8a15 b03b eef5 393d 36ae 3f3d
00000310: b0e1 a83d 2f0b 9b3d 8007 a83e 0e89 5c3e
00000320: f214 5e3e e9cd 83bd b682 f7bd 30bb f63e
00000330: 1003 343e 5f7a 8bbe 2df8 41be 55ba 7e3d
00000340: 0c4d a43e 697b 4ebd 39cc e2bd 8c85 453e
00000350: 7e28 c3bd a157 a23e 1628 103e ddb2 5b3e
00000360: 57ed 3a3e 7362 c4be 4f44 60be 0814 3a3c
00000370: 5991 afbc e056 073f 5fac 2b3e c0fb c4be
00000380: 9b5e c7be ceb2 99be 11b0 04bb 0100 543e
00000390: 1e43 983d 5cf2 84be 8a45 05bd 0ff4 d83e
000003a0: 31da 103e de9b 1d3e 34e8 58bc 761b 34be
000003b0: 42c5 a8be b33f 3abd 94e1 4fbe 9dfa 70ba
000003c0: 299b 723e ae71 093e c535 34bd 4f11 463e
000003d0: b0c1 78be 007b 1ebe 3543 d23d d17d a73d
000003e0: f3bb 163e b375 d63e aa71 dcbe 65ef 20bf
000003f0: 946c d5be c507 68be 53b6 3abe ea8c b93d
-0.019812258 -0.12025132 -0.056999795 0.07308979 0.056308553 0.10032578 -0.0125489915 -0.027421825
-0.016418926 0.035197433 -0.025069514 -0.041456994 0.005180532 0.05489869 0.055886667 -0.00039792422
-0.14293988 0.0040132413 0.065394424 -0.033550948 -0.271136 -0.066694885 -0.1469376 -0.014265845
0.007924569 0.13530685 0.11572747 -0.063066974 0.094583794 -0.04693402 0.021245217 -0.07587865
-0.03886711 -0.029347569 0.090593025 0.09050864 0.10534196 -0.0046244073 0.022255512 -0.033968605
-0.0938016 -0.06760271 0.025543105 -0.033113033 0.030894248 0.092585556 0.08184266 -0.015383574
0.11421105 -0.003242413 -0.012311112 -0.18405423 0.023336057 -0.054795347 0.017389907 0.02292279
0.05653525 0.08014233 -0.10083962 0.08976125 -0.033528496 -0.026742727 0.0021594113 -0.14047159
-0.16130783 -0.050461657 0.025734803 0.18262343 -0.014500753 -0.083774805 0.017640144 -0.05203948
0.06644122 -0.0025077143 0.037653107 0.07712315 0.03420354 0.070816055 0.016530251 -0.05675181
-0.12817803 -0.059506718 -0.014415543 -0.05918477 -0.06951444 -0.022435168 0.105890505 0.016355587
0.0885912 0.013706433 0.1276051 0.13180582 0.0053762677 0.0035451513 0.122484095 0.0077576023
0.035919964 0.019383444 -0.093832985 0.025909612 0.23560512 -0.06260386 -0.012928487 -0.29936376
-0.18758135 0.16189454 0.2842199 -0.028856827 0.015506245 0.23952569 0.10801514 -0.11032296
-0.12874264 -0.021376966 -0.049375463 -0.0027691901 0.103932284 0.05734285 0.15370914 0.18571432
-0.08712583 -0.01533654 -0.13323785 0.018255917 0.050578248 0.19841406 -0.10009018 -0.11522793
-0.25782645 0.0406765 0.07224184 0.067856684 0.057077114 -0.23746257 0.03612829 0.10616102
0.05471534 -0.06515796 0.07581898 -0.17580761 -0.23885104 -0.0035585205 0.050732724 -0.100667454
-0.21181133 -0.121766396 0.09258473 -0.05421342 -0.0032812357 0.0019337472 0.12195741 -0.020207722
0.022525351 -0.101134844 0.013946467 0.101393916 -0.051515214 -0.017351527 0.081984945 0.14737637
0.027476912 -0.15512045 -0.16033246 -0.16966859 -0.066366866 0.1548121 0.28129402 -0.18394633
-0.19356455 -0.11938011 0.039427493 0.16935518 0.09568878 -0.050327882 -0.17613259 0.0605429
-0.023379294 0.0630941 0.19231056 -0.037546065 0.15388311 -0.024314765 -0.0125550935 -0.11113928
-0.016067024 0.22609003 0.027688423 -0.13227142 -0.11046176 0.13450056 0.19265245 0.004110168
0.12639734 0.0053736614 0.045400552 0.046797 0.082461715 0.075704925 0.32818222 0.21536657
0.21687678 -0.064357586 -0.12085478 0.48189688 0.17579293 -0.272418 -0.18942328 0.06218942
0.32090032 -0.05041066 -0.11074109 0.19289225 -0.09529208 0.3170748 0.14077792 0.2145495
0.182546 -0.3835636 -0.21901058 0.011357315 -0.021431612 0.52866936 0.16764973 -0.3847332
-0.38939366 -0.3001923 -0.0020246545 0.20703126 0.074346766 -0.25966156 -0.03253702 0.42373702
0.14145733 0.1539149 -0.013238955 -0.175886 -0.32962996 -0.045470905 -0.20300895 -0.0009192618
0.23692001 0.13422272 -0.04399659 0.1934254 -0.24292636 -0.15476608 0.10266725 0.081782945
0.14720134 0.41886672 -0.4305547 -0.6286529 -0.416844 -0.22659214 -0.18233614 0.0906008

prop_layer.GRU.bias_ih_l0 f4 [30]
00000000: 6ff9 7e3d 3d9f 703d 9a79 07bc 1bc5 643d
00000010: 7239 ec3c 903c 2f3e 64e8 2e3e 358b cf3d
00000020: ba5a c83d 3a37 96bc 411d 7abe 6f17 43be
00000030: dd9e 99be 7444 4ebd 6075 0ebe 4dae 90bd
00000040: 3104 1f3e 9618 663d 3c16 4cbe 555c a0bc
00000050: bd8a 023c 1e9a 99be 787f a23d b080 1dbe
00000060: 9165 983c d8a6 033f 8eee 5fbe 4ee7 a03e
00000070: 6575 12be 70f3 0cbe
0.062249597 0.05874561 -0.008268738 0.055852037 0.028835986 0.17112947 0.17080837 0.101339735
0.0978293 -0.018336881 -0.24425222 -0.19051908 -0.30004016 -0.05035825 -0.13911963 -0.07064495
0.15528943 0.05617579 -0.19930357 -0.019575277 0.007967648 -0.30000395 0.07934469 -0.15381122
0.018603118 0.5142646 -0.21868345 0.3142647 -0.14302595 -0.13764739

prop_layer.GRU.bias_hh_l0 f4 [30]
00000000: 6ff9 7e3d 3d9f 703d 9a79 07bc 1bc5 643d
00000010: 7239 ec3c 903c 2f3e 64e8 2e3e 358b cf3d
00000020: ba5a c83d 3a37 96bc ea31 7abe 4b08 43be
00000030: d197 99be e92e 53bd e175 0ebe a3cc 90bd
00000040: 8ba2 1f3e 92b3 663d 3c16 4cbe 0390 a0bc
00000050: 3b3e 6f3d 1047 05be 3b32 30bd a6df dcbc
00000060: 3719 bebc e957 9f3e da7e ab3b 1690 e53d
00000070: de63 c5bd c115 37be
0.062249597 0.05874561 -0.008268738 0.055852037 0.028835986 0.17112947 0.17080837 0.101339735
0.0978293 -0.018336881 -0.24433103 -0.19046132 -0.2999864 -0.05155841 -0.13912155 -0.07070281
0.15589349 0.056323595 -0.19930357 -0.01959992 0.058408957 -0.1301539 -0.043016654 -0.026962113
-0.023205383 0.31121758 0.0052336277 0.11209123 -0.09638189 -0.17879392

scoring_alignment_preprocessor.0.weight f4 [16, 10]
00000000: d81a bc96 cce1 ef9f 0b31 0680 b790 05ab
00000010: 13ae 8486 5dec e0ac 4f80 6c96 a2f1 39a9
00000020: f5d2 fba1 a4ba ea19 c795 72be bcd7 eb3d
00000030: 2b4f ca3d cb43 a63b ff14 8b3e c017 37be
00000040: 36b0 023e 5590 3abe 3fca 75be 0fb3 b73c
00000050: 67c8 8d3e 6bc3 c93e a619 813e 1765 ca3e
00000060: be0c 903d 79a7 41be 15e2 a2be 8b86 2c3d
00000070: 9315 f7be 01ab 283e 1dcd 123c 1878 bbbe
00000080: ebf4 af3e ff9d 063e 9f8f 833e ab9d 87be
00000090: 2115 993e dd53 b03c 4ae2 6d3e cd8f 173d
000000a0: 2696 6f3e 5e47 d83d fa72 35be 04a4 c43d
000000b0: 7dac 6c3d cb53 46bd 7a11 78bc 297d 8c3e
000000c0: fe06 013f ca02 1fbb b8df ea3e 1c00 2cbe
000000d0: f825 c7be 9a60 a03e 5e21 d43e 634e c53e
000000e0: d3d6 d33d cbb3 8bbe 1ff4 c3be 0d93 a3be
000000f0: 3c9d 9cbe f4be ee3e 14d9 b43d a4a3 8cbe
00000100: e32f 9bbe b7b4 e0be d6c8 1ebd 4254 2a3e
00000110: bab2 9d3e 8685 543e 973d 73bd 46e9 8fbd
00000120: 71f0 d23e 57ee 253e 6244 863e 4707 38bd
00000130: bc7e bc3d 3635 00be 7bf6 88be d51d 87bd
00000140: 1965 c73c 09fe 8abd a949 c0be 4fd1 373d
00000150: ef39 e3bd 0281 be3e 3b7a 81be 4546 4dbe
00000160: b656 a83e 15e2 753e 4784 133f 743c 8cbd
00000170: 0275 8b3e d791 523e 2fe5 aa3e 9ece a83d
00000180: 2a28 9cbe 6e3d a43e bf49 b43b ab31 78bc
00000190: 6201 3e3e 72b7 c53d 02cb 4ebe 04e7 14bd
000001a0: f305 b4bd f1c1 8c3e e734 b9be f0ef 2a3e
000001b0: 3c49 bebe c12a 2ebe a776 dbbd ebe8 c0be
000001c0: 1edd bc3e 57b9 09be 6186 94bc ec0e 9b3d
000001d0: 7d6d 263e bee0 723d b9c6 babe ef0d 1ebe
000001e0: 1476 01be 2ed2 f93e f074 ecbd 6abb 243d
000001f0: 3d4c 1b3e 4632 793b 10b7 c13e 6626 c3be
00000200: 8dbe 023e ed25 bf3e b838 90be 5617 14be
00000210: 2415 c03d 6020 dfbd cc69 09bf ce59 cabd
00000220: 81c8 913e 71b1 8bbc 9678 053f 214b aa3e
00000230: 9fbd 173e fdcc 95bc 9d28 10bd e3c7 2f3f
00000240: af14 663c af86 b5be c8a5 18be d79f 8abe
00000250: 8732 c93d a2df c23e db84 ff3d 29b5 f93e
00000260: 57a9 bd3d d584 123d 9d69 c43e 153f a8be
00000270: f5e9 f93c faba 4d3e 9252 89bc fd73 e83e
-3.038998e-25 -1.0159399e-19 -5.68606e-40 -4.7451924e-13 -4.990866e-35 -6.3927045e-12 -1.9104415e-25 -4.1287835e-14
-1.7064261e-18 2.4270416e-23 -0.23689948 0.115157574 0.09878381 0.0050739995 0.27164456 -0.17880154
0.12762532 -0.18219121 -0.24002932 0.022424249 0.27691957 0.39406905 0.2521488 0.3953025
0.070336804 -0.18911542 -0.31813112 0.042120498 -0.48258647 0.16471483 0.008960036 -0.36615062
0.34366545 0.13146208 0.25695512 -0.2648748 0.29898933 0.021524364 0.23230854 0.037002373
0.23397121 0.10560487 -0.17719641 0.09601596 0.057781685 -0.048419755 -0.0151408855 0.2743924
0.50401294 -0.0024263137 0.4587381 -0.16796917 -0.38896155 0.313237 0.41431707 0.38536367
0.10343709 -0.2728561 -0.38272187 -0.31948128 -0.3058871 0.4663006 0.08830467 -0.27468598
-0.30309972 -0.43887874 -0.03876575 0.16633704 0.3080042 0.2075406 -0.05938491 -0.07026915
0.41199067 0.162042 0.26224047 -0.044928815 0.0920386 -0.12520298 -0.2675055 -0.06597487
0.0243402 -0.067867346 -0.37556198 0.044877347 -0.11095034 0.372078 -0.25288567 -0.20046337
0.32878655 0.24012025 0.57623714 -0.06847468 0.27237707 0.20563446 0.33377978 0.08242534
-0.30499393 0.32078117 0.0055019553 -0.0151485605 0.18555215 0.0965413 -0.20194629 -0.036353126
-0.08790197 0.27491716 -0.36173174 0.16693091 -0.37165248 -0.17008497 -0.107159905 -0.37677702
0.3688745 -0.13449608 -0.018130483 0.075712055 0.16252704 0.059296362 -0.36479738 -0.15435003
-0.126427 0.48793167 -0.115457416 0.040217794 0.15165801 0.003802435 0.37834978 -0.38115233
0.12768002 0.37333623 -0.28168273 -0.14462027 0.09379032 -0.10894847 -0.5367706 -0.0988041
0.28473285 -0.017052384 0.52137125 0.33260444 0.14818428 -0.018286223 -0.03519498 0.6866438
0.014043017 -0.35454318 -0.1490699 -0.27075073 0.098240905 0.38061243 0.12476512 0.48771027
0.09260815 0.03577121 0.38361827 -0.32860628 0.030507067 0.20090857 -0.016763005 0.45400992

scoring_alignment_preprocessor.0.bias f4 [16]
00000000: 6142 c4b4 9a8a 76bc 19ab d5bd b439 dd3c
00000010: 5f78 8b3d c2c6 973c 0f49 693e 87d5 763e
00000020: 8662 693d f9c7 b9bd a18b f63d e850 4f3c
00000030: 17dd 27bd 0277 723e 22aa d43d c8bb 813e
-3.6556142e-07 -0.015047694 -0.10433025 0.027005054 0.06810068 0.018527392 0.22781776 0.24104892
0.056978725 -0.09071345 0.12038351 0.012653567 -0.040982332 0.2367821 0.10384013 0.25338578

scoring_alignment_preprocessor.2.weight f4 [16, 16]
00000000: 3e1d 0080 d3f7 793a fc58 b2ba 2e94 d3ba
00000010: 7e28 15bb 8a8b 3dbb f8c4 863c b8c4 b83b
00000020: 48db 1fbb 2293 3ebc 72d7 e33a 2c7e 29bb
00000030: 2302 7fbb 2a0b 473c 71fa d3b9 4d3d d1bb
00000040: 474d 37af 6cd7 393e 20c6 e7be 2bee 013f
00000050: d06c 55be be36 0e3e d86e 273f 53ca 3b3e
00000060: b620 bd3d 9e72 05bf 5dd2 c4bb 38c8 bf3e
00000070: 25df 0c3e 9e23 2e3f 5cbc 7dbd d705 a6be
00000080: 5d1b 0000 fe0f 9c3b 8481 ccba 83d7 833a
00000090: 2606 0d3b 2a21 4f3b 810b cb3a 96c2 e639
000000a0: a5c4 dc3b 3ed9 11bc 4600 0f3c 1c1c 9dbb
000000b0: 0d15 db3a a037 013c 3949 993a 29c4 b8ba
000000c0: 7932 1227 19dc a4bd 4adc 803e 6cdb 94bc
000000d0: c463 5dbd fa62 033f 37e9 b8bd b072 61be
000000e0: 9040 8f3e d118 85bd bacf b73d 0cf1 28be
000000f0: bb60 343e 50bc bc3e f79c ca3e 490b e6be
00000100: 0ce7 dd2c 9176 8dbe 3d7f 083e 0a42 2dbe
00000110: 1bc5 f63d 5b87 b03d 323c a1bd e770 8dbe
00000120: f1cb e43d 6adf 8e3e a4d6 c03e 61c0 893e
00000130: abd2 5dbe 13a8 0c3e aaab ebbe 66c7 05bf
00000140: e1fe 800d 29ab 58bc 68b3 e1bd 16b7 823e
00000150: 0c1c 1abd 001b b83e 49cf 3bbd 630d b63c
00000160: 10ba 46bd ad0e 51bd 67ab 5abe e624 a7bd
00000170: c8d3 0c3e b9a0 833e 6c08 9a3d 9be1 a3be
00000180: 4d33 b09f fc92 5dbd 9816 adbe 8327 0bbe
00000190: eda5 8e3e 6a01 08bf 18fc 6b3e a28f 69be
000001a0: 15a4 923e 9fe2 33be 1531 3f3e 14fd 093e
000001b0: 2eee b83d 6af4 15bd bde1 8ebe 372b 433e
000001c0: 611b 0080 8dec 583d 6007 31be 1619 ddbd
000001d0: 88f1 f03d 1a9a f1bc 1675 28be 182c dcbd
000001e0: 3504 353e b365 59bd e734 653c 1aab 24be
000001f0: 1da2 a43e c8b3 34be e34b 4dbe 2e39 e43d
00000200: 952e e899 0432 59be b48b a4be 76fb ab3e
00000210: 0dc6 a33e f897 96be fb7d 41be 340f 82bd
00000220: 337b 83be 3012 933e 0938 a0be 6987 a33d
00000230: f20f b6be f318 51bd 4525 a8bd 8a87 f0bd
00000240: 761b 0000 e88c 983d 4358 d4be e4ce 243e
00000250: 1483 763d 6446 c53e eb09 32be 74b3 f8bc
00000260: fd81 073e 5303 3fbe b5fd 54be b3a2 94be
00000270: eee3 133f 4d14 5c3d 906a 77be 6b43 12be
00000280: aec9 a11e 1412 473e a373 0c3e f7a7 a8bc
00000290: 0dfe a3be 0d37 413e 20f4 e43e e474 3c3e
000002a0: 5443 f43d b979 aabe c239 793e 703c 163e
000002b0: 0b78 e13d 152d 8f3e 38b4 cc3d c7f8 683d
000002c0: 661b 0000 f636 02bc 71c0 fb3a dc6a 25bb
000002d0: 4c6d b0bb 7542 c5bb 15c0 de3b ed9e 4f3b
000002e0: 8ff3 86bc e925 8c3b b3d6 33bc 8ab9 023c
000002f0: 91c6 0fbc 7609 9abb 0bb1 21bb fadb 263a
00000300: 1bff 8e28 df35 f23d d393 4e3e a7fd 2c3d
00000310: 93f3 90be 4a09 793e 9caf ecbd e480 ce3e
00000320: 0988 e7be 10db a53e 4d0f fdbb 6c19 773e
00000330: 6cea fbbd d33e 48be f83e 0abf 151e b5bd
00000340: 141c 0080 ccf8 0bbb 48f0 ed3a 3b98 a53a
00000350: f216 0d3b 3f2a 193b 44fc 6bbc 830a 9cbb
00000360: 382c da39 badb 3a3c 573c 2fbb f08a 523b
00000370: e302 223b e285 5ebc e14e bc39 4156 cd3b
00000380: ba1f 0000 e920 85ba 16d7 bf3a b0dd 94bb
00000390: 136b 7dbb a0a2 a5bb 13ff 743c d567 d23b
000003a0: 982f 97bb c3a0 31bc d789 68ba 2c59 95bb
000003b0: 2d66 aebb 196c 463c ce7f a03a 9516 e2bb
000003c0: bd1b 0080 3f99 49ba f158 25ba 45af 5b3b
000003d0: 7b5e 763b 8146 9d3b 02ca 8abc 6ba2 aabb
000003e0: 5ba4 963b ff61 673c 519a 3eb9 c48b 793b
000003f0: 80f8 b13b ea1e 60bc 0db6 88b9 ebcb 013c
-1.049e-41 0.0009535525 -0.0013606842 -0.0016142183 -0.002275973 -0.0028922283 0.016451344 0.005638685
-0.0024392176 -0.011631759 0.0017382933 -0.0025862558 -0.0038911186 0.012148658 -0.0004043165 -0.0063854815
-1.6671207e-10 0.18148583 -0.45268345 0.5075404 -0.2084229 0.1388807 0.6540351 0.183389
0.09234755 -0.52128017 -0.0060065226 0.37457442 0.13756998 0.680231 -0.06194721 -0.3242633
9.816e-42 0.0047626486 -0.0015602564 0.0010058734 0.0021518557 0.003160546 0.0015491099 0.00044013996
0.006737309 -0.008901892 0.008728093 -0.0047946107 0.0016714648 0.007886797 0.0011694796 -0.0014096546
2.0288931e-15 -0.08049793 0.25168067 -0.018171035 -0.054050222 0.513229 -0.09028857 -0.22016406
0.27978945 -0.06498874 0.089751676 -0.16498202 0.17615025 0.3686242 0.3957288 -0.44930485
6.306849e-12 -0.2762952 0.13329788 -0.16919723 0.12049314 0.08619567 -0.078728095 -0.276252
0.11171711 0.27904826 0.37663758 0.26904586 -0.21662395 0.1373599 -0.46029407 -0.5225738
7.949969e-31 -0.0132244015 -0.11020547 0.25530308 -0.037624404 0.359581 -0.04585198 0.02222318
-0.048517287 -0.051039387 -0.21354447 -0.08161335 0.13752663 0.2570856 0.075211376 -0.3200806
-7.462377e-20 -0.054095253 -0.338063 -0.13589291 0.27860966 -0.5312716 0.23045385 -0.22808698
0.2864081 -0.17566918 0.18671067 0.13475448 0.09029804 -0.036610045 -0.279066 0.19059454
-9.822e-42 0.052959967 -0.1728797 -0.107958004 0.117648184 -0.029492427 -0.16450915 -0.10750598
0.17677386 -0.053075504 0.013989664 -0.16080895 0.32154933 -0.17646706 -0.2004848 0.11143719
-2.4007052e-23 -0.21210486 -0.32137835 0.33590287 0.31987038 -0.29412818 -0.18895714 -0.06350556
-0.2567993 0.28724813 -0.3129275 0.07984812 -0.3555904 -0.051049184 -0.082102336 -0.11744602
9.851e-42 0.07448751 -0.41473588 0.16094548 0.0601836 0.38530266 -0.17386596 -0.030359007
0.1323318 -0.18653612 -0.20799907 -0.2903038 0.5776967 0.053730298 -0.24161744 -0.1428353
1.7129951e-20 0.1944049 0.13715987 -0.020587904 -0.32029763 0.18868656 0.44717503 0.18403965
0.11926904 -0.33295992 0.24338439 0.14671493 0.110092245 0.27964082 0.099953115 0.056877878
9.829e-42 -0.007947674 0.0019207132 -0.0025240695 -0.005384123 -0.006019885 0.0067978003 0.003168042
-0.01647356 0.00427698 -0.010976481 0.007978806 -0.008775369 -0.004700835 -0.0024672176 0.00063651765
1.5875801e-14 0.11826681 0.20173578 0.04223409 -0.28310832 0.2431995 -0.11556932 0.4033271
-0.45220974 0.32393694 -0.0077227713 0.24130791 -0.12300572 -0.19555216 -0.5400233 -0.08843628
-1.0073e-41 -0.0021358011 0.0018153274 0.0012633869 0.002152857 0.0023371128 -0.0144034065 -0.0047619953
0.00041613146 0.011404926 -0.0026738846 0.003212627 0.002472096 -0.013581725 0.00035916924 0.006266386
1.1381e-41 -0.0010156903 0.0014636244 -0.004543029 -0.0038668558 -0.005054787 0.014953393 0.006421069
-0.004613828 -0.010841551 -0.00088706374 -0.0045577493 -0.005322239 0.012110733 0.001224512 -0.0068996646
-9.95e-42 -0.0007690377 -0.0006307504 0.0033521217 0.0037592936 0.0047996645 -0.016942028 -0.00520735
0.0045972294 0.014122485 -0.000181773 0.0038077692 0.005431235 -0.0136792455 -0.0002607558 0.007922153

scoring_alignment_preprocessor.2.bias f4 [16]
00000000: 09c2 21bb 362e 41be e8a2 443a 0af1 42be
00000010: bc74 94bd 76e4 c03c aaa7 143e fe9a 103e
00000020: bcf2 6e3e d89f 453e 23ac a6be 3deb 49bb
00000030: f080 8abd 689a c83a b08c 6eba 8e61 1e3a
-0.0024682304 -0.18865284 0.00075010816 -0.19037262 -0.07248828 0.023546439 0.14517084 0.14121625
0.23334783 0.19299257 -0.32553205 -0.003081038 -0.06762874 0.0015304806 -0.00090999436 0.00060417585

interaction_alignment_preprocessor.0.weight f4 [16, 10]
00000000: d81a bc96 cce1 ef9f 0b31 0680 b790 05ab
00000010: 13ae 8486 5dec e0ac 4f80 6c96 a2f1 39a9
00000020: f5d2 fba1 a4ba ea19 c795 72be bcd7 eb3d
00000030: 2b4f ca3d cb43 a63b ff14 8b3e c017 37be
00000040: 36b0 023e 5590 3abe 3fca 75be 0fb3 b73c
00000050: 67c8 8d3e 6bc3 c93e a619 813e 1765 ca3e
00000060: be0c 903d 79a7 41be 15e2 a2be 8b86 2c3d
00000070: 9315 f7be 01ab 283e 1dcd 123c 1878 bbbe
00000080: ebf4 af3e ff9d 063e 9f8f 833e ab9d 87be
00000090: 2115 993e dd53 b03c 4ae2 6d3e cd8f 173d
000000a0: 2696 6f3e 5e47 d83d fa72 35be 04a4 c43d
000000b0: 7dac 6c3d cb53 46bd 7a11 78bc 297d 8c3e
000000c0: fe06 013f ca02 1fbb b8df ea3e 1c00 2cbe
000000d0: f825 c7be 9a60 a03e 5e21 d43e 634e c53e
000000e0: d3d6 d33d cbb3 8bbe 1ff4 c3be 0d93 a3be
000000f0: 3c9d 9cbe f4be ee3e 14d9 b43d a4a3 8cbe
00000100: e32f 9bbe b7b4 e0be d6c8 1ebd 4254 2a3e
00000110: bab2 9d3e 8685 543e 973d 73bd 46e9 8fbd
00000120: 71f0 d23e 57ee 253e 6244 863e 4707 38bd
00000130: bc7e bc3d 3635 00be 7bf6 88be d51d 87bd
00000140: 1965 c73c 09fe 8abd a949 c0be 4fd1 373d
00000150: ef39 e3bd 0281 be3e 3b7a 81be 4546 4dbe
00000160: b656 a83e 15e2 753e 4784 133f 743c 8cbd
00000170: 0275 8b3e d791 523e 2fe5 aa3e 9ece a83d
00000180: 2a28 9cbe 6e3d a43e bf49 b43b ab31 78bc
00000190: 6201 3e3e 72b7 c53d 02cb 4ebe 04e7 14bd
000001a0: f305 b4bd f1c1 8c3e e734 b9be f0ef 2a3e
000001b0: 3c49 bebe c12a 2ebe a776 dbbd ebe8 c0be
000001c0: 1edd bc3e 57b9 09be 6186 94bc ec0e 9b3d
000001d0: 7d6d 263e bee0 723d b9c6 babe ef0d 1ebe
000001e0: 1476 01be 2ed2 f93e f074 ecbd 6abb 243d
000001f0: 3d4c 1b3e 4632 793b 10b7 c13e 6626 c3be
00000200: 8dbe 023e ed25 bf3e b838 90be 5617 14be
00000210: 2415 c03d 6020 dfbd cc69 09bf ce59 cabd
00000220: 81c8 913e 71b1 8bbc 9678 053f 214b aa3e
00000230: 9fbd 173e fdcc 95bc 9d28 10bd e3c7 2f3f
00000240: af14 663c af86 b5be c8a5 18be d79f 8abe
00000250: 8732 c93d a2df c23e db84 ff3d 29b5 f93e
00000260: 57a9 bd3d d584 123d 9d69 c43e 153f a8be
00000270: f5e9 f93c faba 4d3e 9252 89bc fd73 e83e
-3.038998e-25 -1.0159399e-19 -5.68606e-40 -4.7451924e-13 -4.990866e-35 -6.3927045e-12 -1.9104415e-25 -4.1287835e-14
-1.7064261e-18 2.4270416e-23 -0.23689948 0.115157574 0.09878381 0.0050739995 0.27164456 -0.17880154
0.12762532 -0.18219121 -0.24002932 0.022424249 0.27691957 0.39406905 0.2521488 0.3953025
0.070336804 -0.18911542 -0.31813112 0.042120498 -0.48258647 0.16471483 0.008960036 -0.36615062
0.34366545 0.13146208 0.25695512 -0.2648748 0.29898933 0.021524364 0.23230854 0.037002373
0.23397121 0.10560487 -0.17719641 0.09601596 0.057781685 -0.048419755 -0.0151408855 0.2743924
0.50401294 -0.0024263137 0.4587381 -0.16796917 -0.38896155 0.313237 0.41431707 0.38536367
0.10343709 -0.2728561 -0.38272187 -0.31948128 -0.3058871 0.4663006 0.08830467 -0.27468598
-0.30309972 -0.43887874 -0.03876575 0.16633704 0.3080042 0.2075406 -0.05938491 -0.07026915
0.41199067 0.162042 0.26224047 -0.044928815 0.0920386 -0.12520298 -0.2675055 -0.06597487
0.0243402 -0.067867346 -0.37556198 0.044877347 -0.11095034 0.372078 -0.25288567 -0.20046337
0.32878655 0.24012025 0.57623714 -0.06847468 0.27237707 0.20563446 0.33377978 0.08242534
-0.30499393 0.32078117 0.0055019553 -0.0151485605 0.18555215 0.0965413 -0.20194629 -0.036353126
-0.08790197 0.27491716 -0.36173174 0.16693091 -0.37165248 -0.17008497 -0.107159905 -0.37677702
0.3688745 -0.13449608 -0.018130483 0.075712055 0.16252704 0.059296362 -0.36479738 -0.15435003
-0.126427 0.48793167 -0.115457416 0.040217794 0.15165801 0.003802435 0.37834978 -0.38115233
0.12768002 0.37333623 -0.28168273 -0.14462027 0.09379032 -0.10894847 -0.5367706 -0.0988041
0.28473285 -0.017052384 0.52137125 0.33260444 0.14818428 -0.018286223 -0.03519498 0.6866438
0.014043017 -0.35454318 -0.1490699 -0.27075073 0.098240905 0.38061243 0.12476512 0.48771027
0.09260815 0.03577121 0.38361827 -0.32860628 0.030507067 0.20090857 -0.016763005 0.45400992

interaction_alignment_preprocessor.0.bias f4 [16]
00000000: 6142 c4b4 9a8a 76bc 19ab d5bd b439 dd3c
00000010: 5f78 8b3d c2c6 973c 0f49 693e 87d5 763e
00000020: 8662 693d f9c7 b9bd a18b f63d e850 4f3c
00000030: 17dd 27bd 0277 723e 22aa d43d c8bb 813e
-3.6556142e-07 -0.015047694 -0.10433025 0.027005054 0.06810068 0.018527392 0.22781776 0.24104892
0.056978725 -0.09071345 0.12038351 0.012653567 -0.040982332 0.2367821 0.10384013 0.25338578

interaction_alignment_preprocessor.2.weight f4 [16, 16]
00000000: 3e1d 0080 d3f7 793a fc58 b2ba 2e94 d3ba
00000010: 7e28 15bb 8a8b 3dbb f8c4 863c b8c4 b83b
00000020: 48db 1fbb 2293 3ebc 72d7 e33a 2c7e 29bb
00000030: 2302 7fbb 2a0b 473c 71fa d3b9 4d3d d1bb
00000040: 474d 37af 6cd7 393e 20c6 e7be 2bee 013f
00000050: d06c 55be be36 0e3e d86e 273f 53ca 3b3e
00000060: b620 bd3d 9e72 05bf 5dd2 c4bb 38c8 bf3e
00000070: 25df 0c3e 9e23 2e3f 5cbc 7dbd d705 a6be
00000080: 5d1b 0000 fe0f 9c3b 8481 ccba 83d7 833a
00000090: 2606 0d3b 2a21 4f3b 810b cb3a 96c2 e639
000000a0: a5c4 dc3b 3ed9 11bc 4600 0f3c 1c1c 9dbb
000000b0: 0d15 db3a a037 013c 3949 993a 29c4 b8ba
000000c0: 7932 1227 19dc a4bd 4adc 803e 6cdb 94bc
000000d0: c463 5dbd fa62 033f 37e9 b8bd b072 61be
000000e0: 9040 8f3e d118 85bd bacf b73d 0cf1 28be
000000f0: bb60 343e 50bc bc3e f79c ca3e 490b e6be
00000100: 0ce7 dd2c 9176 8dbe 3d7f 083e 0a42 2dbe
00000110: 1bc5 f63d 5b87 b03d 323c a1bd e770 8dbe
00000120: f1cb e43d 6adf 8e3e a4d6 c03e 61c0 893e
00000130: abd2 5dbe 13a8 0c3e aaab ebbe 66c7 05bf
00000140: e1fe 800d 29ab 58bc 68b3 e1bd 16b7 823e
00000150: 0c1c 1abd 001b b83e 49cf 3bbd 630d b63c
00000160: 10ba 46bd ad0e 51bd 67ab 5abe e624 a7bd
00000170: c8d3 0c3e b9a0 833e 6c08 9a3d 9be1 a3be
00000180: 4d33 b09f fc92 5dbd 9816 adbe 8327 0bbe
00000190: eda5 8e3e 6a01 08bf 18fc 6b3e a28f 69be
000001a0: 15a4 923e 9fe2 33be 1531 3f3e 14fd 093e
000001b0: 2eee b83d 6af4 15bd bde1 8ebe 372b 433e
000001c0: 611b 0080 8dec 583d 6007 31be 1619 ddbd
000001d0: 88f1 f03d 1a9a f1bc 1675 28be 182c dcbd
000001e0: 3504 353e b365 59bd e734 653c 1aab 24be
000001f0: 1da2 a43e c8b3 34be e34b 4dbe 2e39 e43d
00000200: 952e e899 0432 59be b48b a4be 76fb ab3e
00000210: 0dc6 a33e f897 96be fb7d 41be 340f 82bd
00000220: 337b 83be 3012 933e 0938 a0be 6987 a33d
00000230: f20f b6be f318 51bd 4525 a8bd 8a87 f0bd
00000240: 761b 0000 e88c 983d 4358 d4be e4ce 243e
00000250: 1483 763d 6446 c53e eb09 32be 74b3 f8bc
00000260: fd81 073e 5303 3fbe b5fd 54be b3a2 94be
00000270: eee3 133f 4d14 5c3d 906a 77be 6b43 12be
00000280: aec9 a11e 1412 473e a373 0c3e f7a7 a8bc
00000290: 0dfe a3be 0d37 413e 20f4 e43e e474 3c3e
000002a0: 5443 f43d b979 aabe c239 793e 703c 163e
000002b0: 0b78 e13d 152d 8f3e 38b4 cc3d c7f8 683d
000002c0: 661b 0000 f636 02bc 71c0 fb3a dc6a 25bb
000002d0: 4c6d b0bb 7542 c5bb 15c0 de3b ed9e 4f3b
000002e0: 8ff3 86bc e925 8c3b b3d6 33bc 8ab9 023c
000002f0: 91c6 0fbc 7609 9abb 0bb1 21bb fadb 263a
00000300: 1bff 8e28 df35 f23d d393 4e3e a7fd 2c3d
00000310: 93f3 90be 4a09 793e 9caf ecbd e480 ce3e
00000320: 0988 e7be 10db a53e 4d0f fdbb 6c19 773e
00000330: 6cea fbbd d33e 48be f83e 0abf 151e b5bd
00000340: 141c 0080 ccf8 0bbb 48f0 ed3a 3b98 a53a
00000350: f216 0d3b 3f2a 193b 44fc 6bbc 830a 9cbb
00000360: 382c da39 badb 3a3c 573c 2fbb f08a 523b
00000370: e302 223b e285 5ebc e14e bc39 4156 cd3b
00000380: ba1f 0000 e920 85ba 16d7 bf3a b0dd 94bb
00000390: 136b 7dbb a0a2 a5bb 13ff 743c d567 d23b
000003a0: 982f 97bb c3a0 31bc d789 68ba 2c59 95bb
000003b0: 2d66 aebb 196c 463c ce7f a03a 9516 e2bb
000003c0: bd1b 0080 3f99 49ba f158 25ba 45af 5b3b
000003d0: 7b5e 763b 8146 9d3b 02ca 8abc 6ba2 aabb
000003e0: 5ba4 963b ff61 673c 519a 3eb9 c48b 793b
000003f0: 80f8 b13b ea1e 60bc 0db6 88b9 ebcb 013c
-1.049e-41 0.0009535525 -0.0013606842 -0.0016142183 -0.002275973 -0.0028922283 0.016451344 0.005638685
-0.0024392176 -0.011631759 0.0017382933 -0.0025862558 -0.0038911186 0.012148658 -0.0004043165 -0.0063854815
-1.6671207e-10 0.18148583 -0.45268345 0.5075404 -0.2084229 0.1388807 0.6540351 0.183389
0.09234755 -0.52128017 -0.0060065226 0.37457442 0.13756998 0.680231 -0.06194721 -0.3242633
9.816e-42 0.0047626486 -0.0015602564 0.0010058734 0.0021518557 0.003160546 0.0015491099 0.00044013996
0.006737309 -0.008901892 0.008728093 -0.0047946107 0.0016714648 0.007886797 0.0011694796 -0.0014096546
2.0288931e-15 -0.08049793 0.25168067 -0.018171035 -0.054050222 0.513229 -0.09028857 -0.22016406
0.27978945 -0.06498874 0.089751676 -0.16498202 0.17615025 0.3686242 0.3957288 -0.44930485
6.306849e-12 -0.2762952 0.13329788 -0.16919723 0.12049314 0.08619567 -0.078728095 -0.276252
0.11171711 0.27904826 0.37663758 0.26904586 -0.21662395 0.1373599 -0.46029407 -0.5225738
7.949969e-31 -0.0132244015 -0.11020547 0.25530308 -0.037624404 0.359581 -0.04585198 0.02222318
-0.048517287 -0.051039387 -0.21354447 -0.08161335 0.13752663 0.2570856 0.075211376 -0.3200806
-7.462377e-20 -0.054095253 -0.338063 -0.13589291 0.27860966 -0.5312716 0.23045385 -0.22808698
0.2864081 -0.17566918 0.18671067 0.13475448 0.09029804 -0.036610045 -0.279066 0.19059454
-9.822e-42 0.052959967 -0.1728797 -0.107958004 0.117648184 -0.029492427 -0.16450915 -0.10750598
0.17677386 -0.053075504 0.013989664 -0.16080895 0.32154933 -0.17646706 -0.2004848 0.11143719
-2.4007052e-23 -0.21210486 -0.32137835 0.33590287 0.31987038 -0.29412818 -0.18895714 -0.06350556
-0.2567993 0.28724813 -0.3129275 0.07984812 -0.3555904 -0.051049184 -0.082102336 -0.11744602
9.851e-42 0.07448751 -0.41473588 0.16094548 0.0601836 0.38530266 -0.17386596 -0.030359007
0.1323318 -0.18653612 -0.20799907 -0.2903038 0.5776967 0.053730298 -0.24161744 -0.1428353
1.7129951e-20 0.1944049 0.13715987 -0.020587904 -0.32029763 0.18868656 0.44717503 0.18403965
0.11926904 -0.33295992 0.24338439 0.14671493 0.110092245 0.27964082 0.099953115 0.056877878
9.829e-42 -0.007947674 0.0019207132 -0.0025240695 -0.005384123 -0.006019885 0.0067978003 0.003168042
-0.01647356 0.00427698 -0.010976481 0.007978806 -0.008775369 -0.004700835 -0.0024672176 0.00063651765
1.5875801e-14 0.11826681 0.20173578 0.04223409 -0.28310832 0.2431995 -0.11556932 0.4033271
-0.45220974 0.32393694 -0.0077227713 0.24130791 -0.12300572 -0.19555216 -0.5400233 -0.08843628
-1.0073e-41 -0.0021358011 0.0018153274 0.0012633869 0.002152857 0.0023371128 -0.0144034065 -0.0047619953
0.00041613146 0.011404926 -0.0026738846 0.003212627 0.002472096 -0.013581725 0.00035916924 0.006266386
1.1381e-41 -0.0010156903 0.0014636244 -0.004543029 -0.0038668558 -0.005054787 0.014953393 0.006421069
-0.004613828 -0.010841551 -0.00088706374 -0.0045577493 -0.005322239 0.012110733 0.001224512 -0.0068996646
-9.95e-42 -0.0007690377 -0.0006307504 0.0033521217 0.0037592936 0.0047996645 -0.016942028 -0.00520735
0.0045972294 0.014122485 -0.000181773 0.0038077692 0.005431235 -0.0136792455 -0.0002607558 0.007922153
