paper_artifacts/collection/edge_early_interaction/trained_models/edge_early_interaction_ptc_fm_large_dataset_seed_7474_2024-04-07_18:29:25.pth (torch, 20335 bytes, 18 tensors)

encoder.MLP1.0.weight f4 [10, 1]
00000000: 0415 d03d 9953 4abe 7521 2d3f c6e8 c3bc
00000010: 6580 bb3d f6a7 81bd 50a9 493e ed03 d4be
00000020: efe3 093e 1e9d f53a
0.101602584 -0.19758452 0.67629176 -0.023914706 0.09155349 -0.06330864 0.19693494 -0.41409245
0.13465856 0.0018738841

encoder.MLP1.0.bias f4 [10]
00000000: 7131 d13d 64fc 48be 67b8 2d3f 2f49 76bd
00000010: 35f2 b93d 2885 86bd eb6c 5c3e 45ed d1be
00000020: db28 073e 1798 c53a
0.10214508 -0.1962753 0.678595 -0.060128387 0.090794004 -0.06568366 0.21525924 -0.41001335
0.13199179 0.0015075234

prop_layer._message_net.0.weight f4 [20, 50]
00000000: 84ff f73d e34f e4be c4eb 2d3d e176 b8be
00000010: 84c6 d9bd 88c2 d73e c0c1 d1bd 435e 07be
00000020: ed11 b5be df0a 1b3e 05bc 3abd f0e8 ed3b
00000030: 76f2 243d f1e3 a4be a73a 52be e5b8 9a3d
00000040: 5210 82bd 7d66 37bd f361 a3bd 1e92 b73d
00000050: 17fe 18bc 21cc 0f3c 4318 01bc 2b56 9dbb
00000060: 4a8f 68be a88b bcbb ca1b dbbb 35ea 013c
00000070: a42d eb3b 7501 783b e9b7 753b ebab a73d
00000080: 378a 2c3c 608f d63b 6534 febd 2237 e73b
00000090: d1c9 22bc c86b 1d3c 80a1 00bc 0e29 d7bb
000000a0: de43 b13b b968 113e c954 37bc 8bc0 3c3c
000000b0: 6753 e83b 5eba 6a3d e986 2ebb 8edb b7bb
000000c0: df24 b63d 6c28 22bb 7bfd d23d ece5 853d
000000d0: bd17 80bd e946 1b3f 08c1 e9be c43a f4bd
000000e0: 2225 223e 5a70 1c3e ee59 19be a21a 56bc
000000f0: 1b89 b93d 94c2 27be 23db 0a3d fddb a7bc
00000100: e9b7 243e 03e7 3b3e 0fed 943e b140 d7be
00000110: fca7 98be d81f d5bd 07db 2cbb c36e 003b
00000120: ed61 f03a 37fd 77ba 576c b13d 3c9c bfbb
00000130: 30be 65ba 1569 a9ba c3cc 2e3a 6d51 7ebd
00000140: f9b3 a4ba 4431 4e3e 47ad e83b 268c 1f3b
00000150: 822e 3c3d 8e76 e739 d518 8cbb c4c9 913b
00000160: 1d85 f13a 01b4 5b3b 91e1 82be dca5 e1ba
00000170: 084e d3ba 4c70 143a 54f8 673a 8a51 903d
00000180: 3b51 69bb 005c d8b9 97db 153e 4771 64bb
00000190: 240a 95be 7c01 95bc 91f8 3bbe 4901 483e
000001a0: 0e64 5d3e 4fe0 413e a49d b73e 8c46 2d3d
000001b0: 4e34 3b3e 812f d73d 8bbf b43c 2676 05be
000001c0: 267b fdbd 44eb d73d b151 a13e 3543 ad3d
000001d0: f302 c5bc 3962 a83b 3810 b23e 2663 71bd
000001e0: dd70 5c3b 3c7f cfb9 d20f e0bb 5f30 d3bb
000001f0: 416e 15bd f705 31bc 751f 91b9 021e 0f3c
00000200: 8840 0c3b 7b12 7cbc 9dee 97bb 2993 aebd
00000210: 559d f73b 70f8 bb3b 0390 993d 5f97 0f3b
00000220: d71e 39bb 25ff ad3a 65bd 41ba 9271 a1bb
00000230: 0cf2 e5bd 9d95 6dbb f7e0 d8ba be46 ccb9
00000240: 91a0 d3b9 0d58 a43e 2dd7 0bbb 9356 d2bb
00000250: a094 9cbd 560e 9aba 4170 df3e 3aab 28be
00000260: 557b 67be ad0d d13d 8235 843e 3193 ee3c
00000270: f405 afbd 7db4 20bd 49d4 e4bd e39d 82be
00000280: 7402 7a3e 8c59 67be fb40 29be b085 743e
00000290: 831e 773e d1ff 8c3e c4fd 7cbe 01ea 4cbe
000002a0: 4bbe d53d f856 febd feb2 0a3c 18a1 cbbb
000002b0: 0edb e93b 0348 99ba 51c2 02be c3fa 273c
000002c0: 0336 873b 2954 81bb bb70 1fbb 41fd 82bd
000002d0: 546c eabb 6f9d 6cbd 3028 20bc 4595 d1b9
000002e0: 403c 75bd 74f3 15bb e28b f73b 76a2 b2bb
000002f0: a034 343c b75f 063b 810d 053d 1dd6 533e
00000300: 8eff 473c c6de 68bc 869b 9fbb a587 1dbe
00000310: 3388 d73b 7735 9039 9195 2fbd 442c c63b
00000320: 09cd 9f3e d24d e6be aa06 213e 8227 bc3d
00000330: 58a3 12bd 5452 e5bc c3f8 0fbe e43c 8bbe
00000340: 7020 fdbc d87f 0b3d 8a81 013f 0c86 b6bd
00000350: 3897 823e e2aa 4fbd 80b7 0fbe 2673 683e
00000360: a05f 0abe 32c1 cfbe 1caf fcbd 5273 483e
00000370: e63d 333c 22fd f9bb 1117 773b 90f6 093c
00000380: e715 75bc ab27 363c c11a 133c 5baa 4bbc
00000390: bd98 07bc bca8 adbd ab9d 8bbb d7ad 4cbd
000003a0: 79db 91bc 9afa 45bc b3fc 763c 6b2c 03bc
000003b0: bf25 4b3c f993 4abc 8ebc 9d3b 130f 203b
000003c0: 050c 223d 53ca 833e 2116 093c 85fc 14bc
000003d0: 06e8 15bc fff7 a23d c120 313b e45d 173c
000003e0: e7a9 3b3d 7bc6 3d3b 1f30 303f b347 10be
000003f0: fc40 b5be 5231 233d a2cf e13c c068 17be
0.121092826 -0.445922 0.04246117 -0.36028197 -0.10633567 0.42140603 -0.10242033 -0.13219552
-0.3536524 0.15140866 -0.045589466 0.0072604343 0.04027029 -0.32205155 -0.20530187 0.07554797
-0.06350769 -0.044775475 -0.07977667 0.089634165 -0.0093379235 0.0087766955 -0.00787932 -0.004801532
-0.2271091 -0.005753953 -0.0066866623 0.007929374 0.0071770716 0.0037842665 0.0037493652 0.081870876
0.010531 0.0065478534 -0.12412337 0.007056133 -0.009935812 0.009608217 -0.007851005 -0.0065661734
0.0054097017 0.14200105 -0.011189648 0.011520515 0.0070900205 0.05730664 -0.0026630706 -0.0056108898
0.08893751 -0.0024743332 0.10302254 0.06537995 -0.06254528 0.60655075 -0.45655084 -0.11925271
0.15834478 0.15277234 -0.14975712 -0.013067873 0.09059354 -0.1638282 0.03390039 -0.02049064
0.16085781 0.18349843 0.2908711 -0.42041543 -0.29815662 -0.10406464 -0.0026375668 0.001959727
0.0018339731 -0.0009460034 0.08663242 -0.005847482 -0.0008763997 -0.0012924994 0.0006668085 -0.062089372
-0.0012565843 0.20135981 0.0071007344 0.002434501 0.04594279 0.00044148084 -0.004275421 0.004449101
0.0018426512 0.0033524039 -0.2556272 -0.0017215568 -0.0016121278 0.00056624855 0.00088489545 0.07046802
-0.0035601396 -0.00041267276 0.14634548 -0.0034857558 -0.291093 -0.018189184 -0.1835654 0.1953174
0.21620199 0.18933223 0.35862458 0.042303607 0.18281671 0.105071075 0.022063991 -0.13033351
-0.12377004 0.1054292 0.31507638 0.08460084 -0.024049258 0.005138662 0.34778 -0.058932446
0.0033636608 -0.00039576914 -0.0068378234 -0.0064449753 -0.0364821 -0.010804645 -0.00027679992 0.008735182
0.0021400768 -0.015385265 -0.004636599 -0.08524162 0.0075565972 0.005736403 0.07498171 0.0021910293
-0.0028247142 0.0013274892 -0.00073905877 -0.0049268687 -0.112278074 -0.0036252507 -0.0016546537 -0.0003896262
-0.00040364687 0.32098427 -0.0021337972 -0.006419012 -0.076455355 -0.001175354 0.4364033 -0.16471568
-0.22605641 0.102076866 0.25822073 0.02912292 -0.08546057 -0.039234627 -0.11173303 -0.25511083
0.24414998 -0.22592753 -0.16528694 0.23879123 0.24132733 0.27538922 -0.24706179 -0.2001114
0.10436686 -0.12418932 0.008465527 -0.006214272 0.007136709 -0.0011694435 -0.12769438 0.010252657
0.0041263117 -0.0039468003 -0.0024328667 -0.063959606 -0.007154027 -0.057767328 -0.009775206 -0.000399748
-0.059871912 -0.0022880705 0.007554517 -0.0054514958 0.010998875 0.0020503828 0.03248358 0.20687146
0.012206925 -0.01421327 -0.0048708348 -0.15383776 0.0065775155 0.00027505655 -0.042867247 0.0060477573
0.31211117 -0.44981247 0.15725198 0.09187223 -0.035800308 -0.027993359 -0.14059739 -0.27194893
-0.030899256 0.03405747 0.50588286 -0.08912286 0.25505996 -0.050700076 -0.14034843 0.22700176
-0.1351304 -0.40577084 -0.12338087 0.19575241 0.010940051 -0.0076290527 0.0037702958 0.0084206015
-0.014958835 0.011117856 0.008978547 -0.012430753 -0.008276162 -0.08479449 -0.004260739 -0.049970474
-0.017804848 -0.012083674 0.015074897 -0.008006196 0.012399136 -0.012364381 0.0048137372 0.0024423047
0.039562244 0.257403 0.008367092 -0.0090934085 -0.009149557 0.07957458 0.002702758 0.009238694
0.04581633 0.0028957415 0.68823427 -0.14089851 -0.35401142 0.039841957 0.027564827 -0.14786053

prop_layer._message_net.0.bias f4 [20]
00000000: a462 a23d 286e c63e 3948 083e cad8 18bd
00000010: 5b42 e43d c5d3 13bd 0914 bc3d 9ab5 263e
00000020: 42ec bdbd 308a 9e3d 99ca a6bd 18b1 a13d
00000030: b630 c83d 8ccf 723e 5e6c 3f3e f982 67bd
00000040: a34c 803e 52a2 9dbd 3409 27bc 22b8 ba3d
0.079289705 0.38755918 0.13308801 -0.03731612 0.11145469 -0.03609063 0.09183509 0.16280213
-0.09273578 0.07741201 -0.08144111 0.07895106 0.09774916 0.23711985 0.18693683 -0.05652139
0.2505847 -0.07696976 -0.010195065 0.09117152

prop_layer._reverse_message_net.0.weight f4 [20, 50]
00000000: 84ff f73d e34f e4be c4eb 2d3d e176 b8be
00000010: 84c6 d9bd 88c2 d73e c0c1 d1bd 435e 07be
00000020: ed11 b5be df0a 1b3e 05bc 3abd f0e8 ed3b
00000030: 76f2 243d f1e3 a4be a73a 52be e5b8 9a3d
00000040: 5210 82bd 7d66 37bd f361 a3bd 1e92 b73d
00000050: 17fe 18bc 21cc 0f3c 4318 01bc 2b56 9dbb
00000060: 4a8f 68be a88b bcbb ca1b dbbb 35ea 013c
00000070: a42d eb3b 7501 783b e9b7 753b ebab a73d
00000080: 378a 2c3c 608f d63b 6534 febd 2237 e73b
00000090: d1c9 22bc c86b 1d3c 80a1 00bc 0e29 d7bb
000000a0: de43 b13b b968 113e c954 37bc 8bc0 3c3c
000000b0: 6753 e83b 5eba 6a3d e986 2ebb 8edb b7bb
000000c0: df24 b63d 6c28 22bb 7bfd d23d ece5 853d
000000d0: bd17 80bd e946 1b3f 08c1 e9be c43a f4bd
000000e0: 2225 223e 5a70 1c3e ee59 19be a21a 56bc
000000f0: 1b89 b93d 94c2 27be 23db 0a3d fddb a7bc
00000100: e9b7 243e 03e7 3b3e 0fed 943e b140 d7be
00000110: fca7 98be d81f d5bd 07db 2cbb c36e 003b
00000120: ed61 f03a 37fd 77ba 576c b13d 3c9c bfbb
00000130: 30be 65ba 1569 a9ba c3cc 2e3a 6d51 7ebd
00000140: f9b3 a4ba 4431 4e3e 47ad e83b 268c 1f3b
00000150: 822e 3c3d 8e76 e739 d518 8cbb c4c9 913b
00000160: 1d85 f13a 01b4 5b3b 91e1 82be dca5 e1ba
00000170: 084e d3ba 4c70 143a 54f8 673a 8a51 903d
00000180: 3b51 69bb 005c d8b9 97db 153e 4771 64bb
00000190: 240a 95be 7c01 95bc 91f8 3bbe 4901 483e
000001a0: 0e64 5d3e 4fe0 413e a49d b73e 8c46 2d3d
000001b0: 4e34 3b3e 812f d73d 8bbf b43c 2676 05be
000001c0: 267b fdbd 44eb d73d b151 a13e 3543 ad3d
000001d0: f302 c5bc 3962 a83b 3810 b23e 2663 71bd
000001e0: dd70 5c3b 3c7f cfb9 d20f e0bb 5f30 d3bb
000001f0: 416e 15bd f705 31bc 751f 91b9 021e 0f3c
00000200: 8840 0c3b 7b12 7cbc 9dee 97bb 2993 aebd
00000210: 559d f73b 70f8 bb3b 0390 993d 5f97 0f3b
00000220: d71e 39bb 25ff ad3a 65bd 41ba 9271 a1bb
00000230: 0cf2 e5bd 9d95 6dbb f7e0 d8ba be46 ccb9
00000240: 91a0 d3b9 0d58 a43e 2dd7 0bbb 9356 d2bb
00000250: a094 9cbd 560e 9aba 4170 df3e 3aab 28be
00000260: 557b 67be ad0d d13d 8235 843e 3193 ee3c
00000270: f405 afbd 7db4 20bd 49d4 e4bd e39d 82be
00000280: 7402 7a3e 8c59 67be fb40 29be b085 743e
00000290: 831e 773e d1ff 8c3e c4fd 7cbe 01ea 4cbe
000002a0: 4bbe d53d f856 febd feb2 0a3c 18a1 cbbb
000002b0: 0edb e93b 0348 99ba 51c2 02be c3fa 273c
000002c0: 0336 873b 2954 81bb bb70 1fbb 41fd 82bd
000002d0: 546c eabb 6f9d 6cbd 3028 20bc 4595 d1b9
000002e0: 403c 75bd 74f3 15bb e28b f73b 76a2 b2bb
000002f0: a034 343c b75f 063b 810d 053d 1dd6 533e
00000300: 8eff 473c c6de 68bc 869b 9fbb a587 1dbe
00000310: 3388 d73b 7735 9039 9195 2fbd 442c c63b
00000320: 09cd 9f3e d24d e6be aa06 213e 8227 bc3d
00000330: 58a3 12bd 5452 e5bc c3f8 0fbe e43c 8bbe
00000340: 7020 fdbc d87f 0b3d 8a81 013f 0c86 b6bd
00000350: 3897 823e e2aa 4fbd 80b7 0fbe 2673 683e
00000360: a05f 0abe 32c1 cfbe 1caf fcbd 5273 483e
00000370: e63d 333c 22fd f9bb 1117 773b 90f6 093c
00000380: e715 75bc ab27 363c c11a 133c 5baa 4bbc
00000390: bd98 07bc bca8 adbd ab9d 8bbb d7ad 4cbd
000003a0: 79db 91bc 9afa 45bc b3fc 763c 6b2c 03bc
000003b0: bf25 4b3c f993 4abc 8ebc 9d3b 130f 203b
000003c0: 050c 223d 53ca 833e 2116 093c 85fc 14bc
000003d0: 06e8 15bc fff7 a23d c120 313b e45d 173c
000003e0: e7a9 3b3d 7bc6 3d3b 1f30 303f b347 10be
000003f0: fc40 b5be 5231 233d a2cf e13c c068 17be
0.121092826 -0.445922 0.04246117 -0.36028197 -0.10633567 0.42140603 -0.10242033 -0.13219552
-0.3536524 0.15140866 -0.045589466 0.0072604343 0.04027029 -0.32205155 -0.20530187 0.07554797
-0.06350769 -0.044775475 -0.07977667 0.089634165 -0.0093379235 0.0087766955 -0.00787932 -0.004801532
-0.2271091 -0.005753953 -0.0066866623 0.007929374 0.0071770716 0.0037842665 0.0037493652 0.081870876
0.010531 0.0065478534 -0.12412337 0.007056133 -0.009935812 0.009608217 -0.007851005 -0.0065661734
0.0054097017 0.14200105 -0.011189648 0.011520515 0.0070900205 0.05730664 -0.0026630706 -0.0056108898
0.08893751 -0.0024743332 0.10302254 0.06537995 -0.06254528 0.60655075 -0.45655084 -0.11925271
0.15834478 0.15277234 -0.14975712 -0.013067873 0.09059354 -0.1638282 0.03390039 -0.02049064
0.16085781 0.18349843 0.2908711 -0.42041543 -0.29815662 -0.10406464 -0.0026375668 0.001959727
0.0018339731 -0.0009460034 0.08663242 -0.005847482 -0.0008763997 -0.0012924994 0.0006668085 -0.062089372
-0.0012565843 0.20135981 0.0071007344 0.002434501 0.04594279 0.00044148084 -0.004275421 0.004449101
0.0018426512 0.0033524039 -0.2556272 -0.0017215568 -0.0016121278 0.00056624855 0.00088489545 0.07046802
-0.0035601396 -0.00041267276 0.14634548 -0.0034857558 -0.291093 -0.018189184 -0.1835654 0.1953174
0.21620199 0.18933223 0.35862458 0.042303607 0.18281671 0.105071075 0.022063991 -0.13033351
-0.12377004 0.1054292 0.31507638 0.08460084 -0.024049258 0.005138662 0.34778 -0.058932446
0.0033636608 -0.00039576914 -0.0068378234 -0.0064449753 -0.0364821 -0.010804645 -0.00027679992 0.008735182
0.0021400768 -0.015385265 -0.004636599 -0.08524162 0.0075565972 0.005736403 0.07498171 0.0021910293
-0.0028247142 0.0013274892 -0.00073905877 -0.0049268687 -0.112278074 -0.0036252507 -0.0016546537 -0.0003896262
-0.00040364687 0.32098427 -0.0021337972 -0.006419012 -0.076455355 -0.001175354 0.4364033 -0.16471568
-0.22605641 0.102076866 0.25822073 0.02912292 -0.08546057 -0.039234627 -0.11173303 -0.25511083
0.24414998 -0.22592753 -0.16528694 0.23879123 0.24132733 0.27538922 -0.24706179 -0.2001114
0.10436686 -0.12418932 0.008465527 -0.006214272 0.007136709 -0.0011694435 -0.12769438 0.010252657
0.0041263117 -0.0039468003 -0.0024328667 -0.063959606 -0.007154027 -0.057767328 -0.009775206 -0.000399748
-0.059871912 -0.0022880705 0.007554517 -0.0054514958 0.010998875 0.0020503828 0.03248358 0.20687146
0.012206925 -0.01421327 -0.0048708348 -0.15383776 0.0065775155 0.00027505655 -0.042867247 0.0060477573
0.31211117 -0.44981247 0.15725198 0.09187223 -0.035800308 -0.027993359 -0.14059739 -0.27194893
-0.030899256 0.03405747 0.50588286 -0.08912286 0.25505996 -0.050700076 -0.14034843 0.22700176
-0.1351304 -0.40577084 -0.12338087 0.19575241 0.010940051 -0.0076290527 0.0037702958 0.0084206015
-0.014958835 0.011117856 0.008978547 -0.012430753 -0.008276162 -0.08479449 -0.004260739 -0.049970474
-0.017804848 -0.012083674 0.015074897 -0.008006196 0.012399136 -0.012364381 0.0048137372 0.0024423047
0.039562244 0.257403 0.008367092 -0.0090934085 -0.009149557 0.07957458 0.002702758 0.009238694
0.04581633 0.0028957415 0.68823427 -0.14089851 -0.35401142 0.039841957 0.027564827 -0.14786053

prop_layer._reverse_message_net.0.bias f4 [20]
00000000: a462 a23d 286e c63e 3948 083e cad8 18bd
00000010: 5b42 e43d c5d3 13bd 0914 bc3d 9ab5 263e
00000020: 42ec bdbd 308a 9e3d 99ca a6bd 18b1 a13d
00000030: b630 c83d 8ccf 723e 5e6c 3f3e f982 67bd
00000040: a34c 803e 52a2 9dbd 3409 27bc 22b8 ba3d
0.079289705 0.38755918 0.13308801 -0.03731612 0.11145469 -0.03609063 0.09183509 0.16280213
-0.09273578 0.07741201 -0.08144111 0.07895106 0.09774916 0.23711985 0.18693683 -0.05652139
0.2505847 -0.07696976 -0.010195065 0.09117152

prop_layer.GRU.weight_ih_l0 f4 [30, 20]
00000000: 91c3 f13d 0b8c 39bd 2074 31bc ee87 453b
00000010: 3c60 ed3d c95e 2a3e 6cca e4bb 6a3e 233d
00000020: 4190 f93d 38d8 93ba 5db9 253d 4d14 db3d
00000030: 8c9e 31be 1160 21be d888 2e3e 5458 8abd
00000040: 60b8 4abe f38d 983e f9b7 ccbd 0d9a 7c3d
00000050: 0609 68ba 9c7b 90bd fa35 3ebd 1280 6a3a
00000060: 4ebf 513c 9d63 b43c 845b ddbd aeb6 0dbc
00000070: 2e46 32bd c7d7 b63c d230 be3c 127c 5fbc
00000080: fbdd c83c ab70 82bb 7da8 17bc a22f d53c
00000090: 1739 82bc f31a c1bb 547b 8f3c 37af 99bc
000000a0: 8b9f 23bd f0c0 adbb 6597 fd3c 547b dabc
000000b0: 8a43 9cbd 910e 61bd 95a2 27bc 424a 143c
000000c0: 9525 7ebc 37ee fe3c e3e6 9c3c bed3 9fbc
000000d0: bb44 1abc dd8a 913d b031 6dbd 3bc9 b93b
000000e0: c7d3 243d 0ea6 c23a 85b9 78ba 490d 81bc
000000f0: f8e8 b63d f952 7bbc 1a2e 493e 43f9 ff3d
00000100: 8706 a53d b6ef 83bd f8a9 cfbc 475a 9fbd
00000110: aaf4 ddbe cc96 1c3e 1af0 9dbd bd42 083d
00000120: a4ea ad3e 896b 053d c4fa 173e 0f73 8c3d
00000130: 98e7 223d 6835 e83d ec87 513c a540 183d
00000140: bd09 853d f416 0cbd e552 613c 64e9 ccbc
00000150: 6941 5b3c e828 a9bd 2bf1 5abd 791f f9bb
00000160: ecd5 8cbd 6b76 8b3d 2e7e 90bc 9a2e ef3c
00000170: 72cb 003d 3f05 cfbc 2324 a73a 8f74 abbb
00000180: 7d41 d2ba 2419 b43d fa94 4ebc 3eff 943b
00000190: 785f 20bc 6338 fcbc 48ef bc3b 2971 823c
000001a0: e026 9a3c 2bc0 813c 1bb3 573b da06 71bb
000001b0: 5fff 20bd b870 9f3c 5b2c b1bc d997 9e3c
000001c0: 8824 6a3c 11ee 1ebd 2d1a e33b a5ab 333d
000001d0: 52a8 36bb d4dd d83c b5b8 60bc c91f eebb
000001e0: c38d 85bc 1986 cfbc 18dd e2bc f5c1 1dbd
000001f0: 0074 34bd 5021 9dbd 5857 39bd eecd d5bc
00000200: e430 32be 0747 6ebd b44a eabc 6e83 143c
00000210: 860e d8bb ae1a e6bc 346d b3bd ce0f f93b
00000220: ad36 4abd 70b7 acbd f7ef 773c bf8e a3bb
00000230: 7b20 2a3c 9be9 34bd 26d1 2a3c 4d51 f73b
00000240: 5f79 78bc 1f66 72bd d0a2 32bc 196c b2bc
00000250: c554 8abd b91f 903c 9dad 93bb 6c22 19bd
00000260: 5e10 003d 49d6 183b 7fa7 1dbd 5853 843c
00000270: b052 08bc fbf6 0abd 08f2 be3b 2714 cbba
00000280: a032 33be 7da4 993d 1b28 aebd 3fba 82bd
00000290: c414 9dbd 646b 55bd a292 1abd aa40 943b
000002a0: 0ef5 f1bc 5a58 97bc 0579 9ebd 69c3 9cbd
000002b0: 34ce 1b3d d105 183d 7bcb 8dbe 13cf c8bc
000002c0: 520b 863d 5d18 37be c0c9 5cbc 73ff 39bd
000002d0: 35be aa3d e501 97bc ce0d 8d3c 6ec1 a9bd
000002e0: 2fb2 7dbc 8513 92bd efd1 25be 8e64 97bc
000002f0: fea0 f63c 8093 593d f2c2 c1bb 0afa 373c
00000300: e8c5 433d beed 7c3d 9dcd 4f3d abec dabd
00000310: c570 b23c eb24 293d f1c2 ec3c 4db9 97bc
00000320: dc63 3a3e 451b 33be 89eb 3ebd 92d8 183d
00000330: e7b1 d93d f94f 883e aa0c a73c 8bbf 9f3d
00000340: ef72 633e c570 963d 7fbf aabd c864 9dbe
00000350: c21f 6b3d bbb0 66be 5785 6ebe f928 fe3b
00000360: 6dc9 16be f5df cb3e 4007 c0bd f87c 9bbd
00000370: fe1b 223e 8da3 b03e 554b a93d 6031 733d
00000380: c398 103e 29bb c0be d812 413e 18f4 67be
00000390: 697f 3ebe 7256 d83d 9c80 40be 0f2d 2dbe
000003a0: ce19 833e cf7f 37bd 0bfa 05be 4d80 5fbd
000003b0: fd1b d13d d23e 18be b1a2 ca3d ba1c 1abc
000003c0: 12b9 0ebd f493 91be 8405 ebbc 216a c33d
000003d0: d103 cebd dce4 223e 9cdc 373e 4ff5 333c
000003e0: 8802 1e3e bdb3 68bd 8caa 013e 8196 b9bc
000003f0: 87fc d0bc 9784 343e 52c7 41bd 1e1a ea3d
0.118048795 -0.04529957 -0.010830909 0.0030140835 0.11590621 0.1663772 -0.0069821384 0.039854445
0.121857174 -0.0011279648 0.04045998 0.106972314 -0.17345637 -0.15759303 0.17044389 -0.067551285
-0.19796896 0.297958 -0.099960275 0.06167035 -0.0008851442 -0.070548266 -0.046438195 0.00089454756
0.012801958 0.022020156 -0.10808471 -0.008649511 -0.04352396 0.022319688 0.023216639 -0.0136404205
0.024519911 -0.003980716 -0.009256479 0.02602369 -0.015896363 -0.005893105 0.017514862 -0.018760307
-0.039947074 -0.005302541 0.03095598 -0.026670136 -0.076300696 -0.054945532 -0.010231634 0.009050908
-0.01551189 0.031119449 0.019153064 -0.019510146 -0.009415801 0.07106564 -0.057908714 0.0056697405
0.04024103 0.0014850514 -0.0009488094 -0.015753405 0.08931154 -0.015339606 0.19646493 0.12498715
0.080578856 -0.064422056 -0.025349602 -0.07780891 -0.43350726 0.152919 -0.07711811 0.03326677
0.3396808 0.032573257 0.14841753 0.06857883 0.039771646 0.113383114 0.012788754 0.037171025
0.06495998 -0.034201577 0.013752674 -0.025013633 0.013382294 -0.082597554 -0.053452652 -0.007602629
-0.0687674 0.06809696 -0.017638292 0.029197026 0.03144402 -0.025271056 0.0012751858 -0.0052324007
-0.0016041246 0.08793858 -0.012608761 0.004547029 -0.0097883865 -0.030788606 0.0057658292 0.0159231
0.018817365 0.015838703 0.0032913152 -0.0036777765 -0.03930604 0.019462928 -0.021627596 0.019359516
0.014290936 -0.038801257 0.0069306106 0.043864865 -0.0027871323 0.026472963 -0.013715913 -0.0072669727
-0.016302949 -0.025332497 -0.027693316 -0.03851505 -0.04405594 -0.076723695 -0.045249313 -0.026099171
-0.17401463 -0.058173206 -0.028600074 0.009064538 -0.006593528 -0.028088894 -0.08761063 0.007600761
-0.04936855 -0.084334254 0.015132896 -0.004991382 0.0103837205 -0.044168096 0.010425841 0.0075475336
-0.015165656 -0.05917942 -0.010903075 -0.02178006 -0.0675445 0.017593252 -0.0045067803 -0.037386343
0.03126561 0.0023321083 -0.038489815 0.016153023 -0.0083204955 -0.033926945 0.005827192 -0.0015493677
-0.1749978 0.07502077 -0.08503743 -0.0638318 -0.07669976 -0.05210437 -0.037737496 0.00452431
-0.029535796 -0.018474746 -0.077379264 -0.07654459 0.038038447 0.037114922 -0.27694306 -0.024512803
0.06545128 -0.17880388 -0.013475835 -0.04540963 0.0833706 -0.01843352 0.017218497 -0.08288847
-0.015484377 -0.07132629 -0.16193365 -0.018480565 0.030106064 0.053119183 -0.005913132 0.011229048
0.04779616 0.061750166 0.050733197 -0.10689672 0.021782288 0.041294973 0.028901549 -0.018520975
0.18202156 -0.17490871 -0.046611343 0.037315913 0.10629635 0.26623514 0.02039178 0.07800206
0.22211812 0.07345728 -0.08337306 -0.30740952 0.057403333 -0.22528355 -0.23293053 0.007756349
-0.14725275 0.39819303 -0.09376383 -0.07592195 0.1583099 0.3449978 0.082663216 0.05937326
0.14120774 -0.37642792 0.18854845 -0.22651708 -0.1860329 0.10563363 -0.1879906 -0.1691172
0.25605625 -0.044799622 -0.13083665 -0.054565717 0.102104165 -0.14867714 0.09894312 -0.009406263
-0.034844466 -0.28433192 -0.028689153 0.09541727 -0.10059322 0.15907615 0.1795525 0.010983779
0.15430653 -0.056812037 0.12662715 -0.022654774 -0.02551104 0.17628704 -0.047309227 0.11430763

prop_layer.GRU.weight_hh_l0 f4 [30, 10]
00000000: c6fc 2dbc d8ce 8abd e955 913d 0bb7 5fbd
00000010: 22fd 84bd 732e a13d 154b d63c e4d0 303c
00000020: cdd9 3c3c 585a 953d 46ab b83c 788c ac3c
00000030: eea2 bc3c 6c68 70bc b6a0 72bc c673 e8bc
00000040: 14c9 fcbc 3fdc a33c 9b4b 853c adc2 a0bc
00000050: 2370 73bc 138e 8b3c f4c5 583c 3230 053c
00000060: 77a4 583c d3a1 46bc 97e3 c7bc c3fb ad3b
00000070: 92d2 443b 5d19 3dbc 60b6 b63d 2d84 c0bd
00000080: fc5d 4f3e f40a 1ebe 23dd 3e3e 0162 1dbe
00000090: 4359 38bc 26bc cdbc 8305 aa3c 9e69 50bd
000000a0: 0ada 85bc 7c5b 7d3c cc6b 1b3d 1c2e 9bbc
000000b0: e394 413d 3a1a 5cbb 78cf a2bc 0408 9fbc
000000c0: 22e1 45bc f5c0 0bbd 4930 633b d218 32bc
000000d0: 296a c73b 3e1b 093c 42ab 76b9 69cf 2cbc
000000e0: 4436 a53a c11c 01bc eb8a 973b b90e f43b
000000f0: 26ec f63a aac7 cabc 68d6 a23d c8e9 d2bc
00000100: af92 d83c 87b2 68bd c48a 093c 47f7 4a3b
00000110: 805e 25bc ef41 9639 eedc 263a f930 43bc
00000120: 674b 023d 8c39 b1bc 15d3 fd3b 5ef2 9fbc
00000130: 5c91 afbb 1072 abbb a9c6 b33c 9ebc 64ba
00000140: 343e e73b f090 913d c536 803d 0aeb 333d
00000150: 9cf1 b63b ae6e 5ebd a20b bcbc 9f90 6e3c
00000160: 1b9c 84bd b4cf 8fb9 50a7 e33b a466 9b3c
00000170: 58ca ab3c d894 05bd f278 483d 8b95 f6bc
00000180: 723f c23c c7e3 ba3c fc2a fbbc 0e80 59bd
00000190: 0e2a e73c 88f8 1fbd 326b 2c3e 9dc7 35be
000001a0: 0bf9 c9bd 320b 473d 114a 873b a438 5b3d
000001b0: 1000 0a3b d582 ca3d e7bf 73bd 377e 28bd
000001c0: 831a 833c 816d 54bd 2235 133e aca3 aa3d
000001d0: 9605 963d a868 8dbe 6a86 82bd 6dc3 8cbd
000001e0: 0ef6 853e 6987 57be 85b7 f83e 3d3b 7b3c
000001f0: 3d5e fe3d ae94 6cbd 184b fe3d 13d6 a5be
00000200: 4397 903e 9a0e 463d 08e6 cabd 8495 203d
00000210: 708d 7e3d 584f e53c e9b1 1f3e 630b 21bd
00000220: 5605 a5bd 4a8e 103d afb3 0a3d 0d21 bfbd
00000230: c78c 9ebd 4cf7 203d a3d0 613d e5d7 d23d
00000240: 25b4 2e3d 4898 ae3c cace e6bd bc6c 17bd
00000250: 6e53 f03d c309 e43d 3f3c 2cbd 68e4 9bbd
00000260: b76e 8dbc 08e9 0d3e b294 10bd e477 1dbd
00000270: f3dd 63bc c9f9 16be 0868 50bd b106 08bb
00000280: a5cd 4b3d e927 3cbe a63e 693e e5e4 9fbd
00000290: 8948 9b3d 6a7d fdbd a6d6 7f3d e5c7 31be
000002a0: a0f0 fdbb 2db4 13be 704d d3bd e1ae 313d
000002b0: 827c 543e 4785 2bbc daaa 44bd c406 693d
000002c0: 802a 093e bc1d 4bbe a107 393d 296e 043d
000002d0: 0f4f aa3d 3447 0bbc 50fc fb3c 0134 2cbe
000002e0: 7c43 b83d 40a8 a13a 936a 8e3d 051b 2dbd
000002f0: 038c 8e3d ddc3 223c 0cc2 683c 74b5 5ebc
00000300: 7053 8d3d 78d4 81bc 10c0 92bd 6739 d7bd
00000310: 1f66 8abd 5d24 863d a17a edbc d8a9 0a3d
00000320: b8d3 ab3e a64a dd3d 7513 9dbd 8d5b 773d
00000330: 7aeb 4fbe 4232 b1bd 58bd 8b3d a9dd 9c3e
00000340: a5bc d73e b265 0c3e a265 9d3d 0bde ce3d
00000350: 3756 053c 8305 34be 32d0 76b9 fbcb 42bd
00000360: 4239 f1bd 0a0c 913d cde4 053e 1e62 e33b
00000370: cda7 be3d a21d 86bd fe62 d83d 4753 89bd
00000380: 96a8 1e3e b715 7bbd 24e6 a2bc dacc 91bd
00000390: 9506 92bd 67d8 03be 9d04 b4be abb6 593e
000003a0: e23c e5be 968c 123f 9661 0dbe 7e85 a03e
000003b0: b38a 6dbd 8bc9 f9bb 255e 16bd fcb8 8c3d
000003c0: 4348 123e 13ea dd3d f1e1 01bd b5d5 babc
000003d0: 24df cb3d 7867 8d3d 854a 103e 2f00 32be
000003e0: 09ec e4bd 4fc8 bebb 6533 7ebd 8ac5 bb3d
000003f0: 3f78 63bd ee9a 6ebb 3fc0 d4bd bd71 c33d
-0.010619348 -0.067777336 0.07096464 -0.054617923 -0.06493594 0.078701876 0.026158849 0.010791991
0.011526537 0.07292622 0.022542607 0.021063074 0.02302691 -0.014673334 -0.014808824 -0.028375518
-0.0308576 0.020002482 0.016271403 -0.019624079 -0.014858278 0.01703552 0.013230789 0.008129166
0.013222805 -0.012123543 -0.024400515 0.0053095534 0.0030032736 -0.011541692 0.08921504 -0.094002105
0.20250696 -0.15433866 0.18639044 -0.15369417 -0.01125175 -0.02511413 0.020754581 -0.050881974
-0.01633932 0.015463706 0.0379446 -0.018942885 0.04726113 -0.0033584968 -0.01987432 -0.019413002
-0.012077602 -0.034119565 0.0034666231 -0.010870175 0.0060856533 0.008368311 -0.00023524187 -0.010547497
0.0012604673 -0.007880391 0.0046247146 0.007448044 0.0018838688 -0.02475341 0.07951051 -0.025746241
0.026437132 -0.056810882 0.008394901 0.0030970143 -0.010093331 0.00028659354 0.00063653185 -0.011913531
0.03181019 -0.021633886 0.00774611 -0.01952475 -0.0053579044 -0.005232103 0.021945314 -0.0008725616
0.0070569757 0.07107723 0.062604465 0.043925323 0.0055830013 -0.05430477 -0.022954766 0.014560848
-0.06475087 -0.00027429836 0.0069474354 0.018969841 0.020970508 -0.03261265 0.048943467 -0.030100605
0.023711894 0.02281369 -0.030660145 -0.053100638 0.028218295 -0.039055377 0.16837767 -0.17751928
-0.09861954 0.04859466 0.0041287025 0.053520814 0.0021057166 0.098882355 -0.059509184 -0.041135993
0.016003853 -0.051862244 0.14375737 0.08331999 0.07325284 -0.2761891 -0.06373294 -0.06873212
0.26164287 -0.21047749 0.48577514 0.015333948 0.12420318 -0.05775898 0.12416667 -0.32389888
0.28240404 0.04835377 -0.09907156 0.03920509 0.062146604 0.027991936 0.15595211 -0.0393175
-0.080576584 0.035291947 0.033862766 -0.09332476 -0.07741695 0.03929834 0.055130612 0.10295085
0.042652268 0.021312848 -0.11269911 -0.03696893 0.11734663 0.111346744 -0.042049643 -0.076119244
-0.017264707 0.13858426 -0.035298057 -0.038444415 -0.013907897 -0.14743723 -0.050880462 -0.0020755942
0.049756665 -0.183746 0.22777805 -0.0780733 0.07582194 -0.123774365 0.062460564 -0.1736141
-0.007749632 -0.144242 -0.103175044 0.04337967 0.20750621 -0.0104687875 -0.0480145 0.056891218
0.13395119 -0.19835562 0.04517329 0.03233162 0.083158605 -0.008500863 0.03075996 -0.16816713
0.089972466 0.0012333468 0.06953921 -0.042262096 0.06960299 0.009934393 0.014206421 -0.0135930665
0.0690068 -0.015848383 -0.07165539 -0.105089955 -0.06757759 0.065499045 -0.028989138 0.033853382
0.33559966 0.10805254 -0.07669727 0.060390044 -0.20304671 -0.08652164 0.06823224 0.30637863
0.42136112 0.13710669 0.076854005 0.10100945 0.008138231 -0.17580228 -0.00023537947 -0.047557812
-0.11778499 0.070823744 0.13075562 0.0069391867 0.09309349 -0.06548621 0.10565756 -0.06705337
0.15493998 -0.061300006 -0.01988513 -0.071191505 -0.07130162 -0.1287552 -0.3515977 0.21261089
-0.44773012 0.5724577 -0.13806757 0.31351846 -0.057993602 -0.0076229027 -0.036710877 0.068712205
0.14285378 0.10835662 -0.031709615 -0.022806982 0.0995467 0.06904501 0.14090927 -0.17382883
-0.11177833 -0.0058222185 -0.062060732 0.09168537 -0.055534597 -0.0036408263 -0.103882305 0.09543178

prop_layer.GRU.bias_ih_l0 f4 [30]
00000000: 4af0 813d 3bcf c23a 50c8 a93b b281 fe3d
00000010: 7854 563c 1f63 b3bb 0318 123d 5dc2 123c
00000020: 7d3e 3d3d 35e8 333c 96ca 9c3d 18b2 30be
00000030: 924c ee3e 0310 953d a28a a9bc b15e e8bd
00000040: 3094 513d 711c 423e ac78 46be 317c d93d
00000050: 153f 813d b4e9 33be 80df 173d 1e8f d0be
00000060: 7e3e 873d ca1d c1bd 8f16 d0be 21ef 5b3e
00000070: a3fb bd3d 5e45 373e
0.063446596 0.0014862785 0.00518135 0.12427081 0.013081662 -0.0054744626 0.03566743 0.008957473
0.04620217 0.010980655 0.07655828 -0.17255437 0.46542794 0.072784446 -0.020695988 -0.11346186
0.051166713 0.18956162 -0.1938197 0.10619391 0.0631086 -0.1756962 0.03707838 -0.4073419
0.06603716 -0.0942951 -0.4064221 0.21477939 0.092765115 0.17897555

prop_layer.GRU.bias_hh_l0 f4 [30]
00000000: 4af0 813d 3bcf c23a 50c8 a93b de81 fe3d
00000010: 7854 563c 1f63 b3bb 0318 123d 5dc2 123c
00000020: 7d3e 3d3d 35e8 333c eb85 9c3d b3b4 30be
00000030: 82e7 e13e 750d 953d b175 a9bc 4b5f e8bd
00000040: 059a 513d 6558 413e c478 46be 317c d93d
00000050: ad35 8d3c c1ce acbd 16b6 a5ba 086d 9abe
00000060: fb30 b43d b452 1abd 6033 e4bd af4f 1b3c
00000070: 6ae4 833d c674 953d
0.063446596 0.0014862785 0.00518135 0.12427114 0.013081662 -0.0054744626 0.03566743 0.008957473
0.04620217 0.010980655 0.0764273 -0.17256431 0.4412194 0.07277957 -0.020686002 -0.11346301
0.051172275 0.18881376 -0.19382006 0.10619391 0.017237509 -0.08437873 -0.0012642767 -0.3016131
0.08798405 -0.037676528 -0.111426115 0.009479447 0.06440051 0.072976634

interaction_encoder.0.weight f4 [21, 21]
00000000: 28bc 21bc c0f8 4f3a 3f38 c6ba f416 47b9
00000010: 6261 93bb 5dd0 953a e94a 2abb a4a6 17bc
00000020: 95bf 10ba 3739 c5ba 1794 3834 e5aa 87b9
00000030: d0ac f5ba ddae debb 6a0c eabb 9190 11b8
00000040: d53e b3b6 9785 c8b9 e2e7 af3b 031e cb34
00000050: 5a1a c833 a51e c0b8 9414 8937 c807 09b7
00000060: 6ba5 1535 45fd f536 7d9d a537 e771 2db7
00000070: 36de 30b8 e73b 8cb2 d4fd 9db7 7853 9f35
00000080: 9122 53b6 4da2 bcb7 4dba 84b8 7d70 d6b7
00000090: b20d 9ab6 8589 d62f 2e6f 3bb6 ae2f 2738
000000a0: 9634 ac2d a44a 112d a7d0 883c ef33 203e
000000b0: fda4 8d3b c98a a2bd 6080 f2bb 4dea 693d
000000c0: 90f5 a13d fd1e 1dbd 8114 da3c 99c4 343e
000000d0: 8356 943c 7c15 73bd 05e8 c6be 1167 b73d
000000e0: 6f85 a53d e122 f7bd 228b c93c 8600 253c
000000f0: 2f9e f43c 4df5 303d db87 babd f964 9db4
00000100: 155f ce1b bc66 c89e b26f d726 9708 f41f
00000110: 2004 47a1 f828 edb0 7a72 1cad ed5e 4095
00000120: beca 39a9 e323 948f 1fff a31d 4157 6da6
00000130: 2379 0cae 2ddb 3faa 18ac 7534 7c1b 0000
00000140: 0511 3b96 8902 f493 012c c90e 17cb bd0c
00000150: 77ea 8f3e 2b8f 65bd b0a5 b4bd aaa2 2e3c
00000160: 1d51 96bc 7ae1 90bd 2d49 88be 2e90 9fbe
00000170: 700c 16bd 6f4d 04be 86d6 a2bc e5e2 b4bd
00000180: 93c4 8abe aad7 48be 3639 acbe 0190 b1bc
00000190: 2426 81bc 1dfa 0bbe a2b4 263e f9cf 52bd
000001a0: dbfd 713c f356 e93b 5a04 353d 9e8b a23d
000001b0: cc9d fe3d 1277 e33c 5d12 0a3c 36a0 f73d
000001c0: ff97 a9bc 75fc 9c3d 6d04 933e 9194 c6bc
000001d0: 64c1 ca3b c891 343d ce73 893d 0107 6d3e
000001e0: 022a e23d c953 03bd 5009 e63d c884 c03d
000001f0: 6e5d 7b3d 4b28 0e3e cd01 01b9 4709 1733
00000200: 59f8 e0ae 88a2 16b0 5220 b1b0 8ee7 9b33
00000210: f52c b033 73ae 12b8 e1fa ab25 e503 0935
00000220: eb83 3c26 f910 24b0 2abf ffb3 65b8 efb4
00000230: 372f b5b6 1ed2 8ab4 d60d aa9d ad33 edad
00000240: fae5 2638 b363 469e d6c9 2222 7db9 84bc
00000250: 67b6 ebbb 993a b73b eac5 693b 27d6 9dba
00000260: 9062 82bb f9d7 a7ba 312b 35bc 981f 63bb
00000270: b123 0dba c454 20bb f8f5 64bb d9eb 50bc
00000280: 0603 99bb 5f25 c7bb 8d5a 123c c6c1 babb
00000290: 76b3 8dbb e26c d0b9 4817 38bb 4ea7 ab39
000002a0: bd52 dbb6 fbe2 2136 2792 2cb5 b373 1bb4
000002b0: 7815 1735 d36b 0036 e64e b734 02d3 3fb6
000002c0: d91f 41b3 b969 d5b5 562d 90b0 ab4a ef35
000002d0: 6b4c b135 4747 12b6 1129 3fb6 0a68 0234
000002e0: 3453 86b0 01eb 8db4 3b87 bc36 1ec9 e830
000002f0: ec24 26af f370 09be d54a 0a3d ddca e03d
00000300: 8b4c 81bb 719e 89bd 2cd3 8dbc 2bb5 b6b8
00000310: 2686 6b3e 4348 933d e718 5c3d 4e73 c0bc
00000320: 4ef9 423d bb8a a73e 821e 073e c84e bebc
00000330: c52d 77bd c641 9cbb 60e1 d53d 8aab 4d3d
00000340: 54a5 cbbc ef61 81bc 365f 96bd 5ecf ed3d
00000350: deb7 88bd 8d4c 6a3c dc9d 4bbe 148e 06be
00000360: ff1e 8abe 23fe 733c e711 87bd 5fc7 90bd
00000370: b220 bb3d 775b b3ba a99b e0bc d0c5 d53d
00000380: 0c2f 353c d58b bcbb 3904 6c3b fe04 933d
00000390: 574b ea3d 1008 11bd cb9f e9bd cb90 f0bc
000003a0: 1625 ae3a 3f10 cb3a 86d8 1c3c c993 453a
000003b0: 8228 0d3b 06be 0dbc c273 a33c ef6c fa3b
000003c0: e83a e73c 357b 0f3c 786d c9bc 9026 09bd
000003d0: d74f 90bb 974a a1bb 34d3 9fbc db2c 563b
000003e0: 5848 2a3c fb91 6a3c 784b 93bb 4658 8abb
000003f0: d8eb cabd 3707 00be 61c1 e5bb 75b2 d6bd
-0.00987152 0.000793349 -0.0015122964 -0.0001898667 -0.004497693 0.0011429895 -0.0025984591 -0.009256039
-0.0005521712 -0.0015046959 1.719021e-07 -0.00025876533 -0.0018743519 -0.0067957477 -0.007142593 -3.4705332e-05
-5.3419303e-06 -0.00038246505 0.0053682188 3.7833533e-07 9.318019e-08 -9.1609814e-05 1.6341255e-05 -8.167648e-06
5.574754e-07 7.3310534e-06 1.9742869e-05 -1.03381235e-05 -4.216862e-05 -1.6325385e-08 -1.8834056e-05 1.1870716e-06
-3.146157e-06 -2.2486924e-05 -6.328952e-05 -2.556317e-05 -4.591152e-06 3.9024087e-10 -2.7929887e-06 3.9860308e-05
1.9577489e-11 8.258869e-12 0.016701056 0.15644811 0.0043226467 -0.079366274 -0.0074005574 0.057108212
0.079081655 -0.03835963 0.026621105 0.17653121 0.018107658 -0.05934666 -0.38848892 0.08955205
0.08082091 -0.120671995 0.024602477 0.010070926 0.029860584 0.043202687 -0.091079436 -2.9316996e-07
3.4141287e-22 -2.1218314e-20 1.4948897e-15 1.0335223e-19 -6.742928e-19 -1.7255664e-09 -8.892992e-12 -3.8848974e-26
-4.1254103e-14 -1.460775e-29 4.340953e-21 -8.2344144e-16 -3.1939906e-11 -1.704025e-13 2.288001e-07 9.86e-42
-1.511111e-25 -6.159676e-27 4.95927e-30 2.924229e-31 0.2810857 -0.05604474 -0.08820665 0.010658899
-0.018349225 -0.07074256 -0.2661833 -0.31164688 -0.036632955 -0.12920164 -0.019877683 -0.08832339
-0.271031 -0.1961352 -0.33637398 -0.021675112 -0.015765257 -0.1366963 0.16279843 -0.05146787
0.0147699965 0.007120961 0.044193603 0.07936786 0.12432441 0.027766738 0.00842723 0.12091105
-0.02070236 0.0766534 0.28714314 -0.024240764 0.0061876047 0.04408434 0.06711541 0.23147203
0.110431686 -0.032062326 0.11232245 0.09400326 0.0613684 0.13882558 -0.0001230307 3.5165865e-08
-1.0230456e-10 -5.4800653e-10 -1.2887631e-09 7.2598695e-08 8.203816e-08 -3.497158e-05 2.9833774e-16 5.1042144e-07
6.5404385e-16 -5.968697e-10 -1.19091354e-07 -4.4651384e-07 -5.399717e-06 -2.5857383e-07 -4.501293e-21 -2.696673e-11
3.9791666e-05 -1.050265e-20 2.2061945e-18 -0.016201729 -0.007193375 0.005591702 0.0035670944 -0.0012041972
-0.0039790347 -0.0012805454 -0.011057661 -0.0034656283 -0.00053840416 -0.0024464587 -0.0034936648 -0.012751543
-0.00466955 -0.006077453 0.008932722 -0.005699369 -0.004324372 -0.00039753976 -0.0028090049 0.00032740313
-6.5363406e-06 2.412299e-06 -6.428767e-07 -1.4477591e-07 5.6283125e-07 1.9136248e-06 3.4143812e-07 -2.858404e-06
-4.496528e-08 -1.5900506e-06 -1.0490264e-09 1.7828619e-06 1.3209768e-06 -2.1797184e-06 -2.8485122e-06 1.2145043e-07
-9.773431e-10 -2.6434284e-07 5.6185795e-06 1.6937383e-09 -1.511073e-10 -0.13421993 0.03376277 0.10976193
-0.003945892 -0.067196734 -0.017312609 -8.7121814e-05 0.23000392 0.07191517 0.053734686 -0.023492482
0.047601037 0.3272303 0.13195232 -0.023230925 -0.060346384 -0.004768583 0.104433775 0.05021242
-0.024859108 -0.015793769 -0.07342379 0.11611818 -0.06675695 0.014300478 -0.19884437 -0.13140136
-0.26976773 0.014892134 -0.065952115 -0.07069277 0.091370955 -0.0013683875 -0.027417975 0.1043812
0.01105858 -0.005753974 0.003601326 0.071786866 0.11440151 -0.03540808 -0.11407431 -0.029365918
0.0013286199 0.0015492513 0.009573108 0.00075369753 0.0021539037 -0.008651262 0.019952659 0.0076423804
0.02822633 0.008757402 -0.024588332 -0.03348404 -0.004404049 -0.004922222 -0.01950989 0.0032680545
0.010393225 0.014317031 -0.0044950806 -0.004221949 -0.09908265 -0.12502752 -0.007011578 -0.10483257

interaction_encoder.0.bias f4 [21]
00000000: 2abc 21bc a51e c0b8 cdca 873c 0865 9db4
00000010: 51bd 9b3e f94c b73b da01 01b9 7db9 84bc
00000020: d052 dbb6 7383 09be 9565 96bd a390 f0bc
00000030: f3eb cabd 1151 673c d5fe 20be 61b9 8e3c
00000040: 0fc8 983b 4a39 acbb bd87 1e3d 7383 8c3d
00000050: 5ee9 ecba
-0.009871522 -9.1609814e-05 0.016576195 -2.931704e-07 0.30417874 0.0055938927 -0.00012303088 -0.016201729
-6.5363492e-06 -0.1342905 -0.07343594 -0.029365843 -0.09908285 0.014118449 -0.1572221 0.01742238
0.0046625207 -0.005255853 0.03870367 0.068610094 -0.001807492

interaction_encoder.2.weight f4 [30, 21]
00000000: 4f96 aab2 4752 ecac 95f3 03bc 5b1b 0080
00000010: e518 343c 5676 8e3b f2ba c19d 501a 0739
00000020: 2eaf 95ad adf9 7abb 0ed8 c93b 8ad3 123a
00000030: 309f 733c dca2 5aba 3cf5 94bb aa39 13bc
00000040: bb7e 043b cb3d f5bb fe4f c83b e552 3ebc
00000050: 8d86 6caf cab3 d2b1 376f 862c a3ab d43b
00000060: 991b 0080 1fe1 80bb 34e8 ecb9 59a6 e79c
00000070: 3b9a b2b7 1103 30af 3fae a63b 0832 c2bb
00000080: 66b5 0eba 0ccf c2ba 7b46 d339 cb87 f339
00000090: 98e5 e03b ea9a bf38 782f 813b 71a1 9bbb
000000a0: 18d4 253c b315 7dad a91e 8bb1 4929 7cac
000000b0: fb4d 28bb b01b 0080 848e 9f3b 520b d43a
000000c0: b0f8 d51c 4ec9 2b36 3d46 482f 5853 053b
000000d0: dd4d 723b 715a 83b8 7d48 cc3a 872c a03a
000000e0: 95b7 08bb 3acb a4bb bc16 88bb acd3 5dba
000000f0: f587 953b 263c e6bb d951 2bab 00ff 0a33
00000100: 1b9c cc2c 0a7c a3bb a11b 0080 2914 683a
00000110: 912c cfb8 bb7d 2f1d cd97 3836 18f2 34b0
00000120: c1ba ebba 34ec 723b 64bb 84ba 7933 9e3b
00000130: 715a a5bb b174 533b a48a 28bb 0e34 5abb
00000140: 2dde d3ba bf5f 3c3a e033 c439 b0b3 a72f
00000150: ebbc a635 656a 0138 d721 813e 2383 6933
00000160: 9b3b 883d b582 93be 511a b038 2ccb 323c
00000170: 4308 3b36 eddd 843e b0eb d33d 8098 803c
00000180: 7a34 4abe 3139 be3d a797 233e 5963 1a3e
00000190: c82f 8ebd 4906 303d afad d0bd 60ba 0f3e
000001a0: e9d5 efba 8242 62b2 66b1 fcab 761e 67bc
000001b0: 901b 0000 043b 543c 0c38 903b cb88 d41c
000001c0: d7d8 dfb6 ba08 182e f75a 883b bb70 0b3c
000001d0: a094 d5ba 2c34 b33b 48f1 88bb e287 b83b
000001e0: 14e1 95ba 442a 39bc a225 80bb 7b3d 1b3b
000001f0: 145c 0dbb 4ade 012f 2300 9830 9d76 142c
00000200: ea35 b8bb 921b 0000 0e17 a03b b109 213b
00000210: 746b 569d 7613 dd37 05cb 6daf f39a 90bb
00000220: f6c1 aa3b eb6c 8e38 fe07 243c e328 e2ba
00000230: 5578 55bb 258e 01bc 3e7e cd3a f612 97bb
00000240: c769 603b e2bc f5bb c165 532f c4d5 36b2
00000250: be14 06ac ac53 293c 581b 0000 666c 99bb
00000260: 3be5 b2bb 84f5 fb9a 0f63 2c36 2038 272f
00000270: 5e7a 0ebb ead9 febb 96cb 023b cf96 babb
00000280: 669b e23b b544 96b9 1099 893b 3b15 043c
00000290: 5f59 b93b ffcf 5c3a 945f 87ba 0893 e5ae
000002a0: 8730 97b1 7e0f 2a2c f754 a63b a71b 0000
000002b0: da4a 6fbb 6b73 72ba 4763 181e 63b0 9b34
000002c0: d307 cc2f bc4d 893b 2b45 90bb f8da 0439
000002d0: 3463 0dbc 515f 383b 29d6 a53a 77c9 c13b
000002e0: b5d4 9a39 a540 5b3b 9fd0 3dbb 9d41 b33b
000002f0: b330 5baf 1cbe b133 b432 7d2f 9013 203d
00000300: 2dd7 0080 b1fb f9bc 58c1 663d 3d42 7a1c
00000310: d5d5 35bb 7ee0 0bb2 15dc 663d 6b30 01be
00000320: 519d 5a3b 03a0 a03d 1446 123d 4ead 06bd
00000330: f330 e23b 6e0b 0ebe 7720 0f3e 41b4 3dbd
00000340: 9be8 093e a07c 75b7 b3f3 62b2 725a 16ac
00000350: 1720 a23a b51b 0080 b7c1 9abb fb0c 64bb
00000360: 2521 271d 8960 0eb9 5532 062f c21d 8b3b
00000370: 33e9 07bb f322 bdba 1067 6fbc 46cd 36ba
00000380: 7618 0d3c 7985 0b3c 3f02 e0bb 6e7f 6b3b
00000390: f504 91bb 7bd6 363c dd26 25af 9105 443a
000003a0: e68c 8eb6 b3aa 62be f447 4ab0 a2c9 663d
000003b0: f579 353d b225 d7b6 f686 18bb dd63 11b6
000003c0: a88d 893e 5c8b 2ebe a4a0 6ebc d094 b3bc
000003d0: b37a 863c d8f6 913d 564d f3bd 7919 763e
000003e0: 779b 26bd dbc4 16be 35ba f6bd d9ad b73a
000003f0: f282 ba31 a513 032d 218e 563c 8a1b 0000
-1.9858957e-08 -6.716658e-12 -0.00805368 -9.813e-42 0.010992263 0.004347603 -5.127997e-21 0.00012884405
-1.7017134e-11 -0.003829579 0.006159789 0.000560098 0.014869496 -0.0008340308 -0.004545836 -0.008985916
0.0020217139 -0.007484173 0.0061130514 -0.011616443 -2.1511877e-10 -6.132244e-09 3.8208564e-12 0.0064901873
-9.9e-42 -0.0039330865 -0.00045186433 -1.5329298e-21 -2.1291073e-05 -1.6008196e-10 0.0050866897 -0.0059263743
-0.00054439006 -0.001486273 0.00040297568 0.00046449745 0.006863307 9.136445e-05 0.0039424263 -0.00474947
0.010121368 -1.4386203e-11 -4.048918e-09 -3.5834272e-12 -0.0025681246 -9.932e-42 0.004869284 0.001617769
1.4159442e-21 2.559816e-06 1.8214848e-10 0.0020343866 0.003697268 -6.263413e-05 0.0015585568 0.0012220301
-0.0020861377 -0.0050291093 -0.004153101 -0.00084620225 0.0045633265 -0.007026213 -6.086499e-13 3.236255e-08
5.81536e-12 -0.004989152 -9.911e-42 0.0008853102 -9.87883e-05 2.3226058e-21 2.7506496e-06 -6.5827654e-10
-0.0017984734 0.0037067058 -0.0010126648 0.0048279134 -0.005046182 0.0032265598 -0.0025717402 -0.0033295187
-0.0016164236 0.0007185898 0.00037422683 3.05048e-10 1.2422946e-06 3.0855084e-05 0.2522113 5.4368808e-08
0.06651994 -0.2881066 8.397236e-05 0.010912698 2.786998e-06 0.25950566 0.10347688 0.015697718
-0.1974658 0.09288252 0.1597582 0.1507696 -0.06942707 0.042974744 -0.101893775 0.1403594
-0.0018298003 -1.31700535e-08 -1.7954915e-12 -0.014106384 9.888e-42 0.012953524 0.0044012126 1.4064343e-21
-6.6711614e-06 3.456855e-11 0.0041612345 0.008510764 -0.0016294904 0.005468866 -0.0041791536 0.005631433
-0.0011434876 -0.011301581 -0.003910736 0.0023687768 -0.0021569775 1.1811455e-10 1.1059494e-09 2.1097909e-12
-0.0056216614 9.89e-42 0.004885561 0.0024572427 -2.8378216e-21 2.6354315e-05 -2.1627151e-10 -0.0044130026
0.00521111 6.791375e-05 0.010011671 -0.0017254617 -0.0032572944 -0.007907425 0.0015677882 -0.0046104146
0.0034242736 -0.007499323 1.9226488e-10 -1.0642399e-08 -1.905406e-12 0.01033489 9.809e-42 -0.0046821116
-0.0054594553 -1.0420782e-22 2.5687657e-06 1.5208501e-10 -0.0021740417 -0.007777442 0.0019957772 -0.0056942473
0.0069154976 -0.0002866142 0.0041991547 0.008061702 0.005656406 0.0008423328 -0.0010328167 -1.0439832e-10
-4.4001953e-09 2.4167053e-12 0.0050760466 9.92e-42 -0.003651312 -0.0009248766 8.067343e-21 2.8999338e-07
3.7112943e-10 0.004190175 -0.0044027767 0.00012670073 -0.008629609 0.0028132985 0.0012652326 0.005913909
0.00029531648 0.003345528 -0.002896346 0.005470468 -1.9935235e-10 8.2767855e-08 2.302823e-10 0.039081156
-7.719e-41 -0.030515524 0.05633673 8.280367e-22 -0.0027745862 -8.1419085e-09 0.05636223 -0.12616126
0.0033357928 0.0784302 0.035711363 -0.03288012 0.006902808 -0.13871548 0.13977228 -0.04631448
0.13467638 -1.46321545e-05 -1.3210342e-08 -2.136649e-12 0.0012369183 -9.94e-42 -0.0047227996 -0.0034797776
2.2119401e-21 -0.00013578137 1.220511e-10 0.0042454908 -0.0020738363 -0.0014429971 -0.014611974 -0.0006973337
0.008611789 0.008515709 -0.0068362053 0.0035934108 -0.0044256398 0.011159535 -1.502047e-10 0.0007477636
-4.2483325e-06 -0.22135429 -7.3589423e-10 0.056344636 0.04430576 -6.4118876e-06 -0.0023273802 -2.1664812e-06
0.26865888 -0.17045349 -0.014564667 -0.021921545 0.01641593 0.0712716 -0.11879985 0.24033155
-0.040675607 -0.14723532 -0.12047235 0.0014013603 5.4281992e-09 7.45085e-12 0.01309541 9.879e-42

interaction_encoder.2.bias f4 [30]
00000000: 8a8a 71bb 7684 e5ba 414c 02bb e343 99bb
00000010: 1a15 fdbc dc25 04bc 2bfe 2dbb 5df1 bd3b
00000020: 7887 543b 2beb c9ba 7b28 5639 b492 013d
00000030: cb82 853b 4d1b d63b 3096 aebd 4214 4c3b
00000040: 02b9 beba db28 7cb6 bcf7 d1b9 7a8e d5ba
00000050: 4f79 3fbd 2df4 033b 4ec2 b8ba 8749 353b
00000060: 25ab 2b3b bf32 553e aea1 65bb a0c5 abbb
00000070: 8b57 293b ca78 4bbb
-0.0036856257 -0.001751079 -0.0019881877 -0.004677282 -0.030893851 -0.008065667 -0.00265492 0.005796595
0.0032429378 -0.0015405169 0.0002042371 0.031634048 0.0040744296 0.006534016 -0.0852474 0.0031140004
-0.0014550986 -3.7574707e-06 -0.00040048163 -0.0016293072 -0.04674655 0.0020134554 -0.0014095993 0.0027662234
0.002619454 0.2082014 -0.0035038996 -0.0052420646 0.0025839533 -0.0031047338

sinkhorn_feature_layers.0.weight f4 [16, 20]
00000000: 3351 27b0 80cb acae 0b71 50ac 742e ec35
00000010: 09a3 1f34 c729 12b4 c7f3 d5b3 9cb1 81ad
00000020: 9406 96b5 71f1 b7ab 2033 2ca6 7ae4 c0b1
00000030: 1a39 f9b5 240f 0fb4 4f09 34ad 908a 39a7
00000040: 1938 58aa d870 1434 0474 1f8e 9a9b 809a
00000050: 6aee 3f3e 9253 58be 10ff b63e a9eb 01bd
00000060: d8fc 7bbe c0dc 96be 261d ec3e 84a9 2bbe
00000070: 6a07 5ebd bcf1 00be 4983 8a3d f21c ec3a
00000080: 01e2 debd 5d95 813e 3fab 31be 6015 193e
00000090: 3be1 6a3c aaee e03c 7490 183d 8974 0b3e
000000a0: 4405 84be 005c 673e e7c7 b43d c29f 1d3e
000000b0: 8470 343c b734 90be eff3 c33e 893e 053e
000000c0: 03a6 1abd a9eb e8bc bd32 90be b4f7 5f3e
000000d0: 766a 993e 6c84 58be 44b3 5cbd 2e2e 8d3b
000000e0: 63e6 1d3e fc5d 01be 6bc1 8ebd 5b4e 4f3d
000000f0: 3753 033e b90c d43d 5628 5fbe 8083 cc3d
00000100: 9449 bc3e 6a24 483e a2e1 3ebe a17a 193e
00000110: 4944 81bd 3fe6 003d dbd1 39bd 6307 86bc
00000120: 95e7 1cbe d934 17be 97e1 d5bb a1b1 4abd
00000130: bdfe abbd b95a 4ebd 319b 4abb 0fd6 a0bd
00000140: 91ca 913e a024 29be 1146 f5bd 7861 8dbe
00000150: dccf 52bd 91b5 463d e385 2ebe 4534 16be
00000160: c8ac 30bd a0d3 78bd 30fb 063e 08c4 c2bc
00000170: 96ba 803d 64bd b83e e641 133d 6f2c a5bd
00000180: b9e0 4abc 763a 13be 9997 163e e40e 63bd
00000190: e95a 613d 8afe ca3e df25 b6bd 1600 57be
000001a0: 94cc b2bd 1f16 f9bd 7b9e 37be 003a b03d
000001b0: 95ec 5cbe 2314 5d3c d834 433e e781 4c3c
000001c0: 86c7 2f3e a614 333d ce0b d53e d282 99be
000001d0: d498 373e bf4c 8bbd fcb0 f33b 163a 513d
000001e0: 3c46 b53e f54d 063d 18b2 f63b 577e 6abe
000001f0: facc f23d 5e87 84be e60c 2dbe d71b 61bd
00000200: 4b1c d23c 3792 073e fd61 93be 1dd9 1ebd
00000210: c660 f13e ee6b 22be 9f18 b53b d574 0a3c
00000220: 31b1 043e 685d 9a3e c3fb f03a 9a1a f6bd
00000230: b207 dc3e 425b 2fbe 3d25 8abd 6489 d0bd
00000240: daf7 553e 2886 a6bd 1fa0 4b3d 7e2e a73c
00000250: 00c7 adbe bc29 27be d190 143e 971b fa3e
00000260: 127b 883c 77bf 4cbc b36f c4bd fb71 6bbd
00000270: 4412 08be e763 8a3d 9b4c 393d 1274 873e
00000280: 5281 033e d486 26bd 99c8 7f3e 36cd c23e
00000290: fe44 39bd 3c53 bbbd 5990 b5bd 4cde a3bb
000002a0: bda9 81be 9ef1 8a3e c7bf db3e 7c66 76be
000002b0: 997d 6d3e f98a 503c 14ef 7e3d c3cd 573e
000002c0: 8798 8bbd a888 62bc 2c28 a5bb 2b0d 0eb9
000002d0: 915a 47be 06fa 56be 56ac 2e3e cf0e a538
000002e0: 92c0 c4be b4c0 47bd c794 3a3e cc94 f4bd
000002f0: 114b 443e 755c 213d c5b4 1c3e aef1 9e3e
00000300: 2274 703d f14f 1d3e b6ff 34be 1e53 403e
00000310: 7e6d 73bc 2302 8d3d 1707 d43c 90dd 0d3d
00000320: 6a49 75be fb16 ff3d 19cd 413d 1d0c 1b3e
00000330: 8c51 6d3d dd08 ea3d e160 7cbd 91d9 3f3e
00000340: 8560 3a3c 6052 d73d bfc0 ac3d 1c46 973c
00000350: 7561 0dbf c42f 573e c636 89bd 4475 4a3d
00000360: dee2 693d 4687 38be b745 40bd a33d 4a3d
00000370: 7fb6 b5ba 9630 adb8 9f69 a4b9 d718 4fba
00000380: 8fe7 97b9 ad46 5338 f07a 8eba c2d5 ca36
00000390: b0f2 50b8 cc3f 4cb9 d260 ddb8 74da 89b9
000003a0: 1a72 a93a 275b 89ba d809 6bb8 9a0d b4b6
000003b0: 1e75 e7b8 41d3 d938 0c1b 0fb6 cfb2 74b5
000003c0: a34c 9bbd 6bbc 8dbd fcde 5dbe c06f fa3d
000003d0: 43ad 223e 9c04 1a3e a818 febe f43b 973d
000003e0: f60b 3dbd 604a dd3d 16bd 483e 7dbb 4c3e
000003f0: ba7c ba3d 0298 44be 01f2 873e 3406 d3bd
-6.0869637e-10 -7.857803e-11 -2.962133e-12 1.759689e-06 1.4867341e-07 -1.3612508e-07 -9.962928e-08 -1.4744476e-11
-1.1177785e-06 -1.3069946e-12 -5.9743775e-16 -5.6139102e-09 -1.8568564e-06 -1.3323421e-07 -1.0233882e-11 -2.5749022e-15
-1.9204117e-13 1.3824626e-07 -1.9654123e-30 -5.319095e-23 0.18743291 -0.2112563 0.35741472 -0.031718884
-0.24608171 -0.29465294 0.46115988 -0.16763884 -0.05420629 -0.12592214 0.06763322 0.0018013997
-0.108829506 0.25309268 -0.17350481 0.1494956 0.014335926 0.027457554 0.037247136 0.13618673
-0.25785267 0.22593689 0.08827191 0.15392974 0.011013154 -0.28165218 0.38272044 0.13012137
-0.037755977 -0.028432684 -0.2816371 0.21871835 0.29964036 -0.21144265 -0.0538819 0.0043084836
0.15419917 -0.12633508 -0.06970485 0.050611835 0.12824713 0.10353989 -0.2179273 0.09986019
0.36774886 0.19545141 -0.1864076 0.14988185 -0.063118525 0.03146958 -0.04536615 -0.016360944
-0.15322717 -0.14766254 -0.0065271365 -0.049485806 -0.08398197 -0.05037949 -0.0030915255 -0.078533284
0.28474858 -0.16517878 -0.11976255 -0.27613425 -0.05146776 0.048513 -0.17043261 -0.14668377
-0.043133527 -0.060748696 0.13181758 -0.023775116 0.062855884 0.36081994 0.035951518 -0.08065116
-0.01238268 -0.1437777 0.14706267 -0.055434123 0.05501834 0.39647323 -0.08893942 -0.20996127
-0.087304264 -0.121624224 -0.17931549 0.086048126 -0.21574624 0.0134935705 0.19063127 0.012482143
0.17165956 0.043720864 0.4161057 -0.2998262 0.17929393 -0.068017475 0.0074368697 0.051080786
0.35405147 0.03278919 0.0075285546 -0.22899757 0.118555024 -0.25884527 -0.16899452 -0.05495819
0.025648257 0.1323937 -0.28785697 -0.038781274 0.47144145 -0.15861484 0.0055266167 0.0084507065
0.12958218 0.30149388 0.0018385578 -0.120167926 0.4297462 -0.17124656 -0.06745384 -0.10182455
0.20895329 -0.08131057 0.04971325 0.020407911 -0.33940887 -0.16324514 0.14508368 0.48849174
0.016660247 -0.012496821 -0.095916174 -0.057481747 -0.13288218 0.06757336 0.045239072 0.26455742
0.128423 -0.040655926 0.24978866 0.3804719 -0.04523181 -0.09146735 -0.08865423 -0.005000865
-0.25324813 0.27137464 0.42919752 -0.24062532 0.23192443 0.012728446 0.06223972 0.21074586
-0.06816202 -0.013826527 -0.0050401893 -0.00013547081 -0.19468142 -0.20993814 0.17057928 7.8705714e-05
-0.3842817 -0.04876776 0.18220817 -0.11942443 0.1916926 0.039394815 0.15303333 0.31043762
0.058704503 0.15362526 -0.17675671 0.18781707 -0.014857648 0.06885173 0.025882287 0.034635127
-0.23953786 0.12455555 0.047314737 0.1514134 0.057939097 0.11427472 -0.06161583 0.18735339
0.011375551 0.10513759 0.08435201 0.018466048 -0.5522683 0.21014315 -0.066999 0.04942824
0.057101123 -0.18020353 -0.046941485 0.049375188 -0.0013863592 -8.258333e-05 -0.0003135921 -0.0007900125
-0.0002897349 5.0372142e-05 -0.0010870378 6.044954e-06 -4.9817085e-05 -0.00019478722 -0.000105561354 -0.00026293437
0.0012927682 -0.0010479436 -5.6037534e-05 -5.3660015e-06 -0.00011036753 0.000103867154 -2.1324404e-06 -9.1157284e-07
-0.07582977 -0.069207035 -0.21667093 0.12228346 0.15886407 0.15040821 -0.49628186 0.07384482
-0.046153985 0.108052015 0.1960338 0.19993396 0.09105821 -0.19198611 0.26551822 -0.103039175

sinkhorn_feature_layers.0.bias f4 [16]
00000000: 3dad 3db7 45b9 893d e826 37bd a6ec 01bd
00000010: c944 473e a359 0a3e febc 39bc 9677 703e
00000020: a907 a83e 99e5 983c 797b b03e 5618 83bb
00000030: 8765 cdbc c880 bebd d6e7 363e 7678 2ebd
-1.1305613e-05 0.067247905 -0.04471484 -0.031719826 0.19459833 0.13510756 -0.011336563 0.23483118
0.32818344 0.018664168 0.34469202 -0.004000704 -0.025072826 -0.09301907 0.17861876 -0.04259535
