paper_artifacts/collection/H2MN/trained_models/H2MN_ptc_fr_large_dataset_seed_1704_2024-05-03_02:59:02.pth (torch, 22015 bytes, 25 tensors)

conv0.bias f4 [10]
0	0xbf3e6053	-0.7436573
1	0xbeb3ab7f	-0.3509178
2	0x3f00bc40	0.50287247
3	0xbf23fb03	-0.6405489
4	0x3f21a50a	0.63142455
5	0x3edc1f1a	0.4299248
6	0xbf07bd06	-0.530228
7	0xbf199b9e	-0.6000308
8	0x3f08c0cd	0.5341919
9	0xbf067ac3	-0.5253107

conv0.lin.weight f4 [10, 1]
0	0x3f1eaf3c	0.61986136
1	0x3ed3dbe5	0.41378704
2	0xbf01344d	-0.5047043
3	0x3f0ec16d	0.55763894
4	0xbf3da81d	-0.74084646
5	0xbeaef0e6	-0.34168166
6	0x3f20117f	0.62526697
7	0x3f138d3b	0.57637376
8	0xbf184f1d	-0.5949572
9	0x3f06ef0d	0.5270851

conv1.bias f4 [10]
0	0x0145ac26	3.6306696e-38
1	0x3a56176d	0.0008166943
2	0x2fddb4c4	4.0328108e-10
3	0x3e76b07f	0.24090765
4	0x30ef091d	1.7392129e-09
5	0x043b05ce	2.198441e-36
6	0x2a631a39	2.0170748e-13
7	0x000a1655	9.26366e-40
8	0xa87b6ebb	-1.395731e-14
9	0x03370e60	5.379537e-37

conv1.lin.weight f4 [10, 10]
0	0x000a36f4	9.38068e-40
1	0x006d0eeb	1.001542e-38
2	0x009bd376	1.431036e-38
3	0x80326773	-4.628885e-39
4	0x8007a55f	-7.02172e-40
5	0x0084df9f	1.2202506e-38
6	0x00a8fe6a	1.551963e-38
7	0x01078a03	2.4894603e-38
8	0x000bfb03	1.100236e-39
9	0x00c8cafd	1.8439918e-38
10	0xb881173d	-6.155528e-05
11	0x38a94ec1	8.073217e-05
12	0x38a53d19	7.8791934e-05
13	0x3762e1c6	1.3523217e-05
14	0xb61c603a	-2.3301823e-06
15	0x39668bd9	0.00021986607
16	0xb9adb9ad	-0.0003313547
17	0xb7cc0797	-2.432223e-05
18	0xb50da673	-5.276881e-07
19	0xb8482a8a	-4.7723333e-05
20	0x2f9828df	2.767768e-10
21	0x2fb0926e	3.2118258e-10
22	0xaf2bd168	-1.5626755e-10
23	0xae05deb3	-3.0438495e-11
24	0x2f4f1a75	1.883594e-10
25	0x2ffec8fe	4.6345144e-10
26	0x2fe5dc66	4.181146e-10
27	0xaefec81a	-1.1586128e-10
28	0xb0d58874	-1.5536572e-09
29	0xafafd2ec	-3.1982184e-10
30	0x3bcc597b	0.006236253
31	0x3bd7cdb6	0.006585802
32	0xba2cf5ed	-0.0006597925
33	0x3bd1f188	0.0064069666
34	0x3aee12e1	0.0018163585
35	0x3aeca18d	0.0018053517
36	0x3c6de5ca	0.014520118
37	0x3b622010	0.0034503974
38	0x38a8198e	8.015624e-05
39	0x3bb442fd	0.0055011497
40	0xaf6e28ad	-2.1660425e-10
41	0xaf050cc4	-1.2100815e-10
42	0x2efb7993	1.14357544e-10
43	0x344988b1	1.8769312e-07
44	0xada85188	-1.9135596e-11
45	0xaf0cfdd4	-1.2823104e-10
46	0xaf200c24	-1.4556228e-10
47	0x2efc01e8	1.1459972e-10
48	0x2ebc44f2	8.561497e-11
49	0xad383d32	-1.0472777e-11
50	0x03d29fb2	1.2379355e-36
51	0x839c3196	-9.18024e-37
52	0x03cb402e	1.1946003e-36
53	0x8395f224	-8.813026e-37
54	0x832fb9f4	-5.164134e-37
55	0x83a8cdc6	-9.921396e-37
56	0x832de59e	-5.110372e-37
57	0x02426374	1.4281411e-37
58	0x891a761d	-1.8592612e-33
59	0x02c2021b	2.8506946e-37
60	0xa81c4926	-8.675601e-15
61	0xa913d2fd	-3.282356e-14
62	0xa8849a03	-1.4721736e-14
63	0x280a6421	7.682251e-15
64	0x28b0dc64	1.9635504e-14
65	0xa94db139	-4.567286e-14
66	0xa9772460	-5.4876568e-14
67	0xa850a537	-1.1582145e-14
68	0x28ec2b5a	2.6220064e-14
69	0xa89e599a	-1.7580382e-14
70	0x0005b07d	5.2249e-40
71	0x8005eea7	-5.4479e-40
72	0x800439db	-3.88097e-40
73	0x80077856	-6.86017e-40
74	0x0000fd90	9.0961e-41
75	0x00045be8	4.00312e-40
76	0x0002b14e	2.47276e-40
77	0x0005b19a	5.22889e-40
78	0x800442ee	-3.91352e-40
79	0x0005e0b3	5.39784e-40
80	0x271cf488	2.178191e-15
81	0x2774b3be	3.395924e-15
82	0x26e22a89	1.5693429e-15
83	0x278993a4	3.818521e-15
84	0x2784a2ad	3.6813733e-15
85	0x27a3a6a6	4.542227e-15
86	0x2779404a	3.4590543e-15
87	0xa7813523	-3.5862303e-15
88	0x26f7bc40	1.7190093e-15
89	0xa64e5b7d	-7.1594597e-16
90	0x806a2ae6	-9.749952e-39
91	0x01c51dc3	7.2409077e-38
92	0x8084718f	-1.2163023e-38
93	0x80aee506	-1.6061534e-38
94	0x815b3f57	-4.0269391e-38
95	0x819efc92	-5.8402454e-38
96	0x821210dc	-1.0731224e-37
97	0x00374222	5.074676e-39
98	0x8013febe	-1.836259e-39
99	0x013dd8b9	3.4869308e-38

cross_conv1.cross_conv.weight f4 [10, 10]
0	0x00001b86	9.874e-42
1	0x00001b6a	9.834e-42
2	0x00001b9b	9.903e-42
3	0xbd8a53cc	-0.06754264
4	0x00001b5e	9.817e-42
5	0x80001b65	-9.827e-42
6	0x00001b8e	9.885e-42
7	0x80001bb2	-9.935e-42
8	0x00001b7a	9.857e-42
9	0x0000181e	8.652e-42
10	0x00001b6b	9.836e-42
11	0x0000013c	4.43e-43
12	0x00001bbf	9.953e-42
13	0xbd8d0e25	-0.068874635
14	0x00001bb9	9.945e-42
15	0x000022a4	1.2427e-41
16	0x00001b5a	9.812e-42
17	0x00001fc9	1.1402e-41
18	0x00001b6b	9.836e-42
19	0x80001b6d	-9.839e-42
20	0x00001bb4	9.938e-42
21	0x00001b67	9.83e-42
22	0x80001b5c	-9.815e-42
23	0x3d85beec	0.06530556
24	0x80001bf7	-1.0032e-41
25	0x00001bda	9.991e-42
26	0x00002186	1.2026e-41
27	0x80001b88	-9.876e-42
28	0x80001b64	-9.826e-42
29	0x00001b9e	9.907e-42
30	0x00001bd6	9.986e-42
31	0x8000230f	-1.2577e-41
32	0x00001ba3	9.914e-42
33	0x3d90b0fe	0.070650086
34	0x80002074	-1.1642e-41
35	0x80001bb1	-9.934e-42
36	0x00001bb4	9.938e-42
37	0x00001b61	9.822e-42
38	0x00001b9b	9.903e-42
39	0x80001b79	-9.855e-42
40	0x80001c4d	-1.0152e-41
41	0x00001b8c	9.882e-42
42	0x00001b6f	9.841e-42
43	0xbd8851fc	-0.06656262
44	0x00001b86	9.874e-42
45	0x00001bbe	9.952e-42
46	0x00001b6d	9.839e-42
47	0x80001b9e	-9.907e-42
48	0x3495e04f	2.791662e-07
49	0x00001b62	9.823e-42
50	0x00001b66	9.829e-42
51	0x00001b68	9.832e-42
52	0x32c57c1b	2.2990255e-08
53	0xbd8ec5d6	-0.06971328
54	0x00001de4	1.0723e-41
55	0x00001b64	9.826e-42
56	0x00001b59	9.81e-42
57	0x00001b95	9.895e-42
58	0x00001b72	9.846e-42
59	0x00001b5f	9.819e-42
60	0x000022bb	1.2459e-41
61	0x80000ee0	-5.336e-42
62	0x80001b5f	-9.819e-42
63	0xbd8c1f16	-0.06841867
64	0x80001b5d	-9.816e-42
65	0x80001b94	-9.893e-42
66	0x80001ba8	-9.921e-42
67	0x80001b59	-9.81e-42
68	0x80001b75	-9.85e-42
69	0x00001b5c	9.815e-42
70	0x80001b71	-9.844e-42
71	0x80001bc4	-9.96e-42
72	0x00001b9d	9.906e-42
73	0x3d82ff13	0.06396308
74	0x80001d70	-1.056e-41
75	0x00001b81	9.867e-42
76	0x00001b67	9.83e-42
77	0x80001bc1	-9.956e-42
78	0x00001b6d	9.839e-42
79	0x00001de0	1.0717e-41
80	0x00001b7e	9.862e-42
81	0xb12111d5	-2.343872e-09
82	0x80001ba0	-9.91e-42
83	0xbd94eb3f	-0.07271432
84	0x2e34ebbc	4.1136636e-11
85	0x80001c3d	-1.013e-41
86	0x80001e79	-1.0932e-41
87	0x00001b59	9.81e-42
88	0x36dc6a1b	6.5688632e-06
89	0x00001b86	9.874e-42
90	0x00001b67	9.83e-42
91	0x80001fe2	-1.1437e-41
92	0x00001ba3	9.914e-42
93	0xbd8b0ae2	-0.06789185
94	0x80001b7b	-9.858e-42
95	0x80001b7b	-9.858e-42
96	0x00001c98	1.0258e-41
97	0x00001bc5	9.962e-42
98	0x00002174	1.2001e-41
99	0x00001900	8.968e-42

pool1.hypergnn.lin.weight f4 [1, 10]
0	0x013b88cf	3.444463e-38
1	0x3a69440a	0.0008898383
2	0xb04f9822	-7.5522355e-10
3	0xbb7fa643	-0.0039009012
4	0x30ca6622	1.4726462e-09
5	0x83a667b7	-9.780415e-37
6	0xaa8ce86c	-2.503027e-13
7	0x800f0d41	-1.382287e-39
8	0x281ec5b3	8.813631e-15
9	0x0332c49a	5.2535186e-37

conv2.weight f4 [10, 10]
0	0xba80eaf9	-0.0009835652
1	0xb913967a	-0.0001407507
2	0xb0e680c8	-1.6771304e-09
3	0xb72535a5	-9.8472565e-06
4	0xbe28652c	-0.16444844
5	0xb780778a	-1.5314454e-05
6	0x3cb1c704	0.021701343
7	0x3e1e98a3	0.15487914
8	0xb085a1f4	-9.723053e-10
9	0xb5a76118	-1.2470728e-06
10	0xba80f731	-0.0009839294
11	0xb91398b4	-0.00014075899
12	0xb0e69e29	-1.6779654e-09
13	0xb7253a5f	-9.848357e-06
14	0xbe45c1b5	-0.19312175
15	0xb7807513	-1.5313306e-05
16	0x3ca94c16	0.020666163
17	0x3e5fbe4c	0.21849936
18	0xb085aac5	-9.725559e-10
19	0xb5a76f5d	-1.2474881e-06
20	0xba80d9f7	-0.0009830584
21	0xb9137ef3	-0.00014066305
22	0xb0e64a5a	-1.6755834e-09
23	0xb72514e5	-9.839631e-06
24	0xbdf4ddbf	-0.11956357
25	0xb7805661	-1.5299012e-05
26	0x3cb0fc45	0.021604666
27	0x3e44ca2b	0.19217746
28	0xb0858906	-9.715968e-10
29	0xb5a74298	-1.2461851e-06
30	0xba810d13	-0.0009845815
31	0xb913c30d	-0.00014091675
32	0xb0e6d11a	-1.6794133e-09
33	0xb7256c9b	-9.860053e-06
34	0xbe29f4f3	-0.16597347
35	0xb780abb4	-1.5338745e-05
36	0x3cb06be6	0.021535825
37	0x3db825ca	0.08991583
38	0xb085cd1a	-9.735317e-10
39	0xb5a79b00	-1.248758e-06
40	0xba80e482	-0.0009833726
41	0xb9139d30	-0.0001407757
42	0xb0e66eb9	-1.6766172e-09
43	0xb7253aa9	-9.848424e-06
44	0xbe0274f0	-0.1273992
45	0xb78084c6	-1.5320617e-05
46	0x3cab6d99	0.020926284
47	0x3dcc921e	0.09988807
48	0xb085a1a7	-9.722968e-10
49	0xb5a75d9b	-1.2469712e-06
50	0xba8103c5	-0.0009843042
51	0xb913ba60	-0.00014088443
52	0xb0e6bbe3	-1.6788103e-09
53	0xb7256131	-9.8573955e-06
54	0xbe22f1d1	-0.15912558
55	0xb780a271	-1.5334432e-05
56	0x3cad4e84	0.021155603
57	0x3dc1af19	0.09457225
58	0xb085c35a	-9.732546e-10
59	0xb5a78cfd	-1.2483503e-06
60	0xba80f70f	-0.0009839254
61	0xb91393c1	-0.00014074055
62	0xb0e69770	-1.6777744e-09
63	0xb7253280	-9.846524e-06
64	0xbe262ce0	-0.16228056
65	0xb7806a19	-1.5308195e-05
66	0x3caddfe5	0.021224925
67	0x3e870a83	0.26375207
68	0xb085a793	-9.724651e-10
69	0xb5a76c9c	-1.2474079e-06
70	0xba80cb65	-0.0009826241
71	0xb913775f	-0.00014063482
72	0xb0e62591	-1.674538e-09
73	0xb725097d	-9.836976e-06
74	0xbdd34770	-0.1031636
75	0xb78051af	-1.5296826e-05
76	0x3cae688b	0.021290084
77	0x3e1cafb5	0.15301402
78	0xb0857c15	-9.71229e-10
79	0xb5a72f80	-1.2456294e-06
80	0xba8121ee	-0.0009852031
81	0xb913d69d	-0.00014098962
82	0xb0e6fd87	-1.6806759e-09
83	0xb7258639	-9.8660175e-06
84	0xbe348309	-0.17628111
85	0xb780c075	-1.5348409e-05
86	0x3cacb423	0.02108199
87	0x3d99951e	0.07499145
88	0xb085e233	-9.741313e-10
89	0xb5a7b9ff	-1.2496602e-06
90	0xba80ee84	-0.0009836708
91	0xb913925d	-0.00014073537
92	0xb0e68762	-1.6773181e-09
93	0xb7253193	-9.846309e-06
94	0xbe337b4c	-0.17527503
95	0xb7806f72	-1.5310685e-05
96	0x3cb1dd67	0.021712018
97	0x3e4c4b99	0.19950713
98	0xb085a1c4	-9.723e-10
99	0xb5a762bb	-1.2471204e-06

conv2.bias f4 [10]
0	0xbbd157b4	-0.006388629
1	0xbaa83a3b	-0.0012834737
2	0xb1572ef9	-3.1313319e-09
3	0xb89bac47	-7.423065e-05
4	0x3e70f82a	0.23532167
5	0xb910de3a	-0.00013815696
6	0x3dbf1a27	0.0933116
7	0xbeeb1a2c	-0.45918405
8	0xb12ee25f	-2.544901e-09
9	0xb644dd46	-2.9335074e-06

cross_conv2.cross_conv.weight f4 [10, 10]
0	0x0856e08b	6.466223e-34
1	0x80001f84	-1.1306e-41
2	0x00001d32	1.0473e-41
3	0x00001b76	9.851e-42
4	0x9533243f	-3.6177355e-26
5	0x9b3e5cde	-1.5746439e-22
6	0xbd9fb8d6	-0.077989265
7	0xbe12f2ac	-0.14350384
8	0x8000d579	-7.658e-41
9	0x8000002f	-6.6e-44
10	0x86c15710	-7.272646e-35
11	0x0337652a	5.3894997e-37
12	0x0000acea	6.203e-41
13	0x80001c3b	-1.0127e-41
14	0x2e3e0824	4.320823e-11
15	0x80001b91	-9.889e-42
16	0x3df82e7b	0.121182404
17	0x8dc5471f	-1.2158184e-30
18	0x00006c99	3.8957e-41
19	0x80001b6e	-9.84e-42
20	0x3c58125a	0.013187969
21	0x3b126ff5	0.0022344564
22	0x00001ba6	9.918e-42
23	0x393047fd	0.00016811486
24	0xbe56a80b	-0.20962541
25	0xb6b03e2c	-5.2524465e-06
26	0x23f4e0da	2.6549761e-17
27	0x3e9a2f99	0.3011444
28	0x00001b63	9.825e-42
29	0x05235ebb	7.6816224e-36
30	0x87183ecc	-1.1453663e-34
31	0x83a13830	-9.4756295e-37
32	0x0000a5c9	5.9473e-41
33	0x00001c82	1.0227e-41
34	0x26e1dcc0	1.5672346e-15
35	0x00001b8f	9.886e-42
36	0xbdf7f099	-0.12106437
37	0xa865ffed	-1.2767549e-14
38	0x80001e01	-1.0763e-41
39	0x80001fff	-1.1478e-41
40	0x8711d088	-1.0969869e-34
41	0x02f667c6	3.6206014e-37
42	0xb0bcd64f	-1.373971e-09
43	0x000020be	1.1746e-41
44	0xa80deef4	-7.878887e-15
45	0x00001b9e	9.907e-42
46	0xbdf88247	-0.121342234
47	0x87a79e8c	-2.5220553e-34
48	0x8000221c	-1.2236e-41
49	0x80002203	-1.2201e-41
50	0x857ae186	-1.17963656e-35
51	0x82b23f09	-2.619093e-37
52	0xb16a34cf	-3.40815e-09
53	0x00001c3b	1.0127e-41
54	0x311a6ebc	2.2472895e-09
55	0x80001ba0	-9.91e-42
56	0x3e011725	0.12606485
57	0x95b81261	-7.4346005e-26
58	0x000067c9	3.7231e-41
59	0x80001e00	-1.0762e-41
60	0x87c06f83	-2.895449e-34
61	0x02ff23fc	3.7489536e-37
62	0x80002240	-1.2287e-41
63	0x80002296	-1.2407e-41
64	0x2d38a389	1.0495501e-11
65	0x80001b9c	-9.904e-42
66	0xbdf821fd	-0.12115858
67	0x92b78e74	-1.1584041e-27
68	0x800009a9	-3.465e-42
69	0x800021c2	-1.211e-41
70	0x87790d8e	-1.8736661e-34
71	0x2775e84d	3.412651e-15
72	0x80001b7b	-9.858e-42
73	0x00001b58	9.809e-42
74	0x2f1c7b37	1.4231892e-10
75	0x276bc2fd	3.2718505e-15
76	0xbd981d26	-0.074274346
77	0xbe291bda	-0.16514531
78	0x00001b66	9.829e-42
79	0x05fbc73d	2.3677115e-35
80	0x08933200	8.858996e-34
81	0x0003089f	2.78599e-40
82	0xae109acd	-3.28793e-11
83	0x80001bbf	-9.953e-42
84	0xae0b654f	-3.169492e-11
85	0x80001b61	-9.822e-42
86	0xbdf7b14b	-0.12094363
87	0xa824b1c3	-9.142375e-15
88	0x2408795a	2.9593088e-17
89	0x00001b59	9.81e-42
90	0x3918f2b8	0.0001458627
91	0xba6054d3	-0.00085575617
92	0xa700cca4	-1.7874504e-15
93	0xbaa01771	-0.0012214017
94	0xbda9aaca	-0.082845286
95	0x3a9cb202	0.0011954906
96	0xbaf5d947	-0.001875677
97	0x24ff7c22	1.1079891e-16
98	0xa1260764	-5.625277e-19
99	0xb7a625bf	-1.9806319e-05

pool2.hypergnn.lin.weight f4 [1, 10]
0	0x3aa0e434	0.0012275041
1	0x39a3323c	0.0003112721
2	0x30a3db05	1.192206e-09
3	0x378cba77	1.677613e-05
4	0xbbd395f7	-0.006457086
5	0x370dbdbc	8.448431e-06
6	0xbc136e0a	-0.008998403
7	0x3cc3ff92	0.023925576
8	0x3058c4ba	7.885991e-10
9	0x35831c8d	9.76857e-07

conv3.weight f4 [10, 10]
0	0x00191200	2.302345e-39
1	0x32612f95	1.3107543e-08
2	0x994fdb00	-1.0745876e-23
3	0x1ccde65f	1.3625312e-21
4	0x91183ecc	-1.2010037e-28
5	0x2346c79e	1.0775872e-17
6	0x32d8e3a7	2.5249234e-08
7	0x05634c6a	1.0687524e-35
8	0x019dc1e3	5.7950905e-38
9	0x3d0eb644	0.03484179
10	0x00207e59	2.984061e-39
11	0xb34c9177	-4.762975e-08
12	0x97b118d3	-1.1444623e-24
13	0x1e03122c	6.93884e-21
14	0x90dc6a5d	-8.693858e-29
15	0xa38300bb	-1.4203358e-17
16	0xb3366665	-4.2468304e-08
17	0x83b3215c	-1.0528333e-36
18	0x81647f95	-4.1968522e-38
19	0x3d1b163d	0.037863005
20	0x001549ab	1.954973e-39
21	0xb0ac590e	-1.2539958e-09
22	0x995f2edf	-1.1538295e-23
23	0x9e7996ca	-1.3213133e-20
24	0x90d7c24c	-8.510191e-29
25	0x225432ad	2.8758185e-18
26	0xb2b4f482	-2.1065947e-08
27	0x8477bbc9	-2.9120937e-36
28	0x8044f9c8	-6.334418e-39
29	0x3d0de0eb	0.034638327
30	0x0020e782	3.021785e-39
31	0xb34c8e65	-4.762696e-08
32	0x97b46cee	-1.1659725e-24
33	0x1e032e1c	6.9446175e-21
34	0x90dc2bbd	-8.684209e-29
35	0xa3835571	-1.4239234e-17
36	0xb3363f89	-4.2432962e-08
37	0x83b6f2cb	-1.0752741e-36
38	0x8164a4a8	-4.199512e-38
39	0x3d1b178e	0.03786426
40	0x00201ef2	2.949837e-39
41	0xb34c9186	-4.7629804e-08
42	0x97b10e8e	-1.1442031e-24
43	0x1e02f365	6.9324755e-21
44	0x90dc750b	-8.695503e-29
45	0xa3832111	-1.4217053e-17
46	0xb3365900	-4.2456122e-08
47	0x83b3cd20	-1.0567769e-36
48	0x81649203	-4.1981745e-38
49	0x3d1b16af	0.03786343
50	0x0020853b	2.98653e-39
51	0xb34c7187	-4.7600704e-08
52	0x9796e023	-9.750103e-25
53	0x1dff3017	6.754766e-21
54	0x90dc7085	-8.6948063e-29
55	0xa386ddcd	-1.4622245e-17
56	0xb336c2e9	-4.2552447e-08
57	0x83b6e9e2	-1.07506955e-36
58	0x81641e18	-4.1898577e-38
59	0x3d1b6f25	0.037947793
60	0x0020817a	2.985183e-39
61	0xb34c893d	-4.762227e-08
62	0x97b82c88	-1.1901963e-24
63	0x1e02e2bd	6.929031e-21
64	0x90dc2c96	-8.6843395e-29
65	0xa3831fd0	-1.4216522e-17
66	0xb3361466	-4.239373e-08
67	0x83b71ae3	-1.0761946e-36
68	0x8164e014	-4.2037754e-38
69	0x3d1b1a4a	0.037866868
70	0x001925e2	2.309477e-39
71	0x322df42d	1.01254445e-08
72	0x994dcf89	-1.0640163e-23
73	0x9d6af5e3	-3.1096763e-21
74	0x91389856	-1.4561983e-28
75	0x244e380e	4.471661e-17
76	0xb32dfe67	-4.051108e-08
77	0x058accd5	1.3052701e-35
78	0x019f0963	5.8420845e-38
79	0x3d11626f	0.035494264
80	0x002086a8	2.987041e-39
81	0xb34c8b21	-4.762399e-08
82	0x97b967eb	-1.1981577e-24
83	0x1e02bfae	6.921781e-21
84	0x90dc2dc8	-8.6845237e-29
85	0xa3833622	-1.4225975e-17
86	0xb3361255	-4.239185e-08
87	0x83b6f711	-1.0753722e-36
88	0x81647e9c	-4.1967824e-38
89	0x3d1b1ad7	0.037867393
90	0x001302ef	1.745927e-39
91	0x31a55a8f	4.8124273e-09
92	0x98c341b9	-5.047268e-24
93	0x9dc987d2	-5.334469e-21
94	0x90487d6e	-3.9539673e-29
95	0x241906d4	3.318237e-17
96	0xb208c989	-7.962066e-09
97	0x0549439b	9.463392e-36
98	0x80543a5f	-7.735121e-39
99	0x3c1c3f5a	0.009536589

conv3.bias f4 [10]
0	0x000df525	1.281803e-39
1	0x330c0a44	3.2605627e-08
2	0x998f1883	-1.4795754e-23
3	0x9e20ccac	-8.512655e-21
4	0x9123e2c0	-1.2928305e-28
5	0x2537116f	1.5878627e-16
6	0x333c9dc2	4.391564e-08
7	0x05a9da96	1.597298e-35
8	0x81dd93c7	-8.139463e-38
9	0x3e65e79b	0.22451632

cross_conv3.cross_conv.weight f4 [10, 10]
0	0x2a44fd90	1.7496269e-13
1	0x2de80d00	2.638112e-11
2	0xa605276c	-4.619707e-16
3	0x2818e323	8.486947e-15
4	0x800021a7	-1.2072e-41
5	0x00001b81	9.867e-42
6	0xb132fc86	-2.6045952e-09
7	0x2e164158	3.4164088e-11
8	0x00001b8e	9.885e-42
9	0x3dae5b90	0.08513558
10	0x29099a20	3.0553793e-14
11	0x80001b74	-9.848e-42
12	0x80002299	-1.2411e-41
13	0xb2eef5b9	-2.7818588e-08
14	0x80001b98	-9.899e-42
15	0x80001b80	-9.865e-42
16	0x00001b60	9.82e-42
17	0x2f6bef96	2.1458244e-10
18	0x80001b68	-9.832e-42
19	0x3dae5b23	0.08513477
20	0x2fab5cf2	3.117076e-10
21	0x00001b6e	9.84e-42
22	0x00001caf	1.029e-41
23	0xb5103ebd	-5.3735477e-07
24	0x80001b72	-9.846e-42
25	0x80001b58	-9.809e-42
26	0xabbb1076	-1.3291718e-12
27	0x27447a24	2.7266677e-15
28	0x80001b7a	-9.857e-42
29	0x3dae5b3c	0.08513495
30	0x88254417	-4.973292e-34
31	0x3247284d	1.1592488e-08
32	0x253f4a31	1.6591746e-16
33	0xa8dfb406	-2.4836046e-14
34	0x00001bf3	1.0026e-41
35	0x80001b9c	-9.904e-42
36	0xa7d07bc4	-5.7865784e-15
37	0x2fc5c454	3.597359e-10
38	0x00001b75	9.85e-42
39	0x3dae5b75	0.08513538
40	0x00001b5f	9.819e-42
41	0x00001b66	9.829e-42
42	0x00001bb3	9.937e-42
43	0x00001b7a	9.857e-42
44	0x80001da0	-1.0627e-41
45	0x00001ba0	9.91e-42
46	0x00001b67	9.83e-42
47	0x00001b65	9.827e-42
48	0x00001b8a	9.879e-42
49	0x80001b59	-9.81e-42
50	0xb478612a	-2.3132148e-07
51	0x3121059d	2.3431774e-09
52	0x327f3bfb	1.48565915e-08
53	0xac9c381c	-4.440016e-12
54	0x80001b87	-9.875e-42
55	0x00001ba7	9.92e-42
56	0x2696c2d2	1.0461147e-15
57	0x256bef5f	2.0464103e-16
58	0x80001b8e	-9.885e-42
59	0xbdae5b6a	-0.085135296
60	0xb22b3cb5	-9.967313e-09
61	0x33eca5dd	1.1019777e-07
62	0x00001ba7	9.92e-42
63	0x25fcbcc2	4.384294e-16
64	0x0000008f	2e-43
65	0x00001b7b	9.858e-42
66	0x29f3ad26	1.0821404e-13
67	0xb50f3747	-5.335209e-07
68	0x00001b71	9.844e-42
69	0x3dae5b75	0.08513538
70	0x26b2874a	1.2387901e-15
71	0x308b95ae	1.0156123e-09
72	0x00001ce0	1.0358e-41
73	0x2561e718	1.9593937e-16
74	0x80001b6b	-9.836e-42
75	0x80001b8b	-9.88e-42
76	0xb6d2c300	-6.2811887e-06
77	0x32623b74	1.3168449e-08
78	0x00001b93	9.892e-42
79	0x3dae5b71	0.08513535
80	0x2889bf20	1.5292943e-14
81	0xa587a0b9	-2.3527677e-16
82	0x2bba2a36	1.3227811e-12
83	0x337e8fd4	5.9269794e-08
84	0x8000107e	-5.916e-42
85	0x00001b5d	9.816e-42
86	0xaa2b152b	-1.5195195e-13
87	0x00001ede	1.1073e-41
88	0x80001b97	-9.897e-42
89	0xbdae5b49	-0.08513505
90	0x310202a8	1.8919e-09
91	0x00001b6f	9.841e-42
92	0x80001b95	-9.895e-42
93	0x311d0a8f	2.2852509e-09
94	0x80000d74	-4.826e-42
95	0x00001b6a	9.834e-42
96	0xa9ea6836	-1.0409765e-13
97	0x25534eef	1.8328076e-16
98	0x80001b5d	-9.816e-42
99	0x3dae5b7a	0.085135415

pool3.hypergnn.lin.weight f4 [1, 10]
0	0x000bd0bd	1.085072e-39
1	0xb210f40b	-8.437392e-09
2	0x1a0ab042	2.868011e-23
3	0x9effdea0	-2.709125e-20
4	0x10a3d92a	6.462676e-29
5	0x23ef8e27	2.5972636e-17
6	0xb41455b8	-1.3814758e-07
7	0x05ad9277	1.6322645e-35
8	0x0189cc77	5.0619245e-38
9	0x3be3f9ee	0.006957284

readout0.weight f4 [10, 10]
0	0xbc05bae2	-0.008162232
1	0xbd0b93c3	-0.034076463
2	0xbb6d4115	-0.0036202122
3	0xbb6039af	-0.003421407
4	0x3ba1a069	0.0049324525
5	0xbc609fe5	-0.013709997
6	0xbd2ee78b	-0.042701285
7	0xbcaff10c	-0.021477245
8	0x3bb19168	0.005418945
9	0xbcdf2819	-0.0272408
10	0x3c7c2e71	0.015391932
11	0x3d583211	0.052782122
12	0x3cce75bc	0.025202624
13	0xba26ee6c	-0.0006367925
14	0x3b4eb3c8	0.0031540263
15	0x3d429d6c	0.04751341
16	0x3d916696	0.07099645
17	0x3d0d1754	0.034446076
18	0x3b19c841	0.0023465308
19	0x3d37fe4e	0.04492026
20	0x3cfdb3cf	0.030969528
21	0x3d29d34f	0.041461285
22	0xbcb53688	-0.02212073
23	0x3cc7e619	0.024401711
24	0xbc83ee72	-0.01610491
25	0xbcd7712f	-0.026299087
26	0x3d532a83	0.051554214
27	0x3d1af655	0.037832577
28	0xbcbf564b	-0.023356577
29	0x3d2ad68f	0.041708525
30	0xbbcc0942	-0.0062266896
31	0xbd061c99	-0.032742117
32	0x3ae72262	0.0017634148
33	0xbbb3cd95	-0.005487154
34	0x3bed05bc	0.0072333496
35	0xbbcda480	-0.0062757134
36	0xbd386b7b	-0.045024376
37	0xbcaa5ebc	-0.020797126
38	0x3bdd49f8	0.0067532025
39	0xbcccd944	-0.025005944
40	0xbb5761e2	-0.003286474
41	0xbcdb39c4	-0.026760943
42	0xbbf8b3ea	-0.007589807
43	0xba744050	-0.00093174446
44	0x3b5c84d0	0.0033648498
45	0xbc9d0ea4	-0.01917202
46	0xbd06b352	-0.032885857
47	0xbc84a6c0	-0.016192794
48	0x3aded3b5	0.001700035
49	0xbcaa001d	-0.020752007
50	0x3cfc44b2	0.030794475
51	0x3da7606d	0.08172689
52	0x3ce6a6be	0.02815568
53	0x3b77dfce	0.0037822607
54	0x3bb655de	0.0055644354
55	0x3d60ee46	0.054914735
56	0x3de7d117	0.113191776
57	0x3d664dea	0.05622665
58	0xb9e9810b	-0.00044537368
59	0x3d92e701	0.07172967
60	0x3c7df47b	0.015500183
61	0x3d8dc1f2	0.06921758
62	0x3d39ddd4	0.045377567
63	0xbc16ac32	-0.009196328
64	0x3c54c378	0.0129860565
65	0x3da45b7a	0.0802526
66	0x3dc53f53	0.09631219
67	0x3d29bb96	0.04143866
68	0x3c44dcf8	0.012015574
69	0x3d6a3067	0.057175066
70	0x3cc746d2	0.024325762
71	0x3d0d0a46	0.034433626
72	0xbcc4209b	-0.023941329
73	0x3cc74da4	0.024329014
74	0xbca3487e	-0.019932028
75	0xbcc9310f	-0.024559526
76	0x3d25f701	0.040518764
77	0x3cfc2e21	0.030783715
78	0xbcb3afcb	-0.02193441
79	0x3d089db1	0.03335351
80	0x3cc9ed90	0.024649411
81	0x3cdfa908	0.02730228
82	0xbd0a896d	-0.033822466
83	0x3cd46615	0.025927583
84	0xbcaa8e36	-0.020819765
85	0xbd2b950f	-0.0418902
86	0x3d1247ec	0.03571312
87	0x3cd73f35	0.026275257
88	0xbccf48f3	-0.02530334
89	0x3cdc0b91	0.026860984
90	0x3cc7887d	0.024357075
91	0x3d07095b	0.032967906
92	0xbc85411f	-0.016266404
93	0x3caf9dea	0.021437604
94	0xbc6b87da	-0.014375651
95	0xbc9af54f	-0.0189158
96	0x3d1cf8cf	0.03832322
97	0x3d004b20	0.031321645
98	0xbc91e2de	-0.017808374
99	0x3d0af687	0.033926513

readout1.weight f4 [10, 10]
0	0xbdc7ddb0	-0.097590804
1	0xbdc7edaa	-0.09762128
2	0xbdc7de3b	-0.09759184
3	0xbdc7daf8	-0.09758562
4	0xbdc7cccb	-0.09755858
5	0xbdc7d842	-0.09758045
6	0xbdc7f354	-0.09763208
7	0xbdc7d152	-0.097567216
8	0xbdc7dff0	-0.097595096
9	0xbdc7e766	-0.097609326
10	0xbdc802dd	-0.09766171
11	0xbdc812e4	-0.09769228
12	0xbdc80367	-0.09766274
13	0xbdc8001d	-0.097656466
14	0xbdc7f1f6	-0.09762947
15	0xbdc7fd6e	-0.09765135
16	0xbdc81884	-0.09770301
17	0xbdc7f677	-0.09763806
18	0xbdc8051f	-0.09766602
19	0xbdc80c8b	-0.097680174
20	0xbdc7e1b0	-0.09759843
21	0xbdc7f1b6	-0.097628996
22	0xbdc7e238	-0.09759945
23	0xbdc7def7	-0.09759324
24	0xbdc7d0e5	-0.0975664
25	0xbdc7dc46	-0.09758811
26	0xbdc7f756	-0.097639725
27	0xbdc7d55a	-0.097574905
28	0xbdc7e3fd	-0.09760282
29	0xbdc7eb6d	-0.09761701
30	0xbdc7cc75	-0.09755794
31	0xbdc7dc77	-0.09758847
32	0xbdc7cd07	-0.09755903
33	0xbdc7c9b9	-0.097552724
34	0xbdc7bba1	-0.09752584
35	0xbdc7c712	-0.097547665
36	0xbdc7e21b	-0.09759923
37	0xbdc7c019	-0.097534366
38	0xbdc7cec2	-0.09756233
39	0xbdc7d62e	-0.097576484
40	0xbdc7b376	-0.09751026
41	0xbdc7c375	-0.09754077
42	0xbdc7b3fe	-0.09751128
43	0xbdc7b0ba	-0.09750505
44	0xbdc7a29b	-0.097478114
45	0xbdc7ae09	-0.097499914
46	0xbdc7c90f	-0.09755146
47	0xbdc7a721	-0.09748674
48	0xbdc7b5bd	-0.09751461
49	0xbdc7bd2a	-0.09752877
50	0xbdc7c858	-0.097550094
51	0xbdc7d851	-0.09758056
52	0xbdc7c8e1	-0.097551115
53	0xbdc7c5a1	-0.097544916
54	0xbdc7b780	-0.09751797
55	0xbdc7c2f3	-0.097539805
56	0xbdc7ddf6	-0.097591326
57	0xbdc7bbfe	-0.097526535
58	0xbdc7caa1	-0.09755445
59	0xbdc7d216	-0.097568676
60	0xbdc80fda	-0.097686484
61	0xbdc81fdb	-0.09771701
62	0xbdc81066	-0.09768753
63	0xbdc80d23	-0.09768131
64	0xbdc7fefc	-0.09765431
65	0xbdc80a6f	-0.09767615
66	0xbdc82587	-0.09772783
67	0xbdc8037c	-0.097662896
68	0xbdc8121e	-0.097690806
69	0xbdc81990	-0.09770501
70	0xbdc7c475	-0.09754268
71	0xbdc7d476	-0.097573206
72	0xbdc7c506	-0.09754376
73	0xbdc7c1bb	-0.09753748
74	0xbdc7b39f	-0.09751057
75	0xbdc7bf15	-0.09753243
76	0xbdc7da1e	-0.097583994
77	0xbdc7b828	-0.09751922
78	0xbdc7c6c3	-0.09754708
79	0xbdc7ce32	-0.097561255
80	0xbdc7d2b3	-0.097569846
81	0xbdc7e2b3	-0.09760036
82	0xbdc7d33b	-0.09757086
83	0xbdc7d000	-0.0975647
84	0xbdc7c1db	-0.09753772
85	0xbdc7cd54	-0.0975596
86	0xbdc7e851	-0.09761108
87	0xbdc7c652	-0.097546235
88	0xbdc7d503	-0.09757426
89	0xbdc7dc68	-0.09758836
90	0xbdc7f52f	-0.09763562
91	0xbdc80530	-0.097666144
92	0xbdc7f5ba	-0.097636655
93	0xbdc7f270	-0.09763038
94	0xbdc7e450	-0.09760344
95	0xbdc7efbe	-0.09762524
96	0xbdc80ad2	-0.09767689
97	0xbdc7e8cf	-0.097612016
98	0xbdc7f774	-0.09763995
99	0xbdc7fee0	-0.097654104

readout2.weight f4 [10, 10]
0	0x3e383c03	0.17991643
1	0xbdc70e3a	-0.097195104
2	0x3e030bbb	0.12797444
3	0xbdc74210	-0.09729397
4	0xbdc731f7	-0.09726327
5	0xbdc6cf13	-0.09707465
6	0xbdc7332d	-0.09726558
7	0x3e44aa9c	0.19205707
8	0xbdc73616	-0.09727113
9	0xbda79e93	-0.081845425
10	0xbdaebad6	-0.0853173
11	0xbe330c83	-0.17485242
12	0xbd8e652e	-0.06952892
13	0xbe32fb45	-0.17478664
14	0xbe330147	-0.17480956
15	0xbe32e29a	-0.17469254
16	0xbe33017a	-0.17481032
17	0xbdab2ba4	-0.08357933
18	0xbe3300c9	-0.17480768
19	0xbe1955c9	-0.1497413
20	0xbcc068e3	-0.023487514
21	0xbd9771b8	-0.07394737
22	0x3cdd7ae1	0.027036132
23	0xbd98877f	-0.07447719
24	0xbd97de18	-0.07415408
25	0xbd97b4ea	-0.074075535
26	0xbd97d066	-0.07412796
27	0x3ce78483	0.028261429
28	0xbd97d862	-0.074143186
29	0xbe09a603	-0.13442235
30	0xbdb79268	-0.08963472
31	0xbe32eeb5	-0.17473872
32	0xbdc36744	-0.09541181
33	0xbe32dd8f	-0.1746733
34	0xbe32df1e	-0.17467925
35	0xbe32c5ea	-0.1745831
36	0xbe32e05c	-0.17468399
37	0xbdb4cdbb	-0.088283025
38	0xbe32de56	-0.17467627
39	0xbe194b0a	-0.14970031
40	0xbdadff25	-0.084959306
41	0xbe32f81e	-0.17477462
42	0xbd90db94	-0.07073131
43	0xbe32e8fc	-0.17471689
44	0xbe32efa7	-0.17474233
45	0xbe32d266	-0.17463073
46	0xbe32f080	-0.17474556
47	0xbdae40e9	-0.085084744
48	0xbe32eecb	-0.17473905
49	0xbe19469d	-0.14968343
50	0xbda858a2	-0.0822003
51	0xbe32b0e2	-0.17450288
52	0xbd860629	-0.06544144
53	0xbe32b035	-0.1745003
54	0xbe32b6e8	-0.17452586
55	0xbe32a43e	-0.17445466
56	0xbe32b6be	-0.17452523
57	0xbda6a00f	-0.081359975
58	0xbe32b669	-0.17452396
59	0xbe191529	-0.14949478
60	0xbdbd935e	-0.09256624
61	0xbe32fd71	-0.17479493
62	0xbd8a9d01	-0.06768227
63	0xbe32f678	-0.17476833
64	0xbe32fd08	-0.17479336
65	0xbe32df9b	-0.17468111
66	0xbe32fdc1	-0.17479612
67	0xbdaf8912	-0.08571066
68	0xbe32fc85	-0.17479141
69	0xbe19518b	-0.14972512
70	0x3e3e26dc	0.18569511
71	0xbdca5c2d	-0.098808624
72	0x3e172a57	0.14762245
73	0xbdca9bef	-0.09893023
74	0xbdca8632	-0.09888877
75	0xbdca260f	-0.0987054
76	0xbdca83b5	-0.098884024
77	0x3e43a2ee	0.19105121
78	0xbdca87b8	-0.098891675
79	0xbdadff28	-0.08495933
80	0xbdad2085	-0.08453468
81	0xbe331127	-0.17487012
82	0xbd988446	-0.07447104
83	0xbe32f868	-0.17477572
84	0xbe32feb1	-0.1747997
85	0xbe32e4ea	-0.17470136
86	0xbe32ff52	-0.1748021
87	0xbdb23851	-0.08702148
88	0xbe32fe91	-0.17479922
89	0xbe1951fc	-0.14972681
90	0xbdc495e3	-0.09598901
91	0xbde65b73	-0.11247911
92	0xbe74b446	-0.23896894
93	0xbde62ec3	-0.11239388
94	0xbde6530c	-0.11246309
95	0xbde649a4	-0.112445146
96	0xbde64dfc	-0.11245343
97	0xbdde4871	-0.10853661
98	0xbde64b05	-0.112447776
99	0xbdfc0a9b	-0.1230671

readout3.weight f4 [10, 10]
0	0xbde97ccd	-0.11400757
1	0xbde97cca	-0.11400755
2	0xbde97cd2	-0.11400761
3	0xbde97cce	-0.11400758
4	0x00001b8c	9.882e-42
5	0xbde97ccc	-0.11400756
6	0xbde97cc2	-0.11400749
7	0xbde97cdb	-0.114007674
8	0xbde97cc6	-0.11400752
9	0xbde97cc4	-0.1140075
10	0xbde97cc5	-0.11400751
11	0xbde97cd6	-0.11400764
12	0xbde97cc5	-0.11400751
13	0xbde97cb7	-0.114007406
14	0x80001b74	-9.848e-42
15	0xbde97cb8	-0.11400741
16	0xbde97cca	-0.11400755
17	0xbde97cbc	-0.11400744
18	0xbde97cca	-0.11400755
19	0xbde97ccb	-0.114007555
20	0xbde97cc8	-0.11400753
21	0xbde97cc5	-0.11400751
22	0xbde97cc9	-0.11400754
23	0xbde97cc8	-0.11400753
24	0x80001bda	-9.991e-42
25	0xbde97cd6	-0.11400764
26	0xbde97cc4	-0.1140075
27	0xbde97ccf	-0.114007585
28	0xbde97cca	-0.11400755
29	0xbde97cc6	-0.11400752
30	0xbde97cc4	-0.1140075
31	0xbde97cc8	-0.11400753
32	0xbde97cc4	-0.1140075
33	0xbde97ccd	-0.11400757
34	0x80001b97	-9.897e-42
35	0xbde97cd4	-0.11400762
36	0xbde97cd0	-0.11400759
37	0xbde97cbd	-0.11400745
38	0xbde97ccc	-0.11400756
39	0xbde97cc8	-0.11400753
40	0x00001b6a	9.834e-42
41	0x80001b72	-9.846e-42
42	0x80001b96	-9.896e-42
43	0x80001b5f	-9.819e-42
44	0x80001b86	-9.874e-42
45	0x80001c27	-1.0099e-41
46	0x00001bed	1.0018e-41
47	0x00001b8a	9.879e-42
48	0x00001ba7	9.92e-42
49	0x00001b76	9.851e-42
50	0xbde97cc9	-0.11400754
51	0xbde97cc1	-0.11400748
52	0xbde97ccf	-0.114007585
53	0xbde97cc4	-0.1140075
54	0x80001c2b	-1.0105e-41
55	0xbde97cb9	-0.11400742
56	0xbde97cbf	-0.114007466
57	0xbde97cca	-0.11400755
58	0xbde97cd0	-0.11400759
59	0xbde97cc1	-0.11400748
60	0xbde97ccd	-0.11400757
61	0xbde97cc9	-0.11400754
62	0xbde97ccf	-0.114007585
63	0xbde97cce	-0.11400758
64	0x00001be3	1.0004e-41
65	0xbde97ccc	-0.11400756
66	0xbde97cd5	-0.11400763
67	0xbde97ccc	-0.11400756
68	0xbde97cd3	-0.114007615
69	0xbde97cc5	-0.11400751
70	0xbde97cc8	-0.11400753
71	0xbde97cbb	-0.114007436
72	0xbde97ccc	-0.11400756
73	0xbde97cc7	-0.114007525
74	0x00001b9f	9.909e-42
75	0xbde97ccf	-0.114007585
76	0xbde97cbf	-0.114007466
77	0xbde97cd8	-0.11400765
78	0xbde97cd4	-0.11400762
79	0xbde97cd4	-0.11400762
80	0xbde97cc5	-0.11400751
81	0xbde97cce	-0.11400758
82	0xbde97cd1	-0.1140076
83	0xbde97cd1	-0.1140076
84	0x00001bb6	9.941e-42
85	0xbde97cd1	-0.1140076
86	0xbde97cd3	-0.114007615
87	0xbde97cbb	-0.114007436
88	0xbde97cdf	-0.114007704
89	0xbde97ccd	-0.11400757
90	0xbde97ccb	-0.114007555
91	0xbde97cbf	-0.114007466
92	0xbde97cce	-0.11400758
93	0xbde97cb7	-0.114007406
94	0x00001b9a	9.902e-42
95	0xbde97cd1	-0.1140076
96	0xbde97cd5	-0.11400763
97	0xbde97cd8	-0.11400765
98	0xbde97cd2	-0.11400761
99	0xbde97cd1	-0.1140076

mlp.lin0.weight f4 [20, 80]
0	0x00001bcc	9.972e-42
1	0x00001d78	1.0571e-41
2	0x00001b8d	9.883e-42
3	0x00001b6b	9.836e-42
4	0x00001b76	9.851e-42
5	0x00001b8f	9.886e-42
6	0x00001b63	9.825e-42
7	0x00001c8a	1.0238e-41
8	0x80001c03	-1.0049e-41
9	0x80001bf3	-1.0026e-41
10	0x80001b9b	-9.903e-42
11	0x00001b82	9.868e-42
12	0x00001b6e	9.84e-42
13	0x80001b66	-9.829e-42
14	0x80002007	-1.1489e-41
15	0x80088de4	-7.85585e-40
16	0x80008dbf	-5.0849e-41
17	0x80001be9	-1.0012e-41
18	0x80001c45	-1.0141e-41
19	0x00001b72	9.846e-42
20	0x00001f5e	1.1252e-41
21	0x80001dab	-1.0643e-41
22	0x80001bf0	-1.0022e-41
23	0x80001e34	-1.0835e-41
24	0x000020ef	1.1814e-41
25	0x00002122	1.1886e-41
26	0x000021e3	1.2156e-41
27	0x00002071	1.1638e-41
28	0x00001f7a	1.1292e-41
29	0x00001eee	1.1095e-41
30	0x80001e02	-1.0765e-41
31	0x80001efa	-1.1112e-41
32	0x80001f6d	-1.1273e-41
33	0x80002007	-1.1489e-41
34	0x00001d74	1.0566e-41
35	0x80001df7	-1.075e-41
36	0x800022e9	-1.2523e-41
37	0x000022dc	1.2505e-41
38	0x8000202f	-1.1545e-41
39	0x00001e84	1.0947e-41
40	0x80001c24	-1.0095e-41
41	0x80001bb3	-9.937e-42
42	0x80001f2f	-1.1187e-41
43	0x80001c24	-1.0095e-41
44	0x00001bd1	9.979e-42
45	0x00001c86	1.0232e-41
46	0x00001e50	1.0874e-41
47	0x80001c57	-1.0166e-41
48	0x80001dd6	-1.0703e-41
49	0x00001d0c	1.042e-41
50	0x00001bb7	9.942e-42
51	0x80001bb0	-9.932e-42
52	0x0000207e	1.1656e-41
53	0x80001b92	-9.89e-42
54	0x80001c5d	-1.0175e-41
55	0x80001cff	-1.0402e-41
56	0x80001bbc	-9.949e-42
57	0x80001cef	-1.038e-41
58	0x80001bf1	-1.0023e-41
59	0x00001bcf	9.976e-42
60	0x000020a9	1.1716e-41
61	0x8000219b	-1.2055e-41
62	0x00002182	1.202e-41
63	0x000020a9	1.1716e-41
64	0x00001bfd	1.004e-41
65	0x00001c6c	1.0196e-41
66	0x000020a9	1.1716e-41
67	0x000020a9	1.1716e-41
68	0x000020a9	1.1716e-41
69	0x000020a9	1.1716e-41
70	0x00001f09	1.1133e-41
71	0x00001e06	1.077e-41
72	0x00001d9a	1.0619e-41
73	0x00001f09	1.1133e-41
74	0x80001b6e	-9.84e-42
75	0x00001f09	1.1133e-41
76	0x00001f09	1.1133e-41
77	0x00001f09	1.1133e-41
78	0x00001c7d	1.022e-41
79	0x00001f09	1.1133e-41
80	0x80001b5d	-9.816e-42
81	0x00001b91	9.889e-42
82	0x80001b63	-9.825e-42
83	0x80001b9c	-9.904e-42
84	0x80001b7d	-9.861e-42
85	0x8f22a4a5	-8.018926e-30
86	0x8c4034d4	-1.4807039e-31
87	0x80001b90	-9.888e-42
88	0x00001b76	9.851e-42
89	0x80001b8d	-9.883e-42
90	0x00001b9c	9.904e-42
91	0x8b0ad717	-2.673965e-32
92	0x80001b99	-9.9e-42
93	0x00001b67	9.83e-42
94	0x00001b7b	9.858e-42
95	0x9d6e3830	-3.1528086e-21
96	0x9b585469	-1.7894376e-22
97	0x00001ba0	9.91e-42
98	0x00001b9a	9.902e-42
99	0x80001b96	-9.896e-42
100	0x80001b84	-9.871e-42
101	0x80001bf8	-1.0033e-41
102	0x80001b76	-9.851e-42
103	0x80001b90	-9.888e-42
104	0x80001c05	-1.0052e-41
105	0x80001bd1	-9.979e-42
106	0x80001bf9	-1.0035e-41
107	0x80001b93	-9.892e-42
108	0x80001bf6	-1.003e-41
109	0x80001c17	-1.0077e-41
110	0x00001b8e	9.885e-42
111	0x00001bb8	9.944e-42
112	0x00001b8d	9.883e-42
113	0x00001b70	9.843e-42
114	0x00001bed	1.0018e-41
115	0x00001be5	1.0007e-41
116	0x00001bc3	9.959e-42
117	0x00001b7d	9.861e-42
118	0x00001bd2	9.98e-42
119	0x00001bc6	9.963e-42
120	0x80001b69	-9.833e-42
121	0x80001b67	-9.83e-42
122	0x00001b91	9.889e-42
123	0x80001baf	-9.931e-42
124	0x80001b6e	-9.84e-42
125	0x80001bb3	-9.937e-42
126	0x80001b89	-9.878e-42
127	0x80001b87	-9.875e-42
128	0x80001ba2	-9.913e-42
129	0x80001b77	-9.853e-42
130	0x80001ba7	-9.92e-42
131	0x80001be3	-1.0004e-41
132	0x00001b6b	9.836e-42
133	0x80001f78	-1.1289e-41
134	0x80001c39	-1.0124e-41
135	0x80001cf9	-1.0393e-41
136	0x80001fbb	-1.1383e-41
137	0x00001b8f	9.886e-42
138	0x80001f25	-1.1173e-41
139	0x80001b87	-9.875e-42
140	0x00001baf	9.931e-42
141	0x00001b6e	9.84e-42
142	0x00001bbb	9.948e-42
143	0x00001bb3	9.937e-42
144	0x33804e74	5.974735e-08
145	0x00001b82	9.868e-42
146	0x00001b8a	9.879e-42
147	0x00001b82	9.868e-42
148	0x00001b8a	9.879e-42
149	0x00001b82	9.868e-42
150	0x80001d70	-1.056e-41
151	0x80001f04	-1.1126e-41
152	0x80001f04	-1.1126e-41
153	0x80001f20	-1.1166e-41
154	0xa694c2cc	-1.0322363e-15
155	0x80001b89	-9.878e-42
156	0x80001b7f	-9.864e-42
157	0x80001b80	-9.865e-42
158	0x80001e94	-1.097e-41
159	0x80001cf9	-1.0393e-41
160	0x0f03313d	6.4682816e-30
161	0xa60d9499	-4.912059e-16
162	0x0dbcf9b7	1.1646511e-30
163	0x0e2eaa7f	2.1529247e-30
164	0x0e837c3e	3.2413634e-30
165	0xaf237ef8	-1.4869872e-10
166	0xaf250145	-1.5007114e-10
167	0x8e44e862	-2.4270753e-30
168	0x0e37ff5e	2.2679446e-30
169	0x8e162037	-1.8504438e-30
170	0x93eaaa5e	-5.92379e-27
171	0xadc452c5	-2.2319377e-11
172	0x9fcb997b	-8.6227756e-20
173	0x8ea9b2af	-4.1833783e-30
174	0x8e4b1c30	-2.5035254e-30
175	0xb33da25d	-4.415266e-08
176	0xb2ce2a6c	-2.4000848e-08
177	0x8e92e2ea	-3.621029e-30
178	0x0de6b7fc	1.4219137e-30
179	0x929316c8	-9.28262e-28
180	0x0d46318c	6.10731e-31
181	0x0d566a68	6.6071923e-31
182	0x0d482d41	6.168423e-31
183	0x0d362c22	5.6136203e-31
184	0x0d2dd53d	5.3566417e-31
185	0x0d35729e	5.5912897e-31
186	0x0d5a962d	6.7357204e-31
187	0x0d3a79d5	5.7462325e-31
188	0x0d35650e	5.589657e-31
189	0x0d51152e	6.442859e-31
190	0x0dbf6ccd	1.1797477e-30
191	0x0db40cc4	1.109643e-30
192	0x0dbe4c16	1.1727971e-30
193	0x0dc90bdc	1.2390436e-30
194	0x0dcdaf69	1.2676329e-30
195	0x0dc97db6	1.2417845e-30
196	0x0db0d289	1.0897522e-30
197	0x0dc6db36	1.2255465e-30
198	0x0dc96f42	1.2414366e-30
199	0x0db80bff	1.1342763e-30
200	0x8daec088	-1.0769928e-30
201	0x0d4ad7e5	6.250593e-31
202	0x0d4c194f	6.2892817e-31
203	0x0d55bec5	6.5865323e-31
204	0x0d1994e9	4.732601e-31
205	0x0d65fe6a	7.0872313e-31
206	0x0d535d94	6.5132035e-31
207	0x0dadfe8d	1.0723229e-30
208	0x0d4da7a6	6.33723e-31
209	0x0d8bc505	8.613967e-31
210	0x0e156c16	1.841771e-30
211	0x0de65fb7	1.4197887e-30
212	0x8ccd5df7	-3.1641804e-31
213	0x0ddbcd2d	1.3546311e-30
214	0x0e048fcf	1.6339497e-30
215	0x0dcb9513	1.2546729e-30
216	0x0dde0440	1.36828295e-30
217	0x8e0b4342	-1.7165456e-30
218	0x0de3a601	1.4029919e-30
219	0x8e02d923	-1.6128285e-30
220	0x0c03059f	1.0093564e-31
221	0x0c031e48	1.0100985e-31
222	0x0c03018d	1.009234e-31
223	0x0c03052a	1.0093427e-31
224	0xa2876e93	-3.67089e-18
225	0x0c03059f	1.0093564e-31
226	0x0c03059f	1.0093564e-31
227	0x0c030193	1.0092347e-31
228	0x0c030193	1.0092347e-31
229	0x0c030193	1.0092347e-31
230	0x8cf511e4	-3.7758994e-31
231	0x8cf50430	-3.7750747e-31
232	0x8cf511e4	-3.7758994e-31
233	0x8cf5115c	-3.7758675e-31
234	0x2cedf666	6.763301e-12
235	0x8cf511e4	-3.7758994e-31
236	0x8cf511e4	-3.7758994e-31
237	0x8cf513bc	-3.7760104e-31
238	0x8cf51393	-3.7760008e-31
239	0x8cf513bc	-3.7760104e-31
240	0x3a0249a2	0.00049700786
241	0xbb95ee5c	-0.004575534
242	0xb8bfe411	-9.1500704e-05
243	0x38542a74	5.0584276e-05
244	0x38bd0912	9.013912e-05
245	0xbc01592d	-0.007894796
246	0xbc0ebc91	-0.00871195
247	0x2fcf26e3	3.768071e-10
248	0x2f0ba958	1.270214e-10
249	0xb876c73d	-5.8836526e-05
250	0x3aae26ae	0.0013286674
251	0xbba7e483	-0.0051236763
252	0xba20224b	-0.00061086257
253	0x399123f1	0.00027683334
254	0x39c32fae	0.00037228822
255	0xbbf8a23c	-0.007587699

mlp.lin0.bias f4 [20]
0	0x8f58a6ec	-1.068177e-29
1	0xa40e6f5e	-3.0885673e-17
2	0xb4634e33	-2.1169471e-07
3	0xbc1e77cc	-0.0096721165
4	0xb1da02e7	-6.344965e-09
5	0xbc664e77	-0.014056793
6	0x3ebd27bd	0.3694438
7	0xa5e78fb4	-4.016949e-16
8	0xa8f95012	-2.7679278e-14
9	0xbbb2963a	-0.0054500373
10	0xbbd19734	-0.0063961986
11	0xbb9fe95a	-0.0048801126
12	0xaa341e65	-1.5997757e-13
13	0x8c9bf87d	-2.4031085e-31
14	0xb6f83a17	-7.3977385e-06
15	0x3e20a955	0.15689595
16	0xba7606ca	-0.0009385167
17	0xbb4798dc	-0.0030456102
18	0xbb966936	-0.004590179
19	0xac9b9c85	-4.422742e-12

mlp.lin1.weight f4 [10, 20]
0	0x3354d356	4.9552305e-08
1	0x80001b5e	-9.817e-42
2	0xac0309a8	-1.862158e-12
3	0x2bf35c04	1.7291728e-12
4	0x3570852c	8.960076e-07
5	0x1a5020e6	4.3039967e-23
6	0x381bf2f7	3.718116e-05
7	0x0000219f	1.2061e-41
8	0x8000c7f3	-7.1728e-41
9	0x9673e505	-1.970165e-25
10	0x3740f4d3	1.1501094e-05
11	0xb79a4860	-1.8391933e-05
12	0x295d9812	4.9203758e-14
13	0xaaf8c6e6	-4.4191663e-13
14	0xa623bed5	-5.681061e-16
15	0x360ce7f7	2.0996647e-06
16	0x2d09fa9d	7.843196e-12
17	0xb647e205	-2.9784871e-06
18	0xaad9e005	-3.8702388e-13
19	0x00001b5d	9.816e-42
20	0x80001bb4	-9.938e-42
21	0x80001b6a	-9.834e-42
22	0x0b38e4cb	3.5609236e-32
23	0x35651353	8.533727e-07
24	0x3059fec3	7.930618e-10
25	0x3ac6bca7	0.0015162424
26	0x3ef43a80	0.47700882
27	0x80001b5c	-9.815e-42
28	0x80001ba4	-9.916e-42
29	0x3199e2e4	4.4786805e-09
30	0xbb518895	-0.0031972278
31	0xbd08e2d0	-0.03341943
32	0x80001ba7	-9.92e-42
33	0x80001b5a	-9.812e-42
34	0x80001c2f	-1.011e-41
35	0x3ebba5c1	0.36649898
36	0x32ca1129	2.3523699e-08
37	0x3757ef9b	1.2870786e-05
38	0xb8a5d407	-7.907306e-05
39	0x00001b7b	9.858e-42
40	0x00001f86	1.1308e-41
41	0x31a4ed3d	4.799999e-09
42	0x8001dcac	-1.70998e-40
43	0xa50a65b1	-1.2004046e-16
44	0x3706d285	8.036038e-06
45	0xb75379af	-1.2604912e-05
46	0xb784b41e	-1.58195e-05
47	0x00001bfe	1.0042e-41
48	0x00001b58	9.809e-42
49	0xb341497e	-4.5003155e-08
50	0x2e4ded2f	4.6822265e-11
51	0xb7139488	-8.796465e-06
52	0xaf43176d	-1.7743469e-10
53	0x27cf7b55	5.758776e-15
54	0x00007509	4.1984e-41
55	0xb78db255	-1.6891552e-05
56	0x2607c289	4.710118e-16
57	0x80000791	-2.714e-42
58	0xb0831636	-9.537817e-10
59	0x8000206d	-1.1632e-41
60	0x80002075	-1.1643e-41
61	0x9e31213b	-9.377174e-21
62	0x26b132dd	1.2295629e-15
63	0xa265a1cb	-3.112094e-18
64	0xa79dc550	-4.379018e-15
65	0xa20dc629	-1.9213968e-18
66	0xada298f3	-1.848519e-11
67	0x8112aaf2	-2.6938612e-38
68	0x00001b7e	9.862e-42
69	0x34319472	1.6538414e-07
70	0x80001da2	-1.063e-41
71	0xade24a30	-2.5726171e-11
72	0x29f8fcae	1.10572453e-13
73	0xb5a60103	-1.2368258e-06
74	0xb5440233	-7.301889e-07
75	0xb27b6438	-1.463291e-08
76	0x00001b5e	9.817e-42
77	0x00001b62	9.823e-42
78	0xa510c8dd	-1.2558064e-16
79	0x313ab319	2.7168368e-09
80	0x80001bdb	-9.993e-42
81	0xaaaef533	-3.107875e-13
82	0x2861711a	1.2514534e-14
83	0x80001c5a	-1.017e-41
84	0xb1816b87	-3.7666186e-09
85	0x9562c0a1	-4.5792294e-26
86	0x34deec5d	4.15227e-07
87	0x2b7e56bb	9.035929e-13
88	0xad0f21fe	-8.136157e-12
89	0x10936b4f	5.814661e-29
90	0xb407b3aa	-1.2638216e-07
91	0xb38a54eb	-6.441572e-08
92	0x2dabe7b5	1.9543348e-11
93	0x00001b60	9.82e-42
94	0x2eff25bc	1.16027604e-10
95	0x3465e86f	2.1411846e-07
96	0x26f3c7a9	1.691563e-15
97	0x00001c58	1.0168e-41
98	0xb24f4262	-1.20640795e-08
99	0x32220a61	9.432001e-09
100	0x00001bd8	9.988e-42
101	0x337485ff	5.6932546e-08
102	0xad33240b	-1.0182975e-11
103	0xa66bc55c	-8.1799475e-16
104	0x2e0ff367	3.273062e-11
105	0xa7879039	-3.7626394e-15
106	0xb3dcce3b	-1.02820614e-07
107	0x2de5ec18	2.6139133e-11
108	0x80001ba1	-9.911e-42
109	0x296685ab	5.1186198e-14
110	0xb343af3c	-4.556135e-08
111	0xb0e9b7df	-1.700524e-09
112	0x2a1de1bd	1.402272e-13
113	0x80001d6f	-1.0559e-41
114	0xb188fc8a	-3.9868313e-09
115	0x3425a32a	1.5426181e-07
116	0xa556b974	-1.8624375e-16
117	0x80013859	-1.12049e-40
118	0xacae7828	-4.9587175e-12
119	0x2fa6d783	3.0348354e-10
120	0xb24172a5	-1.1260146e-08
121	0xb91989cd	-0.00014642552
122	0xb9af45f6	-0.00033430726
123	0xbc917410	-0.017755538
124	0x328a06c4	1.6068391e-08
125	0xbb0f4371	-0.0021860267
126	0xbef7433f	-0.48293492
127	0xb295248d	-1.7362504e-08
128	0xb8ba7ffc	-8.89301e-05
129	0xbc01d08f	-0.007923259
130	0xbc68482a	-0.0141773615
131	0x3fcff936	1.6247928
132	0x37548cbc	1.2668952e-05
133	0x31d813ac	6.288664e-09
134	0xb7a0e6a9	-1.9180896e-05
135	0x3fbde1c0	1.4834518
136	0xb9df3319	-0.00042571945
137	0x3aa90a8f	0.0012896823
138	0xbc97035e	-0.018434223
139	0xb8b59516	-8.658522e-05
140	0x80001b90	-9.888e-42
141	0x8f4f3a18	-1.02170764e-29
142	0x29eca6b3	1.0509423e-13
143	0x3aa562d8	0.0012617959
144	0x2e97b4f0	6.898826e-11
145	0x3b498f92	0.003075574
146	0x3fb6d0d0	1.4282475
147	0x80001b81	-9.867e-42
148	0x858dc050	-1.3330221e-35
149	0x39c70907	0.00037962964
150	0xbb7482a1	-0.0037309306
151	0xbe7d0de0	-0.24712324
152	0x151e7df1	3.2007196e-26
153	0x80001b73	-9.847e-42
154	0x80001bab	-9.925e-42
155	0x3f648e6e	0.8927983
156	0x33128b4e	3.411997e-08
157	0x3a9b2e0e	0.0011839287
158	0xbb170950	-0.0023046322
159	0x25a59aa2	2.872772e-16
160	0x80001b5e	-9.817e-42
161	0x00001b87	9.875e-42
162	0xa512afb9	-1.2723019e-16
163	0x39b1db52	0.00033923477
164	0xb09868c3	-1.1089231e-09
165	0x3b30aa95	0.0026957144
166	0x3f818fc8	1.0122004
167	0x80001b7f	-9.864e-42
168	0x00001f85	1.1307e-41
169	0x386057fc	5.3487704e-05
170	0xbb6d1a5f	-0.0036179048
171	0xbe3607e1	-0.17776443
172	0x804d5d30	-7.104763e-39
173	0x80001b69	-9.833e-42
174	0x00001b96	9.896e-42
175	0x3f383f4f	0.719716
176	0xb28168a6	-1.5065165e-08
177	0x3a10f3db	0.00055295014
178	0xbaa17680	-0.0012318641
179	0x1b3a1fc0	1.5395818e-22
180	0x00001b98	9.899e-42
181	0x9632a269	-1.4429973e-25
182	0xb1269c01	-2.4244857e-09
183	0x80001d6f	-1.0559e-41
184	0x80001fc6	-1.1398e-41
185	0xae92f669	-6.6830826e-11
186	0xb22a86b5	-9.925931e-09
187	0xab340e19	-6.396841e-13
188	0xa761910c	-3.1303653e-15
189	0x2c807c68	3.6517907e-12
190	0xac896b17	-3.9056636e-12
191	0x9abc3dbd	-7.785472e-23
192	0x3098be90	1.1113617e-09
193	0x1234cacf	5.7047966e-28
194	0x32753cd9	1.4274712e-08
195	0x2f7cd5b3	2.2995188e-10
196	0xa9018fbe	-2.876843e-14
197	0x00001e20	1.0807e-41
198	0x36e0546b	6.6855478e-06
199	0xa9231a2b	-3.6215968e-14

mlp.lin1.bias f4 [10]
0	0xb0dce976	-1.607346e-09
1	0x3832fd47	4.267439e-05
2	0x3895de45	7.1462746e-05
3	0xa9f559c3	-1.0895757e-13
4	0x35f66931	1.8359043e-06
5	0xb3814ad8	-6.0206446e-08
6	0xbe30ad87	-0.17253695
7	0x3a478871	0.0007611579
8	0xb91a5c0a	-0.00014720872
9	0xb6a13ddc	-4.8053753e-06

mlp.lin2.weight f4 [5, 10]
0	0x36dfd27a	6.6704206e-06
1	0x3ed0e3bb	0.40798745
2	0xb7c4ac1b	-2.3445164e-05
3	0xb05b0291	-7.9675383e-10
4	0x340a5256	1.2882205e-07
5	0x3484d116	2.4739046e-07
6	0xbffc3f30	-1.9706783
7	0x3f9de00e	1.2334001
8	0x3f64abe7	0.893248
9	0x1af5cb0b	1.0165766e-22
10	0x2f9d6ee0	2.8636915e-10
11	0xb6bdc2a2	-5.655297e-06
12	0x3350f1c6	4.8648666e-08
13	0x2722f64f	2.261554e-15
14	0x34422b49	1.8083405e-07
15	0x1ed330fb	2.2360752e-20
16	0xb705fb03	-7.985861e-06
17	0xb65ac098	-3.2596636e-06
18	0xb6a24be2	-4.83681e-06
19	0xb31e2d05	-3.6828187e-08
20	0x36187b4b	2.272153e-06
21	0x3e1ac052	0.15112427
22	0xb7c59d33	-2.3557432e-05
23	0x9518cc1a	-3.0857163e-26
24	0x342fae6f	1.6361604e-07
25	0xaf033f2e	-1.1936827e-10
26	0xbf361827	-0.71130604
27	0x3eecf640	0.46281624
28	0x3eab7f02	0.33495337
29	0x9a01d748	-2.6850478e-23
30	0x3680a2dc	3.8336566e-06
31	0x3ec79b68	0.38985753
32	0xb7c9c5a1	-2.4053095e-05
33	0xafbb950a	-3.4121e-10
34	0x340b75c0	1.2988221e-07
35	0x341806ef	1.4158626e-07
36	0xbff093de	-1.8795125
37	0x3f96b875	1.1775042
38	0x3f5a4d8d	0.85274583
39	0x99bd1e0d	-1.955428e-23
40	0xa9c9815f	-8.9486354e-14
41	0x2e2672ab	3.7845876e-11
42	0x2ad9fbba	3.8721614e-13
43	0x8000a1e3	-5.8074e-41
44	0x3172fc30	3.5358987e-09
45	0x98624452	-2.9244308e-24
46	0x2f3cdda4	1.7177243e-10
47	0xb10928e3	-1.9959365e-09
48	0xb0b4cfa3	-1.3155738e-09
49	0x2ebe9dee	8.6682536e-11

mlp.lin2.bias f4 [5]
0	0xb923b1b1	-0.00015611087
1	0xb5581513	-8.049694e-07
2	0x38246ae9	3.9200215e-05
3	0xb8ce6468	-9.8415476e-05
4	0x30879d16	9.867189e-10

mlp.lin3.weight f4 [1, 5]
0	0x40201bfa	2.5017076
1	0x36162e92	2.237885e-06
2	0x3f691485	0.91046935
3	0x4018bb85	2.3864453
4	0xafac6e8e	-3.1365172e-10
