paper_artifacts/collection/H2MN/trained_models/H2MN_mutag_large_dataset_seed_4929_2024-05-03_03:00:24.pth (torch, 22015 bytes, 25 tensors)

conv0.bias f4 [10]
000000 74 26 cf bd 59 80 92 ba 5d be fd bd 20 ab 46 be
       -0.10114756 -0.0011177167 -0.123898245 -0.19401217
000010 57 8a 0c be 8b 14 36 be d5 9f 06 be d3 4b bf b9
       -0.13724647 -0.17781274 -0.13146909 -0.00036486852
000020 63 49 b0 b9 0e 57 47 b8
       -0.00033624013 -4.7526373e-05

conv0.lin.weight f4 [10, 1]
000000 80 43 65 3f 03 9b 85 b9 5d 47 85 3f eb a5 37 3f
       0.8955612 -0.0002548323 1.0412403 0.71737546
000010 d1 88 81 3f 05 7e 30 3f 5d d5 6b 3f 47 db ac 39
       1.0119878 0.6894229 0.9212244 0.0003296977
000020 80 20 ba b8 fc 89 12 38
       -8.875225e-05 3.493762e-05

conv1.bias f4 [10]
000000 04 c4 0e af 59 3a 12 35 c6 b3 b5 2e 8c e7 21 ad
       -1.2984464e-10 5.4474145e-07 8.262861e-11 -9.203204e-12
000010 84 d4 55 3c 60 84 95 2f a6 ef e3 2c 64 1f ea 34
       0.013051156 2.7197e-10 6.4783344e-12 4.3608736e-07
000020 4b ea 68 a2 af 29 a1 bc
       -3.1565897e-18 -0.019673197

conv1.lin.weight f4 [10, 10]
000000 1f 1f 4b ae f3 0d d7 b7 5f da a3 ae 12 8d 1e ae
       -4.6184497e-11 -2.5636493e-05 -7.451172e-11 -3.6050336e-11
000010 b3 79 8a ae d9 45 2a ae 05 9a 43 ae 9b 68 83 29
       -6.2971316e-11 -3.8715562e-11 -4.4474664e-11 5.835715e-14
000020 92 d1 1f 37 4d 7e f8 a7 41 df cd 34 8c 0c f3 b0
       9.525933e-06 -6.8970763e-15 3.8346664e-07 -1.7684143e-09
000030 43 f2 e5 34 09 62 a0 34 bf 80 dc 34 0e 6f 9f 34
       4.2830843e-07 2.9873652e-07 4.1071868e-07 2.969686e-07
000040 2d 7e cb 34 d3 7f a1 2e 85 43 5d 35 f9 66 32 ae
       3.7903501e-07 7.3441385e-11 8.242717e-07 -4.0563972e-11
000050 1f 2a 8e 2e 23 d1 9b ad 25 db 9b 2e 03 e0 61 2e
       6.4648946e-11 -1.7714335e-11 7.087512e-11 5.135804e-11
000060 ee 37 97 2e 9e cc 61 2e e3 ea 8c 2e 28 57 ee a6
       6.87662e-11 5.1340814e-11 6.408187e-11 -1.6538191e-15
000070 a5 f0 2c a9 97 34 0e a7 8b eb 89 ad ca f4 26 b1
       -3.8400398e-14 -1.9734968e-15 -1.5679699e-11 -2.4295326e-09
000080 07 09 85 ad 9c 43 0b ae 19 73 8f ad 05 a4 02 ae
       -1.5124358e-11 -3.166499e-11 -1.6308331e-11 -2.9704256e-11
000090 fe 1e 89 ad e7 54 5c a6 b9 5c 31 30 63 80 e8 b1
       -1.558886e-11 -7.6442897e-16 6.452399e-10 -6.7666845e-09
0000a0 3a 4d 21 3c 98 20 d1 b8 41 7a 2f 3c 6e 91 ee 3b
       0.009845072 -9.971968e-05 0.0107103 0.00728052
0000b0 ec 2e 2a 3c 19 4e eb 3b 82 c9 1f 3c c8 30 d2 b5
       0.010387164 0.007180941 0.009752633 -1.5660416e-06
0000c0 1e 73 44 b8 66 7b e6 b5 1c 0c 66 2f 47 17 ef ab
       -4.6837253e-05 -1.7172249e-06 2.092268e-10 -1.6988432e-12
0000d0 a8 e8 76 2f ab 54 30 2f 8a c1 70 2f fb 45 2e 2f
       2.2456226e-10 1.6037187e-10 2.1896632e-10 1.585007e-10
0000e0 1a 15 64 2f 3b 68 01 a9 ed d2 9a af d6 25 88 a8
       2.0743976e-10 -2.873416e-14 -2.8162309e-10 -1.5115442e-14
0000f0 74 c5 b1 2c b1 ba 87 a8 dd 7f bf 2c d4 15 85 2c
       5.0525643e-12 -1.5068975e-14 5.442742e-12 3.7825108e-12
000100 57 9d ba 2c 1b 5c 83 2c ea 43 b0 2c c2 96 57 a5
       5.303906e-12 3.7334697e-12 5.009761e-12 -1.8699356e-16
000110 64 45 85 a8 a0 dc 4d a5 8a 89 ae 34 9e e7 6e 34
       -1.479606e-14 -1.7855666e-16 3.2510098e-07 2.2249739e-07
000120 5d 4e bf 34 74 31 80 34 ee eb b8 34 cb 4c 7c 34
       3.563354e-07 2.387784e-07 3.4444332e-07 2.3497266e-07
000130 04 ef ac 34 53 36 5b ae 04 e6 f3 34 43 23 16 36
       3.2211403e-07 -4.9843085e-11 4.5429636e-07 2.2372267e-06
000140 84 9f 3c a2 da 6f ad 9d d9 fd 5b a2 60 cb 95 a1
       -2.5563198e-18 -4.590837e-21 -2.981442e-18 -1.0150466e-18
000150 15 e4 52 a2 b7 ec 8b a1 e3 fa 3a a2 31 98 37 1b
       -2.8581053e-18 -9.481664e-19 -2.5340519e-18 1.5186581e-22
000160 66 6f 48 9e 15 18 bb 9c f5 98 b5 3d 0b b6 1a b9
       -1.06109485e-20 -1.2380847e-21 0.08867065 -0.00014754401
000170 84 46 d3 3d 2e 2f 98 3d 83 26 ce 3d 3d 96 91 3d
       0.10316184 0.07430874 0.10065939 0.07108734
000180 33 34 bc 3d 25 ea 21 38 5b 16 e6 b8 79 02 27 37
       0.09189644 3.8603455e-05 -0.00010971419 9.954551e-06

cross_conv1.cross_conv.weight f4 [10, 10]
000000 fe 45 00 00 a1 6c 0e a6 d5 47 56 31 72 af c7 2c
       2.5108e-41 -4.9413366e-16 3.118193e-09 5.6753985e-12
000010 a3 42 14 b9 5c 1b 00 80 a9 37 69 08 62 8c 2d 27
       -0.00014139204 -9.815e-42 7.0181315e-34 2.4084675e-15
000020 dc 87 62 b7 45 e5 a8 3d bd ee a4 38 ca ee a8 29
       -1.3502282e-05 0.08246855 7.864598e-05 7.502122e-14
000030 09 c8 a2 83 c3 5f 17 25 11 5b b9 25 e7 1d 00 00
       -9.56743e-37 1.3129608e-16 3.2154093e-16 1.0727e-41
000040 a0 bd 6c a5 d2 8c e4 95 37 83 51 2f ca cc 8d 3d
       -2.0533984e-16 -9.231064e-26 1.9055056e-10 0.06923826
000050 6c 1e 00 80 98 f0 f1 96 ed af a7 b3 f0 b8 e2 99
       -1.0913e-41 -3.9087486e-25 -7.808544e-08 -2.3442548e-23
000060 b3 fa fa 00 a7 20 00 00 31 5f c2 25 ab 26 1d a3
       2.3048808e-38 1.1713e-41 3.371814e-16 -8.519175e-18
000070 40 6d 6a 9d 4b c7 7c 3d 01 94 37 36 d0 1b 00 00
       -3.1026123e-21 0.061713498 2.7355275e-06 9.977e-42
000080 82 af b2 81 9e f3 b3 b7 c9 bd 99 2a b4 9d fe 37
       -6.5638715e-38 -2.1451906e-05 2.730995e-13 3.0352596e-05
000090 26 aa 38 9f 0e 40 cc 2c 37 9d 03 37 7f e4 80 3d
       -3.910426e-20 5.8051402e-12 7.844813e-06 0.06293582
0000a0 eb d4 24 00 81 18 32 27 3d 40 d2 81 5c 1b 00 00
       3.382458e-39 2.4715746e-15 -7.7233994e-38 9.815e-42
0000b0 5e 68 f9 a7 37 20 00 80 6b 96 99 29 98 72 ee 28
       -6.922454e-15 -1.1557e-41 6.820658e-14 2.6473005e-14
0000c0 e9 5b a2 aa d6 c4 8b bd e0 f1 43 a9 13 23 00 00
       -2.8840756e-13 -0.06824653 -4.350849e-14 1.2582e-41
0000d0 46 28 30 81 b0 03 01 00 a3 71 1d 80 30 1c 00 00
       -3.235499e-38 9.3158e-41 -2.703995e-39 1.0112e-41
0000e0 9c 32 2b 24 21 3f e0 34 ff c7 00 80 ad 84 90 3d
       3.7122582e-17 4.1769184e-07 -7.1745e-41 0.07056556
0000f0 40 87 ab 02 5e 1b 00 00 1e e5 42 81 47 3b 00 00
       2.5203821e-37 9.817e-42 -3.5796556e-38 2.1265e-41
000100 a5 28 92 39 b6 1e 00 00 74 11 16 2a 3c 38 01 80
       0.00027877573 1.1017e-41 1.3328732e-13 -1.12009e-40
000110 1a 63 34 00 1d 82 9c 3d 40 56 02 80 5c 71 ba 2e
       4.810997e-39 0.07642005 -2.14612e-40 8.4784374e-11
000120 b2 9b 00 00 23 1c 00 00 60 96 77 2a 60 1b 00 00
       5.5853e-41 1.0094e-41 2.1990179e-13 9.82e-42
000130 2c 41 89 a4 6a 77 10 a3 da dd 09 86 c7 ee a6 bd
       -5.9524685e-17 -7.8315426e-18 -2.5929827e-35 -0.08151012
000140 21 d8 cc aa 4b 6f 80 2b 19 cf ac 81 b5 3b 00 80
       -3.638765e-13 9.125837e-13 -6.347999e-38 -2.1419e-41
000150 58 5f 0d 80 89 1b 00 80 6f f9 d4 22 23 bf a2 2a
       -1.228064e-39 -9.878e-42 5.7726813e-18 2.8909609e-13
000160 6f 79 81 30 82 a8 8a 3d f9 79 01 80 6c 1b 00 00
       9.420499e-10 0.067704216 -1.35591e-40 9.837e-42
000170 72 1e 93 81 e4 1b 00 80 d4 2e ff 30 67 1f 00 00
       -5.404296e-38 -1.0005e-41 1.8567001e-09 1.1265e-41
000180 1c 1f 3e 9c d3 d3 ce 36 01 64 18 00 ab b0 96 bd
       -6.2905934e-22 6.163938e-06 2.239927e-39 -0.073579155

pool1.hypergnn.lin.weight f4 [1, 10]
000000 7b 45 eb af 4e c6 52 35 8b e9 0f 2f bd 8d 10 2e
       -4.279562e-10 7.851967e-07 1.3088745e-10 3.2867698e-11
000010 da 23 9d 3c 5b 93 c7 2f 74 10 1b 2d 56 ce 23 35
       0.019182134 3.6302591e-10 8.814383e-12 6.102249e-07
000020 c7 ca 0e 9c 7c 47 b4 3b
       -4.724594e-22 0.0055016857

conv2.weight f4 [10, 10]
000000 0e 2d 97 04 fd 46 67 1d f1 06 b5 ab 3c 1c 00 80
       3.5541306e-36 3.0609296e-21 -1.286275e-12 -1.0129e-41
000010 ee 88 17 80 5b 79 21 3d f7 2a 23 00 05 e2 01 ac
       -2.161338e-39 0.039422374 3.229655e-39 -1.8457469e-12
000020 8a ac b0 a3 91 97 20 07 2b ad 77 04 4a 35 67 1d
       -1.9155031e-17 1.2081604e-34 2.9114225e-36 3.0600145e-21
000030 36 ff b3 ab 87 1c 00 80 0b 92 17 80 ac 34 21 3d
       -1.278955e-12 -1.0234e-41 -2.164607e-39 0.039356872
000040 ed 6d 24 00 b0 a4 01 ac 71 30 b9 a3 e6 c1 21 07
       3.345512e-39 -1.8423423e-12 -2.0078256e-17 1.2169275e-34
000050 29 e4 34 04 96 01 67 1d 10 18 b3 ab fe 1d 00 80
       2.1263664e-36 3.0573415e-21 -1.2725394e-12 -1.0759e-41
000060 08 a0 17 80 42 dd 20 3d 1c 55 25 00 8b 77 01 ac
       -2.169625e-39 0.039273508 3.428445e-39 -1.8398362e-12
000070 82 ef c2 a3 db ab 23 07 3b 2f 44 04 f3 0d 67 1d
       -2.1134958e-17 1.2313261e-34 2.3061376e-36 3.0579807e-21
000080 31 41 b3 ab ea 1b 00 00 25 57 17 80 f6 f1 20 3d
       -1.2736809e-12 1.0014e-41 -2.143478e-39 0.039293252
000090 8c fe 24 00 f5 7e 01 ac 30 a0 c0 a3 29 10 23 07
       3.397392e-39 -1.8402478e-12 -2.0884524e-17 1.2267506e-34
0000a0 d4 13 79 04 bb 34 67 1d 08 ec b3 ab 41 1c 00 80
       2.9278914e-36 3.0599856e-21 -1.2784227e-12 -1.0136e-41
0000b0 03 52 17 80 a2 35 21 3d 8d 03 24 00 6f 9c 01 ac
       -2.141637e-39 0.03935779 3.307352e-39 -1.841884e-12
0000c0 a9 7b ba a3 9f c4 21 07 1c d2 82 04 52 4b 67 1d
       -2.0218533e-17 1.2170076e-34 3.0755808e-36 3.0611535e-21
0000d0 5e 23 b4 ab c9 1b 00 80 d8 40 17 80 48 4b 21 3d
       -1.2799586e-12 -9.967e-42 -2.135478e-39 0.039378434
0000e0 b6 1c 24 00 f9 a8 01 ac ac be b9 a3 be 91 21 07
       3.316377e-39 -1.8425801e-12 -2.0138493e-17 1.2155124e-34
0000f0 cf 38 8d 04 39 4a 67 1d 3c 9f b4 ab 0f 1c 00 80
       3.320111e-36 3.0610968e-21 -1.2833966e-12 -1.0066e-41
000100 a5 5b 17 80 78 61 21 3d 6c d3 23 00 bc c8 01 ac
       -2.145092e-39 0.039399594 3.290086e-39 -1.8443433e-12
000110 fa 37 b4 a3 da f9 20 07 3f ab 95 04 e3 4a 67 1d
       -1.9539346e-17 1.2110487e-34 3.5186996e-36 3.061131e-21
000120 9a f6 b4 ab 12 1c 00 80 fb 86 17 80 92 76 21 3d
       -1.2858215e-12 -1.007e-41 -2.160638e-39 0.039419718
000130 23 af 23 00 45 de 01 ac d1 4c b1 a3 2e a9 20 07
       3.27707e-39 -1.8455387e-12 -1.9222911e-17 1.208678e-34
000140 95 a6 63 04 b2 35 67 1d 64 a2 b3 ab 1a 1c 00 80
       2.6760212e-36 3.0600355e-21 -1.2763787e-12 -1.0081e-41
000150 97 52 17 80 ba f6 20 3d 41 e3 24 00 79 ab 01 ac
       -2.141844e-39 0.039297797 3.387601e-39 -1.842719e-12
000160 c7 e4 bf a3 4a e6 22 07 9b 40 86 04 8e 3e 67 1d
       -2.0805152e-17 1.2255201e-34 3.156258e-36 3.0604935e-21
000170 ed 5f b4 ab 3b 1c 00 80 f8 29 17 80 95 4d 21 3d
       -1.2816394e-12 -1.0127e-41 -2.127272e-39 0.03938063
000180 e5 10 24 00 78 bd 01 ac 8b 95 b5 a3 d0 4a 21 07
       3.312138e-39 -1.8437179e-12 -1.9687393e-17 1.2134279e-34

conv2.bias f4 [10]
000000 ff 90 23 05 9f 14 3c 1c 27 94 67 2c 71 1b 00 00
       7.690855e-36 6.2230634e-22 3.2909315e-12 9.844e-42
000010 7e 34 04 80 83 70 49 3e a9 19 02 00 c7 d9 30 ab
       -3.86173e-40 0.19671826 1.92876e-40 -6.282999e-13
000020 d2 07 97 24 c0 1e f8 85
       6.549906e-17 -2.3333104e-35

cross_conv2.cross_conv.weight f4 [10, 10]
000000 aa 13 5d 26 bd 1b 00 00 e8 2d 5e a6 68 1b 00 00
       7.670143e-16 9.95e-42 -7.7083937e-16 9.832e-42
000010 b0 67 4a a8 19 03 9a bd ad 1b 00 80 7f 1b 00 80
       -1.1235736e-14 -0.07520122 -9.928e-42 -9.864e-42
000020 ec 08 db 2c 38 1d 00 80 ef 55 a5 b2 5c 1d 00 80
       6.225345e-12 -1.0482e-41 -1.9247606e-08 -1.0532e-41
000030 28 4d 93 a5 70 1b 00 00 c4 17 01 00 c1 a5 8d 3d
       -2.5552718e-16 9.843e-42 1.00361e-40 0.06916381
000040 6d 1b 00 00 77 1b 00 80 74 42 38 32 9b 1b 00 80
       9.839e-42 -9.853e-42 1.0725319e-08 -9.903e-42
000050 e8 1b 00 00 b9 1b 00 00 9d 1b 00 00 c7 1d 00 00
       1.0011e-41 9.945e-42 9.906e-42 1.0682e-41
000060 4a 1f 00 80 6f 75 67 3d a4 1b 00 00 65 1b 00 00
       -1.1224e-41 0.056508478 9.916e-42 9.827e-42
000070 6f dd af b3 66 1b 00 80 b0 a8 c0 a5 6e 1b 00 00
       -8.189351e-08 -9.829e-42 -3.3420998e-16 9.84e-42
000080 d8 f1 67 30 b8 1f 00 00 e3 47 6a 27 7e bb 98 3d
       8.438099e-10 1.1379e-41 3.2512993e-15 0.07457636
000090 6d 1b 00 80 6b 1b 00 00 93 46 0f ac 3f 21 00 80
       -9.839e-42 9.836e-42 -2.0360699e-12 -1.1926e-41
0000a0 27 e5 3f b5 5d 1b 00 80 8c 1b 00 00 98 1b 00 80
       -7.1486505e-07 -9.816e-42 9.882e-42 -9.899e-42
0000b0 42 81 17 26 b5 07 aa bd 67 1b 00 00 5d 1b 00 00
       5.2563826e-16 -0.08302251 9.83e-42 9.816e-42
0000c0 ff a3 0b 30 6e 1b 00 80 72 9e 01 00 6a 21 00 80
       5.080096e-10 -9.84e-42 1.48675e-40 -1.1987e-41
0000d0 10 0b 00 00 73 1b 00 00 9d 54 01 80 7d dc a5 bd
       3.968e-42 9.847e-42 -1.22189e-40 -0.080986954
0000e0 c3 1b 00 80 bc c0 1c b3 a0 91 96 a5 75 1b 00 00
       -9.959e-42 -3.649687e-08 -2.6119531e-16 9.85e-42
0000f0 c0 77 72 26 d0 1b 00 80 29 72 67 25 99 1b 00 80
       8.412291e-16 -9.977e-42 2.0074735e-16 -9.9e-42
000100 4e cc 00 80 c1 c7 9c bd 8a 1b 00 80 a5 1b 00 00
       -7.3291e-41 -0.076552875 -9.879e-42 9.917e-42
000110 f4 0e 88 b4 b8 1f 00 80 1e 9a d6 25 02 1c 00 80
       -2.5342854e-07 -1.1379e-41 3.7227516e-16 -1.0047e-41
000120 c1 c2 b3 29 7c 1b 00 00 58 4e 01 00 f1 4f ac 3d
       7.982981e-14 9.86e-42 1.1994e-40 0.08413685
000130 9f 1d 00 80 b9 1b 00 80 d5 57 33 2c 66 1b 00 00
       -1.0626e-41 -9.945e-42 2.5486187e-12 9.829e-42
000140 87 d4 ff b3 59 1b 00 80 84 1b 00 80 75 1b 00 80
       -1.1913021e-07 -9.81e-42 -9.871e-42 -9.85e-42
000150 5e 1b 00 80 37 7a 65 bd d4 b8 11 b3 e7 1b 00 00
       -9.817e-42 -0.056024756 -3.3928544e-08 1.001e-41
000160 0e 44 84 a4 80 1b 00 00 98 a0 c9 a5 7c 1b 00 00
       -5.7361164e-17 9.865e-42 -3.4976764e-16 9.86e-42
000170 98 1b 00 00 5d 1b 00 00 8a 1b 00 80 d9 09 97 bd
       9.899e-42 9.816e-42 -9.879e-42 -0.07374925
000180 79 1b 00 80 f5 1b 00 00 b4 ef 53 27 9b 1b 00 80
       -9.855e-42 1.0029e-41 2.9412076e-15 -9.903e-42

pool2.hypergnn.lin.weight f4 [1, 10]
000000 2e 84 ff 04 3a a4 60 1c d2 35 8d 2b 66 1b 00 80
       6.00716e-36 7.432764e-22 1.0033591e-12 -9.829e-42
000010 07 46 17 00 8b ad fd 3a 79 4b 37 00 ae c4 ff 2b
       2.137337e-39 0.0019354088 5.078027e-39 1.8173429e-12
000020 78 ca 12 a5 95 46 94 07
       -1.273208e-16 2.231005e-34

conv3.weight f4 [10, 10]
000000 a2 a3 94 39 f4 36 df b7 20 39 02 39 e7 83 4a 3a
       0.00028350676 -2.6609261e-05 0.00012419047 0.00077253435
000010 71 5a be b4 bb ab 94 bd 5c 8c dd bc 48 13 51 38
       -3.5456063e-07 -0.072593175 -0.027044468 4.984744e-05
000020 26 9f 3d 3e 0a 6d e8 3b 60 62 98 39 41 23 df b7
       0.18517742 0.0070930766 0.00029064994 -2.6600088e-05
000030 03 dd 01 39 ba 67 4a 3a 0b 80 be b4 d6 5c 9d bd
       0.00012384732 0.0007721145 -3.548342e-07 -0.07683723
000040 b7 b5 61 bd 54 8d 50 38 8e f3 d0 3d 3f 7d e9 3b
       -0.055104937 4.9722687e-05 0.10202704 0.007125526
000050 c4 61 af 39 ae 1f df b7 50 81 00 39 6c d4 49 3a
       0.00033451442 -2.6598424e-05 0.00012255204 0.0007699195
000060 8a 4f c0 b4 03 6c 7b bd 57 02 6a bd 38 72 4e 38
       -3.582066e-07 -0.061382305 -0.057131138 4.92206e-05
000070 a5 53 96 bc 02 11 ec 3b f7 2f 95 39 6c 36 df b7
       -0.018350432 0.007204176 0.0002845523 -2.6609014e-05
000080 f1 2c 02 39 75 83 4a 3a 76 6c be b4 a7 b8 94 bd
       0.00012414508 0.0007725277 -3.5469174e-07 -0.07261782
000090 be c1 66 bd e4 fc 50 38 d1 0c 2f 3e 30 93 e8 3b
       -0.05633711 4.9826587e-05 0.17094733 0.0070976242
0000a0 b0 c7 91 39 7f 7f df b7 9e 9b 02 39 dd a7 4a 3a
       0.00027805334 -2.6643042e-05 0.00012455738 0.0007730702
0000b0 8f d5 be b4 4e 42 0e be 63 c4 86 bd e1 72 51 38
       -3.5545642e-07 -0.1389248 -0.065804265 4.9936472e-05
0000c0 a5 48 63 3e 02 b9 e7 3b fc 4e 93 39 55 aa df b7
       0.2219568 0.007071615 0.00028096873 -2.6662989e-05
0000d0 e7 89 02 39 cd 98 4a 3a a4 64 bf b4 1b 60 6f be
       0.00012449139 0.00077284576 -3.5649748e-07 -0.23376505
0000e0 5a 7d 7c bc 6f 49 51 38 39 b7 69 3a e5 df e7 3b
       -0.0154107455 4.9897873e-05 0.0008915547 0.007076251
0000f0 e8 d9 94 39 1c 6a df b7 a9 52 02 39 53 8f 4a 3a
       0.00028391113 -2.6633083e-05 0.0001242856 0.00077270454
000100 be e2 be b4 99 64 fe bd 91 b3 ae bd 87 0c 51 38
       -3.5555234e-07 -0.12421531 -0.08530343 4.984115e-05
000110 12 1a ff 3d ec 72 e8 3b ef ac 91 39 b4 a5 df b7
       0.124561444 0.007093778 0.000277854 -2.6660833e-05
000120 e2 ad 02 39 63 aa 4a 3a 62 30 bf b4 8d c1 6a be
       0.00012462543 0.0007731078 -3.5611725e-07 -0.22925396
000130 f5 97 f3 bc af 7b 51 38 f7 f7 d7 3d c5 a2 e7 3b
       -0.029735545 4.9944672e-05 0.105453424 0.007068964
000140 36 fd a6 39 43 72 de b7 2b 32 00 39 11 02 4a 3a
       0.00031850644 -2.651767e-05 0.0001222572 0.00077059964
000150 a7 47 be b4 25 32 ff bc 05 8e 62 bd 16 81 4e 38
       -3.5442392e-07 -0.03115184 -0.05531122 4.9234448e-05
000160 4e 12 58 3d 4d 9b ed 3b b9 28 96 39 9b 53 df b7
       0.05275183 0.0072511793 0.0002864057 -2.6622603e-05
000170 9a 2a 02 39 f2 82 4a 3a 8e c8 be b4 d3 90 d6 bd
       0.00012413636 0.0007725201 -3.553618e-07 -0.10476842
000180 0c 9b a0 bd 98 dd 50 38 be 6b e8 3d 3b d2 e8 3b
       -0.07842073 4.979744e-05 0.11348675 0.0071051395

conv3.bias f4 [10]
000000 38 c2 d2 bb 61 32 24 b9 73 af c4 ba 69 c1 31 bb
       -0.006431844 -0.00015659026 -0.0015005901 -0.0027123338
000010 f4 a4 9b b7 3c 6a b0 3e 7a 33 62 be 06 d7 ca b9
       -1.8554252e-05 0.3445605 -0.22089949 -0.00038688647
000020 43 6d 22 be 73 92 a0 bc
       -0.15861993 -0.019601082

cross_conv3.cross_conv.weight f4 [10, 10]
000000 ce 1e 06 b1 f7 1d 00 80 3c 3c 00 80 2e 59 74 9b
       -1.9517077e-09 -1.075e-41 -2.1608e-41 -2.0212022e-22
000010 6b 1e 00 80 74 35 b9 a5 66 00 97 3b ac 1b 00 80
       -1.0912e-41 -3.2128606e-16 0.004608202 -9.927e-42
000020 5a 8a 82 3d 81 46 89 b8 97 1b 00 80 81 1b 00 80
       0.06374045 -6.5458014e-05 -9.897e-42 -9.867e-42
000030 25 1e 00 00 48 1c 00 80 f0 f8 a6 88 4c 2e ef bd
       1.0814e-41 -1.0145e-41 -1.00492865e-33 -0.11678752
000040 96 63 86 27 6d 1b 00 00 24 e3 25 be 2a 7e cc b7
       3.7300443e-15 9.839e-42 -0.16199929 -2.4377445e-05
000050 d9 1b 00 00 17 1f 00 80 6c 1b 00 00 3d db 15 9b
       9.99e-42 -1.1153e-41 9.837e-42 -1.2395831e-22
000060 a3 1c 00 80 db c9 f1 3c 5d e4 60 be 8e 1b 00 00
       -1.0273e-41 0.029515198 -0.21962114 9.885e-42
000070 c4 37 a0 3d 71 70 62 2d b8 1b a6 38 3f 1f 00 00
       0.078231364 1.287158e-11 7.92066e-05 1.1209e-41
000080 8a 1b 00 00 88 87 46 92 12 12 00 80 45 34 c4 3b
       9.879e-42 -6.264484e-28 -6.482e-42 0.0059876763
000090 ab 4f df b8 a6 52 8e 36 49 30 8b be 5d d1 9d 8d
       -0.00010648308 4.2415513e-06 -0.27185276 -9.726274e-31
0000a0 57 7f 19 b5 8a 1b 00 80 b9 1e 00 00 7c f0 58 83
       -5.7182245e-07 -9.879e-42 1.1021e-41 -6.3752757e-37
0000b0 bc 8c 00 00 fe 9a 04 be 19 ba f6 3d 5c 1b 00 80
       5.0486e-41 -0.1294975 0.12047214 -9.815e-42
0000c0 34 50 33 3e 03 25 b0 8f e9 b5 ed 3b f3 8b 73 b4
       0.17511064 -1.7369196e-29 0.0072543514 -2.2682052e-07
0000d0 8f 57 07 bb a6 6d 1a bb 12 49 27 02 b1 78 dd 38
       -0.0020651554 -0.002356389 1.2290192e-37 0.00010560582
0000e0 79 f1 8d 2e 5a f8 2f 3b 60 6d 92 3c 50 73 13 3b
       6.454832e-11 0.002685091 0.01787442 0.0022499152
0000f0 14 8f 08 3c e4 1c 00 80 f5 1b 00 80 22 d4 ac 89
       0.008334894 -1.0364e-41 -1.0029e-41 -4.1606983e-33
000100 05 0b d8 85 ed d8 34 bc c6 dc 8b 14 a9 f5 8c 32
       -2.031659e-35 -0.011038047 1.4122493e-26 1.6409858e-08
000110 8e c3 1b 3e c2 e2 dc 2c 66 5c bb 3c 56 20 af 24
       0.15211317 6.2779512e-12 0.022871207 7.594893e-17
000120 71 1b 00 00 ed 1b 00 00 ed 1c 00 80 22 2a 6f 3c
       9.844e-42 1.0018e-41 -1.0377e-41 0.014597448
000130 b7 fd fb 19 8d d3 c1 bb 3f 43 46 bd e0 56 8a 8b
       2.6055266e-23 -0.0059151114 -0.048403975 -5.328638e-32
000140 a3 7b 00 b7 63 20 00 00 73 1b 00 00 e0 62 9a 00
       -7.658181e-06 1.1618e-41 9.847e-42 1.4178136e-38
000150 7f 8e 00 80 bf 0e 85 9f 52 8a 30 3d a5 1b 00 00
       -5.1118e-41 -5.6352086e-20 0.043100663 9.917e-42
000160 e7 80 6f 3e 64 77 b4 81 72 3e bf 3c 82 1b 00 00
       0.23389016 -6.6292874e-38 0.023345206 9.868e-42
000170 00 22 00 80 f7 1d 00 80 7a 1b 00 80 29 61 81 be
       -1.2197e-41 -1.075e-41 -9.857e-42 -0.2526944
000180 b1 fd 34 be da f0 2b 3a f6 71 0e 99 42 d1 db 3a
       -0.176749 0.0006559022 -7.364242e-24 0.0016770738

pool3.hypergnn.lin.weight f4 [1, 10]
000000 22 43 3a 3a 1d d1 86 b8 f4 51 75 b9 1f 05 a4 39
       0.00071053405 -6.428568e-05 -0.0002339555 0.00031284333
000010 19 a8 72 b6 fa ff a6 bd ed 58 a4 3c 4c 86 d7 b7
       -3.6158656e-06 -0.081542924 0.020061934 -2.5692534e-05
000020 f2 fb 92 3c 3d 99 eb 3a
       0.017942403 0.0017974746

readout0.weight f4 [10, 10]
000000 62 ec 12 3e 8e 9b a9 3a e6 54 19 3e c4 f5 1c 3e
       0.14347985 0.0012940036 0.14973792 0.15328127
000010 e4 d7 1c 3e 28 2d 18 3e ef 93 19 3e 2e 98 24 38
       0.1531673 0.14860976 0.14997838 3.9242375e-05
000020 07 9b 31 39 74 45 b4 36 a5 6b 22 3a 0e 10 89 b6
       0.00016937788 5.3725034e-06 0.000619585 -4.084787e-06
000030 75 3f 3b 3a 3f 0c 95 39 6d 2d 2b 3a c6 b1 96 39
       0.000714294 0.0002842862 0.00065299013 0.0002874268
000040 d0 3e 17 3a fc 41 8d 35 dd 4e b5 35 31 80 c4 b4
       0.00057695527 1.0524523e-06 1.3508503e-06 -3.6601116e-07
000050 f8 91 38 3e a1 32 bf 3a 72 52 4a 3e 20 93 3a 3e
       0.18024433 0.0014587232 0.19758013 0.18220186
000060 c0 c4 3f 3e b5 dc 35 3e 28 82 3a 3e 2f 4b 44 38
       0.18727398 0.17759974 0.18213713 4.680006e-05
000070 22 cd 33 39 f2 7c dc 36 35 0e e5 3d ea 5a 3a 3a
       0.00017147188 6.5710565e-06 0.111843504 0.0007108884
000080 9e cc f5 3d 6f ec e3 3d 55 11 f6 3d 74 f6 dd 3d
       0.12001918 0.111290805 0.120150246 0.10838023
000090 86 65 ec 3d a1 d6 b0 37 18 a5 0b 39 2d 68 ef 35
       0.115428016 2.108078e-05 0.00013317575 1.7837207e-06
0000a0 d1 c4 29 3e df 66 b7 3a bc 8f 38 3e b7 6b 33 3e
       0.16578986 0.001399245 0.1802358 0.17521559
0000b0 d1 e1 3c 3e 35 06 2d 3e 83 46 37 3e e0 15 38 38
       0.18445517 0.16896899 0.17897992 4.388939e-05
0000c0 99 a9 31 39 0e 95 cc 36 41 40 db 3d b9 47 35 3a
       0.00016943215 6.097026e-06 0.10705615 0.00069152896
0000d0 0e 05 e9 3d b9 67 dc 3d 03 20 eb 3d 4c 85 d6 3d
       0.11377917 0.10761971 0.11480715 0.10474643
0000e0 2b bd e2 3d f1 91 ab 37 30 81 09 39 88 ca e0 35
       0.11071237 2.0452748e-05 0.00013113464 1.6748245e-06
0000f0 61 77 17 3e 3b 90 a7 3a a3 e0 1d 3e a7 bd 1f 3e
       0.14791633 0.0012784073 0.15417723 0.1559969
000100 08 4a 24 3e d0 02 1b 3e 41 ce 1d 3e dc 69 22 38
       0.16043866 0.15137792 0.15410711 3.87224e-05
000110 b4 cd 2f 39 c7 70 b0 36 34 ca 84 b7 f7 ea 3e 35
       0.00016765931 5.2583378e-06 -1.5829784e-05 7.1122435e-07
000120 66 42 85 b7 e7 68 9e b7 c9 38 86 b7 aa 9e 9c b7
       -1.5885755e-05 -1.8883917e-05 -1.6000487e-05 -1.8670533e-05
000130 d4 c0 86 b7 04 3a 32 b2 a0 d5 dd b3 62 86 de b0
       -1.6063837e-05 -1.0374155e-08 -1.03299726e-07 -1.619082e-09
000140 b0 aa d3 38 ea 94 a9 35 0f 39 e2 38 68 06 75 38
       0.00010093057 1.2634821e-06 0.00010787148 5.8418518e-05
000150 97 ae d7 38 d4 2a 78 38 61 9c c8 38 44 a8 bc b3
       0.00010284519 5.9167694e-05 9.565871e-05 -8.7850395e-08
000160 79 e4 06 36 2c 33 d4 b2 f0 15 6c b6 a0 2b b2 b4
       2.0100545e-06 -2.4703319e-08 -3.517951e-06 -3.3186825e-07
000170 a9 63 66 b6 ae 43 a2 b6 d6 3b 6d b6 a7 f8 9f b6
       -3.433068e-06 -4.835855e-06 -3.535058e-06 -4.767516e-06
000180 55 a8 73 b6 f5 88 79 b0 15 92 06 b3 c2 06 04 b1
       -3.6307804e-06 -9.07803e-10 -3.1332167e-08 -1.921237e-09

readout1.weight f4 [10, 10]
000000 98 3f 6f 3d 22 f4 6e 3d 08 c0 6e 3d 77 c5 6e 3d
       0.058410257 0.058338292 0.058288604 0.058293786
000010 2c ed 6e 3d 1e 05 6f 3d bf 22 6f 3d 70 3c 6f 3d
       0.058331653 0.05835449 0.058382746 0.058407247
000020 08 26 6f 3d a3 10 6f 3d 27 c8 6e 3d 7c 7c 6e 3d
       0.05838588 0.058365475 0.05829635 0.058224186
000030 df 48 6e 3d 45 4e 6e 3d db 75 6e 3d e7 8d 6e 3d
       0.058174964 0.058180112 0.058217864 0.058240797
000040 40 ab 6e 3d 98 c4 6e 3d 83 ae 6e 3d 77 99 6e 3d
       0.058268785 0.058292955 0.058271896 0.058251824
000050 5e 70 6e 3d 02 25 6e 3d 6f f1 6d 3d b5 f6 6d 3d
       0.05821263 0.058140762 0.058091577 0.058096606
000060 6b 1e 6e 3d 37 36 6e 3d d4 53 6e 3d 1a 6d 6e 3d
       0.058134478 0.058157172 0.058185413 0.058209516
000070 e6 56 6e 3d 7d 41 6e 3d 6a 7c 6e 3d df 30 6e 3d
       0.05818834 0.058167923 0.05822412 0.058152076
000080 3a fd 6d 3d ca 02 6e 3d 55 2a 6e 3d 29 42 6e 3d
       0.058102824 0.05810813 0.05814584 0.058168564
000090 a8 5f 6e 3d b7 78 6e 3d ff 62 6e 3d b9 4d 6e 3d
       0.058196694 0.05822059 0.05819988 0.05817959
0000a0 f5 bf 6e 3d 5d 74 6e 3d cf 40 6e 3d fe 45 6e 3d
       0.058288533 0.05821644 0.058167275 0.05817222
0000b0 c3 6d 6e 3d f7 85 6e 3d 20 a3 6e 3d 8d bc 6e 3d
       0.058210146 0.058233228 0.058261037 0.058285285
0000c0 69 a6 6e 3d 37 91 6e 3d 80 e4 6e 3d e1 98 6e 3d
       0.05826417 0.058243956 0.058323383 0.058251265
0000d0 21 65 6e 3d 51 6a 6e 3d e8 91 6e 3d 30 aa 6e 3d
       0.058201913 0.05820686 0.058244616 0.058267772
0000e0 8c c7 6e 3d 06 e1 6e 3d d4 ca 6e 3d a1 b5 6e 3d
       0.05829577 0.058320068 0.0582989 0.058278684
0000f0 0a 12 6f 3d 6d c6 6e 3d 8e 92 6e 3d 2f 98 6e 3d
       0.058366813 0.058294702 0.058245234 0.058250602
000100 d0 bf 6e 3d c7 d7 6e 3d 27 f5 6e 3d 9d 0e 6f 3d
       0.058288395 0.05831125 0.058339264 0.058363546
000110 63 f8 6e 3d fd e2 6e 3d 39 3a 6f 3d b8 ee 6e 3d
       0.05834235 0.05832194 0.058405135 0.05833313
000120 c2 ba 6e 3d 01 c0 6e 3d 3c e8 6e 3d e9 ff 6e 3d
       0.058283575 0.058288578 0.058326945 0.058349524
000130 62 1d 6f 3d f4 36 6f 3d d3 20 6f 3d 2e 0b 6f 3d
       0.05837763 0.058402017 0.058380913 0.05836027
000140 79 0e 6f 3d d6 c2 6e 3d 29 8f 6e 3d 7d 94 6e 3d
       0.05836341 0.05829128 0.058241997 0.05824708
000150 3c bc 6e 3d 0e d4 6e 3d b6 f1 6e 3d 18 0b 6f 3d
       0.058284983 0.0583077 0.058335982 0.05836019
000160 ca f4 6e 3d 87 df 6e 3d d0 f5 6e 3d 67 aa 6e 3d
       0.058338918 0.05831864 0.058339894 0.058267977
000170 9c 76 6e 3d f6 7b 6e 3d aa a3 6e 3d 95 bb 6e 3d
       0.058218583 0.058223687 0.05826155 0.05828436
000180 e0 d8 6e 3d 82 f2 6e 3d 54 dc 6e 3d c7 c6 6e 3d
       0.058312297 0.058336742 0.05831559 0.058295038

readout2.weight f4 [10, 10]
000000 dd 2e 2f bd 60 13 2f bd 41 b4 2e bd 5b 2c 2f bd
       -0.0427693 -0.042743087 -0.042652372 -0.04276691
000010 73 53 2f bd dd 52 2f bd 29 3c 2f bd 95 5c 2f bd
       -0.042804193 -0.042803634 -0.042781983 -0.042812902
000020 75 a0 2e bd 5c 2e 2f bd 8d 09 2f bd 23 ee 2e bd
       -0.042633492 -0.04276882 -0.042733718 -0.042707574
000030 1d 8f 2e bd 09 07 2f bd 1b 2e 2f bd 8b 2d 2f bd
       -0.042616952 -0.04273132 -0.04276858 -0.042768043
000040 dc 16 2f bd 46 37 2f bd 5e 7b 2e bd 1d 09 2f bd
       -0.04274641 -0.042777322 -0.04259812 -0.0427333
000050 db 7f 2e bd 97 64 2e bd 96 06 2e bd 59 7d 2e bd
       -0.0426024 -0.0425764 -0.04248675 -0.04260001
000060 41 a4 2e bd cd a3 2e bd 21 8d 2e bd 6d ad 2e bd
       -0.042637113 -0.04263668 -0.04261506 -0.04264586
000070 7a f2 2d bd 6f 7f 2e bd 2c 2b 2f bd b8 0f 2f bd
       -0.04246757 -0.042602 -0.04276578 -0.0427396
000080 83 b0 2e bd a8 28 2f bd c4 4f 2f bd 31 4f 2f bd
       -0.042648803 -0.042763382 -0.04280068 -0.042800132
000090 79 38 2f bd e8 58 2f bd c4 9c 2e bd af 2a 2f bd
       -0.042778466 -0.042809397 -0.042629972 -0.042765316
0000a0 c4 5d 2f bd 48 42 2f bd f0 e2 2e bd 3c 5b 2f bd
       -0.04281403 -0.04278782 -0.042696893 -0.042811617
0000b0 67 82 2f bd ce 81 2f bd 09 6b 2f bd 8b 8b 2f bd
       -0.04284897 -0.0428484 -0.042826686 -0.042857688
0000c0 32 cf 2e bd 45 5d 2f bd 31 5a 2f bd ac 3e 2f bd
       -0.042678066 -0.042813558 -0.042810623 -0.042784378
0000d0 8d df 2e bd b1 57 2f bd d2 7e 2f bd 45 7e 2f bd
       -0.042693663 -0.04280824 -0.042845555 -0.04284503
0000e0 85 67 2f bd fb 87 2f bd be cb 2e bd b5 59 2f bd
       -0.042823333 -0.04285429 -0.042674772 -0.04281016
0000f0 57 3e 2f bd db 22 2f bd b8 c3 2e bd cd 3b 2f bd
       -0.04278406 -0.04275785 -0.04266712 -0.04278164
000100 ec 62 2f bd 64 62 2f bd 9f 4b 2f bd 1a 6c 2f bd
       -0.04281895 -0.042818442 -0.042796727 -0.042827703
000110 eb af 2e bd d6 3d 2f bd 6b 68 2f bd e5 4c 2f bd
       -0.042648237 -0.04278358 -0.04282419 -0.04279794
000120 99 ed 2e bd da 65 2f bd 09 8d 2f bd 76 8c 2f bd
       -0.04270706 -0.042821743 -0.04285911 -0.042858563
000130 ad 75 2f bd 34 96 2f bd c7 d9 2e bd e5 67 2f bd
       -0.042836834 -0.042867854 -0.042688157 -0.04282369
000140 b2 71 2e bd 5f 56 2e bd 04 f8 2d bd 2f 6f 2e bd
       -0.042588897 -0.04256284 -0.042472854 -0.0425865
000150 18 96 2e bd 95 95 2e bd f1 7e 2e bd 36 9f 2e bd
       -0.04262361 -0.04262312 -0.04260153 -0.042632304
000160 0c e4 2d bd 35 71 2e bd 61 2c 2f bd df 10 2f bd
       -0.04245381 -0.04258843 -0.042766932 -0.0427407
000170 d0 b1 2e bd cb 29 2f bd eb 50 2f bd 69 50 2f bd
       -0.042650044 -0.042764466 -0.04280178 -0.042801294
000180 ac 39 2f bd 16 5a 2f bd fc 9d 2e bd dd 2b 2f bd
       -0.04277961 -0.042810522 -0.042631134 -0.04276644

readout3.weight f4 [10, 10]
000000 98 af 4c 3d a3 24 29 3d 6d 0a 60 3d 60 96 7d 3d
       0.049972147 0.041294705 0.054697443 0.061910987
000010 47 97 29 3d 35 4f 47 3c 6e 19 68 3d 1a a9 54 3d
       0.041404035 0.0121648805 0.056664877 0.05191908
000020 3e b4 78 3d 23 1a 30 3d 5a 35 2a 3d 86 eb 18 3d
       0.060718767 0.042993676 0.041554786 0.037333988
000030 eb 33 45 3d 7e b4 5c 3d e6 2f 18 3d ce c3 01 3c
       0.048145216 0.05388307 0.037155055 0.007920219
000040 ae 9c 46 3d 97 98 40 3d 20 8c 57 3d 1a 11 31 3d
       0.048489265 0.04702052 0.052623868 0.0432292
000050 9f 13 62 3d ab 18 45 3d 7e 3d 7c 3d 38 8e 8c 3d
       0.055194493 0.04811923 0.06158208 0.068630636
000060 45 9a 45 3d db f4 78 3c 50 93 80 3d e8 24 73 3d
       0.048242826 0.015195097 0.06278098 0.05936137
000070 94 e0 89 3d 92 37 4e 3d c8 c3 82 3d 3f 07 62 3d
       0.06732288 0.050345965 0.063849986 0.05518269
000080 0c 65 8f 3d 19 b6 9f 3d 49 6e 63 3d d6 24 a0 3c
       0.07001695 0.07798404 0.055525098 0.019548815
000090 be 48 93 3d 68 79 88 3d fe e8 9c 3d 26 f3 63 3d
       0.07191609 0.066637814 0.07661627 0.055651806
0000a0 22 22 2b 3d 70 5a 18 3d 43 10 46 3d 22 76 5e 3d
       0.0417806 0.037195623 0.048355352 0.05431188
0000b0 ac d0 17 3d 45 17 fd 3b 27 0b 48 3d 5f 11 42 3d
       0.03706424 0.007723721 0.04883876 0.047379848
0000c0 9f 46 59 3d 02 d3 2f 3d 94 e5 64 3c d9 8a 1e 3c
       0.053045865 0.042925842 0.013970751 0.009676659
0000d0 18 69 89 3c 1f 26 a8 3c 18 98 1a 3c d1 7e 9b bb
       0.016773745 0.02052599 0.009435676 -0.0047453423
0000e0 85 82 91 3c 19 2f 67 3c 6e b4 a3 3c 74 ee 7e 3c
       0.017762432 0.01411035 0.019983497 0.015559781
0000f0 da b1 6c 3d 8a f0 48 3d 77 b5 81 3d e1 89 91 3d
       0.0577868 0.04905752 0.0633344 0.071063764
000100 78 f2 49 3d 8d 08 87 3c a1 12 86 3d c8 be 77 3d
       0.0493035 0.01648357 0.06546522 0.060484678
000110 3f ed 8e 3d a6 1f 4b 3d f0 3b 59 3d 62 d3 46 3d
       0.06978845 0.04959073 0.053035676 0.048541434
000120 69 4e 76 3d 82 79 86 3d a1 d0 47 3d f6 ef 4a 3c
       0.06013337 0.065661445 0.04878295 0.012386313
000130 be 58 77 3d 48 df 53 3d 48 04 84 3d a5 fe 5a 3d
       0.060387366 0.05172661 0.06446129 0.053465504
000140 8a bf 7f 3d 02 15 5c 3d 3f 45 8c 3d 13 77 9c 3d
       0.062438525 0.053730972 0.06849145 0.07639899
000150 a1 71 5d 3d 6d 5a 9b 3c b7 38 90 3d 68 8a 85 3d
       0.054063443 0.018964017 0.070420675 0.065205395
000160 a9 d3 99 3d 5b 8d 5e 3d 2d 62 2a 3d f3 93 23 3d
       0.07511074 0.054334026 0.041597534 0.039936017
000170 a8 3a 47 3d c8 37 5a 3d 49 e5 22 3d 52 18 54 3c
       0.048639923 0.053275853 0.039769445 0.012945252
000180 40 99 43 3d c6 17 4c 3d 95 53 55 3d 75 02 43 3d
       0.047753572 0.04982736 0.052081663 0.047609765

mlp.lin0.weight f4 [20, 80]
000000 8e e2 14 b3 08 fb cc b0 d4 37 b9 b3 4c 20 9a 33
       -3.4664986e-08 -1.4914301e-09 -8.624889e-08 7.1770586e-08
000010 fd b6 90 b3 a2 01 9c 33 5d 42 0a b3 26 86 f1 2d
       -6.738808e-08 7.264613e-08 -3.2190986e-08 2.7458102e-11
000020 c4 c9 8c 30 e2 86 e3 ad 6b b2 e2 b3 5e 66 cb b0
       1.0243686e-09 -2.5866812e-11 -1.0556399e-07 -1.4799288e-09
000030 30 7c 15 b4 82 68 8c b2 a8 90 08 b4 3d 4c 6c b2
       -1.3921886e-07 -1.634567e-08 -1.2718613e-07 -1.37543426e-08
000040 41 63 df b3 b6 8e 03 2d 35 51 21 ae 68 95 cc ad
       -1.0402301e-07 7.478176e-12 -3.6679288e-11 -2.3258465e-11
000050 7c e1 1a b4 91 24 1a b4 25 3f 19 b4 04 75 19 b4
       -1.4424398e-07 -1.435567e-07 -1.4272207e-07 -1.4291805e-07
000060 7e 27 1a b4 9e 5d 1a b4 07 9e 1a b4 82 d8 1a b4
       -1.4356735e-07 -1.4376425e-07 -1.4399858e-07 -1.4421133e-07
000070 4e c1 19 b4 ba 6a 1a b4 50 82 43 b4 b4 06 43 b4
       -1.4319559e-07 -1.4381195e-07 -1.8208198e-07 -1.8163229e-07
000080 e3 80 42 b4 6c 9e 42 b4 2e 03 43 b4 dd 22 43 b4
       -1.8114547e-07 -1.8125291e-07 -1.8161947e-07 -1.8173473e-07
000090 38 54 43 b4 ff 7b 43 b4 eb d3 42 b4 a1 35 43 b4
       -1.8191429e-07 -1.82059e-07 -1.8144753e-07 -1.81803e-07
0000a0 7e d6 0f b1 06 18 f6 b0 54 2a 36 b0 2a c0 0d b1
       -2.0931163e-09 -1.7905684e-09 -6.6271366e-10 -2.0627433e-09
0000b0 51 f1 23 b1 09 16 1d b1 dc e7 13 b1 2f ad 25 b1
       -2.3856794e-09 -2.2859032e-09 -2.1523112e-09 -2.4109104e-09
0000c0 87 d6 23 b0 6b 7f 0b b1 64 db 27 32 4e e2 24 32
       -5.9603916e-10 -2.029959e-09 9.770563e-09 9.597512e-09
0000d0 72 ae 19 32 36 8f 27 32 e9 cb 2a 32 d3 e5 29 32
       8.945436e-09 9.753242e-09 9.941666e-09 9.889351e-09
0000e0 15 82 28 32 24 1a 2b 32 06 d6 18 32 24 49 27 32
       9.808464e-09 9.959454e-09 8.896228e-09 9.73731e-09
0000f0 73 ef 71 b3 f0 be 81 b3 ad ed a3 b3 0c 80 be b3
       -5.6329963e-08 -6.041762e-08 -7.633512e-08 -8.870856e-08
000100 f5 27 90 b3 35 26 c6 33 9d 5c ad b3 27 d4 e6 b2
       -6.712791e-08 9.227043e-08 -8.0727865e-08 -2.6872e-08
000110 b6 d1 ba b3 4b 31 31 b3 fc 6a c2 b3 84 39 c8 b3
       -8.699446e-08 -4.1255856e-08 -9.053289e-08 -9.323688e-08
000120 2b 8a e6 b3 62 d1 f5 b3 4c b6 cb b3 cd d1 0b 32
       -1.0735342e-07 -1.1446788e-07 -9.486084e-08 8.138568e-09
000130 bb e1 ec b3 45 ce 9d b3 8b 34 f3 b3 1a de b6 b3
       -1.10306665e-07 -7.3484024e-08 -1.1325127e-07 -8.5154355e-08
000140 49 74 13 bd e1 c2 13 39 94 de c5 bd eb f1 05 bd
       -0.03599957 0.0001409161 -0.09661594 -0.032701414
000150 ca a0 d3 38 e0 83 f9 bc 81 af cf bd 3a bf 7a b7
       0.00010091213 -0.03045839 -0.101408966 -1.4945685e-05
000160 aa 1a d3 38 1a 35 bc 36 02 a0 00 be 84 6c a4 37
       0.000100662306 5.6090184e-06 -0.12561038 1.9600855e-05
000170 09 07 12 be 49 4b 36 bd 63 56 1f be b7 59 37 bd
       -0.14260496 -0.04450539 -0.15560298 -0.044763293
000180 34 69 e8 bd 15 f6 bf b6 12 1a 5e 38 92 e5 30 36
       -0.11348191 -5.7208913e-06 5.2953204e-05 2.6359671e-06
000190 c4 06 86 3d 3d 25 fa 3b e2 7e 17 3d 5c 32 23 bd
       0.06544259 0.0076338337 0.03698624 -0.03984295
0001a0 11 65 e1 3d 82 76 0a 3d 71 32 a7 bc 53 95 b3 3d
       0.11005605 0.033804424 -0.020409795 0.08768716
0001b0 7a 11 8c 3d f7 70 eb 3d 8b 42 4b 3d c1 5b 93 3d
       0.06839271 0.11496156 0.049624007 0.07195235
0001c0 4a 19 7c 3d 10 ff bb 3d d6 06 70 3d b9 20 60 3d
       0.061547555 0.09179509 0.05860027 0.054718707
0001d0 2c 6a da 3d 67 c1 a0 3d d0 70 b1 3d e0 1e b1 3d
       0.10664782 0.078493886 0.086640954 0.08648467
0001e0 da 1f 81 bb 24 0f 81 bb 9b ef 80 bb fd 1f 81 bb
       -0.0039405646 -0.0039385725 -0.003934813 -0.003940581
0001f0 a9 41 81 bb 6e 48 81 bb 82 32 81 bb 9c 4c 81 bb
       -0.003944595 -0.003945402 -0.0039427886 -0.0039459
000200 d9 be 80 bb 04 27 81 bb b0 79 47 bb 59 65 47 bb
       -0.003929001 -0.0039414186 -0.0030437522 -0.0030425398
000210 2b 33 47 bb 32 79 47 bb 4e 9c 47 bb 6f 9e 47 bb
       -0.0030395489 -0.0030437228 -0.0030458155 -0.0030459424
000220 3d 8a 47 bb c8 a5 47 bb 8e 14 47 bb ab 7d 47 bb
       -0.0030447387 -0.0030463804 -0.0030377242 -0.0030439894
000230 7b d1 ce ba 2a 93 b7 bd f5 88 57 3b 4a 2d a7 bd
       -0.0015778983 -0.08963616 0.003288803 -0.08162935
000240 c4 03 29 bd 8e 67 dd bb 6d e4 ba 3a 2f 37 be bc
       -0.041263357 -0.0067567294 0.001425875 -0.023219673
000250 53 4b eb bc a6 88 fc 3b bd 75 39 3d b2 6b f4 3c
       -0.02872244 0.0077067195 0.0452783 0.02983651
000260 a4 da 5b 3c 76 bb 8a bc 83 94 4f 3d 3a 4a d1 3c
       0.013418827 -0.016935091 0.05067874 0.02554809
000270 f0 cd 0a bc c3 10 25 3c 56 31 34 bc 63 62 2f 3d
       -0.008471951 0.010074797 -0.010998091 0.04281844
000280 bc 29 23 ae b6 1e 00 80 35 b2 30 b0 d9 c2 0b a6
       -3.7098977e-11 -1.1017e-41 -6.4281674e-10 -4.848938e-16
000290 1b df 88 af 86 02 a5 a5 f5 a0 0b ae c3 06 00 00
       -2.4896782e-10 -2.8624647e-16 -3.17479e-11 2.426e-42
0002a0 5a 1b 00 00 84 a1 00 80 02 35 86 a3 67 1b 00 00
       9.812e-42 -5.7941e-41 -1.4550759e-17 9.83e-42
0002b0 ab 8f 9f a7 17 b7 c3 0e 76 16 42 a6 87 24 14 8d
       -4.428713e-15 4.824752e-30 -6.733771e-16 -4.564999e-31
0002c0 16 3c 40 a3 35 86 00 80 39 51 00 80 59 d2 00 00
       -1.04210645e-17 -4.8144e-41 -2.9137e-41 7.5459e-41
0002d0 94 88 14 b2 e0 61 10 b2 89 09 0b b2 15 5d 0c b2
       -8.645788e-09 -8.404157e-09 -8.093033e-09 -8.170237e-09
0002e0 47 a9 10 b2 58 bf 11 b2 30 0b 13 b2 40 51 14 b2
       -8.420392e-09 -8.483617e-09 -8.55907e-09 -8.633208e-09
0002f0 b0 da 0d b2 f3 ec 11 b2 5d a4 99 ab ab fd 91 ab
       -8.257004e-09 -8.493987e-09 -1.0916924e-12 -1.0373277e-12
000300 3f 73 88 ab a5 c5 8a ab 32 82 92 ab 95 92 94 ab
       -9.695368e-13 -9.860347e-13 -1.041006e-12 -1.0556717e-12
000310 30 e8 96 ab 84 41 99 ab ab 4e 8d ab 4e d1 94 ab
       -1.0722586e-12 -1.0889488e-12 -1.0040487e-12 -1.0574126e-12
000320 48 1d 00 80 05 1c 00 80 74 1d 00 80 e0 1d 00 80
       -1.0504e-41 -1.0052e-41 -1.0566e-41 -1.0717e-41
000330 c7 1c 00 80 79 1d 00 80 c2 1d 00 80 a2 1c 00 80
       -1.0323e-41 -1.0573e-41 -1.0675e-41 -1.0272e-41
000340 00 1f 00 80 7c 1b 00 80 bb 1c 00 80 79 1b 00 80
       -1.1121e-41 -9.86e-42 -1.0307e-41 -9.855e-42
000350 fc 1d 00 00 95 21 00 80 ec 1c 00 80 ee 1d 00 80
       1.0756e-41 -1.2047e-41 -1.0375e-41 -1.0737e-41
000360 0a 20 00 80 48 1f 00 80 ba 1c 00 00 32 1d 00 80
       -1.1493e-41 -1.1222e-41 1.0305e-41 -1.0473e-41
000370 c4 74 a2 af 2c 55 99 b0 36 a1 32 b0 d9 9f 50 b0
       -2.9550595e-10 -1.1156422e-09 -6.498512e-10 -7.5897116e-10
000380 df 26 91 b0 9e 7c a4 aa 02 62 1e b0 e1 30 10 af
       -1.0561186e-09 -2.9218723e-13 -5.761934e-10 -1.3114089e-10
000390 d4 00 44 b0 af 7f 3e b1 fd 4f a1 a7 1c e8 c9 ac
       -7.130556e-10 -2.7721219e-09 -4.47732e-15 -5.738533e-12
0003a0 c7 f8 8f a7 1d 0d d7 a4 ed 45 40 ac 1d f8 03 a9
       -3.99602e-15 -9.32636e-17 -2.7323658e-12 -2.9303047e-14
0003b0 aa b0 b7 a5 25 1a a6 a7 52 93 0b a5 f0 38 49 ac
       -3.1865152e-16 -4.61026e-15 -1.2106242e-16 -2.8595425e-12
0003c0 14 52 8d 3a 2b 67 ee a0 22 b4 b9 3a 8a 51 cc 39
       0.0010781907 -4.038704e-19 0.0014168064 0.00038970663
0003d0 5d b7 a8 3a 45 dd c2 39 c3 89 8c 3a 3e 59 7d 21
       0.0012872029 0.00037167422 0.0010722209 8.5837845e-19
0003e0 5e b0 5e 20 41 84 61 9e c7 22 ca 39 26 dc 46 23
       1.8862486e-19 -1.193875e-20 0.00038554354 1.078022e-17
0003f0 eb 95 43 3a 80 4a cb b6 25 2b 1f 3a 1c 30 38 b7
       0.0007460999 -6.0585444e-06 0.00060717977 -1.0978456e-05

mlp.lin0.bias f4 [20]
000000 08 9b 1f 33 60 53 d8 3b 12 1e 00 00 16 7f f9 26
       3.7161072e-08 0.006601736 1.0787e-41 1.7312293e-15
000010 2b 17 01 8b e7 5d ab 31 bd 1b 00 00 d1 2f 00 00
       -2.4861926e-32 4.9874305e-09 9.95e-42 1.7153e-41
000020 fe 47 c1 83 9f 1b 00 80 a0 1b 00 80 eb 37 80 2f
       -1.1360049e-36 -9.909e-42 -9.91e-42 2.3322796e-10
000030 70 eb 73 37 98 6f 84 34 85 1b 00 00 93 21 00 00
       1.4538746e-05 2.466811e-07 9.872e-42 1.2044e-41
000040 d4 f2 3f b3 54 8a dd 9c 6c 1b 00 80 77 1b 00 80
       -4.4691504e-08 -1.466031e-21 -9.837e-42 -9.853e-42

mlp.lin1.weight f4 [10, 20]
000000 84 f7 63 35 80 98 01 bd 68 2e 24 3b 04 37 a8 39
       8.492427e-07 -0.031639576 0.0025052074 0.00032084447
000010 65 e6 9d 38 48 7f bc 3c e0 53 c2 bb d4 d5 77 bb
       7.529258e-05 0.023009911 -0.005930409 -0.003781666
000020 25 e2 98 bb a5 27 66 2a 64 90 ac 39 75 eb 21 3c
       -0.0046656304 2.0441858e-13 0.00032913976 0.0098827975
000030 ae af 20 3f 9f 82 01 ba 1f 76 93 ba 6c 96 08 bc
       0.62768066 -0.00049404235 -0.0011250413 -0.008336645
000040 2f 4a 66 3a eb 7c 9b b6 a2 cc 95 3c e5 88 09 b9
       0.0008784858 -4.6339023e-06 0.018286053 -0.00013116335
000050 f0 5c c7 2e 5f f0 29 b0 8c 1b 00 00 65 1c 00 80
       9.065981e-11 -6.182343e-10 9.882e-42 -1.0186e-41
000060 a6 1b 00 80 99 1b 00 80 cc 1e 00 00 52 21 00 00
       -9.918e-42 -9.9e-42 1.1048e-41 1.1953e-41
000070 61 1b 00 80 91 1b 00 00 29 52 f3 86 31 63 71 ac
       -9.822e-42 9.889e-42 -9.1527164e-35 -3.4303222e-12
000080 e1 1e 11 30 71 1b 00 80 95 1b 00 80 fa 7c d0 b7
       5.2794574e-10 -9.844e-42 -9.895e-42 -2.4853729e-05
000090 96 55 0d a7 23 1c 00 00 92 1b 00 80 58 1b 00 80
       -1.9614077e-15 1.0094e-41 -9.89e-42 -9.809e-42
0000a0 66 dc 2a 35 98 da 25 3c 11 92 11 3b 0f 1b 80 39
       6.3650657e-07 0.010122918 0.0022212307 0.00024434223
0000b0 80 d6 0a 38 70 7e bd 3c 60 2c 9f bb 93 67 72 bb
       3.3101533e-05 0.02313158 -0.004857585 -0.0036988005
0000c0 8d 6a 8f bb 2b 6e 0f 26 c1 45 99 39 6a 10 1f 3c
       -0.0043767155 4.9762397e-16 0.00029234405 0.009708503
0000d0 ef 4b 13 3f 50 54 fd b9 4c cd 46 ba 91 d9 05 bc
       0.5753774 -0.00048318738 -0.0007583692 -0.008169548
0000e0 88 3a 52 3a 66 3b a6 b5 c6 0d 84 3c 4a 8b 4b b9
       0.0008019586 -1.2385251e-06 0.016119849 -0.00019411478
0000f0 5f 22 00 80 48 23 85 ba 52 22 00 00 6a f4 d2 b6
       -1.233e-41 -0.0010157609 1.2312e-41 -6.2869412e-06
000100 87 1d 00 00 8f 1b 00 80 14 ef 4d 24 d1 0a 74 01
       1.0592e-41 -9.886e-42 4.4654796e-17 4.4823483e-38
000110 d7 3c 33 b0 63 1b 00 80 e1 1c 00 00 64 1b 00 00
       -6.520628e-10 -9.825e-42 1.036e-41 9.826e-42
000120 d4 95 a7 b9 a9 1b 00 00 60 21 00 00 cc 47 9e 32
       -0.00031964353 9.923e-42 1.1973e-41 1.842627e-08
000130 b1 65 ca 00 b3 1b 00 00 dd 9a 04 1a 38 5b ee b5
       1.858725e-38 9.937e-42 2.7422058e-23 -1.775893e-06
000140 6f 22 00 80 8d 1b 00 80 68 1b 00 80 b6 1d 00 00
       -1.2352e-41 -9.883e-42 -9.832e-42 1.0658e-41
000150 b9 1c 00 00 ff 1b 00 00 5f 1b 00 00 13 22 00 80
       1.0304e-41 1.0043e-41 9.819e-42 -1.2224e-41
000160 71 1c 00 00 72 1b 00 00 a3 1b 00 00 76 1b 00 00
       1.0203e-41 9.846e-42 9.914e-42 9.851e-42
000170 60 e4 f6 9e 6d 1b 00 00 98 1b 00 80 2a 1c 00 80
       -2.6140717e-20 9.839e-42 -9.899e-42 -1.0103e-41
000180 5f 1b 00 00 a4 1b 00 00 38 1e 00 00 d1 1b 00 00
       9.819e-42 9.916e-42 1.084e-41 9.979e-42
000190 44 a0 83 a6 64 49 26 bc 44 1d 00 80 68 1b 00 80
       -9.133391e-16 -0.010149334 -1.0499e-41 -9.832e-42
0001a0 65 1b 00 00 7d 1b 00 80 30 1c 00 80 06 c8 91 b0
       9.827e-42 -9.861e-42 -1.0112e-41 -1.0606989e-09
0001b0 68 1d 00 00 8d 1b 00 80 66 1b 00 00 95 1b 00 80
       1.0549e-41 -9.883e-42 9.829e-42 -9.895e-42
0001c0 7a ba db 3b 9f 1b 00 80 6e 1b 00 80 6f 9e d3 b7
       0.0067055793 -9.909e-42 -9.84e-42 -2.5226936e-05
0001d0 e3 23 6b ba 90 1b 00 80 13 22 00 80 6d 1b 00 00
       -0.0008969886 -9.888e-42 -1.2224e-41 9.839e-42
0001e0 e7 db d7 34 f8 2b 95 3d e8 26 fa 38 fa b9 cf 3a
       4.020687e-07 0.07283777 0.00011928176 0.0015848272
0001f0 0c 77 53 29 17 3f 90 3c 54 3f 66 b8 1c 60 1d bb
       4.695467e-14 0.017608209 -5.4895252e-05 -0.0024013584
000200 24 e4 3a bb 65 1b 00 80 3b 95 a4 36 0a 55 ce 3b
       -0.002851733 -9.827e-42 4.9049536e-06 0.0062967585
000210 44 a5 2c 3e 9d 1d 61 b9 e7 22 ae b4 50 65 35 bb
       0.16859919 -0.00021468704 -3.243542e-07 -0.0027678795
000220 b7 6d 2c ba 6f f5 33 a4 43 05 8c 3a ba b8 c5 b9
       -0.0006577628 -3.9022328e-17 0.001068272 -0.000377124
000230 ba 1b 00 80 65 1b 00 00 c3 1b 00 00 63 1d 00 00
       -9.946e-42 9.827e-42 9.959e-42 1.0542e-41
000240 02 20 00 00 c6 1b 00 00 5f 1b 00 00 ee d1 87 a9
       1.1482e-41 9.963e-42 9.819e-42 -6.031621e-14
000250 9f 85 49 32 5a 1b 00 80 9b 1b 00 80 95 1b 00 80
       1.1730122e-08 -9.812e-42 -9.903e-42 -9.895e-42
000260 c5 56 24 a5 bf 20 00 00 d9 21 00 80 5a 1b 00 00
       -1.4254131e-16 1.1747e-41 -1.2142e-41 9.812e-42
000270 2e 1d 00 80 f9 1b 00 00 68 1b 00 00 ca 1b 00 80
       -1.0468e-41 1.0035e-41 9.832e-42 -9.969e-42
000280 5c 1f 00 00 3e 2e 5a 34 59 1c 00 80 ea a5 cb af
       1.125e-41 2.0319655e-07 -1.0169e-41 -3.7043374e-10
000290 ab 1b 00 00 f2 1f 00 80 4b db 5b 8a 88 1c 00 00
       9.925e-42 -1.146e-41 -1.0585711e-32 1.0235e-41
0002a0 67 1b 00 80 6d 1b 00 80 0d 21 00 00 9a 1b 00 00
       -9.83e-42 -9.839e-42 1.1856e-41 9.902e-42
0002b0 8c fd 76 b8 69 1b 00 00 71 1b 00 80 3e 87 b8 22
       -5.8887104e-05 9.833e-42 -9.844e-42 5.0016493e-18
0002c0 ef 98 8d 26 1d 5d d7 ac 60 1b 00 00 80 73 19 b3
       9.825293e-16 -6.121005e-12 9.82e-42 -3.5728135e-08
0002d0 82 66 fe aa d1 1e 00 00 99 1b 00 00 4c 73 1f 27
       -4.5190593e-13 1.1055e-41 9.9e-42 2.2128185e-15
0002e0 18 23 00 00 82 1b 00 00 9e 1b 00 80 90 44 00 00
       1.2589e-41 9.868e-42 -9.907e-42 2.4596e-41
0002f0 14 10 61 b0 8f 1b 00 80 c0 22 00 80 97 1b 00 80
       -8.187737e-10 -9.886e-42 -1.2466e-41 -9.897e-42
000300 c5 9b 38 b8 fa 1e 00 80 89 1b 00 80 72 1b 00 80
       -4.401409e-05 -1.1112e-41 -9.878e-42 -9.846e-42
000310 ec 94 61 26 a5 1f 86 b2 93 1b 00 80 2c 1c 00 00
       7.8264383e-16 -1.5614043e-08 -9.892e-42 1.0106e-41

mlp.lin1.bias f4 [10]
000000 91 85 00 b9 6a f5 e5 29 85 4f 81 b6 54 40 4a af
       -0.00012256789 1.02122155e-13 -3.853757e-06 -1.8394647e-10
000010 6b 1b 00 80 1f d2 9c b3 c9 11 64 38 b7 27 01 00
       -9.836e-42 -7.302537e-08 5.4376e-05 1.06082e-40
000020 e1 e0 c5 96 8c b7 00 00
       -3.1968985e-25 6.5844e-41

mlp.lin2.weight f4 [5, 10]
000000 31 93 8b bc 0a 20 4d aa 55 44 83 bc 89 eb 04 80
       -0.01703796 -1.8218773e-13 -0.016023794 -4.51836e-40
000010 b5 fa 32 2e e5 69 f6 b1 f9 7c 0a bc 65 b3 eb 27
       4.0695187e-11 -7.171581e-09 -0.008452647 6.5420103e-15
000020 8d 22 00 80 8f 70 00 80 13 57 77 b7 e2 4f 00 80
       -1.2394e-41 -4.0378e-41 -1.4742621e-05 -2.8657e-41
000030 94 35 85 b7 0e 5a 00 80 68 e1 8b b1 dc 35 fe 30
       -1.5879785e-05 -3.2306e-41 -4.071058e-09 1.849624e-09
000040 17 6b 31 b7 d2 16 9c ac 8c 1b 00 80 f3 61 00 00
       -1.0574956e-05 -4.4363202e-12 -9.882e-42 3.5138e-41
000050 f3 3e 24 b9 2e 93 1a ad cc f2 f0 b8 e4 04 66 80
       -0.00015663709 -8.786567e-12 -0.00011489316 -9.368975e-39
000060 65 1b 00 80 2d fe 08 b3 68 8c aa b6 6f 1b 00 80
       -9.827e-42 -3.189614e-08 -5.0827402e-06 -9.841e-42
000070 7c 0a 00 80 70 25 00 00 d3 cd 16 3f ff 08 1a 38
       -3.761e-42 1.343e-41 0.5890781 3.672484e-05
000080 45 a0 05 3f 92 da a8 3a 64 1b 00 80 3a 93 bc 3a
       0.52197677 0.0012882522 -9.826e-42 0.0014387139
000090 9c 9d 10 3e e8 71 ed 21 2b 58 53 b7 c4 df 87 b8
       0.14122623 1.6089895e-18 -1.2597108e-05 -6.478981e-05
0000a0 68 60 18 b2 55 6b 00 80 47 92 3a b1 c2 1e 00 00
       -8.869485e-09 -3.8503e-41 -2.7149711e-09 1.1034e-41
0000b0 3d 1e 00 80 62 1b 00 80 34 2e bc 8d 86 ef 00 00
       -1.0847e-41 -9.823e-42 -1.1597518e-30 8.5925e-41
0000c0 e3 21 00 80 53 1e 00 80
       -1.2156e-41 -1.0878e-41

mlp.lin2.bias f4 [5]
000000 c2 99 11 b1 75 c6 9e b5 b1 23 03 37 a4 c1 e5 b8
       -2.1187678e-09 -1.1829676e-06 7.8165185e-06 -0.00010955639
000010 e3 21 00 80
       -1.2156e-41

mlp.lin3.weight f4 [1, 5]
000000 bb 1e 97 bc 44 d8 8e 37 4a 0c 88 37 a5 0f 2f 3f
       -0.01844727 1.7028426e-05 1.6218186e-05 0.68383247
000010 85 a4 ad b6
       -5.1749544e-06
