paper_artifacts/collection/gmn_iterative_refinement_scoring=sinkhorn_pp=lrl___tp=sinkhorn_pp=lrl_when=msg_passing_only___unify=true/trained_models/gmn_iterative_refinement_scoring=sinkhorn_pp=lrl___tp=sinkhorn_pp=lrl_when=msg_passing_only___unify=true_ptc_mm_large_dataset_seed_7762_2024-05-07_23:02:22.pth (torch, 16111 bytes, 22 tensors)

encoder.MLP1.0.weight f4 [10, 1]
0	0xbe30bd03	-0.17259602
1	0xbe22b8ff	-0.15890883
2	0x3e11e211	0.14246394
3	0x3ed02b9f	0.4065828
4	0xbd878617	-0.066173725
5	0xbe392664	-0.18081051
6	0x3df06732	0.11738433
7	0xbd228ed4	-0.039686993
8	0x3cc9d592	0.024637971
9	0xbebd58b3	-0.36981735

encoder.MLP1.0.bias f4 [10]
0	0xbe1e14f8	-0.15437686
1	0xbe22c525	-0.15895517
2	0x3e11c499	0.14235152
3	0x3ed09e6b	0.40745863
4	0xbd9021a8	-0.070376694
5	0xbdf0f006	-0.11764531
6	0x3df06992	0.11738886
7	0xbe06e63e	-0.13173768
8	0x3cb00005	0.021484384
9	0xbebcd7f0	-0.36883497

prop_layer._message_net.0.weight f4 [20, 21]
0	0x3d32b517	0.043629732
1	0x3b9410a4	0.0045185853
2	0x3ec90ee3	0.3926917
3	0xbe87480c	-0.26422155
4	0x3e8bab12	0.27278954
5	0x3b47e47e	0.0030501182
6	0x3e110db7	0.14165388
7	0xbebbe4e9	-0.36698082
8	0x3e85bb18	0.26119304
9	0x3d96d170	0.07364166
10	0x3ee6561c	0.4498757
11	0x3e9e4e15	0.30918947
12	0xbe4a9d0e	-0.19786474
13	0xbc1e5a9b	-0.009665157
14	0x3e558c3e	0.2085428
15	0x3b126985	0.0022340727
16	0xbcc39bae	-0.023877945
17	0x3e81e302	0.25368506
18	0xbe9ac8de	-0.30231375
19	0xbe403e4f	-0.18773769
20	0x3ebfeb30	0.3748412
21	0xbe369db8	-0.17833602
22	0x3e484e9b	0.19561236
23	0x3bb9e6de	0.0056732735
24	0xbee354d2	-0.4440065
25	0xbe3f3fee	-0.18676731
26	0xbb111def	-0.0022143086
27	0xbf286c5a	-0.6579033
28	0xbce9ad84	-0.028525122
29	0xbe62ea30	-0.22159648
30	0x3e7be6b1	0.2459972
31	0xbe3084db	-0.1723818
32	0x3d6ea300	0.058260918
33	0x3e376b9f	0.17912148
34	0xbde9efb1	-0.11422671
35	0x3de44d5e	0.11147569
36	0x39bb0c87	0.00035676753
37	0x3dd5064d	0.104015924
38	0xbe0d8046	-0.13818464
39	0xbe5a5717	-0.21322285
40	0x3f05b3cd	0.5222748
41	0xbe3110cd	-0.17291565
42	0xbbbc6b37	-0.0057500857
43	0xbb106ad0	-0.0022036321
44	0x3ab2e916	0.0013649787
45	0xbbf0569c	-0.0073345434
46	0x3a4741b8	0.00076010404
47	0x3a87597d	0.0010326352
48	0x3b902980	0.0043994784
49	0x3a82ec0b	0.0009988559
50	0x3be21bce	0.0069002872
51	0xb89d7917	-7.508898e-05
52	0xbb0fc836	-0.0021939403
53	0xbbdcc7f9	-0.006737706
54	0xba4fa8e8	-0.00079215923
55	0x3a9e55b6	0.0012079987
56	0x3be748ae	0.0070582246
57	0x3a913f24	0.001108144
58	0xba149925	-0.0005668572
59	0x3af8a0e3	0.0018968846
60	0xba0aa377	-0.00052886404
61	0xbb6296e3	-0.0034574799
62	0x38be3800	9.070337e-05
63	0x3b5e33b6	0.0033905334
64	0x3aa68bea	0.0012706493
65	0xbab2786c	-0.0013616211
66	0xba91158b	-0.0011069042
67	0xbb4c237e	-0.0031149085
68	0xbb97c9d9	-0.0046322164
69	0xbac8e4e8	-0.0015327008
70	0xbb01e622	-0.0019821008
71	0xbb1b52a9	-0.0023700392
72	0x3ba3b12e	0.0049954867
73	0xba452ac3	-0.00075213256
74	0x3c12e885	0.00896657
75	0x3a1fdc87	0.000609823
76	0x3b0cd627	0.002148995
77	0xbc2b0de5	-0.010440324
78	0xbbdb51bd	-0.0066930936
79	0x3b9d08ec	0.0047923233
80	0xbb8a5857	-0.0042219567
81	0x3b9c64a1	0.004772738
82	0x3a865c10	0.0010250825
83	0x3aad5707	0.0013224789
84	0x3b819fa7	0.0039557996
85	0x3ab01aa3	0.0013435673
86	0xbb0e5db4	-0.0021723332
87	0x3b29ccbe	0.002590939
88	0xbb8ebab4	-0.004355753
89	0xbb7ed2a8	-0.0038882885
90	0xbad7b897	-0.001645821
91	0xbb3e8f02	-0.0029076939
92	0xbb966e96	-0.0045908196
93	0x3b95963a	0.0045650275
94	0x3af79126	0.0018887862
95	0x3bfc95bf	0.007708281
96	0x3a5d79e0	0.0008448642
97	0xbad883e8	-0.0016518803
98	0xbc3ab137	-0.01139479
99	0xbba60af6	-0.0050672246
100	0x3b98fff5	0.0046691843
101	0xbb6f0a28	-0.003647456
102	0x3b738b6f	0.0037161966
103	0x3b13b343	0.0022537268
104	0x3aa49825	0.001255755
105	0xbc2ce1ea	-0.010551909
106	0x38d196ee	9.9940095e-05
107	0xbbccf74f	-0.0062550674
108	0xbbc8f0c8	-0.006132219
109	0xbb09533e	-0.0020954157
110	0xbbf45982	-0.007456959
111	0xba45803a	-0.0007534061
112	0xbbcaeda2	-0.006192879
113	0xbc06ee8e	-0.008235587
114	0x3c16e1ca	0.009209106
115	0x3b000784	0.001953573
116	0x3c41a6e4	0.011819575
117	0x3b134a5f	0.0022474749
118	0x3b47f0a6	0.0030508428
119	0xbbcc3734	-0.0062321667
120	0xbc0a09f8	-0.008425228
121	0x3c0f0db1	0.008731292
122	0xbbed846c	-0.007248452
123	0x3b3a6153	0.0028439357
124	0xbbd82c56	-0.006597082
125	0x3b20f7b9	0.0024561717
126	0x3dab1780	0.08354092
127	0xbe2c65ce	-0.1683571
128	0xbef94d2d	-0.48691693
129	0x3ec3206c	0.38110673
130	0x3d9dd9a3	0.077075265
131	0xbba3ef24	-0.005002873
132	0xbe99d4c6	-0.30045146
133	0x3efdf26b	0.49599013
134	0xbe40bf0e	-0.18822882
135	0x3c95db5e	0.018293079
136	0x3c4ee60f	0.012628092
137	0xbe26e78e	-0.16299269
138	0x3c685a7d	0.01418173
139	0x3e055330	0.13020015
140	0x3db663a0	0.08905721
141	0xbc326336	-0.010887912
142	0xbdbc6fff	-0.09201049
143	0x3dc30995	0.09523312
144	0xbe67b8f5	-0.2262915
145	0xbea616ca	-0.32439262
146	0x3e13eeb1	0.14446522
147	0xbbeca8e8	-0.0072222836
148	0xbdf6a393	-0.12042918
149	0xbe80143b	-0.25015435
150	0x3ebc43f8	0.36770606
151	0x3d976554	0.07392374
152	0xbae12a2f	-0.0017178709
153	0x3e32c32f	0.17457269
154	0xbf01e0af	-0.50733465
155	0xbd942cd8	-0.07235116
156	0xbe86a164	-0.26295006
157	0xbec472c0	-0.38368797
158	0xbd82b84c	-0.06382808
159	0xbe308eba	-0.17241946
160	0xbe35d3f0	-0.17756629
161	0x3bd8b43b	0.006613282
162	0xba375b19	-0.00069944706
163	0x3e5b245c	0.21400589
164	0x3ed7e881	0.42169574
165	0x3e411fa2	0.18859723
166	0x3e5bb9b8	0.21457565
167	0xbc98230d	-0.018571401
168	0x3b43912e	0.0029841173
169	0xbc7f7b05	-0.015593295
170	0x3c8c8be0	0.017156541
171	0x3ae78bfd	0.0017665621
172	0x3c6771d0	0.014126256
173	0x3c9529b3	0.01820836
174	0x3c519d15	0.012793799
175	0x3cab31cf	0.020897774
176	0x3c30a467	0.010781384
177	0xbc3c8671	-0.011506663
178	0xbc3808bc	-0.011232551
179	0xbce959d6	-0.02848522
180	0xbbbdf57e	-0.005797087
181	0xba1a60f0	-0.00058890786
182	0x3cc11654	0.023570217
183	0x3cae8484	0.021303423
184	0xbcbb1170	-0.022835463
185	0x3c892d04	0.016745098
186	0x3b64988f	0.003488097
187	0x3b88cb52	0.0041746283
188	0xbace4133	-0.0015735984
189	0xbbcc5fc0	-0.006237
190	0xba89e701	-0.0010521115
191	0x3a68abf6	0.0008875722
192	0xbc0173a5	-0.007901107
193	0x3a86b4a9	0.001027723
194	0x3a92eb52	0.0011209047
195	0x3b85c07b	0.0040817834
196	0x3aba8361	0.0014229828
197	0x3bb9c1d2	0.005668857
198	0xba79b088	-0.00095249014
199	0xbb2f66e2	-0.0026764204
200	0xbbe2842b	-0.0069127283
201	0xb99250dd	-0.00027907538
202	0x3b0e2ea9	0.0021695292
203	0x3bebca33	0.007195735
204	0x3aa000cf	0.0012207272
205	0xba28be92	-0.00064370886
206	0x3ab67fee	0.0013923624
207	0xb8b8e9d3	-8.817357e-05
208	0xbb46bdd1	-0.0030325542
209	0xb8be7075	-9.080853e-05
210	0xbdcfeead	-0.10152946
211	0x3c4f74be	0.012662111
212	0xbb73995c	-0.0037170267
213	0x3e412ff9	0.18865956
214	0xbe2fa0aa	-0.17151132
215	0x3ba81986	0.0051299958
216	0xbe56823e	-0.20948121
217	0x3c4485b9	0.011994773
218	0x3efeeb18	0.49788737
219	0x3eaab89a	0.33343965
220	0xbdfc0f4b	-0.123076044
221	0xbe993e5b	-0.29930386
222	0x3ba41634	0.0050075296
223	0xbd9fe912	-0.078081265
224	0xbdbd0f29	-0.09231407
225	0x3b924a6a	0.0044644373
226	0xbe116cfb	-0.14201729
227	0x3db018d3	0.08598485
228	0xbe4597c7	-0.1929618
229	0x3ee8f9dd	0.4550313
230	0x3ed26883	0.4109536
231	0xbeda00ec	-0.42578828
232	0x3d631bb4	0.05544634
233	0x3cd3d2b9	0.025857316
234	0xbe0cde76	-0.13756737
235	0xbe3c84d0	-0.18410039
236	0xbb81068a	-0.003937547
237	0xbd72638a	-0.05917696
238	0x3eb1d2e4	0.3473121
239	0x3e92cc1b	0.28671345
240	0xbe339fce	-0.1754143
241	0xbdd70fa9	-0.10501034
242	0xbd9d9e9b	-0.07696267
243	0x3d736654	0.05942376
244	0x3cd0fbfd	0.025510782
245	0x3e6a8501	0.229023
246	0x3a6a1d0f	0.00089307217
247	0x3d81b965	0.06334189
248	0x3cbfab60	0.023397148
249	0x3e2ffc85	0.17186172
250	0xbe6b1e31	-0.22960736
251	0x3d4b89be	0.049691908
252	0x3e146a5d	0.144937
253	0xbeb7a0fa	-0.35865003
254	0x3e2b202a	0.16711488
255	0x3e3873b7	0.18012892

prop_layer._message_net.0.bias f4 [20]
0	0x3ea2d3a2	0.31802088
1	0xbe0efd42	-0.13963798
2	0x38be3f18	9.071658e-05
3	0x3aad54de	0.0013224145
4	0x3aa498d4	0.0012557753
5	0x3b20f86c	0.0024562133
6	0x3ddcb5ab	0.10776838
7	0xbb213e0d	-0.0024603636
8	0xbace48b8	-0.0015738225
9	0x39ee5957	0.0004546146
10	0x3ebdc316	0.370629
11	0x3d7549ef	0.05988496
12	0xbce43ac6	-0.027860057
13	0x38f708ad	0.00011779494
14	0x3cb6bec6	0.022307765
15	0x3a1a331b	0.0005882249
16	0x3b3e40d1	0.0029030333
17	0x38c600e4	9.4415416e-05
18	0x3d2d17b6	0.04225894
19	0x3b36b711	0.0027880112

prop_layer._reverse_message_net.0.weight f4 [20, 21]
0	0x3d32b517	0.043629732
1	0x3b9410a4	0.0045185853
2	0x3ec90ee3	0.3926917
3	0xbe87480c	-0.26422155
4	0x3e8bab12	0.27278954
5	0x3b47e47e	0.0030501182
6	0x3e110db7	0.14165388
7	0xbebbe4e9	-0.36698082
8	0x3e85bb18	0.26119304
9	0x3d96d170	0.07364166
10	0x3ee6561c	0.4498757
11	0x3e9e4e15	0.30918947
12	0xbe4a9d0e	-0.19786474
13	0xbc1e5a9b	-0.009665157
14	0x3e558c3e	0.2085428
15	0x3b126985	0.0022340727
16	0xbcc39bae	-0.023877945
17	0x3e81e302	0.25368506
18	0xbe9ac8de	-0.30231375
19	0xbe403e4f	-0.18773769
20	0x3ebfeb30	0.3748412
21	0xbe369db8	-0.17833602
22	0x3e484e9b	0.19561236
23	0x3bb9e6de	0.0056732735
24	0xbee354d2	-0.4440065
25	0xbe3f3fee	-0.18676731
26	0xbb111def	-0.0022143086
27	0xbf286c5a	-0.6579033
28	0xbce9ad84	-0.028525122
29	0xbe62ea30	-0.22159648
30	0x3e7be6b1	0.2459972
31	0xbe3084db	-0.1723818
32	0x3d6ea300	0.058260918
33	0x3e376b9f	0.17912148
34	0xbde9efb1	-0.11422671
35	0x3de44d5e	0.11147569
36	0x39bb0c87	0.00035676753
37	0x3dd5064d	0.104015924
38	0xbe0d8046	-0.13818464
39	0xbe5a5717	-0.21322285
40	0x3f05b3cd	0.5222748
41	0xbe3110cd	-0.17291565
42	0xbbbc6b37	-0.0057500857
43	0xbb106ad0	-0.0022036321
44	0x3ab2e916	0.0013649787
45	0xbbf0569c	-0.0073345434
46	0x3a4741b8	0.00076010404
47	0x3a87597d	0.0010326352
48	0x3b902980	0.0043994784
49	0x3a82ec0b	0.0009988559
50	0x3be21bce	0.0069002872
51	0xb89d7917	-7.508898e-05
52	0xbb0fc836	-0.0021939403
53	0xbbdcc7f9	-0.006737706
54	0xba4fa8e8	-0.00079215923
55	0x3a9e55b6	0.0012079987
56	0x3be748ae	0.0070582246
57	0x3a913f24	0.001108144
58	0xba149925	-0.0005668572
59	0x3af8a0e3	0.0018968846
60	0xba0aa377	-0.00052886404
61	0xbb6296e3	-0.0034574799
62	0x38be3800	9.070337e-05
63	0x3b5e33b6	0.0033905334
64	0x3aa68bea	0.0012706493
65	0xbab2786c	-0.0013616211
66	0xba91158b	-0.0011069042
67	0xbb4c237e	-0.0031149085
68	0xbb97c9d9	-0.0046322164
69	0xbac8e4e8	-0.0015327008
70	0xbb01e622	-0.0019821008
71	0xbb1b52a9	-0.0023700392
72	0x3ba3b12e	0.0049954867
73	0xba452ac3	-0.00075213256
74	0x3c12e885	0.00896657
75	0x3a1fdc87	0.000609823
76	0x3b0cd627	0.002148995
77	0xbc2b0de5	-0.010440324
78	0xbbdb51bd	-0.0066930936
79	0x3b9d08ec	0.0047923233
80	0xbb8a5857	-0.0042219567
81	0x3b9c64a1	0.004772738
82	0x3a865c10	0.0010250825
83	0x3aad5707	0.0013224789
84	0x3b819fa7	0.0039557996
85	0x3ab01aa3	0.0013435673
86	0xbb0e5db4	-0.0021723332
87	0x3b29ccbe	0.002590939
88	0xbb8ebab4	-0.004355753
89	0xbb7ed2a8	-0.0038882885
90	0xbad7b897	-0.001645821
91	0xbb3e8f02	-0.0029076939
92	0xbb966e96	-0.0045908196
93	0x3b95963a	0.0045650275
94	0x3af79126	0.0018887862
95	0x3bfc95bf	0.007708281
96	0x3a5d79e0	0.0008448642
97	0xbad883e8	-0.0016518803
98	0xbc3ab137	-0.01139479
99	0xbba60af6	-0.0050672246
100	0x3b98fff5	0.0046691843
101	0xbb6f0a28	-0.003647456
102	0x3b738b6f	0.0037161966
103	0x3b13b343	0.0022537268
104	0x3aa49825	0.001255755
105	0xbc2ce1ea	-0.010551909
106	0x38d196ee	9.9940095e-05
107	0xbbccf74f	-0.0062550674
108	0xbbc8f0c8	-0.006132219
109	0xbb09533e	-0.0020954157
110	0xbbf45982	-0.007456959
111	0xba45803a	-0.0007534061
112	0xbbcaeda2	-0.006192879
113	0xbc06ee8e	-0.008235587
114	0x3c16e1ca	0.009209106
115	0x3b000784	0.001953573
116	0x3c41a6e4	0.011819575
117	0x3b134a5f	0.0022474749
118	0x3b47f0a6	0.0030508428
119	0xbbcc3734	-0.0062321667
120	0xbc0a09f8	-0.008425228
121	0x3c0f0db1	0.008731292
122	0xbbed846c	-0.007248452
123	0x3b3a6153	0.0028439357
124	0xbbd82c56	-0.006597082
125	0x3b20f7b9	0.0024561717
126	0x3dab1780	0.08354092
127	0xbe2c65ce	-0.1683571
128	0xbef94d2d	-0.48691693
129	0x3ec3206c	0.38110673
130	0x3d9dd9a3	0.077075265
131	0xbba3ef24	-0.005002873
132	0xbe99d4c6	-0.30045146
133	0x3efdf26b	0.49599013
134	0xbe40bf0e	-0.18822882
135	0x3c95db5e	0.018293079
136	0x3c4ee60f	0.012628092
137	0xbe26e78e	-0.16299269
138	0x3c685a7d	0.01418173
139	0x3e055330	0.13020015
140	0x3db663a0	0.08905721
141	0xbc326336	-0.010887912
142	0xbdbc6fff	-0.09201049
143	0x3dc30995	0.09523312
144	0xbe67b8f5	-0.2262915
145	0xbea616ca	-0.32439262
146	0x3e13eeb1	0.14446522
147	0xbbeca8e8	-0.0072222836
148	0xbdf6a393	-0.12042918
149	0xbe80143b	-0.25015435
150	0x3ebc43f8	0.36770606
151	0x3d976554	0.07392374
152	0xbae12a2f	-0.0017178709
153	0x3e32c32f	0.17457269
154	0xbf01e0af	-0.50733465
155	0xbd942cd8	-0.07235116
156	0xbe86a164	-0.26295006
157	0xbec472c0	-0.38368797
158	0xbd82b84c	-0.06382808
159	0xbe308eba	-0.17241946
160	0xbe35d3f0	-0.17756629
161	0x3bd8b43b	0.006613282
162	0xba375b19	-0.00069944706
163	0x3e5b245c	0.21400589
164	0x3ed7e881	0.42169574
165	0x3e411fa2	0.18859723
166	0x3e5bb9b8	0.21457565
167	0xbc98230d	-0.018571401
168	0x3b43912e	0.0029841173
169	0xbc7f7b05	-0.015593295
170	0x3c8c8be0	0.017156541
171	0x3ae78bfd	0.0017665621
172	0x3c6771d0	0.014126256
173	0x3c9529b3	0.01820836
174	0x3c519d15	0.012793799
175	0x3cab31cf	0.020897774
176	0x3c30a467	0.010781384
177	0xbc3c8671	-0.011506663
178	0xbc3808bc	-0.011232551
179	0xbce959d6	-0.02848522
180	0xbbbdf57e	-0.005797087
181	0xba1a60f0	-0.00058890786
182	0x3cc11654	0.023570217
183	0x3cae8484	0.021303423
184	0xbcbb1170	-0.022835463
185	0x3c892d04	0.016745098
186	0x3b64988f	0.003488097
187	0x3b88cb52	0.0041746283
188	0xbace4133	-0.0015735984
189	0xbbcc5fc0	-0.006237
190	0xba89e701	-0.0010521115
191	0x3a68abf6	0.0008875722
192	0xbc0173a5	-0.007901107
193	0x3a86b4a9	0.001027723
194	0x3a92eb52	0.0011209047
195	0x3b85c07b	0.0040817834
196	0x3aba8361	0.0014229828
197	0x3bb9c1d2	0.005668857
198	0xba79b088	-0.00095249014
199	0xbb2f66e2	-0.0026764204
200	0xbbe2842b	-0.0069127283
201	0xb99250dd	-0.00027907538
202	0x3b0e2ea9	0.0021695292
203	0x3bebca33	0.007195735
204	0x3aa000cf	0.0012207272
205	0xba28be92	-0.00064370886
206	0x3ab67fee	0.0013923624
207	0xb8b8e9d3	-8.817357e-05
208	0xbb46bdd1	-0.0030325542
209	0xb8be7075	-9.080853e-05
210	0xbdcfeead	-0.10152946
211	0x3c4f74be	0.012662111
212	0xbb73995c	-0.0037170267
213	0x3e412ff9	0.18865956
214	0xbe2fa0aa	-0.17151132
215	0x3ba81986	0.0051299958
216	0xbe56823e	-0.20948121
217	0x3c4485b9	0.011994773
218	0x3efeeb18	0.49788737
219	0x3eaab89a	0.33343965
220	0xbdfc0f4b	-0.123076044
221	0xbe993e5b	-0.29930386
222	0x3ba41634	0.0050075296
223	0xbd9fe912	-0.078081265
224	0xbdbd0f29	-0.09231407
225	0x3b924a6a	0.0044644373
226	0xbe116cfb	-0.14201729
227	0x3db018d3	0.08598485
228	0xbe4597c7	-0.1929618
229	0x3ee8f9dd	0.4550313
230	0x3ed26883	0.4109536
231	0xbeda00ec	-0.42578828
232	0x3d631bb4	0.05544634
233	0x3cd3d2b9	0.025857316
234	0xbe0cde76	-0.13756737
235	0xbe3c84d0	-0.18410039
236	0xbb81068a	-0.003937547
237	0xbd72638a	-0.05917696
238	0x3eb1d2e4	0.3473121
239	0x3e92cc1b	0.28671345
240	0xbe339fce	-0.1754143
241	0xbdd70fa9	-0.10501034
242	0xbd9d9e9b	-0.07696267
243	0x3d736654	0.05942376
244	0x3cd0fbfd	0.025510782
245	0x3e6a8501	0.229023
246	0x3a6a1d0f	0.00089307217
247	0x3d81b965	0.06334189
248	0x3cbfab60	0.023397148
249	0x3e2ffc85	0.17186172
250	0xbe6b1e31	-0.22960736
251	0x3d4b89be	0.049691908
252	0x3e146a5d	0.144937
253	0xbeb7a0fa	-0.35865003
254	0x3e2b202a	0.16711488
255	0x3e3873b7	0.18012892

prop_layer._reverse_message_net.0.bias f4 [20]
0	0x3ea2d3a2	0.31802088
1	0xbe0efd42	-0.13963798
2	0x38be3f18	9.071658e-05
3	0x3aad54de	0.0013224145
4	0x3aa498d4	0.0012557753
5	0x3b20f86c	0.0024562133
6	0x3ddcb5ab	0.10776838
7	0xbb213e0d	-0.0024603636
8	0xbace48b8	-0.0015738225
9	0x39ee5957	0.0004546146
10	0x3ebdc316	0.370629
11	0x3d7549ef	0.05988496
12	0xbce43ac6	-0.027860057
13	0x38f708ad	0.00011779494
14	0x3cb6bec6	0.022307765
15	0x3a1a331b	0.0005882249
16	0x3b3e40d1	0.0029030333
17	0x38c600e4	9.4415416e-05
18	0x3d2d17b6	0.04225894
19	0x3b36b711	0.0027880112

prop_layer.GRU.weight_ih_l0 f4 [30, 20]
0	0x3eb2f750	0.3495431
1	0x3bd29dd4	0.006427506
2	0xbb6c473c	-0.0036053201
3	0xbb08fe35	-0.0020903472
4	0xbaac462a	-0.0013143469
5	0xbbba065a	-0.0056770267
6	0x3da72fcb	0.08163413
7	0xbe8b7039	-0.27234057
8	0x3c1ddc4a	0.009635041
9	0xbb320215	-0.0027161886
10	0x3dc206c5	0.094739474
11	0x3e0a76c5	0.1352187
12	0xbe80787e	-0.25091928
13	0x3e1548b4	0.14578515
14	0x3ec907d4	0.39263785
15	0xbdf42220	-0.11920571
16	0xbc9b4722	-0.018954817
17	0x3b8312c7	0.004000041
18	0x3da3ca23	0.07997539
19	0xbc1df459	-0.009640777
20	0x3e4cafaa	0.19988886
21	0xbe499a2f	-0.19687723
22	0xbab3bdff	-0.001371324
23	0x3b8b0641	0.004242689
24	0x3b6fbb2e	0.0036580074
25	0x3b198f21	0.0023431259
26	0xbcd5b72b	-0.026088318
27	0xbd06706e	-0.032822065
28	0xbc1d3f5d	-0.0095976265
29	0xbaaf8ffe	-0.0013394353
30	0x3c3a92b4	0.011387516
31	0x3dabb091	0.08383287
32	0xbd87fdc0	-0.06640196
33	0x3d910d69	0.07082636
34	0x3d398cb5	0.045300204
35	0xbd3f1745	-0.04665305
36	0x3c2eeb7b	0.01067626
37	0x3b963fe0	0.004585251
38	0x3e130e00	0.1436081
39	0x3b0b8cd5	0.002129366
40	0x3e9897d8	0.29803348
41	0xbdb2d79a	-0.08732529
42	0x39919d35	0.00027773684
43	0x3b9ed25c	0.004846854
44	0x3b815ab6	0.003947581
45	0x3c61ac1f	0.013773947
46	0x3c9d1e98	0.019179627
47	0xbeb91559	-0.361491
48	0xbcf57271	-0.029961796
49	0x385b1130	5.2229676e-05
50	0xbe045b73	-0.1292551
51	0x3e1a9393	0.15095358
52	0x3c4cd911	0.012502925
53	0x3e295e91	0.1653998
54	0xbdb6b113	-0.08920493
55	0xbe0e556c	-0.13899773
56	0x3bae6287	0.005321804
57	0x3ba19443	0.0049310043
58	0x3d72189e	0.059105508
59	0x3bc047cb	0.0058679334
60	0xbc1df5f7	-0.009641162
61	0xbd4eb2d9	-0.05046353
62	0xbb888b38	-0.004166987
63	0x3b8cfefb	0.004302857
64	0x3b9bb1f1	0.004751437
65	0x3c295e3e	0.0103374105
66	0xbde08431	-0.109627135
67	0x3d47b39d	0.048755277
68	0xbcf32130	-0.029678911
69	0xbb67b76e	-0.0035357135
70	0xbdc09b0b	-0.09404572
71	0xbda8debd	-0.08245609
72	0x3d96ac5e	0.07357095
73	0x3d20dec5	0.03927495
74	0xbd651008	-0.05592349
75	0xbc9dab2f	-0.019246666
76	0xbc606d03	-0.013697865
77	0x3c1231ce	0.008923007
78	0xbcc9227e	-0.02455258
79	0xbb96eb27	-0.004605669
80	0x3e090dd5	0.13384183
81	0xbd6aa2b2	-0.057284065
82	0xbb07fa1e	-0.0020748447
83	0x39d401a5	0.00040437016
84	0x3aa4b9e5	0.0012567608
85	0xba8f2a44	-0.001092263
86	0xbd94f5fc	-0.0727348
87	0x3d77ac3a	0.060466982
88	0xbb5e45fa	-0.003391622
89	0xbae872e7	-0.0017734439
90	0x3ce8ac3a	0.028402437
91	0xbe394317	-0.18091999
92	0x3da04306	0.07825284
93	0xba15b5c0	-0.0005710982
94	0xbe61e95c	-0.22061676
95	0x3c60336e	0.013684137
96	0xbbe41c2c	-0.006961366
97	0x3bd8a3c6	0.00661132
98	0xbe033895	-0.12814553
99	0xbbb9bdab	-0.005668362
100	0x3da51c46	0.08062033
101	0xbda751f1	-0.08169926
102	0xbb1f2ee9	-0.0024289435
103	0x3b02de6c	0.0019969
104	0x3b4c58c1	0.003118083
105	0x3a9345c8	0.0011236006
106	0x3c25ce29	0.010119953
107	0xbd3cb1bc	-0.04606794
108	0xbc1690f4	-0.009189833
109	0xbb235937	-0.0024925002
110	0xbdae5ad9	-0.085134216
111	0xbdd111db	-0.10208484
112	0xbc6f910b	-0.014621983
113	0x3da851e5	0.08218745
114	0xbe279b59	-0.16367854
115	0xbd46eedf	-0.04856765
116	0xbb1e02c5	-0.0024110537
117	0x3b2b6816	0.002615457
118	0xbd1f132f	-0.038836654
119	0xba858f7e	-0.0010189859
120	0x3d62dbf8	0.05538556
121	0xbd5f9dcb	-0.054593842
122	0x38e748e5	0.00011028516
123	0x3aa713f5	0.0012747037
124	0x3a9b69a3	0.0011857044
125	0x3b0e1ab9	0.0021683408
126	0x3d466053	0.048431706
127	0x3cde0cf0	0.027105778
128	0xbb1b45aa	-0.0023692646
129	0xb880c0bb	-6.1394145e-05
130	0x3d8da52d	0.069162704
131	0xbc83e280	-0.016099215
132	0xbb56d7a4	-0.003278234
133	0x3c947dbe	0.018126365
134	0xbda86edd	-0.082242705
135	0xbc523f4a	-0.012832472
136	0xba39dc70	-0.00070900377
137	0x3b227e0a	0.0024794363
138	0x3d013c81	0.03155184
139	0x394fbf09	0.00019812224
140	0x3dde6882	0.10859777
141	0xbd377f0a	-0.04479889
142	0xbae65917	-0.0017574158
143	0x3bb1fa66	0.005431461
144	0x3bb24531	0.005440377
145	0x3bacdf76	0.005275662
146	0xbcf756cf	-0.03019276
147	0x3b9993e3	0.004686819
148	0xbc70bc09	-0.014693269
149	0xbb0fdb58	-0.0021950807
150	0xbce29a71	-0.027661534
151	0xbc8f8af4	-0.017522313
152	0x3e092fdb	0.13397162
153	0xbcdaa1c1	-0.026688458
154	0x3cd763f3	0.026292777
155	0x3d1335b2	0.03593988
156	0x3b13569e	0.0022482048
157	0x3b96987c	0.0045958143
158	0xbcb39d51	-0.0219256
159	0x3af48904	0.0018656556
160	0xb8650ec5	-5.461161e-05
161	0x3e07d669	0.13265385
162	0x3b61151d	0.003434486
163	0xbac5a327	-0.001507853
164	0xbb0d9d36	-0.0021608598
165	0x3bedaa1d	0.007252945
166	0xbe36ccf1	-0.17851616
167	0xbc9870b1	-0.018608423
168	0xbc9e1612	-0.019297633
169	0x3b6274fa	0.0034554587
170	0x3e36fae6	0.17869148
171	0xbc52fefc	-0.012878176
172	0xbd276866	-0.040871046
173	0xbca01890	-0.019542962
174	0x3e02b40e	0.12763998
175	0xb923ccff	-0.00015621258
176	0x3a5813ab	0.0008242677
177	0xbb939faa	-0.0045051174
178	0xbdbd33ab	-0.092383705
179	0x3bf33503	0.007422091
180	0x3c7ffd61	0.015624375
181	0xbd915c8f	-0.07097732
182	0xbb545459	-0.0032398908
183	0x3b7b233e	0.0038320567
184	0x3b7a212a	0.003816674
185	0xba8fdd8a	-0.0010976058
186	0xbd9395b2	-0.072062865
187	0x3d278608	0.040899307
188	0xbaf52dc0	-0.0018705651
189	0xbb7ba33a	-0.003839685
190	0xbc61d027	-0.013782538
191	0xbe34bd31	-0.17650296
192	0x3e2da79c	0.16958469
193	0x3d43e23d	0.04782318
194	0xbdfbda53	-0.122975014
195	0xbcdeb573	-0.027186131
196	0xba012e52	-0.0004927862
197	0x3b5b10de	0.0033426802
198	0xbe69f6bb	-0.22848026
199	0x3a08856a	0.00052078685
200	0xbee177a5	-0.44036594
201	0x3eb58167	0.3545029
202	0xba80f7ad	-0.0009839438
203	0x3b510382	0.003189296
204	0x3a4d569e	0.00078330364
205	0x3a519c9e	0.0007996055
206	0xbea53d57	-0.3227336
207	0x3e4722fc	0.19446939
208	0x3ac094c6	0.0014692775
209	0xba750887	-0.0009347279
210	0xbd8276fa	-0.06370349
211	0xbd9bdcf5	-0.076105036
212	0x3d06980c	0.032859847
213	0xbe2c9b1b	-0.16856043
214	0x3d2261a0	0.039643884
215	0x3e0f2992	0.13980702
216	0x3bb79630	0.0056026205
217	0xbb02c27c	-0.0019952348
218	0x3e12d91d	0.14340635
219	0x3b8b9315	0.004259477
220	0xbe27dc3c	-0.16392606
221	0xbdb0ecc4	-0.086389095
222	0xbb717c0a	-0.0036847615
223	0xbb3cd70d	-0.0028814704
224	0xbaf090f8	-0.0018353751
225	0xbb737d17	-0.0037153417
226	0x3e762fb8	0.24041641
227	0x3dfd8f3a	0.12380834
228	0x3c28a846	0.010294026
229	0xbb530174	-0.003219691
230	0xbe8e38b7	-0.27777645
231	0xbe3ab010	-0.18231225
232	0xbd1c1c59	-0.038112972
233	0x3cde5ce3	0.027143901
234	0xbec65b17	-0.3874137
235	0xbaf52625	-0.0018703385
236	0xbcff8e4c	-0.031195782
237	0x3b7bc5d6	0.003841748
238	0x3d29f6b1	0.04149503
239	0xbc61aaf3	-0.013773668
240	0xbe65f898	-0.22458112
241	0x3e6f6a23	0.23380332
242	0xb9cd638c	-0.00039174815
243	0x3c41ced6	0.011829099
244	0x3c1240f9	0.0089266235
245	0x3c51a635	0.0127959745
246	0xbca06378	-0.01957868
247	0xbe262198	-0.16223752
248	0xbd04533e	-0.03230595
249	0xba4dcded	-0.0007850815
250	0xbe4a02d1	-0.19727637
251	0x3e43cbb2	0.19120672
252	0x3d87f20b	0.06637963
253	0xbd4252a1	-0.047442082
254	0x3e17f4e0	0.14839506
255	0x3bd98dcd	0.0066392184

prop_layer.GRU.weight_hh_l0 f4 [30, 10]
0	0x3e8a2553	0.269816
1	0xbca8b4da	-0.02059405
2	0xbdc10f0b	-0.09426697
3	0x3e03f453	0.12886171
4	0x3dfb5898	0.12272757
5	0x3d825fab	0.063659035
6	0xbbc8a0c7	-0.006122682
7	0x3d12246a	0.03567926
8	0x3da1f241	0.079075344
9	0xbe4de9c2	-0.20108703
10	0x3b5813da	0.0032970817
11	0x3d14d1a3	0.036332738
12	0xbd840faf	-0.06448304
13	0x3d68dd07	0.056851413
14	0x3ce98e8a	0.02851035
15	0xbd364924	-0.044503346
16	0x3d2a6255	0.041597683
17	0x3d0d3862	0.0344776
18	0xbb15c91f	-0.0022855473
19	0x3c62f6e0	0.013852805
20	0x3c3dc7b0	0.011583254
21	0x3da999d6	0.08281295
22	0xbace9e3b	-0.0015763709
23	0x3d9f50d9	0.07779092
24	0x3db55bfb	0.088554345
25	0x3c2bbb52	0.010481672
26	0x3d98f444	0.07468465
27	0x3d8a6b24	0.06758717
28	0x3dd2f381	0.10300351
29	0xbc83b207	-0.016076101
30	0x3c3a779a	0.011381054
31	0xbd62f151	-0.05540592
32	0xbd2c3399	-0.042041395
33	0xbc68bbfa	-0.014204973
34	0xbc790f75	-0.015201439
35	0xbd105a4c	-0.035242364
36	0xbc69d818	-0.014272712
37	0xbcdc88ad	-0.02692064
38	0xbbf973f7	-0.007612701
39	0x3d4bed75	0.049787004
40	0x3c1251f9	0.008930677
41	0xbc97c4d9	-0.018526481
42	0xbcf89782	-0.030345682
43	0x3c66908a	0.014072547
44	0x3d78dd58	0.060757965
45	0x3c8854c1	0.016641976
46	0x3d62d2f3	0.055376958
47	0x3b488dc6	0.0030602082
48	0x3d971cf8	0.07378572
49	0x3cfef14e	0.031120922
50	0x3d160c7d	0.036633004
51	0xbc9eb3b9	-0.019372808
52	0xbde1c0f6	-0.110231325
53	0xbd150e49	-0.036390577
54	0x3c010e40	0.007876933
55	0x3ae426b5	0.0017406555
56	0x3d2e71dc	0.042589054
57	0xbd287e38	-0.041135997
58	0x3dc33ca9	0.095330544
59	0x3d1d6726	0.03842845
60	0xbca028a2	-0.019550625
61	0x3d01ba88	0.03167203
62	0x3d0a6f29	0.033797417
63	0x3be015bc	0.0068385284
64	0x3bd5067b	0.0065010167
65	0xbcc56997	-0.0240982
66	0x3c5b6845	0.013391559
67	0x3d0763a5	0.033054013
68	0x3cc3214a	0.023819584
69	0x3d330ee5	0.043715376
70	0xbce44afa	-0.027867783
71	0xbd8cb765	-0.06870917
72	0xbc74ab85	-0.014933472
73	0x3d160697	0.03662738
74	0xbd53a3a5	-0.051669735
75	0x3c0cd16f	0.008594855
76	0x3cc6ece3	0.024282878
77	0x3d4115a7	0.04713979
78	0xbd1deb7c	-0.038554654
79	0xbba16684	-0.004925551
80	0x3d60c433	0.05487461
81	0xbc2f92af	-0.010716124
82	0x3bdc2e3a	0.006719378
83	0x3d963aa9	0.07335407
84	0x3d4dd811	0.050254885
85	0xbb158b6d	-0.00228187
86	0x3d0e61c9	0.034761224
87	0xbbb9bbed	-0.0056681545
88	0xbce6fefe	-0.028197762
89	0x3cfa1154	0.03052584
90	0xbe00f801	-0.12594606
91	0xbdfa5874	-0.12223902
92	0xbd40ae6f	-0.047041353
93	0x3d28cb12	0.041209288
94	0x3c197b35	0.009367754
95	0xbd2f44e9	-0.042790327
96	0x3cabc9a2	0.02097017
97	0xbcf58477	-0.02997039
98	0xbc30b734	-0.0107858665
99	0x3cb72834	0.022358038
100	0xbd0c3218	-0.03422746
101	0xbc8c5c9e	-0.017134007
102	0x3e0dca99	0.13846816
103	0xbd56b559	-0.05241904
104	0x3cf020f8	0.029312596
105	0x3c9d1aa9	0.019177752
106	0xbc2c2ca3	-0.010508689
107	0xbb089435	-0.0020840291
108	0xbcfb17f0	-0.030651063
109	0xbdb1afbb	-0.08676096
110	0x3db4ebb6	0.08834021
111	0x3ad01293	0.0015874676
112	0xbdcb6cfa	-0.09932895
113	0xbe1e6303	-0.15467457
114	0x3d8b0401	0.06787873
115	0x3d8e34db	0.06943675
116	0x3e57665b	0.2103514
117	0xbdd7cf28	-0.10537559
118	0x3df6cfed	0.120513774
119	0x3e19ae83	0.15007977
120	0xbde2c449	-0.11072595
121	0xbe2b5c46	-0.16734418
122	0x3bef4d47	0.0073029133
123	0xbd3c9fdd	-0.046050895
124	0xbdd53b84	-0.10411742
125	0x3d9c5dba	0.076350644
126	0xbc428982	-0.011873605
127	0x3db0270e	0.08601199
128	0xbdcc8c25	-0.09987668
129	0x3df8ef75	0.12155048
130	0xbc9b0064	-0.018921085
131	0x3ded0524	0.11573246
132	0xbcbe32b6	-0.02321754
133	0xbc551816	-0.013006231
134	0x3dc664ad	0.09687171
135	0x3da6be0e	0.08141719
136	0x3c64e377	0.0139702475
137	0xbdc105a0	-0.09424901
138	0xbb70a58e	-0.0036719772
139	0xbe207edb	-0.15673392
140	0xbdecdb16	-0.11565225
141	0xbc1d049d	-0.009583619
142	0xbdaa7284	-0.08322623
143	0x3d5b428a	0.053530253
144	0xbbd276f6	-0.0064228727
145	0x3d3041dc	0.04303156
146	0x3d519bb5	0.051173884
147	0xbc8e876b	-0.017398557
148	0xbc83f68f	-0.01610878
149	0xbd7f2e97	-0.06230029
150	0xbdcb8bc6	-0.09938769
151	0x3e49cddd	0.19707437
152	0x3e6f43bb	0.23365681
153	0x3dee8a30	0.11647451
154	0xbd8ea0bd	-0.06964252
155	0xbd6042b8	-0.054751128
156	0xbe01ebc8	-0.126876
157	0x3c40ae36	0.011760285
158	0xbc9d5442	-0.019205216
159	0x3d2b250d	0.04178338
160	0xbd306748	-0.043067247
161	0x3e32a6fe	0.17446515
162	0x3e350e55	0.17681248
163	0xbc237b42	-0.009978117
164	0xbd241a19	-0.04006395
165	0xbde5bf3f	-0.11218118
166	0xbd9be740	-0.07612467
167	0xbe9bb757	-0.30413315
168	0xbaa78c7b	-0.0012782955
169	0x3ca1e715	0.019763509
170	0x3d5e8789	0.054328475
171	0x3e81dfce	0.25366062
172	0x3d673580	0.056447506
173	0xbbc4fd2c	-0.0060116258
174	0x3e224739	0.15847482
175	0x3d39b678	0.04534003
176	0x3e57bcde	0.21068141
177	0xba8e2a30	-0.0010846313
178	0xbd3e9f9b	-0.04653893
179	0x3de5d2c8	0.11221844
180	0x3c5f12b9	0.013615304
181	0x3b8a395e	0.0042182645
182	0xbbd12d63	-0.0063835843
183	0x3afc3519	0.0019241899
184	0x3db12a24	0.08650616
185	0xbb90aef4	-0.0044153873
186	0x3c32f2a4	0.010922108
187	0xbe126671	-0.14296891
188	0x3ce7afca	0.028282065
189	0xbdd8a654	-0.105785996
190	0xbe7bf5ff	-0.24605559
191	0xbe97badd	-0.29634753
192	0x3de84b8f	0.11342537
193	0x3d046026	0.032318257
194	0xbdbdceca	-0.092679575
195	0x3c9aad8c	0.018881582
196	0xbc2bd6c2	-0.010488214
197	0xbe7a2ebf	-0.24431895
198	0xbc8510ca	-0.016243357
199	0xbe502ad4	-0.20328838
200	0x3e735245	0.23761852
201	0xbe6c92f0	-0.23102927
202	0xbed1da32	-0.40986782
203	0xbefb2da6	-0.49058264
204	0x3e8b0d97	0.27158806
205	0x3e16ec53	0.14738588
206	0x3d47dd5e	0.048795097
207	0xbeea2462	-0.45730883
208	0x3eaa41aa	0.33253223
209	0x3f14588a	0.579476
210	0xbe3aed8a	-0.18254676
211	0x3e4f559b	0.202475
212	0xbacda26e	-0.0015688667
213	0x3e934ab6	0.28767937
214	0x3ee7a734	0.45244753
215	0xbcd7cd3e	-0.026342984
216	0x3e292df9	0.16521443
217	0xbe19f363	-0.15034251
218	0xbe60f8a3	-0.21969847
219	0xbe2deab7	-0.16984068
220	0xbe9f4564	-0.31107628
221	0xbf0ce29b	-0.5503327
222	0x3da78740	0.08180094
223	0xbe88b8c8	-0.26703477
224	0xbeb1501b	-0.34631428
225	0xbe2bbee2	-0.16772035
226	0x3d68322d	0.056688476
227	0x3c0c515a	0.008564318
228	0xbd06093f	-0.03272366
229	0xbd970402	-0.07373811
230	0xbc7bbf03	-0.015365365
231	0x3e1f2db9	0.15544786
232	0x3de05f84	0.10955718
233	0x3dcbfa56	0.09959857
234	0x3c5920ec	0.013252478
235	0x3d03c690	0.032171786
236	0xbe2830f7	-0.16424929
237	0xbdc14d05	-0.094385184
238	0xbe2cbefb	-0.16869728
239	0xbe2eae48	-0.1705867
240	0x3e23c67e	0.15993688
241	0x3ca503c0	0.02014339
242	0xbe238417	-0.15968357
243	0xbe3748fa	-0.17898932
244	0x3d598b8b	0.053111594
245	0x3db4f92a	0.08836587
246	0x3e9bb479	0.30411127
247	0x3f038e66	0.5138916
248	0x3ce7e06e	0.028305259
249	0xbd4c0b85	-0.049815673
250	0xbdfbcb0e	-0.12294589
251	0xbdfb284b	-0.12263545
252	0x3e78a36b	0.24281089
253	0xbc598c89	-0.013278135
254	0xbe47dda4	-0.19518143
255	0x3da1ee86	0.07906823

prop_layer.GRU.bias_ih_l0 f4 [30]
0	0x3e61feba	0.22069827
1	0x3dcf9d0f	0.101373784
2	0x3dcbef5c	0.099577636
3	0x3cad56ab	0.02115949
4	0x3d9a636a	0.07538493
5	0x3d15b645	0.03655078
6	0x3dc2cfca	0.09512289
7	0x3d97fdf6	0.07421486
8	0x3d918fcf	0.071075074
9	0x3ddfb79a	0.10923691
10	0xbdbfd999	-0.09367675
11	0xbdb3f0b6	-0.08786146
12	0xbdaca158	-0.084292114
13	0xbe063949	-0.1310779
14	0xbd38e8e8	-0.04514399
15	0x3d83e7f8	0.06440729
16	0xbe0e0564	-0.13869244
17	0xbe54db1a	-0.20786706
18	0xbe33eaff	-0.17570113
19	0xbc7ae8ac	-0.015314262
20	0xbeead96f	-0.45869014
21	0x3e6d79c5	0.23190983
22	0xbcd174c9	-0.025568383
23	0xbee6b7ea	-0.4506219
24	0x3e40b191	0.18817736
25	0xbd1a82a3	-0.03772224
26	0x3f08c6e8	0.53428507
27	0x3eef96ec	0.46794832
28	0xbf29512a	-0.6613947
29	0xbe7a2563	-0.24428324

prop_layer.GRU.bias_hh_l0 f4 [30]
0	0x3e620f67	0.22076188
1	0x3dcf9d0f	0.101373784
2	0x3dcbef5c	0.099577636
3	0x3cad56ab	0.02115949
4	0x3d9a636a	0.07538493
5	0x3d15b645	0.03655078
6	0x3dc2cfca	0.09512289
7	0x3d97fdf6	0.07421486
8	0x3d918fcf	0.071075074
9	0x3ddfb79a	0.10923691
10	0xbdbfd990	-0.09367669
11	0xbdb3f0b2	-0.08786143
12	0xbdaca158	-0.084292114
13	0xbe063934	-0.13107759
14	0xbd38e8e8	-0.04514399
15	0x3d83e7d7	0.06440704
16	0xbe0e0560	-0.13869238
17	0xbe5491ab	-0.20758693
18	0xbe33eaff	-0.17570113
19	0xbc7af287	-0.015316612
20	0xbe46993d	-0.19394393
21	0x3d44b1ca	0.048021115
22	0x3d16d7ab	0.03682677
23	0xbe198685	-0.14992721
24	0x3db196ee	0.08671366
25	0x3d4cfab9	0.050043795
26	0x3e5e6f21	0.2172208
27	0x3e5b1712	0.2139552
28	0xbe8fd86f	-0.28094813
29	0xbe436085	-0.19079788

interaction_layer.0.weight f4 [20, 20]
0	0x3e875d3f	0.2643833
1	0x3de6ec27	0.11275511
2	0x3e0abe71	0.1354921
3	0x3ea6a34e	0.32546467
4	0x3d8c3296	0.06845586
5	0xbd80a5e6	-0.062816426
6	0xbe6ad3fc	-0.22932428
7	0xbed84811	-0.42242482
8	0x3de09b5a	0.10967131
9	0xbd58f658	-0.052969307
10	0xbcbbe342	-0.022935513
11	0x3c59a4d6	0.013283929
12	0xbe4d70c4	-0.20062548
13	0xbc61f233	-0.013790655
14	0xbe63f67f	-0.22262
15	0xbe27fa33	-0.16404037
16	0x3e915c51	0.28390744
17	0x3e047872	0.12936571
18	0x3be6f712	0.007048496
19	0x3d3ed23b	0.04658721
20	0x3f0d3492	0.5515834
21	0xbee449e2	-0.44587618
22	0xbd8c6b77	-0.06856435
23	0x3eebcc1b	0.46054158
24	0xbcbf9ba9	-0.023389654
25	0x3dc34798	0.0953514
26	0xbe904443	-0.2817708
27	0xbec7384f	-0.38910148
28	0x3e95d5ec	0.29264772
29	0x3d4f156b	0.050557535
30	0x3ef9a54c	0.48758924
31	0x3e3c596a	0.18393484
32	0x3db95e85	0.09051231
33	0x3e7291c5	0.23688419
34	0x3de7dea6	0.11321764
35	0x3c144e22	0.009051831
36	0xbd6db3a8	-0.05803266
37	0x3e347c5e	0.17625567
38	0x3a978819	0.0011560946
39	0x3bffbf72	0.0078048045
40	0xbe91927b	-0.28432068
41	0xbe6a1684	-0.22860152
42	0x3dfb9366	0.122839734
43	0xbe1dc7dd	-0.15408273
44	0xbc9b9930	-0.018993944
45	0xbc721583	-0.014775637
46	0xbb974a6f	-0.0046170275
47	0xbdee0246	-0.116215274
48	0x3e276402	0.16346744
49	0x3dbcf032	0.09225501
50	0x3d3b992c	0.045800373
51	0xbdedf861	-0.1161964
52	0x3de55cb6	0.11199324
53	0x3dc2b4dc	0.095071524
54	0xbdbd592b	-0.09245523
55	0xbe7b6c54	-0.24553043
56	0xbd461d36	-0.0483677
57	0x3ef0212d	0.4690031
58	0xbdc6f876	-0.09715359
59	0xbd0c14ae	-0.03419941
60	0x3ea3ccb7	0.31992123
61	0x3e3c47f9	0.1838683
62	0x3ce08cb6	0.027410846
63	0xbe80777c	-0.2509116
64	0xbc012ca9	-0.007884183
65	0xbe837b44	-0.25679982
66	0x3c33257d	0.010934231
67	0x3e10c46c	0.14137429
68	0x3da4e2fe	0.08051108
69	0xbe4a6eee	-0.19768879
70	0xbdac4ac3	-0.08412697
71	0x3d5995f3	0.05312152
72	0x3d019708	0.031638175
73	0xbd905af5	-0.07048599
74	0x3ea2b7e6	0.31780928
75	0x3eda9d0f	0.4269795
76	0xbc2402d3	-0.010010439
77	0xbea4a6f6	-0.3215863
78	0x3e4bcec0	0.19903088
79	0x3b64b4f2	0.003489789
80	0xbab8b5fa	-0.0014092319
81	0x3c2b4524	0.010453496
82	0x3af32a29	0.0018551993
83	0xbc279af9	-0.010229819
84	0xb90691ce	-0.00012833552
85	0x3a1d5c23	0.0006002804
86	0xbb16a6a1	-0.0022987502
87	0xbb73e09b	-0.0037212733
88	0xbb74c598	-0.003734922
89	0xbb3d798e	-0.0028911564
90	0xba673e42	-0.0008821228
91	0xbbc2e8db	-0.0059481687
92	0xbba10357	-0.004913728
93	0xbbcc3126	-0.006231445
94	0xba464fe8	-0.00075650075
95	0x390de852	0.00013533354
96	0x3a45735a	0.00075321423
97	0xba2aeab5	-0.00065199594
98	0xba8c67a1	-0.0010712036
99	0x3aab8ea8	0.001308878
100	0x3f01239d	0.50444967
101	0xbe4403bb	-0.19142048
102	0x3e648a43	0.22318368
103	0x3e8bb68f	0.2728772
104	0x3da4ddd4	0.08050123
105	0xbec078ad	-0.37592068
106	0x3d0f6064	0.035004035
107	0x3e7cfcdb	0.24705832
108	0x3e8d1baa	0.27560169
109	0xbdf75b30	-0.120779395
110	0x3e9b7677	0.3036382
111	0x3b0885e8	0.0020831767
112	0x3d9b80a2	0.07592894
113	0x3e2e4119	0.1701702
114	0xbd342d27	-0.043988373
115	0xbdf349b9	-0.11879296
116	0xbe144748	-0.14480317
117	0xbc0102ae	-0.007874174
118	0xbad1eb62	-0.0016015584
119	0x3ea3acb2	0.31967694
120	0xbd6bca2b	-0.05756585
121	0x3d1155bb	0.03548215
122	0x3defaef6	0.11703293
123	0xbe6e27d5	-0.23257382
124	0xbd7b7a12	-0.061395712
125	0x3ce85c35	0.02836428
126	0x3e01dc80	0.1268177
127	0x3d747061	0.059677485
128	0xbe2e7292	-0.17035893
129	0xbec02fe0	-0.37536526
130	0xbe9f4e24	-0.31114304
131	0x3cbfabfe	0.023397442
132	0x3b6a2fe9	0.0035734123
133	0x3b81f3a0	0.00396581
134	0xbe20152b	-0.15633075
135	0xbe85d9a4	-0.2614261
136	0x3daec402	0.08533479
137	0x3ea27880	0.3173256
138	0x3e954f79	0.29162195
139	0x3eeda895	0.4641768
140	0x3ef7671f	0.48320863
141	0x3dd7d115	0.10537926
142	0xbdb7b544	-0.089701205
143	0x3e83f55b	0.2577313
144	0x3e450e76	0.19243798
145	0x3e06e6fa	0.13174048
146	0xbd82f77d	-0.06394861
147	0xbdc8903c	-0.097931355
148	0xbd93b426	-0.07212095
149	0xbe8f8b4e	-0.2803597
150	0x3e803e9b	0.25047764
151	0xbbd23396	-0.006414841
152	0x3e3e0425	0.18556269
153	0x3f2f4f00	0.6847992
154	0x3e23bbd0	0.15989614
155	0xbdb81969	-0.089892216
156	0x3cecf83f	0.028926967
157	0xbe1d0fcc	-0.15338057
158	0xbbb6c2b8	-0.0055774115
159	0xbd0b8a25	-0.03406729
160	0x3d69169a	0.05690632
161	0x3ed15404	0.4088441
162	0x3ed6548c	0.4186138
163	0x3e713bb1	0.23557927
164	0x3dbe74de	0.092996344
165	0x3e297ac8	0.16550744
166	0xbcc5cd49	-0.02414574
167	0x3e09c8b7	0.13455473
168	0x3d34c166	0.04412975
169	0x3d9d8099	0.07690544
170	0xbe4143e0	-0.18873549
171	0xbed4f9b0	-0.41596746
172	0xbef9c053	-0.48779544
173	0xbeaf7e41	-0.34276012
174	0xbd529bd0	-0.051418126
175	0xbbb2b8bc	-0.005454151
176	0xbaf4ec41	-0.0018686132
177	0x3d54ded7	0.05197033
178	0xbdbbb9f9	-0.09166331
179	0x3dabcac5	0.083882846
180	0x10cf344b	8.1727674e-29
181	0x9936b908	-9.446546e-24
182	0x8c1a1b58	-1.1871957e-31
183	0x98c17e6c	-5.0016984e-24
184	0x80001b8c	-9.882e-42
185	0x80001b98	-9.899e-42
186	0x992ba5e1	-8.873992e-24
187	0x9f898b74	-5.825246e-20
188	0x80001b9b	-9.903e-42
189	0x00001b81	9.867e-42
190	0x00001ba3	9.914e-42
191	0x80001b9f	-9.909e-42
192	0x80001b96	-9.896e-42
193	0x80001b64	-9.826e-42
194	0x00001b9b	9.903e-42
195	0x00001b66	9.829e-42
196	0x80001b99	-9.9e-42
197	0x80001b65	-9.827e-42
198	0x80001b68	-9.832e-42
199	0x80001b58	-9.809e-42
200	0xbe283cc6	-0.16429433
201	0xbe21955a	-0.1577963
202	0x3e02ccee	0.12773487
203	0x3e122d17	0.14275013
204	0x3e9be0f6	0.3044507
205	0x3eb04830	0.34430075
206	0x3d6e05aa	0.05811087
207	0x3b954d07	0.0045563015
208	0x3c051456	0.008122524
209	0x3ea8c3da	0.32961923
210	0x3d155217	0.03645524
211	0xbe22ed9b	-0.15910952
212	0xbe1f9ae4	-0.1558643
213	0x3edb8d84	0.42881405
214	0x3e2b2a96	0.16715464
215	0xbdc057ab	-0.09391721
216	0x3dc8de87	0.09808069
217	0x3b220e2b	0.0024727683
218	0x3e2c83ae	0.16847107
219	0x3e0d9a70	0.13828444
220	0x3e824063	0.25439748
221	0x3daad2df	0.08341002
222	0x3e7fb885	0.24972732
223	0xbdbadd31	-0.0912422
224	0x3e57a7ee	0.21060154
225	0x3e407ad8	0.18796861
226	0xbddcfa1e	-0.107898936
227	0xbdd2009b	-0.10254022
228	0x3ead6539	0.3386629
229	0xbedc6576	-0.4304616
230	0x3e10ba3e	0.14133546
231	0x3af51294	0.0018697553
232	0x3e2cd0e0	0.16876554
233	0x3ebbcf40	0.36681557
234	0x3ddad74a	0.106855944
235	0xbd1dc15c	-0.03851448
236	0xbd0a97ed	-0.033836294
237	0xbd88e742	-0.06684734
238	0x3ea225df	0.31669518
239	0xbe90e8c5	-0.2830259
240	0xbc815062	-0.0157854
241	0xbdb5380a	-0.08848579
242	0xbd050c01	-0.03248215
243	0xbd1e4da2	-0.038648255
244	0xbd20709a	-0.039169885
245	0xb9ff22dd	-0.00048663365
246	0xbd4002c6	-0.046877645
247	0xbd5c21ab	-0.053743046
248	0xbd6ea87a	-0.05826614
249	0xbd8ba6b8	-0.068189085
250	0xbd5011dd	-0.050798286
251	0xbb81da8d	-0.003962821
252	0x3cf1461b	0.029452374
253	0x3c0d0ac2	0.008608522
254	0xbcb41ddf	-0.0219869
255	0x3cd37c2e	0.02581605

interaction_layer.0.bias f4 [20]
0	0xbdecde9f	-0.11565899
1	0xbea0e40f	-0.31423995
2	0x3c67c6f7	0.014146558
3	0xbe528a27	-0.20560513
4	0xbcbc0bf8	-0.022954926
5	0x3c286633	0.010278272
6	0x3da6f799	0.08152694
7	0xbcb7c0e4	-0.022430845
8	0xbdb3ff9e	-0.087889895
9	0xb02ef6a7	-6.3651345e-10
10	0x3de0f892	0.10984911
11	0xbe0c9b51	-0.13731124
12	0xbd73e94f	-0.059548672
13	0xbde364e7	-0.1110323
14	0x3e1303ce	0.1435692
15	0x3da567b0	0.080764174
16	0xbd671c5c	-0.05642353
17	0x3dc521c6	0.096255824
18	0x3d3480fb	0.044068318
19	0xbda54981	-0.080706604

interaction_layer.2.weight f4 [10, 20]
0	0xbea5aa3c	-0.3235644
1	0x3eea4829	0.4575818
2	0xbd988955	-0.07448069
3	0x3e1d0978	0.15335643
4	0xba81126e	-0.0009847411
5	0x3cb4b5fd	0.022059435
6	0xbf0afe7d	-0.5429457
7	0xbd83c924	-0.06434849
8	0x3df2e1ea	0.11859496
9	0x9407133b	-6.819551e-27
10	0xbe6109e7	-0.21976434
11	0xbeca3542	-0.39493757
12	0xbd025b9f	-0.031825658
13	0xbd126c09	-0.03574756
14	0xbe8116ec	-0.252128
15	0x3dbdc91c	0.09266874
16	0x3e73a827	0.23794614
17	0x3dd53511	0.10410512
18	0xbaefeacb	-0.0018304227
19	0xbedce692	-0.4314466
20	0xbe7f9a99	-0.24961318
21	0x3d5d1b9b	0.053981405
22	0xbdaa941d	-0.083290316
23	0x3df92c8a	0.12166698
24	0x3a508cc4	0.0007955546
25	0x3ec5a246	0.38600367
26	0xbe76903f	-0.24078463
27	0xbe65b995	-0.22434075
28	0x3e6107f3	0.21975689
29	0x131a2f39	1.9460815e-27
30	0x3d4c6f01	0.04991055
31	0xbbbe9576	-0.005816157
32	0xbc9c1df0	-0.019057244
33	0x3d1b0ac0	0.03785205
34	0x3ebddcad	0.37082425
35	0xbcc3ae2b	-0.02388676
36	0xbd8f1000	-0.06985474
37	0x3e7d643f	0.24745272
38	0x3e17cd2b	0.14824359
39	0xbe2e3a78	-0.17014492
40	0xbe05af42	-0.13055137
41	0xbed9941f	-0.4249582
42	0x3e324d54	0.17412311
43	0xbe88ec60	-0.2674284
44	0xbc0ae7ad	-0.008478087
45	0x3ee8e389	0.45486096
46	0xbe800c89	-0.25009564
47	0x3ee119b3	0.4396492
48	0x3e50b0b2	0.20379904
49	0x2b2b037f	6.0756256e-13
50	0xbdfd49b6	-0.12367575
51	0xbe7219b3	-0.23642616
52	0x3cc39af3	0.023877596
53	0x3e398ae6	0.18119392
54	0xbe40ecb0	-0.18840289
55	0xbcefb584	-0.029261358
56	0x3e5e6d22	0.21721318
57	0x3eacb788	0.33733773
58	0xbd1268ab	-0.03574435
59	0x3dfd9325	0.12381581
60	0x3c6a737e	0.014309762
61	0x3e6d47aa	0.23171869
62	0x3da70d65	0.08156852
63	0xbd9888e8	-0.07447988
64	0x3b7cede1	0.0038593935
65	0xbe8be496	-0.27322835
66	0xbdb374c4	-0.08762506
67	0xbeb1a3af	-0.34695193
68	0xbe645586	-0.2229825
69	0xa424a7c1	-3.5703924e-17
70	0x3eaab4e9	0.33341148
71	0xbe4b5baa	-0.19859186
72	0xbc3a1aa0	-0.011358887
73	0xbd86ea37	-0.06587642
74	0xbe9c854e	-0.30570453
75	0x3c690fc6	0.014224952
76	0x3dc6a73c	0.09699866
77	0x3e237b5e	0.1596503
78	0xbdff4a62	-0.12465359
79	0x3d28a5b6	0.04117366
80	0xbe4dd1fc	-0.20099634
81	0x3e816120	0.25269413
82	0xbe80de2f	-0.25169513
83	0x3e1b12f0	0.15143943
84	0xb9b6a220	-0.00034834538
85	0xbe57e9ac	-0.21085232
86	0x3e60dd13	0.21959333
87	0xbcd1bbba	-0.02560221
88	0x3f14cc9d	0.58124715
89	0x000014b9	7.434e-42
90	0xbe9058db	-0.2819279
91	0x3e202ce3	0.15642123
92	0xbc63fee9	-0.013915756
93	0xbe3ea1c5	-0.18616398
94	0xbe0373fc	-0.12837213
95	0x3dc65a0b	0.09685143
96	0x3e9e0bc2	0.30868345
97	0xbebc3e41	-0.36766246
98	0xbd0008fb	-0.031258564
99	0x3e4626d4	0.19350749
100	0x3ad38335	0.0016137125
101	0x3be197a1	0.0068845307
102	0x39ca05d2	0.0003853278
103	0x3b268539	0.0025408997
104	0x8e75173a	-3.0209765e-30
105	0x3b8edda8	0.0043599196
106	0x3b829e76	0.003986175
107	0x3bc585cf	0.006027914
108	0x3b019cfb	0.0019777406
109	0x80001c2f	-1.011e-41
110	0x3a44e102	0.00075103354
111	0x3b636224	0.0034695948
112	0x3ac6cfaa	0.001516809
113	0xbb56a229	-0.0032750464
114	0x3b2001ba	0.0024415092
115	0x3b295ae0	0.002584152
116	0x3a0690a6	0.00051332486
117	0xbb221372	-0.0024730829
118	0xbb15a9b7	-0.0022836754
119	0x3b3e5ccd	0.0029047013
120	0x3e599e63	0.21251826
121	0x3e676e96	0.22600779
122	0x3ed3c19a	0.41358644
123	0x3ef0ed0b	0.4705585
124	0x3c127975	0.00894009
125	0x3ed287b9	0.41119173
126	0x3e6ca795	0.23110802
127	0xbe5a7f90	-0.21337724
128	0x3e87f0df	0.26550958
129	0xa38ee37e	-1.5492018e-17
130	0x3db27e2b	0.08715471
131	0xbeedc45e	-0.4643888
132	0xbccd316d	-0.025047982
133	0xbbe68977	-0.00703543
134	0xbe806b25	-0.25081745
135	0x3e917e62	0.28416735
136	0x3db3a4fa	0.08771701
137	0x3ea71ff4	0.32641566
138	0xbcb51ea4	-0.022109337
139	0x3dc744d3	0.09729924
140	0x3de58b10	0.11208165
141	0xbeb52abf	-0.35384175
142	0xbe382998	-0.17984617
143	0xbecb06bf	-0.39653584
144	0x3bc64deb	0.006051769
145	0x3dcccc8f	0.09999954
146	0x3e03385c	0.12814468
147	0xbf0f3178	-0.5593486
148	0x3ec8085b	0.39068875
149	0x26a87683	1.1689464e-15
150	0xbee405f4	-0.44535792
151	0xbec3796b	-0.38178572
152	0x3d5f62c5	0.054537553
153	0xbe6e134c	-0.23249549
154	0x3df35d43	0.11883023
155	0xbf08e467	-0.53473514
156	0xbe8d1ac2	-0.27559477
157	0xbd510513	-0.05103023
158	0x3e6231fd	0.22089382
159	0xbb0c3664	-0.0021394724
160	0xbd508804	-0.050910965
161	0xbeeb325d	-0.45936862
162	0xbde27aed	-0.110586025
163	0xbd0283d2	-0.031863995
164	0xbabef1e9	-0.0014567944
165	0x3e867fcd	0.2626938
166	0x3e68b87d	0.22726627
167	0x3e2227db	0.15835516
168	0xbe2b1b0e	-0.1670954
169	0x8f9765fb	-1.4929031e-29
170	0xbd9baa18	-0.07600802
171	0xbdc363aa	-0.09540494
172	0x3c83858c	0.016054891
173	0xbe86a73e	-0.2629947
174	0x3d26b607	0.04070094
175	0xbded41ed	-0.1158484
176	0x3f161d66	0.5863861
177	0xbe961ec2	-0.2932034
178	0xbf08fc52	-0.5351001
179	0x3e1eacfa	0.15495673
180	0x3ee5a242	0.44850355
181	0x3edff739	0.43743303
182	0xbd8dd139	-0.06924672
183	0x3d810871	0.06300438
184	0xbbd07464	-0.006361531
185	0x3d6acb10	0.05732256
186	0xbde81f18	-0.11334056
187	0x3e32b120	0.1745038
188	0xbe6f07c4	-0.23342806
189	0x90f72910	-9.748759e-29
190	0xbeac2579	-0.3362234
191	0x3e64a220	0.22327471
192	0x3c86d0bd	0.016456956
193	0x3e9ed324	0.31020463
194	0x3de2f811	0.11082471
195	0xbd3ae1aa	-0.045625366
196	0xbe4ce267	-0.2000824
197	0x3c9e1691	0.01929787
198	0xbf2702e9	-0.65238816
199	0xbe97cbaa	-0.2964757

interaction_layer.2.bias f4 [10]
0	0x3e21f901	0.15817644
1	0xbe0510f6	-0.12994751
2	0xbe72ce47	-0.23711501
3	0x3e796edf	0.243587
4	0xbc35e420	-0.0111017525
5	0x3b331684	0.0027326653
6	0xbe87d38c	-0.26528585
7	0x3ec78dae	0.3897528
8	0xbde72a5c	-0.11287376
9	0xbdad492e	-0.084612235

scoring_alignment_preprocessor.0.weight f4 [16, 10]
0	0x3e87cacc	0.2652191
1	0x3ec0549c	0.37564552
2	0xbdbc657a	-0.091990426
3	0x3f35ffb4	0.71093297
4	0x3e80c2de	0.25148672
5	0xbe46bfb8	-0.19409072
6	0xbd3186bf	-0.043341395
7	0xbe88db34	-0.2672974
8	0x3d240d0f	0.040051516
9	0xbda4d0bf	-0.08047628
10	0x3e7aa3fd	0.24476619
11	0x3c02ab39	0.007975393
12	0xbe9a68a4	-0.3015796
13	0x3e133a3c	0.14377683
14	0x3e706b24	0.23478371
15	0xbc70ac5a	-0.014689529
16	0x3e3ab14f	0.182317
17	0x3f21233e	0.629444
18	0x3ed26ffc	0.41101062
19	0xbdbf9f1f	-0.09356522
20	0x3e22117b	0.15826981
21	0x3d2f5630	0.042806804
22	0x3ce50a46	0.027959
23	0xbe5ba2f5	-0.21448882
24	0x3e9c4784	0.30523312
25	0x3e441bd5	0.19151242
26	0x3ea43ce2	0.320777
27	0x3d00edd7	0.03147682
28	0x3e7accfe	0.24492261
29	0x3e8a5a4d	0.2702202
30	0x3e691a28	0.22763884
31	0xbda9b8ed	-0.08287225
32	0xbd039d49	-0.03213242
33	0xbe33f995	-0.17575677
34	0xbe96ff0d	-0.29491463
35	0x3dbddd4e	0.09270726
36	0xbd9ee7c6	-0.07759051
37	0x3eb42dfd	0.35191336
38	0x3b08b33d	0.0020858787
39	0xbea4bf6a	-0.32177287
40	0x3e0cf517	0.1376537
41	0x3e049506	0.12947473
42	0xbebd5edd	-0.36986437
43	0x3f082849	0.5318647
44	0x3dd4334b	0.10361346
45	0xbcd11893	-0.025524413
46	0x3e9a8cf2	0.30185658
47	0x3dc345e2	0.095348135
48	0xbebfd740	-0.3746891
49	0x3e54017b	0.2070369
50	0x3dc8e83e	0.09809922
51	0xbbf4ff9e	-0.007476761
52	0x3d69d165	0.05708446
53	0x3e6b8c9e	0.2300286
54	0x3c9ba208	0.018998161
55	0xbe8a8051	-0.27051023
56	0xbe55fe48	-0.20897782
57	0x3e9d5c5b	0.30734524
58	0x3ead83b9	0.3388956
59	0x3e9aba2f	0.30220172
60	0xbd55605c	-0.05209385
61	0xbdb4dfb7	-0.08831733
62	0xbda822c3	-0.08209755
63	0x3e125922	0.14291814
64	0xb7a1b72d	-1.9277993e-05
65	0x3e4ae849	0.19815172
66	0xbdd1401a	-0.102173045
67	0xbf01e6f9	-0.5074306
68	0x3e3eef5f	0.18646
69	0x3ee6a98e	0.45051235
70	0xbe160b40	-0.14652729
71	0xbd73d518	-0.059529394
72	0x3de91695	0.1138126
73	0xbe4632f0	-0.19355369
74	0x3e076889	0.13223471
75	0xbea992c3	-0.33119783
76	0x3cf75a84	0.030194528
77	0xbd0aa232	-0.033846088
78	0xbe5f7b59	-0.21824397
79	0x3ce3e7e3	0.027820533
80	0xbcc96f84	-0.024589308
81	0x3c16ff3f	0.009216129
82	0xbdfa1fab	-0.122130714
83	0x3cb3ebab	0.021962961
84	0x3e0cae0e	0.13738272
85	0x3ebe79fb	0.3720244
86	0x3ec180c6	0.3779356
87	0xbd3ef00c	-0.046615645
88	0xbec34d7e	-0.3814506
89	0x3e258bcf	0.16166614
90	0xbe0ef032	-0.13958815
91	0xbc9cf46e	-0.019159522
92	0x3d43963b	0.047750693
93	0x3ea5f772	0.32415348
94	0x3e0f156f	0.1397302
95	0xbe59995e	-0.21249911
96	0xbe2f68ed	-0.1712987
97	0x3e63053f	0.2216997
98	0x3e94a570	0.2903247
99	0x3d831bce	0.06401788
100	0x3e86786d	0.26263753
101	0x3be6fa06	0.007048848
102	0x3e2c2fa4	0.16815048
103	0xbd147e13	-0.036253046
104	0x3ea15257	0.31508133
105	0xbcdc8ff4	-0.026924111
106	0x3c10cb89	0.008837589
107	0xbe637908	-0.22214139
108	0x3e9f93d6	0.31167477
109	0x3eba09a8	0.36335492
110	0xbda11dac	-0.078669876
111	0xbefb1d98	-0.49046016
112	0x3ea6b07e	0.32556528
113	0xbefd3030	-0.49450827
114	0xbd14c2c1	-0.036318544
115	0xbe8010af	-0.2501273
116	0x3e7da2b1	0.24769093
117	0x3dbe622f	0.09296071
118	0xbc1dad2d	-0.009623808
119	0x3e66e8a0	0.22549677
120	0xbe46586b	-0.19369666
121	0x3ed8265b	0.42216763
122	0x3de1892d	0.11012492
123	0xbc4a8991	-0.0123619
124	0x3f20ca0e	0.6280831
125	0xbe15e204	-0.14637
126	0x3eaf8d03	0.3428727
127	0xbd890232	-0.06689872
128	0x3e856752	0.2605539
129	0x3d1aa7fd	0.037757862
130	0xbe39805f	-0.18115376
131	0x3e2a8469	0.16652073
132	0x3dc60870	0.09669578
133	0x3e4b2d90	0.198416
134	0x3d474443	0.048649084
135	0x3e124bbb	0.14286701
136	0x3d3abb9d	0.04558908
137	0xbe40bc50	-0.18821836
138	0xbd68e0b5	-0.056854922
139	0xbea6e996	-0.32600087
140	0x80001b88	-9.876e-42
141	0x80001b6b	-9.836e-42
142	0x00001b7a	9.857e-42
143	0x00001b60	9.82e-42
144	0x00001b8e	9.885e-42
145	0x80001b98	-9.899e-42
146	0x00001b73	9.847e-42
147	0x00001b99	9.9e-42
148	0x80001b96	-9.896e-42
149	0x00001b63	9.825e-42
150	0x3e9a888f	0.3018231
151	0xbcb6300e	-0.022239711
152	0xbe2c0570	-0.16798949
153	0x3daeb15b	0.085299216
154	0x3d033258	0.032030433
155	0xbe0f74d1	-0.14009406
156	0x3c2c65cb	0.010522316
157	0xbdf83800	-0.12120056
158	0xbd1ad29b	-0.037798505
159	0x3f39e4ef	0.7261495

scoring_alignment_preprocessor.0.bias f4 [16]
0	0xbea769cb	-0.326979
1	0xbd28fe5e	-0.04125821
2	0x3a308fa4	0.00067352713
3	0x3e2d556a	0.16927114
4	0x3d8da6a1	0.069165476
5	0xbd17880c	-0.03699498
6	0x3de4b8ac	0.11168036
7	0x3e14aa40	0.1451807
8	0x3dfb109f	0.122590296
9	0x3b11151d	0.0022137829
10	0xbdae7a7e	-0.08519457
11	0x3e5a6ac1	0.21329786
12	0xbd8ab740	-0.067732334
13	0x3e9b6cc1	0.3035641
14	0x97faa946	-1.6198602e-24
15	0xbd380558	-0.04492697
