paper_artifacts/collection/gmn_baseline_scoring=sinkhorn_pp=lrl___tp=sinkhorn_pp=lrl_when=pre___unify=true_K=8/trained_models/gmn_baseline_scoring=sinkhorn_pp=lrl___tp=sinkhorn_pp=lrl_when=pre___unify=true_K=8_aids_large_dataset_seed_7762_2024-05-08_00:13:00.pth (torch, 16111 bytes, 22 tensors)

encoder.MLP1.0.weight f4 [10, 1]
0	0x3e520615	0.20510133
1	0x3dbc9277	0.092076235
2	0xbcd7a35e	-0.026323017
3	0x3e45fda3	0.19335036
4	0xbe0789b6	-0.13236126
5	0xbe72ee8b	-0.2372381
6	0x3d943a8e	0.07237731
7	0xbdb22e0b	-0.08700188
8	0x3e57cc4e	0.2107403
9	0xbe02cdc1	-0.12773801

encoder.MLP1.0.bias f4 [10]
0	0x3e526550	0.2054646
1	0x3dbc9038	0.09207195
2	0xbcdb5e86	-0.02677847
3	0x3e462468	0.19349825
4	0xbe07c184	-0.13257414
5	0xbe702ff5	-0.23455794
6	0x3d959ea4	0.07305649
7	0xbdb24cff	-0.08706092
8	0x3e57c187	0.21069919
9	0xbe02cdd0	-0.12773824

prop_layer._message_net.0.weight f4 [20, 21]
0	0x3c08f8e3	0.0083601205
1	0x3b33e013	0.002744679
2	0x3afea60b	0.0019428147
3	0xbb1e977f	-0.0024199185
4	0xbc8e2b93	-0.017354762
5	0x3aca1a18	0.0015419153
6	0x3c07b5df	0.008283108
7	0x3c1019ca	0.008795211
8	0x3cd02e1d	0.025412614
9	0xbc12cc22	-0.008959802
10	0xba2bb4a5	-0.00065500505
11	0xbacdc1a4	-0.0015697968
12	0x3b5e87c4	0.0033955434
13	0x3be1720b	0.00688005
14	0xba9f4719	-0.0012151926
15	0x3bf2ba29	0.007407446
16	0x37fe8742	3.0342144e-05
17	0x3bd9880e	0.0066385334
18	0x3c16dbb4	0.009207655
19	0xbc2647d8	-0.010148965
20	0x3be20e2b	0.0068986616
21	0x3e136432	0.1439369
22	0x3dffdaca	0.124929026
23	0xbe4f69c7	-0.20255195
24	0xbe3854a2	-0.18001035
25	0x3ed761cc	0.420668
26	0x3eaaffab	0.33398184
27	0xbec4a89a	-0.38409883
28	0xbe8fac42	-0.2806111
29	0xbe40c2bc	-0.18824285
30	0xbbb5ff90	-0.005554147
31	0x3bf7be41	0.007560522
32	0x3dc452ec	0.095861286
33	0xbc046fd2	-0.008083301
34	0xbe1a462c	-0.15065831
35	0x3dddb81c	0.10826132
36	0x3d955e24	0.072933465
37	0x3e01451d	0.12624021
38	0x3db991d6	0.09061019
39	0xbe50275d	-0.20327516
40	0x3e69c385	0.22828491
41	0xbe73badd	-0.23801751
42	0xbf0cb8b6	-0.54969347
43	0x3dde9516	0.1086828
44	0x3e291c26	0.16514644
45	0xbe9cd463	-0.30630788
46	0x3d844684	0.06458762
47	0xbf0ddb96	-0.55413187
48	0xbe6ef2dc	-0.23334831
49	0xbe44cf41	-0.19219686
50	0xbea8b13d	-0.32947722
51	0x3efe88ba	0.4971369
52	0xbc8efa2a	-0.017453272
53	0xbe5a2584	-0.21303374
54	0xbe84dba9	-0.25948837
55	0x3debcd25	0.115137376
56	0x3df1a7d2	0.11799587
57	0x3e115969	0.14194264
58	0x3c28883a	0.010286385
59	0x3d877bb9	0.06615395
60	0x3e4de3c9	0.20106424
61	0x3ebe6a62	0.3719054
62	0xbe01659a	-0.12636414
63	0xbbaacf6c	-0.005212715
64	0xbafecc42	-0.0019439536
65	0x3c3385e4	0.010957215
66	0xbb105136	-0.0022021062
67	0xbbb39338	-0.0054801963
68	0x3b1644b2	0.002292913
69	0xbc492c13	-0.0122785745
70	0xbadcd64a	-0.0016848531
71	0x3ca076b8	0.01958786
72	0xbbfe05d8	-0.0077521615
73	0x3a3bbd6d	0.00071617105
74	0x3c3cd2e0	0.011524886
75	0x3ae7b1d4	0.0017676898
76	0x3b9eacb5	0.0048423656
77	0xbb218529	-0.002464602
78	0xba08e5af	-0.0005222214
79	0x3ad57dbb	0.0016288081
80	0x3bddc370	0.0067676827
81	0x3b139a8d	0.002252254
82	0xbc397b4d	-0.011320901
83	0x3a9336e4	0.0011231569
84	0xbbda1733	-0.0066555976
85	0x3bd2f44c	0.006437814
86	0x3b7c434a	0.0038492256
87	0xb9c66b30	-0.00037845364
88	0xbbc4ba86	-0.0060036806
89	0x3bd64711	0.0065392335
90	0xbb59b723	-0.003322073
91	0xbb7db6ae	-0.0038713622
92	0x3c7edb1c	0.015555169
93	0xbb9171f9	-0.0044386354
94	0x3a3808f7	0.0007020379
95	0x3cc809b7	0.024418695
96	0x3c09556e	0.008382184
97	0xb9d04de0	-0.00039730873
98	0xbb82a8d0	-0.003987409
99	0x3b66ccb7	0.0035217234
100	0xbb4d55dc	-0.0031331694
101	0x3beee8d0	0.007290937
102	0x3c108a91	0.008822099
103	0xbc6610d6	-0.0140421
104	0x3b61671a	0.0034393729
105	0x3a7f97b5	0.0009750084
106	0xbc116c99	-0.008875989
107	0x3cce2a1c	0.025166564
108	0xbb5994e4	-0.0033200318
109	0xbc3c1939	-0.011480623
110	0x3cbfec79	0.023428189
111	0xbb9e234c	-0.004825985
112	0xbb2c481b	-0.0026288095
113	0x3bac0bc5	0.0052504265
114	0xbad7acd2	-0.0016454703
115	0x3be9c9b7	0.007134642
116	0x3b93f889	0.0045157117
117	0xba4bb23f	-0.0007770396
118	0xb9b684f6	-0.0003481281
119	0xbc035903	-0.0080168275
120	0x3c206903	0.009790662
121	0x3bc32373	0.0059551536
122	0x3bc77651	0.0060871025
123	0xbc92e0b8	-0.01792942
124	0xbc59edbf	-0.013301312
125	0xbb330cf1	-0.0027320946
126	0xbd2212d9	-0.039568756
127	0xbdd46cd4	-0.1037232
128	0x3e66c617	0.22536503
129	0xbd8ae60e	-0.06782161
130	0xbe4b7ec5	-0.19872577
131	0x3df5ed9a	0.120082095
132	0xbe87041e	-0.2637033
133	0x3e27fa50	0.1640408
134	0x3cfa2193	0.030533588
135	0xbd0d8dc5	-0.03455903
136	0xbd04958c	-0.03236918
137	0x3d85b74e	0.06529103
138	0x3d17a0d3	0.03701861
139	0x3e090d25	0.1338392
140	0xbcd98dec	-0.026556931
141	0xbd08dcc2	-0.033413656
142	0x3e772929	0.24136795
143	0x3d3d7bef	0.04626077
144	0xbc8b6352	-0.017015133
145	0xbdebfb28	-0.11522514
146	0x3d4f731a	0.05064688
147	0xb92dd78e	-0.00016578866
148	0x3aeae8ec	0.0017922199
149	0x3ccbb83f	0.024868129
150	0xbbad03ba	-0.0052799853
151	0xbd08847f	-0.033329483
152	0x3b83f9ad	0.0040275664
153	0x3b81e8aa	0.0039645033
154	0xbb8d6358	-0.004314821
155	0x3c4383ca	0.011933276
156	0xb8ced24c	-9.862016e-05
157	0x3bbd6ef8	0.005781051
158	0x3a8bafe9	0.0010657284
159	0x3bd05f8b	0.006359046
160	0x3c364236	0.011124184
161	0xbcd5626a	-0.026047904
162	0x3b8b32d8	0.0042480044
163	0x3c808d91	0.015692504
164	0x3ce9ee46	0.028556
165	0x3ba7a315	0.0051158764
166	0xbcbb7c9c	-0.022886567
167	0x3c3f22c9	0.011666008
168	0xbe8d83d1	-0.2763963
169	0x3e0a4c32	0.13505629
170	0xbd125de3	-0.03573407
171	0x3e34f699	0.17672195
172	0x3eae0384	0.33987057
173	0x3e49d003	0.19708256
174	0xbf389560	-0.7210293
175	0xbdb8a2f1	-0.090154536
176	0x3d47c6ad	0.048773456
177	0xbe2e6699	-0.17031325
178	0x3e39af5f	0.18133305
179	0xbdad9ae4	-0.08476809
180	0xbe2ef76e	-0.17086574
181	0x3d9b216c	0.07574734
182	0xbd56fbdf	-0.052486297
183	0x3df6c61f	0.12049507
184	0xbc886d84	-0.016653784
185	0xbc128d42	-0.008944811
186	0x3d62aa10	0.055337965
187	0x3e67da36	0.22641835
188	0x3d6120ec	0.054963037
189	0xbbe76bc5	-0.0070624077
190	0x3bc0eb2b	0.005887409
191	0x3c13f045	0.009029453
192	0x3a347694	0.00068841246
193	0xbc4a8f4f	-0.012363269
194	0x3c53af5d	0.012920228
195	0x3c2c9d98	0.01053562
196	0xbbde18eb	-0.006777873
197	0x3b7d6797	0.003866648
198	0x3b1e160c	0.0024122028
199	0x3c29dfd8	0.01036831
200	0x3c64f459	0.013974273
201	0x3a48603e	0.0007643736
202	0xbadfdd66	-0.0017079532
203	0xbbb440ae	-0.0055008745
204	0x3cbe72b6	0.023248058
205	0xbb46c306	-0.0030328645
206	0xbaac1edb	-0.0013131754
207	0x3b445fcf	0.0029964333
208	0xbc89df77	-0.01683019
209	0x3b712d89	0.0036800823
210	0x3ea17a89	0.315388
211	0xbdd2540f	-0.10269939
212	0x3ee0579a	0.43816835
213	0x3d59b66a	0.05315248
214	0xbdec41e8	-0.11536008
215	0x3e46d5de	0.19417521
216	0xbe89dfe7	-0.26928636
217	0x3e38aeb7	0.18035398
218	0xbe270c00	-0.16313171
219	0x3e8b63cf	0.27224585
220	0xbe2f5fe0	-0.17126417
221	0xbcd5e2f9	-0.026109206
222	0x3d8fccb8	0.07021469
223	0x3dcf1fe1	0.10113502
224	0x3e82888a	0.25494796
225	0x3d89939c	0.067176074
226	0x3d9c41c8	0.07629734
227	0x3cdea071	0.027176114
228	0xbe1a97ce	-0.15096971
229	0xbcf46abf	-0.029836057
230	0x3d6fb84f	0.05852538
231	0x3d9ac91d	0.075578906
232	0x3e1f01f2	0.15528086
233	0x3eb51c78	0.35373282
234	0x3e7ac681	0.24489786
235	0xbeb7499f	-0.35798356
236	0xbd8be3b3	-0.068305396
237	0xbd6621cf	-0.056184586
238	0x3e62943a	0.22126856
239	0x3d81ff00	0.063474655
240	0xbd834eb9	-0.064114995
241	0x3eadf28f	0.3397412
242	0x3db9c441	0.090706356
243	0x3c915629	0.01774128
244	0xbd2e7215	-0.042589266
245	0x3c44ec6d	0.012019259
246	0xbd799a19	-0.060937975
247	0xbe434b7f	-0.19071768
248	0x3e242c12	0.16032436
249	0xbd8341d5	-0.06409041
250	0xbe0ab969	-0.13547291
251	0x3dc94718	0.09828013
252	0x390c78a6	0.00013396385
253	0x3b93da0b	0.0045120767
254	0xbc07d3dd	-0.008290258
255	0x3b1ab462	0.0023606052

prop_layer._message_net.0.bias f4 [20]
0	0x3be20e1a	0.0068986537
1	0xbe6816a2	-0.22664884
2	0xbddbce0a	-0.10732658
3	0x3a933695	0.0011231477
4	0x3b616748	0.0034393836
5	0xbb330c35	-0.0027320508
6	0x3d2ccf66	0.042189978
7	0x3c3f2371	0.011666165
8	0x3d3f07dc	0.046638355
9	0x3b712fbd	0.0036802136
10	0x3d5992ff	0.053118702
11	0x3dcc73ef	0.0998305
12	0x3bc08505	0.005875232
13	0x3e09eaf9	0.13468541
14	0x3cb55fa3	0.02214033
15	0xbdba8619	-0.09107608
16	0xbc197b69	-0.009367802
17	0x3eb6b471	0.3568454
18	0xbc51c159	-0.012802445
19	0x3bb2ae44	0.005452903

prop_layer._reverse_message_net.0.weight f4 [20, 21]
0	0x3c08f8e3	0.0083601205
1	0x3b33e013	0.002744679
2	0x3afea60b	0.0019428147
3	0xbb1e977f	-0.0024199185
4	0xbc8e2b93	-0.017354762
5	0x3aca1a18	0.0015419153
6	0x3c07b5df	0.008283108
7	0x3c1019ca	0.008795211
8	0x3cd02e1d	0.025412614
9	0xbc12cc22	-0.008959802
10	0xba2bb4a5	-0.00065500505
11	0xbacdc1a4	-0.0015697968
12	0x3b5e87c4	0.0033955434
13	0x3be1720b	0.00688005
14	0xba9f4719	-0.0012151926
15	0x3bf2ba29	0.007407446
16	0x37fe8742	3.0342144e-05
17	0x3bd9880e	0.0066385334
18	0x3c16dbb4	0.009207655
19	0xbc2647d8	-0.010148965
20	0x3be20e2b	0.0068986616
21	0x3e136432	0.1439369
22	0x3dffdaca	0.124929026
23	0xbe4f69c7	-0.20255195
24	0xbe3854a2	-0.18001035
25	0x3ed761cc	0.420668
26	0x3eaaffab	0.33398184
27	0xbec4a89a	-0.38409883
28	0xbe8fac42	-0.2806111
29	0xbe40c2bc	-0.18824285
30	0xbbb5ff90	-0.005554147
31	0x3bf7be41	0.007560522
32	0x3dc452ec	0.095861286
33	0xbc046fd2	-0.008083301
34	0xbe1a462c	-0.15065831
35	0x3dddb81c	0.10826132
36	0x3d955e24	0.072933465
37	0x3e01451d	0.12624021
38	0x3db991d6	0.09061019
39	0xbe50275d	-0.20327516
40	0x3e69c385	0.22828491
41	0xbe73badd	-0.23801751
42	0xbf0cb8b6	-0.54969347
43	0x3dde9516	0.1086828
44	0x3e291c26	0.16514644
45	0xbe9cd463	-0.30630788
46	0x3d844684	0.06458762
47	0xbf0ddb96	-0.55413187
48	0xbe6ef2dc	-0.23334831
49	0xbe44cf41	-0.19219686
50	0xbea8b13d	-0.32947722
51	0x3efe88ba	0.4971369
52	0xbc8efa2a	-0.017453272
53	0xbe5a2584	-0.21303374
54	0xbe84dba9	-0.25948837
55	0x3debcd25	0.115137376
56	0x3df1a7d2	0.11799587
57	0x3e115969	0.14194264
58	0x3c28883a	0.010286385
59	0x3d877bb9	0.06615395
60	0x3e4de3c9	0.20106424
61	0x3ebe6a62	0.3719054
62	0xbe01659a	-0.12636414
63	0xbbaacf6c	-0.005212715
64	0xbafecc42	-0.0019439536
65	0x3c3385e4	0.010957215
66	0xbb105136	-0.0022021062
67	0xbbb39338	-0.0054801963
68	0x3b1644b2	0.002292913
69	0xbc492c13	-0.0122785745
70	0xbadcd64a	-0.0016848531
71	0x3ca076b8	0.01958786
72	0xbbfe05d8	-0.0077521615
73	0x3a3bbd6d	0.00071617105
74	0x3c3cd2e0	0.011524886
75	0x3ae7b1d4	0.0017676898
76	0x3b9eacb5	0.0048423656
77	0xbb218529	-0.002464602
78	0xba08e5af	-0.0005222214
79	0x3ad57dbb	0.0016288081
80	0x3bddc370	0.0067676827
81	0x3b139a8d	0.002252254
82	0xbc397b4d	-0.011320901
83	0x3a9336e4	0.0011231569
84	0xbbda1733	-0.0066555976
85	0x3bd2f44c	0.006437814
86	0x3b7c434a	0.0038492256
87	0xb9c66b30	-0.00037845364
88	0xbbc4ba86	-0.0060036806
89	0x3bd64711	0.0065392335
90	0xbb59b723	-0.003322073
91	0xbb7db6ae	-0.0038713622
92	0x3c7edb1c	0.015555169
93	0xbb9171f9	-0.0044386354
94	0x3a3808f7	0.0007020379
95	0x3cc809b7	0.024418695
96	0x3c09556e	0.008382184
97	0xb9d04de0	-0.00039730873
98	0xbb82a8d0	-0.003987409
99	0x3b66ccb7	0.0035217234
100	0xbb4d55dc	-0.0031331694
101	0x3beee8d0	0.007290937
102	0x3c108a91	0.008822099
103	0xbc6610d6	-0.0140421
104	0x3b61671a	0.0034393729
105	0x3a7f97b5	0.0009750084
106	0xbc116c99	-0.008875989
107	0x3cce2a1c	0.025166564
108	0xbb5994e4	-0.0033200318
109	0xbc3c1939	-0.011480623
110	0x3cbfec79	0.023428189
111	0xbb9e234c	-0.004825985
112	0xbb2c481b	-0.0026288095
113	0x3bac0bc5	0.0052504265
114	0xbad7acd2	-0.0016454703
115	0x3be9c9b7	0.007134642
116	0x3b93f889	0.0045157117
117	0xba4bb23f	-0.0007770396
118	0xb9b684f6	-0.0003481281
119	0xbc035903	-0.0080168275
120	0x3c206903	0.009790662
121	0x3bc32373	0.0059551536
122	0x3bc77651	0.0060871025
123	0xbc92e0b8	-0.01792942
124	0xbc59edbf	-0.013301312
125	0xbb330cf1	-0.0027320946
126	0xbd2212d9	-0.039568756
127	0xbdd46cd4	-0.1037232
128	0x3e66c617	0.22536503
129	0xbd8ae60e	-0.06782161
130	0xbe4b7ec5	-0.19872577
131	0x3df5ed9a	0.120082095
132	0xbe87041e	-0.2637033
133	0x3e27fa50	0.1640408
134	0x3cfa2193	0.030533588
135	0xbd0d8dc5	-0.03455903
136	0xbd04958c	-0.03236918
137	0x3d85b74e	0.06529103
138	0x3d17a0d3	0.03701861
139	0x3e090d25	0.1338392
140	0xbcd98dec	-0.026556931
141	0xbd08dcc2	-0.033413656
142	0x3e772929	0.24136795
143	0x3d3d7bef	0.04626077
144	0xbc8b6352	-0.017015133
145	0xbdebfb28	-0.11522514
146	0x3d4f731a	0.05064688
147	0xb92dd78e	-0.00016578866
148	0x3aeae8ec	0.0017922199
149	0x3ccbb83f	0.024868129
150	0xbbad03ba	-0.0052799853
151	0xbd08847f	-0.033329483
152	0x3b83f9ad	0.0040275664
153	0x3b81e8aa	0.0039645033
154	0xbb8d6358	-0.004314821
155	0x3c4383ca	0.011933276
156	0xb8ced24c	-9.862016e-05
157	0x3bbd6ef8	0.005781051
158	0x3a8bafe9	0.0010657284
159	0x3bd05f8b	0.006359046
160	0x3c364236	0.011124184
161	0xbcd5626a	-0.026047904
162	0x3b8b32d8	0.0042480044
163	0x3c808d91	0.015692504
164	0x3ce9ee46	0.028556
165	0x3ba7a315	0.0051158764
166	0xbcbb7c9c	-0.022886567
167	0x3c3f22c9	0.011666008
168	0xbe8d83d1	-0.2763963
169	0x3e0a4c32	0.13505629
170	0xbd125de3	-0.03573407
171	0x3e34f699	0.17672195
172	0x3eae0384	0.33987057
173	0x3e49d003	0.19708256
174	0xbf389560	-0.7210293
175	0xbdb8a2f1	-0.090154536
176	0x3d47c6ad	0.048773456
177	0xbe2e6699	-0.17031325
178	0x3e39af5f	0.18133305
179	0xbdad9ae4	-0.08476809
180	0xbe2ef76e	-0.17086574
181	0x3d9b216c	0.07574734
182	0xbd56fbdf	-0.052486297
183	0x3df6c61f	0.12049507
184	0xbc886d84	-0.016653784
185	0xbc128d42	-0.008944811
186	0x3d62aa10	0.055337965
187	0x3e67da36	0.22641835
188	0x3d6120ec	0.054963037
189	0xbbe76bc5	-0.0070624077
190	0x3bc0eb2b	0.005887409
191	0x3c13f045	0.009029453
192	0x3a347694	0.00068841246
193	0xbc4a8f4f	-0.012363269
194	0x3c53af5d	0.012920228
195	0x3c2c9d98	0.01053562
196	0xbbde18eb	-0.006777873
197	0x3b7d6797	0.003866648
198	0x3b1e160c	0.0024122028
199	0x3c29dfd8	0.01036831
200	0x3c64f459	0.013974273
201	0x3a48603e	0.0007643736
202	0xbadfdd66	-0.0017079532
203	0xbbb440ae	-0.0055008745
204	0x3cbe72b6	0.023248058
205	0xbb46c306	-0.0030328645
206	0xbaac1edb	-0.0013131754
207	0x3b445fcf	0.0029964333
208	0xbc89df77	-0.01683019
209	0x3b712d89	0.0036800823
210	0x3ea17a89	0.315388
211	0xbdd2540f	-0.10269939
212	0x3ee0579a	0.43816835
213	0x3d59b66a	0.05315248
214	0xbdec41e8	-0.11536008
215	0x3e46d5de	0.19417521
216	0xbe89dfe7	-0.26928636
217	0x3e38aeb7	0.18035398
218	0xbe270c00	-0.16313171
219	0x3e8b63cf	0.27224585
220	0xbe2f5fe0	-0.17126417
221	0xbcd5e2f9	-0.026109206
222	0x3d8fccb8	0.07021469
223	0x3dcf1fe1	0.10113502
224	0x3e82888a	0.25494796
225	0x3d89939c	0.067176074
226	0x3d9c41c8	0.07629734
227	0x3cdea071	0.027176114
228	0xbe1a97ce	-0.15096971
229	0xbcf46abf	-0.029836057
230	0x3d6fb84f	0.05852538
231	0x3d9ac91d	0.075578906
232	0x3e1f01f2	0.15528086
233	0x3eb51c78	0.35373282
234	0x3e7ac681	0.24489786
235	0xbeb7499f	-0.35798356
236	0xbd8be3b3	-0.068305396
237	0xbd6621cf	-0.056184586
238	0x3e62943a	0.22126856
239	0x3d81ff00	0.063474655
240	0xbd834eb9	-0.064114995
241	0x3eadf28f	0.3397412
242	0x3db9c441	0.090706356
243	0x3c915629	0.01774128
244	0xbd2e7215	-0.042589266
245	0x3c44ec6d	0.012019259
246	0xbd799a19	-0.060937975
247	0xbe434b7f	-0.19071768
248	0x3e242c12	0.16032436
249	0xbd8341d5	-0.06409041
250	0xbe0ab969	-0.13547291
251	0x3dc94718	0.09828013
252	0x390c78a6	0.00013396385
253	0x3b93da0b	0.0045120767
254	0xbc07d3dd	-0.008290258
255	0x3b1ab462	0.0023606052

prop_layer._reverse_message_net.0.bias f4 [20]
0	0x3be20e1a	0.0068986537
1	0xbe6816a2	-0.22664884
2	0xbddbce0a	-0.10732658
3	0x3a933695	0.0011231477
4	0x3b616748	0.0034393836
5	0xbb330c35	-0.0027320508
6	0x3d2ccf66	0.042189978
7	0x3c3f2371	0.011666165
8	0x3d3f07dc	0.046638355
9	0x3b712fbd	0.0036802136
10	0x3d5992ff	0.053118702
11	0x3dcc73ef	0.0998305
12	0x3bc08505	0.005875232
13	0x3e09eaf9	0.13468541
14	0x3cb55fa3	0.02214033
15	0xbdba8619	-0.09107608
16	0xbc197b69	-0.009367802
17	0x3eb6b471	0.3568454
18	0xbc51c159	-0.012802445
19	0x3bb2ae44	0.005452903

prop_layer.GRU.weight_ih_l0 f4 [30, 20]
0	0xbb298a72	-0.0025869873
1	0xbce6e180	-0.028183699
2	0x3bd4771b	0.006483925
3	0xbb871d1a	-0.004123342
4	0xbb351e28	-0.0027636383
5	0xbb6c339b	-0.0036041501
6	0x3bfda5e3	0.0077407225
7	0xbb3bcc65	-0.0028655764
8	0xbcaaa3cc	-0.020830058
9	0xbb31b9b9	-0.0027118756
10	0x3cb9b3a6	0.02266867
11	0x3cd5a0b7	0.026077611
12	0xba834a5e	-0.001001667
13	0x3a792e8a	0.0009505531
14	0xbce16127	-0.027512146
15	0x3d3a1a0f	0.045435008
16	0x3b7c0cc3	0.0038459755
17	0xbd9346d6	-0.07191245
18	0x3abb987b	0.001431241
19	0x3acde3b0	0.0015708115
20	0x3b1c9e98	0.002389824
21	0xbb9a7cf7	-0.004714604
22	0x3d17acd5	0.03703006
23	0xbbbd29f5	-0.005772824
24	0xbb3ef7d4	-0.0029139416
25	0xbc18da34	-0.009329367
26	0xbc7b61a7	-0.015343106
27	0xbb24591e	-0.0025077532
28	0xbc7e3308	-0.0155150965
29	0xbb2bb3e6	-0.0026199757
30	0x3d23f97d	0.040032852
31	0xbc2a6236	-0.010399392
32	0x3ba9ef80	0.0051860213
33	0x3d8045f8	0.062633455
34	0x3cac1465	0.021005819
35	0x3ca8f632	0.020625208
36	0x3b6bca02	0.003597856
37	0xbde2c80f	-0.110733144
38	0x3b046478	0.0020201486
39	0x3c130ac5	0.008974736
40	0xb8ae2dc7	-8.305493e-05
41	0x3cab7f0f	0.02093461
42	0x3de8ff54	0.11376825
43	0xba96ad9f	-0.0011495835
44	0xba320d96	-0.00067921856
45	0xbbfbc635	-0.00768354
46	0x3d2f6525	0.04282107
47	0x3b6a7616	0.003577595
48	0x3bfb88a4	0.007676201
49	0xbb09a25c	-0.0021001315
50	0x3c9597b0	0.018260807
51	0x3abaf16c	0.0014262623
52	0xbab380f0	-0.0013695043
53	0x3d8b9379	0.068152376
54	0xbd8873d0	-0.066627145
55	0x3e047c99	0.12938155
56	0x3b81099f	0.0039379145
57	0xbdcc6b55	-0.099814095
58	0xbbdb8762	-0.0066994885
59	0x3c0137d1	0.007886843
60	0xba824dc6	-0.0009941391
61	0x3dc7fc6d	0.09764943
62	0xbd389890	-0.04506737
63	0x3a32b849	0.0006817622
64	0xbc1ed2f6	-0.009693852
65	0xbc18b004	-0.009319309
66	0xbd2e4522	-0.0425464
67	0xbc5ed24b	-0.013599942
68	0x3d2f7854	0.042839363
69	0xbc382952	-0.01124032
70	0xbd93f792	-0.07224955
71	0xbde600e6	-0.1123064
72	0xbbb20b53	-0.005433479
73	0x3e361e89	0.17785086
74	0xbe38ba9b	-0.18039934
75	0x3e451286	0.19245347
76	0x3b2c5028	0.0026292894
77	0xbda1b706	-0.07896237
78	0x3c657429	0.0140047455
79	0x3c20101a	0.009769464
80	0x3ba9dc81	0.005183757
81	0xbcea32c6	-0.028588664
82	0xbc457b4d	-0.012053323
83	0x3afa98b9	0.0019119001
84	0x3abdc30a	0.0014477682
85	0xbad4b5a2	-0.0016228447
86	0x3cae595f	0.02128285
87	0x3bfa9390	0.0076469854
88	0xbd0e47e1	-0.034736518
89	0x3ab183f9	0.0013543359
90	0x3cdd7461	0.027033033
91	0xbad4f124	-0.0016246182
92	0x3bae9637	0.0053279656
93	0x3d1a4471	0.037662927
94	0xbbf41a4a	-0.007449423
95	0x3a9985f5	0.0011712896
96	0x3a9d4ae6	0.0012000471
97	0xbddf96a0	-0.10917401
98	0xbbecbedd	-0.007224901
99	0x3b3905ff	0.0028232334
100	0x3cb35ab8	0.021893844
101	0x3e437338	0.19086921
102	0xbdde81ff	-0.108646385
103	0x3c877d1d	0.01653915
104	0xbbcfebbc	-0.0063452404
105	0x3aa5f22d	0.0012660675
106	0xbd8bbb05	-0.068227805
107	0x3bc606ac	0.006043276
108	0x3dee3e6d	0.116330005
109	0xbbb7a75a	-0.0056046667
110	0xbe364f6a	-0.17803732
111	0xbe09edef	-0.1346967
112	0xbc059e82	-0.008155467
113	0x3f078524	0.5293753
114	0x3da289fb	0.07936474
115	0xbeb59903	-0.354683
116	0x3861410c	5.370476e-05
117	0x3e19723c	0.14984983
118	0xbc683fe3	-0.014175388
119	0xb88b9161	-6.6551154e-05
120	0xbc67e00e	-0.01415254
121	0x3b097378	0.0020973366
122	0xbdfbb6de	-0.122907385
123	0xbc362c58	-0.011118971
124	0xbc0b8f01	-0.0085179815
125	0xbc7698f5	-0.015051116
126	0xbbf72389	-0.007542078
127	0xbc58376f	-0.01319681
128	0x3cbb4539	0.022860156
129	0xbc72e376	-0.014824739
130	0x3d9f0d03	0.07766154
131	0xbd588612	-0.052862234
132	0x3c3b62f9	0.011437171
133	0x3eebc6ab	0.4605001
134	0xbd6a3915	-0.057183344
135	0xbe12e821	-0.14346363
136	0xbb2d6f93	-0.0026464208
137	0xbd5521d8	-0.05203423
138	0x3c3af388	0.011410601
139	0x3c8ae4ae	0.016954746
140	0xbb9645c0	-0.0045859516
141	0xbcce42de	-0.02517837
142	0xbc02f286	-0.007992392
143	0xbbf3a08e	-0.007434911
144	0xbb4ecebb	-0.0031556326
145	0xbc0ce908	-0.008600481
146	0x3bd800d8	0.0065918975
147	0xbb807d3b	-0.0039211786
148	0xbcca8276	-0.024720412
149	0xbb05f2ca	-0.0020438903
150	0x3caa5bd7	0.020795746
151	0x3d01ae8d	0.031660605
152	0x3b6537ef	0.0034975966
153	0xbd36fa11	-0.044672076
154	0x3c71c917	0.014757416
155	0x3d238f12	0.039931364
156	0x3b33e695	0.002745067
157	0xbcd7884b	-0.026310107
158	0x3b63151e	0.0034650038
159	0x3befc41a	0.0073170783
160	0xbabc4a4d	-0.0014365405
161	0x3d0ee3d3	0.03488524
162	0x3d03ca92	0.032175608
163	0xbb3c79e0	-0.0028759167
164	0xba527658	-0.0008028499
165	0xb9f96815	-0.00047570528
166	0xbc3b0d93	-0.011416811
167	0xbb1311d9	-0.0022441058
168	0xbd01ef9c	-0.03172265
169	0x3b21ae39	0.0024670495
170	0x3ca8adfd	0.020590777
171	0xbc2e0a45	-0.010622566
172	0xbb2b64c5	-0.0026152593
173	0xbd91bf6f	-0.07116591
174	0xbd447ca6	-0.047970437
175	0x3da553e3	0.08072641
176	0x3b125f43	0.0022334612
177	0xbe09ad00	-0.134449
178	0x3a9b3845	0.0011842331
179	0xb95cc6b9	-0.00021054865
180	0xbb803d2e	-0.003913543
181	0x3d7c47e0	0.061591983
182	0x3e1680ce	0.14697573
183	0x3a1ab3ae	0.0005901408
184	0x3b4a15d2	0.003083576
185	0x3ac8d8cc	0.00153234
186	0x3af866ba	0.0018951513
187	0x3b1a87c8	0.0023579467
188	0x3d20d778	0.039267987
189	0x3be04613	0.006844291
190	0x3dc8e3f7	0.09809106
191	0x3d06561d	0.032796968
192	0x3b84d023	0.004053132
193	0xbe08ea5c	-0.13370651
194	0xbb206eb9	-0.0024480058
195	0x3dba5267	0.09097748
196	0xbb81c687	-0.003960434
197	0xbc4bda4c	-0.012442183
198	0x39554bab	0.00020341451
199	0xbabf3f7d	-0.0014591065
200	0xbc67cbae	-0.014147682
201	0x3dbd6dc9	0.092494555
202	0x3f0978b6	0.53699815
203	0xbab66249	-0.0013914789
204	0x3b4c45ef	0.0031169613
205	0xbba664fb	-0.005077956
206	0xbe64c52a	-0.22340837
207	0xbc935573	-0.017985081
208	0x3deb01f2	0.114749804
209	0x3c0f6d9a	0.008754158
210	0xbed2d11b	-0.4117516
211	0xbec5de80	-0.38646317
212	0xbb37bd08	-0.0028036255
213	0xbdc2aecb	-0.09505995
214	0xbdc6d9f9	-0.09709544
215	0x3e56a37a	0.20960799
216	0x3c118235	0.008881141
217	0xbdcbc04e	-0.099487886
218	0x3c97a98f	0.018513469
219	0x3ad7581d	0.0016429458
220	0xbc828c4d	-0.015936041
221	0x3ecc1a67	0.39863893
222	0xbd6c9390	-0.057757914
223	0xbce689a3	-0.028141802
224	0xbc818640	-0.015811086
225	0xbbb0742d	-0.005384943
226	0xbe45395c	-0.19260162
227	0xbcf92e46	-0.030417573
228	0x3e0adf90	0.13561845
229	0xbc2e4967	-0.010637618
230	0xbd859641	-0.06522799
231	0xbeb6bd2d	-0.35691205
232	0xbc39dd24	-0.011344228
233	0xbcf15037	-0.029457195
234	0x3db2c551	0.08729041
235	0xbb2132a6	-0.002459684
236	0x3c0a7ca8	0.008452572
237	0xbdbaadc0	-0.091151714
238	0x3cde2a46	0.027119767
239	0xba4fef0f	-0.0007932046
240	0xbbcb69f0	-0.006207697
241	0x3dba15cf	0.09086191
242	0x3dd776a1	0.105206735
243	0xbc82b31e	-0.01595455
244	0xbbc7ad35	-0.006093646
245	0xbc02513b	-0.007953937
246	0x3c38f164	0.011288021
247	0xbc4165a7	-0.011804021
248	0xbad57692	-0.0016285947
249	0x3a0b7df8	0.00053212
250	0x3d98e3ed	0.074653484
251	0xbcbc52ea	-0.022988755
252	0xbb9e0cac	-0.004823288
253	0x3e1cf655	0.15328343
254	0xbdfc9950	-0.123339295
255	0x3e351419	0.17683448

prop_layer.GRU.weight_hh_l0 f4 [30, 10]
0	0x3b1ea95d	0.0024209835
1	0xbb86a061	-0.004108474
2	0xbbf51757	-0.007479589
3	0x3cc2275f	0.023700414
4	0x3c819307	0.015817178
5	0x3c2fda30	0.010733172
6	0x3be159e4	0.006877171
7	0x3c895e97	0.016768737
8	0x3c933507	0.017969621
9	0x3b9f4676	0.0048606945
10	0xbc9cea73	-0.019154763
11	0xbaa63227	-0.0012679741
12	0x3bb83459	0.0056214747
13	0x3d590aaa	0.052988686
14	0x3d4b902d	0.049698044
15	0x3c1657a9	0.009176173
16	0x3cdd11de	0.026986059
17	0x3d0a4690	0.0337587
18	0x3bc59c0f	0.0060305665
19	0x3d2558d3	0.040367913
20	0x3c8244d2	0.015901957
21	0xbb702e66	-0.003664875
22	0xbcff166b	-0.03113862
23	0x3d59c317	0.053164568
24	0x3cc835ce	0.024439719
25	0x3c9bdc4d	0.019025946
26	0x3d04abd5	0.032390434
27	0x3ce608ed	0.028080428
28	0x3bf10ac1	0.0073560183
29	0xbba27edc	-0.0049589705
30	0x3d533cd7	0.051571693
31	0x3d12492a	0.035714306
32	0xbc2101e3	-0.00982711
33	0xbda9eca1	-0.082970865
34	0xbdac3826	-0.08409147
35	0xbae5de85	-0.001753763
36	0x3d394d3e	0.04523968
37	0xbd852ea8	-0.065030396
38	0x3c473267	0.012158013
39	0xbc93643a	-0.017992128
40	0xbc8d3b1d	-0.017240101
41	0x3a9e64c4	0.0012084474
42	0xba969c0f	-0.0011490601
43	0x3d2ee37e	0.042697422
44	0x3c80b980	0.015713453
45	0x3b5b5e73	0.0033473044
46	0x3d0cf4dd	0.034413207
47	0x3c1dc97f	0.00963056
48	0x3b253498	0.002520835
49	0xbba2bf29	-0.0049666357
50	0x3dc7cdc0	0.097560406
51	0x3c9096ce	0.017650034
52	0x3d17584a	0.036949433
53	0xbe75503c	-0.23956388
54	0xbe192f47	-0.14959441
55	0xbc9fb899	-0.019497203
56	0x3e4789b9	0.19486131
57	0x3d244308	0.04010299
58	0xbd90b76f	-0.07066237
59	0x3d928292	0.071538106
60	0xbe000026	-0.12500057
61	0xbd9fe963	-0.07808187
62	0xbd29a269	-0.041414652
63	0xbdc6c66a	-0.09705813
64	0x3d57d9d7	0.052697983
65	0x3d70267d	0.058630455
66	0x3cd031e5	0.025414417
67	0xbd873cdb	-0.06603404
68	0x3c217e62	0.009856792
69	0x3d047f10	0.03234774
70	0xbac2bbf8	-0.0014857044
71	0xbc203172	-0.009777414
72	0xbc8fb6cb	-0.017543217
73	0x3c87d26d	0.016579831
74	0x3cd20da8	0.025641277
75	0x3ca6832d	0.020326221
76	0xbd056710	-0.03256899
77	0x3ceb256e	0.028704371
78	0x3c99a2f1	0.018754454
79	0x3aa4cfca	0.0012574133
80	0xbc44315b	-0.011974658
81	0x3c28dd48	0.010306664
82	0xbc2ab9bb	-0.010420258
83	0xbd09bb0f	-0.03362566
84	0x3cbc222d	0.022965515
85	0x3cb251f1	0.021767588
86	0xbcc4fbee	-0.02404591
87	0xbb481e9a	-0.0030535818
88	0xbcfacb98	-0.03061466
89	0xbbdda624	-0.0067641903
90	0xbcc8078a	-0.024417657
91	0x3ca1c238	0.019745931
92	0xbd01eab6	-0.03171798
93	0x3cea5b46	0.028607976
94	0x3dc79d4d	0.097467996
95	0x3c9dcd10	0.01926282
96	0xbd9abac9	-0.07555158
97	0x3d4a6872	0.049416013
98	0xbc59f961	-0.0133040855
99	0x3d1ed90b	0.038781207
100	0xbdaea608	-0.08527762
101	0xbd0e90e6	-0.034806155
102	0xbdb44bf3	-0.08803549
103	0x3ba17ea0	0.004928425
104	0xbdd47b7b	-0.103751145
105	0xbe2a7913	-0.16647749
106	0x3e375952	0.17905167
107	0xbe3e5673	-0.18587665
108	0x3d9527df	0.072829954
109	0x3d1e418a	0.03863672
110	0xbd95920a	-0.07303245
111	0xbc298c17	-0.010348341
112	0xbca6798f	-0.020321636
113	0x3b93ac4b	0.004506623
114	0x3d809240	0.06277895
115	0xbc6d3260	-0.014477342
116	0x3d795b4d	0.060878087
117	0xbd9b7747	-0.0759111
118	0xbd92efe9	-0.071746655
119	0xbd941e20	-0.072323084
120	0x3cf0ea0e	0.029408481
121	0xbcb5d894	-0.022197999
122	0xbddc6c2f	-0.10762822
123	0x3e181274	0.1485079
124	0x3d8133d7	0.06308716
125	0x3cdd98b5	0.027050355
126	0x3db89392	0.09012522
127	0x3d7034ee	0.058644228
128	0xbbbc182d	-0.0057401867
129	0xbd0f7aca	-0.03502921
130	0xbbdc3614	-0.006720314
131	0xbe0ca15a	-0.13733426
132	0x3e538315	0.20655473
133	0xbef878c1	-0.48529628
134	0xbe1d60a6	-0.153689
135	0x3ddb897b	0.10719582
136	0xbecb55c1	-0.39713863
137	0xbe3a6c89	-0.18205465
138	0x3ccfb5d6	0.02535526
139	0x3e21aa4b	0.15787618
140	0xbcfc5ca7	-0.030805899
141	0x3d26fe43	0.040769827
142	0x3d80304e	0.062592134
143	0xbce6ba69	-0.02816506
144	0xbddc76da	-0.10764857
145	0xbc245101	-0.010029078
146	0x3d77bebd	0.060484637
147	0xbd61aa73	-0.055094194
148	0xbcb9a59d	-0.022661978
149	0xbdd60ee7	-0.10452061
150	0x3c89e8b6	0.016834598
151	0xbc2a254a	-0.010384867
152	0xbd0547d2	-0.032539196
153	0x3e129483	0.14314465
154	0x3b80aca8	0.003926832
155	0xbca01f0b	-0.019546052
156	0x3dbcbf02	0.09216119
157	0x3d86afc1	0.06576491
158	0x3c59c8fd	0.013292548
159	0xbc7dec72	-0.0154982675
160	0xbcfd0bc2	-0.030889396
161	0xbd8adce3	-0.06780412
162	0x3d85f681	0.065411575
163	0x3be9e4a1	0.0071378504
164	0x3cf20aae	0.029546108
165	0xbdb7f513	-0.08982291
166	0x3cd47779	0.025935875
167	0x3dc020a1	0.093812235
168	0xbdfe5f35	-0.12420503
169	0x3c879b58	0.016553566
170	0xbe5078a4	-0.20358521
171	0xbd910a85	-0.070820846
172	0x3d308373	0.04309411
173	0x3d3e32e0	0.046435237
174	0x3e12cd21	0.14336063
175	0x3df779b8	0.12083763
176	0xbc9676e1	-0.018367233
177	0x3ba64f65	0.0050753825
178	0xbcd19a56	-0.025586288
179	0x3c16c2d3	0.009201723
180	0x3d454d01	0.04816914
181	0x3c493613	0.012280959
182	0xbcd6a3b3	-0.026201105
183	0xbb72154e	-0.0036938968
184	0x3d41d87d	0.0473256
185	0x3b9f1907	0.0048552784
186	0xbd6adc41	-0.057338957
187	0x3b8bac4a	0.004262482
188	0xbd8381fc	-0.06421277
189	0x3cadc8e7	0.021213962
190	0xbe4610cb	-0.19342344
191	0xbc454d63	-0.012042376
192	0x3c37742f	0.011197134
193	0x3e1471e2	0.14496568
194	0x3ccc8a81	0.024968388
195	0xbd29275e	-0.04129731
196	0x3e52d8ea	0.20590559
197	0x3d771866	0.060326003
198	0xbd30a2a4	-0.043123856
199	0xbe01390c	-0.12619418
200	0x3db383f7	0.08765405
201	0xbe05b3c3	-0.13056855
202	0x3d1fa6aa	0.038977303
203	0x3d2d66d2	0.042334385
204	0xbdf00a76	-0.11720745
205	0x3e03df46	0.12878141
206	0x3cd8737d	0.026422257
207	0xbe33b2a3	-0.17548613
208	0xbd9c4b43	-0.076315425
209	0x3dcf82da	0.1013238
210	0xbe4d1de0	-0.20030928
211	0xbb9984b2	-0.004685008
212	0x3dc80687	0.0976687
213	0x3dc5cbd1	0.096580155
214	0x3cc2ef5f	0.023795782
215	0x3dc4091c	0.0957205
216	0x3e7bc520	0.24586916
217	0xbd4854ab	-0.04890887
218	0x3cf67b8a	0.030088205
219	0x3cf36db9	0.029715406
220	0xbe71f933	-0.23630218
221	0x3dad2258	0.08453816
222	0x3e385808	0.18002331
223	0xba959df6	-0.0011414874
224	0x3df78b5f	0.1208713
225	0xbd2e3a0b	-0.042535823
226	0xbcfc11e0	-0.030770242
227	0xbe1bb4be	-0.15205666
228	0xbd4491da	-0.047990657
229	0x3d611d85	0.054959793
230	0xbda44c55	-0.08022372
231	0x3c4bd4f0	0.012440905
232	0xbe3d1b11	-0.18467356
233	0x3e99c4c2	0.30032927
234	0x3ed07e7e	0.40721506
235	0x3d94aad5	0.07259146
236	0xbd70ed48	-0.05882004
237	0x3df47101	0.11935616
238	0xbda1ef97	-0.07907026
239	0x3de7105c	0.11282417
240	0xbd871165	-0.065951146
241	0x3cdaf6da	0.026729036
242	0x3de9e07c	0.1141977
243	0x3d42c287	0.047548797
244	0x3d729139	0.059220526
245	0x3aeff9df	0.001830872
246	0x3deba344	0.1150575
247	0x3e216b2c	0.15763539
248	0x3d6cdc5d	0.057827342
249	0x3c56608f	0.013084545
250	0x3cffd63c	0.031230085
251	0x3d65e171	0.0561232
252	0x3cf5b855	0.029995123
253	0xbf122c30	-0.57098675
254	0x3d1b2858	0.03788027
255	0x3da3f6d4	0.08006063

prop_layer.GRU.bias_ih_l0 f4 [30]
0	0x3c40cebd	0.01176804
1	0x3cedff20	0.029052317
2	0x3cd62d56	0.026144665
3	0x3dc4593f	0.09587335
4	0x3b881606	0.004153016
5	0x3e0c762d	0.13716955
6	0x3e26ec21	0.16301014
7	0x3c92aa02	0.017903332
8	0x3cfb0347	0.030641211
9	0x3ca01b30	0.019544214
10	0xbea0af30	-0.31383657
11	0xbe3fec2e	-0.18742439
12	0xbd6e4b7b	-0.058177453
13	0x3eef5430	0.46743917
14	0x3d8ec878	0.0697183
15	0xbdda7067	-0.1066597
16	0x3e894ea0	0.268178
17	0xbd888af0	-0.06667125
18	0x3be4c255	0.006981174
19	0xbde0bc15	-0.10973374
20	0xbe084a84	-0.13309675
21	0x3e3099cf	0.17246173
22	0xbda89e76	-0.08233349
23	0xbefaae97	-0.48961326
24	0x3cf3762a	0.029719431
25	0x3f2eb454	0.6824391
26	0xbecae7d9	-0.3963001
27	0x3ec53113	0.38514003
28	0xbee6f5e1	-0.45109466
29	0x3e9eb346	0.3099615

prop_layer.GRU.bias_hh_l0 f4 [30]
0	0x3c40cebd	0.01176804
1	0x3cedff20	0.029052317
2	0x3cd62d56	0.026144665
3	0x3dc4593f	0.09587335
4	0x3b881606	0.004153016
5	0x3e0c7fcd	0.13720627
6	0x3e26ec05	0.16300972
7	0x3c92aa02	0.017903332
8	0x3cfb0347	0.030641211
9	0x3ca01b30	0.019544214
10	0xbe9ff3d5	-0.31240717
11	0xbe3feba4	-0.18742234
12	0xbd6e4b7b	-0.058177453
13	0x3ef2e36a	0.47439128
14	0x3d8ec60d	0.06971369
15	0xbdda7067	-0.1066597
16	0x3e895379	0.26821497
17	0xbd884874	-0.06654444
18	0x3be4befd	0.0069807754
19	0xbde0bc3f	-0.10973405
20	0x3b6a6b7f	0.003576964
21	0x3de5238b	0.1118842
22	0xbd8cc41e	-0.06873344
23	0xbe486a01	-0.19571687
24	0x3d9c3264	0.07626799
25	0x3f0f0e7b	0.5588147
26	0xbdf1ff2d	-0.11816249
27	0x3e0179d1	0.12644126
28	0xbe1d02fa	-0.15333167
29	0x3e362101	0.17786027

interaction_layer.0.weight f4 [20, 20]
0	0xbd8028eb	-0.062578045
1	0x3d3f528f	0.046709593
2	0xbe1f6479	-0.15565671
3	0x3ebce963	0.3689681
4	0x3e918ffc	0.28430164
5	0xbdeb6c25	-0.11495236
6	0x3ef79b51	0.48360685
7	0x3dac3666	0.08408813
8	0xbd24a038	-0.04019186
9	0x3d0e4fa2	0.034743913
10	0x3ec0a7a3	0.37627897
11	0x3cb380d8	0.021912023
12	0x3e42cc41	0.19023229
13	0xbe4efbae	-0.20213196
14	0xbe2e1f77	-0.1700419
15	0xbe284980	-0.16434288
16	0xbe2af0f6	-0.16693482
17	0xbe45f6d9	-0.19332446
18	0x3d4b8ed3	0.049696755
19	0xbe974503	-0.2954484
20	0x3dd8d40a	0.10587318
21	0x3e36c1f6	0.17847428
22	0x3b193a5f	0.002338074
23	0x3eab96b6	0.3351342
24	0x3e81d6ba	0.25359136
25	0xbd8eff7f	-0.06982326
26	0xbd99659e	-0.07490085
27	0x3dc940eb	0.09826835
28	0xbdfe17bf	-0.12406873
29	0x3dba6878	0.09101957
30	0x3e4e8b99	0.2017044
31	0x3d96ab5d	0.07356904
32	0x3e2218b1	0.15829732
33	0xbe19e3c1	-0.15028287
34	0x3cdfc4db	0.027315548
35	0x3e10331d	0.14081998
36	0xbe3fcc6c	-0.18730325
37	0xbc15de7c	-0.009147283
38	0x3e7b835f	0.24561833
39	0x3e773f2f	0.24145196
40	0xaa6e962f	-2.1190752e-13
41	0xa7f2ae71	-6.7357623e-15
42	0xa6b8d099	-1.2824105e-15
43	0xa8a6aef5	-1.8505578e-14
44	0x2aa34da2	2.9008485e-13
45	0x28bd22e4	2.0998347e-14
46	0xa5c617ea	-3.436373e-16
47	0xadb7f9f9	-2.0915701e-11
48	0xb0c51cb3	-1.4341793e-09
49	0xa7929bea	-4.0692183e-15
50	0xaa1562f6	-1.3268192e-13
51	0xa5c3c53f	-3.3960767e-16
52	0xa48695e6	-5.8367174e-17
53	0xa60ab149	-4.8118634e-16
54	0xa9248d2a	-3.6537756e-14
55	0xa17bf361	-8.5364217e-19
56	0xa1cb6513	-1.3782569e-18
57	0xaa952ac2	-2.6497386e-13
58	0xafa7d60e	-3.0529218e-10
59	0xa19a59b9	-1.0459195e-18
60	0xbcd8394d	-0.02639451
61	0xbcdaaf24	-0.026694842
62	0xbe02b054	-0.12762576
63	0xbed6b4af	-0.41934726
64	0xbdda8cbb	-0.106713735
65	0xbe265efe	-0.16247174
66	0x3d9882fa	0.07446857
67	0xbe806507	-0.25077078
68	0xbd178541	-0.036992315
69	0x3d07334e	0.033007912
70	0x3e804da0	0.25059223
71	0x3d63fef2	0.055663057
72	0x3d1822fe	0.037142746
73	0x3f0f0b37	0.5587649
74	0x3e27bbce	0.16380236
75	0xbdcba0bd	-0.09942768
76	0x3db566d3	0.08857503
77	0x3e9731f6	0.29530305
78	0x3e1ee624	0.15517479
79	0xbcbd9e45	-0.023146758
80	0xbd4cc783	-0.049994957
81	0xbddabe7b	-0.106808625
82	0xbcd82cbd	-0.02638852
83	0x3e38cdbe	0.18047234
84	0xbdbbf174	-0.09176913
85	0xbe7a8062	-0.24463037
86	0x3e8f8bd5	0.2803637
87	0xbe787010	-0.24261498
88	0xba99184c	-0.0011680215
89	0x3e3b2717	0.1827663
90	0x3c1e1806	0.009649282
91	0x3dcd7229	0.1003154
92	0x3e36319d	0.17792363
93	0x3db960c7	0.09051662
94	0x3d368d36	0.044568263
95	0x3dcb87be	0.09938
96	0x3e4ff566	0.20308456
97	0xbe0d03ac	-0.13770932
98	0x3da771fb	0.08176037
99	0xbcef0c17	-0.02918057
100	0x3ea9391b	0.3305138
101	0x3c9824b4	0.018572189
102	0xbdce97bb	-0.10087534
103	0x3d74ccc5	0.059765596
104	0xbeb2a0e0	-0.34888363
105	0xbe752816	-0.23941073
106	0xbe7991b8	-0.24371994
107	0x3da1683b	0.078812085
108	0x3e55405a	0.2082533
109	0x3e4597bf	0.19296168
110	0x3e446b8c	0.19181651
111	0x3c7140c1	0.014724911
112	0x3b36aeea	0.0027875253
113	0xbcc32455	-0.023821035
114	0xbd935235	-0.07193414
115	0xbdb61262	-0.08890225
116	0xbd48e285	-0.04904415
117	0x3e570efd	0.21001811
118	0x3e5f1433	0.21785049
119	0x3ea641a3	0.32471952
120	0x3b701a56	0.0036636791
121	0xbe830a1e	-0.25593656
122	0x3e4c466e	0.19948742
123	0xbef4dbb6	-0.47823876
124	0xbe518c69	-0.20463718
125	0x3e27504b	0.16339223
126	0xbec4935e	-0.38393682
127	0x3e4a8c0a	0.19779983
128	0xbe82669b	-0.25468907
129	0x3d747371	0.059680406
130	0x3d0969bf	0.033548113
131	0x3c66f6c0	0.014096916
132	0xbd97ba80	-0.07408619
133	0xbe29fe1d	-0.16600843
134	0x3dc74f5f	0.09731936
135	0x3ec691f6	0.38783234
136	0x3d58737c	0.05284451
137	0x3d5ce3a5	0.053928036
138	0xbe1b8ae2	-0.15189698
139	0x3cd9b8a6	0.026577305
140	0x3d96e613	0.07368102
141	0x3e1192eb	0.14216201
142	0x3e14f0bb	0.14544956
143	0xbc0ec944	-0.008714978
144	0xbdecaab1	-0.11555994
145	0xbebd6be1	-0.36996368
146	0x3ce491da	0.027901579
147	0xbe603e8f	-0.21898864
148	0x3eb7b19a	0.35877687
149	0x3defcb86	0.11708741
150	0x3e7fd821	0.2498479
151	0x3e0dbf6a	0.1384255
152	0x3d5b4411	0.05353171
153	0x3e860354	0.26174414
154	0xbe5ca746	-0.21548185
155	0xbe147f29	-0.14501633
156	0x3dbf78aa	0.09349187
157	0xbe949a48	-0.29023957
158	0x3f1b3c4c	0.6063888
159	0xbe4cb3b5	-0.19990428
160	0x3e1d810d	0.1538126
161	0x3ee78d60	0.45225048
162	0xbe632197	-0.22180782
163	0xbe667cdd	-0.22508569
164	0x3ea7a94a	0.32746345
165	0xbe8450ea	-0.25842983
166	0x3f195443	0.598942
167	0xbe0b847a	-0.13624755
168	0x3d8af93e	0.067858204
169	0x3e10839d	0.14112706
170	0x3e2fb1d8	0.17157686
171	0x3d20bd7b	0.039243203
172	0x3de36cfd	0.11104772
173	0xbe030477	-0.12794672
174	0x3edcdf7d	0.43139258
175	0xbca1ace0	-0.019735754
176	0x3daa5c34	0.083183676
177	0xbe8f5462	-0.27994066
178	0x3de81f80	0.11334133
179	0x3e09a6e8	0.13442576
180	0xbe392494	-0.1808036
181	0xbe15ead3	-0.1464036
182	0x3dc92aa1	0.09822584
183	0x3dee849c	0.11646387
184	0x3d8ca99e	0.068682894
185	0x3d90a548	0.07062775
186	0x3db20d29	0.08693916
187	0x3ea48968	0.32136083
188	0x3e37e5dc	0.17958778
189	0x3dbd66e2	0.09248139
190	0xbe1fbb7e	-0.15598866
191	0xbe16117c	-0.14655107
192	0xbd8764ae	-0.06611
193	0x3e190675	0.1494387
194	0xbde8201c	-0.113342494
195	0xbe59a004	-0.21252447
196	0x3c73833c	0.014862832
197	0x3e38179e	0.17977759
198	0x3d8b8d32	0.0681404
199	0xbdc2b730	-0.095075965
200	0xbe23f3da	-0.1601099
201	0xbdcd2efe	-0.10018729
202	0x3d54ca4b	0.051950734
203	0x3ea1e231	0.31617883
204	0xbdfe1248	-0.124058306
205	0xbd81441d	-0.0631182
206	0x3e845e84	0.2585336
207	0xbe90605f	-0.28198525
208	0x3eb2da60	0.34932232
209	0xbecb37c9	-0.39690998
210	0xbe19f2bd	-0.15034004
211	0xbe168a1d	-0.14701124
212	0xbd477b5a	-0.04870162
213	0x3e746dc8	0.23870003
214	0xbe7dcc1e	-0.24784896
215	0xbd6cfb3b	-0.05785678
216	0x3e6f7131	0.23383023
217	0xbeabcf89	-0.33556774
218	0x3f02f174	0.5114968
219	0xbe3e586a	-0.18588415
220	0xbd3d98b4	-0.046288207
221	0xbccf1479	-0.025278317
222	0xbb6d220e	-0.0036183628
223	0xbd73f7f0	-0.059562624
224	0xbd81f71f	-0.06345963
225	0xbb2d72c9	-0.0026466122
226	0xba23c921	-0.0006247927
227	0xbde32307	-0.11090665
228	0xbcd6cbc9	-0.02622022
229	0xbd047842	-0.03234125
230	0xbd88f82c	-0.0668796
231	0xbd39c4b4	-0.045353606
232	0xbd404ac2	-0.046946295
233	0x3ccb04cc	0.02478256
234	0xbd8b1de5	-0.06792811
235	0xbcf70b65	-0.0301568
236	0x3c559945	0.013037031
237	0xbdaae2bf	-0.0834403
238	0x3ceb93e3	0.028757041
239	0x3ce3d0e1	0.027809562
240	0xbe034e3c	-0.12822813
241	0xbca0bc71	-0.019621106
242	0xbdb63c22	-0.08898188
243	0xbe7c08dc	-0.24612755
244	0x3e77513f	0.24152087
245	0x3f025a7b	0.5091931
246	0xbe146adf	-0.14493893
247	0x3e70ff95	0.23534997
248	0xbe8987a0	-0.26861286
249	0xbe06b173	-0.13153629
250	0xbe3a1a9c	-0.18174213
251	0xbeb96af2	-0.36214405
252	0xbc8262c6	-0.01591624
253	0x3d1af38f	0.03782993
254	0xbea1f29c	-0.3163041
255	0xbedbd7ee	-0.4293818

interaction_layer.0.bias f4 [20]
0	0x3d243aac	0.040095016
1	0xbdeed4f5	-0.11661712
2	0xb356ba3a	-4.999513e-08
3	0xbe84f78d	-0.25970116
4	0xbe678fc9	-0.22613443
5	0x3e1028e0	0.14078093
6	0x3dfe1197	0.12405699
7	0xbc66af5d	-0.014079896
8	0x3e679a32	0.22617415
9	0x3dadda84	0.08488944
10	0x3d12e109	0.03585914
11	0xbd1c39a5	-0.03814091
12	0x3f0eb8fd	0.5575102
13	0xbda32e07	-0.079677634
14	0xbdff073f	-0.12452554
15	0x3c200a10	0.009768024
16	0xbdcc3334	-0.09970704
17	0x3dc3fa29	0.09569199
18	0x3d52e428	0.051487118
19	0x3e164027	0.1467291

interaction_layer.2.weight f4 [10, 20]
0	0xbee4d985	-0.44697204
1	0x3cb00b86	0.02148987
2	0xb14a0f94	-2.9403724e-09
3	0x3e077736	0.13229069
4	0xbe8896d4	-0.26677573
5	0x3e7d56e9	0.24740185
6	0xbe0eef2a	-0.13958421
7	0xbdefb4d2	-0.117044106
8	0xbee8e91c	-0.45490348
9	0x3cd342d5	0.025788704
10	0xbe317985	-0.17331512
11	0x3ccab7e5	0.02474589
12	0xbf30ce99	-0.69065243
13	0xbe3b5c7f	-0.18297003
14	0xbec19684	-0.37810147
15	0x3e6fb99e	0.23410651
16	0xbe5551ad	-0.20831938
17	0x3e9c3471	0.3050876
18	0xbd74c34c	-0.059756562
19	0x3da1eb3b	0.07906195
20	0xbebc7c85	-0.3681375
21	0xbddfa542	-0.10920192
22	0x21757c74	8.317394e-19
23	0x3d50baa2	0.050959237
24	0xbd808150	-0.062746644
25	0xbcc6d25e	-0.024270233
26	0xbe9cd9ab	-0.30634817
27	0xbd98da28	-0.07463485
28	0x3da077d4	0.078353554
29	0xbe099561	-0.1343589
30	0x3d5d0d7c	0.053967938
31	0x3c7e3796	0.015516182
32	0xbdc84c6a	-0.097802
33	0xbe1cc81e	-0.15310714
34	0x3e587ff3	0.21142559
35	0xbe5ae27a	-0.21375456
36	0xbd542e5e	-0.05180203
37	0xbe101130	-0.14069057
38	0xbdd4189a	-0.10356255
39	0xbd574d67	-0.05256405
40	0xbc0cef27	-0.00860194
41	0xbe9919d4	-0.29902518
42	0xab4c9733	-7.268519e-13
43	0xbeacf976	-0.33784074
44	0xbdff7f4c	-0.12475452
45	0xbdbcd1f9	-0.092197366
46	0x3c1dc2d5	0.009628971
47	0x3ef2cbcf	0.4742112
48	0xbbf3ac94	-0.0074363444
49	0x3ddbe42f	0.10736882
50	0x3da90b6d	0.082541324
51	0xbbfbc325	-0.007683175
52	0x3dc21080	0.094758034
53	0xbdbb005a	-0.091309264
54	0xbe520434	-0.20509416
55	0x3d9fcfde	0.078033194
56	0xbe339bd2	-0.1753991
57	0xbf06d192	-0.5266353
58	0xbf072ddd	-0.52804357
59	0xbdee979d	-0.11650012
60	0xbeb07aff	-0.3446884
61	0x3b7431ce	0.0037261131
62	0xb2cbc3c3	-2.3721332e-08
63	0x3ed16e30	0.4090438
64	0x3daaed39	0.08346028
65	0xbe87821a	-0.26466447
66	0x3da29165	0.07937888
67	0xbeb5f29a	-0.35536653
68	0xbeb75a54	-0.35811102
69	0x3d64482a	0.055732884
70	0xbe95b0d7	-0.2923648
71	0x3c2d6865	0.010583972
72	0x3f3e69f3	0.74380416
73	0x3e2454c7	0.16047965
74	0x3c45c96e	0.01207195
75	0xbd991331	-0.074743636
76	0xbec7a79e	-0.3899507
77	0xbeb3da23	-0.35127363
78	0x3ee326fd	0.44365683
79	0x3c68ed67	0.014216757
80	0x3ead0fb3	0.3380104
81	0xbe218a13	-0.15775327
82	0xad59e20d	-1.2385215e-11
83	0x3e804348	0.25051332
84	0xbc0b843c	-0.008515414
85	0xbecc47a7	-0.39898416
86	0xbe15fda3	-0.14647536
87	0xbec91c09	-0.39279202
88	0x3e892137	0.26783153
89	0xbe5a63b8	-0.21327102
90	0xbefc2ca1	-0.492528
91	0xbdb31ab5	-0.08745328
92	0x3dc9f386	0.098609015
93	0xbe0ace98	-0.13555372
94	0x3e2d81c8	0.16944039
95	0xbe0bdae2	-0.13657716
96	0xbe1e0d12	-0.15434673
97	0x3e0b138c	0.13581675
98	0x3d686167	0.056733515
99	0x3e833d64	0.25632775
100	0x3bf0b458	0.0073457174
101	0xbed0e889	-0.4080241
102	0x2d01be45	7.375049e-12
103	0xbd3501f1	-0.044191305
104	0x3ca3d3c6	0.019998442
105	0xbee81653	-0.45329532
106	0x3e81d78a	0.25359756
107	0xbe860749	-0.26177433
108	0x3d901535	0.07035295
109	0x3e11924e	0.14215967
110	0x3e856afd	0.26058188
111	0xbd4c875e	-0.049933784
112	0xbe4a53fa	-0.19758597
113	0xbea35d21	-0.3190699
114	0xbecc9e55	-0.39964548
115	0x3ec4c335	0.3843018
116	0x3e3da264	0.18518978
117	0x3e7a49eb	0.2444226
118	0xbde8ceb7	-0.11367553
119	0xbe43b8b0	-0.19113421
120	0x3e94f280	0.29091263
121	0x3dad9134	0.08474961
122	0x2b55ede2	7.600293e-13
123	0x3ed186b4	0.40923083
124	0x3e9d5796	0.30730885
125	0x3aba8d81	0.0014232845
126	0x3d897007	0.06710821
127	0xbe1f793a	-0.15573588
128	0xbf1c9c6b	-0.61176175
129	0x3e991474	0.29898417
130	0x3eaed297	0.34145042
131	0x3c938396	0.018007081
132	0x3effe4d9	0.49979284
133	0xbd800d65	-0.06252555
134	0xbc37e039	-0.011222892
135	0xbf3232ac	-0.6960857
136	0xbcac1bda	-0.021009374
137	0x3e57aa0c	0.21060961
138	0x3dea67ff	0.11445617
139	0xbe8f7fa0	-0.28027058
140	0x3c99ff52	0.018798504
141	0xbda2ef44	-0.079557925
142	0x308d9fbb	1.0304498e-09
143	0xbe9f8e34	-0.3116318
144	0xbc7fceb8	-0.01561325
145	0x3e46475e	0.19363162
146	0x3ee1bab1	0.44087747
147	0xbefd28f6	-0.49445313
148	0xbe0c6026	-0.13708553
149	0x3de55599	0.11197967
150	0xbeadc5e7	-0.3394005
151	0x3ca25107	0.019814027
152	0xbd3bfff6	-0.0458984
153	0x3d4a19a0	0.049340844
154	0x3d890024	0.0668948
155	0xbe1d3bb7	-0.1535481
156	0xbe49d50b	-0.19710176
157	0xbdd890ee	-0.10574518
158	0xbe20b7c0	-0.15695095
159	0x3e9b3394	0.30312788
160	0x3ba18986	0.004929724
161	0x3e744d9c	0.2385773
162	0xa9557082	-4.7393086e-14
163	0xbe21674f	-0.15762065
164	0x3e089e33	0.13341598
165	0xbe7343fa	-0.237564
166	0x3bc0065b	0.0058601326
167	0xbe5e3baf	-0.21702455
168	0xbe3e5ccc	-0.18590087
169	0x3e55553e	0.20833299
170	0x3e37dd18	0.17955434
171	0x3d21b25d	0.03947674
172	0xbe909b02	-0.28243262
173	0x3e212315	0.15736039
174	0x3e9c6411	0.30545095
175	0x3e7ed997	0.24887691
176	0x3da15f04	0.07879451
177	0xbc88b7dc	-0.016689233
178	0xbe016423	-0.12635855
179	0xbeef9f4d	-0.46801224
180	0x3d9c1f32	0.076231375
181	0x3e380fab	0.17974727
182	0xaed3accf	-9.625866e-11
183	0x3dd847d9	0.10560579
184	0xbe844717	-0.25835487
185	0x3de48ba4	0.11159447
186	0xbefb8f96	-0.49132985
187	0x3da96a68	0.082722485
188	0x3eb1c5b0	0.34721136
189	0x3e9585c9	0.29203632
190	0xbf00c294	-0.502969
191	0xbda8b728	-0.08238059
192	0xbd34afbe	-0.044112913
193	0xbdfd5cad	-0.12371192
194	0xbea18322	-0.3154536
195	0xbe799cc2	-0.24376205
196	0x3e073c91	0.13206698
197	0x3dae1b0c	0.085012525
198	0xbe84634c	-0.25857008
199	0xbf0027e1	-0.5006085

interaction_layer.2.bias f4 [10]
0	0x3e5b4fa0	0.21417093
1	0x3e51a9c7	0.20474921
2	0x3e2e1c7c	0.17003053
3	0xbe77558c	-0.24153727
4	0x3e8b3881	0.27191547
5	0x3e71374e	0.23556253
6	0xbc98906e	-0.018623557
7	0x3eb27eee	0.34862465
8	0x3e4666a1	0.19375087
9	0x3de4b543	0.111673854

scoring_alignment_preprocessor.0.weight f4 [16, 10]
0	0xbdeeab2c	-0.11653742
1	0xbeb9cc37	-0.36288616
2	0x3d6e2138	0.05813715
3	0xbdaa14dc	-0.0830476
4	0xbd5763a6	-0.052585267
5	0x3e60cdc1	0.21953489
6	0x3e0eb285	0.13935287
7	0x3e37ac76	0.17936882
8	0x3c3c2652	0.011483746
9	0xbea4002a	-0.32031375
10	0xbd385ee6	-0.045012377
11	0x3d9165de	0.07099508
12	0xbdf8b5b3	-0.121440314
13	0xbb6bfbf0	-0.003600832
14	0x3bea23a1	0.0071453606
15	0xbe57fa73	-0.21091633
16	0xbe2b32ff	-0.16718672
17	0x3e1efd62	0.15526345
18	0xbdb7232b	-0.08942255
19	0x3f0d3045	0.5515178
20	0x3f0e7404	0.55645776
21	0x3e9cced4	0.30626547
22	0x3e1af295	0.151316
23	0xbdfb4b30	-0.122702
24	0xbb11edbe	-0.002226695
25	0x3ee113c5	0.43960395
26	0xbd0f37ff	-0.03496551
27	0x3e9a6e35	0.30162206
28	0xbe4e2f58	-0.20135248
29	0x3d79493b	0.060860854
30	0x3d9bc760	0.07606387
31	0x3f02a0e2	0.5102674
32	0xbd0931dc	-0.033494815
33	0x3d8ee8f3	0.06978025
34	0x3eafd198	0.34339595
35	0xbe6ab584	-0.22920805
36	0x3b8fb0ee	0.0043851053
37	0xbe7886d3	-0.24270181
38	0x3d1c05ce	0.038091473
39	0x3f01dfa4	0.50731874
40	0x3e53eb3a	0.206952
41	0x3e471470	0.1944139
42	0x3de417d0	0.111373544
43	0xbd634400	-0.05548477
44	0xbe1af165	-0.15131147
45	0xbedeeab7	-0.43538448
46	0xbe543be4	-0.20725971
47	0x3d6beae5	0.05759706
48	0x3d2148eb	0.03937618
49	0x3ed99449	0.42495945
50	0x3f1835b3	0.5945694
51	0xbd581776	-0.05275675
52	0xbdd6757e	-0.104716286
53	0xbd10d79f	-0.035361882
54	0xbe02f7aa	-0.12789789
55	0x3ef48911	0.47760823
56	0x3eaacddd	0.33360186
57	0xbdf7211d	-0.12066863
58	0xbdf07643	-0.11741307
59	0x3ec938e3	0.39301214
60	0xbe513d05	-0.20433433
61	0x3db5651a	0.08857174
62	0xbcb18579	-0.02167009
63	0xbe968ced	-0.29404393
64	0x3e86fb64	0.2636367
65	0x3dfbde70	0.12298286
66	0xbdfbb6a5	-0.12290696
67	0x3f005134	0.50123906
68	0xbe4f9a6a	-0.20273748
69	0x3dd85461	0.10562969
70	0xbec98728	-0.3936093
71	0x3d8f6885	0.070023574
72	0xbd00aa8c	-0.031412646
73	0x3dd58809	0.10426337
74	0x3eac9f11	0.33715108
75	0x3e0e96a7	0.13924657
76	0x3ebaa4ab	0.36453757
77	0xbe44bbd4	-0.19212276
78	0x3e2fb7e6	0.17159995
79	0xbe8df238	-0.2772386
80	0x3ed39af7	0.41329166
81	0x3e5d7457	0.21626411
82	0x3f15290e	0.5826577
83	0x3d962c17	0.07332628
84	0xbd181276	-0.03712698
85	0xbe29271a	-0.16518822
86	0xbd5ddff5	-0.05416866
87	0x3da1da79	0.079029985
88	0x3e5bca1b	0.21463816
89	0xbe9d709d	-0.3074998
90	0x9443f85c	-9.893964e-27
91	0x94266a21	-8.4017885e-27
92	0x932017a8	-2.0206503e-27
93	0x13fbcd46	6.3563723e-27
94	0x936f6f0b	-3.022079e-27
95	0x94395313	-9.356497e-27
96	0x135ce7d5	2.7882206e-27
97	0x13fbde76	6.358067e-27
98	0x94cc5505	-2.063227e-26
99	0x922b6d80	-5.4093055e-28
100	0xbc9470a5	-0.01812012
101	0x3bcb8948	0.0062114336
102	0x3e56e4f2	0.20985773
103	0x3e01d651	0.12679411
104	0xbd702c9d	-0.058636297
105	0xbebfa0c8	-0.37427354
106	0xbe0dabfc	-0.13835138
107	0xbd63ae82	-0.055586345
108	0x3be159c2	0.006877155
109	0x3cdf5b5d	0.027265245
110	0xbdf66941	-0.12031794
111	0x3eabc67d	0.33549872
112	0xbcc2dc68	-0.023786739
113	0xbec7c85f	-0.3902006
114	0x3f0d4a06	0.55191076
115	0x3e05122e	0.12995216
116	0xbcc8e108	-0.024521366
117	0x3d82f52e	0.063944206
118	0xbecc3c04	-0.39889538
119	0xbeaf4fdf	-0.34240624
120	0xbe542461	-0.20717002
121	0xbd0ad7cd	-0.03389721
122	0x3e3f886e	0.18704388
123	0xbde44065	-0.11145095
124	0xbdc0b58b	-0.094096266
125	0x3da3c4ec	0.07996544
126	0xbe3609ad	-0.17777129
127	0x3ef319dc	0.47480667
128	0xbd11f6e4	-0.035635844
129	0x3e2ee36a	0.17078939
130	0x3e90dce2	0.2829352
131	0xbeefb88e	-0.46820492
132	0xbc6aef71	-0.014339314
133	0x3e728930	0.23685145
134	0xbe99a6c1	-0.30010036
135	0xbe667d92	-0.22508839
136	0x3ebe4fa8	0.37170148
137	0xbe311557	-0.17293297
138	0x3e44b037	0.19207846
139	0x3dcfc0e3	0.10144212
140	0xbe778057	-0.24170052
141	0xbdf574cc	-0.11985168
142	0xbebb9d23	-0.36643323
143	0xbd5dfdc2	-0.05419708
144	0x3d7a428d	0.061098624
145	0x3da095b4	0.078410536
146	0xbd72029b	-0.059084516
147	0x3e0f9665	0.14022215
148	0xbe0cff15	-0.13769181
149	0x3ee09ad5	0.43868127
150	0x3e099f3f	0.13439654
151	0x3e42ba7f	0.19016455
152	0xb9ad61bd	-0.00033069952
153	0x3d0b0987	0.033944633
154	0x3e2ddd3a	0.16978922
155	0x3e1db969	0.1540276
156	0x3ecaa43f	0.39578435
157	0xbf0c22fa	-0.5474087
158	0x3e5d48f8	0.21609867
159	0xbe9243de	-0.28567404

scoring_alignment_preprocessor.0.bias f4 [16]
0	0x3e1e9fbf	0.15490626
1	0x3e1d4a76	0.15360436
2	0x3e4af954	0.19821674
3	0x3e463a87	0.19358264
4	0x3dfb773b	0.12278601
5	0x3e40260d	0.18764515
6	0x3e999ea7	0.30003855
7	0x3d337b63	0.043818843
8	0x3e009339	0.12556161
9	0x9533c5fb	-3.630494e-26
10	0xbddc3c2d	-0.10753665
11	0x3e82a8d1	0.25519422
12	0x3e5a1c9c	0.21299976
13	0x3dc6d2ea	0.097081974
14	0x3e0cdc48	0.13755906
15	0x3e4f12ce	0.20222017
