paper_artifacts/collection/gmn_baseline_scoring=agg___tp=attention_pp=identity_when=pre/trained_models/gmn_baseline_scoring=agg___tp=attention_pp=identity_when=pre_ptc_fm_large_dataset_seed_7366_2024-04-02_14:00:05.pth (torch, 14831 bytes, 18 tensors)

encoder.MLP1.0.weight f4 [10, 1]
0.082021 0.02996827 0.12901656 0.04165965 -0.027359592 -0.07830855 -0.045013048 0.069734156
0.04653345 -0.10156433
00000000: a0fa a73d 0480 f53c eb1c 043e 4fa3 2a3d
00000010: 3921 e0bc 3c60 a0bd 9a5f 38bd c8d0 8e3d
00000020: dc99 3e3d f600 d0bd

encoder.MLP1.0.bias f4 [10]
0.08195699 0.030477876 0.13386044 0.040987022 -0.027359603 -0.07812287 -0.045034852 0.0671172
0.0690959 -0.10117632
00000000: 11d9 a73d bdac f93c b612 093e 02e2 273d
00000010: 3f21 e0bc e2fe 9fbd 7776 38bd be74 893d
00000020: 2782 8d3d 8835 cfbd

prop_layer._message_net.0.weight f4 [20, 21]
0.0057871914 -7.927394e-05 0.00034767465 -0.004411034 0.010818675 0.010449312 0.0078685405 0.0033948778
-0.01108041 0.0059948717 0.0033155393 0.0057068253 0.00426039 -0.008270785 0.0023625116 0.0032670896
0.0006573775 0.0032539712 0.0021499032 0.0019791045 0.003261022 -0.17500268 -0.16982664 0.11782034
0.11470336 0.16368397 -0.175261 0.0932395 0.21065101 -0.4181984 -0.25717592 0.007964035
0.046285506 -0.18236613 0.0111267315 -0.13410434 0.35866246 -0.11461863 -0.120430514 -0.22476469
0.25141844 -0.051206805 -0.0035206638 0.000991858 -0.0031409396 -0.003017775 -0.006925837 0.010470029
-0.0012288169 -0.0059051253 0.017330538 -0.015360199 -0.0014854077 0.003375204 -0.0045589684 0.013656246
-0.00047653195 0.005851216 -0.0149377305 -0.0074689 0.0011507992 -0.0029623762 -0.0051464075 -0.21988407
-0.22121195 -0.38238934 0.4828682 0.27116328 -0.099019885 -0.058942486 -0.28337917 -0.110011436
0.044090223 0.25987077 -0.06306873 -0.12015137 -0.2724883 0.10562959 -0.055480555 0.22579856
-0.09435137 -0.28033024 0.19433486 -0.018391956 -0.0062182196 0.0019436039 -0.0022039928 0.0030603001
-0.003828164 -0.013300073 -0.003603074 0.0025423884 0.0033438948 -0.0016339477 -0.0033842204 -0.0024295365
0.0030007095 5.038969e-05 -0.0016674629 -0.0012007188 -0.0052023926 -0.0030238768 -0.004023007 -0.0010396797
-0.0044381125 -0.0032880842 0.07780147 0.28299484 -0.13143757 -0.3312042 0.11691374 -0.48074245
-0.45470452 -0.38226566 0.0053794878 -0.15781137 -0.39659658 0.26942846 -0.05056749 0.057446126
-0.02605502 0.3443121 0.042009823 -0.18484558 -0.20398045 -0.08639805 0.006293958 0.00011851973
-0.0032583226 -0.0046859807 0.008553198 -0.0022297385 0.0057142978 -0.0020134647 -0.009407827 0.0050884774
-0.00029760753 0.00023264639 0.0015957855 -0.008371479 0.0021989192 -0.0010332271 0.008127914 0.0053398577
0.00051363645 0.0030831853 0.0037514393 0.0048073414 -0.0031705669 0.004750425 0.0002505413 -0.00056862086
0.0096927965 0.0016192273 -0.0054194373 -0.0030830964 0.001862767 0.0024190417 -0.0006819624 -0.0014551379
-9.286011e-05 0.004275828 0.004292484 0.0070059383 3.2858927e-05 0.0017185502 0.0030368848 0.0043876194
-0.005622252 -0.008620645 0.0038698306 -0.0009595375 -0.010287137 0.0132390335 0.0031289754 -0.011010651
0.0112269 -0.012134725 -0.0014550518 0.00043693485 -0.0035155735 0.013637218 -0.0007338843 0.011885526
-0.0101152975 -0.015183449 -0.003916243 -0.0021455125 -0.0003464793 0.005214304 -0.0050490974 0.002654449
-2.7609525e-05 0.0035549132 0.010676819 0.0039903633 0.00350041 -0.006439525 0.004934838 0.005778493
-0.0014594747 -0.0018457016 -0.0066791084 0.0022706685 0.002286695 -0.003384357 0.0011960934 0.006806544
-0.001151432 0.0034903674 0.2928707 -0.115540914 -0.21656829 0.23014264 0.16620953 0.3078396
-0.29333687 -0.3944017 -0.3325641 -0.13361987 -0.35669434 -0.0030681973 0.26865128 -0.2304587
-0.07463457 -0.2776225 -0.33031833 0.21837442 -0.19171606 0.022105133 -0.011071799 -0.32240015
-0.003834651 0.03133338 -0.099982575 -0.21248952 -0.068784826 -0.024126211 0.21902655 -0.109640725
-0.26419425 0.18490559 0.35273656 0.08696111 -0.20101345 -0.044916216 -0.32033572 0.16565716
0.04575514 -0.26210457 0.21178748 0.2207177 0.005593126 -0.0014153246 0.0043179165 -0.003669455
00000000: 7ba2 bd3b df3f a6b8 1a48 b639 6f8a 90bb
00000010: d040 313c 9733 2b3c 0deb 003c 997c 5e3b
00000020: 9c8a 35bc a170 c43b 8549 593b 5200 bb3b
00000030: be9a 8b3b 3082 07bc 5ed4 1a3b ab1c 563b
00000040: db53 2c3a 9440 553b 64e5 0c3b ddb3 013b
00000050: dfb6 553b e733 33be 09e7 2dbe ca4b f13d
00000060: 98e9 ea3d c59c 273e 9f77 33be 5af4 be3d
00000070: e6b4 573e 1a1e d6be 90ac 83be 957b 023c
00000080: df95 3d3d 30be 3abe e54c 363c a652 09be
00000090: 9ba2 b73e 2cbd eabd 46a4 f6bd b728 66be
000000a0: ebb9 803e 3abe 51bd f0ba 66bb 3b01 823a
000000b0: 39d8 4dbb ddc5 45bb 22f2 e2bb 7c8a 2b3c
000000c0: 4110 a1ba c87f c1bb c6f8 8d3c 58a9 7bbc
000000d0: 03b2 c2ba 8732 5d3b 6663 95bb 72be 5f3c
000000e0: 09d7 f9b9 8fbb bf3b 62bd 74bc adbd f4bb
000000f0: 6ad6 963a 6d24 42bb 32a3 a8bb 4a29 61be
00000100: 6385 62be 89c8 c3be 803a f73e ead5 8a3e
00000110: f0ca cabd ad6d 71bd 1317 91be ad4d e1bd
00000120: f397 343d c80d 853e 2e2a 81bd ec11 f6bd
00000130: 9683 8bbe 5454 d83d 943f 63bd bd37 673e
00000140: 4b3b c1bd 7287 8fbe b8ff 463e baaa 96bc
00000150: 35c2 cbbb 86c0 fe3a dd70 10bb 518f 483b
00000160: efe1 7abb 8de8 59bc 8d21 6cbb 339e 263b
00000170: 3f25 5b3b 302a d6ba ccc9 5dbb dc38 1fbb
00000180: 8da7 443b 8559 5338 c58e daba 7061 9dba
00000190: d578 aabb 3c2c 46bb 6ed3 83bb dd45 88ba
000001a0: 966d 91bb e67c 57bb 6156 9f3d b3e4 903e
000001b0: 9297 06be 9993 a9be 7970 ef3d e023 f6be
000001c0: 08cf e8be 53b8 c3be 6a46 b03b 4e99 21be
000001d0: b50e cbbe 87f2 893e db1f 4fbd a14c 6b3d
000001e0: 5671 d5bc ad49 b03e 7e12 2c3d 2948 3dbe
000001f0: 40e0 50be 76f1 b0bd 8c3d ce3b cc8d f838
00000200: 9589 55bb db8c 99bb b622 0c3c ce20 12bb
00000210: 013f bb3b 55f4 03bb 4923 1abc 3ebd a63b
00000220: 3508 9cb9 8af2 7339 ad29 d13a 8728 09bc
00000230: be1b 103b 596d 87ba f12a 053c f9f9 ae3b
00000240: 8fa5 063a 440f 4a3b b5da 753b e786 9d3b
00000250: 49c9 4fbb 74a9 9b3b 165b 8339 800f 15ba
00000260: 89ce 1e3c 413c d43a 8995 b1bb c60d 4abb
00000270: 1728 f43a c988 1e3b b9c5 32ba 53ba beba
00000280: e4bd c2b8 3f1c 8c3b f7a7 8c3b 1292 e53b
00000290: 01d2 0938 fa40 e13a 7906 473b 05c6 8f3b
000002a0: de3a b8bb 9b3d 0dbc fc9c 7d3b 7989 7bba
000002b0: 618b 28bc 88e8 583c 7f0f 4d3b 0466 34bc
000002c0: 08f1 373c bad0 46bc 70b7 beba 6714 e539
000002d0: 8965 66bb a36e 5f3c 2462 40ba 82bb 423c
000002e0: a2ba 25bc 00c4 78bc d453 80bb ba9b 0cbb
000002f0: aaa7 b5b9 c1dc aa3b e672 a5bb 44f6 2d3b
00000300: 019b e7b7 8cf9 683b d3ed 2e3c 98c1 823b
00000310: 2267 653b a702 d3bb 6cb4 a13b 8359 bd3b
00000320: d84b bfba 78eb f1ba 6cdc dabb 7fcf 143b
00000330: 60dc 153b 17cc 5dbb 3cc6 9c3a 6e09 df3b
00000340: a6eb 96ba a6be 643b 26f3 953e b7a0 ecbd
00000350: 14c4 5dbe 83aa 6b3e d532 2a3e 279d 9d3e
00000360: 4030 96be 05ef c9be d745 aabe a6d3 08be
00000370: a4a0 b6be cf13 49bb a98c 893e 5efd 6bbe
00000380: 02da 98bd 8924 8ebe 7c1f a9be 8b9d 5f3e
00000390: 3751 44be d315 b53c 7e66 35bc a211 a5be
000003a0: c54e 7bbb 6e57 003d aac3 ccbd da96 59be
000003b0: 0fdf 8cbd 55a4 c5bc 7f48 603e 518b e0bd
000003c0: 7844 87be e457 3d3e e399 b43e ab18 b23d
000003d0: 78d6 4dbe 11fa 37bd 0b03 a4be 08a2 293e
000003e0: be69 3b3d 9232 86be d1de 583e d203 623e
000003f0: 8b46 b73b 6a82 b9ba 4f7d 8d3b 3d7b 70bb

prop_layer._message_net.0.bias f4 [20]
0.0032610083 -0.06326291 -0.00514639 -0.03311632 -0.0044380636 -0.09081313 0.0037513932 0.004387671
-0.0003464369 0.0034904003 -0.035934243 0.24687494 0.004026984 0.2501564 -0.073049 0.13232093
0.00415437 0.059967622 -0.0034484642 0.001609555
00000000: a4b6 553b fc8f 81bd 0ca3 a8bb faa4 07bd
00000010: 2d6d 91bb 3cfc b9bd efd9 753b 74c6 8f3b
00000020: f9a1 b5b9 33bf 643b c92f 13bd c9cc 7c3e
00000030: caf4 833b 8014 803e b79a 95bd 237f 073e
00000040: 6221 883b 9ca0 753d a1ff 61bb b4f7 d23a

prop_layer._reverse_message_net.0.weight f4 [20, 21]
0.0057871914 -7.927394e-05 0.00034767465 -0.004411034 0.010818675 0.010449312 0.0078685405 0.0033948778
-0.01108041 0.0059948717 0.0033155393 0.0057068253 0.00426039 -0.008270785 0.0023625116 0.0032670896
0.0006573775 0.0032539712 0.0021499032 0.0019791045 0.003261022 -0.17500268 -0.16982664 0.11782034
0.11470336 0.16368397 -0.175261 0.0932395 0.21065101 -0.4181984 -0.25717592 0.007964035
0.046285506 -0.18236613 0.0111267315 -0.13410434 0.35866246 -0.11461863 -0.120430514 -0.22476469
0.25141844 -0.051206805 -0.0035206638 0.000991858 -0.0031409396 -0.003017775 -0.006925837 0.010470029
-0.0012288169 -0.0059051253 0.017330538 -0.015360199 -0.0014854077 0.003375204 -0.0045589684 0.013656246
-0.00047653195 0.005851216 -0.0149377305 -0.0074689 0.0011507992 -0.0029623762 -0.0051464075 -0.21988407
-0.22121195 -0.38238934 0.4828682 0.27116328 -0.099019885 -0.058942486 -0.28337917 -0.110011436
0.044090223 0.25987077 -0.06306873 -0.12015137 -0.2724883 0.10562959 -0.055480555 0.22579856
-0.09435137 -0.28033024 0.19433486 -0.018391956 -0.0062182196 0.0019436039 -0.0022039928 0.0030603001
-0.003828164 -0.013300073 -0.003603074 0.0025423884 0.0033438948 -0.0016339477 -0.0033842204 -0.0024295365
0.0030007095 5.038969e-05 -0.0016674629 -0.0012007188 -0.0052023926 -0.0030238768 -0.004023007 -0.0010396797
-0.0044381125 -0.0032880842 0.07780147 0.28299484 -0.13143757 -0.3312042 0.11691374 -0.48074245
-0.45470452 -0.38226566 0.0053794878 -0.15781137 -0.39659658 0.26942846 -0.05056749 0.057446126
-0.02605502 0.3443121 0.042009823 -0.18484558 -0.20398045 -0.08639805 0.006293958 0.00011851973
-0.0032583226 -0.0046859807 0.008553198 -0.0022297385 0.0057142978 -0.0020134647 -0.009407827 0.0050884774
-0.00029760753 0.00023264639 0.0015957855 -0.008371479 0.0021989192 -0.0010332271 0.008127914 0.0053398577
0.00051363645 0.0030831853 0.0037514393 0.0048073414 -0.0031705669 0.004750425 0.0002505413 -0.00056862086
0.0096927965 0.0016192273 -0.0054194373 -0.0030830964 0.001862767 0.0024190417 -0.0006819624 -0.0014551379
-9.286011e-05 0.004275828 0.004292484 0.0070059383 3.2858927e-05 0.0017185502 0.0030368848 0.0043876194
-0.005622252 -0.008620645 0.0038698306 -0.0009595375 -0.010287137 0.0132390335 0.0031289754 -0.011010651
0.0112269 -0.012134725 -0.0014550518 0.00043693485 -0.0035155735 0.013637218 -0.0007338843 0.011885526
-0.0101152975 -0.015183449 -0.003916243 -0.0021455125 -0.0003464793 0.005214304 -0.0050490974 0.002654449
-2.7609525e-05 0.0035549132 0.010676819 0.0039903633 0.00350041 -0.006439525 0.004934838 0.005778493
-0.0014594747 -0.0018457016 -0.0066791084 0.0022706685 0.002286695 -0.003384357 0.0011960934 0.006806544
-0.001151432 0.0034903674 0.2928707 -0.115540914 -0.21656829 0.23014264 0.16620953 0.3078396
-0.29333687 -0.3944017 -0.3325641 -0.13361987 -0.35669434 -0.0030681973 0.26865128 -0.2304587
-0.07463457 -0.2776225 -0.33031833 0.21837442 -0.19171606 0.022105133 -0.011071799 -0.32240015
-0.003834651 0.03133338 -0.099982575 -0.21248952 -0.068784826 -0.024126211 0.21902655 -0.109640725
-0.26419425 0.18490559 0.35273656 0.08696111 -0.20101345 -0.044916216 -0.32033572 0.16565716
0.04575514 -0.26210457 0.21178748 0.2207177 0.005593126 -0.0014153246 0.0043179165 -0.003669455
00000000: 7ba2 bd3b df3f a6b8 1a48 b639 6f8a 90bb
00000010: d040 313c 9733 2b3c 0deb 003c 997c 5e3b
00000020: 9c8a 35bc a170 c43b 8549 593b 5200 bb3b
00000030: be9a 8b3b 3082 07bc 5ed4 1a3b ab1c 563b
00000040: db53 2c3a 9440 553b 64e5 0c3b ddb3 013b
00000050: dfb6 553b e733 33be 09e7 2dbe ca4b f13d
00000060: 98e9 ea3d c59c 273e 9f77 33be 5af4 be3d
00000070: e6b4 573e 1a1e d6be 90ac 83be 957b 023c
00000080: df95 3d3d 30be 3abe e54c 363c a652 09be
00000090: 9ba2 b73e 2cbd eabd 46a4 f6bd b728 66be
000000a0: ebb9 803e 3abe 51bd f0ba 66bb 3b01 823a
000000b0: 39d8 4dbb ddc5 45bb 22f2 e2bb 7c8a 2b3c
000000c0: 4110 a1ba c87f c1bb c6f8 8d3c 58a9 7bbc
000000d0: 03b2 c2ba 8732 5d3b 6663 95bb 72be 5f3c
000000e0: 09d7 f9b9 8fbb bf3b 62bd 74bc adbd f4bb
000000f0: 6ad6 963a 6d24 42bb 32a3 a8bb 4a29 61be
00000100: 6385 62be 89c8 c3be 803a f73e ead5 8a3e
00000110: f0ca cabd ad6d 71bd 1317 91be ad4d e1bd
00000120: f397 343d c80d 853e 2e2a 81bd ec11 f6bd
00000130: 9683 8bbe 5454 d83d 943f 63bd bd37 673e
00000140: 4b3b c1bd 7287 8fbe b8ff 463e baaa 96bc
00000150: 35c2 cbbb 86c0 fe3a dd70 10bb 518f 483b
00000160: efe1 7abb 8de8 59bc 8d21 6cbb 339e 263b
00000170: 3f25 5b3b 302a d6ba ccc9 5dbb dc38 1fbb
00000180: 8da7 443b 8559 5338 c58e daba 7061 9dba
00000190: d578 aabb 3c2c 46bb 6ed3 83bb dd45 88ba
000001a0: 966d 91bb e67c 57bb 6156 9f3d b3e4 903e
000001b0: 9297 06be 9993 a9be 7970 ef3d e023 f6be
000001c0: 08cf e8be 53b8 c3be 6a46 b03b 4e99 21be
000001d0: b50e cbbe 87f2 893e db1f 4fbd a14c 6b3d
000001e0: 5671 d5bc ad49 b03e 7e12 2c3d 2948 3dbe
000001f0: 40e0 50be 76f1 b0bd 8c3d ce3b cc8d f838
00000200: 9589 55bb db8c 99bb b622 0c3c ce20 12bb
00000210: 013f bb3b 55f4 03bb 4923 1abc 3ebd a63b
00000220: 3508 9cb9 8af2 7339 ad29 d13a 8728 09bc
00000230: be1b 103b 596d 87ba f12a 053c f9f9 ae3b
00000240: 8fa5 063a 440f 4a3b b5da 753b e786 9d3b
00000250: 49c9 4fbb 74a9 9b3b 165b 8339 800f 15ba
00000260: 89ce 1e3c 413c d43a 8995 b1bb c60d 4abb
00000270: 1728 f43a c988 1e3b b9c5 32ba 53ba beba
00000280: e4bd c2b8 3f1c 8c3b f7a7 8c3b 1292 e53b
00000290: 01d2 0938 fa40 e13a 7906 473b 05c6 8f3b
000002a0: de3a b8bb 9b3d 0dbc fc9c 7d3b 7989 7bba
000002b0: 618b 28bc 88e8 583c 7f0f 4d3b 0466 34bc
000002c0: 08f1 373c bad0 46bc 70b7 beba 6714 e539
000002d0: 8965 66bb a36e 5f3c 2462 40ba 82bb 423c
000002e0: a2ba 25bc 00c4 78bc d453 80bb ba9b 0cbb
000002f0: aaa7 b5b9 c1dc aa3b e672 a5bb 44f6 2d3b
00000300: 019b e7b7 8cf9 683b d3ed 2e3c 98c1 823b
00000310: 2267 653b a702 d3bb 6cb4 a13b 8359 bd3b
00000320: d84b bfba 78eb f1ba 6cdc dabb 7fcf 143b
00000330: 60dc 153b 17cc 5dbb 3cc6 9c3a 6e09 df3b
00000340: a6eb 96ba a6be 643b 26f3 953e b7a0 ecbd
00000350: 14c4 5dbe 83aa 6b3e d532 2a3e 279d 9d3e
00000360: 4030 96be 05ef c9be d745 aabe a6d3 08be
00000370: a4a0 b6be cf13 49bb a98c 893e 5efd 6bbe
00000380: 02da 98bd 8924 8ebe 7c1f a9be 8b9d 5f3e
00000390: 3751 44be d315 b53c 7e66 35bc a211 a5be
000003a0: c54e 7bbb 6e57 003d aac3 ccbd da96 59be
000003b0: 0fdf 8cbd 55a4 c5bc 7f48 603e 518b e0bd
000003c0: 7844 87be e457 3d3e e399 b43e ab18 b23d
000003d0: 78d6 4dbe 11fa 37bd 0b03 a4be 08a2 293e
000003e0: be69 3b3d 9232 86be d1de 583e d203 623e
000003f0: 8b46 b73b 6a82 b9ba 4f7d 8d3b 3d7b 70bb

prop_layer._reverse_message_net.0.bias f4 [20]
0.0032610083 -0.06326291 -0.00514639 -0.03311632 -0.0044380636 -0.09081313 0.0037513932 0.004387671
-0.0003464369 0.0034904003 -0.035934243 0.24687494 0.004026984 0.2501564 -0.073049 0.13232093
0.00415437 0.059967622 -0.0034484642 0.001609555
00000000: a4b6 553b fc8f 81bd 0ca3 a8bb faa4 07bd
00000010: 2d6d 91bb 3cfc b9bd efd9 753b 74c6 8f3b
00000020: f9a1 b5b9 33bf 643b c92f 13bd c9cc 7c3e
00000030: caf4 833b 8014 803e b79a 95bd 237f 073e
00000040: 6221 883b 9ca0 753d a1ff 61bb b4f7 d23a

prop_layer.GRU.weight_ih_l0 f4 [30, 20]
-0.0020438866 -0.03042937 0.008804113 -0.14603628 -0.0034638373 0.09142106 -0.009775544 -0.0017986452
0.010234599 -0.0004635426 0.022371106 0.095288515 0.0050703585 -0.17489126 -0.05127374 0.14957136
-4.4333097e-05 0.22605892 -0.0006290675 -0.0059696925 0.0028403974 0.06090289 0.0029694843 0.02463037
-0.0029930554 -0.06349999 -0.0046116356 0.0022889208 0.009378033 0.0032272944 -0.036934365 0.06507943
0.0026041437 0.021971004 0.020460773 -0.08014128 0.0038599435 -0.2241639 -0.0015198163 0.00052369497
-0.0025986973 -0.09819654 -0.00020919468 0.0009316518 -0.0006577327 -0.15645076 0.0010662281 -0.003449001
-0.012948771 -0.0031848554 -0.11475363 0.2065518 0.00081709196 -0.2930469 0.08821057 0.06491204
-0.0043407786 0.14304218 0.0030680287 -0.0068209553 0.018278424 -0.019808454 -0.009206206 -0.14268179
-0.018333143 -0.43031996 0.0011545592 0.012374323 -0.0032401567 0.016518377 -0.22186115 -0.10638091
0.019839492 -0.10093339 0.09952297 0.13902251 0.01673417 0.3187042 -0.019105835 0.008262246
-0.022314588 0.22529227 0.01859173 0.02740948 0.009248642 0.304024 -0.0076218606 0.0047254413
0.02629865 -0.012280281 0.19256392 0.112141564 -0.010162446 -0.16957425 -0.09965352 -0.36355937
0.0024185085 0.34325635 0.01896529 -0.009134116 0.007704686 0.0010504884 -0.0022047728 -0.009154403
-0.006858172 -0.0825231 0.0030372585 0.0026601485 -0.0027921076 0.007290931 -0.068326056 -0.018037511
0.0072351443 0.1013589 0.10212872 -0.0055831415 0.0036714508 0.03945335 -0.00844909 0.006018516
0.006625985 -0.004796705 -0.007861735 0.059063286 -0.0045240363 -0.04574937 0.00625717 0.0022863525
-0.007842841 0.004260657 -0.022325542 0.056608923 0.0036501938 0.0064680874 0.011883064 -0.008701088
0.0014186426 -0.07535569 -0.0052803564 0.0036537389 -0.008669571 0.06225558 0.008902241 0.101614006
0.0048269155 -0.06512455 -0.0039811116 -0.0013848544 0.0025544406 -0.004380741 -0.06016629 0.030381527
-0.0049097613 -0.13910814 0.094677515 -0.117142946 -0.00015384995 -0.04592105 0.0062991837 -0.0014458861
-0.0012569469 -0.01709643 0.011905639 -0.2796422 -0.0016635722 -0.27144238 -0.0036040363 -0.0022597518
0.0025546418 -0.0068824408 -0.26971376 -0.12471982 0.0023140516 0.17065373 -0.2196336 -0.06403427
-0.005849636 -0.56891567 0.0029757244 -0.005548015 0.0059478953 -0.009543721 -0.0078589525 -0.085769616
-0.005010799 0.02225467 0.005263825 0.005879902 -0.01056116 0.005726797 -0.12748468 0.11596536
0.004686995 0.3967034 -0.07584466 0.038750473 0.0062127993 0.052707348 -0.0062745796 0.0077035464
0.0043434836 -0.19833943 -0.0033533906 -0.2098002 -0.0035952963 0.098880954 0.005413041 0.004453114
0.0014143708 0.003493631 0.20664597 -0.10352103 0.00378782 0.17530054 -0.074521534 -0.12280349
0.0033422478 -0.053107817 -0.004543861 0.0038907002 0.0021186788 0.37593073 -0.010808696 0.20992982
0.00067523035 0.1991903 0.0040287105 -0.0022178409 -0.005069066 -0.0002155635 0.28896323 -0.0047491887
-0.0022598822 0.11250373 0.18586026 0.36872095 -0.0029472 0.30298713 -0.0004105039 0.00030299058
0.011911409 -0.049774036 -0.02257167 0.06699738 -0.0068244077 0.14266583 0.016253013 0.006783018
-0.01907275 0.006928829 -0.22310215 0.00787224 0.0050756624 -0.16284014 -0.34459803 -0.30097258
00000000: baf2 05bb 0447 f9bc 203f 103c 898a 15be
00000010: 8c01 63bb f73a bb3d 9a29 20bc 85c0 ebba
00000020: 05af 273c a207 f3b9 9c43 b73c a026 c33d
00000030: 4025 a63b b216 33be 6a04 52bd 3c29 193e
00000040: 4df2 39b8 fd7b 673e 01e8 24ba 699d c3bb
00000050: f625 3a3b 4f75 793d ae9b 423b a1c5 c93c
00000060: 2327 44bb 480c 82bd 341d 97bb b801 163b
00000070: 52a6 193c 0481 533b 7d48 17bd 5d48 853d
00000080: 48aa 2a3b 89fc b33c 5a9d a73c 1d21 a4bd
00000090: 1bf7 7c3b 398b 65be 9334 c7ba 9348 093a
000000a0: e84e 2abb 441b c9bd 455b 5bb9 183a 743a
000000b0: b26b 2cba a134 20be aec0 8b3a a208 62bb
000000c0: 1527 54bc 02b9 50bb f303 ebbd 5182 533e
000000d0: 1d32 563a 3e0a 96be bea7 b43d 9bf0 843d
000000e0: 173d 8ebb a679 123e fb10 493b 5282 dfbb
000000f0: a2bc 953c 5745 a2bc a0d5 16bc 2d1b 12be
00000100: 632f 96bc e652 dcbe 9454 973a acbd 4a3c
00000110: cf58 54bb 8c51 873c 922f 63be 3cde d9bd
00000120: 6e86 a23c 2ab6 cebd b3d2 cb3d eb5b 0e3e
00000130: 1916 893c 322d a33e d783 9cbc 5f5e 073c
00000140: 15cd b6bc 04b3 663e af4d 983c d989 e03c
00000150: 9e87 173c 09a9 9b3e cdc0 f9bb e0d7 9a3b
00000160: 4470 d73c 3b33 49bc 7a2f 453e 7aaa e53d
00000170: 6380 26bc dfa4 2dbe 2517 ccbd 7424 babe
00000180: d77f 1e3b 4cbf af3e 195d 9b3c 42a7 15bc
00000190: 9777 fc3b 8bb0 893a f37d 10bb 59fc 15bc
000001a0: 84ba e0bb df01 a9bd be0c 473b e355 2e3b
000001b0: cbfb 36bb c3e8 ee3b 88ee 8bbd 67c3 93bc
000001c0: ca14 ed3b 4195 cf3d dd28 d13d c9f2 b6bb
000001d0: b99c 703b d699 213d 0d6e 0abc f936 c53b
000001e0: ca1e d93b ae2d 9dbb 82ce 00bc 58ec 713d
000001f0: 5e3e 94bb b163 3bbd f208 cd3b a1d6 153b
00000200: 427f 00bc fb9c 8b3b 0ee4 b6bc c2de 673d
00000210: 1738 6f3b 40f2 d33b 2fb1 423c 028f 0ebc
00000220: bff1 b93a 1654 9abd d706 adbb 9173 6f3b
00000230: d10a 0ebc b5ff 7e3d b4da 113c 011b d03d
00000240: 1a2b 9e3b 0560 85bd fc73 82bb 0184 b5ba
00000250: 6768 273b 528c 8fbb ed70 76bd aee2 f83c
00000260: 10e2 a0bb 5d72 0ebe 49e6 c13d a4e8 efbd
00000270: c852 21b9 b617 3cbd 6269 ce3b e383 bdba
00000280: 24c0 a4ba d00d 8cbc df0f 433c 432d 8fbe
00000290: 380c daba 7ffa 8abe b231 6cbb 5818 14bb
000002a0: c76b 273b 1986 e1bb ec17 8abe 1b6d ffbd
000002b0: 58a7 173b dabf 2e3e a1e7 60be 6624 83bd
000002c0: 4eae bfbb 75a4 11bf 5f04 433b 1fcc b5bb
000002d0: 90e6 c23b 445d 1cbc d6c2 00bc fba7 afbd
000002e0: a131 a4bb 6d4f b63c 2a7c ac3b 31ac c03b
000002f0: b708 2dbc dba7 bb3b 588b 02be 3f7f ed3d
00000300: 5d95 993b b51c cb3e 7254 9bbd d1b8 1e3d
00000310: bd94 cb3b a9e3 573d fd9a cdbb 086e fc3b
00000320: c853 8e3b 7e19 4bbe 8fc4 5bbb ddd5 56be
00000330: 109f 6bbb 1982 ca3d e15f b13b 6deb 913b
00000340: 6962 b93a 67f5 643b 009b 533e d502 d4bd
00000350: 133d 783b fc81 333e bf9e 98bd 6580 fbbd
00000360: 9d09 5b3b 9587 59bd abe4 94bb 1efb 7e3b
00000370: 88d9 0a3b fe79 c03e f516 31bc d8f7 563e
00000380: f101 313a 8bf8 4b3e 4603 843b 3259 11bb
00000390: 681a a6bb e308 62b9 fdf2 933e 159f 9bbb
000003a0: 881a 14bb 5b68 e63d 2752 3e3e fec8 bc3e
000003b0: d025 41bb 2121 9b3e e738 d7b9 b5da 9e39
000003c0: 1228 433c dcdf 4bbd 39e8 b8bc ec35 893d
000003d0: 489f dfbb fe16 123e 0a25 853c 1444 de3b
000003e0: 753e 9cbc 3b0b e33b e474 64be 91fa 003c
000003f0: be51 a63b 91bf 26be 276f b0be 1419 9abe

prop_layer.GRU.weight_hh_l0 f4 [30, 10]
0.104775466 0.024576584 0.07179248 -0.014268233 -0.055822264 0.012181627 0.002272604 0.030261958
-0.09456863 -0.104075074 -0.059169058 -0.0013057877 0.033716436 -0.018964607 -0.046034314 -0.023025488
-0.024514204 0.070441924 -0.014481914 -0.01978661 0.1148044 0.035835523 0.03732188 -0.105455525
-0.057513613 0.046483863 0.017238287 0.11533776 -0.0060393736 -0.05726297 -0.049680185 0.10270309
-0.06646563 0.09559212 -0.08958083 -0.067164995 0.01752045 0.09018994 -0.0982484 -0.04980546
-0.16350389 -0.119051516 0.043039445 0.07331285 0.06957008 -0.06138059 -0.017513566 0.09392277
0.022254067 -0.051006194 -0.044777405 -0.0033770292 -0.027760828 -0.0008141748 -0.04781788 0.028353425
0.009293541 0.038456406 0.02347155 -0.01743122 0.008465029 0.0036445095 -0.0038677284 -0.031532604
0.002391507 -0.00876197 0.0058242404 -0.015119186 0.006518488 0.008713571 0.05153496 -0.019751169
-0.019555334 -0.022638135 0.016857695 0.03137725 0.0021116745 -0.0030876612 -0.012671779 0.00035036026
-0.18806472 -0.020056734 0.07061844 0.024472782 0.03542987 0.017921014 0.030381061 0.0374643
0.10323409 0.021218332 -0.07891607 -0.04763325 -0.00053524144 -0.0069092372 -0.0686229 0.00943881
0.037426934 -0.06864069 0.001413747 -0.045202386 0.12787758 0.1813484 0.09138076 -0.07422611
-0.077348225 -0.006787074 -0.055439796 0.16330972 0.15572487 0.13730325 0.051734496 0.010071707
0.06602591 0.12382004 -0.121231884 0.056575134 -0.008188063 0.23636818 -0.35172677 -0.043588053
-0.10593269 0.01095784 -0.046786446 0.08218923 0.13514557 -0.051853526 0.18176633 -0.21835344
0.060084794 0.18785773 0.2397583 0.14260763 -0.07154803 -0.034878742 0.24399506 -0.12631553
0.29193482 -0.029633991 -0.09098907 0.13956158 -0.11032344 -0.14433251 0.048618056 -0.06306602
0.0592751 -0.095925614 0.12033395 0.21423411 0.035105724 -0.10492974 0.024451746 -0.036095947
-0.05806059 0.08154618 0.072119944 0.05495574 -0.06259909 -0.3125647 -0.06407514 0.07014191
0.026844472 0.049479533 0.058393672 0.051536605 0.027056677 0.039987527 -0.124815024 0.12071033
0.116911985 -0.04537776 0.024080044 0.08898874 0.10428409 0.026398543 -0.04346039 0.010943603
-0.053344607 -0.26844576 0.02573845 -0.13998654 -0.06561753 0.13932474 0.12241883 0.03541199
-0.075357 -0.21023244 -0.09995329 0.16707796 -0.13263573 -0.12347592 -0.092465155 0.030537976
0.1163102 -0.23446919 -0.27207404 -0.09130874 0.0003738978 0.17948093 0.041553706 -0.037301105
-0.2517486 -0.23488727 -0.17309055 -0.0062036817 0.15025648 0.03090033 0.0627187 -0.025626529
0.22606385 0.20061448 0.016896024 0.012056086 0.10616276 0.041263532 -0.25862563 0.16151412
-0.31775865 0.0796048 -0.07086815 0.23054267 0.32801312 0.29731488 -0.034611866 0.27190626
0.13796358 0.14261362 0.10457199 -0.1935737 0.10970977 0.28085703 0.39143014 0.10448742
0.1970888 -0.029451307 -0.15004213 -0.008013618 -0.09912351 0.31167954 -0.260548 -0.047655188
0.21872917 0.23282157 -0.33947748 -0.04694528 0.28675908 0.1923744 0.0353038 0.08318377
0.23663718 0.5684305 -0.20665407 -0.05473386 -0.041873306 -0.1536599 -0.051894765 0.28521487
00000000: 8594 d63d d554 c93c f007 933d 4fc5 69bc
00000010: e3a5 64bd 7295 473c f8ef 143b ede7 f73c
00000020: 33ad c1bd 5025 d5bd 415b 72bd f726 abba
00000030: 3f1a 0a3d aa5b 9bbc 7a8e 3cbd f39f bcbc
00000040: 03d2 c8bc db43 903d 8d45 6dbc 8717 a2bc
00000050: 921e eb3d 45c8 123d d4de 183d 11f9 d7bd
00000060: 6593 6bbd dd65 3e3d 4f37 8d3c 3436 ec3d
00000070: f0e5 c5bb 938c 6abd 737d 4bbd ff55 d23d
00000080: 221f 88bd cdc5 c33d 2776 b7bd cd8d 89bd
00000090: 0c87 8f3c 81b5 b83d 7536 c9bd cf00 4cbd
000000a0: 906d 27be 48d1 f3bd 214a 303d 0c25 963d
000000b0: c27a 8e3d 376a 7bbd 9c78 8fbc 955a c03d
000000c0: 294e b63c dfeb 50bd 8368 37bd 2651 5dbb
000000d0: ad6a e3bc 596e 55ba aedc 43bd 7145 e83c
000000e0: f043 183c 7784 1d3d 6847 c03c ebcb 8ebc
000000f0: e8b0 0a3c b9d8 6e3b b779 7dbb 5528 01bd
00000100: d4ba 1c3b 5e8e 0fbc 45d9 be3b 76b6 77bc
00000110: 0a99 d53b 5ec3 0e3c 5216 533d 34cd a1bc
00000120: 8232 a0bc 9c73 b9bc 2619 8a3c 6e85 003d
00000130: 0564 0a3b 5c5a 4abb 4b9d 4fbc 8fb0 b739
00000140: 0a94 40be 054e a4bc 67a0 903d 257b c83c
00000150: e91e 113d 17cf 923c b4e1 f83c 2a74 193d
00000160: 656c d33d 11d2 ad3c c09e a1bd 151b 43bd
00000170: 724f 0cba e266 e2bb 2a8a 8cbd 3da5 1a3c
00000180: fc4c 193d 7d93 8cbd 7a4d b93a 2326 39bd
00000190: 57f2 023e 65b3 393e d625 bb3d dc03 98bd
000001a0: bf68 9ebd 1a66 debb d714 63bd aa3a 273e
000001b0: 5776 1f3e 3999 0c3e 8de7 533d cd03 253c
000001c0: 9838 873d 5c95 fd3d 6c48 f8bd 54bb 673d
000001d0: 3a27 06bc 800a 723e 8815 b4be 6389 32bd
000001e0: 3df3 d8bd 8388 333c 25a3 3fbd d452 a83d
000001f0: 9a63 0a3e 5d64 54bd f420 3a3e 0b98 5fbe
00000200: 791b 763d c75d 403e 3383 753e bc07 123e
00000210: c687 92bd 03dd 0ebd d7d9 793e dc58 01be
00000220: 7b78 953e fcc2 f2bc 7a58 babd 3be9 0e3e
00000230: 41f1 e1bd e7cb 13be ba23 473d c228 81bd
00000240: 72ca 723d a674 c4bd a571 f63d 3060 5b3e
00000250: 05cb 0f3d 67e5 d6bd 074f c83c 58d9 13bd
00000260: f1d0 6dbd af01 a73d 9fb3 933d 4519 613d
00000270: f433 80bd 7b08 a0be d439 83bd 90a6 8f3d
00000280: f0e8 db3c 0dab 4a3d 342e 6f3d 0c18 533d
00000290: f7a5 dd3c f6c9 233d 059f ffbd fa36 f73d
000002a0: 8d6f ef3d 08de 39bd 8343 c53c bb3f b63d
000002b0: e692 d53d c241 d83c 8603 32bd cc4c 333c
000002c0: e07f 5abd b971 89be 71d9 d23c a258 0fbe
000002d0: 7c62 86bd 25ab 0e3e b9b6 fa3d 2a0c 113d
000002e0: c554 9abd 2c47 57be 4fb4 ccbd 7c16 2b3e
000002f0: a9d1 07be f1e0 fcbd 5f5e bdbd c72a fa3c
00000300: 0b34 ee3d b118 70be 4a4d 8bbe 1400 bbbd
00000310: b707 c439 d9c9 373e 3834 2a3d 0bc9 18bd
00000320: 31e5 80be 4a86 70be a63e 31be 4148 cbbb
00000330: d6dc 193e b022 fd3c a972 803d baee d1bc
00000340: 487d 673e e26d 4d3e 8869 8a3c e486 453c
00000350: dc6b d93d f303 293d 946a 84be f563 253e
00000360: 43b1 a2be d707 a33d 5223 91bd 6113 6c3e
00000370: 56f1 a73e a839 983e 2cc5 0dbd 4c37 8b3e
00000380: 5346 0d3e 4e09 123e d729 d63d 2f38 46be
00000390: 84af e03d 7ecc 8f3e 8869 c83e 80fd d53d
000003a0: a5d1 493e de43 f1bc a5a4 19be 8d4b 03bc
000003b0: 4401 cbbd 7694 9f3e 8c66 85be 1632 43bd
000003c0: 8afa 5f3e c768 6e3e fecf adbe b249 40bd
000003d0: 16d2 923e cbfd 443e b89a 103d 415c aa3d
000003e0: 0451 723e a984 113f 209d 53be 9d30 60bd
000003f0: 5883 2bbd 0559 1dbe 9b8f 54bd af07 923e

prop_layer.GRU.bias_ih_l0 f4 [30]
0.040775854 0.065844916 0.16034524 0.064628854 0.10358902 0.043559026 0.033218164 0.056179672
0.039227195 0.1682658 -0.12617561 -0.29745954 -0.23895675 0.22754595 0.16464321 0.075149
-0.019695032 0.07381444 0.18654744 0.04506712 -0.3847805 0.57102364 -0.578528 -0.09111555
-0.53563356 -0.43089193 0.30725658 -0.4952017 0.45996377 -0.41206077
00000000: 9504 273d b3d9 863d 8b31 243e 225c 843d
00000010: 7b26 d43d f36a 323d c50f 083d a81c 663d
00000020: b2ac 203d df4d 2c3e 2e34 01be 9e4c 98be
00000030: 14b1 74be ce01 693e 3b98 283e b8e7 993d
00000040: 7a57 a1bc 062c 973d 4b06 3f3e 4d98 383d
00000050: f301 c5be 9b2e 123f 691a 14bf ca9a babd
00000060: 481f 09bf de9d dcbe bc50 9d3e 148b fdbe
00000070: 5f80 eb3e a1f9 d2be

prop_layer.GRU.bias_hh_l0 f4 [30]
0.040775854 0.065844916 0.16034532 0.064628854 0.10358901 0.043559026 0.033218164 0.056179672
0.039227195 0.1682658 -0.12666713 -0.29772913 -0.23901913 0.22755526 0.16435699 0.0749524
-0.019704796 0.07382399 0.18621208 0.04623786 -0.1768496 0.24135512 -0.30595556 0.07749119
-0.10220476 -0.16266708 0.10803322 -0.117541604 0.39448118 -0.328601
00000000: 9504 273d b3d9 863d 9031 243e 225c 843d
00000010: 7a26 d43d f36a 323d c50f 083d a81c 663d
00000020: b2ac 203d df4d 2c3e 07b5 01be f46f 98be
00000030: 6ec1 74be 3f04 693e 334d 283e a580 993d
00000040: f46b a1bc 0831 973d 61ae 3e3e e963 3d3d
00000050: 1018 35be cc25 773e 35a6 9cbe b3b3 9e3d
00000060: bb50 d1bd 3392 26be 8540 dd3d a7b9 f0bd
00000070: 70f9 c93e 643e a8be

interaction_layer.0.weight f4 [20, 20]
0.0044599865 0.005758175 -0.0012743623 -8.3327795e-06 -0.00037144776 -0.0018873129 4.066637e-05 -0.005011971
3.1370555e-06 -0.0022991125 0.0057076276 0.005886729 -0.0007234114 -0.00024728556 -0.0008217709 -0.0022882556
-0.00048507468 -0.0047777668 0.0002031821 6.238593e-05 -6.797354e-21 -1.0906974e-20 1.2876607e-20 -1.0461307e-20
9.972996e-21 8.544409e-21 -9.078804e-22 2.133972e-20 -9.0358456e-21 1.860054e-20 8.570432e-21 -1.7445483e-20
7.529877e-21 1.9022943e-21 -1.18399725e-20 7.910365e-21 6.831425e-21 4.340558e-21 3.2315717e-20 -1.30645835e-20
-0.20991576 -0.32766175 0.039187077 0.15061396 0.078393824 -0.068665415 0.10169246 0.06157041
0.45025885 0.3046213 0.0336831 0.037355024 0.25531647 0.20478451 -0.08128443 0.5115761
-0.2075143 0.01438906 0.19198236 0.26254722 -3.5950302e-07 3.3892678e-07 -1.0503326e-07 -3.3001243e-10
-5.6045977e-08 -2.745914e-09 7.8383945e-11 -3.6862853e-06 -2.3865555e-08 -8.851201e-06 6.046957e-06 8.305534e-09
-1.3756455e-08 1.0634167e-08 -2.9037813e-07 1.893059e-07 -2.966111e-08 -8.039286e-07 4.7846246e-08 0.000116203875
-0.68611246 -0.41107216 0.009177588 0.1825851 0.04514237 0.4097204 -0.08334739 0.14343265
-0.06231929 0.3411509 0.10188956 0.35766935 0.07143352 -0.052160125 0.048306137 -0.118934065
-0.06615459 -0.13612823 -0.42946634 0.34060737 -0.0400255 -0.2227335 -0.20268673 -0.42619064
-0.043866694 0.06049834 0.18923016 0.2206572 -0.45803243 0.07366369 0.07538419 0.24880199
0.1732119 0.279163 -0.5631783 -0.33441508 0.12250021 -0.20216747 -0.041342832 0.17270029
-9.819e-42 7.64305e-30 -1.8259619e-37 9.888e-42 -9.874e-42 9.812e-42 9.846e-42 -1.2305699e-21
-9.829e-42 1.5259789e-34 9.466535e-37 4.230715e-22 -2.421e-42 9.923e-42 -9.846e-42 2.076694e-37
9.848e-42 -4.2376606e-24 -9.902e-42 4.757787e-33 0.23436405 0.1911937 -0.11051468 -0.03554514
0.044065084 -0.027814945 -0.12781522 -0.2775225 0.37063697 -0.35268608 -0.012881025 -0.2805
0.16998103 0.3873828 0.05025282 -0.09733734 0.53388995 0.22685814 -0.41967618 0.48353517
-0.052033775 0.3200477 -0.614595 0.36602312 -0.14104433 -0.35005993 -0.063993074 -0.60517764
-0.18726742 0.19083345 -0.05698987 -0.011196917 0.34009486 -0.42725748 -0.09008405 -0.043269195
-0.7733671 0.1643159 0.0680871 0.40319118 -0.06436872 -0.4767984 0.53632253 0.2384728
0.4095775 -0.16273704 -0.04868063 0.2537095 -0.13649581 -0.24324484 -0.10422658 -0.05869617
-0.23170622 -0.08561988 0.21677345 0.06194205 0.08285307 0.34307078 -0.14468792 0.33194542
0.34751847 0.33507445 -0.17119662 -0.4455006 0.23258269 0.32619318 -0.079582445 -0.83402056
-0.07636313 -0.21000908 -0.6448995 -0.1026746 0.28707126 0.16691956 -0.5277555 0.0134508815
0.19431235 0.21855782 0.3216255 -0.13295098 -0.0044218246 -0.2731522 0.44695187 0.40057886
-0.00041243926 0.27025595 -0.079009704 0.558934 -0.72280663 0.36355254 -0.15452014 0.25759888
-0.26535082 -0.000343974 0.054523703 0.11788078 0.057563048 -0.32315448 0.26156458 -0.20092705
0.017805602 -0.063907795 -0.48916605 0.09373666 -0.07204012 0.24115877 -0.34559673 -0.03791877
-0.075532384 -0.5537033 0.043996096 -0.199942 0.09362326 0.09962385 0.16794789 -0.28291258
00000000: 1425 923b 13af bc3b 8108 a7ba 04cd 0bb7
00000010: e0be c2b9 b65f f7ba 2f91 2a38 763b a4bb
00000020: 3486 5236 b5ac 16bb 0d07 bb3b 76e5 c03b
00000030: 51a3 3dba 1ba6 81b9 1d6c 57ba 8ff6 15bb
00000040: 9f51 feb9 d08e 9cbb 480d 5539 31d5 8238
00000050: fd65 009e e406 4e9e 733b 731e c79b 459e
00000060: 7362 3c1e 3a66 211e ec31 899c 478c c91e
00000070: abae 2a9e 59ad af1e 11e4 211e 97c4 a49e
00000080: 403c 0e1e b9bb 0f1d 98a6 5f9e 2e6c 151e
00000090: bf0a 011e 4dfb a31d 4e9b 181f 73c8 769e
000000a0: 28f4 56be 48c3 a7be a182 203d 8c3a 1a3e
000000b0: f18c a03d 74a0 8cbd 2344 d03d 4131 7c3d
000000c0: 5488 e63e 53f7 9b3e 4af7 093d 9501 193d
000000d0: d7b8 823e 08b3 513e 7478 a6bd a7f6 023f
000000e0: a17e 54be 18c0 6b3c 0697 443e 976c 863e
000000f0: b801 c1b4 bef5 b534 a58e e1b3 1f6d b5af
00000100: 34b7 70b3 a1b2 3cb1 3d5e ac2e e661 77b6
00000110: e900 cdb2 9e7f 14b7 f7e6 ca36 20b0 0e32
00000120: 8755 6cb2 90b1 3632 44e5 9bb4 0244 4b34
00000130: 78c9 feb2 8dcd 57b5 817f 4d33 7bb2 f338
00000140: 11a5 2fbf 0d78 d2be 985d 163c 97f7 3a3e
00000150: 35e7 383d dfc6 d13e 09b2 aabd 02e0 123e
00000160: 8342 7fbd 55ab ae3e 79ab d03d 7020 b73e
00000170: bd4b 923d dba5 55bd a8dc 453d b493 f3bd
00000180: 0f7c 87bd 3365 0bbe 03e3 dbbe 1764 ae3e
00000190: c7f1 23bd 4014 64be 1c8d 4fbe a935 dabe
000001a0: 90ad 33bd 1bcd 773d 8dc5 413e f6f3 613e
000001b0: 3a83 eabe fddc 963d 0763 9a3d f3c5 7e3e
000001c0: 765e 313e 74ee 8e3e 742c 10bf 7438 abbe
000001d0: 64e1 fa3d fd04 4fbe 1a57 29bd 58d8 303e
000001e0: 5f1b 0080 fc04 1b0f 7c89 7882 901b 0000
000001f0: 861b 0080 5a1b 0000 721b 0000 5ef5 b99c
00000200: 661b 0080 5fd6 4a07 9310 a103 25bb ff1b
00000210: c006 0080 a91b 0000 721b 0080 1d55 8d02
00000220: 741b 0000 c2ef a398 9a1b 0080 78a1 c509
00000230: 21fd 6f3e 48c8 433e 8555 e2bd c897 11bd
00000240: 977d 343d 2bdc e3bc fee1 02be 6e17 8ebe
00000250: 21c4 bd3e 4593 b4be ef0a 53bc b29d 8fbe
00000260: 820f 2e3e 0a57 c63e e7d5 4d3d cd58 c7bd
00000270: 03ad 083f 804d 683e ccdf d6be ec91 f73e
00000280: 5e21 55bd 4bdd a33e 1956 1dbf 6267 bb3e
00000290: ed6d 10be 0e3b b3be cd0e 83bd ecec 1abf
000002a0: 08c3 3fbe d869 433e 366e 69bd 4673 37bc
000002b0: ea20 ae3e 7ec1 dabe fd7d b8bd 0a3b 31bd
000002c0: 63fb 45bf 6d42 283e 4071 8b3d 136f ce3e
000002d0: bfd3 83bd eb1e f4be 6f4c 093f 3732 743e
000002e0: 24b4 d13e 8aa4 26be 5765 47bd 36e6 813e
000002f0: 8fc5 0bbe 2d15 79be bf74 d5bd 656b 70bd
00000300: 6544 6dbe 7a59 afbd dcf9 5d3e f2b6 7d3d
00000310: dfae a93d f9a6 af3e 1229 14be c0f4 a93e
00000320: f1ed b13e e18e ab3e 2b4e 2fbe a818 e4be
00000330: 282a 6e3e cb02 a73e 1ffc a2bd 5f82 55bf
00000340: 4664 9cbd 9f0c 57be 2218 25bf 1047 d2bd
00000350: 01fb 923e f6ec 2a3e fc1a 07bf 1661 5c3c
00000360: d1f9 463e 9fcd 5f3e 19ac a43e 4d24 08be
00000370: f4e4 90bb 9bda 8bbe e0d6 e43e ac18 cd3e
00000380: a93c d8b9 fd5e 8a3e d7cf a1bd 4c16 0f3f
00000390: db09 39bf 8f23 ba3e 873a 1ebe 00e4 833e
000003a0: 10dc 87be 6957 b4b9 3f54 5f3d 7a6b f13d
000003b0: 3bc7 6b3d 8174 a5be cbeb 853e d2bf 4dbe
000003c0: 0edd 913c 17e2 82bd f973 fabe 02f9 bf3d
000003d0: c589 93bd 53f2 763e 0ef2 b0be b650 1bbd
000003e0: b9b0 9abd 80bf 0dbf 4035 343d 98bd 4cbe
000003f0: 8dbd bf3d 9707 cc3d 88fa 2b3e ebd9 90be

interaction_layer.0.bias f4 [20]
-0.016374677 1.6661822e-20 -0.0364825 -0.00071029685 0.19317907 0.15413274 -1.1940274e-09 -0.041158378
0.18470892 -0.26579157 0.13565621 0.10175672 -0.060948137 -8.12834e-20 -0.1316707 -1.2957944e-16
-0.12936425 -0.047220252 0.07819123 0.021901349
00000000: 3024 86bc d05d 9d1e ad6e 15bd 3733 3aba
00000010: bcd0 453e f9d4 1d3e 1b1b a4b0 b095 28bd
00000020: 5624 3d3e d515 88be 76e9 0a3e d465 d03d
00000030: c1a4 79bd cdec bf9f afd4 06be 1a65 15a5
00000040: 1078 04be 066a 41bd b922 a03d 756a b33c

interaction_layer.2.weight f4 [10, 20]
0.0104104625 -2.7149018e-20 -0.46215934 -0.0030418136 -0.5292976 0.12822802 2.8826426e-08 -0.2700841
0.56482863 -0.1634578 0.65817136 -0.7077272 -0.25793844 8.274689e-31 -0.29434514 9.899e-42
-0.3941066 -0.40900478 -0.2042961 -0.040688764 0.01520161 -5.687146e-21 -0.20511465 -3.170268e-05
-0.7295797 -0.09140333 -1.7054448e-19 0.3231607 -0.07974322 -0.034186084 0.05165009 -0.0067982497
-0.5775686 -9.822e-42 -0.13478063 -9.82e-42 -0.07020209 -0.010332881 0.120838925 0.13741152
0.010944529 6.986479e-21 -0.06610404 -0.0019406041 -0.28978303 -0.2596961 1.121377e-09 0.5474326
-0.10625316 -0.2987866 0.19227779 -0.23384352 0.5357571 2.5787237e-25 -0.6240036 9.809e-42
0.2885505 0.08527563 -0.08130946 -0.21196659 -0.0055691088 1.1900047e-20 -0.29274127 -0.000922626
-0.002833553 0.41068408 -2.8132236e-11 -0.28722647 -0.590341 0.6705642 0.2847065 0.1874629
-0.43405068 2.1932e-41 0.020683931 -9.813e-42 -0.07002079 -0.41074264 -0.16389681 -0.45948514
0.0035143804 2.5109113e-20 -0.25194266 -0.001657314 -0.089168034 -0.021420177 -3.6696773e-16 -0.061542936
0.7116795 0.16561693 -0.53998464 0.14416106 0.25065127 9.82e-42 -0.40577802 9.883e-42
-0.04768317 0.1437004 -0.7553398 0.40250593 -0.008856049 -3.0304931e-21 -0.09870996 7.010468e-05
0.06309483 0.41500244 4.199642e-33 -0.2690739 0.40490213 -0.109022014 0.34054103 0.2378905
0.2693902 9.843e-42 -0.070512936 9.855e-42 0.20191605 -0.18931873 0.21331218 0.38871136
-0.0060130074 1.3985782e-20 0.38641736 0.0016502893 -0.11125977 -0.18093358 1.0810112e-09 -0.58788526
0.54602164 0.45236418 0.12240328 -0.5635174 0.047897257 -9.822e-42 -0.43096098 5.5449767e-36
0.08724658 0.15609449 0.14013791 0.075374864 0.00083419867 -1.506229e-20 -0.06070862 -0.00030626327
-0.24129835 -0.06737712 -1.24983715e-17 0.023477662 0.1109812 -0.19609855 0.4542782 -0.020919573
-0.17471194 9.85e-42 0.18092239 9.855e-42 -0.13150507 0.82637227 -0.5172394 -0.14617121
0.0055967616 6.5473062e-21 -0.4003265 -0.0004541992 0.18653731 -0.10408776 1.2347571e-21 -0.2022254
0.38708892 0.08179939 -0.7456608 -0.31208178 -0.2214241 9.83e-42 -0.15150692 -9.888e-42
0.60693204 0.56268746 0.23058905 0.33623224 -0.0038120628 1.394252e-20 0.13201967 -0.00015689495
-0.07919838 0.660742 -4.4190996e-15 -0.03617858 0.009623369 -0.4864877 -0.39076343 0.1970866
-0.296054 -3.8e-42 -0.57005924 9.89e-42 -0.13414346 0.20217976 -0.312211 0.3070723
00000000: a590 2a3c 2635 009f 26a0 ecbe 2a59 47bb
00000010: 0c80 07bf 354e 033e fb9d f732 7748 8abe
00000020: 9c98 103f 7b61 27be eb7d 283f 9c2d 35bf
00000030: 8210 84be b743 860d 68b4 96be 981b 0000
00000040: 57c8 c9be 1369 d1be ff32 51be 43a9 26bd
00000050: 2c10 793c b3da d69d 9309 52be 7ef8 04b8
00000060: bcc5 3abf ab31 bbbd e857 49a0 5275 a53e
00000070: 6a50 a3bd b506 0cbd 0b8f 533d dac3 debb
00000080: 89db 13bf 611b 0080 ef03 0abe 601b 0080
00000090: 1dc6 8fbd 3e4b 29bc 667a f73d 9bb5 0c3e
000000a0: af50 333c 8af8 031e 8e61 87bd de5b feba
000000b0: 715e 94be e3f6 84be f21e 9a30 8b24 0c3f
000000c0: 429b d9bd 8ffa 98be 78e4 443e ad74 6fbe
000000d0: 6127 093f 829d 9f16 b3be 1fbf 581b 0000
000000e0: e4bc 933e fda4 ae3d 9385 a6bd c50d 59be
000000f0: 127d b6bb 19c9 601e 2fe2 95be 62dc 71ba
00000100: 21b3 39bb 2f45 d23e 2a74 f7ad 590f 93be
00000110: 9620 17bf 18aa 2b3f 0dc5 913e 46f6 3f3e
00000120: e43b debe 233d 0000 5971 a93c 5b1b 0080
00000130: 0f67 8fbd dc4c d2be 91d4 27be a341 ebbe
00000140: 8551 663b 1c26 ed1e a1fe 80be 3b3a d9ba
00000150: bb9d b6bd 5e79 afbc e18a d3a5 7214 7cbd
00000160: a130 363f 7c97 293e 6f3c 0abf f59e 133e
00000170: 5d55 803e 601b 0000 23c2 cfbe 8d1b 0000
00000180: 6d4f 43bd 3326 133e f35d 41bf 4215 ce3e
00000190: f618 11bc 43fa 649d 7328 cabd 2a05 9338
000001a0: dd37 813d 337b d43e 4172 ae09 0ec4 89be
000001b0: 554f cf3e ef46 dfbd 655b ae3e 9199 733e
000001c0: 83ed 893e 701b 0000 1669 90bd 791b 0000
000001d0: 15c3 4e3e c5dc 41be 826e 5a3e 2d05 c73e
000001e0: c308 c5bb 8c17 841e 7fd8 c53e 854e d83a
000001f0: 2adc e3bd a746 39be b392 9430 a67f 16bf
00000200: 13c8 0b3f 479c e73e 92ae fa3d ad42 10bf
00000210: ea2f 443d 611b 0080 eba6 dcbe 73db eb04
00000220: 56ae b23d 3cd7 1f3e 5080 0f3e 235e 9a3d
00000230: 20ae 5a3a 6242 8e9e 9aa9 78bd f691 a0b9
00000240: ea16 77be 04fd 89bd e48d 66a3 3a54 c03c
00000250: 1d4a e33d 0fce 48be 2797 e83e 865f abbc
00000260: b0e7 32be 751b 0000 b843 393e 791b 0000
00000270: 44a9 06be 228d 533f cd69 04bf e8ad 15be
00000280: 0a65 b73b a959 f71d 98f7 ccbe 9621 eeb9
00000290: a303 3f3e f72b d5bd 5a97 ba1c 2d14 4fbe
000002a0: 8530 c63e 7086 a73d a0e3 3ebf 2fc9 9fbe
000002b0: 00bd 62be 671b 0000 a124 1bbe 901b 0080
000002c0: e65f 1b3f 490c 103f 891f 6c3e a226 ac3e
000002d0: cdd3 79bb f2ae 831e 2a30 073e 2b84 24b9
000002e0: c332 a2bd 6326 293f 0037 9fa7 fe2f 14bd
000002f0: 56ab 1d3c ea14 f9be 2512 c8be 12d1 493e
00000300: 6494 97be 980a 0080 67ef 11bf 921b 0000
00000310: e75c 09be 3608 4f3e 1fda 9fbe 9538 9d3e

interaction_layer.2.bias f4 [10]
0.059777606 0.11488566 0.08113123 0.072560705 -0.109519 -0.23000745 -0.06583885 -0.12206498
-0.07244518 0.0784492
00000000: 5dd9 743d 2c49 eb3d 2128 a63d b59a 943d
00000010: 7f4b e0bd 1387 6bbe 85d6 86bd 34fd f9bd
00000020: 235e 94bd f9a9 a03d

aggregator.MLP1.0.weight f4 [20, 10]
0.092247985 0.15571108 -0.13782388 0.17582558 -0.27094042 -0.14777471 -0.00420869 -0.10609172
-0.09882693 -0.25353414 -0.07649022 0.00363921 0.06888648 -0.030811587 0.0993439 -0.11628126
0.016767383 0.010523132 -0.0068078865 0.19731563 -0.058324803 0.040614873 0.0807118 0.19902922
0.036236193 -0.27871975 0.20238067 -0.070086814 -0.100370534 -0.6404285 -0.0458048 -0.07244665
0.05626121 0.10735932 -0.07748095 -0.07712363 0.06616294 0.008891452 0.016871663 -0.0017920453
0.026012067 0.010270381 -0.012557894 0.00592296 -0.0010372486 -0.012375783 0.014489451 -0.011656031
0.011750901 -0.005658329 0.29997167 -0.1735143 0.34872544 -0.011123746 0.018034507 -0.07900303
-0.05102272 0.23849647 0.44129422 0.047300134 0.28060928 0.15083943 0.09355542 -0.1246814
-0.14169143 -0.058228113 0.040842082 -0.014652402 0.080095895 0.013573319 0.57846785 -0.04296248
-0.40233243 -0.10162426 -0.17136161 0.22513767 0.00820139 -0.46226394 -0.011378242 -0.15601124
0.03757208 -0.016822178 0.2721725 -0.07141163 -0.39077377 -0.21941335 -0.26186323 -0.1249047
0.085806146 -0.5049324 0.6547321 0.06783219 -0.27232555 -0.3792447 0.30131176 0.13435844
-0.17717047 -0.19666457 0.11122645 0.122269474 -0.08218685 -0.10543495 0.3998472 -0.19995223
0.2048446 0.013232368 0.50185555 0.10523489 -0.09672849 0.03320377 -0.17913638 0.13055418
-0.033331368 -0.3598554 0.20024332 -0.16764589 -0.32612586 0.03018606 0.28747937 -0.010794933
-0.21866317 0.41597947 -0.07467066 -0.16170181 0.4019454 0.4541634 0.013935319 -0.22380045
0.054504763 -0.18769534 -0.061376378 0.09277487 0.3405869 -0.08095124 -0.11853493 -0.10697145
-0.118659176 -0.030144382 0.35055435 0.09565377 -0.013091954 -0.014115784 -0.0018875633 0.009819155
-0.0011944515 -0.002872621 0.002597772 0.0026523166 0.0013012816 0.0034705559 0.4010944 0.32587883
0.28449148 -0.13316251 -0.2936424 -0.05245847 -0.004931776 -0.049909357 -0.10585533 0.2358393
0.070805274 0.02792156 -0.27697432 -0.0011979113 0.18466868 -0.57383007 -0.10062189 0.1636537
0.16711015 -0.10027109 -0.15968241 -0.59668684 0.15862179 -0.25846636 0.4118631 0.54286456
-0.33049002 0.2396552 -0.041404422 0.07856517 -0.17848864 0.49591535 -0.10800041 0.665379
0.28552678 0.09485214 -0.3366217 0.086656205 -0.18892653 0.13604389 -0.3508836 0.04538502
0.58878374 0.38407138 -0.112238735 -0.04488728 0.030013127 0.3648755 0.15806828 -0.23879755
00000000: 83ec bc3d ba72 1f3e b421 0dbe 9f0b 343e
00000010: b4b8 8abe 4152 17be 0de9 89bb 9e46 d9bd
00000020: c665 cabd 3acf 81be e8a6 9cbd d07f 6e3b
00000030: 5b14 8d3d 9568 fcbc d174 cb3d df24 eebd
00000040: c05b 893c 3769 2c3c b114 dfbb 1c0d 4a3e
00000050: fde5 6ebd c85b 263d 3a4c a53d 51ce 4b3e
00000060: 676c 143d 5bb4 8ebe e13c 4f3e ad89 8fbd
00000070: 118f cdbd 1ff3 23bf d09d 3bbd e95e 94bd
00000080: 2872 663d 34df db3d 55ae 9ebd fef2 9dbd
00000090: 6f80 873d 74ad 113c 7136 8a3c 10e3 eaba
000000a0: 4217 d53c 1a45 283c a0bf 4dbc 6415 c23b
000000b0: 4af4 87ba ccc3 4abc 2a65 6d3c f0f8 3ebc
000000c0: da86 403c 8169 b9bb e395 993e bcad 31be
000000d0: 248c b23e 5f40 36bc 1abd 933c 57cc a1bd
000000e0: 33fd 50bd 6b38 743e 51f1 e13e c9bd 413d
000000f0: 05ac 8f3e a775 1a3e fc99 bf3d f658 ffbd
00000100: 8f17 11be 9a80 6ebd 074a 273d a110 70bc
00000110: 5109 a43d a062 5e3c 7816 143f 6df9 2fbd
00000120: 84fe cdbe 6120 d0bd 6b79 2fbe 7d8a 663e
00000130: 1f5f 063c dcad ecbe ce6b 3abc 69c1 1fbe
00000140: 2ee5 193d aace 89bc 325a 8b3e 4340 92bd
00000150: 8013 c8be e5ad 60be f012 86be 09ce ffbd
00000160: 22bb af3d 4043 01bf 869c 273f 9aeb 8a3d
00000170: 416e 8bbe 5c2c c2be 8945 9a3e 4295 093e
00000180: 2d6c 35be 7062 49be b1ca e33d 6b68 fa3d
00000190: 9451 a8bd 47ee d7bd c6b8 cc3e 47c0 4cbe
000001a0: c8c2 513e 93cc 583c 9b79 003f 6485 d73d
000001b0: 9619 c6bd ad00 083d 876f 37be ffaf 053e
000001c0: 7986 08bd f83e b8be 960c 4d3e 5dab 2bbe
000001d0: f8f9 a6be c248 f73c 7f30 933e 3bdd 30bc
000001e0: 3de9 5fbe 43fb d43e eeec 98bd 2995 25be
000001f0: cacb cd3e 1b88 e83e f750 643c f22b 65be
00000200: 6340 5f3d 3533 40be cc65 7bbd c000 be3d
00000210: 6861 ae3e c4c9 a5bd 71c2 f2bd d913 dbbd
00000220: 9503 f3bd 5af1 f6bc dc7b b33e 20e6 c33d
00000230: a37f 56bc e445 67bc 1d68 f7ba 85e0 203c
00000240: 248f 9cba 9542 3cbb 623f 2a3b 7dd2 2d3b
00000250: c48f aa3a 4472 633b 3f5c cd3e 97d9 a63e
00000260: dea8 913e c15b 08be 4c58 96be b1de 56bd
00000270: bc9a a1bb c16d 4cbd aeca d8bd dc7f 713e
00000280: 5b02 913d c1bb e43c 94cf 8dbe 3c03 9dba
00000290: c919 3d3e 87e6 12bf d912 cebd d694 273e
000002a0: ec1e 2b3e ee5a cdbd c983 23be 78c0 18bf
000002b0: c06d 223e b455 84be b8df d23e 2cf9 0a3f
000002c0: fd35 a9be 2c68 753e af97 29bd c7e6 a03d
000002d0: bac5 36be 9ee8 fd3e 522f ddbd 4756 2a3f
000002e0: 9130 923e d741 c23d ae59 acbe cf78 b13d
000002f0: f575 41be 174f 0b3e 04a7 b3be a5e5 393d
00000300: 88ba 163f 01a5 c43e 6cdd e5bd b9db 37bd
00000310: 17de f53c f6d0 ba3e a7dc 213e 5887 74be

aggregator.MLP1.0.bias f4 [20]
0.06182612 0.048967972 -0.021487158 0.070838675 -0.017826222 0.06851328 0.17976426 0.13226455
-0.029883087 0.0818581 -0.10867248 -0.084133156 0.55215675 0.29922557 0.007181347 -0.17830117
0.39105722 -0.054613117 -0.022701573 0.13345653
00000000: 633d 7d3d a492 483d d605 b0bc de13 913d
00000010: 4c08 92bc b150 8c3d 1f14 383e 5c70 073e
00000020: 60cd f4bc 38a5 a73d ad8f debd 014e acbd
00000030: 255a 0d3f 1834 993e 8151 eb3b 9594 36be
00000040: a738 c83e 01b2 5fbd a6f8 b9bc d4a8 083e

aggregator.MLP2.0.weight f4 [10, 10]
-0.19727162 0.19069608 -0.26371822 -0.23618911 0.009776344 -0.11025215 0.15308563 0.2143896
0.12080688 0.060423642 0.10620113 0.081268355 0.38133118 0.06543407 0.028955612 0.4076176
0.16299301 0.09515256 0.29777303 0.4608507 -0.13892625 0.05288894 0.5654088 -0.017080665
0.005430535 -0.12559439 -0.03896124 -0.22568335 0.1250963 0.47607678 -0.2059793 0.32409078
-0.34257716 0.5334386 0.04335664 0.1566066 0.04697896 0.10926743 0.15304078 0.17174046
0.22845906 -0.14235139 -0.21778375 -0.07452925 -0.018196078 0.014172527 -0.59259397 0.7038759
0.09576563 0.24499802 0.23360696 0.13608673 -0.14736114 0.14832146 -0.007700572 -0.34559172
0.26456255 0.12021607 0.10299588 0.06784177 -0.11930223 -0.19042188 0.0337097 0.08115664
0.012569853 -0.22033086 0.27214134 0.53206706 0.065759934 -0.19261241 -0.367028 0.16747846
0.01863129 0.10641073 -0.004306053 -0.102390155 -0.08506083 -0.20121372 0.09471351 0.20622948
0.1751601 -0.20568137 0.13090478 0.13675788 0.010128877 -0.20889217 -0.14581943 -0.2608458
0.61051565 -0.11860485 -0.16423209 -0.017741308 -0.21138461 -0.16220209 -0.017765705 0.13957888
0.0017568185 0.023534743 0.53643525 -0.3347345
00000000: 9201 4abe d545 433e 1306 87be 8fdb 71be
00000010: f52c 203c e1cb e1bd 7bc2 1c3e f388 5b3e
00000020: 9969 f73d c87e 773d fa7f d93d 0670 a63d
00000030: d73d c33e 4c02 863d 5234 ed3c 41b3 d03e
00000040: a4e7 263e 58df c23d b575 983e 9ff4 eb3e
00000050: af42 0ebe 13a2 583d a2be 103f c0ec 8bbc
00000060: a1f2 b13b d19b 00be d295 1fbd 8919 67be
00000070: 3f19 003e 56c0 f33e 3dec 52be 3aef a53e
00000080: 4666 afbe 6f8f 083f bb96 313d 7b5d 203e
00000090: 036d 403d 9ac7 df3d b9b6 1c3e bbdc 2f3e
000000a0: 2cf1 693e 90c4 11be b402 5fbe cba2 98bd
000000b0: f10f 95bc e333 683c 3db4 17bf 3631 343f
000000c0: c520 c43d c3e0 7a3e aa36 6f3e 525a 0b3e
000000d0: d7e5 16be 95e1 173e 1455 fcbb 66f1 b0be
000000e0: be74 873e d833 f63d 81ef d23d a0f0 8a3d
000000f0: ba54 f4bd f4fd 42be 2f13 0a3d 7435 a63d
00000100: c9f1 4d3c 6a9e 61be 1c56 8b3e 8c35 083f
00000110: 25ad 863d 303c 45be 18eb bbbe 797f 2b3e
00000120: a6a0 983c deed d93d ca19 8dbb eeb1 d1bd
00000130: 5f34 aebd f80a 4ebe 28f9 c13d d22d 533e
00000140: 2b5d 333e 239e 52be e70b 063e 420a 0c3e
00000150: 97f3 253c d4e7 55be b051 15be 958d 85be
00000160: c14a 1c3f 19e7 f2bd 752c 28be 3856 91bc
00000170: 3575 58be 4e18 26be 6289 91bc c4ed 0e3e
00000180: 0c45 e63a efcb c03c d253 093f 5262 abbe

aggregator.MLP2.0.bias f4 [10]
9.871e-42 1.018e-41 -9.916e-42 9.862e-42 -9.888e-42 9.844e-42 9.87e-42 -1.0115e-41
9.875e-42 9.829e-42
00000000: 841b 0000 611c 0000 a41b 0080 7e1b 0000
00000010: 901b 0080 711b 0000 831b 0000 321c 0080
00000020: 871b 0000 661b 0000
