paper_artifacts/collection/edge_early_interaction_baseline_1_pre_K=6/trained_models/edge_early_interaction_baseline_1_pre_K=6_aids_large_dataset_seed_7762_2024-05-08_00:00:29.pth (torch, 25641 bytes, 20 tensors)

encoder.MLP1.0.weight f4 [10, 1]
000000 e3 bd 99 3d c7 bc 0d 3e 5a ee 87 3e 17 be 3b 3e
       0.07506921 0.13841544 0.26549035 0.18334232
000010 ca b4 c0 3d be 98 1c bc f4 2e 19 3e 3d 36 67 3f
       0.09409483 -0.009557901 0.14959317 0.90317136
000020 17 fd 44 3d a4 61 86 3d
       0.048092928 0.06561592

encoder.MLP1.0.bias f4 [10]
000000 24 59 a2 3d ee 30 06 3e 86 eb 4f 3e 80 7d 48 3e
       0.079271585 0.13104603 0.20304689 0.19579124
000010 4f 91 b0 3d 1a 52 a5 bb 85 0a 43 3e 3e 59 66 3f
       0.086214654 -0.0050451877 0.19046982 0.8997992
000020 92 87 14 3d 39 31 8b 3d
       0.036262102 0.06796498

encoder.MLP2.0.weight f4 [20, 1]
000000 22 56 f0 bc 24 3e 93 bc 11 f8 73 3c 1e 2b 06 3d
       -0.029337946 -0.017973967 0.014890687 0.032755964
000010 4d f8 9b bd 82 68 87 3c ce 74 16 bc d6 3d b1 3c
       -0.07615719 0.016529325 -0.009183122 0.021635931
000020 47 6c 7f bc a6 27 20 bc 52 ba 9b 3c 40 ec 00 3d
       -0.01558978 -0.009775078 0.019009743 0.031475306
000030 23 85 21 bd 5f d8 3d 3c 58 42 db 3c 3b d0 88 3c
       -0.03943361 0.011587231 0.026765034 0.016700855
000040 41 9e 0a 3c 3c b0 aa 3c 8f 59 c0 3b 12 62 31 bd
       0.008460582 0.020835988 0.005870051 -0.043306418

encoder.MLP2.0.bias f4 [20]
000000 19 56 f0 bc 1e 3e 93 bc 25 f8 73 3c 18 2b 06 3d
       -0.02933793 -0.017973956 0.014890705 0.03275594
000010 53 f8 9b bd 93 68 87 3c d4 74 16 bc ca 3d b1 3c
       -0.076157235 0.016529357 -0.009183127 0.021635909
000020 24 6c 7f bc 9b 27 20 bc 50 ba 9b 3c 42 ec 00 3d
       -0.015589748 -0.009775068 0.01900974 0.031475313
000030 21 85 21 bd 89 d8 3d 3c 4e 42 db 3c 3a d0 88 3c
       -0.039433602 0.011587271 0.026765015 0.016700853
000040 3b 9e 0a 3c 3d b0 aa 3c b5 59 c0 3b 0f 62 31 bd
       0.008460577 0.02083599 0.005870069 -0.043306407

prop_layer._message_net.0.weight f4 [20, 40]
000000 0a d2 68 be 70 b7 fa 3c 94 e1 df be eb 28 9e 3e
       -0.22736374 0.030605048 -0.4372679 0.30890593
000010 7c db 67 bd 37 ea 0a be 91 9d a4 3d 23 0e 0e bf
       -0.0566058 -0.13565908 0.08037866 -0.5549032
000020 2c 78 67 be f8 93 80 be e9 45 de bd 13 ba 18 3e
       -0.22604436 -0.2511289 -0.10853178 0.14914732
000030 12 41 3b be cd 8a 98 3e 57 e9 19 be 85 60 d4 3d
       -0.18286541 0.29793397 -0.15030418 0.10369972
000040 17 a6 33 bd 5d ca 26 bd 9f a1 83 bd 11 2a a9 bd
       -0.043859567 -0.040720332 -0.06427311 -0.08259977
000050 2c 6f cc 3d 69 f0 57 be b4 70 b2 bd 6b 1e c6 3d
       0.09982142 -0.21087803 -0.08712903 0.096737705
000060 47 17 e8 3d fb 59 f4 3d 22 c2 14 bd 96 75 9b 3b
       0.11332565 0.11931225 -0.036317952 0.004744242
000070 de b2 8c 3e 6f 11 8b bd 09 0f 6e ba 29 8c 59 be
       0.27480215 -0.067904346 -0.000908122 -0.21244873
000080 ae d4 a2 ba b4 2c 7d bb c3 c2 5d be ec 4b bb ba
       -0.0012423003 -0.0038631381 -0.21656327 -0.0014289594
000090 22 1d a7 3c c4 38 ed ba b5 bb b4 bc af 4f 72 3a
       0.020399634 -0.0018098583 -0.022062162 0.0009243441
0000a0 86 82 08 3e 80 20 d0 3c 34 e8 96 3e 09 6c 9f 3b
       0.1333104 0.025406122 0.29474032 0.0048651737
0000b0 b9 2d a1 3d 1a 59 61 3c 0f 77 dc be 96 98 7b 3c
       0.07870049 0.013754154 -0.43059584 0.015356204
0000c0 f9 47 a2 3e 9f 59 75 be bd 70 55 be fd 43 c0 bd
       0.31695536 -0.23959969 -0.20843787 -0.09387968
0000d0 da c9 7c 3d 18 aa 94 3e b1 f5 c8 be 07 69 08 be
       0.06171594 0.2903602 -0.39249948 -0.13321315
0000e0 b4 9d 86 bd 0c 97 88 3d 8c 8d 7b 3e f6 03 49 be
       -0.06573048 0.06669435 0.24565715 -0.19630417
0000f0 44 35 73 bd d5 e2 b5 be af ce 41 3e bf e6 1c be
       -0.05937697 -0.35524622 0.189265 -0.15322398
000100 2f 29 86 be 23 cd 15 3d 04 85 a2 3d b9 86 69 3c
       -0.26203296 0.036572587 0.07935527 0.014253312
000110 4c 0e 95 bd 35 78 bb 3e 1d f6 db bb 35 07 7d 3c
       -0.072781175 0.36615148 -0.0067126886 0.015443613
000120 f2 64 1d 3c e2 be 6e bc 30 40 79 be dd 88 b7 3b
       0.009606587 -0.014571877 -0.24340892 0.005601032
000130 f1 f9 8e 3d 87 9a dd b9 f1 56 87 be 02 4f 2b bc
       0.06981266 -0.00042267537 -0.2643352 -0.010455849
000140 66 5b 0e 3b 00 d8 f9 3d df 0f 06 3e 26 e6 be bc
       0.0021721958 0.12199402 0.13091992 -0.023303103
000150 87 53 67 be e4 3b 33 be a7 c7 dc 3d 73 1f 0f 3d
       -0.22590457 -0.17503315 0.10780268 0.0349421
000160 4b 44 8a be 2e 57 d9 3c b8 f6 f0 bd e2 86 cb 3b
       -0.27005228 0.026530828 -0.11765808 0.0062111476
000170 1e 29 0d 3e 04 d9 2d be 27 f6 0c be eb c4 a6 bd
       0.13785216 -0.16977316 -0.13765775 -0.08143028
000180 95 91 be 3b 2e e4 ab be 60 14 3a bd df e8 25 be
       0.0058156946 -0.33572525 -0.045429587 -0.16202115
000190 bc b7 91 3e 99 74 07 3e f0 c9 98 bd 75 20 a8 3e
       0.2846049 0.13228072 -0.074603915 0.32837263
0001a0 7f c8 e0 be 8e fe 60 be 10 88 42 3e 26 4b 86 3a
       -0.43902966 -0.21972105 0.18997216 0.0010245785
0001b0 7a 31 6b bd f8 c6 ec 3d 40 a3 92 3a c3 1d 28 3d
       -0.05742023 0.11561388 0.0011187568 0.041044008
0001c0 68 c1 81 bb 8e ae a1 3a f6 a1 26 bd 4a 73 21 ba
       -0.0039598234 0.0012335347 -0.0406818 -0.0006158842
0001d0 66 f2 78 bd 13 fc 0f 3b 2d 2d 38 3d b2 b3 9b 3b
       -0.060778044 0.0021970316 0.044964958 0.004751646
0001e0 21 41 d7 be 00 33 9d 3d 3b cb d5 3c 2a 67 64 be
       -0.42041877 0.07675743 0.026097884 -0.22304979
0001f0 a5 d9 04 3f 16 79 85 3e aa e0 46 be 92 de 62 be
       0.518946 0.26068944 -0.1942164 -0.22155216
000200 1c 96 15 be 0c 06 a0 3b 2b 4c d5 be 75 3e 8d 3e
       -0.14608043 0.0048835333 -0.41659674 0.27586713
000210 94 5b dc 3c e6 e6 a5 be 3c 16 1e 3d 70 00 1e 3d
       0.026899137 -0.32402724 0.038595423 0.038574636
000220 6f 6d 32 be de 9c 84 3e 1b c5 82 3e ba 68 2f 3d
       -0.17424558 0.2590093 0.25541005 0.042824484
000230 17 3c 2d be 88 af 65 3e a9 ab 1b bc db 81 5b 3e
       -0.16917454 0.22430241 -0.009501376 0.21436255
000240 e6 38 ec be 52 48 68 3d e2 42 84 3e 42 ae 07 bc
       -0.4613716 0.056709595 0.25832278 -0.008281292
000250 03 5c c9 3d 96 08 c6 be c1 16 92 3b c9 5c a4 3c
       0.09832003 -0.38678426 0.004458279 0.020063775
000260 22 31 ad bb a6 78 c2 3b 75 55 60 3e 66 db c7 bb
       -0.005285398 0.0059347926 0.219076 -0.0060991524
000270 ef d8 b8 be c8 2c 8d 3a fd ea 16 be 4d 34 be 3b
       -0.36103007 0.0010770792 -0.14738078 0.0058045746
000280 85 1f 4e bd 09 3a 9a 3e a5 73 a2 be e9 10 b5 be
       -0.050323028 0.30122402 -0.31728855 -0.35364464
000290 e2 d7 01 bf 99 1f 36 bd 28 0c 5c be a9 14 9d 3e
       -0.50720036 -0.044463728 -0.21489012 0.30679825
0002a0 b9 17 02 3d 17 16 ee 3c de 25 d7 3d ac 11 b2 bd
       0.031760905 0.029063268 0.105052695 -0.08694777
0002b0 64 a1 ff 3d aa ee dc 3d 67 ca 3d 3e d2 87 e3 3d
       0.12481955 0.10787709 0.18534242 0.1110989
0002c0 77 49 8c bd 7b 5a cc be 53 b4 0d 3d 7b 1d ca 3b
       -0.0684995 -0.3991278 0.0345958 0.006168065
0002d0 ca 26 53 be 36 68 34 bd fa dd 2c 3e 50 a2 e8 3d
       -0.20620266 -0.044044696 0.16881552 0.11359084
0002e0 e9 74 99 3c 03 52 80 bd 94 d8 c8 bd 0d e6 b2 3b
       0.018732505 -0.062656425 -0.09806934 0.005459553
0002f0 98 15 9e 3d 05 ef f9 bd 64 e4 91 bb 4d 03 bd be
       0.077189624 -0.122037925 -0.004452275 -0.3691658
000300 d7 b4 36 3a 3e e6 e7 bb 0f 64 d0 bd 61 e9 b7 39
       0.0006969696 -0.0070770076 -0.10175335 0.0003507836
000310 d3 34 a7 3d 72 e9 0b 3b 16 d8 22 bb 13 f8 aa ba
       0.08164372 0.002134886 -0.0024848036 -0.0013043903
000320 70 ee 42 be 82 54 c4 3d 5f ff 14 3e 08 61 ff bd
       -0.19036269 0.09586431 0.14550541 -0.12469679
000330 66 cf 09 3d 40 dd a0 3d ce c0 f2 3c 3a e2 19 be
       0.033645056 0.078547 0.029632952 -0.15027705
000340 9d 4c 48 be 51 e0 f2 bd a1 2f fa bd a0 a0 ec 3d
       -0.19560476 -0.11859191 -0.12216116 0.11554074
000350 7b e5 0e 3e fe e0 b5 bd d2 fb ba 3d 24 62 fb 3e
       0.13954727 -0.088808045 0.09130062 0.49098313
000360 c2 49 81 3d c5 3c 1e be 26 ee 48 be 3f 6d 75 be
       0.06312896 -0.15452869 -0.19622096 -0.23967455
000370 e6 fa 08 be 20 75 47 3e 0d 04 a5 be 73 6c 3b 3e
       -0.1337696 0.19478273 -0.32229653 0.18303089
000380 79 01 fb bc b1 e7 1d 3e 1e e6 a7 3e 75 94 0a 3c
       -0.03064035 0.15420415 0.32792753 0.0084582465
000390 c8 06 a6 3d 27 cd b4 bd 41 43 53 bc 92 ce bd bb
       0.08106762 -0.08828192 -0.012894453 -0.0057924474
0003a0 4c 12 b2 38 83 73 a9 3a ae 4e 9f 3e 9e 2c 44 3c
       8.4911095e-05 0.0012928102 0.31114715 0.011973528
0003b0 7c f9 f8 3d 17 3c 13 3a c1 d5 d1 3b dc 95 11 39
       0.1215696 0.0005616559 0.0064036553 0.00013884105
0003c0 98 f9 d4 3d 9e 87 1e 3a 5b 7f af 3c bd 3a 23 bd
       0.10399169 0.000604743 0.021423033 -0.03985094
0003d0 c2 f3 7d bd 23 2e b3 ba 1c 6f 7f bc 20 b8 0b 3d
       -0.062000044 -0.0013670366 -0.015590455 0.034111142
0003e0 70 76 89 3d ec ce ab bd 3a 81 18 3d e5 06 40 bd
       0.06712043 -0.083890766 0.037232615 -0.046881575
0003f0 2a a4 3e 3d b4 a7 63 bc 3b f3 84 bd 86 b5 8b 3c
       0.046543278 -0.013894964 -0.06491705 0.01705433

prop_layer._message_net.0.bias f4 [20]
000000 b7 94 5a 3e ef ac 8f bc a5 75 60 bd a2 f8 b2 3d
       0.21345793 -0.017538516 -0.054799695 0.08738829
000010 72 93 c8 3e 58 b6 37 bd ce 4c 9e bc 6c aa 00 bd
       0.39174992 -0.04485163 -0.019323733 -0.031412527
000020 c7 f4 87 3e 17 a3 ce 3d 99 38 0a 3d 58 9e 68 bc
       0.26553938 0.10089701 0.033745382 -0.014197908
000030 54 f1 07 3e 61 4e 90 3a 39 06 0a 3d f2 e6 15 3e
       0.13275653 0.0011009687 0.03369734 0.1463888
000040 3d 9d ed 3c 74 48 87 3e da e4 4d 3d ab 01 f2 3d
       0.029005641 0.26422465 0.050267078 0.118167244

prop_layer._reverse_message_net.0.weight f4 [20, 40]
000000 0a d2 68 be 70 b7 fa 3c 94 e1 df be eb 28 9e 3e
       -0.22736374 0.030605048 -0.4372679 0.30890593
000010 7c db 67 bd 37 ea 0a be 91 9d a4 3d 23 0e 0e bf
       -0.0566058 -0.13565908 0.08037866 -0.5549032
000020 2c 78 67 be f8 93 80 be e9 45 de bd 13 ba 18 3e
       -0.22604436 -0.2511289 -0.10853178 0.14914732
000030 12 41 3b be cd 8a 98 3e 57 e9 19 be 85 60 d4 3d
       -0.18286541 0.29793397 -0.15030418 0.10369972
000040 17 a6 33 bd 5d ca 26 bd 9f a1 83 bd 11 2a a9 bd
       -0.043859567 -0.040720332 -0.06427311 -0.08259977
000050 2c 6f cc 3d 69 f0 57 be b4 70 b2 bd 6b 1e c6 3d
       0.09982142 -0.21087803 -0.08712903 0.096737705
000060 47 17 e8 3d fb 59 f4 3d 22 c2 14 bd 96 75 9b 3b
       0.11332565 0.11931225 -0.036317952 0.004744242
000070 de b2 8c 3e 6f 11 8b bd 09 0f 6e ba 29 8c 59 be
       0.27480215 -0.067904346 -0.000908122 -0.21244873
000080 ae d4 a2 ba b4 2c 7d bb c3 c2 5d be ec 4b bb ba
       -0.0012423003 -0.0038631381 -0.21656327 -0.0014289594
000090 22 1d a7 3c c4 38 ed ba b5 bb b4 bc af 4f 72 3a
       0.020399634 -0.0018098583 -0.022062162 0.0009243441
0000a0 86 82 08 3e 80 20 d0 3c 34 e8 96 3e 09 6c 9f 3b
       0.1333104 0.025406122 0.29474032 0.0048651737
0000b0 b9 2d a1 3d 1a 59 61 3c 0f 77 dc be 96 98 7b 3c
       0.07870049 0.013754154 -0.43059584 0.015356204
0000c0 f9 47 a2 3e 9f 59 75 be bd 70 55 be fd 43 c0 bd
       0.31695536 -0.23959969 -0.20843787 -0.09387968
0000d0 da c9 7c 3d 18 aa 94 3e b1 f5 c8 be 07 69 08 be
       0.06171594 0.2903602 -0.39249948 -0.13321315
0000e0 b4 9d 86 bd 0c 97 88 3d 8c 8d 7b 3e f6 03 49 be
       -0.06573048 0.06669435 0.24565715 -0.19630417
0000f0 44 35 73 bd d5 e2 b5 be af ce 41 3e bf e6 1c be
       -0.05937697 -0.35524622 0.189265 -0.15322398
000100 2f 29 86 be 23 cd 15 3d 04 85 a2 3d b9 86 69 3c
       -0.26203296 0.036572587 0.07935527 0.014253312
000110 4c 0e 95 bd 35 78 bb 3e 1d f6 db bb 35 07 7d 3c
       -0.072781175 0.36615148 -0.0067126886 0.015443613
000120 f2 64 1d 3c e2 be 6e bc 30 40 79 be dd 88 b7 3b
       0.009606587 -0.014571877 -0.24340892 0.005601032
000130 f1 f9 8e 3d 87 9a dd b9 f1 56 87 be 02 4f 2b bc
       0.06981266 -0.00042267537 -0.2643352 -0.010455849
000140 66 5b 0e 3b 00 d8 f9 3d df 0f 06 3e 26 e6 be bc
       0.0021721958 0.12199402 0.13091992 -0.023303103
000150 87 53 67 be e4 3b 33 be a7 c7 dc 3d 73 1f 0f 3d
       -0.22590457 -0.17503315 0.10780268 0.0349421
000160 4b 44 8a be 2e 57 d9 3c b8 f6 f0 bd e2 86 cb 3b
       -0.27005228 0.026530828 -0.11765808 0.0062111476
000170 1e 29 0d 3e 04 d9 2d be 27 f6 0c be eb c4 a6 bd
       0.13785216 -0.16977316 -0.13765775 -0.08143028
000180 95 91 be 3b 2e e4 ab be 60 14 3a bd df e8 25 be
       0.0058156946 -0.33572525 -0.045429587 -0.16202115
000190 bc b7 91 3e 99 74 07 3e f0 c9 98 bd 75 20 a8 3e
       0.2846049 0.13228072 -0.074603915 0.32837263
0001a0 7f c8 e0 be 8e fe 60 be 10 88 42 3e 26 4b 86 3a
       -0.43902966 -0.21972105 0.18997216 0.0010245785
0001b0 7a 31 6b bd f8 c6 ec 3d 40 a3 92 3a c3 1d 28 3d
       -0.05742023 0.11561388 0.0011187568 0.041044008
0001c0 68 c1 81 bb 8e ae a1 3a f6 a1 26 bd 4a 73 21 ba
       -0.0039598234 0.0012335347 -0.0406818 -0.0006158842
0001d0 66 f2 78 bd 13 fc 0f 3b 2d 2d 38 3d b2 b3 9b 3b
       -0.060778044 0.0021970316 0.044964958 0.004751646
0001e0 21 41 d7 be 00 33 9d 3d 3b cb d5 3c 2a 67 64 be
       -0.42041877 0.07675743 0.026097884 -0.22304979
0001f0 a5 d9 04 3f 16 79 85 3e aa e0 46 be 92 de 62 be
       0.518946 0.26068944 -0.1942164 -0.22155216
000200 1c 96 15 be 0c 06 a0 3b 2b 4c d5 be 75 3e 8d 3e
       -0.14608043 0.0048835333 -0.41659674 0.27586713
000210 94 5b dc 3c e6 e6 a5 be 3c 16 1e 3d 70 00 1e 3d
       0.026899137 -0.32402724 0.038595423 0.038574636
000220 6f 6d 32 be de 9c 84 3e 1b c5 82 3e ba 68 2f 3d
       -0.17424558 0.2590093 0.25541005 0.042824484
000230 17 3c 2d be 88 af 65 3e a9 ab 1b bc db 81 5b 3e
       -0.16917454 0.22430241 -0.009501376 0.21436255
000240 e6 38 ec be 52 48 68 3d e2 42 84 3e 42 ae 07 bc
       -0.4613716 0.056709595 0.25832278 -0.008281292
000250 03 5c c9 3d 96 08 c6 be c1 16 92 3b c9 5c a4 3c
       0.09832003 -0.38678426 0.004458279 0.020063775
000260 22 31 ad bb a6 78 c2 3b 75 55 60 3e 66 db c7 bb
       -0.005285398 0.0059347926 0.219076 -0.0060991524
000270 ef d8 b8 be c8 2c 8d 3a fd ea 16 be 4d 34 be 3b
       -0.36103007 0.0010770792 -0.14738078 0.0058045746
000280 85 1f 4e bd 09 3a 9a 3e a5 73 a2 be e9 10 b5 be
       -0.050323028 0.30122402 -0.31728855 -0.35364464
000290 e2 d7 01 bf 99 1f 36 bd 28 0c 5c be a9 14 9d 3e
       -0.50720036 -0.044463728 -0.21489012 0.30679825
0002a0 b9 17 02 3d 17 16 ee 3c de 25 d7 3d ac 11 b2 bd
       0.031760905 0.029063268 0.105052695 -0.08694777
0002b0 64 a1 ff 3d aa ee dc 3d 67 ca 3d 3e d2 87 e3 3d
       0.12481955 0.10787709 0.18534242 0.1110989
0002c0 77 49 8c bd 7b 5a cc be 53 b4 0d 3d 7b 1d ca 3b
       -0.0684995 -0.3991278 0.0345958 0.006168065
0002d0 ca 26 53 be 36 68 34 bd fa dd 2c 3e 50 a2 e8 3d
       -0.20620266 -0.044044696 0.16881552 0.11359084
0002e0 e9 74 99 3c 03 52 80 bd 94 d8 c8 bd 0d e6 b2 3b
       0.018732505 -0.062656425 -0.09806934 0.005459553
0002f0 98 15 9e 3d 05 ef f9 bd 64 e4 91 bb 4d 03 bd be
       0.077189624 -0.122037925 -0.004452275 -0.3691658
000300 d7 b4 36 3a 3e e6 e7 bb 0f 64 d0 bd 61 e9 b7 39
       0.0006969696 -0.0070770076 -0.10175335 0.0003507836
000310 d3 34 a7 3d 72 e9 0b 3b 16 d8 22 bb 13 f8 aa ba
       0.08164372 0.002134886 -0.0024848036 -0.0013043903
000320 70 ee 42 be 82 54 c4 3d 5f ff 14 3e 08 61 ff bd
       -0.19036269 0.09586431 0.14550541 -0.12469679
000330 66 cf 09 3d 40 dd a0 3d ce c0 f2 3c 3a e2 19 be
       0.033645056 0.078547 0.029632952 -0.15027705
000340 9d 4c 48 be 51 e0 f2 bd a1 2f fa bd a0 a0 ec 3d
       -0.19560476 -0.11859191 -0.12216116 0.11554074
000350 7b e5 0e 3e fe e0 b5 bd d2 fb ba 3d 24 62 fb 3e
       0.13954727 -0.088808045 0.09130062 0.49098313
000360 c2 49 81 3d c5 3c 1e be 26 ee 48 be 3f 6d 75 be
       0.06312896 -0.15452869 -0.19622096 -0.23967455
000370 e6 fa 08 be 20 75 47 3e 0d 04 a5 be 73 6c 3b 3e
       -0.1337696 0.19478273 -0.32229653 0.18303089
000380 79 01 fb bc b1 e7 1d 3e 1e e6 a7 3e 75 94 0a 3c
       -0.03064035 0.15420415 0.32792753 0.0084582465
000390 c8 06 a6 3d 27 cd b4 bd 41 43 53 bc 92 ce bd bb
       0.08106762 -0.08828192 -0.012894453 -0.0057924474
0003a0 4c 12 b2 38 83 73 a9 3a ae 4e 9f 3e 9e 2c 44 3c
       8.4911095e-05 0.0012928102 0.31114715 0.011973528
0003b0 7c f9 f8 3d 17 3c 13 3a c1 d5 d1 3b dc 95 11 39
       0.1215696 0.0005616559 0.0064036553 0.00013884105
0003c0 98 f9 d4 3d 9e 87 1e 3a 5b 7f af 3c bd 3a 23 bd
       0.10399169 0.000604743 0.021423033 -0.03985094
0003d0 c2 f3 7d bd 23 2e b3 ba 1c 6f 7f bc 20 b8 0b 3d
       -0.062000044 -0.0013670366 -0.015590455 0.034111142
0003e0 70 76 89 3d ec ce ab bd 3a 81 18 3d e5 06 40 bd
       0.06712043 -0.083890766 0.037232615 -0.046881575
0003f0 2a a4 3e 3d b4 a7 63 bc 3b f3 84 bd 86 b5 8b 3c
       0.046543278 -0.013894964 -0.06491705 0.01705433

prop_layer._reverse_message_net.0.bias f4 [20]
000000 b7 94 5a 3e ef ac 8f bc a5 75 60 bd a2 f8 b2 3d
       0.21345793 -0.017538516 -0.054799695 0.08738829
000010 72 93 c8 3e 58 b6 37 bd ce 4c 9e bc 6c aa 00 bd
       0.39174992 -0.04485163 -0.019323733 -0.031412527
000020 c7 f4 87 3e 17 a3 ce 3d 99 38 0a 3d 58 9e 68 bc
       0.26553938 0.10089701 0.033745382 -0.014197908
000030 54 f1 07 3e 61 4e 90 3a 39 06 0a 3d f2 e6 15 3e
       0.13275653 0.0011009687 0.03369734 0.1463888
000040 3d 9d ed 3c 74 48 87 3e da e4 4d 3d ab 01 f2 3d
       0.029005641 0.26422465 0.050267078 0.118167244

prop_layer.GRU.weight_ih_l0 f4 [30, 20]
000000 fb 48 a8 3b 87 e1 ff 3c 37 af 29 bd b5 d3 8b bd
       0.005135653 0.03123547 -0.041426864 -0.06827489
000010 6b e5 b8 bc b9 63 ae bc 87 4e fe 3c b1 cd 45 bd
       -0.022570333 -0.021287786 0.031043304 -0.048291866
000020 6c c4 cd bc 6f a8 9b 3c 1c 4e 5f 3d 72 7e 2a 3d
       -0.025118075 0.019001214 0.05451785 0.041624494
000030 22 ad 3f 3c 16 a7 8b bc 95 99 1a 3e 82 fe 78 3b
       0.011698993 -0.017047446 0.1509765 0.0037993495
000040 ea 42 74 bc 8b 25 29 3d 0b 04 01 3d c6 34 89 3c
       -0.014908532 0.04129557 0.031497996 0.016748797
000050 db 68 4e bc 03 81 6d 3c 03 fc a8 bc 1e 75 d3 bc
       -0.012598242 0.014496091 -0.020627981 -0.025812682
000060 73 68 35 bd 79 44 65 bc 6c 41 23 3c d5 8f fc 3a
       -0.044289064 -0.013993376 0.009964328 0.001926894
000070 1c 6d 33 bc c7 a5 7a bc b8 08 39 bd 9f fb 4a bb
       -0.010951307 -0.015298313 -0.04517433 -0.0030972732
000080 8a 00 8d 3a cc 83 b0 bc 8c e8 09 3c 98 55 f8 3c
       0.0010757607 -0.02154722 0.00841726 0.030314252
000090 19 e4 09 bb 96 98 15 3c dd 97 af bc 22 58 15 3d
       -0.0021040498 0.009130618 -0.021434719 0.036461003
0000a0 34 58 6a bc 92 0f 22 bd 63 eb 3b 3c 4d 32 1d bd
       -0.014303256 -0.03956563 0.011469695 -0.03837805
0000b0 80 d6 d4 3c 1c 66 b3 3b 3b d2 31 bb 3d d1 22 bc
       0.025981188 0.005474819 -0.0027133364 -0.009937582
0000c0 16 96 99 bc 5d 92 33 3c 46 39 a5 bc ee b0 0f bc
       -0.018748324 0.010960189 -0.020168912 -0.008770211
0000d0 42 e0 f9 3a 64 0b 8c bc e9 3f 34 3d 71 19 bc 3c
       0.0019064026 -0.017095275 0.044006262 0.02296135
0000e0 66 7d d5 bb b2 4f 08 bc aa 2a 88 3c 47 b5 50 3c
       -0.006515193 -0.008319782 0.016621906 0.012738532
0000f0 76 2c 96 3b ae 01 0d bc bf 22 27 3d b9 96 3d 3d
       0.004582937 -0.0086063575 0.04080462 0.04628632
000100 0c 1d 1e bc 70 0e 76 3d 85 15 2b bc 4a b8 2e bd
       -0.00965048 0.060072362 -0.010442142 -0.04265622
000110 50 7b 0e 3d 00 39 fa 3c b7 bd f1 b9 be 92 64 bd
       0.03478557 0.030544758 -0.0004610845 -0.055804007
000120 99 95 77 3c e8 63 3e bd 44 a3 81 3d e1 ec 67 3d
       0.01511135 -0.046481997 0.063299686 0.05662239
000130 4d 6f b3 3c 77 bc 83 bd ac 54 8f 3d 55 9a f3 3b
       0.021903658 -0.06432431 0.06998572 0.0074341693
000140 72 49 b0 3b ad 14 bc bc a5 2f 43 3c 38 c4 4e bb
       0.005379849 -0.022959078 0.011913215 -0.003155006
000150 44 03 9d bc 5a a1 21 3c 03 4a 15 bc b0 ed a6 bb
       -0.019166596 0.009865129 -0.009111884 -0.0050942525
000160 29 a6 15 bc a0 02 00 bc b9 d7 44 3c 4a 99 a2 bc
       -0.009133854 -0.007813126 0.012014323 -0.019848485
000170 8b cd d9 bb 23 22 03 bb 6b fd 5d 3c f8 c7 1b bc
       -0.006646817 -0.002000936 0.013549189 -0.0095081255
000180 c6 a7 2b 3b 51 b8 2f bd 90 88 5e 3b ae 1e 27 3b
       0.002619253 -0.042900387 0.003395591 0.0025500464
000190 30 12 8f bc 44 17 23 3d 75 4a 37 bd 3d f3 84 bd
       -0.017464727 0.03981711 -0.044748742 -0.064917065
0001a0 be c9 f2 3a 3c 22 1e bd a0 0b 9d 3c a2 6c 34 bd
       0.0018523259 -0.038606867 0.019170582 -0.044048913
0001b0 a9 ca d0 bc 69 14 86 3c da 6c 7f bd 8c 3d 24 bd
       -0.02548726 0.016367154 -0.06235967 -0.04009776
0001c0 ca 2d 07 3d 9b 7b 5a bd 06 fc 44 3d ad bc eb 3d
       0.033002652 -0.053340536 0.04809191 0.115105964
0001d0 52 69 70 3b 2d 87 77 3d f5 86 39 3d 82 51 bf 3d
       0.003668387 0.060431648 0.04529472 0.09341718
0001e0 f2 54 3d bd be 71 2b 3d 5c 1a 64 bc 16 b9 68 3c
       -0.04622359 0.04185652 -0.0139223 0.014204284
0001f0 2e df c4 bc ad 1a 4a bb e6 a6 c9 bb 72 c0 6f 39
       -0.024032202 -0.0030838654 -0.006153929 0.00022864508
000200 0c e4 4e bd 67 de 2b 3c 5f a5 2c bd 96 ca 5a bc
       -0.05051045 0.010490037 -0.042149898 -0.013353964
000210 83 96 0c bd e2 d3 ca bb 05 2c a3 bc 6c 3a ba bc
       -0.034323227 -0.006189809 -0.019918451 -0.022732936
000220 2e 32 44 3b 87 b9 11 3d 56 ca ce bc ad cf ca bc
       0.0029937136 0.035577323 -0.025242966 -0.02475723
000230 32 0e 22 be 5d 8a 58 bc 8b 76 57 3c 8c a8 46 3d
       -0.15825728 -0.013216582 0.013150821 0.048500583
000240 37 6d 83 3d f3 da b9 bc df f7 0e 3c bd a2 9c 3c
       0.064173155 -0.022687411 0.008726089 0.019120568
000250 af d2 e2 3d 05 56 d5 3b 08 bb 85 be 18 88 fb 3d
       0.11075341 0.0065104985 -0.26119256 0.12281817
000260 e8 20 5b 3d 4c 1e 1c bd 9b cf ec bd 99 eb 4e 3e
       0.05349818 -0.03811483 -0.11563035 0.20207061
000270 71 9a 9f 3b 3e 20 0b be 7b 3e 40 3d fc 50 ca 3d
       0.004870706 -0.13586518 0.046934586 0.09878728
000280 10 75 7b bd d5 6f 6b 3d 28 32 97 3d e4 f8 2e bd
       -0.061390936 0.0574797 0.073826134 -0.04271783
000290 72 b8 c1 bc d7 46 8c bb 7a 1d 11 3d 6c 6c 01 bd
       -0.02364752 -0.0042809057 0.0354285 -0.03159754
0002a0 37 52 25 bd 78 4d 49 3d b2 25 d5 bd 24 97 0e 3e
       -0.04036161 0.049146146 -0.104075804 0.13924843
0002b0 64 e9 a7 3d c1 af 20 bd 31 f6 2a 3d c8 aa 41 3e
       0.081988126 -0.039230112 0.041738693 0.18912804
0002c0 57 8f 78 3c 9d 5d 9b bd dc 10 e2 3d a9 31 2f 3e
       0.015170894 -0.07586215 0.11038372 0.17108788
0002d0 5c 92 61 3d 2a 29 65 bc b1 5f 41 3d 8d b6 7b 3a
       0.05507122 -0.013986865 0.0472104 0.00096020923
0002e0 38 f3 9d 3c 31 93 81 3c 24 fb 6a 3b dc 9f b3 bd
       0.019281015 0.015817257 0.0035855258 -0.08770725
0002f0 b6 53 3d 3d 89 f8 1e 3d f5 6a b5 3c 88 ae cc bd
       0.04622241 0.03881124 0.022145728 -0.09994227
000300 9d 2f 30 bb 38 c6 38 bd 4d ba 84 bd e5 cd 0e bc
       -0.0026883848 -0.04511091 -0.064808466 -0.008716081
000310 57 53 06 3d 1f c7 2f 3c 33 2b 47 3d bb d0 ea ba
       0.032794323 0.0107286265 0.048625182 -0.001791499
000320 58 e3 82 bd 6f 7e df 3d dd 71 db bd e5 69 72 3e
       -0.06391019 0.10912787 -0.10715077 0.23673208
000330 60 e6 98 be f9 92 8a bd 3f a9 be 3c 5b 3e 2a 3e
       -0.29863262 -0.06766314 0.023274062 0.16625349
000340 e0 2d 25 3e d6 18 28 be 93 64 c1 bd 4f 90 f4 3d
       0.16130781 -0.16415724 -0.09443011 0.11941587
000350 b8 68 86 bc 6e 95 4c bd b1 79 9b bc 18 98 a4 3b
       -0.016407356 -0.049947195 -0.018978925 0.005023014
000360 e2 88 97 bd ae a9 e8 3b 91 f3 82 bd 15 52 ff bc
       -0.07399155 0.0071003055 -0.06394113 -0.03116707
000370 4e 9c 5d be 25 fc a4 bd 15 7a 3f bd 49 15 0b 3d
       -0.21641657 -0.08055905 -0.046747286 0.033955846
000380 3b 33 19 3e 51 f3 10 be 81 de 62 3d f0 14 4e bc
       0.14960949 -0.14155318 0.055387978 -0.012578234
000390 e1 e7 3f be ac 47 fa bc a7 4c 74 be e8 fc 08 3e
       -0.18740799 -0.030551754 -0.23857366 0.13377726
0003a0 f3 ee 25 3e a1 93 b8 3d da f2 63 be ea 1c 02 be
       0.16204433 0.09012533 -0.2226061 -0.12706342
0003b0 23 4d 5a bd ab 49 72 3c 1f b3 cb bd 42 bc 60 3e
       -0.05329622 0.014788072 -0.09946274 0.21946815
0003c0 d9 9e 22 3e 4b 44 54 bd 1a c2 d9 3e 60 e8 2a 3e
       0.15880908 -0.05182294 0.425309 0.16690207
0003d0 07 b5 56 3e 2f b3 34 3e 39 41 f5 bc 40 78 47 bd
       0.20967494 0.17646478 -0.029938327 -0.048698664
0003e0 1f da 1a 3e 26 3b ec 3d 09 a5 8a be 0b b3 61 3e
       0.15122269 0.11534719 -0.27079037 0.22040956
0003f0 11 d6 4e 3e 63 12 59 3d 13 dd 98 be 6f dc cc 3d
       0.20198847 0.05299605 -0.29856166 0.10002982

prop_layer.GRU.weight_hh_l0 f4 [30, 10]
000000 b0 c7 ba 3c b5 d0 63 bd 3a 88 d6 bc 5c e9 86 bc
       0.022800297 -0.05561896 -0.026188005 -0.016468696
000010 ce 6d 1b 3c 75 96 c2 3c a3 81 ce 3b 45 91 b7 3c
       0.009486629 0.023753384 0.006302075 0.022408137
000020 67 cb a0 3c 74 a6 bf bc 4a d9 46 bb 23 49 a8 bc
       0.01962824 -0.0233948 -0.0030341917 -0.020542687
000030 45 29 8d 3c bb aa 35 ba 8c a5 1c 3b 31 f0 8c ba
       0.017231593 -0.0006930043 0.0023902385 -0.0010752735
000040 28 eb ac 3c 33 1f 6c 3c 94 60 10 bc 89 b8 8d 3b
       0.021108225 0.014411735 -0.0088120885 0.004324977
000050 79 2b 34 bb 28 e9 1d bd 25 f9 d0 3c 68 3f 76 bc
       -0.0027491732 -0.038552433 0.025509426 -0.015029766
000060 c8 02 52 3c d5 43 c8 ba b7 ef 8a 39 6d 40 fb bb
       0.012818046 -0.0015279005 0.00026500013 -0.0076675923
000070 1a e8 8a 37 07 f4 1e bc 60 0c ca bb 4c a8 09 bd
       1.6558963e-05 -0.009701735 -0.006166026 -0.033607766
000080 95 ea 8e 3c ee 2e 65 bc b4 33 33 3d b6 94 7b 3c
       0.017445842 -0.01398824 0.04375048 0.01535528
000090 ec c3 9a bc 0d 6e cb ba 01 48 aa 3c 89 bb 06 bd
       -0.018892251 -0.0015520469 0.020786287 -0.03289369
0000a0 73 83 8e 3b 9e a2 36 3c 31 b3 11 3b 67 0b 4d bb
       0.004349166 0.011147169 0.002223205 -0.0031287314
0000b0 6f 2e 3b 3c 84 a4 aa ba 77 24 37 bc dd 4d 13 bc
       0.011424645 -0.0013019 -0.0111781275 -0.008990732
0000c0 80 76 d9 3b 2a 36 81 3b d3 73 39 bc 8e bd a1 bd
       0.0066364408 0.0039432244 -0.011319119 -0.07897483
0000d0 a1 6a cb 3c e8 d2 6f 3c d5 49 3a 3c d8 c2 bb bc
       0.024831118 0.014637686 0.011370142 -0.022920057
0000e0 96 7d 04 3d 95 bd 93 3d 47 e0 1a bc 02 7d 82 bc
       0.03234633 0.07213894 -0.009452886 -0.015928749
0000f0 85 e8 2f bc 60 f4 c4 bc 8f c3 30 bc 17 af 2f bb
       -0.010736589 -0.024042308 -0.010788812 -0.0026807243
000100 ea 76 81 3b 12 38 b7 3c d8 f3 dd 3b e5 a8 67 3b
       0.0039509432 0.022365604 0.006773453 0.0035348472
000110 57 d5 90 bc d3 18 19 3b 54 cd 3d bc b8 d3 51 bc
       -0.017679853 0.0023360744 -0.011584599 -0.012806825
000120 6a ed f2 3d a8 a6 c3 3c f2 d1 aa 3d f3 71 2a 3d
       0.118616894 0.023883179 0.08340825 0.041612577
000130 3e 8b b6 3c 3d ba 55 3e 0c a7 a5 3c 79 c6 19 3c
       0.022283193 0.20871826 0.020221256 0.0093856985
000140 9d 1d 4f 3c cc ab ae bd bf 74 e6 3c e4 08 fb 3a
       0.012641338 -0.085288614 0.02813184 0.001915243
000150 eb 96 d2 3c 31 01 e2 3c 1a 30 fb bb df e4 7b 3b
       0.025706729 0.027588459 -0.0076656463 0.0038435978
000160 ae 8c bc 3c 1e 6b 6a bd 30 28 4b 3d 28 e9 f6 3c
       0.0230163 -0.05723106 0.049598873 0.030140474
000170 ec 9d 9f bc 27 97 30 bd ab f9 cd bc 59 f6 e7 bc
       -0.019484483 -0.0431129 -0.025143465 -0.02831571
000180 05 d1 2f bc 9d 91 99 3c f3 2b ad 3c 81 cf 61 bd
       -0.0107309865 0.018746192 0.02113912 -0.05512953
000190 69 e1 f3 bd 35 33 02 3e 51 92 28 bd bb 2c 5a bd
       -0.11908228 0.12714846 -0.041155163 -0.053265315
0001a0 59 fc 00 bd 15 d3 fe bc 4f dd e8 bb b2 40 f7 bc
       -0.031490657 -0.031106511 -0.00710646 -0.030182216
0001b0 d4 27 fc bc e7 f4 0a 3e 0e 8f 1f 3d ae a7 9f bc
       -0.03078071 0.13569985 0.038954787 -0.019489136
0001c0 b3 97 ca bd 91 05 ba bd e7 c7 d8 bd c4 a7 dd bd
       -0.098922156 -0.09083093 -0.10585003 -0.108230144
0001d0 65 3e 5a bd 71 28 f5 3d ce 17 97 bc c9 8e 09 3c
       -0.05328216 0.11970604 -0.018443968 0.008395859
0001e0 9a ab 01 bc 02 41 3b 3d 52 52 50 3d b4 68 68 bd
       -0.007914448 0.045716293 0.050859757 -0.056740478
0001f0 24 d6 66 bd fc 25 b8 3d 6d 32 52 bd 4e a5 bc 3d
       -0.056356564 0.0899162 -0.05131762 0.09211217
000200 d4 35 80 3a 75 20 7e bd 90 1f 1c bc 47 63 09 3e
       0.0009781667 -0.062042672 -0.009529009 0.13416778
000210 45 ec 97 bd ad ce 95 3d 3a 09 47 bd 6f 41 cd bd
       -0.07418112 0.07314811 -0.048592784 -0.10022246
000220 7d 10 1e be a2 cf ba 3c 66 73 0e 3d 72 38 80 3d
       -0.15435977 0.022804085 0.03477802 0.06260766
000230 38 fe c2 bd 07 da 25 3c fd 74 71 bc c4 61 6d 3d
       -0.09521145 0.010122783 -0.014737365 0.057954565
000240 6f 03 cc 3d 2f fe 5d 3d a7 e7 8a bd 75 3d ad 3d
       0.099615924 0.054197486 -0.067824654 0.084589876
000250 50 39 25 bd 41 9b 97 3d 31 22 2b 3d cc 7b 1b 3e
       -0.04033786 0.07402659 0.041780654 0.15183944
000260 6f 3a 79 be 1a 7b 49 3e 9d 1c db 3b 40 1a bb 3c
       -0.24338697 0.19675866 0.0066867606 0.022839665
000270 5f 3b 3b bd d1 2e 9d bc c7 f8 79 bc 26 c2 3d 3d
       -0.045710918 -0.019187363 -0.015257067 0.046327733
000280 81 14 a4 3d ee eb 9d ba d7 af 89 3d aa fa 25 3c
       0.08011723 -0.0012048462 0.06722992 0.010130564
000290 6e 73 73 3c e2 77 b0 bd bc 8b 2b 3d d3 50 3e 3d
       0.014859064 -0.08616616 0.041881308 0.0464638
0002a0 ea e3 c6 3c 3a ea 05 bc ed 98 06 3e 5e e2 92 3d
       0.0242786 -0.00817352 0.13144274 0.07172082
0002b0 16 44 79 3e 7d 42 65 3e b7 a2 12 3e 71 15 56 bb
       0.24342379 0.22388645 0.14319883 -0.0032666589
0002c0 c3 ed c9 3d 37 42 11 3f c0 e7 bb 3d 23 75 e1 3c
       0.098598026 0.5674166 0.09175062 0.027521675
0002d0 04 84 15 be 7a 2d 0f bd 39 b1 db 3c f4 49 41 3e
       -0.14601141 -0.03495548 0.026817905 0.18875867
0002e0 e9 b2 b4 3d 0e 6f 0b bd bb b8 ab bc 00 bd 01 bd
       0.08823187 -0.034041457 -0.02096211 -0.031674385
0002f0 5f 44 09 bd 15 02 28 3c 4a 38 2c 3d 19 c2 b6 bd
       -0.03351247 0.010254403 0.04204587 -0.0892374
000300 72 a2 c5 3d 70 8a 38 3d 86 5b 07 3d 40 14 ed bc
       0.096501246 0.0450539 0.033046268 -0.02894032
000310 bc bf 10 3e 56 92 37 3e 87 1b 43 3d 16 bf 2f bc
       0.14135641 0.17926916 0.047633674 -0.010726711
000320 85 da 15 bd 3d 3f 98 3e b7 cb e7 bc 33 f4 ba bd
       -0.03658535 0.29735747 -0.028295381 -0.091286086
000330 7d 95 c3 3b 78 1d 06 be c0 95 06 be 26 b2 96 3d
       0.005968748 -0.13097179 -0.13143063 0.07358198
000340 70 07 d0 bc 34 e9 3e 3d 3c 31 1d 3c fb 5d 24 3d
       -0.025394171 0.04660912 0.009594258 0.04012869
000350 75 4e 14 be 80 62 a7 3d 99 75 f7 3d 5b 18 43 3d
       -0.14483054 0.08173084 0.12082977 0.04763065
000360 48 7e be bd e0 da 3d bd 28 df 4b 3c c4 3e b0 bc
       -0.0930143 -0.046351314 0.012443341 -0.021514304
000370 b5 92 66 3d 0c 6e 8a bd 7d 06 38 bd 55 04 ca bd
       0.056292254 -0.06759271 -0.044928063 -0.098641075
000380 2d 6e b1 bd e5 03 16 be d5 7f 22 3e 5c 2b 9a 3a
       -0.086635925 -0.14649923 0.15869077 0.001176219
000390 49 c0 d6 bb 65 7a 33 3d f5 4e 4b 3c 77 27 a3 bd
       -0.006553684 0.043817896 0.012408962 -0.07966512
0003a0 ce 82 16 3e 5d f4 23 bd a7 b1 bc 3d a7 b5 6f bd
       0.14698336 -0.040027965 0.09213572 -0.058522847
0003b0 56 5f 2e bd 94 3c 3d bd ef 94 95 3d 0f f0 fe bd
       -0.04257139 -0.04620035 0.073037975 -0.12448131
0003c0 80 40 bd bc 6f 1c 86 3b e6 88 a0 3c 72 93 2f 3c
       -0.023102045 0.004092745 0.019596528 0.010716306
0003d0 38 ec 25 bd d3 36 95 39 76 53 38 3d 38 0e 0d 3d
       -0.04050848 0.00028460342 0.04500147 0.03443739
0003e0 ea 75 94 bd 8f 15 60 bd a6 ae a8 bc aa 36 94 be
       -0.07249053 -0.05470806 -0.020591091 -0.28947955
0003f0 9f 3b 8c 3d 3f fa bd 3d f0 86 ab 3c 89 48 19 be
       0.06847309 0.09276246 0.020938367 -0.14969076

prop_layer.GRU.bias_ih_l0 f4 [30]
000000 84 e6 f8 3c 99 b1 02 3d 6b f6 56 3c f3 3f fb bb
       0.030383356 0.03190765 0.013120274 -0.0076675355
000010 36 13 e6 bc f9 5a 61 3d 6c 53 61 3c a6 e9 dd 3d
       -0.028085332 0.0550184 0.0137527995 0.108355805
000020 51 91 88 3d 0c 80 9e 3c b4 a3 d7 bd d6 95 52 bd
       0.06668342 0.019348167 -0.10529271 -0.051412426
000030 b8 8d dc 3d b0 7d 44 be c4 d6 e9 bd 8d 1e 82 be
       0.10769218 -0.19188571 -0.114179164 -0.25413933
000040 10 79 c0 3c 9f 7a ca 3e c0 d2 d5 bd 67 72 e1 3d
       0.023495227 0.39546677 -0.10440588 0.11008149
000050 fa 1e d5 3e 0d ad 2b bf 84 a9 64 3e d4 15 10 ba
       0.41625196 -0.6706093 0.2233029 -0.00054964167
000060 2c 8b b5 bd 87 f0 70 3e f4 08 dd 3c 10 27 9a 3e
       -0.088644356 0.23529254 0.026981808 0.30107927
000070 d9 fd c4 be ff b7 04 bd
       -0.3847492 -0.032402035

prop_layer.GRU.bias_hh_l0 f4 [30]
000000 84 e6 f8 3c 97 b1 02 3d 6b f6 56 3c f3 3f fb bb
       0.030383356 0.031907644 0.013120274 -0.0076675355
000010 36 13 e6 bc f9 5a 61 3d 6c 53 61 3c 6a e9 dd 3d
       -0.028085332 0.0550184 0.0137527995 0.10835536
000020 51 91 88 3d 0c 80 9e 3c ad a3 d7 bd 45 f4 52 bd
       0.06668342 0.019348167 -0.105292656 -0.051502485
000030 cb 88 dc 3d a1 94 44 be c0 d7 e9 bd 8d 1e 82 be
       0.10768279 -0.19197322 -0.11418104 -0.25413933
000040 ff 4f c2 3c c7 f4 ca 3e ab d2 d5 bd 64 72 e1 3d
       0.023719786 0.39639875 -0.10440572 0.110081464
000050 46 8d 0b 3e a3 08 72 be a1 f7 59 3d a5 27 fb bc
       0.1362811 -0.23636107 0.053214673 -0.030658552
000060 bd af 10 bb c2 50 02 3e 41 33 52 3c c5 0c 4f 3e
       -0.0022077404 0.12726119 0.012829603 0.20219715
000070 d6 e2 f0 bd 6b c6 8f 3c
       -0.117620155 0.017550668

interaction_encoder.0.weight f4 [40, 40]
000000 65 7e 19 be 77 3c 38 3d d9 c3 c2 bd 11 f0 d0 3e
       -0.14989622 0.04497954 -0.09510011 0.40808156
000010 49 1d 26 be b1 fd ac bb f1 7b 92 bc 85 72 06 3d
       -0.16222109 -0.005279266 -0.017881365 0.032824058
000020 ed cf 03 be 31 4a 8a 3c b7 ef 61 be 6a 6e ea 3d
       -0.12872286 0.01688108 -0.220641 0.11446841
000030 18 53 f7 bd 16 ff c0 bd 92 d6 a3 3d 53 20 a8 3d
       -0.12076396 -0.09423654 0.079999104 0.0820929
000040 08 c8 fb 3d 0a e0 e6 bd a3 7a 46 bd 09 43 0b 3a
       0.12294012 -0.11273201 -0.0484568 0.0005312418
000050 bb 25 42 3e 16 00 8b 3d cf f5 a7 bd db 72 65 3d
       0.18959706 0.06787126 -0.08201181 0.056017738
000060 7e 17 e3 bd eb bb b0 bb 14 e3 84 bd ac 6a 82 bd
       -0.11088465 -0.0053934953 -0.06488624 -0.06368002
000070 e6 4c 9a bc f7 bd 84 bd 44 1d be 3c 67 cc 81 3b
       -0.018835496 -0.064815454 0.023207314 0.0039611342
000080 18 6a 98 bc 4d 44 6a bd 7c 11 5a bd 38 97 03 bc
       -0.018605277 -0.057194043 -0.05323933 -0.008031659
000090 f0 d3 b7 bd e5 d4 15 3e cf ba 96 3d 27 d6 a2 3d
       -0.08975971 0.14631994 0.0735985 0.079510026
0000a0 97 d7 3d 86 88 1b 00 00 70 1b 00 00 6c 1b 00 80
       -3.570534e-35 9.876e-42 9.843e-42 -9.837e-42
0000b0 cc d2 5b 04 63 1b 00 80 8a 1b 00 00 5c 1b 00 00
       2.584012e-36 -9.825e-42 9.879e-42 9.815e-42
0000c0 40 b8 7e 02 82 1b 00 80 88 1b 00 80 09 52 0a 01
       1.871385e-37 -9.868e-42 -9.876e-42 2.5405454e-38
0000d0 81 1b 00 80 79 1b 00 80 4d 73 63 81 17 f8 06 98
       -9.867e-42 -9.855e-42 -4.177604e-38 -1.7444347e-24
0000e0 6d 1b 00 00 fe 0c d6 18 7e 1b 00 00 66 1b 00 00
       9.839e-42 5.5330822e-24 9.862e-42 9.829e-42
0000f0 9e 1b 00 80 98 1b 00 00 5c 1b 00 00 9e 1b 00 00
       -9.907e-42 9.899e-42 9.815e-42 9.907e-42
000100 a1 13 00 80 97 1b 00 80 7d 1b 00 00 76 1b 00 00
       -7.042e-42 -9.897e-42 9.861e-42 9.851e-42
000110 7d 1b 00 80 6b 1b 00 80 66 1b 00 80 66 1b 00 00
       -9.861e-42 -9.836e-42 -9.829e-42 9.829e-42
000120 87 1b 00 80 9a 1b 00 80 5a 1b 00 80 53 6d 9b 00
       -9.875e-42 -9.902e-42 -9.812e-42 1.427372e-38
000130 61 1b 00 80 69 1b 00 80 74 1b 00 80 84 1b 00 80
       -9.822e-42 -9.833e-42 -9.848e-42 -9.871e-42
000140 c8 93 ba 3d 28 20 3c bd cb f7 be 3c bf f2 32 bd
       0.09110218 -0.045929104 0.023311516 -0.043688532
000150 63 21 86 bb 2d 04 5b bd a8 0a 6f bb 8b 7b 50 bd
       -0.0040933355 -0.05347078 -0.0036474857 -0.05089907
000160 2e 9b ac bd 74 30 ba 3d 5a 78 0c 3c 03 b9 55 3b
       -0.08428036 0.09091273 0.008573616 0.0032611496
000170 b9 50 76 3d ac ec 0c bd d4 24 d0 bd db d4 08 bd
       0.060135577 -0.034405395 -0.101632744 -0.03340612
000180 38 00 0a bd 59 5f eb 3c 1e 0d f5 3d 98 da 41 3d
       -0.033691615 0.028731989 0.119653925 0.047327608
000190 b0 f6 95 3d 52 ff f7 bd 6f 0a a8 3d 62 25 14 3e
       0.073224425 -0.12109245 0.08205115 0.14467385
0001a0 1f f5 e2 bb 87 f9 f9 3d 9e 84 0c bb b7 28 22 3d
       -0.0069261934 0.12205797 -0.002144135 0.03958961
0001b0 18 9f d8 bb 48 e8 8b 3d b6 fe 17 be 6e 7d 8c 3d
       -0.0066107623 0.068314135 -0.14843258 0.06859861
0001c0 74 fe 13 3d a9 65 ed b9 2d 01 92 bc ee bc 59 3e
       0.036131337 -0.00045279905 -0.017822826 0.21263477
0001d0 d9 b7 84 3b b7 7b ce bd 78 9e 46 bc d6 d0 80 3d
       0.0040502367 -0.100821905 -0.012122743 0.06289832
0001e0 64 85 6b bb 3e 27 a5 bb 93 83 f1 b9 aa b1 43 3a
       -0.0035937661 -0.0050400784 -0.00046065132 0.00074651337
0001f0 1d 6f 4e bb d6 92 c3 ba 29 4f 3c b5 4c 32 b9 35
       -0.0031499334 -0.001492108 -7.015065e-07 1.3798212e-06
000200 e7 f9 7a bb 67 37 9f b9 78 5b eb bb 5f fb ea 39
       -0.0038295926 -0.0003036812 -0.007182535 0.00044819244
000210 02 91 ea 39 0b 3c 98 ba 14 58 ac bb 38 78 f8 3a
       0.00044739997 -0.0011614574 -0.005259523 0.0018956726
000220 6f 81 87 38 e8 09 9f bb 9d dc 03 3b 6b a5 56 b9
       6.4614105e-05 -0.004853476 0.002012051 -0.00020470253
000230 f2 2a bf ba 1e bd d3 ba 70 d9 39 b9 92 de 8c ba
       -0.0014584942 -0.0016154384 -0.00017723977 -0.0010747483
000240 93 8b e4 3a 4b 0a e7 b9 ac 7a 1f b4 0e ec b6 35
       0.0017436616 -0.00044067422 -1.4852657e-07 1.3628758e-06
000250 4d 53 14 bb ca 6f 78 b8 2b 7a 9c bb 4f f2 dc ba
       -0.002263266 -5.923192e-05 -0.0047753057 -0.0016856882
000260 64 48 e0 b9 41 eb a5 36 ee 07 04 bb 0e 91 b9 3a
       -0.00042778545 4.9447704e-06 -0.0020146328 0.001415761
000270 3a 7d 4b 39 88 ef 88 bb ef a3 9a b8 14 af 2f bb
       0.00019406239 -0.004178945 -7.373827e-05 -0.0026807236
000280 8e 75 ae bc 57 28 cc 3d ef 7c b1 3d f0 76 cd 3d
       -0.021296289 0.09968632 0.08666407 0.10032451
000290 46 9c 1d be 31 45 1d bd d6 e7 a0 bd d1 6c 46 3c
       -0.15391645 -0.038396064 -0.07856719 0.012110905
0002a0 ce dd 8d 3e ec 46 87 bd 00 d3 03 3e e2 23 0a be
       0.27708286 -0.06605324 0.12873459 -0.1349025
0002b0 8e 9a 87 bd da 8f b4 bd f6 07 ea 3d 0b 9e fa bd
       -0.06621276 -0.088165 0.114273 -0.122371756
0002c0 4c 9b c3 3d 08 1c 3b 3d 85 37 fe 3c 6b 1a 86 be
       0.09551105 0.04568103 0.031032333 -0.2619203
0002d0 16 25 8a 3c d7 d1 2d 3e 52 63 4c 3e 54 4d a8 3d
       0.016863387 0.16974579 0.19959763 0.08217874
0002e0 4a 1b 8c bd d2 2e c6 3c db d4 0d 3d c4 3b 95 bb
       -0.068411425 0.024192248 0.034626823 -0.0045542438
0002f0 bd bd c7 bc d2 73 dd bc 8c fd 16 3d ff 2a d2 bd
       -0.024382466 -0.027032766 0.036862895 -0.10262107
000300 7e a8 19 3d 8b d6 d8 bc 8f f6 b7 3b de e9 46 be
       0.037514202 -0.02646949 0.005614109 -0.19425151
000310 87 bd 8f 3d 50 63 88 bd 18 92 ae 3d 3d 33 a4 bb
       0.07018571 -0.06659567 0.08523959 -0.005010991
000320 bc f8 9f 3c 1f 56 1a 3e ab 7b 2f 3c 9c c4 6f 3e
       0.019527785 0.15071915 0.010710637 0.23414844
000330 43 26 ac bd 05 50 1c be f4 2d 67 bc aa d7 29 bc
       -0.08405735 -0.152649 -0.014110077 -0.01036636
000340 69 57 14 bd 69 aa 7a bd 45 d5 76 be b5 cd 8f 3e
       -0.036216173 -0.061197672 -0.24104793 0.2808663
000350 a6 03 6d bd 1d bf 16 3d c3 19 c4 bd c9 0d 49 be
       -0.057864808 0.036803354 -0.09575226 -0.19634165
000360 2b d2 6e 3d 10 dd 14 3d c3 aa 15 be 59 d4 86 bd
       0.0583059 0.036343634 -0.14615922 -0.06583471
000370 94 9d 76 be 63 66 9f 3d af 0d 6a 3b d0 09 0b 3e
       -0.24083549 0.077832006 0.0035713722 0.13577962
000380 34 25 9b 3e d1 fe be bd 3d 08 bd 3c 24 9f 8c 3c
       0.3030182 -0.09325946 0.023075217 0.017165728
000390 31 38 2b 3d ef c0 38 bd cf fc 89 bd 5e be 11 3d
       0.041801635 -0.04510587 -0.067376725 0.03558194
0003a0 b5 a5 d2 3d 61 43 73 bb 7e 2f 37 be 21 a2 32 be
       0.10285512 -0.0037119018 -0.1788921 -0.1744466
0003b0 0c db 6a bd d7 5c 70 3e b4 da 23 3e ae 74 16 3e
       -0.057337806 0.23472916 0.16001397 0.14692947
0003c0 b2 1e 7a a7 84 98 f1 a6 7d fb d4 a7 18 36 05 28
       -3.471111e-15 -1.6764074e-15 -5.9114484e-15 7.394713e-15
0003d0 cb b7 66 a9 6b bc 3f 28 65 88 b3 a6 1e 4e d4 27
       -5.1229674e-14 1.06434865e-14 -1.245759e-15 5.8926515e-15
0003e0 39 c8 80 a7 88 50 1a a8 5a 02 89 27 19 09 22 a8
       -3.574422e-15 -8.56618e-15 3.802769e-15 -8.994779e-15
0003f0 ca fe 84 a7 80 83 dd 26 c6 c7 1e a7 08 f5 16 a8
       -3.6913603e-15 1.5370599e-15 -2.2035202e-15 -8.379805e-15

interaction_encoder.0.bias f4 [40]
000000 f5 20 70 3d 96 94 b0 9e 7b 90 55 bd 90 99 95 bc
       0.05862518 -1.8696179e-20 -0.05213974 -0.0182617
000010 7a 38 19 3d c1 e0 da 3c 14 1d ea a8 ca 1e 4d 3e
       0.037407376 0.0267185 -2.599183e-14 0.20031276
000020 15 81 40 bd 92 4f 32 3d 70 f6 b8 bb 3b 9b b4 b9
       -0.046998102 0.043532915 -0.005644612 -0.0003444793
000030 a3 33 07 3e 2a 39 25 3c f1 0c ba bc ca 60 ad 3d
       0.13203292 0.01008443 -0.022711249 0.08465727
000040 0c 54 e0 bd c8 3c 0b b7 b2 3e c7 ba 6f c3 e0 bd
       -0.10953531 -8.299197e-06 -0.001520118 -0.10974776
000050 8e 45 93 a2 fc 19 2b bd 8e 25 2f bd 2e a5 1a 3d
       -3.9918074e-18 -0.041772828 -0.042760424 0.037755184
000060 42 7b e3 bc c9 c1 86 3d 82 f3 96 bd 8f a7 ca 3d
       -0.027768735 0.0657993 -0.07370664 0.098952405
000070 20 75 29 3e 3e 2e 05 be e0 06 ff bd 13 84 8d 3d
       0.16548586 -0.13005921 -0.12452483 0.06909957
000080 71 39 39 3d 7c e9 65 bb 57 8c 69 be 6d bc 15 bd
       0.045220796 -0.0035081794 -0.22807442 -0.03655665
000090 b3 b5 01 b7 4c fd e8 bd b3 a3 04 bd 58 0b 99 3a
       -7.731304e-06 -0.113764375 -0.03238268 0.0011676354

interaction_encoder.2.weight f4 [20, 40]
000000 e4 85 f6 3d 8c 1b 00 00 03 1d ec bb 96 5a 2c bb
       0.12037256 9.882e-42 -0.007205607 -0.002629911
000010 26 be 64 3e 17 35 df 3b ac 14 e9 26 e8 86 7b bd
       0.22338161 0.0068117487 1.6173226e-15 -0.061407954
000020 37 9c 7d 3d 04 1f 1e 3e 5e 8e d2 ba 3d 03 ba 36
       0.061916556 0.15441519 -0.0016064157 5.543609e-06
000030 3e 8f 60 3e 0f 95 2b 3e 04 47 63 3d e7 3c 8f bd
       0.21929643 0.1675608 0.055487648 -0.06994038
000040 d1 16 c3 bd 31 76 8b 34 53 e0 ee b6 aa c3 1e be
       -0.09525836 2.5976763e-07 -7.1190675e-06 -0.15504327
000050 e0 32 03 05 1d c8 b1 bd a8 4e 8e be e3 96 45 be
       6.168935e-36 -0.08680747 -0.27794385 -0.1929584
000060 16 73 a0 bb 58 ef cb 3d a1 79 d2 bd 92 b7 90 3d
       -0.004896532 0.099577606 -0.10277105 0.07066263
000070 6d d0 05 be 4c 1f ee bc 4d 07 fa 3d bb 61 cd ba
       -0.1306779 -0.029067658 0.12208424 -0.0015669385
000080 66 18 87 3e 0f 49 45 b5 55 4b e7 bc 05 99 8b 3d
       0.26385802 -7.3494533e-07 -0.028234163 0.068162955
000090 49 e8 91 b5 d5 7f c0 bd d8 57 ed 3d 02 93 17 be
       -1.0870946e-06 -0.09399382 0.115890205 -0.14802173
0000a0 90 e9 03 3e c8 ca 00 80 d6 70 ba bd b6 99 7a ba
       0.12882066 -7.2744e-41 -0.09103553 -0.0009559648
0000b0 06 25 54 bd 88 df 8c bd e9 f8 7d 27 6a 29 ce bd
       -0.05179312 -0.06878573 3.5245738e-15 -0.10066493
0000c0 c1 e1 77 3d d7 5d cd bd 54 af 02 bb ee 21 30 36
       0.06051803 -0.10027664 -0.001994093 2.6245793e-06
0000d0 6e 41 6b 3d 83 49 71 3e 46 9d 32 3e 3b 22 df 3d
       0.057435445 0.23563199 0.17442808 0.10895201
0000e0 73 93 4e 3c 65 f1 89 33 17 0e 1b b6 07 6d a7 3b
       0.012608397 6.423469e-08 -2.3105001e-06 0.0051094326
0000f0 be 7b d3 9a 9b d4 9f 3d be be bb 3d 83 71 b0 3e
       -8.746747e-23 0.07804223 0.091672406 0.34461603
000100 1f 1f df 3b 30 9a 2e 3e e4 10 24 be 22 8c db bd
       0.00680913 0.17051005 -0.16022068 -0.107200876
000110 8e 3a 54 3d f1 a6 07 3d 75 ac 52 be b2 6f c7 3d
       0.051813655 0.033118192 -0.205736 0.09738101
000120 93 cf c7 3d 18 4c 3e 33 df 63 4b 3e da ef ec 3d
       0.097563885 4.430703e-08 0.19862317 0.115691856
000130 3a f4 07 b7 00 67 06 3e 0f 54 ca 3c af 7b 53 be
       -8.1034905e-06 0.13125229 0.024698285 -0.2065265
000140 99 56 48 be 07 e8 0e 24 10 ec 1c be 3e 8e e7 3a
       -0.19564284 3.0987877e-17 -0.15324426 0.0017666293
000150 d1 4f 96 3c 42 db dc bd 9b f7 2f a7 e5 42 5a be
       0.018348606 -0.107840076 -2.4420356e-15 -0.2131458
000160 ad b9 f0 bd df 2c fb 3b bd ad 62 3c b5 d1 af b7
       -0.11754165 0.007665261 0.013835368 -2.0959278e-05
000170 59 28 a0 be 31 a2 ef bc a8 4a 42 be a2 06 57 bd
       -0.31280783 -0.029252144 -0.18973792 -0.05249656
000180 0f 61 1e be 65 a1 67 35 f4 0c 15 b9 68 37 90 3c
       -0.15466712 8.6289066e-07 -0.00014214573 0.017604545
000190 58 c5 23 00 e5 a5 8f 3e 3e 89 87 3c ed f4 86 be
       3.285036e-39 0.28056255 0.016544934 -0.2635874
0001a0 1f dc 74 bc a2 e8 59 3d 4b 4f 52 be 5e 8a af bd
       -0.014945059 0.05320037 -0.2053806 -0.08571313
0001b0 b5 c0 2b be 00 c7 ef bd 09 c4 5c be 61 1c a8 be
       -0.1677273 -0.11707878 -0.21559156 -0.3283415
0001c0 a6 60 2a be 70 93 e8 39 c9 d1 98 be 82 a4 dc bd
       -0.16638431 0.00044360338 -0.29847553 -0.10773565
0001d0 91 84 5a 3a 04 3e 36 be 9f 4e 8b 3d 72 31 24 be
       0.0008335794 -0.17797095 0.06802105 -0.16034487
0001e0 5a 2e aa 3c 1b 3d 9f 15 b6 af 41 bd 96 37 a5 3b
       0.020774055 6.4315996e-26 -0.04728671 0.0050420268
0001f0 30 1d 9d 3d b2 5a 57 3b 87 cf 1b 27 7d da b2 3e
       0.07671583 0.0032860455 2.1623072e-15 0.34932318
000200 18 66 31 3e 6d da 1e 3e 0f 6b f3 bb d5 39 c6 b9
       0.17324102 0.1551301 -0.007428534 -0.0003780859
000210 b8 61 9f 3e 85 20 a8 bd e8 fd c4 3d 6a 99 91 bd
       0.3112924 -0.082093276 0.09618741 -0.071093395
000220 71 a4 ae bd 35 fc 18 37 a0 48 78 3a 8c 96 8d be
       -0.085274585 9.1186275e-06 0.0009471271 -0.2765392
000230 d1 7a 80 a7 c7 41 47 bd aa 65 08 be 1a 1a 24 3e
       -3.5660295e-15 -0.048646715 -0.13320032 0.16025582
000240 65 97 16 3a 84 5d 52 3d c4 80 4a 3e b4 de 3c be
       0.00057446054 0.051358715 0.19775683 -0.1844433
000250 7e 0b ad 3d 1a 51 9e bd 88 0a 0c bd d2 18 b4 3d
       0.084494576 -0.07730313 -0.03418973 0.087937966
000260 63 ec 80 3e ec e6 34 3a 71 a9 43 be a5 50 80 be
       0.2518035 0.0006900865 -0.19107606 -0.25061527
000270 97 ed 97 b8 eb 78 e3 bc 1b 49 d3 bb ba 55 fc bd
       -7.244496e-05 -0.02776762 -0.006447924 -0.123210385
000280 95 35 cd bd e3 28 1a 1b f2 da 01 3e 5a 9e 39 3c
       -0.100199856 1.2751793e-22 0.12681177 0.011329258
000290 6d ae 11 3d be eb 10 be ee 1e e0 24 8e c6 05 be
       0.035566736 -0.14152429 9.719691e-17 -0.13064024
0002a0 1d 82 5e 3d b8 45 76 be 13 df 0b 3c 80 c3 37 39
       0.054323304 -0.24050033 0.008537072 0.0001752507
0002b0 28 be a4 be 38 be 11 be 28 14 97 3c 22 09 94 3d
       -0.32176328 -0.14232719 0.018442228 0.072283044
0002c0 13 43 15 3e 72 b6 23 36 ca 2f 96 b9 77 11 30 3e
       0.14576368 2.439509e-06 -0.00028645835 0.17194162
0002d0 cb 85 40 20 92 de 5c 3d a5 04 bd bd 9d dd 98 bd
       1.6307301e-19 0.053923197 -0.092294015 -0.074641444
0002e0 25 5e 01 bd 1d 59 b3 bd 31 fa 79 be 6d da 7c be
       -0.031583924 -0.087572314 -0.24411847 -0.24692698
0002f0 27 a7 9e be 43 ad 58 be f1 59 ba 3d 8b ae 4b 3d
       -0.30986902 -0.21159844 0.09099186 0.049727004
000300 20 c7 e3 3d 83 d0 0f 38 43 cd 32 bd 7c 47 77 3e
       0.111219645 3.428805e-05 -0.043652784 0.24148363
000310 77 ca 06 3a b2 61 63 3e 14 27 7d 3e ce ce 41 3e
       0.0005141864 0.22205237 0.24721938 0.18926546
000320 b3 6e 3e bd a4 3e b8 1c 3d af 27 bd 5e 24 a1 bb
       -0.04649229 1.2192291e-21 -0.040938605 -0.0049176654
000330 30 0e 7a 3d 32 0d 30 be f2 a8 bc a4 dd 8f f0 bd
       0.061048687 -0.17192534 -8.181821e-17 -0.1174619
000340 22 0c 33 be f9 d8 9d be 5b ff 33 ba c7 20 b9 39
       -0.17485097 -0.308296 -0.0006866359 0.0003531037
000350 6c 14 b4 3c d1 4f 46 3d 0d ac 84 bd 1c bc 73 3d
       0.021982394 0.048415963 -0.064781286 0.059505567
000360 4b 44 c7 3d ce a3 0f b6 29 dd ed 37 a5 ff 2b 3d
       0.09729823 -2.1404007e-06 2.8355587e-05 0.04199185
000370 89 24 d9 0f 76 3f 88 bd 22 53 2a bd 6e 09 9b be
       2.1411925e-29 -0.06652729 -0.041583188 -0.30280632
000380 cb 67 84 bc 88 6f a2 bd a5 3b 1c bb 1d c0 7d 3e
       -0.016162774 -0.07931429 -0.0023839262 0.24780317
000390 7f 71 04 3d 8d e7 4e 3d 5e a1 71 be 14 0f 1f 3e
       0.0323348 0.050513793 -0.23596713 0.15533096
0003a0 3b 9e e2 bd ea 1f 2e ba 49 1b 71 be 99 df fd bd
       -0.11065336 -0.0006642329 -0.23545565 -0.123961635
0003b0 00 ef 31 b7 8c 0d 25 3e c8 7c 5a 3e e0 f7 a4 bd
       -1.0605669e-05 0.16118449 0.21336663 -0.08055091
0003c0 8f a7 71 3e 71 1b 00 00 96 28 21 3d e1 25 0c 3a
       0.23599075 9.844e-42 0.039345346 0.00053462206
0003d0 ab 93 a6 bb 33 0a 9e be 02 84 87 a5 3f 56 5c 3e
       -0.0050835214 -0.30867156 -2.350822e-16 0.21517275
0003e0 3e 4c 3b bd e0 d4 01 be b6 44 0b bb ba dc 18 35
       -0.045727007 -0.12678862 -0.0021250672 5.694561e-07
0003f0 43 e0 00 3e e7 80 78 3d 83 84 40 3e 83 8e 84 3e
       0.12585549 0.060669806 0.18800549 0.25889978

interaction_encoder.2.bias f4 [20]
000000 2c 37 5d bd f9 e7 e7 bd 7d ba 8c 3e d8 ec ee 3c
       -0.054007694 -0.11323542 0.2748603 0.02916567
000010 07 dc 5b 3d db c2 91 3d b3 8e 96 bd 20 f9 89 3b
       0.05367663 0.07117244 -0.073514365 0.004210606
000020 2a 2b 9b 3c ae 07 c6 bd 8d 20 79 bb 07 65 07 be
       0.01894148 -0.096694335 -0.0038013787 -0.13222133
000030 1c 99 04 3c b1 1d d1 bb 71 9d a6 bd ea 87 15 3b
       0.008093145 -0.0063817133 -0.08135498 0.0022816607
000040 99 4b f2 bb ac 26 e7 b9 82 c9 b0 bd ce 18 09 bc
       -0.007394266 -0.00044088566 -0.086321846 -0.00836773
