paper_artifacts/collection/gmn_baseline_scoring=sinkhorn_pp=lrl___tp=sinkhorn_pp=lrl_when=msg_passing_only___unify=true/trained_models/gmn_baseline_scoring=sinkhorn_pp=lrl___tp=sinkhorn_pp=lrl_when=msg_passing_only___unify=true_ptc_fm_large_dataset_seed_7474_2024-05-07_23:04:42.pth (torch, 16111 bytes, 22 tensors)

encoder.MLP1.0.weight f4 [10, 1]
00000000: 204f edbc 0ce2 3fbe 1bb8 293e 8276 ddbd
00000010: b676 c0bd c63f 84be 04f4 b23c d7b8 2a3b
00000020: a0a7 aebe 58ba 5abd
-0.028968394 -0.18738574 0.16574137 -0.10813619 -0.09397642 -0.25829905 0.021844871 0.0026050115
-0.34112263 -0.053400367

encoder.MLP1.0.bias f4 [10]
00000000: 18b7 eabc 5ce0 3fbe 50ba 293e da78 ddbd
00000010: b976 c0bd c33f 84be b7bb b33c 4276 403b
00000020: 15ae aebe 1d15 5bbd
-0.028651759 -0.1873793 0.16574979 -0.10814066 -0.093976445 -0.25829896 0.021940095 0.0029367362
-0.3411719 -0.053486932

prop_layer._message_net.0.weight f4 [20, 21]
00000000: 8c22 ce3b 74e4 ae3a 2bf6 ff3a 7c8d a43b
00000010: d7ce c2ba 219c 503b 9284 bf3a fdec c23a
00000020: 5075 a9bb 57dc 173c 949e 15ba f634 b9ba
00000030: bebd 93b8 f2b2 843b 4034 fa39 76c5 9c3b
00000040: c578 463b dd8d e13a 871e d0ba 8732 a4bb
00000050: 318b fe39 2d7d 193e b77e 7fbe 9175 b23e
00000060: 4a34 023f 24a2 9d3d 3a1c 243d 9e71 f93d
00000070: a7af 073c ed29 c83d 4844 8ebe 18f4 56be
00000080: 710a e23d 2cb7 87be ef39 923d 71ba 9b3e
00000090: 1323 8d3e 4f1e 473d 717d 62be 41c6 84bd
000000a0: 492c 47be c4a2 073d 5776 d0bb f028 063a
000000b0: e377 23bb b6cd a6bb b282 c8bb 742e beba
000000c0: ba63 b4bb 91ea 96bb 8de6 043b bf4c 04bc
000000d0: a151 883b 7b39 afba 4bec b5b9 2ba3 5f3a
000000e0: 22eb 36bb 7914 babb a5bf 18bb 7ad1 953a
000000f0: d9bc 043b 48fa 313b 4e90 25ba b186 a13e
00000100: 0469 7ebe 53f5 00be 241e 563d 38b1 a33e
00000110: 7f3a eebd c1cf 973e 6d80 a73e f0ec 8dbe
00000120: 8ba5 bebc bcac 49be 4e6c 463e 07f8 d93d
00000130: a70f 2f3e 4404 3ebe c53a 3abe d700 673d
00000140: 55c9 d73e acb4 ba3d 7151 7a3e e5eb 053f
00000150: a9ab e03d 3620 853e 4e5b 1abd 7d6e af3e
00000160: 14cd 2a3e 4fbb 2fbe bf05 493e 95c9 99be
00000170: b310 da3b 88ff 953d ebff 9d3e d092 263e
00000180: 3bf3 cc3d 24af e83d 05ce 5b3e c114 05bf
00000190: 02bb 533d c4dd b23c df03 84be 87cf 67bd
000001a0: 2e0f e8bd d3c4 fb3d 4530 043e 1a59 ccbe
000001b0: 3bd4 b9be 32cc 963e c772 1bbe 94e7 26be
000001c0: 5da1 ebbc 4f81 4e3e 3960 aabe 07d0 3cbe
000001d0: 5c16 88be 4657 813e 8858 febb 8143 2fbe
000001e0: a7f7 6fbd ff21 2b3e d5c2 343d 6b2b ad3e
000001f0: 05e3 733d 937f e73a 8793 103e a5ab 0abe
00000200: d0eb 94be 2da2 2a3e 0856 dabd 9608 8f3d
00000210: b18b 7b3e 08ea e3bd 2e6d 6b3e acec 273f
00000220: 36ea 47be 95bc 9ebc 7a59 4ebe 2ae3 e33d
00000230: bcba 89be 0004 f63d 0b9c 68bc 5dae d7bd
00000240: 8446 2cbe 4466 ae3e 20f9 adbd b6b1 863b
00000250: 6373 ab3a 521d 803b b36a f13b 170b c33b
00000260: 2e41 923b ed69 aa3a ce7b 5139 42ec 4abb
00000270: f852 363b 1e9f 17bb 6735 a93a b7dd 383b
00000280: 021c 1c3b 3d9a be39 e5c2 9a3b 1731 67b9
00000290: 4a4f b73b 6fb8 b9bb fd69 2ebb 8efc 7b3a
000002a0: b722 bd3b f476 f83a 821a 5e3b 1839 9f3b
000002b0: 5633 1b3a 48ca 123b 70f2 5b3b 8c35 833a
000002c0: ffc4 8bbb 6869 093c 7b87 40ba 92ef faba
000002d0: 3c0d cdb9 9695 363b e6f1 b53a 968f b93b
000002e0: 12bd 5b3b 7d23 e83a 812a 0cbb b6e4 98bb
000002f0: 1e0f db39 6942 503b 5f6d 3e3a 1754 cd3a
00000300: 4e46 b63b 45bf 3d3b 1858 803b 09c3 87b9
00000310: 9b7a 44ba b945 48bb 270d b73a 2177 98ba
00000320: 062c 9239 0e91 5d3b f3b4 2f3b c0ff 7c38
00000330: cd2e 2e3b 3d53 8639 54c5 ab3b 5817 93bb
00000340: 6215 1abb 295d 383a 3190 34be 6080 55bd
00000350: 72f3 e1be 2feb 013f 0bca 4a3e 6480 0cbf
00000360: b808 bbbe 6bdb 153d 0907 3b3e a8b6 993e
00000370: 11f3 9f3e bd63 923d 3919 ad3e 3770 a2be
00000380: f958 7fbe 04e8 3d3e e5a8 243d 78c9 64be
00000390: 4982 02be 902a cbbd fae5 333e bcae e2bb
000003a0: 57fe 6eba a35b 22bb c5f5 bebb 57e7 71bb
000003b0: 6e25 36bb 8d5a a9bb 4a3e 4fbb 95c0 873b
000003c0: 4467 23bc 5e7d 363b bd37 8939 e235 f5b9
000003d0: e6e2 b2ba 58e7 11bb 1330 bfbb 4a71 6fbb
000003e0: 9a2b 38b9 d408 063b bc66 9b3b 31ae 12ba
000003f0: 106d f63b 176d 42bb f8c4 32b8 1ed5 dd3a
0.0062907394 0.0013343231 0.001952832 0.005021749 -0.0014862668 0.0031831341 0.0014611653 0.0014871653
-0.0051714554 0.009268842 -0.0005707529 -0.0014130163 -7.0448485e-05 0.0040496523 0.00047722645 0.0047842814
0.0030284387 0.0017208416 -0.0015878238 -0.005010906 0.0004855036 0.14989157 -0.24950682 0.3485532
0.50861037 0.076969415 0.04006598 0.12179874 0.008281625 0.09773622 -0.2778647 -0.20991552
0.11037148 -0.26506937 0.07139956 0.3041568 0.27565822 0.04861289 -0.22118165 -0.064831264
-0.19450487 0.03311421 -0.0063617635 0.00051177945 -0.0024943284 -0.0050904406 -0.0061190957 -0.0014509694
-0.0055050524 -0.004605599 0.002027902 -0.008074938 0.0041601215 -0.0013368571 -0.00034699062 0.0008531089
-0.0027911146 -0.00567871 -0.0023307588 0.0011430227 0.0020254164 0.0027157236 -0.00063157536 0.31548074
-0.24844748 -0.12593584 0.052274838 0.31971145 -0.11632251 0.2965069 0.3271517 -0.2771983
-0.023272296 -0.19694799 0.19377252 0.106430106 0.17095815 -0.18556315 -0.18186481 0.056397285
0.42145792 0.09116492 0.2444513 0.5231307 0.109702416 0.26001137 -0.03768473 0.34263983
0.16679794 -0.17161296 0.19631098 -0.30036607 0.0066548227 0.07324129 0.30859312 0.16266942
0.1000733 0.113615304 0.21465309 -0.5198479 0.051692016 0.021834262 -0.25784203 -0.056594398
-0.1133102 0.122934006 0.12909038 -0.3991173 -0.36294731 0.29452664 -0.15180503 -0.16299278
-0.028763467 0.20166515 -0.33276537 -0.18438731 -0.2657956 0.25261897 -0.0077620186 -0.17115594
-0.05858579 0.16712187 0.04413112 0.33822188 0.059542675 0.0017661921 0.14118777 -0.1354204
-0.2908616 0.16663428 -0.106609404 0.069840595 0.24565007 -0.11128622 0.22990867 0.6559551
-0.19522938 -0.019377032 -0.2015132 0.111273125 -0.2690028 0.12012482 -0.01419736 -0.10531304
-0.16823775 0.34062397 -0.084947824 0.0041105403 0.0013080653 0.0039097453 0.007367456 0.0059522497
0.0044633364 0.0013001539 0.00019977914 -0.0030963575 0.002782045 -0.0023135613 0.0012909592 0.0028208324
0.0023820405 0.0003635454 0.0047229403 -0.00022048164 0.005594169 -0.005667738 -0.0026613467 0.0009612524
0.0057719606 0.0018956349 0.0033890312 0.004859101 0.00059204304 0.00223984 0.0033561252 0.0010010465
-0.004265427 0.008386947 -0.0007344407 -0.0019144884 -0.00039110507 0.0027860156 0.0013881295 0.0056628687
0.0033529443 0.0017710772 -0.002138764 -0.0046659363 0.00041782198 0.0031777865 0.00072642224 0.001566532
0.00556258 0.0028953117 0.0039167516 -0.0002589452 -0.0007495076 -0.0030559136 0.0013965712 -0.0011632183
0.0002788009 0.0033808383 0.0026810735 6.0319668e-05 0.0026578188 0.0002562049 0.005242029 -0.004488867
-0.002351128 0.0007032925 -0.1763313 -0.05212438 -0.44131047 0.50749487 0.19803636 -0.5488341
-0.3653009 0.036586206 0.18264402 0.30022168 0.31240132 0.0714793 0.33808306 -0.31726238
-0.24936284 0.18545538 0.040200133 -0.22342479 -0.12745012 -0.099202275 0.17568198 -0.0069178026
-0.0009116879 -0.0024773858 -0.005827638 -0.003691157 -0.0027793306 -0.005168265 -0.003162282 0.0041428306
-0.009973351 0.002784572 0.00026172205 -0.00046770187 -0.0013647943 -0.0022263136 -0.0058345883 -0.0036536031
-0.0001756385 0.002045204 0.0047424715 -0.00055954146 0.0075203255 -0.0029667073 -4.262195e-05 0.0016924476

prop_layer._message_net.0.bias f4 [20]
00000000: 4891 fe39 4236 e83c ef8e 25ba 40fe f03e
00000010: fd4b f6bd 4043 4c3c 3262 aebd 65fc 7b3a
00000020: de10 db39 0c5a 383a 1039 0e3e 78ac 12ba
00000030: 343c 9c39 bf38 c639 fb9a 093a c6a6 f2bc
00000040: 2270 213a 09fa d43c 4e36 f5bb 9fae b0bc
0.00048554898 0.028346185 -0.0006315549 0.47068977 -0.12026212 0.0124672055 -0.08514823 0.00096125
0.00041783502 0.0007032461 0.13888955 -0.0005595158 0.00029799493 0.00037807782 0.0005249229 -0.02962054
0.00061583717 0.025998132 -0.0074832803 -0.02156764

prop_layer._reverse_message_net.0.weight f4 [20, 21]
00000000: 8c22 ce3b 74e4 ae3a 2bf6 ff3a 7c8d a43b
00000010: d7ce c2ba 219c 503b 9284 bf3a fdec c23a
00000020: 5075 a9bb 57dc 173c 949e 15ba f634 b9ba
00000030: bebd 93b8 f2b2 843b 4034 fa39 76c5 9c3b
00000040: c578 463b dd8d e13a 871e d0ba 8732 a4bb
00000050: 318b fe39 2d7d 193e b77e 7fbe 9175 b23e
00000060: 4a34 023f 24a2 9d3d 3a1c 243d 9e71 f93d
00000070: a7af 073c ed29 c83d 4844 8ebe 18f4 56be
00000080: 710a e23d 2cb7 87be ef39 923d 71ba 9b3e
00000090: 1323 8d3e 4f1e 473d 717d 62be 41c6 84bd
000000a0: 492c 47be c4a2 073d 5776 d0bb f028 063a
000000b0: e377 23bb b6cd a6bb b282 c8bb 742e beba
000000c0: ba63 b4bb 91ea 96bb 8de6 043b bf4c 04bc
000000d0: a151 883b 7b39 afba 4bec b5b9 2ba3 5f3a
000000e0: 22eb 36bb 7914 babb a5bf 18bb 7ad1 953a
000000f0: d9bc 043b 48fa 313b 4e90 25ba b186 a13e
00000100: 0469 7ebe 53f5 00be 241e 563d 38b1 a33e
00000110: 7f3a eebd c1cf 973e 6d80 a73e f0ec 8dbe
00000120: 8ba5 bebc bcac 49be 4e6c 463e 07f8 d93d
00000130: a70f 2f3e 4404 3ebe c53a 3abe d700 673d
00000140: 55c9 d73e acb4 ba3d 7151 7a3e e5eb 053f
00000150: a9ab e03d 3620 853e 4e5b 1abd 7d6e af3e
00000160: 14cd 2a3e 4fbb 2fbe bf05 493e 95c9 99be
00000170: b310 da3b 88ff 953d ebff 9d3e d092 263e
00000180: 3bf3 cc3d 24af e83d 05ce 5b3e c114 05bf
00000190: 02bb 533d c4dd b23c df03 84be 87cf 67bd
000001a0: 2e0f e8bd d3c4 fb3d 4530 043e 1a59 ccbe
000001b0: 3bd4 b9be 32cc 963e c772 1bbe 94e7 26be
000001c0: 5da1 ebbc 4f81 4e3e 3960 aabe 07d0 3cbe
000001d0: 5c16 88be 4657 813e 8858 febb 8143 2fbe
000001e0: a7f7 6fbd ff21 2b3e d5c2 343d 6b2b ad3e
000001f0: 05e3 733d 937f e73a 8793 103e a5ab 0abe
00000200: d0eb 94be 2da2 2a3e 0856 dabd 9608 8f3d
00000210: b18b 7b3e 08ea e3bd 2e6d 6b3e acec 273f
00000220: 36ea 47be 95bc 9ebc 7a59 4ebe 2ae3 e33d
00000230: bcba 89be 0004 f63d 0b9c 68bc 5dae d7bd
00000240: 8446 2cbe 4466 ae3e 20f9 adbd b6b1 863b
00000250: 6373 ab3a 521d 803b b36a f13b 170b c33b
00000260: 2e41 923b ed69 aa3a ce7b 5139 42ec 4abb
00000270: f852 363b 1e9f 17bb 6735 a93a b7dd 383b
00000280: 021c 1c3b 3d9a be39 e5c2 9a3b 1731 67b9
00000290: 4a4f b73b 6fb8 b9bb fd69 2ebb 8efc 7b3a
000002a0: b722 bd3b f476 f83a 821a 5e3b 1839 9f3b
000002b0: 5633 1b3a 48ca 123b 70f2 5b3b 8c35 833a
000002c0: ffc4 8bbb 6869 093c 7b87 40ba 92ef faba
000002d0: 3c0d cdb9 9695 363b e6f1 b53a 968f b93b
000002e0: 12bd 5b3b 7d23 e83a 812a 0cbb b6e4 98bb
000002f0: 1e0f db39 6942 503b 5f6d 3e3a 1754 cd3a
00000300: 4e46 b63b 45bf 3d3b 1858 803b 09c3 87b9
00000310: 9b7a 44ba b945 48bb 270d b73a 2177 98ba
00000320: 062c 9239 0e91 5d3b f3b4 2f3b c0ff 7c38
00000330: cd2e 2e3b 3d53 8639 54c5 ab3b 5817 93bb
00000340: 6215 1abb 295d 383a 3190 34be 6080 55bd
00000350: 72f3 e1be 2feb 013f 0bca 4a3e 6480 0cbf
00000360: b808 bbbe 6bdb 153d 0907 3b3e a8b6 993e
00000370: 11f3 9f3e bd63 923d 3919 ad3e 3770 a2be
00000380: f958 7fbe 04e8 3d3e e5a8 243d 78c9 64be
00000390: 4982 02be 902a cbbd fae5 333e bcae e2bb
000003a0: 57fe 6eba a35b 22bb c5f5 bebb 57e7 71bb
000003b0: 6e25 36bb 8d5a a9bb 4a3e 4fbb 95c0 873b
000003c0: 4467 23bc 5e7d 363b bd37 8939 e235 f5b9
000003d0: e6e2 b2ba 58e7 11bb 1330 bfbb 4a71 6fbb
000003e0: 9a2b 38b9 d408 063b bc66 9b3b 31ae 12ba
000003f0: 106d f63b 176d 42bb f8c4 32b8 1ed5 dd3a
0.0062907394 0.0013343231 0.001952832 0.005021749 -0.0014862668 0.0031831341 0.0014611653 0.0014871653
-0.0051714554 0.009268842 -0.0005707529 -0.0014130163 -7.0448485e-05 0.0040496523 0.00047722645 0.0047842814
0.0030284387 0.0017208416 -0.0015878238 -0.005010906 0.0004855036 0.14989157 -0.24950682 0.3485532
0.50861037 0.076969415 0.04006598 0.12179874 0.008281625 0.09773622 -0.2778647 -0.20991552
0.11037148 -0.26506937 0.07139956 0.3041568 0.27565822 0.04861289 -0.22118165 -0.064831264
-0.19450487 0.03311421 -0.0063617635 0.00051177945 -0.0024943284 -0.0050904406 -0.0061190957 -0.0014509694
-0.0055050524 -0.004605599 0.002027902 -0.008074938 0.0041601215 -0.0013368571 -0.00034699062 0.0008531089
-0.0027911146 -0.00567871 -0.0023307588 0.0011430227 0.0020254164 0.0027157236 -0.00063157536 0.31548074
-0.24844748 -0.12593584 0.052274838 0.31971145 -0.11632251 0.2965069 0.3271517 -0.2771983
-0.023272296 -0.19694799 0.19377252 0.106430106 0.17095815 -0.18556315 -0.18186481 0.056397285
0.42145792 0.09116492 0.2444513 0.5231307 0.109702416 0.26001137 -0.03768473 0.34263983
0.16679794 -0.17161296 0.19631098 -0.30036607 0.0066548227 0.07324129 0.30859312 0.16266942
0.1000733 0.113615304 0.21465309 -0.5198479 0.051692016 0.021834262 -0.25784203 -0.056594398
-0.1133102 0.122934006 0.12909038 -0.3991173 -0.36294731 0.29452664 -0.15180503 -0.16299278
-0.028763467 0.20166515 -0.33276537 -0.18438731 -0.2657956 0.25261897 -0.0077620186 -0.17115594
-0.05858579 0.16712187 0.04413112 0.33822188 0.059542675 0.0017661921 0.14118777 -0.1354204
-0.2908616 0.16663428 -0.106609404 0.069840595 0.24565007 -0.11128622 0.22990867 0.6559551
-0.19522938 -0.019377032 -0.2015132 0.111273125 -0.2690028 0.12012482 -0.01419736 -0.10531304
-0.16823775 0.34062397 -0.084947824 0.0041105403 0.0013080653 0.0039097453 0.007367456 0.0059522497
0.0044633364 0.0013001539 0.00019977914 -0.0030963575 0.002782045 -0.0023135613 0.0012909592 0.0028208324
0.0023820405 0.0003635454 0.0047229403 -0.00022048164 0.005594169 -0.005667738 -0.0026613467 0.0009612524
0.0057719606 0.0018956349 0.0033890312 0.004859101 0.00059204304 0.00223984 0.0033561252 0.0010010465
-0.004265427 0.008386947 -0.0007344407 -0.0019144884 -0.00039110507 0.0027860156 0.0013881295 0.0056628687
0.0033529443 0.0017710772 -0.002138764 -0.0046659363 0.00041782198 0.0031777865 0.00072642224 0.001566532
0.00556258 0.0028953117 0.0039167516 -0.0002589452 -0.0007495076 -0.0030559136 0.0013965712 -0.0011632183
0.0002788009 0.0033808383 0.0026810735 6.0319668e-05 0.0026578188 0.0002562049 0.005242029 -0.004488867
-0.002351128 0.0007032925 -0.1763313 -0.05212438 -0.44131047 0.50749487 0.19803636 -0.5488341
-0.3653009 0.036586206 0.18264402 0.30022168 0.31240132 0.0714793 0.33808306 -0.31726238
-0.24936284 0.18545538 0.040200133 -0.22342479 -0.12745012 -0.099202275 0.17568198 -0.0069178026
-0.0009116879 -0.0024773858 -0.005827638 -0.003691157 -0.0027793306 -0.005168265 -0.003162282 0.0041428306
-0.009973351 0.002784572 0.00026172205 -0.00046770187 -0.0013647943 -0.0022263136 -0.0058345883 -0.0036536031
-0.0001756385 0.002045204 0.0047424715 -0.00055954146 0.0075203255 -0.0029667073 -4.262195e-05 0.0016924476

prop_layer._reverse_message_net.0.bias f4 [20]
00000000: 4891 fe39 4236 e83c ef8e 25ba 40fe f03e
00000010: fd4b f6bd 4043 4c3c 3262 aebd 65fc 7b3a
00000020: de10 db39 0c5a 383a 1039 0e3e 78ac 12ba
00000030: 343c 9c39 bf38 c639 fb9a 093a c6a6 f2bc
00000040: 2270 213a 09fa d43c 4e36 f5bb 9fae b0bc
0.00048554898 0.028346185 -0.0006315549 0.47068977 -0.12026212 0.0124672055 -0.08514823 0.00096125
0.00041783502 0.0007032461 0.13888955 -0.0005595158 0.00029799493 0.00037807782 0.0005249229 -0.02962054
0.00061583717 0.025998132 -0.0074832803 -0.02156764

prop_layer.GRU.weight_ih_l0 f4 [30, 20]
00000000: 2c86 40bb 2dad f3bd 8d01 8e3a 0e66 85be
00000010: c3ee d8bd 015c 9f3d b087 72bd 53db bf3a
00000020: a57b 28bb 7ee8 993a 5d87 20bd 75c2 ec3a
00000030: 9ddb 7f3a 5f9e a539 7d02 9dbb 6902 14bd
00000040: 3b76 973a 29d1 c3bd 142f 2e3d ecf6 0f3e
00000050: 2f8a 7d3a e22e 16bd b349 e0ba 6ed3 943e
00000060: 1ade 30bd 6fa2 093d 1880 9cbd 019e 583b
00000070: 654f a43a c06a 263b 4e3e d23c 655b ecba
00000080: c2c5 663a 8038 a93a 90eb 9839 ff7c 9e3c
00000090: ac8c 0e3b b5a8 603d 208f 65b9 e66f 51bd
000000a0: db7e a3bb fe8e 573d 94c1 4b3b b143 b93d
000000b0: e6e0 8abd 9743 5abb 492d 16bd 544c 55bb
000000c0: 0c68 73bb e67b 45bb 1154 2cbe 26b9 823b
000000d0: 8b52 1bbb b741 17bb 2433 c8ba c8da 5fbc
000000e0: 37a8 4fbb bb83 cebd d5f1 ba3c 6c8d 0d3d
000000f0: e98b 223b dcb2 afbb 415b 25bb e269 b93c
00000100: 8e16 c6bb f88e b23d 1df1 a9bd d0fe 243b
00000110: 5793 133b 96eb e33a 4b9a 893d 6f77 29bb
00000120: 30fc a23a 8539 a039 e1a6 643b b689 8abd
00000130: 9b89 133b 5ef5 4f3d 02f8 cabc 2853 983b
00000140: 6e11 79b9 3879 ca3b 8df8 953a cb86 bbbd
00000150: 016a a53d 252e 4ebd e544 d93c b56f 12ba
00000160: d728 98ba a02f 2938 ecda 30be 63bb 5d3a
00000170: 1a4e 9fb9 029e a739 32cc a1bb 7d34 e2bc
00000180: cc8d 6539 127a 2f3c fe3c 483d b70c 853b
00000190: f778 b23a 63c4 0cbe 2a2c 10bb c0af f13c
000001a0: 3704 413e 0744 46bb 8ee8 bc3d 40f6 823b
000001b0: 18ca 063a 57cf 683b dcf2 9b3c a7f5 0cbb
000001c0: 5e07 2a3b bd60 f83a aa25 c0bb 2ffd de3c
000001d0: 0444 523b d5d4 1cbc 79ee 3d3d 368f cd3d
000001e0: 5e90 94bb 0f63 4cbe e8da 263b 5df6 28be
000001f0: cd84 0a3d b966 073e b985 7f3d 31e3 c1bb
00000200: 4f1f 8abb 1a90 a1bb 67c9 e03c c68c 413b
00000210: dba1 043b ee4e 93bb c77a 0dbc 1f23 6a3d
00000220: bd86 b8bb 20a2 65be 4184 343d 56dc e53e
00000230: 634d 88bb 95c0 4fbc 9bdf 8e3a 5511 37be
00000240: 0edb e93c d04d 5f3d 4e71 24bd bd4f 02bb
00000250: cf1e 7bbb 16f9 1dba 38ab da3d 744b 2f3b
00000260: 67d3 b4ba 8d4b 833a 968a 6bbb 3371 2abd
00000270: 7d8b 12ba 9bd1 253d e045 8cbc f00d 793d
00000280: d8b0 d6b9 da9b 57bc b894 7cba 8916 483d
00000290: 3c1e e3bb 256d eb3c 1db9 66bc 4e7d ae39
000002a0: b37b cdb7 4a54 15b9 3f1a 2a3d b756 36ba
000002b0: 0f07 ad3a c327 b3ba 2f14 18bb cfc0 b9bc
000002c0: c03a 25ba 07b3 3dbd bb69 27bc 7ed9 5c3d
000002d0: da27 92bb 2a64 3fbe 1a33 cc3b 258b 23be
000002e0: b7ac 94be e234 d93d 2e88 07be 8e21 64bb
000002f0: 60d6 8cbb 5d0c 2ebb 838d 6cbd 2a33 da3b
00000300: 03b9 b5bb 3fae 0939 a714 853b b98d bf3d
00000310: f3f0 93ba bf2c b93d b26d 513b 90d9 7f3c
00000320: 1e5d 0cba a6a7 763b dcc9 dfb9 4d86 8bbe
00000330: ffed a8bc 5173 ae3d 5528 cb3d 1b2b 37bc
00000340: dedb 7fba 6df5 29bc c59d b9bd 942a 9a39
00000350: 2d40 fd3a f436 18bc 823e b1bb f0a3 133b
00000360: 420a 3cbc 9a01 0c3e 1ab6 8fbd af19 ea3d
00000370: e45a a5ba d72b 1bbc 9086 403a 1405 c8bd
00000380: 183e 8b3e ac55 02be a52e cb3e a062 e8ba
00000390: 6920 a6b8 0c49 05bb 23e9 76bd af62 5d3a
000003a0: 3e20 55ba d1a0 a2ba 3d32 a03b 43b4 af3e
000003b0: 94b1 34bb e608 c2bd 5e77 983b 7b29 ed3d
000003c0: 7d4a a93a e21f 16bd 932d 31ba 93a5 d6be
000003d0: e6f2 fc3d ba89 1b3d 92a2 1e3e 369c 393b
000003e0: 3b6b c13a 0c56 203b 16be 84bd 1ecf 6aba
000003f0: 983e 07b9 75cb 323b 705b b93b 316a 263d
-0.0029376848 -0.11898265 0.0010834202 -0.26054424 -0.10592415 0.0778122 -0.059211433 0.0014637507
-0.0025708464 0.0011742262 -0.039191592 0.0018063324 0.0009760203 0.00031589248 -0.0047915564 -0.03613511
0.0011555621 -0.095613785 0.042525366 0.14059037 0.0009671775 -0.036665805 -0.0017111808 0.29067558
-0.043180563 0.033602174 -0.076416194 0.0033053162 0.0012535868 0.0025393218 0.025664475 -0.0018032609
0.0008803272 0.0012910515 0.00029167207 0.019346712 0.0021751327 0.05484839 -0.0002189246 -0.051132105
-0.0049894876 0.052626602 0.0031090723 0.09046114 -0.06781177 -0.0033304447 -0.03666428 -0.0032546716
-0.0037140874 -0.0030133664 -0.16828944 0.0039893566 -0.0023700322 -0.002307994 -0.001527403 -0.013663001
-0.0031685957 -0.10083719 0.022820393 0.0345587 0.0024802631 -0.005361898 -0.0025231394 0.022633497
-0.006045169 0.087186754 -0.08297942 0.0025176294 0.0022518241 0.0017388936 0.06718882 -0.0025858541
0.0012434777 0.00030560434 0.0034889507 -0.067645475 0.002251244 0.05077111 -0.024776462 0.004648585
-0.00023752984 0.006179001 0.0011441872 -0.09156569 0.08076859 -0.050336976 0.02652211 -0.00055861037
-0.0011608851 4.0337094e-05 -0.17271012 0.0008458404 -0.00030385033 0.00031970447 -0.004937672 -0.027612919
0.00021891965 0.010710256 0.04888629 0.0040603536 0.0013616373 -0.1374679 -0.002199898 0.02950275
0.18849264 -0.003025295 0.09224044 0.0039966404 0.00051418087 0.0035523975 0.019036703 -0.0021508725
0.0025944333 0.0018949729 -0.005863865 0.027220337 0.0032083998 -0.0095722275 0.046370003 0.10037081
-0.0045338115 -0.19959663 0.0025460068 -0.1650023 0.033818055 0.1322278 0.062383387 -0.005916976
-0.004215158 -0.0049305083 0.027439786 0.002953337 0.0020238075 -0.004495493 -0.008635229 0.0571624
-0.0056312964 -0.22425127 0.04407144 0.44894665 -0.004159616 -0.0126801925 0.001090038 -0.17877705
0.028546836 0.054517567 -0.04014712 -0.0019883954 -0.0038317924 -0.00060261914 0.10677189 0.0026747854
-0.0013795913 0.0010017023 -0.0035940758 -0.04161186 -0.00055902434 0.0404831 -0.017123163 0.060804307
-0.0004094902 -0.0131597165 -0.0009635198 0.048849616 -0.0069310945 0.028738568 -0.01408222 0.00033281225
-2.4495506e-05 -0.00014241147 0.041528936 -0.00069556705 0.0013200956 -0.0013668466 -0.002320539 -0.022674946
-0.0006303005 -0.046313312 -0.010218079 0.053918354 -0.004460317 -0.18690553 0.0062316777 -0.15971048
-0.2903802 0.1060579 -0.13235542 -0.003481004 -0.0042980164 -0.0026557662 -0.057752144 0.0066589313
-0.0055457368 0.0001313025 0.0040613 0.09353203 -0.0011287018 0.09041738 0.0031956253 0.015615836
-0.0005354452 0.0037636547 -0.00042684271 -0.272509 -0.020621298 0.085180886 0.09919802 -0.011179711
-0.0009760241 -0.0103734555 -0.09063295 0.00029404892 0.0019321494 -0.009290446 -0.005409063 0.0022528134
-0.011477055 0.13672486 -0.07017155 0.1143068 -0.0012615588 -0.009470901 0.000734427 -0.097665936
0.2719581 -0.12727994 0.39684024 -0.0017729588 -7.921534e-05 -0.0020337729 -0.06028093 0.0008445186
-0.00081301096 -0.0012407546 0.0048888014 0.34317216 -0.0027571665 -0.094743535 0.0046529016 0.115801774
0.0012915876 -0.0366515 -0.0006758805 -0.41923198 0.12351017 0.037973143 0.15491703 0.0028321869
0.0014756689 0.002446535 -0.064815685 -0.00089572545 -0.00012897921 0.0027281914 0.005656652 0.040628616

prop_layer.GRU.weight_hh_l0 f4 [30, 10]
00000000: f341 6cbd f89a 35bd bc3f 6ebd 2332 30bd
00000010: 3de2 3d3d 1276 d8bb 7d02 b23d 7b5c de3c
00000020: 6551 6f3c b841 6e3c 2011 6abc 236d bcbc
00000030: 3f29 8d3d decf 74bc a985 933c a801 b1bc
00000040: 362a 7c3d 38d1 ae3b eaba 71bd 2c19 513d
00000050: 843e c6bc 718e 20bd cddc 4a3d b4c0 973d
00000060: 8e28 d7bc bb2f c03d 2f27 213d 7671 96bd
00000070: d047 883c bdba 513b 58b6 ccbc 5aa8 4fbd
00000080: aa62 21bd 13ee ad3c ec9c 033e e04a b8bb
00000090: 4d6a e93d 7eff 85bd e161 4bbc 380b b83c
000000a0: 232a 71bd f97f 7bbd f096 26bc 36f0 ba3d
000000b0: 0230 28bd fc23 abbb d4ca cb3d 8f69 85bd
000000c0: ef7f e2bb 88df 9a3c 7411 90bd 4841 b1bd
000000d0: e2b6 8fbc e9ee b7bd 1264 d93b 217b 4b3c
000000e0: a64c 83bd 317d a03c c600 183d 7ca1 863b
000000f0: f1da 21be 5a6a 6ebd 4bd4 8cbd 6fca 1d3d
00000100: 4423 b4bd b0d2 033d 16f0 0d3d 1188 9b3d
00000110: 82d2 9e3c f40d e2ba 13a5 89bd 4be0 55bd
00000120: ce65 903d a774 c63c 1a46 8a3d bfc9 adbb
00000130: c41f c13d 7dd8 a1bd 66f9 46bd c967 d3bc
00000140: f821 2fbc 0dfc df3b 98ab abbb 58b7 6c3b
00000150: 41a0 a4bc fdf2 7f3c 7766 d33c 0c75 7bba
00000160: afc2 5e3b fa65 8b3c a9ce 9cbd bd80 31bb
00000170: f3d0 5a3a db38 e5bc 1ac3 e03d 29b6 9c3d
00000180: 51fc 1c3e c354 26bd f316 06bb 40db 203e
00000190: d33f 9c3c e870 933d 802f 2dbd 33e4 c8bc
000001a0: 90b0 f4bc eff3 42bb 9168 ec3d 5e65 01bc
000001b0: ff83 13bd 6aeb 8a3d c97c fc3d 6756 db3d
000001c0: f214 9dbd 5b27 41bd ecfb 04be f050 20bd
000001d0: c1b0 60be c706 863d 011b 0fbd aacd 98bd
000001e0: eeaa 473c dcd2 dc3d fff4 e3bd 64cf 29bd
000001f0: b9a0 50bc 1034 723d 23b5 ccbd 3eae 053e
00000200: a159 103e 08fb 9cbb a3d3 003d 2aeb 7d3d
00000210: e95f 8dbd d26f 35bd 30ee 2a3d cd5c b0bb
00000220: d58e 7a3c 13c1 923d cc45 e9bb 967a 3dbd
00000230: 8cae 8d3d c6b3 c73d e444 67bd 5cee d4bd
00000240: 39b5 a0bb 46c1 133b 829c a43d 5e12 7b3d
00000250: cdee 25be a499 883d ceba 1b3d 4f9e a33e
00000260: 08c0 2fbe ec3b 3dbc 6773 53be 8ead f43c
00000270: 527b 3c3c cca7 b43d 2f98 623d dd9d fa3d
00000280: 22a5 e7bb 6dfe 753b e102 42be be17 8bbd
00000290: e36c 35bc e037 993d 3324 c9bc 3850 013d
000002a0: 2860 063e 083c 83bd 0ba5 db3d d5a5 313d
000002b0: 72b3 09bc bbb0 a9bc 9856 b8bc a508 123d
000002c0: 9e2f bfbc acf8 c33d 9d31 4abd d94b 43bd
000002d0: b21a d03d c857 843e e89a bcbc c1ef 8a3a
000002e0: bdb6 4e3d 8853 9dbb b3c7 36bd af36 1d3e
000002f0: b83b e7bd 7288 543e 620e d63d e4e7 573d
00000300: ef23 09be 4700 4d3d d4b0 c93d cb4d be3d
00000310: fbe3 5bbd a821 de3d 74ee 883d 505a 953c
00000320: 45f9 94be e2c8 e1bc 8e90 b0be c2fe 9fbd
00000330: 4799 843d 1695 9c3d 1302 9cbd bf1c c6bd
00000340: 17dd e03d 5d79 073e b60d 433d 7439 063e
00000350: f6af eabd a0cd 83bd e0d1 a63e 4e3b c73e
00000360: 2477 cc3d 4bfa 25bd ec39 ee3e 0c19 8cbe
00000370: 287f c3bc 7ece 4e3e f283 2cbe e3cf bcbe
00000380: 3daf 183e b6f4 13be 09d4 66bc ed27 c23e
00000390: 0969 ecbb 3622 093d e72f e23d 624e 373e
000003a0: ec20 78bc 0914 9c3e 4f80 8bbd 8a95 813e
000003b0: 19a5 42be f178 b6bd 4de8 7ebe 385d 2c3e
000003c0: c06f ecbd fafc 16be e892 8f3c 9014 473e
000003d0: b7d3 31bd 2550 23be ca30 cd3d 287e 6abe
000003e0: 9381 e7bd 02ab f03c 2973 6fbe fa4e 57be
000003f0: bdd2 c0bc 2fb3 61be 1a37 5b3d 38ce 4b3e
-0.05768008 -0.044337243 -0.05816625 -0.043016564 0.046358336 -0.006605872 0.08691881 0.027143707
0.014606808 0.014542036 -0.0142863095 -0.02300126 0.06892633 -0.0149421375 0.01800807 -0.021607235
0.061563693 0.0053349994 -0.059016146 0.051049396 -0.024199732 -0.039198343 0.04952698 0.07409802
-0.026264455 0.09384104 0.03934401 -0.0734586 0.016635805 0.0032002174 -0.024989292 -0.050697662
-0.039400734 0.021231687 0.1285283 -0.00562416 0.113972284 -0.06542872 -0.012413473 0.022466287
-0.058878075 -0.06140134 -0.010167822 0.09127848 -0.04106141 -0.0052227955 0.09950796 -0.06514274
-0.0069122235 0.018905416 -0.07034579 -0.086550295 -0.01754326 -0.08981115 0.0066342438 0.012419493
-0.06411104 0.019590946 0.037110113 0.004108606 -0.15806176 -0.058206894 -0.06876429 0.038523134
-0.08795789 0.03218335 0.034652792 0.07594312 0.019387487 -0.001724659 -0.067209385 -0.052215856
0.07050668 0.024225546 0.06751652 -0.005303591 0.09429887 -0.0790262 -0.04857769 -0.025806325
-0.010689251 0.0068354667 -0.0052389614 0.0036120024 -0.020095946 0.015621898 0.025805695 -0.00095923315
0.0033990552 0.0170164 -0.07656605 -0.002708479 0.0008347176 -0.027981212 0.10974713 0.07651932
0.15330626 -0.04060818 -0.0020460456 0.15708637 0.019073403 0.071992695 -0.042281628 -0.024522876
-0.029869348 -0.0029747447 0.11543382 -0.007897703 -0.036014553 0.06783183 0.123284884 0.10709839
-0.076700106 -0.047156673 -0.12986726 -0.039139688 -0.21942426 0.065442614 -0.034937862 -0.07461102
0.012186749 0.10782406 -0.11130714 -0.04145755 -0.012733632 0.059131682 -0.099954866 0.1305475
0.1409669 -0.0047906674 0.031451833 0.061991848 -0.06903059 -0.044296093 0.04173106 -0.0053821565
0.015292843 0.07165732 -0.007118916 -0.046259485 0.06918058 0.09751086 -0.056462184 -0.10397026
-0.004904416 0.002254562 0.08037664 0.061296813 -0.16204377 0.066699296 0.038019948 0.31956717
-0.17163098 -0.011549931 -0.20649491 0.029867914 0.011504011 0.08821067 0.055320915 0.12237141
-0.007069246 0.0037535683 -0.1894641 -0.06791638 -0.011073324 0.074813604 -0.024553394 0.031570643
0.13122618 -0.064079344 0.10724839 0.04337104 -0.0084045995 -0.020714154 -0.022502229 0.035652775
-0.023338135 0.09568915 -0.04936372 -0.047679756 0.10161342 0.25848222 -0.023023084 0.0010600017
0.05046724 -0.0048012175 -0.04462404 0.15352891 -0.11290687 0.20755175 0.10451962 0.052711383
-0.13392614 0.050049093 0.098481804 0.092921816 -0.053684216 0.10846263 0.06686106 0.01823154
-0.29096428 -0.027561609 -0.34485286 -0.07812263 0.06474548 0.076456234 -0.07617583 -0.09673452
0.109796695 0.1322989 0.047620498 0.13107854 -0.11459343 -0.06435704 0.32581997 0.38912433
0.09983662 -0.0405219 0.46528566 -0.2736286 -0.023864344 0.20195958 -0.16847208 -0.36877355
0.14910598 -0.14448819 -0.014088639 0.37921086 -0.0072146696 0.03347989 0.11044293 0.17900994
-0.015144568 0.30484036 -0.06811582 0.25309402 -0.19008292 -0.089097865 -0.24893303 0.16832435
-0.11544752 -0.1474494 0.017526105 0.19441438 -0.043414798 -0.15948541 0.100190714 -0.22899687
-0.11304011 0.029378418 -0.23383774 -0.21026221 -0.023537988 -0.2204101 0.053519346 0.19902885

prop_layer.GRU.bias_ih_l0 f4 [30]
00000000: 5417 523d 1adb 283e d497 133e 5140 ba3d
00000010: 38aa 5b3d ee82 6d3c 95be 0e3e b6c9 4d3e
00000020: 7285 5b3d 9445 1d3e 5723 edbd 3a02 28be
00000030: 6836 7fbe 6db5 dcbd 7bd4 4dbe 154a 2abe
00000040: 324c 3dbe a508 5bbe cb38 5dbe f95f 48be
00000050: 66a6 05bf ccb4 f1bd 28b7 08bf ec88 b0be
00000060: e9d7 303f 6d35 223e a4a7 1e3f e46b 26bf
00000070: 378a 713e fcfb bc3e
0.05129178 0.1648983 0.14413387 0.09094299 0.05362913 0.014496548 0.13939889 0.20096478
0.05359406 0.15358573 -0.11579006 -0.164071 -0.24923098 -0.10776792 -0.20100586 -0.16629823
-0.18486097 -0.21390016 -0.21603696 -0.1956786 -0.5220703 -0.118020624 -0.53404474 -0.34479463
0.6907945 0.15840693 0.6197455 -0.6500838 0.23587881 0.36911

prop_layer.GRU.bias_hh_l0 f4 [30]
00000000: 5417 523d 1adb 283e d497 133e 5140 ba3d
00000010: 38aa 5b3d ee82 6d3c 95be 0e3e b6c9 4d3e
00000020: 7285 5b3d 9445 1d3e 5723 edbd 3a02 28be
00000030: 6836 7fbe 6db5 dcbd 7bd4 4dbe 154a 2abe
00000040: 324c 3dbe a508 5bbe 0e38 5dbe f95f 48be
00000050: f621 b5bd 9816 84bd bf29 73be 7581 38be
00000060: 3f09 663e d099 0a3e 6dd8 9e3e b645 67be
00000070: 94ec 4f3d a19b a83d
0.05129178 0.1648983 0.14413387 0.09094299 0.05362913 0.014496548 0.13939889 0.20096478
0.05359406 0.15358573 -0.11579006 -0.164071 -0.24923098 -0.10776792 -0.20100586 -0.16629823
-0.18486097 -0.21390016 -0.21603414 -0.1956786 -0.08844368 -0.06449622 -0.23746394 -0.18018134
0.22464465 0.13535237 0.31024495 -0.22585186 0.050762728 0.08232809

interaction_layer.0.weight f4 [20, 20]
00000000: 94ec 03be d62f 553e f3eb 4c3e 20a6 353d
00000010: 1201 643d 791f 5a3d 4ed0 41be 2869 1c3e
00000020: c88c f3bd 9754 003f 7395 febc bf77 3a3e
00000030: e0a5 3d3e a7b4 6b3e 3464 8dbe 47b2 8c3e
00000040: 9a33 a7bd 8a9e 28be 2351 ec3d 35c2 253e
00000050: 47f4 813d 45d7 c03d dfee 1fbe 1f66 603c
00000060: a35e 743e a28c 6fbe 298a 7a3e c92a 233e
00000070: 7298 adbd 576e 343e 75e7 09bf 71da 52be
00000080: 3cec fe3d 97c9 993e 3734 ddbc 5133 0b3e
00000090: 6af3 28bc 3788 0c3d 2fb7 243e 7220 2bbe
000000a0: 3c05 0dbe e309 873d f0b9 4d3c fe73 3c3e
000000b0: a431 7f3e 725d 983d 0705 d3bd 87cc 47bd
000000c0: 2f32 733e c93b 45bd 49f3 303e 93f8 103e
000000d0: 4e9c 0abf 9179 91be 2abd 26be 8cc0 9bbd
000000e0: 3d56 51be d304 5f3e db9a adbe 7283 183d
000000f0: 57a8 8dbd 8079 b83c f2f7 6f3c c112 08be
00000100: 0128 02bd cfe7 01bd a4be b7be d131 3fbd
00000110: f1da 1dbd 0b01 2cbd 83a1 68be 95ad ed3d
00000120: 2110 533d 0e97 bf3d 35e7 1a3e c701 43be
00000130: ee09 b5bc 7e04 94be 2c3a 06be 7c22 c93d
00000140: ec9b 1fbe 5177 00be b6d8 7d3e ef1b 653e
00000150: c83a 83bd 77ee 553d 7d6f 07bf e016 d6bd
00000160: 4756 153e f5f9 56be d0e0 413c 8648 aabd
00000170: 9613 cd3d 8f22 34bd f31c d5bc f9d7 e1bd
00000180: 91de dfbd 4217 3b3e 19d0 e83d 5595 133e
00000190: 7a9d a23e f15e 913e a630 583e 3838 d73e
000001a0: 522a cabe 5a24 0b3d fe17 39bd 9cff f03d
000001b0: 96f5 d1bd 4341 b8bc 4319 c7be e10d b0be
000001c0: 0f85 1bbe 2778 36be 177b 05be 7b0f 35bd
000001d0: 379c 00bd 1e7b 94be 39e1 443d 01b4 a93e
000001e0: 9568 af3e ca53 fdbc 5db8 223c 191e 79bc
000001f0: bc26 7abe a6a4 6cbe e3ab 98bd d962 a03e
00000200: 94ad 97be 89e4 9fbe f6a9 723e b220 29bd
00000210: 9944 913e 9126 ee3e 144c 1ebe 10ec 933e
00000220: 0e03 213e 3e68 9dbd 0b5b 9dbc 409c 6bbd
00000230: ba10 0a3e afeb e73d 0a74 173d 66f2 433e
00000240: 6e99 10be cad6 7bbe 8fb3 fa3d bc9e 293c
00000250: d97d 73be f114 cbbe 9525 503e 686a 103e
00000260: 856d 5abe 2532 27be 7ff1 5ebe 1205 82bd
00000270: 92a4 25be cc44 343e 1813 acbd f526 3dbe
00000280: 2b9f 23bd 192d 9ebc 94dc b0be 150b 05be
00000290: c391 ffbd a728 4d3e 9968 fbbc 30ec 93be
000002a0: 54ae 803d 74a1 9bbd 3073 cf3a 971c 4f3e
000002b0: 5d8a aebd 0ee4 143e 4f4d 00be bc2a fdbd
000002c0: ff14 523e 73a2 8bbe 45a9 78bd 79a8 9a3e
000002d0: b72b 8e3e 4828 323e b77c 973b f158 893e
000002e0: 5c3a 903d a986 023e afc2 d63d 2f6a 823d
000002f0: c4c8 52be ce23 a33c d3ca a1be a0a6 f7bc
00000300: 00d3 bbbe a7e8 2dbe 626f 96be d9a5 acbe
00000310: abdd 4dbe a87a 44be 46ce 903e 5a69 eebd
00000320: 93b4 bbbd e531 30be 2692 723d 229d 6dbe
00000330: 9b87 a7bd 77ed d2bc 9409 96be 5fca 4b3e
00000340: 90b0 d43e c4ce 6bbe 059a 093e a409 893e
00000350: 66c7 5c3d 9d49 51be ccdd b63d 1b8a bebd
00000360: e20c 593e 26ff 49be 0779 01be 5021 e43d
00000370: 261f 74bd 763b 90bd 0b00 163d c76d 4f3e
00000380: e7ab 52be 3c0f 2cbc 3e87 973e c12d 25bd
00000390: a3fc 7c3c b0fd de3d 7520 e03d 1ec8 a13e
000003a0: 6d57 81be a827 6c3d 3953 10be fbab 273e
000003b0: 1a35 853d ce34 813d 8f29 0c3e eecc 673e
000003c0: 6bc6 bbbe cd58 87be 2729 adbe d26b 2b3e
000003d0: 2bcc 153e e464 353e 5722 e93c aa62 383e
000003e0: c21e f8bb f511 8f3e 9596 c2bd 8d96 d83c
000003f0: 2d5b a5be 5c3e 45be 333b 213e b9ac d3bd
-0.12883216 0.20819029 0.20011882 0.044347882 0.055665083 0.05325267 -0.18927118 0.15274489
-0.11892086 0.50129074 -0.031077122 0.18209742 0.18520308 0.23018132 -0.2761551 0.27479765
-0.08164139 -0.16466728 0.11538913 0.16187365 0.0634542 0.094160594 -0.15618466 0.013696223
0.23864226 -0.23393491 0.24466766 0.1593429 -0.08476342 0.17620216 -0.538688 -0.20591141
0.12447402 0.30036613 -0.027002437 0.13593794 -0.010311941 0.034309592 0.16085504 -0.16711596
-0.13771528 0.065936826 0.012556538 0.18403623 0.2492128 0.07439698 -0.10303693 -0.048779037
0.23749612 -0.04815272 0.17280306 0.14157324 -0.5414475 -0.2841306 -0.16283098 -0.07605085
-0.20443054 0.21779184 -0.33907208 0.03723473 -0.06916874 0.022518873 0.014646517 -0.13288404
-0.031776432 -0.03171521 -0.35887635 -0.046678368 -0.038538877 -0.041993182 -0.22717862 0.11605374
0.051529054 0.09354983 0.15127261 -0.19043647 -0.022099461 -0.28909677 -0.13108128 0.098210305
-0.15586823 -0.12545516 0.247897 0.22373937 -0.06407696 0.05222937 -0.5290449 -0.10453582
0.14583693 -0.20993789 0.011833385 -0.08314614 0.10013501 -0.04397827 -0.02601478 -0.11027522
-0.10931123 0.18270591 0.113678165 0.14412434 0.3176077 0.28392747 0.21112308 0.4203508
-0.39485413 0.033970214 -0.045188896 0.117675036 -0.1025192 -0.022492057 -0.3888646 -0.3438559
-0.15187477 -0.17819272 -0.13035236 -0.044204216 -0.031398978 -0.2900018 0.04806635 0.33145145
0.34259477 -0.030923743 0.009931651 -0.01520493 -0.24428838 -0.23109683 -0.0745466 0.31325415
-0.29624617 -0.31229046 0.23697647 -0.041290946 0.28372648 0.465138 -0.15458709 0.2889104
0.15723822 -0.07685898 -0.019208452 -0.05752206 0.13482943 0.1132425 0.036975898 0.19135436
-0.14121029 -0.24593654 0.12241279 0.010352787 -0.23778476 -0.39664415 0.20326836 0.14103091
-0.21330841 -0.16327722 -0.21771811 -0.06348623 -0.1617606 0.17604369 -0.08402079 -0.18471892
-0.039946716 -0.019308614 -0.34543288 -0.12992509 -0.12478974 0.20035039 -0.030689524 -0.28891134
0.062832505 -0.07599154 0.0015827175 0.2022575 -0.085224845 0.14540121 -0.12529491 -0.123616666
0.20515822 -0.27272376 -0.060708303 0.3020666 0.27767727 0.17398179 0.0046230215 0.2682567
0.07042381 0.12746681 0.10486352 0.06367909 -0.20584399 0.019914534 -0.31600055 -0.03023082
-0.36684418 -0.16983281 -0.29381853 -0.33720282 -0.20104091 -0.19187415 0.28282374 -0.11641188
-0.09165301 -0.17206533 0.05922141 -0.23204473 -0.081801616 -0.025747998 -0.29304183 0.19901417
0.41540956 -0.23028094 0.1343766 0.26765168 0.0539011 -0.20438237 0.08929023 -0.09303685
0.2119632 -0.19726238 -0.12643825 0.11139166 -0.059600018 -0.07042591 0.036621135 0.2025672
-0.20573388 -0.010501679 0.2959537 -0.040326837 0.015441093 0.10888231 0.10943691 0.3159799
-0.25262013 0.057655007 -0.14094247 0.16374199 0.06504269 0.063089 0.13687728 0.22636768
-0.36674818 -0.26434937 -0.3382046 0.16740349 0.14628665 0.17714268 0.028458757 0.18006387
-0.007572026 0.27943388 -0.095013775 0.026438976 -0.32296124 -0.1926207 0.15745239 -0.103356786

interaction_layer.0.bias f4 [20]
00000000: a416 883c ab9e 3cbe 95d6 8c3e f7c0 c9bd
00000010: b90d 543c 7f59 30be ba99 83be 3b19 2d3e
00000020: 9614 d6ba ad8e 053e ff40 afbd 96dd 11bd
00000030: 3e19 763e 8b3c 263d 16c5 78be 8c35 45b1
00000040: 92c9 b23d 5ce0 2cbe 123c 4ebd 67d9 863d
0.016612358 -0.18419902 0.27507463 -0.09851258 0.012942725 -0.1722164 -0.25703222 0.16904156
-0.0016333039 0.13042708 -0.08557319 -0.03561171 0.24033067 0.040585082 -0.24293932 -2.869771e-09
0.08729853 -0.16882461 -0.050350256 0.06584435

interaction_layer.2.weight f4 [10, 20]
00000000: 7fbe d63e f4cf cb3d 5ca1 d9be 972d f63b
00000010: a29f ffbd 0e5d 77be cf7a 91be a61f cabe
00000020: 0eea 0cbe cfc0 f03d 1f33 dfbc 9178 e8bd
00000030: c3fa 903b 62cc f2be 7f12 c53e a58a 462d
00000040: bb79 363e cb8c 803e 68d1 2e3d 89eb 89be
00000050: c4ba 653e 334f 973d cc21 5fbd 007b 533e
00000060: cd66 8fbb dad9 48bd 2883 29bd 7239 4dbe
00000070: f771 823e 8227 5abe ca9e ad3e 7c64 a73e
00000080: c0bd 953c b189 b4bd bff5 a83c 80f4 eca6
00000090: dfd4 30be d964 e03d 1875 29be 9e6c e33e
000000a0: 4fff d6be 170c c9bd 6311 40bc 43b5 a5bc
000000b0: 0afe df3d a240 18bf a203 a0be 5c83 e5bc
000000c0: dac1 dabd 9789 d43d 48e4 073e 1dfc 7cbd
000000d0: 8f29 c2be 87ef 9abe 3f61 5f3e 6b34 8724
000000e0: 106b 0bbd 7e5a 303d 7faa 75be 5207 25be
000000f0: 1cc0 8cbc 3ed0 a0bc 6453 c6be bcb5 3b3e
00000100: ba56 e03e e534 da3d 36e4 61be c896 10be
00000110: ff60 f93c 1a58 8cbe 2b61 803d 3637 76be
00000120: 3625 10bf 6e1e 5c3e 7ab2 823e 2697 07ae
00000130: 2995 953e 344b 6b3e 7af8 a33e c5d3 32be
00000140: b159 c13e 36c0 b03e 1a24 f5be 8650 a43a
00000150: 3b9c de3d b705 30bd 3e76 b9be 5b87 013e
00000160: 26c8 be3d df2f acbb 0143 49be 7838 c63d
00000170: 0b64 0fbe d413 233e 4b07 af3c 0507 3d1e
00000180: 43a4 dcbc 1b66 b1be 9339 5bbe 4beb c6bd
00000190: 80c2 79be d4a4 7ebe 3b26 633e dd7e 2c3e
000001a0: 5a30 5f3e c2c7 a93e cdc2 edbe 1ffc c6be
000001b0: c2dc 3abd 2046 ea3e cde6 f03d 9b88 27bd
000001c0: 8c7d 5f3d 6fef 94be 778a 52be b8d9 f2b2
000001d0: 46a8 b8bd dbc3 183e d03a a9bd 1a70 fc3d
000001e0: 86d2 f4bd e0cf 463e 6c35 eb3c 2744 a3bd
000001f0: 7a5a b4be 99e6 1a3d 229d 2fbe 03b4 3bbd
00000200: 6138 f9bc 1b21 c23d 6875 a43d eb26 4d3e
00000210: ed99 ddbe b0f6 bf3e 46b5 de3e 95d5 72ac
00000220: 79e1 dfbe ff9e 663e 3783 b9be e32d 70be
00000230: 6377 d9bd af06 c13d 6a93 4abe 2c10 6ebe
00000240: 9da6 4cbe 9aeb a83e c1ca a73d 5156 243e
00000250: 964f 8abe d4b3 73be bc2e dd3e d40b 51bd
00000260: dca2 e5bd df5b 1bbe cbe8 9f3d 890e 26b1
00000270: b415 b53e 06f7 a1be 00c8 57ba 5519 7ebc
00000280: 4ccf 8f3d 292b 01bf 043f 283d 3a0a f8bd
00000290: fd4c b23d 8e2e 783e 3e79 7c3d 0a3b 39be
000002a0: 26c8 90bc 94c4 bfbe 010c 08be 69c0 d5bd
000002b0: 22b1 913d cf07 823d 4112 cbbd b2dd 4511
000002c0: ab15 08be b655 88bd 0bfa 8ebe c8b6 4cbe
000002d0: 9bd2 da3c 8a53 89be ca6a ad3d 1ad7 833e
000002e0: 4da9 243e dc81 c73e 9f0c b23e b869 fcbd
000002f0: f021 e2be b808 49bd 651a a23e 04b5 b63e
00000300: e990 153d d158 6fbe 8c41 a03e 56eb 9fae
00000310: e274 423e 7fcf 9b3e 8669 8b3e f652 73ba
0.41942212 0.09951773 -0.4250592 0.007512759 -0.124816194 -0.24156591 -0.28414008 -0.3947727
-0.1376116 0.11755525 -0.027246056 -0.11351121 0.0044244244 -0.47421557 0.38490674 1.1285782e-11
0.17819874 0.25107417 0.042680174 -0.26937512 0.22434527 0.07388153 -0.05447559 0.2065239
-0.0043762685 -0.049035884 -0.041384846 -0.20041445 0.25477573 -0.21304134 0.3391021 0.3269385
0.018278956 -0.08815325 0.020624993 -1.6442061e-15 -0.17268704 0.10956735 -0.16548574 0.44418806
-0.4199166 -0.09816759 -0.011722895 -0.020228034 0.10937126 -0.5947362 -0.31252772 -0.028016739
-0.106815055 0.10377806 0.13270676 -0.06176387 -0.37922332 -0.3026087 0.2181444 5.863572e-17
-0.03403765 0.04305505 -0.2399082 -0.16116074 -0.017181449 -0.019630548 -0.38735497 0.18331045
0.43816167 0.1065462 -0.22059712 -0.14120018 0.03044176 -0.27410966 0.06268533 -0.24044499
-0.5630678 0.21495983 0.25526792 -3.0829693e-11 0.29215363 0.22977906 0.3202551 -0.17463596
0.37763742 0.34521645 -0.47879106 0.0012536205 0.10869642 -0.0429742 -0.36223024 0.1264929
0.09315519 -0.00525473 -0.19654466 0.09678739 -0.14003007 0.15925533 0.021365782 1.0007028e-20
-0.026933795 -0.34648213 -0.21408682 -0.09712847 -0.24390602 -0.24867564 0.22182553 0.1684527
0.21795788 0.33160216 -0.46437684 -0.38864228 -0.045620687 0.45756626 0.11762772 -0.04090176
0.05456309 -0.29088923 -0.20560633 -2.8271515e-08 -0.090164706 0.14918463 -0.08263171 0.12326069
-0.11954217 0.19415236 0.028711997 -0.079719834 -0.35225278 0.03781757 -0.17149785 -0.04582597
-0.030422391 0.094789706 0.08030206 0.20034377 -0.432815 0.37492895 0.43497676 -3.450883e-12
-0.4372671 0.2252159 -0.3623292 -0.23455004 -0.10618474 0.09425103 -0.19782797 -0.23248357
-0.19985433 0.3299225 0.08192969 0.16048552 -0.27013844 -0.23799068 0.43199718 -0.05103667
-0.112127036 -0.15171765 0.078080736 -2.4164442e-09 0.3536812 -0.31633776 -0.00082314014 -0.015508969
0.070219606 -0.5045648 0.04107572 -0.121113256 0.087060906 0.24236509 0.061639063 -0.18088928
-0.017673563 -0.37454665 -0.13285829 -0.1043709 0.071138635 0.063491456 -0.09915591 1.5608875e-28
-0.13289516 -0.06656973 -0.27925143 -0.199916 0.026711753 -0.26821548 0.08467634 0.25750047
0.16080208 0.38966262 0.34775254 -0.12324852 -0.44166517 -0.04908058 0.31660762 0.3568498
0.03651515 -0.23373725 0.31300008 -7.272287e-11 0.189899 0.30431744 0.27228945 -0.00092820765

interaction_layer.2.bias f4 [10]
00000000: 89e9 00bc ac36 16bd 7c71 a83e 9035 7ebd
00000010: 87e3 7ebd 6b09 f93d 78d6 e638 6b45 c23d
00000020: 1ded c93d eb4b 96be
-0.007868179 -0.036673233 0.32899082 -0.0620628 -0.062228706 0.121599995 0.000110072026 0.09485897
0.09859679 -0.29354796

scoring_alignment_preprocessor.0.weight f4 [16, 10]
00000000: 141b 0dbe c65a a43d fbf3 c9be fda9 133e
00000010: 9895 adbe 0b6c 433e 97b2 f33e 04ee 6b3e
00000020: a25a e23e 59f5 183e c9c4 653d ce60 0e3c
00000030: 43e2 0d3e 0d5e e0bd 8503 41be b7b4 6b3e
00000040: 19f3 70be f9b4 743d 7e27 8fbd 3e6c e83e
00000050: c927 b93d 7607 92bc 969d 7b3e 1339 87be
00000060: 4447 e93d 0253 e0be f053 f7be 555e 833d
00000070: 9ea9 4c3e ad45 4dbe f4ff 5c3e b0f9 1c3e
00000080: 74f8 273e 5a97 6cbd aa69 4dbf 43d4 2a3e
00000090: 7d77 00be e422 933e d340 2bbe 3007 bfbd
000000a0: b0b6 14bc c5ef 9abe dbe9 ed3d b592 a43d
000000b0: 3ef4 0d3f e301 a6be 7325 9dbc b77f f1be
000000c0: 31ea 6cbe 82e6 d9bc 5cae 4ebe 7889 6cbe
000000d0: fb51 ae3e 03d5 88bd 86b1 1fbd 42bf 09be
000000e0: 3fce 83be 0ddf 2c3d 2142 363d 9fbf 87bc
000000f0: 75be 4e3c cf8e 723e 0b6c fb3c 558f dd3e
00000100: a970 52be 5236 1e3e cf45 8bbd 7383 d93d
00000110: e073 193d 038b 313f 125b a13c 42d1 ecbd
00000120: 2831 2fbe af70 1f3f de64 193e 27f7 b73c
00000130: 1df8 ae3e e8e1 82be ac21 55be c496 3a3e
00000140: 60ad a300 3ee0 7981 56c4 8681 aca3 9e81
00000150: 8285 cc80 6878 ee01 3c9a 0982 0c65 7400
00000160: ddf7 0b01 b0c0 8c00 33bc 473e 490a cdbd
00000170: 86d2 b83e 7b36 2f3f bbc5 10be eb06 39be
00000180: 8be4 97be beff a8bd 0946 263e d8d4 67be
00000190: fe88 09bf 636e e1bc 5d7f b1bd 7243 d1bc
000001a0: bd9f c7be 80db 17be 8538 2d3e 6be1 263e
000001b0: f7e3 933b f88b c2be e715 32be 54e8 14be
000001c0: e193 3a3e d4a8 c23e 6ec4 e1be 6491 c5be
000001d0: 2c8e 3dbd bae2 81be 558f 28be 8358 7b3e
000001e0: ccf8 363d b528 863d 6cf1 49be 333c a3be
000001f0: f3f1 583e e226 ef3e f2b5 293e 1162 463e
00000200: 7a6a f83b 5c40 b43e bbd9 353e 4315 c13d
00000210: fd64 c1be 9845 a7be 8399 06bd d270 013f
00000220: d204 963e 3a3c 943e 8f36 483e c5dd 373e
00000230: 7ad8 1bbf f261 e4be 5f4b 87be 649c b53e
00000240: 04a2 0c3e 110a 6dbe 055b 08be afdd 9dbd
00000250: e58f 893e 8cd8 883e fdd6 5438 ea90 ed39
00000260: 1648 95ba 4f93 5cbb d26d 8439 e0ee 8bb9
00000270: 1ce8 2138 fef8 a8b9 8f5b 9138 b342 beb8
-0.1377986 0.08025126 -0.39443955 0.14420314 -0.33903193 0.19084184 0.4759719 0.23040015
0.44209772 0.14937343 0.056095872 0.008690072 0.13855843 -0.10955439 -0.18848999 0.23018156
-0.23530234 0.0597429 -0.069899544 0.45395082 0.090407915 -0.017825823 0.24571833 -0.26410732
0.11390546 -0.4381333 -0.48306227 0.06414477 0.19986579 -0.2004611 0.21582013 0.15329623
0.16403371 -0.057761528 -0.80239356 0.16682534 -0.12545581 0.28737557 -0.16723947 -0.09327543
-0.009076759 -0.30261055 0.1161687 0.08035795 0.5545081 -0.32423314 -0.019182896 -0.4716775
-0.23136212 -0.026599173 -0.201837 -0.23099315 0.3404692 -0.06681254 -0.03898766 -0.13451865
-0.2574329 0.042204905 0.04449666 -0.016570864 0.012618651 0.2368729 0.030691167 0.43273416
-0.20550789 0.15450409 -0.06800424 0.10620775 0.037464023 0.6935274 0.019696746 -0.1156335
-0.17108595 0.62281317 0.14979884 0.022456719 0.3417367 -0.25562978 -0.20813626 0.18221575
1.5031381e-38 -4.5894963e-38 -4.9505554e-38 -5.827489e-38 -1.8782335e-38 8.7600167e-38 -1.0109433e-37 1.0689166e-38
2.57081e-38 1.2926093e-38 0.19505386 -0.10011727 0.36098117 0.68442506 -0.14137928 -0.18069045
-0.29666552 -0.08251904 0.16237654 -0.22639787 -0.5372466 -0.027518457 -0.08666871 -0.025544856
-0.38989058 -0.14829826 0.16916092 0.16296928 0.0045132595 -0.37997413 -0.17391168 -0.14541751
0.18220474 0.3801943 -0.44095176 -0.38587487 -0.046278164 -0.2536829 -0.16460927 0.24545483
0.044670865 0.06550733 -0.19721001 -0.31881866 0.21186046 0.46709353 0.16573313 0.19373347
0.0075810524 0.35205352 0.17758839 0.094278835 -0.3777236 -0.32670283 -0.032861244 0.50562775
0.29300553 0.289522 0.19552062 0.17955692 -0.6087719 -0.44605976 -0.2642469 0.3547088
0.13733679 -0.23148371 -0.13315971 -0.077082984 0.26867595 0.26727712 5.0744962e-05 0.00045312132
-0.0011389281 -0.0033657139 0.00025258824 -0.00026690122 3.860156e-05 -0.0003222897 6.931193e-05 -9.07233e-05

scoring_alignment_preprocessor.0.bias f4 [16]
00000000: 46a8 1e3e 0d3a b73d 788d a43d fc97 5d3e
00000010: 6ff7 0d3d 38ca f13d fc3d 923d 984f f53d
00000020: a8ce 1082 0313 f43b b143 393e 9f53 18bd
00000030: ddc0 2f3e fb1b 9cbd 4f39 023e fc60 99bb
0.15493879 0.08946619 0.080347955 0.21640009 0.0346598 0.11806148 0.07140729 0.11978072
-1.0638757e-37 0.0074485554 0.18092228 -0.037189122 0.17163415 -0.07622524 0.12717174 -0.004680751
