paper_artifacts/collection/greed/trained_models/greed_aids_large_dataset_seed_7762_2024-04-26_16:16:21.pth (torch, 18297 bytes, 26 tensors)

embed_model.pre.weight f4 [10, 1]
0	0xbf4daade	-0.8033885
1	0x3c1970c0	0.009365261
2	0x3f3c9a08	0.73672533
3	0x3ad50311	0.0016251524
4	0x3bf0b6fa	0.0073460313
5	0xbe2080ee	-0.15674183
6	0xbad66fc7	-0.0016360217
7	0x3edbf598	0.4296081
8	0x3e85a50a	0.26102477
9	0x3d58bbbc	0.052913412

embed_model.pre.bias f4 [10]
0	0x3f09910b	0.53736943
1	0xbeb4ad45	-0.35288444
2	0xbf3bb7b8	-0.7332721
3	0x3eb1f4c3	0.3475705
4	0xbbf143c6	-0.0073628156
5	0x3f450831	0.76965624
6	0xb9b49503	-0.00034443298
7	0xbee85b51	-0.4538217
8	0xbe245464	-0.16047817
9	0x3e498b53	0.19682054

embed_model.convs.0.nn.0.weight f4 [10, 10]
0	0x8001311d	-1.09454e-40
1	0x189cad6b	4.0500162e-24
2	0x80001b9b	-9.903e-42
3	0x965b5153	-1.771634e-25
4	0x000020f0	1.1816e-41
5	0xa68c8923	-9.751622e-16
6	0x80001b58	-9.809e-42
7	0x80001b9e	-9.907e-42
8	0x80001b87	-9.875e-42
9	0x808ee768	-1.3123653e-38
10	0x2dc002fd	2.18292e-11
11	0x31911588	4.2225032e-09
12	0x80001b8f	-9.886e-42
13	0xb122c70d	-2.368725e-09
14	0x00001c77	1.0211e-41
15	0xb5ec2473	-1.7593978e-06
16	0x8000226a	-1.2345e-41
17	0x80001b8c	-9.882e-42
18	0x9555474d	-4.3071254e-26
19	0xac88da5d	-3.8895957e-12
20	0x2e374f06	4.167957e-11
21	0x321c4bba	9.097613e-09
22	0x00001b8c	9.882e-42
23	0xb206b1ed	-7.840282e-09
24	0x80001cd2	-1.0339e-41
25	0xb6b638b3	-5.4306233e-06
26	0x000021e6	1.216e-41
27	0x80001bb8	-9.944e-42
28	0x9388ec12	-3.456401e-27
29	0xad427f2f	-1.1055864e-11
30	0x80001b7b	-9.858e-42
31	0x80001132	-6.169e-42
32	0x00001b7c	9.86e-42
33	0x80000379	-1.246e-42
34	0x80001b72	-9.846e-42
35	0x9cad234f	-1.1457307e-21
36	0x80001bf7	-1.0032e-41
37	0x80001b8e	-9.885e-42
38	0x00001b82	9.868e-42
39	0x00001b9f	9.909e-42
40	0xbe2b7961	-0.16745521
41	0xbd3aaae1	-0.04557312
42	0xbafbfb1b	-0.0019224616
43	0x3e8e91b0	0.27845526
44	0xba4c87c3	-0.00078022125
45	0x3e84cb09	0.25936154
46	0xba4e3cf6	-0.000786736
47	0x3d8f4ebd	0.0699744
48	0x3d072876	0.03299757
49	0x3ea00e10	0.3126073
50	0xbe90d963	-0.28290853
51	0xbe9045ff	-0.28178403
52	0x3c9b89c7	0.018986596
53	0x3e141a22	0.14463094
54	0x3a84c727	0.0010130153
55	0x3ea43570	0.3207202
56	0xba363a4a	-0.0006951435
57	0xbe1d529c	-0.15363544
58	0x3dbdcd2d	0.0926765
59	0xbd7792c1	-0.06044269
60	0x81cc4114	-7.503115e-38
61	0x10b652e1	7.191404e-29
62	0x80001e12	-1.0787e-41
63	0x9097e49b	-5.991122e-29
64	0x00004c78	2.7432e-41
65	0xa8dc03f5	-2.4426623e-14
66	0x00002049	1.1582e-41
67	0x00001c90	1.0246e-41
68	0x80001bd0	-9.977e-42
69	0x8001e95b	-1.75548e-40
70	0x045681b7	2.5215141e-36
71	0x9c8ff2af	-9.525678e-22
72	0x80001b60	-9.82e-42
73	0x1895a012	3.8677227e-24
74	0x80001b68	-9.832e-42
75	0xa7a32f67	-4.529298e-15
76	0x80001b58	-9.809e-42
77	0x00001b87	9.875e-42
78	0x00001b82	9.868e-42
79	0x82b8015b	-2.7037148e-37
80	0x3a05baa8	0.00051013613
81	0x3a9a06f4	0.001175134
82	0xaa8de16b	-2.5203047e-13
83	0xba95d85c	-0.0011432278
84	0x00001ba6	9.918e-42
85	0xbb479ee5	-0.0030459699
86	0x00001be2	1.0002e-41
87	0x1e127999	7.7543214e-21
88	0xb6933615	-4.3872374e-06
89	0xb9e78c61	-0.00044164344
90	0x07a2e812	2.451145e-34
91	0x08ad0c8c	1.04150085e-33
92	0x861b9ec0	-2.926889e-35
93	0x88a8f4cd	-1.0168685e-33
94	0x021ed952	1.1670375e-37
95	0x896a336e	-2.8190908e-33
96	0x81242f97	-3.0156187e-38
97	0x87b8e426	-2.7819337e-34
98	0x0801353d	3.8882107e-34
99	0x072044c6	1.2057273e-34

embed_model.convs.0.nn.0.bias f4 [10]
0	0x8936c489	-2.1999864e-33
1	0xaf0f9e0d	-1.3061925e-10
2	0xafa9bfdd	-3.0877248e-10
3	0x80001b62	-9.823e-42
4	0x3e0b575e	0.13607547
5	0xbd77d1e2	-0.060502894
6	0x06d2a43f	7.923456e-35
7	0x91a71740	-2.6362283e-28
8	0xba3f0603	-0.00072869676
9	0x88578ca5	-6.4864536e-34

embed_model.convs.0.nn.2.weight f4 [10, 10]
0	0x80001b77	-9.853e-42
1	0x00002322	1.2603e-41
2	0x80001b89	-9.878e-42
3	0x00001b73	9.847e-42
4	0x871030a3	-1.0847649e-34
5	0x86bc2773	-7.0775706e-35
6	0x80001c09	-1.0057e-41
7	0x00001bac	9.927e-42
8	0xb3cc6c63	-9.519206e-08
9	0x80001be9	-1.0012e-41
10	0x00001b79	9.855e-42
11	0x80001b9e	-9.907e-42
12	0x80001b6d	-9.839e-42
13	0x00001b89	9.878e-42
14	0xbca32a0c	-0.01991751
15	0xbe22dc65	-0.15904386
16	0x00001c40	1.0134e-41
17	0x80001b5a	-9.812e-42
18	0x2f265161	1.5126524e-10
19	0x00001e22	1.081e-41
20	0x2b7f2264	9.0641925e-13
21	0x00001e78	1.093e-41
22	0x80001e05	-1.0769e-41
23	0x00001b62	9.823e-42
24	0xb221d9bf	-9.420943e-09
25	0xb187a115	-3.94733e-09
26	0x80001e5b	-1.089e-41
27	0x80001b75	-9.85e-42
28	0x80001bbe	-9.952e-42
29	0x80001e91	-1.0965e-41
30	0x80001b59	-9.81e-42
31	0x80001b97	-9.897e-42
32	0xb3e6294b	-1.0717721e-07
33	0xb47a2054	-2.3294825e-07
34	0xb58a52e2	-1.0305923e-06
35	0xb50401a8	-4.917624e-07
36	0x302e7663	6.346907e-10
37	0x80001ba5	-9.917e-42
38	0xaf24ccbb	-1.4988448e-10
39	0x00001d5e	1.0535e-41
40	0x00001b77	9.853e-42
41	0x00001b8d	9.883e-42
42	0x271075df	2.0047912e-15
43	0x00001b5c	9.815e-42
44	0xa021d593	-1.3707896e-19
45	0xa00f2b59	-1.2126914e-19
46	0x80001ba9	-9.923e-42
47	0x80001db1	-1.0651e-41
48	0xa5e529fc	-3.9753617e-16
49	0x80001c08	-1.0056e-41
50	0x00001c1f	1.0088e-41
51	0x80001ef5	-1.1105e-41
52	0x80001b64	-9.826e-42
53	0x000020cb	1.1764e-41
54	0xbccd7df0	-0.025084466
55	0xbcccbb37	-0.024991615
56	0x80001ffc	-1.1474e-41
57	0x80001b70	-9.843e-42
58	0x80001d76	-1.0569e-41
59	0x00001b64	9.826e-42
60	0xb1dac9d5	-6.3675807e-09
61	0x3871a8f0	5.7616213e-05
62	0x399a5bb6	0.000294415
63	0xa531bbf8	-1.5415989e-16
64	0x3e821a41	0.25410655
65	0x3e42547d	0.18977542
66	0xb1390978	-2.6926426e-09
67	0x364d4040	3.058478e-06
68	0x3bbd0417	0.00576831
69	0x071e3abd	1.190386e-34
70	0xb2915166	-1.6917237e-08
71	0x38bffee5	9.1550675e-05
72	0x39e43591	0.0004352746
73	0xa8b3eab6	-1.9974782e-14
74	0x3eaebecb	0.34129938
75	0x3e86657b	0.26249298
76	0xb240c6f8	-1.1221111e-08
77	0xb693041b	-4.3814193e-06
78	0x3bcf7e13	0.006332168
79	0x8663b86f	-4.2829455e-35
80	0x80001b73	-9.847e-42
81	0x80001b76	-9.851e-42
82	0x00001be3	1.0004e-41
83	0x00001cd0	1.0336e-41
84	0xbc513f84	-0.012771491
85	0x3ca8397b	0.020535221
86	0x00001e18	1.0796e-41
87	0x00001b91	9.889e-42
88	0x80001e92	-1.0967e-41
89	0x80001edc	-1.107e-41
90	0x80001ba2	-9.913e-42
91	0x80001b5b	-9.813e-42
92	0x2d218b55	9.182728e-12
93	0xa67be78a	-8.739691e-16
94	0xb8ca1c32	-9.6373624e-05
95	0xb87c6cbd	-6.0182752e-05
96	0x00001b5b	9.813e-42
97	0x80001bf6	-1.003e-41
98	0x2e498b50	4.5825843e-11
99	0xaf82902e	-2.3749308e-10

embed_model.convs.0.nn.2.bias f4 [10]
0	0x070faf3e	1.0809623e-34
1	0x3e0c53ea	0.13703886
2	0xa89e8e2e	-1.7603184e-14
3	0xb1627d0c	-3.295841e-09
4	0xa048cc60	-1.7008281e-19
5	0xbcd05d4c	-0.025435112
6	0x3d84a601	0.06476975
7	0x3e5644b5	0.20924647
8	0xbd29478a	-0.04132799
9	0xb70ab564	-8.267674e-06

embed_model.convs.1.nn.0.weight f4 [10, 10]
0	0x04d0ad91	4.905996e-36
1	0x3804e175	3.1681226e-05
2	0x0000088b	3.065e-42
3	0x00001b98	9.899e-42
4	0x9f322e58	-3.77313e-20
5	0x34ede9fb	4.4314933e-07
6	0x3d6c0f19	0.057631586
7	0x3ce5083b	0.027958026
8	0x36dcefd1	6.5844292e-06
9	0x00001bc2	9.958e-42
10	0x80001b94	-9.893e-42
11	0x00001c20	1.009e-41
12	0x000020f2	1.1819e-41
13	0x80001be0	-1e-41
14	0x26c41156	1.3604931e-15
15	0x00001b6a	9.834e-42
16	0x80001b72	-9.846e-42
17	0x8a96bd3e	-1.451566e-32
18	0x00001caf	1.029e-41
19	0xb3082ff0	-3.1708566e-08
20	0x80001b99	-9.9e-42
21	0x80001b76	-9.851e-42
22	0x80001b66	-9.829e-42
23	0x80001c29	-1.0102e-41
24	0x00001b6c	9.837e-42
25	0x00001ffd	1.1475e-41
26	0x14b985ab	1.8732949e-26
27	0x970d5f3c	-4.567976e-25
28	0x8000203d	-1.1565e-41
29	0x00001b7e	9.862e-42
30	0x8502580b	-6.1287416e-36
31	0x39c90c99	0.00038347094
32	0x80001d2e	-1.0468e-41
33	0x00001b8e	9.885e-42
34	0xa025ba02	-1.4037588e-19
35	0xbc6f5c0f	-0.014609351
36	0x3dc02ad9	0.093831725
37	0xbe2b2459	-0.16713084
38	0xb3626e5a	-5.272009e-08
39	0x00001593	7.74e-42
40	0x80001b76	-9.851e-42
41	0x80001b78	-9.854e-42
42	0x000020ae	1.1723e-41
43	0xb2722c0f	-1.4096272e-08
44	0x00001b83	9.87e-42
45	0x80001b82	-9.868e-42
46	0xb8169bcc	-3.5907884e-05
47	0xb98c08ac	-0.00026709342
48	0x00001b5e	9.817e-42
49	0x80001b66	-9.829e-42
50	0x00001bed	1.0018e-41
51	0x00001b9f	9.909e-42
52	0x00001bba	9.946e-42
53	0x3493d9fc	2.7539488e-07
54	0x00001b79	9.855e-42
55	0x00002283	1.238e-41
56	0xb7db33c0	-2.6130932e-05
57	0xb99c7052	-0.00029838324
58	0x00001b5d	9.816e-42
59	0x80001b5b	-9.813e-42
60	0x23ba53ea	2.02017e-17
61	0x00001b9a	9.902e-42
62	0xa78ad826	-3.8537043e-15
63	0x00002010	1.1502e-41
64	0xa3f987fe	-2.7054229e-17
65	0x1eb08868	1.8691141e-20
66	0xb188bdc7	-3.979696e-09
67	0xb6325bb3	-2.6577443e-06
68	0x00001d1e	1.0445e-41
69	0x27e88818	6.454049e-15
70	0x87357647	-1.3651685e-34
71	0xbcff1945	-0.03113998
72	0x3192b0b1	4.2692467e-09
73	0xaeb90ce4	-8.415116e-11
74	0x21176e2c	5.13066e-19
75	0xbc52c9ef	-0.0128655275
76	0xbd43eb87	-0.04783204
77	0x3e71354c	0.23555487
78	0xbbfc501b	-0.007699979
79	0x350e9799	5.3119726e-07
80	0x05dd8247	2.0830596e-35
81	0xbd5bb485	-0.053638954
82	0x35ab6a93	1.277151e-06
83	0xb237191c	-1.0657711e-08
84	0x211ebab8	5.37796e-19
85	0xbc1b9a1c	-0.009497192
86	0x3e9a64ca	0.3015502
87	0x3e50f277	0.20404993
88	0xbcfbcbba	-0.030736793
89	0x3631fc48	2.6521902e-06
90	0x870551a3	-1.0029799e-34
91	0xbd1e136a	-0.038592733
92	0x31bccf4f	5.4950884e-09
93	0xb0eeb9fa	-1.7369637e-09
94	0x21073f5e	4.5823645e-19
95	0xbc884b93	-0.0166376
96	0x3e84b468	0.2591889
97	0x3e31512c	0.17316121
98	0x3d529d5e	0.05141961
99	0x3733a94a	1.0708647e-05

embed_model.convs.1.nn.0.bias f4 [10]
0	0xbe9d6003	-0.30737314
1	0x80001b5b	-9.813e-42
2	0x15c90c63	8.1202796e-26
3	0x3ea6cbe2	0.32577425
4	0xb254a3bb	-1.2377252e-08
5	0xb00f306a	-5.20919e-10
6	0xa518f95b	-1.3268383e-16
7	0xbecf23eb	-0.4045709
8	0xbe955ad6	-0.29170865
9	0x3d05a8e8	0.032631785

embed_model.convs.1.nn.2.weight f4 [10, 10]
0	0xbc9ad806	-0.018901836
1	0x80001b90	-9.888e-42
2	0x14ac58ab	1.7402535e-26
3	0xbb737b53	-0.0037152364
4	0xb939c4a2	-0.00017716226
5	0xb8407d7a	-4.5893226e-05
6	0xb6c9659f	-6.002097e-06
7	0x3e5722fa	0.21009436
8	0x3ea7f00a	0.32800323
9	0x3e7ee1f8	0.24890888
10	0x00001b67	9.83e-42
11	0x00001e9f	1.0985e-41
12	0x00001fd5	1.1419e-41
13	0x00001b87	9.875e-42
14	0x80001b58	-9.809e-42
15	0x00001b90	9.888e-42
16	0x00001b81	9.867e-42
17	0x00001bc2	9.958e-42
18	0x00001bcf	9.976e-42
19	0x80001f10	-1.1143e-41
20	0x00001b68	9.832e-42
21	0x80001b68	-9.832e-42
22	0x80002112	-1.1863e-41
23	0x28425649	1.07878734e-14
24	0x80001c8a	-1.0238e-41
25	0x2d7bd8fc	1.4315878e-11
26	0x0000bb15	6.7112e-41
27	0xb88ffe5e	-6.866151e-05
28	0xbba49580	-0.0050227046
29	0xbbda4e64	-0.006662177
30	0xbcf4beaf	-0.029876081
31	0x80001b6c	-9.837e-42
32	0x95a5dfac	-6.699586e-26
33	0xbd15444d	-0.03644209
34	0xa857fcb1	-1.1989691e-14
35	0x2bb66e69	1.2962523e-12
36	0xa98ae235	-6.167672e-14
37	0x3d511b2b	0.0510513
38	0x3ceae17e	0.028671976
39	0xbddb2cd4	-0.1070191
40	0xad6de3e0	-1.3522489e-11
41	0x80001ba4	-9.916e-42
42	0x00002143	1.1932e-41
43	0x1751c8f1	6.7785166e-25
44	0x25099e11	1.1936411e-16
45	0x00001b8a	9.879e-42
46	0x80001b66	-9.829e-42
47	0xbc093b83	-0.008376005
48	0xbce72b32	-0.02821884
49	0xbcf9acb1	-0.030477853
50	0xbd3f120d	-0.046648074
51	0x80001b79	-9.855e-42
52	0x165eeeda	1.8008385e-25
53	0x3e040e3b	0.12896053
54	0x3a0b2bbc	0.0005308946
55	0x389aae92	7.3758085e-05
56	0xad3fa1b8	-1.0893002e-11
57	0xbe85b6a5	-0.2611591
58	0xbe967de2	-0.29392916
59	0xbe9adc23	-0.30246076
60	0x3157421d	3.1324199e-09
61	0xaa14d7d2	-1.3219918e-13
62	0x80001b8e	-9.885e-42
63	0x3116b812	2.1932505e-09
64	0x00001b9a	9.902e-42
65	0x00001bb6	9.941e-42
66	0x80001cc8	-1.0325e-41
67	0xbb096e16	-0.0020970157
68	0xbba5ed41	-0.0050636833
69	0xbbae982d	-0.0053281994
70	0x3dc4679a	0.09590073
71	0x00001b7d	9.861e-42
72	0x150a04dc	2.787271e-26
73	0xbd42cf0c	-0.047560737
74	0x30848007	9.640652e-10
75	0xb1355c41	-2.6391407e-09
76	0xb214b355	-8.655509e-09
77	0x3e516e34	0.20452195
78	0x3e9877bd	0.29778853
79	0x3d9c7005	0.076385535
80	0x3d8a5e15	0.06756226
81	0x00001b6f	9.841e-42
82	0x151f1b80	3.2131488e-26
83	0x3e7aae39	0.24480523
84	0x315f3154	3.247881e-09
85	0xa21598cc	-2.0274155e-18
86	0xa4a4ab21	-7.1413566e-17
87	0xbc5a5e19	-0.013328099
88	0xbd1854af	-0.037190136
89	0xbe124434	-0.1428383
90	0xbcbf1309	-0.023324506
91	0x00001b92	9.89e-42
92	0x15319ff8	3.5871058e-26
93	0x3db8fe37	0.09032863
94	0xb3b99b31	-8.642963e-08
95	0xb1c91fb0	-5.8534724e-09
96	0x24c7623b	8.64689e-17
97	0xbdd4e22e	-0.10394703
98	0xbe94ff89	-0.29101208
99	0x3d745c15	0.05965813

embed_model.convs.1.nn.2.bias f4 [10]
0	0xbdb2f185	-0.087374724
1	0x80001c59	-1.0169e-41
2	0xbb7cf236	-0.0038596517
3	0xbc9a8d60	-0.018866241
4	0xbcd54a0d	-0.026036287
5	0x3e89a4c4	0.2688352
6	0xbad5425e	-0.0016270389
7	0xbe7653e8	-0.24055445
8	0x3e744bca	0.23857036
9	0xbe163e30	-0.1467216

embed_model.convs.2.nn.0.weight f4 [10, 10]
0	0xa4330c8a	-3.882506e-17
1	0x00001b6e	9.84e-42
2	0x00001b61	9.822e-42
3	0x80001b5f	-9.819e-42
4	0xb80dfc7a	-3.3852157e-05
5	0x80001b7c	-9.86e-42
6	0x00001f7d	1.1296e-41
7	0x907bd8ad	-4.9667943e-29
8	0x80001b86	-9.874e-42
9	0x80001d18	-1.0437e-41
10	0xb4285e71	-1.5680577e-07
11	0x00001bc1	9.956e-42
12	0x33149f17	3.4603627e-08
13	0xa825c7ca	-9.202662e-15
14	0xb52f8489	-6.5385444e-07
15	0x80001855	-8.729e-42
16	0x80001bc8	-9.966e-42
17	0xaef36c6e	-1.10696216e-10
18	0x00022465	1.96727e-40
19	0x80001c7d	-1.022e-41
20	0xb05bcd2a	-7.996329e-10
21	0x80001c9d	-1.0265e-41
22	0xa60b670f	-4.8364983e-16
23	0xa1dacb13	-1.4826008e-18
24	0x83837062	-7.72529e-37
25	0x80001b69	-9.833e-42
26	0x80001b6d	-9.839e-42
27	0xa88d7493	-1.57047e-14
28	0x80001b7a	-9.857e-42
29	0x00001c7f	1.0222e-41
30	0x3e8f8e08	0.2803805
31	0x0000219f	1.2061e-41
32	0xb5933c2d	-1.0969867e-06
33	0x3cdfc8d7	0.027317448
34	0x3b21155b	0.002457938
35	0xbecc9131	-0.39954522
36	0xbbb380ab	-0.005477985
37	0x3e201a92	0.15635136
38	0xbe036cb6	-0.12834439
39	0x3cf9e385	0.030503998
40	0xb7b2c1a2	-2.130942e-05
41	0x00001c00	1.0045e-41
42	0x80002259	-1.2322e-41
43	0xb3e94755	-1.0862883e-07
44	0x00001b60	9.82e-42
45	0xa8064882	-7.454217e-15
46	0x80001b59	-9.81e-42
47	0xb50d7567	-5.2697436e-07
48	0xa2475038	-2.7011996e-18
49	0x80002147	-1.1938e-41
50	0xbc98b78c	-0.01864221
51	0x00001d79	1.0573e-41
52	0x308ca8aa	1.0234278e-09
53	0xbc4bdaba	-0.012442285
54	0xa30704db	-7.319393e-18
55	0xbc005723	-0.007833275
56	0xadd99870	-2.473774e-11
57	0xbc4cc1ce	-0.0124973785
58	0xbab7ff25	-0.0014037831
59	0xb9fd39c9	-0.00048298974
60	0x3dc7f34b	0.09763201
61	0x80001b62	-9.823e-42
62	0xa618a368	-5.295705e-16
63	0xbe05b4d4	-0.13057262
64	0xb9a125db	-0.00030736518
65	0xbe161de1	-0.14659835
66	0xba1c1836	-0.00059545354
67	0x3de0452d	0.10950694
68	0x3c29e05d	0.010368434
69	0x3bc1af9b	0.0059108264
70	0xbdf9d8b7	-0.12199538
71	0x80001bab	-9.925e-42
72	0x321a47d8	8.980315e-09
73	0x3e55b274	0.20868856
74	0xbb1ef766	-0.0024256348
75	0x3ef41eb7	0.47679684
76	0x3842c83e	4.6439694e-05
77	0xbe1db154	-0.15399677
78	0x3e7e939b	0.24860995
79	0x3b4a70b9	0.0030889942
80	0x3e896348	0.26833558
81	0x00001b92	9.89e-42
82	0x371964b9	9.142962e-06
83	0x3e2e560f	0.17025016
84	0x3b3c2747	0.0028709935
85	0xbeb5442c	-0.35403574
86	0xbc78f02c	-0.01519398
87	0x3db20b08	0.0869351
88	0xbe0426dc	-0.12905449
89	0x386943aa	5.5614546e-05
90	0xbb28e3f9	-0.0025770648
91	0x00001fc9	1.1402e-41
92	0xaafed9f0	-4.5270688e-13
93	0xb8853943	-6.3526e-05
94	0x179fc79a	1.0325521e-24
95	0xb2dead93	-2.5923134e-08
96	0x9b7cb307	-2.0902798e-22
97	0xba033339	-0.0005004886
98	0xaf316f89	-1.6137681e-10
99	0x80001f5e	-1.1252e-41

embed_model.convs.2.nn.0.bias f4 [10]
0	0x8058512b	-8.110641e-39
1	0xabdde8ad	-1.5767575e-12
2	0xa5a64d98	-2.884899e-16
3	0x3d0cccac	0.034374878
4	0xb3c44a3e	-9.140466e-08
5	0xbc633457	-0.013867459
6	0x3cd99165	0.026558587
7	0xbe6665c5	-0.2249976
8	0xbeb8ddb3	-0.36106643
9	0xb8df32b1	-0.00010642911

embed_model.convs.2.nn.2.weight f4 [10, 10]
0	0xb36591c2	-5.3450783e-08
1	0x80001b73	-9.847e-42
2	0x00002300	1.2556e-41
3	0x80001b79	-9.855e-42
4	0xb00a1f7d	-5.0248855e-10
5	0x00001b6c	9.837e-42
6	0x00001b61	9.822e-42
7	0x00001b77	9.853e-42
8	0x80001b79	-9.855e-42
9	0x26869334	9.338017e-16
10	0x00001d23	1.0452e-41
11	0x00001b67	9.83e-42
12	0x800021cc	-1.2124e-41
13	0xb640ad1b	-2.871099e-06
14	0x80001ecf	-1.1052e-41
15	0x00001bf2	1.0025e-41
16	0x2ac20ec5	3.447157e-13
17	0xaf2b7555	-1.5594044e-10
18	0x2f3f8e2c	1.7421858e-10
19	0xa64d5a9d	-7.1246466e-16
20	0xaa182aef	-1.3515208e-13
21	0x80001b72	-9.846e-42
22	0x00001bbb	9.948e-42
23	0xb6d3e91a	-6.3154266e-06
24	0xae15fd74	-3.410379e-11
25	0xa87d05c5	-1.4045572e-14
26	0xb61d94c6	-2.348142e-06
27	0x3417ff55	1.415586e-07
28	0xb68f4d7b	-4.270752e-06
29	0x00001b5f	9.819e-42
30	0xa35f99d2	-1.2121427e-17
31	0x00001b7d	9.861e-42
32	0x80001b5a	-9.812e-42
33	0x19212ef7	8.332989e-24
34	0x80001f84	-1.1306e-41
35	0x00001b7e	9.862e-42
36	0x80001b97	-9.897e-42
37	0x00001b9c	9.904e-42
38	0x80001b98	-9.899e-42
39	0x00001f0b	1.1136e-41
40	0x23b33b8d	1.943244e-17
41	0x3566c008	8.596112e-07
42	0xb13db05b	-2.7603366e-09
43	0x3ea8bcff	0.32956693
44	0x3847617c	4.7536087e-05
45	0x3b22163e	0.0024732496
46	0x3d28bca7	0.041195538
47	0xbee86682	-0.45390707
48	0x3e22d18d	0.1590025
49	0xbc025d7d	-0.00795686
50	0x00001b61	9.822e-42
51	0x9978a617	-1.2854841e-23
52	0x161984e0	1.240117e-25
53	0xbec9d796	-0.39422292
54	0xb36f7203	-5.5750217e-08
55	0xbc483b3e	-0.012221156
56	0xbd977939	-0.07396168
57	0x3e7e4c74	0.24833852
58	0xbc0cf0e8	-0.008602358
59	0x38bb8465	8.941515e-05
60	0x80001fb8	-1.1379e-41
61	0x80001b8f	-9.886e-42
62	0x00001be1	1.0001e-41
63	0xbb7bd0b2	-0.0038423953
64	0x000da835	1.254203e-39
65	0xb393c3c4	-6.8808305e-08
66	0xb6cf01f4	-6.169308e-06
67	0xb9cf523a	-0.0003954338
68	0xb9dc9ceb	-0.00042078583
69	0x00001dcc	1.0689e-41
70	0x24330192	3.8815768e-17
71	0x00001b6c	9.837e-42
72	0xb538f6d0	-6.89045e-07
73	0x2c79695d	3.5443517e-12
74	0x0000227c	1.237e-41
75	0x00001b7e	9.862e-42
76	0x97a97b21	-1.0952451e-24
77	0x80001b8d	-9.883e-42
78	0x1d90b72c	3.8305878e-21
79	0x00001cbe	1.0311e-41
80	0x223b1bbd	2.535791e-18
81	0xb4afc696	-3.274078e-07
82	0xb25bf16d	-1.2802372e-08
83	0x3e177217	0.14789616
84	0x3917fde7	0.00014495068
85	0x3b730877	0.0037083903
86	0x3ddaa5ac	0.10676131
87	0xbe95a38e	-0.29226345
88	0x3ef56919	0.47931746
89	0xbbccd926	-0.006251472
90	0x15b6d16e	7.3839636e-26
91	0x35ead33f	1.7495839e-06
92	0x310521d5	1.9373279e-09
93	0xbd5f0299	-0.054445837
94	0xb435bc0d	-1.6925351e-07
95	0x3b3b064e	0.0028537693
96	0x3e12270d	0.14272709
97	0x3e9ce631	0.30644372
98	0xbe99b740	-0.3002262
99	0x3c2eb5eb	0.01066349

embed_model.convs.2.nn.2.bias f4 [10]
0	0x8aad5123	-1.6689814e-32
1	0xba84f4e1	-0.001014378
2	0xb6b9af61	-5.5338464e-06
3	0xa8addb29	-1.9301904e-14
4	0x3d78a63e	0.060705416
5	0x3db70386	0.08936219
6	0xbb6473d1	-0.003485907
7	0xb3812c3e	-6.015078e-08
8	0x3e324478	0.17408931
9	0x3e8676f0	0.26262617

embed_model.convs.3.nn.0.weight f4 [10, 10]
0	0x86290309	-3.1787597e-35
1	0x39e99f13	0.00044559743
2	0x354210b6	7.229495e-07
3	0x1e809b15	1.3616668e-20
4	0x3e8c55bb	0.27409157
5	0xbe999b8b	-0.30001482
6	0x3ad1f483	0.0016018305
7	0x2ff0e079	4.3815243e-10
8	0x3e9ab41f	0.30215546
9	0xbed82322	-0.42214304
10	0x00001ba7	9.92e-42
11	0x000125da	1.05414e-40
12	0x309be159	1.1341782e-09
13	0x80001c53	-1.0161e-41
14	0xb1133cb6	-2.1425826e-09
15	0x00001b5b	9.813e-42
16	0x80001f5a	-1.1247e-41
17	0x00001b79	9.855e-42
18	0xb44df6e0	-1.9181925e-07
19	0xaa25b592	-1.4717939e-13
20	0x00001b5a	9.812e-42
21	0xa8422d9c	-1.0779053e-14
22	0xb1dab123	-6.364773e-09
23	0x80001b5b	-9.813e-42
24	0x39afb113	0.00033510532
25	0x3c85fb2b	0.016355118
26	0x8fb82653	-1.8158563e-29
27	0x0000147a	7.346e-42
28	0xbdb3075e	-0.087416396
29	0xbdad752f	-0.084696166
30	0x80001b80	-9.865e-42
31	0x00002246	1.2295e-41
32	0x80014146	-1.15251e-40
33	0x80001c4d	-1.0152e-41
34	0xba83c912	-0.001005443
35	0x32d5efc7	2.4905502e-08
36	0x80001c84	-1.023e-41
37	0x3387637e	6.304525e-08
38	0xbb1c15ac	-0.0023816628
39	0xb95d73a4	-0.00021119282
40	0x00001b64	9.826e-42
41	0xb7b8aa6c	-2.2013868e-05
42	0x35c17d68	1.4416119e-06
43	0x80002061	-1.1615e-41
44	0x3e811c9e	0.25217146
45	0xbe9c36c4	-0.30510533
46	0x3aa5d77d	0.0012652721
47	0x25246021	1.4257302e-16
48	0x3e86d46c	0.2633394
49	0x3e025b64	0.12730175
50	0xa7bbfaaf	-5.217472e-15
51	0x25dc924d	3.8263054e-16
52	0x00001bdf	9.998e-42
53	0x32ad5a45	2.01809e-08
54	0x0006ba45	6.17834e-40
55	0x80001ba7	-9.92e-42
56	0xaad64d78	-3.806779e-13
57	0xb2b4f572	-2.1066374e-08
58	0x956d8ba4	-4.7971926e-26
59	0x03893e64	8.0664605e-37
60	0x80001b6e	-9.84e-42
61	0xb58b23dc	-1.0366743e-06
62	0x3480c0c9	2.3982128e-07
63	0x00001b74	9.848e-42
64	0xbe4b12a4	-0.1983133
65	0x3dbbbb5a	0.09166594
66	0x393c3ee4	0.00017952506
67	0x1fe90d09	9.87009e-20
68	0xbb853894	-0.0040655825
69	0xbd53e32d	-0.051730324
70	0x00001b5e	9.817e-42
71	0xa867d2c1	-1.2868776e-14
72	0x800095fc	-5.3804e-41
73	0x80001b62	-9.823e-42
74	0xb9ea6410	-0.0004470651
75	0x279bdcd8	4.326058e-15
76	0x80001baa	-9.924e-42
77	0x00001b9a	9.902e-42
78	0xbaa206a1	-0.0012361595
79	0xb8fa351b	-0.000119308206
80	0x30f07b34	1.7497315e-09
81	0x36897e0d	4.0975924e-06
82	0xaa13ecae	-1.3138338e-13
83	0x00001b71	9.844e-42
84	0x3b0ee9a1	0.0021806734
85	0xbb9f6e0e	-0.0048654145
86	0x00001b73	9.847e-42
87	0x80001b5e	-9.817e-42
88	0xbb50e77f	-0.0031876264
89	0xbcd14323	-0.025544709
90	0x26e9675f	1.6195642e-15
91	0x80001b85	-9.872e-42
92	0x00001c17	1.0077e-41
93	0xb44f50af	-1.930773e-07
94	0xbc05c6c9	-0.00816507
95	0x39de915f	0.0004245145
96	0x8001d2a3	-1.67398e-40
97	0xa632224d	-6.180264e-16
98	0xbc0b1d15	-0.00849082
99	0xbaff5ead	-0.0019483172

embed_model.convs.3.nn.0.bias f4 [10]
0	0xbea1de4f	-0.3161492
1	0xafd43c10	-3.8605252e-10
2	0x3dad57d8	0.084640205
3	0xba2b8526	-0.0006542973
4	0xbe28391f	-0.1642804
5	0x9370fc09	-3.0416522e-27
6	0x3ec36ffb	0.38171372
7	0xb9ced040	-0.0003944654
8	0xbca616b8	-0.020274505
9	0xbc25ee1e	-0.010127572

embed_model.convs.3.nn.2.weight f4 [10, 10]
0	0xbea5c0a5	-0.3237354
1	0x30338fdb	6.532425e-10
2	0xbca54eef	-0.02017924
3	0xb97d80a2	-0.0002417588
4	0x3e76e2ac	0.24109906
5	0x80001b5f	-9.819e-42
6	0x3d1879c4	0.0372255
7	0x352903e9	6.2963096e-07
8	0xbc45b6f5	-0.012067546
9	0xbc477418	-0.012173675
10	0x00001bca	9.969e-42
11	0x00001ba2	9.913e-42
12	0x8000222c	-1.2259e-41
13	0x00001b73	9.847e-42
14	0x00001b76	9.851e-42
15	0x80001b5e	-9.817e-42
16	0x80002226	-1.225e-41
17	0x00001b85	9.872e-42
18	0x00001c9d	1.0265e-41
19	0x2781f67d	3.6071936e-15
20	0x9dfd2736	-6.7009086e-21
21	0x80001e71	-1.092e-41
22	0x2a5ecee9	1.9789347e-13
23	0x00001bac	9.927e-42
24	0xb49fc4ba	-2.9759195e-07
25	0x24b15fd4	7.692385e-17
26	0x3801a1e7	3.090678e-05
27	0x00001e52	1.0877e-41
28	0x2d72944d	1.3789037e-11
29	0x8000202b	-1.154e-41
30	0xbe496aaa	-0.19669595
31	0x3210b561	8.423144e-09
32	0x3d68593b	0.05672572
33	0xb6e11e89	-6.7090773e-06
34	0xbe5727ec	-0.21011323
35	0x00001fd7	1.1422e-41
36	0x3e38ee16	0.18059573
37	0xb90036c2	-0.0001222743
38	0x3c544625	0.012956177
39	0xbc1e1da9	-0.009650626
40	0xb7b17474	-2.1154272e-05
41	0x00001baf	9.931e-42
42	0x00001b86	9.874e-42
43	0x00001b85	9.872e-42
44	0xbaa2b9d5	-0.0012415001
45	0x97245ae6	-5.310599e-25
46	0xb858b7c8	-5.1669573e-05
47	0x28be973f	2.115983e-14
48	0x00001bcf	9.976e-42
49	0x80001b5f	-9.819e-42
50	0x3b843da8	0.0040356703
51	0xb3c9b78a	-9.3931774e-08
52	0x3d1b662f	0.037939247
53	0x39db140b	0.00041785868
54	0xbe69245d	-0.22767778
55	0x00000136	4.34e-43
56	0x3e76c609	0.24098982
57	0xb904aac4	-0.00012652116
58	0xba63771c	-0.00086771115
59	0x3c122b76	0.008921495
60	0x3aced04a	0.0015778628
61	0x00001b61	9.822e-42
62	0xa61cc008	-5.4383623e-16
63	0x00001be6	1.0008e-41
64	0x3b4eedd0	0.0031574853
65	0x000022a5	1.2428e-41
66	0x38bce50c	9.007202e-05
67	0xb0dbe022	-1.599805e-09
68	0x80001bb5	-9.94e-42
69	0x2b7efcf7	9.0589987e-13
70	0xbe25c247	-0.16187392
71	0x80001b5a	-9.812e-42
72	0x3ad2f212	0.0016093871
73	0xb8f754b8	-0.00011793658
74	0xbe76ac67	-0.24089204
75	0x00001c03	1.0049e-41
76	0x3dcd9c25	0.10039548
77	0x307d756a	9.220772e-10
78	0xbc8861cf	-0.016648201
79	0xbbaeea77	-0.005338009
80	0x3efab2f9	0.4896467
81	0xa5623cba	-1.962295e-16
82	0xbbbd6299	-0.005779576
83	0xb96ab431	-0.00022383106
84	0x3e59442b	0.2121741
85	0x00001c07	1.0054e-41
86	0xbd9d7cc6	-0.07689814
87	0x3856d13e	5.1216448e-05
88	0x3bc1253f	0.0058943327
89	0x3974719f	0.0002331198
90	0x3ed3cb2d	0.41365948
91	0x13167010	1.8987913e-27
92	0x3c89ba3b	0.016812434
93	0xb893bd84	-7.044806e-05
94	0xbeda2248	-0.4260428
95	0x80001b7e	-9.862e-42
96	0x3e8811f4	0.26576197
97	0x36b91b26	5.51659e-06
98	0xbcc517f5	-0.024059275
99	0xbc40f334	-0.011776734

embed_model.convs.3.nn.2.bias f4 [10]
0	0x3e0541a8	0.13013327
1	0x80001b62	-9.823e-42
2	0x3a158f74	0.0005705275
3	0x3e17a7f4	0.14810163
4	0xbbf391f4	-0.0074331705
5	0x3eca4c13	0.39511165
6	0xbadc6b39	-0.0016816623
7	0xbe748d57	-0.23882042
8	0xbe2123fa	-0.1573638
9	0x3ea1e768	0.3162186

embed_model.convs.4.nn.0.weight f4 [10, 10]
0	0xb71d2b74	-9.368046e-06
1	0x80001b6c	-9.837e-42
2	0x372db6e2	1.0354184e-05
3	0xb382e0bd	-6.0944764e-08
4	0x00001c2b	1.0105e-41
5	0xb63d0dde	-2.8171266e-06
6	0x00001b8f	9.886e-42
7	0x00001b8a	9.879e-42
8	0x23ed2b76	2.5713998e-17
9	0xa810597d	-8.0130105e-15
10	0x3e0bd65a	0.13655987
11	0x80001b5e	-9.817e-42
12	0xbb96e9f6	-0.004605527
13	0x3e53f897	0.20700298
14	0xbb58eead	-0.0033101246
15	0xbedfffe4	-0.43749917
16	0x3ca0d698	0.019633576
17	0xbed035aa	-0.40665942
18	0xbee0b437	-0.43887493
19	0xbea6d06f	-0.32580897
20	0x3ebf1834	0.37323153
21	0x80001b70	-9.843e-42
22	0x3a28d4ef	0.0006440421
23	0x3d0c2383	0.034213554
24	0xbc456f08	-0.012050398
25	0xbea81a6b	-0.32832655
26	0xbc6bde75	-0.0143963
27	0x3e4ecc82	0.20195201
28	0x3ceecf1f	0.029151497
29	0x3e17fb27	0.14841901
30	0x9f7b8eb9	-5.3269375e-20
31	0x00001be4	1.0005e-41
32	0x00002176	1.2004e-41
33	0x9604294c	-1.0675906e-25
34	0x80002099	-1.1694e-41
35	0xa46f265d	-5.185736e-17
36	0x80001bb9	-9.945e-42
37	0x00001b68	9.832e-42
38	0x80001b8a	-9.879e-42
39	0x00001b5d	9.816e-42
40	0x3e69f334	0.22846681
41	0x00001bd3	9.981e-42
42	0xb7d0f174	-2.4907968e-05
43	0x3d425d16	0.047452055
44	0xbc2f7460	-0.010708898
45	0xbeb2cb45	-0.34920707
46	0x3c1675d6	0.009183368
47	0x3c1c2d1f	0.009532242
48	0xbdde2bae	-0.10848175
49	0x3b414515	0.002949064
50	0x3d28e0c2	0.04122997
51	0x80001b76	-9.851e-42
52	0x214fefed	7.0451867e-19
53	0xbdf481c5	-0.11938814
54	0x38b7fb4c	8.772928e-05
55	0x3e0e6444	0.13905436
56	0xbab77476	-0.00139965
57	0x3c4209b7	0.0118431365
58	0x3e0628eb	0.13101546
59	0xbd6f04bc	-0.058354124
60	0x3de66348	0.11249405
61	0x00001b5e	9.817e-42
62	0xb995f0fa	-0.00028599036
63	0x3e746b7d	0.23869129
64	0xbc458713	-0.01205613
65	0xbea86235	-0.32887426
66	0xbbf1a943	-0.007374914
67	0x3d791434	0.060810283
68	0x3cbfd4bd	0.023416871
69	0x3d9f4e2e	0.077785835
70	0xb7aba84e	-2.0463161e-05
71	0x80001b8d	-9.883e-42
72	0xa7afa6ab	-4.875296e-15
73	0xb71a4bc0	-9.196752e-06
74	0xb89186d7	-6.939255e-05
75	0xb916c5fa	-0.00014378867
76	0x80001b5c	-9.815e-42
77	0x263439c7	6.252835e-16
78	0xaf0a727a	-1.2591697e-10
79	0x342345e4	1.5205984e-07
80	0x3d5cffd1	0.053954903
81	0x80001c7b	-1.0217e-41
82	0xb91abdcf	-0.00014757294
83	0xbeb6be6e	-0.3569216
84	0xbba2e084	-0.004970612
85	0xbe2ffa10	-0.17185235
86	0xbd093a8e	-0.033503108
87	0xbe9c6536	-0.30545968
88	0x3e4c1b19	0.19932212
89	0xbd81a3b8	-0.06330055
90	0xbe77e240	-0.24207401
91	0x800020ff	-1.1837e-41
92	0x39842ef1	0.00025211976
93	0x3deaf1e0	0.11471915
94	0x3a5ba6a4	0.00083790184
95	0x3e4105d4	0.1884988
96	0x39e290ee	0.0004321406
97	0x3ec7e9b0	0.39045477
98	0x3defa04e	0.117004976
99	0x3e7fee0d	0.24993153

embed_model.convs.4.nn.0.bias f4 [10]
0	0xb0e851da	-1.6903485e-09
1	0x3e2f0605	0.1709214
2	0xbd2ca5f0	-0.042150438
3	0x800015ad	-7.776e-42
4	0xbe9f98b5	-0.31171194
5	0xbd9d5733	-0.076826476
6	0x3e8cbbce	0.27487034
7	0xb52aa1e8	-6.356554e-07
8	0x3ebbcacc	0.3667816
9	0xbe78ae00	-0.24285126

embed_model.convs.4.nn.2.weight f4 [10, 10]
0	0x8000208d	-1.1677e-41
1	0x00001baf	9.931e-42
2	0xb92e75dc	-0.00016637839
3	0x24bd1e09	8.2016566e-17
4	0x80001ba9	-9.923e-42
5	0xb4035bfe	-1.2233792e-07
6	0xba4f8049	-0.00079155393
7	0x31cab2fe	5.899323e-09
8	0x94f7237f	-2.4954627e-26
9	0x3a3ea6cc	0.00072727795
10	0x00001b62	9.823e-42
11	0x00001b6c	9.837e-42
12	0x9d95239f	-3.9476803e-21
13	0x80001b5e	-9.817e-42
14	0x00001b6e	9.84e-42
15	0x80001b65	-9.827e-42
16	0x8a9d5a7b	-1.5152585e-32
17	0x3120e89e	2.3415292e-09
18	0x80001b58	-9.809e-42
19	0x836222e3	-6.645548e-37
20	0x800044c1	-2.4664e-41
21	0x1bc6a19b	3.2860787e-22
22	0xb900f656	-0.00012298799
23	0x80001c34	-1.0117e-41
24	0x80001b78	-9.854e-42
25	0xae1a7a52	-3.512419e-11
26	0xb78ac785	-1.654379e-05
27	0x00001b78	9.854e-42
28	0xa7c23f4b	-5.391444e-15
29	0xb8e15c7a	-0.00010746061
30	0xae3df5c1	-4.3191898e-11
31	0x3e878fbb	0.26476845
32	0xbe4fbd7c	-0.20287126
33	0x924eb52f	-6.5225465e-28
34	0x3d228c5b	0.039684635
35	0xbe2fe3e9	-0.17176785
36	0xbd029d3a	-0.031888224
37	0x363bef97	2.800463e-06
38	0x3e2e5db1	0.17027928
39	0xbe2dad5a	-0.1696066
40	0x00011dcc	1.02525e-40
41	0x90474ed0	-3.9306545e-29
42	0xb4ee1899	-4.4348852e-07
43	0x8000970e	-5.4188e-41
44	0x0000022c	7.79e-43
45	0xa4e6acb1	-1.0003915e-16
46	0x2cd61285	6.084302e-12
47	0x25c22aa6	3.3682535e-16
48	0x2ac05eae	3.4171749e-13
49	0xb595a829	-1.1150306e-06
50	0x00001b69	9.833e-42
51	0x00002223	1.2246e-41
52	0x989117d3	-3.7505678e-24
53	0xa4b53708	-7.8589464e-17
54	0x80001bac	-9.927e-42
55	0x80001b73	-9.847e-42
56	0x8993fd5e	-3.5627228e-33
57	0x351d286d	5.8545885e-07
58	0x00001b6e	9.84e-42
59	0x10144f2d	2.9248848e-29
60	0x80001b70	-9.843e-42
61	0x3d623a4e	0.055231385
62	0x3d491d4b	0.0491002
63	0x80001b99	-9.9e-42
64	0x3d1152e8	0.035479456
65	0xbc099a81	-0.008398653
66	0x3cf5b9eb	0.02999588
67	0xa4649cc9	-4.957242e-17
68	0xbd843ac6	-0.06456523
69	0x3d5d04c5	0.053959627
70	0xac983fa2	-4.3271645e-12
71	0x3e53490f	0.20633338
72	0x3e5ad1b6	0.21369061
73	0x8d786b24	-7.6549866e-31
74	0x3e38bacc	0.18040007
75	0xbc8e5a77	-0.017377121
76	0x3df9f4d7	0.122049026
77	0xb42e46ae	-1.6230726e-07
78	0xbe41acdc	-0.18913597
79	0x3dd931f5	0.10605232
80	0xb68b2d9e	-4.1478334e-06
81	0x3f0c794d	0.5487259
82	0x3e517b2a	0.2045714
83	0xaaf2d25b	-4.31338e-13
84	0x3eebf6c7	0.46086714
85	0xbdb4fce7	-0.088373
86	0x3e6b5c96	0.22984537
87	0xb8e2da6c	-0.00010817204
88	0xbedfd13b	-0.43714318
89	0x3e210753	0.1572545
90	0xa9e92d91	-1.0355183e-13
91	0x80001b76	-9.851e-42
92	0xb09d0ffc	-1.1427796e-09
93	0x00001b58	9.809e-42
94	0x00001b82	9.868e-42
95	0x00001b6f	9.841e-42
96	0xa8262085	-9.221903e-15
97	0x80001b60	-9.82e-42
98	0x9a7bdbfe	-5.2083292e-23
99	0xb084512d	-9.627336e-10

embed_model.convs.4.nn.2.bias f4 [10]
0	0xbaf7ddd1	-0.0018910711
1	0xaadb4b93	-3.8954655e-13
2	0xbba17cc4	-0.0049282033
3	0x3e25bc0f	0.1618502
4	0xb905183d	-0.00012692898
5	0xad78e546	-1.4148077e-11
6	0x3cf72f16	0.03017382
7	0x3e14d2ac	0.1453349
8	0x3d5b4004	0.053527847
9	0xb53fb2ce	-7.141324e-07

embed_model.post.0.weight f4 [10, 60]
0	0xbd033376	-0.0320315
1	0x3d19572c	0.03743665
2	0xbbea260b	-0.0071456484
3	0x3cfdeaa8	0.030995682
4	0xb748efa9	-1.1976729e-05
5	0x3daadf8f	0.08343422
6	0xbaad987b	-0.0013244295
7	0xbd5cc203	-0.05389596
8	0x3b87fd0c	0.0041500386
9	0xbd1cb982	-0.03826285
10	0x8591d653	-1.3714465e-35
11	0x3da8ae38	0.082363546
12	0xb4192efd	-1.426633e-07
13	0x80001b66	-9.829e-42
14	0xa13b5943	-6.34762e-19
15	0xbd416d09	-0.047223125
16	0x3c466e1b	0.012111212
17	0xbd443308	-0.04790023
18	0xb98c45a9	-0.00026754782
19	0x323c6090	1.0964996e-08
20	0x3ba46c0c	0.005017763
21	0x00001d66	1.0546e-41
22	0x37eaadf6	2.797598e-05
23	0xbe1a12a4	-0.15046173
24	0xbc46d7ff	-0.012136458
25	0x3dffc20c	0.124881834
26	0xbb93f94e	-0.0045158034
27	0x3de57349	0.112036295
28	0xbd34e8d6	-0.044167362
29	0xbd0f7d81	-0.0350318
30	0x00001b99	9.9e-42
31	0x366f362f	3.5645314e-06
32	0x33849965	6.174631e-08
33	0x00001b8d	9.883e-42
34	0xbe0fb338	-0.1403321
35	0xbe37b4f9	-0.1794013
36	0x3acf26bf	0.0015804394
37	0xa52f95d6	-1.5229597e-16
38	0xbd856521	-0.065134294
39	0x3c450e61	0.012027354
40	0x3d00ea22	0.031473286
41	0x00001b71	9.844e-42
42	0x3a55967b	0.00081477285
43	0x3d27ee53	0.040998768
44	0xbc1aaed6	-0.009441098
45	0xbe2adc26	-0.16685542
46	0xbb05d636	-0.002042187
47	0xbe4cd43e	-0.20002839
48	0x3db80b8d	0.08986578
49	0x3e681e5b	0.2266783
50	0x39b90386	0.00035288575
51	0xb08e3412	-1.0346659e-09
52	0x3a826fe3	0.0009951558
53	0xbe6d0fb0	-0.23150516
54	0xb8a45cef	-7.8374396e-05
55	0xb43f5930	-1.7820707e-07
56	0x3d150ad1	0.03638727
57	0x3e55dcdf	0.20885037
58	0x3f0efceb	0.5585467
59	0xb94d4370	-0.00019575446
60	0x3c1c0268	0.009522058
61	0x3c56c0e3	0.013107511
62	0xb093fc0a	-1.0767292e-09
63	0xbc5705a6	-0.013123905
64	0x800833ce	-7.53268e-40
65	0xbc9fd8ba	-0.019512523
66	0x000057b2	3.1459e-41
67	0x34949be8	2.7680585e-07
68	0xba9f643d	-0.0012160611
69	0xbc170838	-0.009218268
70	0x80001b88	-9.876e-42
71	0x80001d44	-1.0499e-41
72	0x37787e7c	1.4811401e-05
73	0x353ccf3c	7.0337023e-07
74	0x2cf5db25	6.9876487e-12
75	0x80001fbb	-1.1383e-41
76	0xbca34d91	-0.019934447
77	0xbcc7216b	-0.024307927
78	0x00001c13	1.0071e-41
79	0x80001b97	-9.897e-42
80	0xbbef03bc	-0.0072941463
81	0x80001e6b	-1.0912e-41
82	0xa304a036	-7.18966e-18
83	0xbc12e730	-0.008966252
84	0x00001c81	1.0225e-41
85	0xbc734152	-0.014847117
86	0xab1083fb	-5.1342237e-13
87	0xbb27df3d	-0.0025615238
88	0xbbc0b207	-0.0058805975
89	0xad3ed406	-1.0847328e-11
90	0x80001bdf	-9.998e-42
91	0x177275f1	7.834328e-25
92	0x80001ee7	-1.1086e-41
93	0x00001bbd	9.95e-42
94	0xb9ba8b10	-0.00035580294
95	0xbb53d108	-0.0032320637
96	0x80001e48	-1.0863e-41
97	0x80001c4c	-1.0151e-41
98	0xbb0c0832	-0.002136719
99	0xbc697cda	-0.014250958
100	0xbc6a15da	-0.014287436
101	0x80001c5e	-1.0176e-41
102	0x00001e24	1.0812e-41
103	0xbc6a6ccd	-0.014308167
104	0x80001b74	-9.848e-42
105	0xbca75cfe	-0.020430084
106	0xa59eddc2	-2.75589e-16
107	0x39332727	0.00017085356
108	0x38c345aa	9.3113005e-05
109	0xbc586a62	-0.013208957
110	0x2a2e285f	1.5468311e-13
111	0x00001e2c	1.0824e-41
112	0xb7b8f205	-2.2047208e-05
113	0xbaedd75a	-0.0018145845
114	0xb0cbb11d	-1.4820533e-09
115	0x80001c1d	-1.0085e-41
116	0xb96dba54	-0.00022671494
117	0xbbfbe085	-0.007686677
118	0xbb902702	-0.0043991813
119	0x00001bea	1.0014e-41
120	0x3c75cfb0	0.01500313
121	0x3c83a14f	0.016068129
122	0xb8ad4923	-8.2629056e-05
123	0xbc83ceb4	-0.016089775
124	0xb3cc9478	-9.5264966e-08
125	0xbc917416	-0.01775555
126	0xb8c56fb0	-9.4144954e-05
127	0xbb363d04	-0.0027807364
128	0xbc0b116b	-0.0084880395
129	0xbc6f59b8	-0.014608793
130	0x8000205f	-1.1613e-41
131	0x00001b8f	9.886e-42
132	0xa5170af4	-1.3100873e-16
133	0x306aee78	8.546759e-10
134	0x317e6dca	3.7024273e-09
135	0x800022f8	-1.2544e-41
136	0xbc8c7485	-0.017145405
137	0xbcd47e7c	-0.025939219
138	0x80001b70	-9.843e-42
139	0x80001deb	-1.0733e-41
140	0xbcc586da	-0.024112154
141	0x80001b8a	-9.879e-42
142	0x000020ed	1.1812e-41
143	0xbc18ac92	-0.009318488
144	0x80001ff2	-1.146e-41
145	0xbc079d1b	-0.008277203
146	0x00001f2e	1.1185e-41
147	0xbcff2e09	-0.031149881
148	0xbba4a631	-0.0050246944
149	0x3b681199	0.003541088
150	0x00001b5d	9.816e-42
151	0x00001beb	1.0015e-41
152	0xb87c8443	-6.020466e-05
153	0x2c107b41	2.053205e-12
154	0xbd1fed96	-0.03904494
155	0x3d25355c	0.04033409
156	0xa97eb0a0	-5.6552527e-14
157	0x80001d8b	-1.0598e-41
158	0xbd2030e5	-0.03910913
159	0x3cea42da	0.02859633
160	0xbd0a1fa6	-0.03372159
161	0x80001b7f	-9.864e-42
162	0x80001b85	-9.872e-42
163	0x3cdac33d	0.026704425
164	0x80001cf9	-1.0393e-41
165	0x3b1e1baf	0.0024125387
166	0x00001c12	1.007e-41
167	0xbcb99c36	-0.022657495
168	0xbc5b351d	-0.013379362
169	0x3caf2a8b	0.02138259
170	0x8000ac60	-6.1836e-41
171	0x80001bc9	-9.967e-42
172	0x0000230c	1.2572e-41
173	0xbca02dba	-0.019553054
174	0x80001b75	-9.85e-42
175	0x26c7c8ca	1.3862823e-15
176	0xbaf91418	-0.0019003181
177	0xbcde3d7e	-0.027128931
178	0xbcc2b14d	-0.023766184
179	0x30d86a06	1.5746202e-09
180	0xba3dea28	-0.000724467
181	0xba45f559	-0.0007551513
182	0xbaf61405	-0.0018774277
183	0x3a4a2ed8	0.0007712669
184	0xbb36f7cc	-0.0027918695
185	0x3a4f091f	0.00078977825
186	0xbca9145f	-0.020639597
187	0x39956c34	0.00028500112
188	0x3a4a2463	0.00077111105
189	0x3a3d84df	0.0007229577
190	0x00001b65	9.827e-42
191	0x00001c66	1.0187e-41
192	0x80001b65	-9.827e-42
193	0x00001c58	1.0168e-41
194	0xa8daa97d	-2.4276366e-14
195	0x80001b76	-9.851e-42
196	0x3b9ac220	0.0047228485
197	0x3b88cf5b	0.0041751093
198	0x00001c96	1.0255e-41
199	0x3247c366	1.1627753e-08
200	0x3b27fe13	0.0025633618
201	0x000022d0	1.2488e-41
202	0x800021cd	-1.2125e-41
203	0x3b426b33	0.0029665946
204	0x80002092	-1.1684e-41
205	0x3a9fe354	0.0012198486
206	0x80001b79	-9.855e-42
207	0xbc472fca	-0.01215739
208	0x3a3ec21f	0.0007276851
209	0x3d1530f4	0.03642364
210	0xa59786dc	-2.628571e-16
211	0x00001b5d	9.816e-42
212	0xb1ecd1eb	-6.892369e-09
213	0x80001c3f	-1.0133e-41
214	0xbca65a96	-0.020306867
215	0x3d283e1e	0.041074865
216	0xb7ce5a5f	-2.4599196e-05
217	0x288e75dd	1.5816282e-14
218	0xbcc7eb47	-0.024404181
219	0x3cd78d03	0.026312357
220	0xbb301c06	-0.0026872172
221	0x80001b5b	-9.813e-42
222	0x000020e2	1.1796e-41
223	0x3c1c626d	0.009544951
224	0x00001b62	9.823e-42
225	0x3c08acc5	0.008341973
226	0x80002017	-1.1512e-41
227	0xbd993770	-0.07481277
228	0xbc51fc73	-0.012816536
229	0x3c943666	0.018092345
230	0x31d14847	6.0909175e-09
231	0x00001c1c	1.0084e-41
232	0x80001b73	-9.847e-42
233	0xbc162855	-0.009164889
234	0xaaa0b889	-2.8549756e-13
235	0x80001b7f	-9.864e-42
236	0x3b91d24c	0.004450118
237	0xbb85446b	-0.004066994
238	0x3b0dccb0	0.0021636896
239	0x80001bb7	-9.942e-42
240	0x3ac867bf	0.0015289708
241	0x3b3688e8	0.0027852599
242	0xacadc381	-4.938661e-12
243	0xbb334f46	-0.0027360483
244	0x00001b75	9.85e-42
245	0xbbcfb837	-0.006339099
246	0x80001e19	-1.0797e-41
247	0x29c64663	8.8051765e-14
248	0xb7fa8635	-2.9864817e-05
249	0xba997fc8	-0.0011711055
250	0xb402cc94	-1.2181619e-07
251	0xabdefe71	-1.584467e-12
252	0xb4805d22	-2.390962e-07
253	0x80001b70	-9.843e-42
254	0x00001b65	9.827e-42
255	0x80001b58	-9.809e-42

embed_model.post.0.bias f4 [10]
0	0xbc3214da	-0.010869229
1	0x80005cab	-3.3243e-41
2	0x38b8273a	8.78111e-05
3	0xb7be3d21	-2.267823e-05
4	0x3191b3d6	4.2405004e-09
5	0x3b04ede3	0.0020283393
6	0x80001b90	-9.888e-42
7	0x80001b74	-9.848e-42
8	0x80001bcd	-9.973e-42
9	0x80002197	-1.205e-41

embed_model.post.2.weight f4 [10, 10]
0	0xbda5d289	-0.08096797
1	0xbc91bb5b	-0.017789533
2	0xbc8f67f8	-0.01750563
3	0xbc0e26a5	-0.008676206
4	0xbb8774d1	-0.0041337986
5	0x3c3163ec	0.010827046
6	0x2f6eae93	2.1707995e-10
7	0x80001b88	-9.876e-42
8	0x8642bff1	-3.662836e-35
9	0xb4026cd3	-1.2146783e-07
10	0xbc56ce60	-0.013110727
11	0xbcb4afc7	-0.022056473
12	0xbc8f514f	-0.017494826
13	0xbbbeea39	-0.0058262614
14	0xbbe7daa8	-0.0070756264
15	0x3abee871	0.0014565123
16	0x2f855a31	2.4256644e-10
17	0x80001b8e	-9.885e-42
18	0x873c9cc3	-1.4189616e-34
19	0xb5d8fe8a	-1.6167335e-06
20	0xbc64191d	-0.013922003
21	0xbcaff9bc	-0.021481387
22	0xbc8f503a	-0.01749431
23	0xbbc9572b	-0.0061444244
24	0xbbd2a660	-0.006428525
25	0x3b057f29	0.0020369983
26	0x2f7e00a3	2.3101392e-10
27	0x80001b7f	-9.864e-42
28	0x874cd9a8	-1.5411218e-34
29	0xb58868d8	-1.0163303e-06
30	0xbc46346b	-0.012097458
31	0x3cf169ca	0.02946939
32	0xbc8f99a8	-0.017529324
33	0xbbb6f05c	-0.0055828523
34	0xbbbbddde	-0.0057332357
35	0x3d3cbce1	0.046078566
36	0x2f78158b	2.2563122e-10
37	0x80001b81	-9.867e-42
38	0x87396c23	-1.3949632e-34
39	0xb56687a1	-8.5879043e-07
40	0xbc56a22e	-0.01310019
41	0xbcb581a0	-0.022156537
42	0xbc8f514f	-0.017494826
43	0xbbbda4e4	-0.0057874788
44	0xbbe7eb8c	-0.00707764
45	0x3ab9bb56	0.001417021
46	0x2f855a31	2.4256644e-10
47	0x80001b5e	-9.817e-42
48	0x873c9cc3	-1.4189616e-34
49	0xb5c84f06	-1.492416e-06
50	0xbc574e1b	-0.01314118
51	0xbcb4afc7	-0.022056473
52	0xbc8f503a	-0.01749431
53	0xbbb49311	-0.0055106957
54	0xbbd2a9f6	-0.0064289523
55	0x3af17078	0.0018420359
56	0x2f7e00a3	2.3101392e-10
57	0x80001b6a	-9.834e-42
58	0x872147b1	-1.2133362e-34
59	0xb588c221	-1.0189289e-06
60	0xbcebdb8e	-0.028791215
61	0xbc91bb5b	-0.017789533
62	0xbc8f78e2	-0.017513696
63	0xbbd8f9f8	-0.0066215955
64	0xbb9a5f3c	-0.00471106
65	0x3b4a3b52	0.0030858112
66	0x2f7284a4	2.2056895e-10
67	0x80001b65	-9.827e-42
68	0x87286199	-1.2667597e-34
69	0xb4daffc4	-4.0791758e-07
70	0xbcf5705a	-0.0299608
71	0xbc91bb5b	-0.017789533
72	0xbc8f78e2	-0.017513696
73	0xbbdf1eee	-0.006809107
74	0xbb9a2551	-0.0047041555
75	0x3a979bc9	0.0011566813
76	0x2f776add	2.2502485e-10
77	0x80001b66	-9.829e-42
78	0x87286199	-1.2667597e-34
79	0xb4cea43f	-3.8489995e-07
80	0xbd12068c	-0.035650775
81	0xbc91bb5b	-0.017789533
82	0xbc8f785b	-0.017513445
83	0xbbef318f	-0.007299609
84	0xbb922d33	-0.0044609546
85	0x3b6301f1	0.0034638608
86	0x2f7cf396	2.3005806e-10
87	0x80001b86	-9.874e-42
88	0x870dde20	-1.0672938e-34
89	0xb487dc68	-2.5306076e-07
90	0xbdb95913	-0.09050193
91	0xbc91bb5b	-0.017789533
92	0xbc8f67f7	-0.017505629
93	0xbc0e2c6a	-0.008677581
94	0xbb8776b8	-0.0041340254
95	0x3c4860c6	0.012230104
96	0x2f6eae93	2.1707995e-10
97	0x80001b9a	-9.902e-42
98	0x862e0814	-3.2731698e-35
99	0xb4026cd3	-1.2146783e-07

embed_model.post.2.bias f4 [10]
0	0x80001b7f	-9.864e-42
1	0x80001b72	-9.846e-42
2	0x80001b9a	-9.902e-42
3	0x00001b84	9.871e-42
4	0x00001bc1	9.956e-42
5	0x80001bc5	-9.962e-42
6	0x00001ba3	9.914e-42
7	0x00001b78	9.854e-42
8	0x00001bd7	9.987e-42
9	0x80001b74	-9.848e-42
