paper_artifacts/collection/gmn_iterative_refinement_scoring=sinkhorn_pp=lrl___tp=sinkhorn_pp=lrl_when=pre___unify=true_T=4_K=5/trained_models/gmn_iterative_refinement_scoring=sinkhorn_pp=lrl___tp=sinkhorn_pp=lrl_when=pre___unify=true_T=4_K=5_ptc_fm_large_dataset_seed_7474_2024-05-01_18:16:33.pth (torch, 16111 bytes, 22 tensors)

encoder.MLP1.0.weight f4 [10, 1]
0	0x3e58a7ba	0.21157733
1	0x3c9a8ae7	0.018865062
2	0x3b899547	0.0041987034
3	0xbd45d9ef	-0.04830354
4	0xbcf3e9da	-0.029774595
5	0xbdb0d59f	-0.08634495
6	0x3d84af79	0.06478781
7	0x3c8dcfd2	0.01731101
8	0xbcb817e0	-0.022472322
9	0x3dcf0ae9	0.10109503

encoder.MLP1.0.bias f4 [10]
0	0x3e5be658	0.21474588
1	0x3ca17636	0.019709688
2	0x3b89aa45	0.004201206
3	0xbd58b894	-0.052910402
4	0xbcf3e9df	-0.029774604
5	0xbdb0d5b8	-0.086345136
6	0x3d88c1b9	0.06677575
7	0x3c8ddb3c	0.017316453
8	0xbcb81bd2	-0.022474203
9	0x3dcf0087	0.101075225

prop_layer._message_net.0.weight f4 [20, 21]
0	0x3c965fd1	0.018356236
1	0xbb24c38c	-0.002514097
2	0xbc86a94d	-0.01643815
3	0x3c6b3dd7	0.0143580055
4	0x3c7d6d10	0.015467897
5	0xbccc8190	-0.024964124
6	0x3c7af61c	0.015317466
7	0x3d18f448	0.03734234
8	0xbce98153	-0.02850405
9	0x3c4f3037	0.012645773
10	0x3c6e5e09	0.014548787
11	0xbc5d33d4	-0.013501126
12	0x3c49dcc0	0.012320697
13	0x3d81379f	0.06309437
14	0x3c2ca1c9	0.010536619
15	0xbd05cf44	-0.032668367
16	0x3ccbcc62	0.02487773
17	0xbc6293fd	-0.0138292285
18	0xbacfef01	-0.0015864075
19	0x3bbb8908	0.0057231225
20	0xbc28a020	-0.010292083
21	0x3cf18f4d	0.029487276
22	0xbbb52955	-0.005528609
23	0x3c401058	0.011722647
24	0xbc452d3f	-0.012034713
25	0x3c904a9f	0.017613707
26	0xbc7bf2a7	-0.015377677
27	0xbc300013	-0.010742205
28	0xbcf8de1a	-0.030379344
29	0x3bfe1f3b	0.007755188
30	0xba2a6ee1	-0.00065015076
31	0xbc85a675	-0.016314724
32	0xbcfa3f14	-0.030547656
33	0xba795fa2	-0.00095128466
34	0xba339c56	-0.0006851604
35	0xbc215ac8	-0.009848304
36	0x3d143a19	0.03618822
37	0xbc8eb782	-0.017421488
38	0xbd0ec668	-0.034857184
39	0xbc2a8533	-0.010407734
40	0x3bc5c315	0.0060352185
41	0x3ab1cda8	0.0013565319
42	0x3e9333b5	0.28750387
43	0x3d8faca2	0.07015349
44	0x3e68ff5a	0.22753659
45	0xbb9c7012	-0.004774102
46	0xbe0fcb72	-0.14042452
47	0xbbe23299	-0.0069030044
48	0xbe564fba	-0.20928851
49	0x3d89678d	0.06709204
50	0x3e6b5856	0.22982916
51	0xbd1489e1	-0.036264304
52	0x3e278fec	0.16363496
53	0xbe9a3d50	-0.30124903
54	0x3dc9295c	0.09822342
55	0x3dd7976e	0.1052693
56	0x3e30f9d2	0.17282799
57	0x3e14772e	0.14498588
58	0xbdd4e719	-0.10395641
59	0x3d6e6354	0.058200195
60	0xbdd78f24	-0.10525349
61	0xbd95c4f3	-0.07312956
62	0x3d079b5a	0.03310714
63	0xbd05d435	-0.03267308
64	0x3c9c9cc6	0.019117724
65	0xba84b805	-0.0010125643
66	0xbc41e4c8	-0.011834331
67	0xbcc1148d	-0.02356937
68	0x3d4e0228	0.050295025
69	0xbbc8bbdb	-0.0061259097
70	0x3b7e4e9a	0.0038804174
71	0x3d46a20b	0.04849438
72	0xbbe3866c	-0.0069435146
73	0xbcbcd7e7	-0.023052169
74	0xbc25bdcd	-0.010116053
75	0xbca3471c	-0.019931369
76	0xbd15a743	-0.036536466
77	0xbd9aeff7	-0.07565301
78	0x3d4d450a	0.05011467
79	0xbcdfce50	-0.027320057
80	0x3b90a606	0.004414323
81	0x3cc2f77a	0.023799647
82	0xbbc3fddb	-0.0059811897
83	0x3d23afbd	0.03996252
84	0xbe5c1bd7	-0.21494995
85	0x3eb403f1	0.35159257
86	0x3eadd617	0.339524
87	0x3eb81339	0.35952166
88	0x3e5e069e	0.21682212
89	0xbea66004	-0.3249513
90	0x3e5f96f8	0.21834934
91	0xbe543ee7	-0.2072712
92	0x3eb8958c	0.36051595
93	0xbf0ebed0	-0.55759907
94	0x3ebd05fe	0.36918634
95	0xbddb19a1	-0.10698248
96	0xbb8c0aa3	-0.004273729
97	0x3bd8905c	0.006609006
98	0x3d90d414	0.07071701
99	0x3e45405b	0.19262831
100	0xbe53a70a	-0.20669189
101	0xbe6c8a6c	-0.23099679
102	0xbe3c4f83	-0.18389706
103	0x3d20aec4	0.03922917
104	0xbeb7335e	-0.35781378
105	0xbdd3bcc6	-0.1033874
106	0xbe895617	-0.26823494
107	0xbd94a0e2	-0.072572485
108	0x3e5a2a25	0.2130514
109	0x3e502f6c	0.2033059
110	0x3da75aa1	0.08171583
111	0x3ee23df5	0.44187894
112	0xbdfa40c2	-0.12219383
113	0x3e286703	0.16445546
114	0xbea9efeb	-0.33190855
115	0x3dbaba8e	0.09117614
116	0x3e162a8e	0.14664671
117	0x3e7169f2	0.23575571
118	0xbdfaeffe	-0.12252806
119	0x3d3d2a76	0.046183072
120	0x3e6fca2f	0.2341697
121	0x3ec027d3	0.37530383
122	0x3beed330	0.007288359
123	0x3e1f6e65	0.15569456
124	0xbdbf94c1	-0.093545444
125	0x3eb2633f	0.34841344
126	0xbd1141dc	-0.0354632
127	0x3cc66d06	0.024221908
128	0xba9632fa	-0.0011459284
129	0xbc1559ce	-0.009115649
130	0xbbc39132	-0.0059682364
131	0x3d3953f6	0.045246087
132	0xbc416fc8	-0.011806436
133	0x3b72665c	0.003698728
134	0x3d30f68e	0.043203883
135	0xbc2fb4fe	-0.010724304
136	0xbcbc1dce	-0.02296343
137	0xbc54a556	-0.012978872
138	0xbc96c080	-0.018402338
139	0xbd112264	-0.035433188
140	0xbd8e9fb5	-0.069640554
141	0x3d5d2393	0.053989004
142	0xbce37341	-0.027764918
143	0x3b02a7c2	0.0019936417
144	0x3ca79c5e	0.020460304
145	0xbb87f3ec	-0.004148951
146	0x3d24cc8b	0.04023413
147	0xbedae20d	-0.42750588
148	0x39849f7c	0.00025295827
149	0x3d9ae134	0.07562485
150	0xbd7bbbad	-0.06145828
151	0xbe8160aa	-0.2526906
152	0x3d374a53	0.044748615
153	0x3e88de60	0.2673216
154	0x3eaf1055	0.34192148
155	0x3f2b865b	0.67001885
156	0xbe5bd744	-0.21468836
157	0x3d0016b4	0.03127165
158	0xbd44aa9c	-0.04801427
159	0xbaf656b6	-0.0018794152
160	0xbd4e8d06	-0.05042746
161	0xbed2cf90	-0.41173983
162	0x3e770d0c	0.2412607
163	0x3d33db90	0.043910563
164	0x3e8c28ce	0.27374882
165	0x3c764264	0.015030477
166	0x3e2386aa	0.15969339
167	0xbcfa46b0	-0.030551285
168	0x3d4a95cc	0.049459264
169	0x3cc988c3	0.024601346
170	0x3e30cdeb	0.17266051
171	0x3c9c56ee	0.01908442
172	0x3ef88a44	0.48542988
173	0x3d8b7216	0.068088695
174	0xbd6da503	-0.058018696
175	0x3e33afda	0.17547551
176	0xbe9afd33	-0.302713
177	0xbd063918	-0.032769293
178	0x3db05dc6	0.08611636
179	0x3e813a3a	0.25239736
180	0x3ddf83bf	0.109138004
181	0xbb184604	-0.0023235092
182	0xbe45b48d	-0.19307156
183	0xbdb64ea4	-0.08901718
184	0x3d14e84e	0.036354356
185	0xbe402800	-0.18765259
186	0x3e08bae3	0.13352542
187	0x3e7e168d	0.2481329
188	0x3d2548e8	0.040352732
189	0xbef8afd7	-0.48571655
190	0x3ec09f9c	0.37621772
191	0xbedb4b14	-0.42830718
192	0x3d27d270	0.040972173
193	0xbe8383d5	-0.25686517
194	0x3e8b14d5	0.2716433
195	0xbdc01bcd	-0.093803026
196	0x3e954be6	0.29159468
197	0xbe966f47	-0.29381773
198	0x3e9481f0	0.29005384
199	0xbe84418d	-0.2583126
200	0xbdb62d3a	-0.08895345
201	0xbd514ddc	-0.051099643
202	0x3d2f6467	0.04282036
203	0x3e5851f2	0.2112501
204	0xbe1f35af	-0.15547822
205	0xbd19b00f	-0.03752142
206	0xbe899e46	-0.26878566
207	0x3e41068a	0.1885015
208	0xbe88606e	-0.2663607
209	0x3cdd3d6e	0.027006831
210	0xbcdbf3ed	-0.026849711
211	0x3ca58d32	0.020208929
212	0x3bf9e63b	0.0076263226
213	0xbc58cff8	-0.013233177
214	0xbd4c8b53	-0.049937557
215	0x3d7c6e24	0.061628476
216	0x3c88bcd6	0.016691606
217	0x3cd7bace	0.026334193
218	0x3d8cde41	0.06878329
219	0x3c0ff544	0.008786503
220	0xbcdafa93	-0.026730811
221	0xbb07b501	-0.0020707252
222	0xbcd06390	-0.0254381
223	0xbd1f0de5	-0.03883161
224	0xbdb7908b	-0.08963116
225	0x3d276659	0.04086909
226	0xbcbb56ce	-0.02286854
227	0x3cce7317	0.025201363
228	0x3d1fd7de	0.039024226
229	0xbb52d697	-0.0032171363
230	0x3d428e2d	0.04749887
231	0x3b0ef79d	0.002181507
232	0xbc749c97	-0.014929912
233	0xbc1f81bd	-0.009735522
234	0xbc0c1d0c	-0.008551847
235	0xbc160d58	-0.009158455
236	0xbc893848	-0.01675047
237	0x3c12d588	0.008962043
238	0x3cb0e25e	0.021592315
239	0xbd0cd8a7	-0.034386303
240	0x3c9ecccb	0.019384762
241	0x3ca6cade	0.020360406
242	0x3d09faaf	0.033686336
243	0xbb472e38	-0.0030392539
244	0x3d102474	0.035191014
245	0x3d1f4ff6	0.038894616
246	0xbd291e8b	-0.041288894
247	0x3d2145eb	0.03937332
248	0x3d0ef182	0.03489829
249	0xbc092594	-0.008370776
250	0x3b7f6312	0.0038968963
251	0xbc8465aa	-0.016161758
252	0x3da7edc4	0.08199647
253	0x3dc6eea2	0.09713484
254	0x3b9ed097	0.004846643
255	0xbe0d8d09	-0.13823332

prop_layer._message_net.0.bias f4 [20]
0	0xbc2bd4c8	-0.010487743
1	0x3ab1cba2	0.0013564716
2	0x3cb78a35	0.02240477
3	0x3d23af91	0.039962355
4	0xbed477b2	-0.4149757
5	0x3ed6dc7a	0.41965085
6	0x3d24cc71	0.040234033
7	0xbc33ee66	-0.010982132
8	0x3d499b6e	0.049220495
9	0x3d5698f1	0.05239195
10	0x3d428e31	0.047498886
11	0xbc846596	-0.016161721
12	0xbce623a9	-0.028093176
13	0xbd1a538e	-0.03767734
14	0x3d0a4c43	0.033764135
15	0xbe627166	-0.2211357
16	0x3c9d1a46	0.019177567
17	0xbb8ce913	-0.0043002455
18	0xbcf7a4c5	-0.030229935
19	0xbcf6e266	-0.030137252

prop_layer._reverse_message_net.0.weight f4 [20, 21]
0	0x3c965fd1	0.018356236
1	0xbb24c38c	-0.002514097
2	0xbc86a94d	-0.01643815
3	0x3c6b3dd7	0.0143580055
4	0x3c7d6d10	0.015467897
5	0xbccc8190	-0.024964124
6	0x3c7af61c	0.015317466
7	0x3d18f448	0.03734234
8	0xbce98153	-0.02850405
9	0x3c4f3037	0.012645773
10	0x3c6e5e09	0.014548787
11	0xbc5d33d4	-0.013501126
12	0x3c49dcc0	0.012320697
13	0x3d81379f	0.06309437
14	0x3c2ca1c9	0.010536619
15	0xbd05cf44	-0.032668367
16	0x3ccbcc62	0.02487773
17	0xbc6293fd	-0.0138292285
18	0xbacfef01	-0.0015864075
19	0x3bbb8908	0.0057231225
20	0xbc28a020	-0.010292083
21	0x3cf18f4d	0.029487276
22	0xbbb52955	-0.005528609
23	0x3c401058	0.011722647
24	0xbc452d3f	-0.012034713
25	0x3c904a9f	0.017613707
26	0xbc7bf2a7	-0.015377677
27	0xbc300013	-0.010742205
28	0xbcf8de1a	-0.030379344
29	0x3bfe1f3b	0.007755188
30	0xba2a6ee1	-0.00065015076
31	0xbc85a675	-0.016314724
32	0xbcfa3f14	-0.030547656
33	0xba795fa2	-0.00095128466
34	0xba339c56	-0.0006851604
35	0xbc215ac8	-0.009848304
36	0x3d143a19	0.03618822
37	0xbc8eb782	-0.017421488
38	0xbd0ec668	-0.034857184
39	0xbc2a8533	-0.010407734
40	0x3bc5c315	0.0060352185
41	0x3ab1cda8	0.0013565319
42	0x3e9333b5	0.28750387
43	0x3d8faca2	0.07015349
44	0x3e68ff5a	0.22753659
45	0xbb9c7012	-0.004774102
46	0xbe0fcb72	-0.14042452
47	0xbbe23299	-0.0069030044
48	0xbe564fba	-0.20928851
49	0x3d89678d	0.06709204
50	0x3e6b5856	0.22982916
51	0xbd1489e1	-0.036264304
52	0x3e278fec	0.16363496
53	0xbe9a3d50	-0.30124903
54	0x3dc9295c	0.09822342
55	0x3dd7976e	0.1052693
56	0x3e30f9d2	0.17282799
57	0x3e14772e	0.14498588
58	0xbdd4e719	-0.10395641
59	0x3d6e6354	0.058200195
60	0xbdd78f24	-0.10525349
61	0xbd95c4f3	-0.07312956
62	0x3d079b5a	0.03310714
63	0xbd05d435	-0.03267308
64	0x3c9c9cc6	0.019117724
65	0xba84b805	-0.0010125643
66	0xbc41e4c8	-0.011834331
67	0xbcc1148d	-0.02356937
68	0x3d4e0228	0.050295025
69	0xbbc8bbdb	-0.0061259097
70	0x3b7e4e9a	0.0038804174
71	0x3d46a20b	0.04849438
72	0xbbe3866c	-0.0069435146
73	0xbcbcd7e7	-0.023052169
74	0xbc25bdcd	-0.010116053
75	0xbca3471c	-0.019931369
76	0xbd15a743	-0.036536466
77	0xbd9aeff7	-0.07565301
78	0x3d4d450a	0.05011467
79	0xbcdfce50	-0.027320057
80	0x3b90a606	0.004414323
81	0x3cc2f77a	0.023799647
82	0xbbc3fddb	-0.0059811897
83	0x3d23afbd	0.03996252
84	0xbe5c1bd7	-0.21494995
85	0x3eb403f1	0.35159257
86	0x3eadd617	0.339524
87	0x3eb81339	0.35952166
88	0x3e5e069e	0.21682212
89	0xbea66004	-0.3249513
90	0x3e5f96f8	0.21834934
91	0xbe543ee7	-0.2072712
92	0x3eb8958c	0.36051595
93	0xbf0ebed0	-0.55759907
94	0x3ebd05fe	0.36918634
95	0xbddb19a1	-0.10698248
96	0xbb8c0aa3	-0.004273729
97	0x3bd8905c	0.006609006
98	0x3d90d414	0.07071701
99	0x3e45405b	0.19262831
100	0xbe53a70a	-0.20669189
101	0xbe6c8a6c	-0.23099679
102	0xbe3c4f83	-0.18389706
103	0x3d20aec4	0.03922917
104	0xbeb7335e	-0.35781378
105	0xbdd3bcc6	-0.1033874
106	0xbe895617	-0.26823494
107	0xbd94a0e2	-0.072572485
108	0x3e5a2a25	0.2130514
109	0x3e502f6c	0.2033059
110	0x3da75aa1	0.08171583
111	0x3ee23df5	0.44187894
112	0xbdfa40c2	-0.12219383
113	0x3e286703	0.16445546
114	0xbea9efeb	-0.33190855
115	0x3dbaba8e	0.09117614
116	0x3e162a8e	0.14664671
117	0x3e7169f2	0.23575571
118	0xbdfaeffe	-0.12252806
119	0x3d3d2a76	0.046183072
120	0x3e6fca2f	0.2341697
121	0x3ec027d3	0.37530383
122	0x3beed330	0.007288359
123	0x3e1f6e65	0.15569456
124	0xbdbf94c1	-0.093545444
125	0x3eb2633f	0.34841344
126	0xbd1141dc	-0.0354632
127	0x3cc66d06	0.024221908
128	0xba9632fa	-0.0011459284
129	0xbc1559ce	-0.009115649
130	0xbbc39132	-0.0059682364
131	0x3d3953f6	0.045246087
132	0xbc416fc8	-0.011806436
133	0x3b72665c	0.003698728
134	0x3d30f68e	0.043203883
135	0xbc2fb4fe	-0.010724304
136	0xbcbc1dce	-0.02296343
137	0xbc54a556	-0.012978872
138	0xbc96c080	-0.018402338
139	0xbd112264	-0.035433188
140	0xbd8e9fb5	-0.069640554
141	0x3d5d2393	0.053989004
142	0xbce37341	-0.027764918
143	0x3b02a7c2	0.0019936417
144	0x3ca79c5e	0.020460304
145	0xbb87f3ec	-0.004148951
146	0x3d24cc8b	0.04023413
147	0xbedae20d	-0.42750588
148	0x39849f7c	0.00025295827
149	0x3d9ae134	0.07562485
150	0xbd7bbbad	-0.06145828
151	0xbe8160aa	-0.2526906
152	0x3d374a53	0.044748615
153	0x3e88de60	0.2673216
154	0x3eaf1055	0.34192148
155	0x3f2b865b	0.67001885
156	0xbe5bd744	-0.21468836
157	0x3d0016b4	0.03127165
158	0xbd44aa9c	-0.04801427
159	0xbaf656b6	-0.0018794152
160	0xbd4e8d06	-0.05042746
161	0xbed2cf90	-0.41173983
162	0x3e770d0c	0.2412607
163	0x3d33db90	0.043910563
164	0x3e8c28ce	0.27374882
165	0x3c764264	0.015030477
166	0x3e2386aa	0.15969339
167	0xbcfa46b0	-0.030551285
168	0x3d4a95cc	0.049459264
169	0x3cc988c3	0.024601346
170	0x3e30cdeb	0.17266051
171	0x3c9c56ee	0.01908442
172	0x3ef88a44	0.48542988
173	0x3d8b7216	0.068088695
174	0xbd6da503	-0.058018696
175	0x3e33afda	0.17547551
176	0xbe9afd33	-0.302713
177	0xbd063918	-0.032769293
178	0x3db05dc6	0.08611636
179	0x3e813a3a	0.25239736
180	0x3ddf83bf	0.109138004
181	0xbb184604	-0.0023235092
182	0xbe45b48d	-0.19307156
183	0xbdb64ea4	-0.08901718
184	0x3d14e84e	0.036354356
185	0xbe402800	-0.18765259
186	0x3e08bae3	0.13352542
187	0x3e7e168d	0.2481329
188	0x3d2548e8	0.040352732
189	0xbef8afd7	-0.48571655
190	0x3ec09f9c	0.37621772
191	0xbedb4b14	-0.42830718
192	0x3d27d270	0.040972173
193	0xbe8383d5	-0.25686517
194	0x3e8b14d5	0.2716433
195	0xbdc01bcd	-0.093803026
196	0x3e954be6	0.29159468
197	0xbe966f47	-0.29381773
198	0x3e9481f0	0.29005384
199	0xbe84418d	-0.2583126
200	0xbdb62d3a	-0.08895345
201	0xbd514ddc	-0.051099643
202	0x3d2f6467	0.04282036
203	0x3e5851f2	0.2112501
204	0xbe1f35af	-0.15547822
205	0xbd19b00f	-0.03752142
206	0xbe899e46	-0.26878566
207	0x3e41068a	0.1885015
208	0xbe88606e	-0.2663607
209	0x3cdd3d6e	0.027006831
210	0xbcdbf3ed	-0.026849711
211	0x3ca58d32	0.020208929
212	0x3bf9e63b	0.0076263226
213	0xbc58cff8	-0.013233177
214	0xbd4c8b53	-0.049937557
215	0x3d7c6e24	0.061628476
216	0x3c88bcd6	0.016691606
217	0x3cd7bace	0.026334193
218	0x3d8cde41	0.06878329
219	0x3c0ff544	0.008786503
220	0xbcdafa93	-0.026730811
221	0xbb07b501	-0.0020707252
222	0xbcd06390	-0.0254381
223	0xbd1f0de5	-0.03883161
224	0xbdb7908b	-0.08963116
225	0x3d276659	0.04086909
226	0xbcbb56ce	-0.02286854
227	0x3cce7317	0.025201363
228	0x3d1fd7de	0.039024226
229	0xbb52d697	-0.0032171363
230	0x3d428e2d	0.04749887
231	0x3b0ef79d	0.002181507
232	0xbc749c97	-0.014929912
233	0xbc1f81bd	-0.009735522
234	0xbc0c1d0c	-0.008551847
235	0xbc160d58	-0.009158455
236	0xbc893848	-0.01675047
237	0x3c12d588	0.008962043
238	0x3cb0e25e	0.021592315
239	0xbd0cd8a7	-0.034386303
240	0x3c9ecccb	0.019384762
241	0x3ca6cade	0.020360406
242	0x3d09faaf	0.033686336
243	0xbb472e38	-0.0030392539
244	0x3d102474	0.035191014
245	0x3d1f4ff6	0.038894616
246	0xbd291e8b	-0.041288894
247	0x3d2145eb	0.03937332
248	0x3d0ef182	0.03489829
249	0xbc092594	-0.008370776
250	0x3b7f6312	0.0038968963
251	0xbc8465aa	-0.016161758
252	0x3da7edc4	0.08199647
253	0x3dc6eea2	0.09713484
254	0x3b9ed097	0.004846643
255	0xbe0d8d09	-0.13823332

prop_layer._reverse_message_net.0.bias f4 [20]
0	0xbc2bd4c8	-0.010487743
1	0x3ab1cba2	0.0013564716
2	0x3cb78a35	0.02240477
3	0x3d23af91	0.039962355
4	0xbed477b2	-0.4149757
5	0x3ed6dc7a	0.41965085
6	0x3d24cc71	0.040234033
7	0xbc33ee66	-0.010982132
8	0x3d499b6e	0.049220495
9	0x3d5698f1	0.05239195
10	0x3d428e31	0.047498886
11	0xbc846596	-0.016161721
12	0xbce623a9	-0.028093176
13	0xbd1a538e	-0.03767734
14	0x3d0a4c43	0.033764135
15	0xbe627166	-0.2211357
16	0x3c9d1a46	0.019177567
17	0xbb8ce913	-0.0043002455
18	0xbcf7a4c5	-0.030229935
19	0xbcf6e266	-0.030137252

prop_layer.GRU.weight_ih_l0 f4 [30, 20]
0	0xbc6ebf6b	-0.014572005
1	0xbb0e90d6	-0.002175381
2	0xbdc31a78	-0.09526533
3	0xbb7c6b19	-0.0038515984
4	0xbb558572	-0.003258076
5	0xbe41fab2	-0.18943289
6	0xba1a83e2	-0.0005894286
7	0xbdf9d32f	-0.12198483
8	0xbe37594e	-0.17905161
9	0x3daa677e	0.08320521
10	0xbc122f62	-0.00892243
11	0x3d05a2d9	0.032626007
12	0xbcc66445	-0.024217734
13	0xbb9af518	-0.0047289245
14	0xbb542f5e	-0.0032376866
15	0xbd9a0431	-0.07520331
16	0x3c29f903	0.01037431
17	0x3a6ec531	0.00091083633
18	0xbc1aa0f6	-0.00943779
19	0xbd9dc522	-0.07703616
20	0xbc1dd2cc	-0.009632777
21	0x39dfe566	0.0004270479
22	0xbd0e20fa	-0.034699418
23	0x3c6d3e4b	0.014480184
24	0xbd0fd6a3	-0.035116803
25	0xbd8659f1	-0.06560124
26	0x3bf78fc9	0.0075549823
27	0xbc86b866	-0.01644535
28	0x3d54183d	0.051780928
29	0xbe597ce2	-0.21239045
30	0x3c85ab86	0.01631714
31	0xbbf6129c	-0.0075095426
32	0x3cf66684	0.03007818
33	0xbd068211	-0.032838885
34	0x3cf4fb9c	0.029905133
35	0xbc5c81b8	-0.013458662
36	0x3c264eb6	0.010150602
37	0xbe5d0115	-0.21582444
38	0xbcaffcd3	-0.02148286
39	0xbd2581b0	-0.040406883
40	0xbc421a41	-0.01184708
41	0x3c35cf9c	0.011096861
42	0xbd2210a6	-0.03956666
43	0x3cf4de64	0.0298912
44	0x3dbfa263	0.09357145
45	0x3e6cb0df	0.23114346
46	0x3d019127	0.03163257
47	0xbd130ba5	-0.035899777
48	0x3d85bc53	0.065300606
49	0xbdcc995e	-0.0999019
50	0x3cf5ab5b	0.029988935
51	0xbcb4890d	-0.022038007
52	0xbd485ad8	-0.04891476
53	0xbd142f53	-0.036177944
54	0x3d0833bd	0.033252466
55	0xbe3107d5	-0.17288144
56	0x3c9e0daf	0.019293634
57	0x3c9929b7	0.018696649
58	0xbcd332be	-0.025781032
59	0x3d1d997d	0.038476456
60	0xbc36028f	-0.011109008
61	0xbbc236ac	-0.0059269276
62	0xbcb6972a	-0.022288878
63	0x3c46d94c	0.012136769
64	0xbc8fc11e	-0.01754814
65	0x3dff1fc8	0.12457234
66	0x3c94b038	0.018150434
67	0x3d326004	0.0435486
68	0xbbaf7f53	-0.0053557544
69	0xbd703333	-0.058642577
70	0x3c11926d	0.008885008
71	0xbb8f74a5	-0.004377919
72	0xbcbd6fb9	-0.023124563
73	0xbc4e7a3f	-0.012602388
74	0x3c268478	0.010163419
75	0x3b6e3d1d	0.0036352344
76	0x3c608377	0.013703219
77	0xbda53ce1	-0.08068252
78	0xbc40746c	-0.011746507
79	0xbc93d474	-0.018045641
80	0x3cb99ed6	0.022658747
81	0x3b326a72	0.002722409
82	0xbe21cadb	-0.1580004
83	0xbcf6aa48	-0.030110493
84	0xbe895afc	-0.26827228
85	0xbdc032c2	-0.09384681
86	0xbd0c380e	-0.034233145
87	0xbeb69f10	-0.3566823
88	0x3e2abf6e	0.16674587
89	0x3ea48e14	0.32139647
90	0xbd01a264	-0.03164901
91	0x3ca813b5	0.02051721
92	0x3e5c3279	0.21503629
93	0x3ccda9c6	0.025105368
94	0xbc9566d2	-0.018237505
95	0xbe9f7355	-0.3114268
96	0xbcf741b1	-0.030182691
97	0x3dea40bb	0.114381276
98	0x3ced247e	0.028948065
99	0x3e9b9feb	0.30395445
100	0x3b3338e5	0.0027347144
101	0x38ff6c72	0.00012179547
102	0xbb8808cb	-0.004151439
103	0xb9b8f60f	-0.00035278543
104	0xbc75d951	-0.015005426
105	0xbced19b9	-0.02894293
106	0xba242d08	-0.00062628137
107	0x3cac6d57	0.021048231
108	0x3d15feb6	0.036619864
109	0x3c34bafb	0.011030908
110	0xba4dfe1e	-0.0007857996
111	0xbb0069bc	-0.0019594273
112	0xb9ca0ad1	-0.000385365
113	0xbb92ced7	-0.0044802236
114	0x3ac03fd3	0.0014667459
115	0x3c514748	0.012773342
116	0xbb04c333	-0.002025795
117	0x3ce7f236	0.028313737
118	0xba4b588d	-0.00077570305
119	0x3c8dd646	0.017314088
120	0x3babf8a9	0.0052481485
121	0xbb06e0f2	-0.0020580855
122	0xbc2be2a2	-0.010491045
123	0xbcb1e804	-0.021717079
124	0x3d79dd97	0.06100234
125	0xbe2f025e	-0.17090747
126	0xbcc8e0e5	-0.0245213
127	0xbcf90550	-0.030398041
128	0x3bcf1d20	0.0063206106
129	0xbd240ef2	-0.040053315
130	0xbcb924b4	-0.02260051
131	0x3c905d15	0.01762251
132	0xbc8e8f1e	-0.017402228
133	0x3c1a8e70	0.009433374
134	0xbc274342	-0.010208907
135	0x3d9fd139	0.07803578
136	0xbc0af38e	-0.0084809195
137	0x3ca4c162	0.020111743
138	0x3bee1943	0.007266195
139	0x3c9e0b9a	0.019292641
140	0x3b8ab3b2	0.004232847
141	0xbaa0c858	-0.0012266738
142	0xbc7b076c	-0.015321594
143	0xbba6f694	-0.0050953124
144	0x3d6f6d6b	0.05845396
145	0xbe02540d	-0.12727375
146	0xbbcab2f1	-0.0061858823
147	0x3cb27987	0.021786464
148	0xbb9e05fc	-0.0048224907
149	0x3cdd3dee	0.02700707
150	0xbbd07e4d	-0.0063627125
151	0x3b88eb79	0.004178461
152	0xbb534259	-0.0032235591
153	0x3bc6c6f2	0.0060661966
154	0xbb25ba2b	-0.0025287967
155	0x3d15d47d	0.036579598
156	0xbbc31831	-0.0059538116
157	0x3bbaef90	0.0057048276
158	0x3b00ad4e	0.0019634548
159	0x3d140c4c	0.03614454
160	0xba935f2a	-0.0011243571
161	0xbb0291b5	-0.0019923274
162	0xbd4e1e32	-0.050321765
163	0x3bca0b31	0.006165885
164	0x3ce7c915	0.028294126
165	0x3cc77578	0.024348006
166	0x3bb4e0ce	0.005519963
167	0xbcd47e26	-0.025939059
168	0x3caa20ba	0.020767558
169	0xbcde0a0f	-0.027104406
170	0x3bfee4f4	0.007778758
171	0xb9c51469	-0.00037589975
172	0xbd3c2789	-0.04593614
173	0xbbb4ff18	-0.0055235736
174	0x3baa59ce	0.005198694
175	0xbc710232	-0.014709996
176	0x3b1388b7	0.0022511908
177	0x3c3fbe57	0.011703095
178	0xbbc126ac	-0.0058945026
179	0x3d2ef341	0.042712454
180	0x3b83a91d	0.0040179626
181	0xba5180ed	-0.0007991929
182	0xbc3691b7	-0.01114314
183	0xbc180111	-0.009277598
184	0xbd1fd7dd	-0.039024223
185	0x3e31866b	0.17336433
186	0xbc35d43b	-0.011097963
187	0xbcd4d593	-0.025980746
188	0x3d4feea6	0.050764702
189	0xbd947af7	-0.07250016
190	0xbbf244b9	-0.0073934463
191	0x3be76a5e	0.0070622405
192	0x3c8351ef	0.01603028
193	0x3ab76f76	0.001399501
194	0xbc0e731b	-0.0086944355
195	0xbdacd243	-0.08438542
196	0xbbceefbd	-0.0063152
197	0xbc433103	-0.011913541
198	0x3c0e2e6a	0.008678058
199	0x3c326a47	0.010889596
200	0xbcfa59aa	-0.030560333
201	0xbcc733d0	-0.024316698
202	0xbe7e886a	-0.24856725
203	0x3d9929a4	0.074786454
204	0x3e26de7d	0.1629581
205	0xbedaa3e0	-0.42703152
206	0x3d8c1ea8	0.06841785
207	0x3d9137b3	0.07090702
208	0x3db0ffe3	0.086425565
209	0xbe5a8d67	-0.21343003
210	0x3dd9a0a2	0.106263414
211	0xbca43e5a	-0.020049263
212	0xbe94881a	-0.29010087
213	0xbdc5486a	-0.096329525
214	0x3db43383	0.087988876
215	0x3e00cf27	0.12579022
216	0x3d55b627	0.052175667
217	0x3c177f34	0.009246636
218	0xbd9efee6	-0.07763462
219	0x3d61a1a8	0.055085808
220	0xbceacc48	-0.028661862
221	0xbcb64dcd	-0.022253895
222	0xbc551f49	-0.013007947
223	0x3c3d24df	0.011544435
224	0x3eaccbd5	0.33749261
225	0xbebc50fb	-0.36780533
226	0x3a996010	0.0011701602
227	0xbdd0c6f2	-0.10194196
228	0xbcd6e495	-0.026232043
229	0x3d3ced40	0.046124697
230	0x3ca5735a	0.020196605
231	0x3c74c0e0	0.014938563
232	0xb745ef93	-1.1797895e-05
233	0xbd5f5f88	-0.054534465
234	0x3d663462	0.0562023
235	0x3e76128e	0.24030516
236	0x3d69af9f	0.05705225
237	0xbd9c2da8	-0.07625896
238	0xbd8d56e7	-0.06901341
239	0xbcc598ac	-0.024120651
240	0x3ccf34e6	0.025293779
241	0xbb848ef7	-0.004045363
242	0xbb8da674	-0.0043228213
243	0xbd633487	-0.055470016
244	0xbe832f06	-0.25621814
245	0xbb82a985	-0.0039874935
246	0xbd3042ab	-0.04303233
247	0xbe985798	-0.2975433
248	0x3dcd85af	0.10035264
249	0x3ea9a375	0.3313252
250	0xbd9a1777	-0.07524007
251	0x3cb6b85a	0.022304703
252	0x3ea01a34	0.3126999
253	0x3d7640b8	0.060120314
254	0xbd389e3c	-0.04507278
255	0x3e18d859	0.1492628

prop_layer.GRU.weight_hh_l0 f4 [30, 10]
0	0xbde601ab	-0.11230787
1	0x3d5379a3	0.051629674
2	0xbe454601	-0.19264986
3	0x3e13a1b8	0.1441716
4	0x3e2d8f3e	0.16949174
5	0xbd971a18	-0.07378024
6	0x3dd42a15	0.10359589
7	0x3d87c2ed	0.06628976
8	0xbd40cc8e	-0.04707008
9	0xbe41156c	-0.18855828
10	0xbc9153fd	-0.017740244
11	0xbc50c276	-0.012741676
12	0xbc9b9621	-0.018992485
13	0x3d1fdeb4	0.039030746
14	0xbca3bcbe	-0.01998746
15	0xbb2a5d43	-0.002599553
16	0x3d80144f	0.062538736
17	0x3cceaae0	0.025227964
18	0xbd539f42	-0.051665552
19	0x3d4b67f6	0.04965969
20	0x3d00ce76	0.031446896
21	0x3d09c112	0.03363139
22	0x3cf45bb7	0.02982889
23	0xbc58626d	-0.01320706
24	0x3c635d47	0.0138772195
25	0x3c219551	0.00986226
26	0xbd523ba1	-0.051326398
27	0x3cca74a1	0.024713816
28	0x3d0d7c76	0.034542523
29	0xbc294c48	-0.010333128
30	0xbba41c58	-0.0050082617
31	0x39b78e25	0.00035010386
32	0x3be560f2	0.007000082
33	0x3ccb8364	0.024842925
34	0x3c9a9ba2	0.01887304
35	0x3b8a1d85	0.004214945
36	0x3d9c68e7	0.07637196
37	0x3afeac62	0.0019430036
38	0xbb2698fd	-0.0025420778
39	0xbc8b6139	-0.017014133
40	0xbdc4aac7	-0.09602886
41	0xbca5dbf0	-0.020246476
42	0xbcf613e3	-0.03003878
43	0x3d2ced62	0.042218573
44	0x3e1d688c	0.15371913
45	0xbd9f3de0	-0.077754736
46	0xbc5275d2	-0.012845473
47	0xbd34949b	-0.044087034
48	0x3da03d43	0.07824185
49	0xbe053d91	-0.13011767
50	0x3cdcf186	0.026970636
51	0x3b2fdbeb	0.0026833962
52	0x3ca24675	0.019808987
53	0xbc432bc3	-0.011912289
54	0xbcb2f8c8	-0.021847144
55	0x3beb1ebb	0.007175294
56	0xbc7d40c4	-0.015457336
57	0xbaf502dc	-0.0018692869
58	0x3bb29e30	0.0054509863
59	0x3ca171f8	0.019707665
60	0x3c4a45b0	0.012345716
61	0x3ce2c4e2	0.027681772
62	0xbb2bdbce	-0.0026223543
63	0x3c171fe6	0.009223914
64	0xbcff76e9	-0.03118463
65	0x3c473e0d	0.01216079
66	0xbbf5028b	-0.00747711
67	0x3c9b2f37	0.018943412
68	0xbd14ae16	-0.036298834
69	0x3cfea218	0.031083152
70	0x3bc2317f	0.0059263106
71	0xbc973b78	-0.018460974
72	0x3c23cd6e	0.009997709
73	0xbc98ac39	-0.01863681
74	0xbbd2949b	-0.0064264066
75	0x3c031933	0.008001613
76	0xbcae365f	-0.02126616
77	0xba37a984	-0.0007006156
78	0xbc60682f	-0.013696714
79	0x3c929c1c	0.017896704
80	0x3b03e785	0.002012701
81	0x3c8d78e1	0.017269554
82	0x3ba4163f	0.0050075348
83	0x3bbd8700	0.0057839155
84	0xbc4730c0	-0.012157619
85	0x3be03421	0.0068421517
86	0x38d5a29d	0.000101869206
87	0x3cd864cf	0.026415257
88	0x3b886ad3	0.004163125
89	0x3b3e6142	0.002904967
90	0x3b0bf329	0.0021354652
91	0xbb4cca20	-0.0031248406
92	0x3b776627	0.0037750097
93	0x3c397e03	0.011321547
94	0x3b8a5b92	0.004222342
95	0xbc9574e6	-0.018244218
96	0x3c8cc98b	0.017185947
97	0xbc0f3280	-0.0087400675
98	0x3cbe49bf	0.023228524
99	0xbcd54b61	-0.02603692
100	0x3d53055a	0.051518776
101	0x3da21b8e	0.07915412
102	0x3d8fbd50	0.0701853
103	0x3d0bc24d	0.034120847
104	0xbe4a5905	-0.19760521
105	0x3b2e06d9	0.0026554374
106	0x3c905b0f	0.017621545
107	0x3dfdf5a4	0.12400368
108	0xbc655e4b	-0.013999532
109	0x3e34bdcf	0.17650531
110	0x3c2ea1d3	0.010658699
111	0xbd9b43a7	-0.07581263
112	0xbc5284f3	-0.01284908
113	0xbcf4288b	-0.029804489
114	0xbc73a4cf	-0.014870836
115	0x3cd86845	0.026416907
116	0xbdfce5b3	-0.12348499
117	0xbddf0cad	-0.108910896
118	0xbda2436b	-0.07923015
119	0x3d4c7ad6	0.049921833
120	0xbd8cb062	-0.0686958
121	0x3de0eca2	0.10982634
122	0xbe3e95e0	-0.1861186
123	0x3e8a0cf3	0.26963004
124	0x3e370b6d	0.17875452
125	0xbd1b5d88	-0.037930995
126	0x3c4ed6ea	0.012624482
127	0xbd93d718	-0.0721876
128	0xbe2783e7	-0.1635891
129	0xbe3df17e	-0.18549153
130	0x3dcdf5d0	0.10056651
131	0x3c3cb8ef	0.011518701
132	0x3e029f8e	0.12756178
133	0xbd1cca43	-0.03827883
134	0xbdb9d72e	-0.090742454
135	0xbde8bc84	-0.113640815
136	0xbdaadefa	-0.08343311
137	0xbe8a7966	-0.27045745
138	0x3e2b6b1a	0.16740075
139	0xbc35ad2a	-0.011088649
140	0xbdd30b57	-0.10304897
141	0xbe6cd22d	-0.2312705
142	0xbe037007	-0.12835704
143	0xbc1ee690	-0.009698525
144	0xbd4235fe	-0.047414772
145	0xbd2b7235	-0.041856963
146	0x3e0e786b	0.13913123
147	0xbe37f15e	-0.17963168
148	0xbc40331f	-0.011730938
149	0xbddaa922	-0.10676791
150	0xbd25bcd2	-0.040463276
151	0x3e97eb8c	0.29671896
152	0xbd8cf3fd	-0.068824746
153	0x3d84efd8	0.06491059
154	0xbe5f229c	-0.21790546
155	0x3d1d3dbf	0.038388964
156	0xbc8ef742	-0.017451886
157	0x3d1be976	0.038064443
158	0x3a42553c	0.00074132136
159	0xbd83909e	-0.06424068
160	0x3d9b6d60	0.07589221
161	0x3d32bae0	0.04363525
162	0x3e3b5d86	0.18297395
163	0xbd35b3ec	-0.04436104
164	0x3dbf4f41	0.09341288
165	0xbe0af5f9	-0.13570394
166	0xbe29b44c	-0.16572684
167	0xbdd5e5ba	-0.104442075
168	0x3e50082d	0.20315619
169	0xbc5b211d	-0.013374594
170	0x3ce001b3	0.02734456
171	0xbd4ee16f	-0.05050796
172	0xbd9fa1a8	-0.07794505
173	0xbd3015f9	-0.042989705
174	0x3bf307eb	0.0074167154
175	0xbdb6d2b4	-0.08926907
176	0x3caaa3f7	0.020830138
177	0x3cbae9ca	0.022816557
178	0xbdb273b3	-0.08713474
179	0x3daa674e	0.08320485
180	0xbdb2c5f3	-0.08729162
181	0xbda71867	-0.08158951
182	0x3d2a5b78	0.041591138
183	0x3d9be52a	0.07612069
184	0xbddae05f	-0.10687327
185	0x3e5c7edd	0.2153277
186	0x3d8b5199	0.06802673
187	0x3c9190e0	0.017769277
188	0xbe317722	-0.17330602
189	0x3e13ac71	0.1442125
190	0xbdaeb49e	-0.08530544
191	0xbd85dfec	-0.0653685
192	0x3d1e886f	0.038704332
193	0x3da98d41	0.08278895
194	0x3e28fa27	0.16501676
195	0x3df554cc	0.11979064
196	0xbe2bc03b	-0.16772549
197	0xbc44645c	-0.011986818
198	0xbcfb834e	-0.03070226
199	0xbd77728b	-0.06041197
200	0x3cd3ba9b	0.025845816
201	0xbd5b5714	-0.05354984
202	0x3eb37cf2	0.35056263
203	0xbe88f583	-0.2674981
204	0xbe7351e7	-0.23761712
205	0xbd192eed	-0.037398268
206	0xbe57e8e8	-0.2108494
207	0xbe046b6a	-0.129316
208	0x3e864870	0.2622714
209	0x3e944f0c	0.28966558
210	0xbd4d27b6	-0.0500867
211	0xbd00dc2b	-0.03145997
212	0xbe6b7b7e	-0.22996327
213	0x3d17e4ac	0.037083313
214	0x3e546179	0.20740308
215	0xbe909f9b	-0.2824677
216	0x3e54041c	0.20704693
217	0x3e1b6b7f	0.15177725
218	0xbd5f65fa	-0.05454061
219	0xbe29fc6d	-0.16600199
220	0xbcd90d48	-0.02649559
221	0xbe9576d7	-0.2919223
222	0xbd129c5b	-0.035793643
223	0x3de8acce	0.11361085
224	0x3ea43986	0.32075137
225	0xbdc83c34	-0.09777108
226	0x3edc615b	0.43043026
227	0xbe650a8c	-0.22367305
228	0x3ca8ad77	0.020590527
229	0xbdfb7ed4	-0.1228005
230	0x3df1d99c	0.11809084
231	0xbcb22617	-0.021746678
232	0x3df6ce2a	0.120510414
233	0xbd9ed6d1	-0.07755817
234	0xbe048f84	-0.12945372
235	0x3d945d1e	0.07244323
236	0xbdf18c7f	-0.11794376
237	0xbc5945fd	-0.013261315
238	0xbc7a6d99	-0.015284919
239	0x3eb18b25	0.3467647
240	0xbdfb2a69	-0.122639485
241	0xbe0a3997	-0.13498531
242	0xbceb2ec0	-0.028708816
243	0xbe77dbd7	-0.24204956
244	0x3e73389b	0.23752062
245	0xbe70c364	-0.23512036
246	0xbeb173dc	-0.34658706
247	0x3d82c3ae	0.06384979
248	0x3e892ed2	0.26793534
249	0xbd900579	-0.07032294
250	0xbcf85b8d	-0.030317092
251	0x3d39cc9f	0.045361158
252	0x3e071cb4	0.13194543
253	0xbd19302d	-0.03739946
254	0xbd87ed7a	-0.06637092
255	0x3d66da31	0.056360427

prop_layer.GRU.bias_ih_l0 f4 [30]
0	0x3e0ff73e	0.14059159
1	0x3d7f99ee	0.06240266
2	0x3dd5197b	0.10405251
3	0x3d75706c	0.059921667
4	0x3e0b2c4d	0.13591118
5	0x3b82bfd4	0.003990153
6	0xbcde9c31	-0.027174087
7	0xbd0f92c1	-0.035052065
8	0x3c3aaad1	0.011393265
9	0x3d86d965	0.065844335
10	0xbcab6ddb	-0.020926407
11	0xbe436c7c	-0.19084352
12	0xbe257166	-0.1615654
13	0xbe36c23a	-0.17847529
14	0xbe5551d7	-0.20832
15	0xbe89d3bb	-0.2691935
16	0xbd99b9a6	-0.07506113
17	0xbdb206e0	-0.086927176
18	0xbdfac8c4	-0.12245324
19	0x3da9b11b	0.08285733
20	0xbf10b8b1	-0.56531817
21	0x3e6c5615	0.23079713
22	0xbe753880	-0.23947334
23	0xbdff018a	-0.124514654
24	0x3f3f78df	0.7479381
25	0x3d9f24f2	0.07770719
26	0xbef10228	-0.47071958
27	0xbe4596eb	-0.19295852
28	0x3df17de2	0.11791588
29	0x3bb4956f	0.005510978

prop_layer.GRU.bias_hh_l0 f4 [30]
0	0x3e0ff73e	0.14059159
1	0x3d7f99ee	0.06240266
2	0x3dd5197b	0.10405251
3	0x3d75706c	0.059921667
4	0x3e0b2c4d	0.13591118
5	0x3b82bfd4	0.003990153
6	0xbcde9c31	-0.027174087
7	0xbd0f92c1	-0.035052065
8	0x3c3aaad1	0.011393265
9	0x3d86d965	0.065844335
10	0xbcab7b76	-0.020932894
11	0xbe436c6e	-0.19084331
12	0xbe2589ca	-0.16165844
13	0xbe369895	-0.17831643
14	0xbe54fe1a	-0.20800057
15	0xbe89dc4d	-0.2692589
16	0xbd99c374	-0.07507983
17	0xbdb206ff	-0.08692741
18	0xbdfab6e7	-0.12241917
19	0x3da9c8ca	0.082902506
20	0xbe869702	-0.26287085
21	0x3be6570e	0.0070294207
22	0xbdc74c2b	-0.09731325
23	0x3c82b634	0.015956022
24	0x3eee752d	0.46573773
25	0x3cf52b81	0.02992797
26	0xbdbceb6d	-0.092245914
27	0xbd895540	-0.06705713
28	0x3d2f5d95	0.042813856
29	0x3ce91708	0.028453365

interaction_layer.0.weight f4 [20, 20]
0	0xbd81a644	-0.06330541
1	0x3ddc301e	0.10751365
2	0x3d983600	0.07432175
3	0x3c364185	0.0111240195
4	0x3f198c61	0.59979826
5	0xbca835e2	-0.020533506
6	0xbd300b47	-0.042979505
7	0xbe53b23a	-0.20673457
8	0xbe556959	-0.20840968
9	0xbe64bc6a	-0.223375
10	0xbe17b444	-0.1481486
11	0x3e4aed20	0.19817019
12	0x3e2cd7af	0.16879152
13	0x3ec63873	0.38714942
14	0xbe2bae7d	-0.16765781
15	0x3dbf8223	0.093509935
16	0x3e785570	0.24251342
17	0xbd8ff46a	-0.0702904
18	0x3ed27846	0.41107386
19	0xbe54c88f	-0.20779632
20	0x3ebf95d4	0.37418997
21	0xbdee68bb	-0.116410695
22	0xbe913d97	-0.28367302
23	0x3e480f7f	0.19537161
24	0xbe7f6e75	-0.2494448
25	0xbcd33249	-0.025780814
26	0x3ea7f793	0.32806072
27	0x3d0a6752	0.03378994
28	0xbd59bdf2	-0.05315966
29	0x3e2adf2b	0.16686694
30	0x3e673e26	0.22582301
31	0x3f1b8d7d	0.6076277
32	0xbe7d2c13	-0.24723844
33	0x3eed9d28	0.46408963
34	0xbe367c34	-0.17820817
35	0xbca8fc32	-0.020628069
36	0x3ede7abe	0.4345302
37	0x3e6a2863	0.22866969
38	0x3d5b19bf	0.05349135
39	0xbe8baa13	-0.27278194
40	0xbe5aef63	-0.21380381
41	0xbe96a3e8	-0.29421926
42	0xbdfc16b1	-0.123090155
43	0x3da2bf33	0.079466246
44	0xbd80e73c	-0.062941045
45	0xbdd8bebd	-0.105832554
46	0xbe82b459	-0.2552822
47	0xbe1f55d2	-0.15560082
48	0x3e38291d	0.17984433
49	0x3ea2b1bb	0.31776223
50	0x3e5ded02	0.21672443
51	0xbdfd5da6	-0.12371378
52	0xbd91b14d	-0.071138956
53	0xbd9011aa	-0.07034619
54	0xbe0b063d	-0.13576598
55	0xbc2c9dc5	-0.010535662
56	0x3ce2ef19	0.027701901
57	0x3d5abdec	0.05340378
58	0x3ce8840e	0.028383281
59	0x3e5a113f	0.21295641
60	0x3e0a4721	0.13503696
61	0x3e016668	0.12636721
62	0xbe10d177	-0.14142404
63	0xbf11eeff	-0.57005304
64	0xbd735472	-0.059406705
65	0xbdca2f69	-0.09872324
66	0x3e3138b6	0.1730679
67	0xbedcd917	-0.43134376
68	0xbd1b5d0b	-0.03793053
69	0xbe5a0925	-0.21292551
70	0xbed01bab	-0.4064611
71	0x3eaf8367	0.3427994
72	0x3e4b3a47	0.1984645
73	0x3e4590ed	0.19293566
74	0x3e3390de	0.17535731
75	0x3dd616cb	0.10453566
76	0x3caab1a8	0.020836666
77	0x3e89be43	0.2690297
78	0xbbcc6005	-0.0062370324
79	0xbd1cfab0	-0.03832501
80	0x2b4f26cf	7.359503e-13
81	0x966099a4	-1.8143056e-25
82	0x9e228c89	-8.6052706e-21
83	0xb20c005b	-8.149153e-09
84	0x03effe56	1.410555e-36
85	0x9515e122	-3.026791e-26
86	0xa3ae0db3	-1.887092e-17
87	0xa90c0ce0	-3.1097412e-14
88	0x99ea640b	-2.423544e-23
89	0x31844b59	3.8502717e-09
90	0xa4ca41ee	-8.7715225e-17
91	0xae27c820	-3.814915e-11
92	0xadba9bb2	-2.1214894e-11
93	0xb2b3f2cc	-2.0948754e-08
94	0x04bd5142	4.450831e-36
95	0xabb4f325	-1.2857255e-12
96	0xac554935	-3.0309759e-12
97	0xa768616b	-3.2249278e-15
98	0xa9df0d1f	-9.9054655e-14
99	0x0026fe35	3.580941e-39
100	0x3def0af6	0.116720125
101	0x3ef11196	0.4708373
102	0xbd84f08b	-0.064911924
103	0x3d9517a7	0.07279902
104	0xbe2999bd	-0.16562553
105	0xbd3cd23a	-0.046098925
106	0x3eb39859	0.3507717
107	0x3e38433b	0.17994396
108	0xbc581713	-0.013189095
109	0xbe82d5a9	-0.25553635
110	0x3e3e1207	0.18561564
111	0xbeb40ae5	-0.35164562
112	0xbdcc3d42	-0.099726215
113	0xbe404546	-0.18776426
114	0xbe6b73a1	-0.22993328
115	0xbe8e80e0	-0.278327
116	0xbeabb6cd	-0.33537903
117	0xbddc7f72	-0.10766496
118	0xbda8166b	-0.08207401
119	0x3e1d7645	0.15377147
120	0xbd07f3f9	-0.033191655
121	0xbe00cf49	-0.12579073
122	0xbe98e9bc	-0.29865825
123	0xbcc5e3d1	-0.024156483
124	0xbd821082	-0.06350805
125	0xbe3603ab	-0.17774837
126	0xbea3adf3	-0.3196865
127	0xbebd6f1c	-0.36998832
128	0xbd2958a3	-0.041344296
129	0x3c9fc5ad	0.019503439
130	0xbd83f57a	-0.06443305
131	0xbe58ff67	-0.21191178
132	0xbc98d5bf	-0.01865661
133	0x3ddc7c6b	0.10765918
134	0x3e8efeb3	0.27928695
135	0x3e213bfc	0.15745538
136	0x3e2d9ae1	0.16953613
137	0xbc9d56c5	-0.019206414
138	0xbd093c8f	-0.03350502
139	0xbe493a56	-0.1965116
140	0x3be2cb0f	0.006921179
141	0xbb4da5fb	-0.003137945
142	0xbc02e537	-0.007989219
143	0xbcbe26a7	-0.02321179
144	0x3b8e324d	0.0043394924
145	0xbbcc4483	-0.006233753
146	0xbc7bbd9c	-0.015365031
147	0xbc961b40	-0.01832354
148	0xbc9261a4	-0.017868824
149	0x3a07ba48	0.00051775994
150	0xbb6ede40	-0.003644839
151	0xbc3fbaec	-0.0117022805
152	0xbc56a11b	-0.013099934
153	0xbc85f8e1	-0.016354026
154	0xbc01fb03	-0.007933381
155	0xbce2b99f	-0.027676402
156	0xbc78c86d	-0.015184504
157	0xbbeab650	-0.0071628466
158	0xbad5df20	-0.0016317107
159	0x3c2789ef	0.010225757
160	0x3e1a9915	0.15097459
161	0xbed61aa7	-0.4181721
162	0xbd8d54a1	-0.06900907
163	0xbde8c79b	-0.11366197
164	0xbebd8dec	-0.3702234
165	0xbe82f68b	-0.25578722
166	0x3e971809	0.29510525
167	0x3d392459	0.04520068
168	0x3d724f42	0.059157617
169	0x3dd8efe5	0.10592631
170	0xbe17b83c	-0.14816374
171	0x3e11c86e	0.14236614
172	0x3e296394	0.16541892
173	0x3e7c7524	0.2465406
174	0x3e50b86d	0.20382853
175	0x3ddfcb30	0.10927427
176	0xbbaf29c5	-0.0053455555
177	0x3d1017c4	0.035178915
178	0xbe1f15e6	-0.15535697
179	0xbe89b1cf	-0.2689347
180	0xbde4c1bc	-0.111697644
181	0x3e70cf26	0.23516521
182	0x3ea978be	0.3309993
183	0x3e1ff4be	0.15620705
184	0x3ed00663	0.40629873
185	0x3e014f8b	0.12628
186	0xbe69219f	-0.22766732
187	0x3e258344	0.16163355
188	0x3e176907	0.14786159
189	0x3e85d559	0.26139334
190	0x3d62583c	0.055259928
191	0xbe992f24	-0.29918778
192	0xbe9f0a64	-0.31062615
193	0xbe50ef5d	-0.2040381
194	0xbeebbbf4	-0.46041834
195	0xbdb2aa33	-0.08723869
196	0xbd860147	-0.065432124
197	0xbdf58014	-0.119873196
198	0xbe665986	-0.22495088
199	0xbeb55f06	-0.3542406
200	0xa92bd47d	-3.815393e-14
201	0xac9dd379	-4.4856866e-12
202	0xa8e15301	-2.5016015e-14
203	0xb0430d71	-7.095969e-10
204	0x2da8dd45	1.9197652e-11
205	0x2a3a2cce	1.6535663e-13
206	0xac11f693	-2.0742616e-12
207	0xac7f5c51	-3.6288925e-12
208	0xaa2e73e2	-1.549451e-13
209	0x323f80b3	1.1146926e-08
210	0x230f895f	7.781135e-18
211	0xafef7a3d	-4.3560702e-10
212	0xb06df3ea	-8.656672e-10
213	0xb31fecb3	-3.723535e-08
214	0xa80b6298	-7.737429e-15
215	0xae61a1f1	-5.130291e-11
216	0xaba335ea	-1.1596811e-12
217	0x2aa879ef	2.9927403e-13
218	0xad242c77	-9.332194e-12
219	0x23613df3	1.2210393e-17
220	0x3e968894	0.29401076
221	0x3e291691	0.16512515
222	0xbd970e9f	-0.073758356
223	0x3e19c52b	0.1501662
224	0xbe697a6f	-0.22800611
225	0xbdb7a61b	-0.08967229
226	0x3d52c80d	0.051460315
227	0xbdefc07f	-0.117066376
228	0x3e89ae9c	0.2689103
229	0xbdfbfe50	-0.12304366
230	0x3eb427f0	0.3518672
231	0x3dcd4455	0.10022799
232	0xbe09e68b	-0.13466851
233	0xbed323b1	-0.41238168
234	0x3e3b7187	0.18305026
235	0x3c1b63c3	0.009484234
236	0x3e13a24a	0.14417377
237	0xbec661d7	-0.3874652
238	0x3c8a0563	0.016848272
239	0x3e79d3ce	0.24397203
240	0x3e006eac	0.12542218
241	0xbd888c73	-0.066674136
242	0xbeaf4161	-0.34229568
243	0xbdc83393	-0.09775462
244	0x3d33b943	0.04387785
245	0x3bb2209e	0.005436017
246	0xbe1ddf30	-0.1541717
247	0x394d79a5	0.0001959564
248	0x3f07393d	0.52821714
249	0x3db8cc9e	0.09023403
250	0xbd56074c	-0.052253053
251	0x3e4e4ea9	0.20147194
252	0xbdbd21c5	-0.09234957
253	0xbed51404	-0.41616833
254	0xbead368e	-0.33830684
255	0xbe95bf1a	-0.2924736

interaction_layer.0.bias f4 [20]
0	0x3dc1a3ec	0.09455094
1	0x3d69186c	0.056908056
2	0x3f053faa	0.5205027
3	0x3e5a9c14	0.21348602
4	0xb5c9970b	-1.5019626e-06
5	0x3cd024aa	0.025408108
6	0x3e16eb24	0.14738137
7	0xbcf0b7df	-0.029384552
8	0xbe474419	-0.19459571
9	0xbd210cd2	-0.039318867
10	0xb5b150f6	-1.321109e-06
11	0xbe12552f	-0.14290307
12	0x3e457ebc	0.19286627
13	0x3eb20ac6	0.34773844
14	0x3ea741d6	0.32667416
15	0xb15f28e8	-3.2474023e-09
16	0xbd8497ff	-0.064743035
17	0x3cc1eacc	0.02367153
18	0x3e212017	0.15734898
19	0xbc0e800d	-0.008697522

interaction_layer.2.weight f4 [10, 20]
0	0xbded9b50	-0.11601889
1	0xbe05134d	-0.12995644
2	0x3f0c3108	0.54762316
3	0xbe7ef7ea	-0.24899259
4	0x33ccb6af	9.53272e-08
5	0xbe8ba25a	-0.27272302
6	0x3eb5c0a1	0.35498527
7	0x3c869441	0.016428115
8	0x3e626433	0.22108535
9	0xbdc46143	-0.09588864
10	0x259417a2	2.5689922e-16
11	0xbe31d795	-0.17367394
12	0xbe50ade7	-0.20378838
13	0xbd345b1f	-0.044032212
14	0x3e8b4f09	0.27208737
15	0x17b0e101	1.1430532e-24
16	0x3e47a535	0.19496615
17	0x3ec7c7d6	0.3901965
18	0x3e841dce	0.2580399
19	0x3e74bf36	0.23901066
20	0x3cae6aee	0.021291222
21	0x3e85d41c	0.2613839
22	0x3e9e4990	0.309155
23	0x3df2b8fb	0.118516885
24	0x2f34d68e	1.644713e-10
25	0xbe75b587	-0.23995028
26	0xbefdbdf7	-0.49558994
27	0x3bed52f3	0.0072425543
28	0x3c90400f	0.01760867
29	0x3f0e786f	0.5565252
30	0x3166e58c	3.3599887e-09
31	0x3eb72e59	0.35777548
32	0x3eb3311f	0.34998414
33	0xbe5b9f02	-0.21447375
34	0x3d0b666b	0.03403322
35	0x9ba6d3ce	-2.7599272e-22
36	0x3ec79ff5	0.38989225
37	0xbdeaabea	-0.11458571
38	0x3f0aee35	0.54269725
39	0xbe553226	-0.20819911
40	0xbe514b4d	-0.20438881
41	0xbe8f7f57	-0.2802684
42	0x3e50572d	0.20345755
43	0xbf0d37e1	-0.5516339
44	0x2d9e1e67	1.7976022e-11
45	0xbf143bb8	-0.57903624
46	0xbe30b29d	-0.17255636
47	0x3beceb87	0.0072302255
48	0x3e72e188	0.23718846
49	0xbda61cb5	-0.08110944
50	0x31845cdc	3.8522625e-09
51	0xbd974632	-0.073864356
52	0x3e654aa7	0.22391759
53	0x3e842958	0.25812793
54	0x3d848510	0.06470692
55	0xa3566c36	-1.1623878e-17
56	0x3c388558	0.01126226
57	0x3dc40d94	0.09572902
58	0xbe084daa	-0.13310876
59	0xbd36ef9d	-0.044662107
60	0xbda722fb	-0.08160969
61	0x3f07ce47	0.5304913
62	0xbdc21127	-0.09475928
63	0xbe6c6546	-0.23085508
64	0x36290e43	2.5191264e-06
65	0xbe0344a3	-0.12819152
66	0xbe08b2ac	-0.13349408
67	0xbb13f34b	-0.0022575434
68	0xbe150961	-0.14554359
69	0xbe0084ad	-0.12550612
70	0x31179f57	2.2063966e-09
71	0x3ecd8cdb	0.40146527
72	0xbd3758e7	-0.04476252
73	0xbe8ce122	-0.27515513
74	0x3e5fd037	0.21856771
75	0x983ea72a	-2.464132e-24
76	0xbd8de35b	-0.0692813
77	0x3e8f5a44	0.27998555
78	0x3e2ca752	0.16860703
79	0xbda71955	-0.081591286
80	0x3f3b431a	0.73149264
81	0x3e03a4a3	0.12855773
82	0xbe005855	-0.12533696
83	0xbe2ed901	-0.17074968
84	0x2771f247	3.3576807e-15
85	0xbec546c9	-0.38530567
86	0x3c3afa24	0.011412177
87	0xbc5b8f93	-0.01340093
88	0xbe79c0ff	-0.24390028
89	0xbed0f14e	-0.408091
90	0xb4eb862c	-4.3869784e-07
91	0x3d9d6b4e	0.07686482
92	0xbe838ce3	-0.25693426
93	0x3e914b4d	0.28377762
94	0xbda080d1	-0.0783707
95	0x9f29c0d5	-3.594665e-20
96	0x3d509891	0.05092675
97	0x3d591ee4	0.053007975
98	0xbddbc1ec	-0.10730347
99	0x3e2d7323	0.16938452
100	0x3d069c0b	0.032863658
101	0x3da55b30	0.08074033
102	0x3cadcf01	0.021216871
103	0xbc8cbc2e	-0.017179575
104	0xa815d42e	-8.317171e-15
105	0x3da337b5	0.0796961
106	0xbddc99c4	-0.10771516
107	0x3c68602b	0.0141830845
108	0x3de67448	0.11252648
109	0x3e8b2aa7	0.2718098
110	0x26cb44e2	1.4104625e-15
111	0xbe62d636	-0.22152027
112	0x3de80e0f	0.113308065
113	0xbed14aa8	-0.4087727
114	0xbdde7636	-0.10862391
115	0x872a057b	-1.2790989e-34
116	0xbe0b2696	-0.13588938
117	0x3ebe1c60	0.37131023
118	0xbf1a013f	-0.6015815
119	0xbdc4e9fc	-0.096149415
120	0xbe5fa378	-0.21839702
121	0x3f0ca8bd	0.54944974
122	0xbd5684b0	-0.052372634
123	0x3eab3e37	0.33445904
124	0x35b1468a	1.3208057e-06
125	0x3c99b6ff	0.018764017
126	0xbd303a92	-0.043024607
127	0x3ab5fd76	0.0013884741
128	0x3f03ab04	0.51432824
129	0xbe216ec2	-0.15764907
130	0x3629e253	2.53147e-06
131	0x3e762c95	0.24040444
132	0x3e734b1b	0.23759119
133	0x3e5bcc6b	0.21464698
134	0x3f0f61cf	0.5600862
135	0xaae35c9c	-4.038756e-13
136	0x3d3ce9ff	0.046121594
137	0xbdc35644	-0.09537938
138	0xbebc986f	-0.36835048
139	0xbe62db6c	-0.22154015
140	0x3df8397c	0.12120339
141	0x3e8284fd	0.25492087
142	0x3e8a2087	0.2697794
143	0x3e88e205	0.2673494
144	0xb075aed8	-8.937895e-10
145	0xbd88750e	-0.066629514
146	0xbe3950e7	-0.18097268
147	0x3b808eca	0.003923272
148	0x3d95e91e	0.07319854
149	0xbd478411	-0.048709933
150	0x2c4c641e	2.904572e-12
151	0xbe2c8307	-0.16846858
152	0x3ed29a1a	0.41133195
153	0xbebd37b8	-0.36956573
154	0xbd1ed2bc	-0.03877519
155	0x9a9da302	-6.519703e-23
156	0xbe92558d	-0.28580895
157	0xbec39b68	-0.38204503
158	0xbe0a5120	-0.13507509
159	0xbe8308c7	-0.25592634
160	0xbeb11245	-0.3458425
161	0xbda758ca	-0.08171232
162	0x3e280453	0.164079
163	0xbe6e63e9	-0.232803
164	0x341bbe17	1.4504654e-07
165	0x3e0f4dc9	0.13994516
166	0xbdd93951	-0.10606635
167	0xbba9cfca	-0.005182241
168	0x3e488b30	0.19584346
169	0xbd89f4ef	-0.067361705
170	0x320063e5	7.473294e-09
171	0xbe958320	-0.29201603
172	0x3f1b04f4	0.6055443
173	0x3f288549	0.65828377
174	0xbeb39526	-0.3507473
175	0x9f1b3398	-3.2865204e-20
176	0xbded74d8	-0.11594552
177	0xbe687f1a	-0.22704735
178	0x3dd2934d	0.10282002
179	0x3d154ea5	0.036451954
180	0x3dfe38b9	0.12413163
181	0xbecbef94	-0.3983122
182	0x3e143e74	0.14476949
183	0xbe51123b	-0.2041711
184	0xb3f08533	-1.12001e-07
185	0x3d603145	0.054734487
186	0x3e44e312	0.19227245
187	0x3c1370a6	0.008999025
188	0x3e0efac9	0.13962854
189	0x3ed3be8e	0.4135632
190	0xb62880e5	-2.5108977e-06
191	0xbe9a7812	-0.3016973
192	0xbcff0209	-0.0311289
193	0xbeb27754	-0.34856665
194	0x3f21f307	0.63261455
195	0xa63cc047	-6.5486187e-16
196	0xbe9a6eba	-0.30162603
197	0xbe00c86d	-0.12576456
198	0x3dae57b6	0.08512823
199	0xbe34a0fe	-0.17639539

interaction_layer.2.bias f4 [10]
0	0xbe45e613	-0.19326048
1	0xbe2226c6	-0.15835103
2	0x3d29070c	0.041266486
3	0xbe100427	-0.14064084
4	0xbd9ecaf5	-0.07753555
5	0x3dc8b0df	0.097993605
6	0xbe9cb17e	-0.30604166
7	0x3e7dbc1c	0.2477879
8	0x3e056423	0.1302648
9	0xbe200d94	-0.1563018

scoring_alignment_preprocessor.0.weight f4 [16, 10]
0	0x3ea208b1	0.31647256
1	0x3f027e01	0.50973517
2	0x3e34d719	0.17660178
3	0x3d1b19fe	0.037866585
4	0xbe5e2630	-0.21694255
5	0xbeaa131d	-0.33217707
6	0x3e8c741b	0.2743233
7	0xbddc6e29	-0.10763199
8	0xbe54d312	-0.20783642
9	0xbe9ce0a6	-0.30640143
10	0xbe2ef20b	-0.1708452
11	0x3d8dd828	0.06925994
12	0x3e616aec	0.22013444
13	0x3e62db17	0.22153889
14	0x3ed6a321	0.41921332
15	0x3ec179ac	0.3778814
16	0x3eca9dc7	0.395735
17	0xbcc9755b	-0.024592092
18	0xbea0d959	-0.31415823
19	0xbe7fdfed	-0.24987765
20	0x3cb6a555	0.022295633
21	0xbd816dfb	-0.06319805
22	0xbe62c614	-0.22145873
23	0xbe3fbc8c	-0.18724269
24	0x3e0edda4	0.13951737
25	0x3e74a8f4	0.23892576
26	0x3e208e8d	0.15679379
27	0x3e45399e	0.1926026
28	0x3d0ad7be	0.033897154
29	0x3d89b116	0.067232296
30	0x3e001078	0.12506282
31	0x3ea7a2d1	0.32741407
32	0xbe382980	-0.17984581
33	0xbdf0dc04	-0.11760715
34	0x3d3f2d35	0.046673972
35	0xbe7ca38b	-0.24671762
36	0xbdf3d683	-0.11906149
37	0xbe6cfd5a	-0.23143521
38	0xbe110f86	-0.14166078
39	0x3df54219	0.11975498
40	0xbe088928	-0.13333571
41	0x3e00182b	0.1250922
42	0xbdc3861e	-0.09547065
43	0xbe5a74aa	-0.21333566
44	0x3e843a8e	0.25825924
45	0x3e0a462b	0.1350333
46	0xbe41f8b1	-0.18942524
47	0xbe304b12	-0.17216137
48	0xbcd9ab91	-0.026571067
49	0x3e63f08a	0.22259727
50	0xbe864358	-0.26223254
51	0xbe5a000c	-0.2128908
52	0xbdbc84cf	-0.09205019
53	0x3d7ce3c2	0.061740644
54	0x3eb619fb	0.35566697
55	0x3dca240e	0.09870158
56	0xbea3ec3f	-0.3201618
57	0xbe13af17	-0.1442226
58	0x3ced980f	0.029003171
59	0x3e63fe87	0.22265063
60	0x3e6beb5c	0.23039001
61	0xbc72fd69	-0.0148309255
62	0x3ef1ab82	0.47201163
63	0x3efef1b0	0.49793768
64	0xbd66394e	-0.056206994
65	0x3dca38a3	0.09874084
66	0x3eed17f0	0.46307325
67	0x3e6f50c9	0.23370661
68	0x3d0f98da	0.03505788
69	0xbea656c2	-0.32488066
70	0xbddf1f1b	-0.10894605
71	0x3c74a92d	0.014932913
72	0x3eacd72a	0.33757907
73	0x3eb57002	0.35437018
74	0x3ef3dc5a	0.47629052
75	0x3d8b35c3	0.067973636
76	0xbc74f888	-0.014951833
77	0xbea92a58	-0.33040118
78	0xbebbf24d	-0.36708298
79	0xbd34f59b	-0.04417954
80	0x2f77a519	2.2523174e-10
81	0x35b70cb1	1.3638256e-06
82	0x2e450547	4.47973e-11
83	0xb3ac1043	-8.012332e-08
84	0xb412de79	-1.3678245e-07
85	0xb2d03e50	-2.4242723e-08
86	0x33a3d1d2	7.628445e-08
87	0x305f019a	8.1129203e-10
88	0xb1d4b6b5	-6.1907834e-09
89	0x30e79442	1.68496e-09
90	0x3bb55770	0.005534105
91	0xbe64b04c	-0.22332877
92	0x3e508aa0	0.20365381
93	0x3ecfe04b	0.4060081
94	0xbe82661f	-0.25468537
95	0xbe9005f3	-0.2812954
96	0xbe9f51a9	-0.3111699
97	0xbe67a9b1	-0.22623326
98	0x3e13333c	0.14375013
99	0xbbcfa3a6	-0.006336647
100	0xbd1e3c56	-0.03863176
101	0xbdd4e081	-0.10394383
102	0xbe8c2e5e	-0.27379125
103	0xbe9cdd42	-0.30637556
104	0x3e2d46ff	0.16921614
105	0x3d63ab3f	0.055583235
106	0x3ea61359	0.32436636
107	0x3edb0abc	0.42781627
108	0x3dd41aa5	0.103566445
109	0x3a47cc22	0.0007621666
110	0x3dffc02f	0.12487828
111	0xbdb01f9b	-0.08599778
112	0x3ed30664	0.41215813
113	0x3ee48321	0.44631293
114	0x3e2b855f	0.16750096
115	0xbe40ed6f	-0.18840574
116	0xbe5be6a1	-0.21474697
117	0xbe984b25	-0.2974483
118	0xbd226bfe	-0.03965377
119	0xbdc3204e	-0.09527646
120	0xbe3db48a	-0.18525901
121	0x3e9928ed	0.29914036
122	0x3d7f292a	0.062295116
123	0xbe31da7d	-0.17368503
124	0x3e90c3a7	0.2827427
125	0x3ed0fe83	0.40819177
126	0x3c680e58	0.014163576
127	0xbd88c740	-0.06678629
128	0xbe86363f	-0.2621326
129	0x3d8a0d5f	0.067408316
130	0x3e2a58a6	0.16635379
131	0xbeebac32	-0.46029812
132	0xbd83e52b	-0.06440195
133	0x3ecbe0c1	0.3981991
134	0x3d08b122	0.033372052
135	0x3ec879e2	0.3915549
136	0xbd9c9503	-0.07645609
137	0x3ea63d73	0.32468757
138	0x3ea73269	0.32655647
139	0x3c141059	0.009037101
140	0xbc2182c2	-0.009857835
141	0x3e27de8c	0.16393489
142	0xbc50aa47	-0.01273591
143	0xbe172d14	-0.1476329
144	0x3c0bb734	0.008527566
145	0x3dfe1fe0	0.124084234
146	0x3ebaab41	0.3645878
147	0x3e2a8a17	0.1665424
148	0xbdebe057	-0.11517399
149	0xbe124aa1	-0.14286281
150	0x00001b67	9.83e-42
151	0x00001b66	9.829e-42
152	0x80001b98	-9.899e-42
153	0x80001b7c	-9.86e-42
154	0x00001b71	9.844e-42
155	0x80001b60	-9.82e-42
156	0x00001b92	9.89e-42
157	0x80001b5b	-9.813e-42
158	0x80001b7f	-9.864e-42
159	0x00001b62	9.823e-42

scoring_alignment_preprocessor.0.bias f4 [16]
0	0x3e9ac61d	0.30229273
1	0x3dafc88d	0.08583174
2	0x3da19cee	0.0789126
3	0x3e1bef18	0.15227926
4	0x3e19f607	0.15035258
5	0x3e9b863b	0.30375847
6	0x3d551b04	0.052027717
7	0x3e671b2b	0.22568958
8	0xb8a92ce1	-8.066907e-05
9	0x3e966f02	0.29381567
10	0x3ce2b33c	0.027673356
11	0x3e2e5e9f	0.17028283
12	0x3e1761ef	0.14783452
13	0x3e05d950	0.1307118
14	0x3d41f614	0.04735382
15	0x9976c72a	-1.2758123e-23
