paper_artifacts/collection/gmn_baseline_scoring=sinkhorn_pp=lrl___tp=sinkhorn_pp=lrl_when=pre___unify=true_K=7/trained_models/gmn_baseline_scoring=sinkhorn_pp=lrl___tp=sinkhorn_pp=lrl_when=pre___unify=true_K=7_aids_large_dataset_seed_7762_2024-05-08_00:12:49.pth (torch, 16111 bytes, 22 tensors)

encoder.MLP1.0.weight f4 [10, 1]
00000000: 4d90 ae3d d178 31bd 7ce8 ad3d fd48 a93d
00000010: 292f 0cbe 7a1c 993b aff9 e4bd 3e1c 9bbd
00000020: 2d2c c53e 6c2e 973c
0.08523617 -0.04332811 0.084916085 0.082658745 -0.13689865 0.004672584 -0.11180436 -0.07573746
0.38510266 0.018454753

encoder.MLP1.0.bias f4 [10]
00000000: 76f5 af3d 7a80 31bd 15a0 aa3d 04fe aa3d
00000010: 0128 0fbe 79e1 a93b f8bf e3bd 21d7 9bbd
00000020: 65e7 c43e 0a30 973c
0.0859174 -0.043335415 0.083313145 0.08349231 -0.13980104 0.005184349 -0.111205995 -0.07609392
0.3845779 0.018455524

prop_layer._message_net.0.weight f4 [20, 21]
00000000: 0aea 7dbc 570c afbc d55b aebb 66fb 0eba
00000010: 8ed2 63bc 9fb4 a63c 2291 a43b 8daa 7e3b
00000020: 35dd a1ba 7e0a a03b 6dc3 6bbc 3aa4 45bc
00000030: d60d a7bc 6662 3d3c 1bac 5b3c 42b2 823b
00000040: 614c 5c3c 9255 e8bc 89d4 0ebc 0198 92bb
00000050: e84d e43a f0cf 46bd 6e54 603e cb6b 4bbe
00000060: 51dc c53d ebc4 c13d 2ef3 bd3d b39f 6ebd
00000070: d5fb a23d 32a2 bbbc e0d2 7cbc caad aa3d
00000080: ada8 763d 646f 0cbe c616 d4bc a08a 703d
00000090: a151 093b fa96 dc3c 5aa6 eb3d c8e5 6a3d
000000a0: 235e f83d ace4 dcbc 5d0f dfbd b969 033f
000000b0: 9df5 f9be da0d bdbd 86a1 b4bd 989c 453e
000000c0: 82eb 9dbe cd84 3d3e d96c c9be 3375 bc3e
000000d0: 6336 6c3d 3964 7b3e 476b 2e3a 21ae 8b3d
000000e0: db40 883e 601b 203e 0c4d 073e f118 5d3e
000000f0: 052f c03e 4e5e f83d 2d12 16be b430 afbb
00000100: 5ff3 4bbc d8eb bb3a 9dc9 be39 159d 80bb
00000110: da5d 393a 6518 0b3c 4850 653b e602 073c
00000120: d107 70bb 165b 80bb dd41 623c 6479 383b
00000130: 4f20 caba bcd4 5d3c aaad aebb 18f8 a5bc
00000140: cfb7 b53b 7963 8fbb 7a61 d13a 0146 563a
00000150: 22e6 073e 5a35 ffbd 5a1e 31be 4a19 8ebe
00000160: fc09 94be 8890 d93e f4fa 99be 298d cfbd
00000170: f70e 0d3f e253 453d 1f44 a63d b5aa 85bd
00000180: af76 e13c 59a5 8b3e 65d6 5fbe 22a3 273e
00000190: e7f9 f6bc ee84 3dbb bfca 513c c212 633e
000001a0: 2080 f4bc def5 723c 4dae aa3b ca75 283c
000001b0: 592c 65bb ffca 88b9 17f6 acbc 721c 9b39
000001c0: 81d9 bf3a 4eea 563c 0ceb 7abb e270 b53c
000001d0: a538 f23c 5272 8d3c 859b 22bc 78a8 10bc
000001e0: fcd3 153b e90a 90bc 3a50 fc3c 4a78 40bc
000001f0: c9db 313c 9d45 f1b9 5628 b33c 145c 22ba
00000200: afcf 113c ba58 88bb 415d 5cbb 3ac4 c1bc
00000210: d037 e13a 7f13 923b b5a2 5d3c f014 0dbc
00000220: b1d5 d13c 7a35 0c3d b6a9 753c 5957 2dbc
00000230: ded3 6b3b c723 4f3b 95b2 adbc e0b8 043d
00000240: 283c 6fbc 4e2a a53c b950 80ba acfe c23c
00000250: 3c03 923d 7fa3 8fbb 7f1f a73d 09d3 f53d
00000260: f3cd a1bd 6ec6 d63d 1d64 cdbd 2334 0bbe
00000270: 883e 7b3c ae05 873b 4555 543d df2c 00be
00000280: 3b66 94bd 5181 cc3d 31f9 933b fe0c 843d
00000290: e4a5 313e b37e d93d 3b45 c9bc 9434 d8bb
000002a0: c640 f0be 292e 663d 3a76 f6be b28a 0b3d
000002b0: 82f3 b23e d16a a03d dd18 103e c1f5 2abf
000002c0: 975a d73d f45a d63d 5290 363e 9179 b13d
000002d0: 58f6 84bd 0470 1fbd a78f f53c bf57 9dbc
000002e0: 4030 8dbe 3158 d33d 016b 423e 2992 6e3d
000002f0: 9c21 67be 797b 98bb 2aff fc3c 9069 c039
00000300: 16fa be3b c4d6 be3c 3217 32bb 566d 06bc
00000310: f385 27bc 36d1 0aba 7b22 5f3b bf64 3c3a
00000320: c1d8 51bc ec19 2f3c 9303 d0bb e830 c6bc
00000330: e4c8 87bb 66f0 af3b 5089 093c be47 683c
00000340: d1f2 3fbc bc4b 75bb d15f a2bc 99d5 863c
00000350: f53f 4abb 21d4 3b3b 3194 653c 1438 ac3c
00000360: da80 37bc 4d26 d8bb 2e94 b63b afaa b83b
00000370: 94a1 95bc 78b7 dfbc 22cf ff3a 6f00 cb3b
00000380: 9a90 f0bb b26e e0bb 327b 673c cf5f 27bc
00000390: 1416 ce3c d728 7bbc 3b39 2bbb a45d b4bd
000003a0: 482e 913d 0a2c 7bbd 7958 713e 59a5 753d
000003b0: 96b8 4f3e a03d 94be eb1e b43e ee1f 1a3e
000003c0: 7434 86be a118 593c 88ab 84bd 3d21 6dbe
000003d0: fa51 72bd d316 3cbd 70f3 43bc 0ffc 65bd
000003e0: 1e10 5ebd 9837 7bbe b72a 4c3e fc1c 0e3d
000003f0: 212a 2d3e 8aa1 9e3d b7db 7cbe 5902 de3e
-0.015497694 -0.021368189 -0.005321006 -0.00054543314 -0.013905181 0.020349799 0.005022184 0.003885898
-0.001234925 0.0048840633 -0.014389855 -0.01206308 -0.02039234 0.011559105 0.013407732 0.003988535
0.0134459445 -0.028361116 -0.0087176645 -0.0044736867 0.0017418237 -0.04853815 0.21907207 -0.19865339
0.09661163 0.09461387 0.092748985 -0.05825777 0.079581894 -0.02290449 -0.015431136 0.08333929
0.060219456 -0.13714367 -0.025889765 0.058725953 0.0020953196 0.02692746 0.115063384 0.057348043
0.1212733 -0.026964508 -0.10891602 0.51333195 -0.488202 -0.092311576 -0.08819871 0.19298017
-0.3084374 0.1850769 -0.39340857 0.36808166 0.057669055 0.2454995 0.0006653559 0.06820322
0.2661198 0.15635443 0.13212985 0.21591546 0.37535873 0.12127362 -0.14655371 -0.005346382
-0.012448161 0.0014337255 0.00036389838 -0.0039249756 0.0007071175 0.008489703 0.0034990478 0.008240437
-0.0036625753 -0.0039171083 0.013809648 0.0028148526 -0.0015421006 0.013539489 -0.005330761 -0.020259902
0.0055455933 -0.0043758717 0.0015974485 0.00081738835 0.13271382 -0.12461348 -0.17296734 -0.2775367
-0.28913867 0.4249308 -0.30074275 -0.10134346 0.5510096 0.0481757 0.08118462 -0.065267004
0.027522413 0.27274588 -0.21859129 0.16370824 -0.03014846 -0.0028918344 0.012804686 0.22175124
-0.029846251 0.014829127 0.0052087666 0.010281989 -0.003496906 -0.00026091185 -0.021113439 0.00029585097
0.0014636965 0.013117386 -0.0038287072 0.022148553 0.029568026 0.017266426 -0.009924774 -0.008829229
0.0022861948 -0.017583327 0.030799974 -0.011747429 0.0108556235 -0.00046018968 0.02186982 -0.000619353
0.008899613 -0.0041609677 -0.003362492 -0.023653138 0.0017182771 0.0044578905 0.013527562 -0.008610949
0.025614591 0.034230687 0.0149940755 -0.010579907 0.0035984437 0.0031607018 -0.021203319 0.032402873
-0.014601745 0.020161774 -0.0009789682 0.023803078 0.07129523 -0.004383504 0.08160304 0.120031424
-0.0790061 0.10487066 -0.10028861 -0.13594107 0.015334733 0.00412055 0.05183913 -0.12517117
-0.072460614 0.09985603 0.00451579 0.064477906 0.17348439 0.10619869 -0.024569144 -0.0065980647
-0.46924418 0.056196366 -0.48137075 0.034067817 0.34951407 0.078328736 0.14071985 -0.6678124
0.105153255 0.10466567 0.17828491 0.08665765 -0.06492299 -0.038925186 0.029975725 -0.01920688
-0.27575874 0.103195556 0.18986131 0.058244858 -0.22571415 -0.004653391 0.03088339 0.00036699744
0.0058281524 0.023295768 -0.002717447 -0.008204779 -0.010224807 -0.0005295457 0.0034047652 0.0007186643
-0.012808026 0.010687333 -0.0063480823 -0.024193242 -0.004143821 0.005369234 0.008394554 0.014177261
-0.011715607 -0.0037429174 -0.01982108 0.016459273 -0.0030860875 0.0028660374 0.014012382 0.021022834
-0.011200154 -0.0065963627 0.0055718636 0.0056355814 -0.018265523 -0.027309164 0.0019516686 0.00619512
-0.0073414566 -0.0068491334 0.014128493 -0.010215714 0.025157012 -0.015329561 -0.0026126641 -0.08806923
0.070889056 -0.061321296 0.23568906 0.05997214 0.20285258 -0.28953266 0.3517984 0.15051243
-0.26211894 0.013250501 -0.064780295 -0.2315721 -0.05916021 -0.045920204 -0.0119598955 -0.056148585
-0.05421459 -0.24532926 0.1993817 0.03469561 0.16910602 0.07745655 -0.2469319 0.43361166

prop_layer._message_net.0.bias f4 [20]
00000000: 324d e43a e933 a9bc 7825 03be 6c44 563a
00000010: f7fb 33bd 683a f1b9 9951 80ba 0fcb b2ba
00000020: 57ac 7bbe 2045 75bb b639 2bbb fbd8 5b3d
00000030: acd0 c73d 83e2 7fbb ecbf 093d ff7b 36be
00000040: af5a dc3d 045e b73e 13a5 08bb b0cf 38bb
0.0017418026 -0.020654636 -0.12807262 0.0008173648 -0.043941464 -0.00046010618 -0.0009789943 -0.0013640838
-0.24577461 -0.0037425235 -0.0026126928 0.053673726 0.09756598 -0.0039044924 0.033630297 -0.17820738
0.10759484 0.35813916 -0.0020850345 -0.0028199963

prop_layer._reverse_message_net.0.weight f4 [20, 21]
00000000: 0aea 7dbc 570c afbc d55b aebb 66fb 0eba
00000010: 8ed2 63bc 9fb4 a63c 2291 a43b 8daa 7e3b
00000020: 35dd a1ba 7e0a a03b 6dc3 6bbc 3aa4 45bc
00000030: d60d a7bc 6662 3d3c 1bac 5b3c 42b2 823b
00000040: 614c 5c3c 9255 e8bc 89d4 0ebc 0198 92bb
00000050: e84d e43a f0cf 46bd 6e54 603e cb6b 4bbe
00000060: 51dc c53d ebc4 c13d 2ef3 bd3d b39f 6ebd
00000070: d5fb a23d 32a2 bbbc e0d2 7cbc caad aa3d
00000080: ada8 763d 646f 0cbe c616 d4bc a08a 703d
00000090: a151 093b fa96 dc3c 5aa6 eb3d c8e5 6a3d
000000a0: 235e f83d ace4 dcbc 5d0f dfbd b969 033f
000000b0: 9df5 f9be da0d bdbd 86a1 b4bd 989c 453e
000000c0: 82eb 9dbe cd84 3d3e d96c c9be 3375 bc3e
000000d0: 6336 6c3d 3964 7b3e 476b 2e3a 21ae 8b3d
000000e0: db40 883e 601b 203e 0c4d 073e f118 5d3e
000000f0: 052f c03e 4e5e f83d 2d12 16be b430 afbb
00000100: 5ff3 4bbc d8eb bb3a 9dc9 be39 159d 80bb
00000110: da5d 393a 6518 0b3c 4850 653b e602 073c
00000120: d107 70bb 165b 80bb dd41 623c 6479 383b
00000130: 4f20 caba bcd4 5d3c aaad aebb 18f8 a5bc
00000140: cfb7 b53b 7963 8fbb 7a61 d13a 0146 563a
00000150: 22e6 073e 5a35 ffbd 5a1e 31be 4a19 8ebe
00000160: fc09 94be 8890 d93e f4fa 99be 298d cfbd
00000170: f70e 0d3f e253 453d 1f44 a63d b5aa 85bd
00000180: af76 e13c 59a5 8b3e 65d6 5fbe 22a3 273e
00000190: e7f9 f6bc ee84 3dbb bfca 513c c212 633e
000001a0: 2080 f4bc def5 723c 4dae aa3b ca75 283c
000001b0: 592c 65bb ffca 88b9 17f6 acbc 721c 9b39
000001c0: 81d9 bf3a 4eea 563c 0ceb 7abb e270 b53c
000001d0: a538 f23c 5272 8d3c 859b 22bc 78a8 10bc
000001e0: fcd3 153b e90a 90bc 3a50 fc3c 4a78 40bc
000001f0: c9db 313c 9d45 f1b9 5628 b33c 145c 22ba
00000200: afcf 113c ba58 88bb 415d 5cbb 3ac4 c1bc
00000210: d037 e13a 7f13 923b b5a2 5d3c f014 0dbc
00000220: b1d5 d13c 7a35 0c3d b6a9 753c 5957 2dbc
00000230: ded3 6b3b c723 4f3b 95b2 adbc e0b8 043d
00000240: 283c 6fbc 4e2a a53c b950 80ba acfe c23c
00000250: 3c03 923d 7fa3 8fbb 7f1f a73d 09d3 f53d
00000260: f3cd a1bd 6ec6 d63d 1d64 cdbd 2334 0bbe
00000270: 883e 7b3c ae05 873b 4555 543d df2c 00be
00000280: 3b66 94bd 5181 cc3d 31f9 933b fe0c 843d
00000290: e4a5 313e b37e d93d 3b45 c9bc 9434 d8bb
000002a0: c640 f0be 292e 663d 3a76 f6be b28a 0b3d
000002b0: 82f3 b23e d16a a03d dd18 103e c1f5 2abf
000002c0: 975a d73d f45a d63d 5290 363e 9179 b13d
000002d0: 58f6 84bd 0470 1fbd a78f f53c bf57 9dbc
000002e0: 4030 8dbe 3158 d33d 016b 423e 2992 6e3d
000002f0: 9c21 67be 797b 98bb 2aff fc3c 9069 c039
00000300: 16fa be3b c4d6 be3c 3217 32bb 566d 06bc
00000310: f385 27bc 36d1 0aba 7b22 5f3b bf64 3c3a
00000320: c1d8 51bc ec19 2f3c 9303 d0bb e830 c6bc
00000330: e4c8 87bb 66f0 af3b 5089 093c be47 683c
00000340: d1f2 3fbc bc4b 75bb d15f a2bc 99d5 863c
00000350: f53f 4abb 21d4 3b3b 3194 653c 1438 ac3c
00000360: da80 37bc 4d26 d8bb 2e94 b63b afaa b83b
00000370: 94a1 95bc 78b7 dfbc 22cf ff3a 6f00 cb3b
00000380: 9a90 f0bb b26e e0bb 327b 673c cf5f 27bc
00000390: 1416 ce3c d728 7bbc 3b39 2bbb a45d b4bd
000003a0: 482e 913d 0a2c 7bbd 7958 713e 59a5 753d
000003b0: 96b8 4f3e a03d 94be eb1e b43e ee1f 1a3e
000003c0: 7434 86be a118 593c 88ab 84bd 3d21 6dbe
000003d0: fa51 72bd d316 3cbd 70f3 43bc 0ffc 65bd
000003e0: 1e10 5ebd 9837 7bbe b72a 4c3e fc1c 0e3d
000003f0: 212a 2d3e 8aa1 9e3d b7db 7cbe 5902 de3e
-0.015497694 -0.021368189 -0.005321006 -0.00054543314 -0.013905181 0.020349799 0.005022184 0.003885898
-0.001234925 0.0048840633 -0.014389855 -0.01206308 -0.02039234 0.011559105 0.013407732 0.003988535
0.0134459445 -0.028361116 -0.0087176645 -0.0044736867 0.0017418237 -0.04853815 0.21907207 -0.19865339
0.09661163 0.09461387 0.092748985 -0.05825777 0.079581894 -0.02290449 -0.015431136 0.08333929
0.060219456 -0.13714367 -0.025889765 0.058725953 0.0020953196 0.02692746 0.115063384 0.057348043
0.1212733 -0.026964508 -0.10891602 0.51333195 -0.488202 -0.092311576 -0.08819871 0.19298017
-0.3084374 0.1850769 -0.39340857 0.36808166 0.057669055 0.2454995 0.0006653559 0.06820322
0.2661198 0.15635443 0.13212985 0.21591546 0.37535873 0.12127362 -0.14655371 -0.005346382
-0.012448161 0.0014337255 0.00036389838 -0.0039249756 0.0007071175 0.008489703 0.0034990478 0.008240437
-0.0036625753 -0.0039171083 0.013809648 0.0028148526 -0.0015421006 0.013539489 -0.005330761 -0.020259902
0.0055455933 -0.0043758717 0.0015974485 0.00081738835 0.13271382 -0.12461348 -0.17296734 -0.2775367
-0.28913867 0.4249308 -0.30074275 -0.10134346 0.5510096 0.0481757 0.08118462 -0.065267004
0.027522413 0.27274588 -0.21859129 0.16370824 -0.03014846 -0.0028918344 0.012804686 0.22175124
-0.029846251 0.014829127 0.0052087666 0.010281989 -0.003496906 -0.00026091185 -0.021113439 0.00029585097
0.0014636965 0.013117386 -0.0038287072 0.022148553 0.029568026 0.017266426 -0.009924774 -0.008829229
0.0022861948 -0.017583327 0.030799974 -0.011747429 0.0108556235 -0.00046018968 0.02186982 -0.000619353
0.008899613 -0.0041609677 -0.003362492 -0.023653138 0.0017182771 0.0044578905 0.013527562 -0.008610949
0.025614591 0.034230687 0.0149940755 -0.010579907 0.0035984437 0.0031607018 -0.021203319 0.032402873
-0.014601745 0.020161774 -0.0009789682 0.023803078 0.07129523 -0.004383504 0.08160304 0.120031424
-0.0790061 0.10487066 -0.10028861 -0.13594107 0.015334733 0.00412055 0.05183913 -0.12517117
-0.072460614 0.09985603 0.00451579 0.064477906 0.17348439 0.10619869 -0.024569144 -0.0065980647
-0.46924418 0.056196366 -0.48137075 0.034067817 0.34951407 0.078328736 0.14071985 -0.6678124
0.105153255 0.10466567 0.17828491 0.08665765 -0.06492299 -0.038925186 0.029975725 -0.01920688
-0.27575874 0.103195556 0.18986131 0.058244858 -0.22571415 -0.004653391 0.03088339 0.00036699744
0.0058281524 0.023295768 -0.002717447 -0.008204779 -0.010224807 -0.0005295457 0.0034047652 0.0007186643
-0.012808026 0.010687333 -0.0063480823 -0.024193242 -0.004143821 0.005369234 0.008394554 0.014177261
-0.011715607 -0.0037429174 -0.01982108 0.016459273 -0.0030860875 0.0028660374 0.014012382 0.021022834
-0.011200154 -0.0065963627 0.0055718636 0.0056355814 -0.018265523 -0.027309164 0.0019516686 0.00619512
-0.0073414566 -0.0068491334 0.014128493 -0.010215714 0.025157012 -0.015329561 -0.0026126641 -0.08806923
0.070889056 -0.061321296 0.23568906 0.05997214 0.20285258 -0.28953266 0.3517984 0.15051243
-0.26211894 0.013250501 -0.064780295 -0.2315721 -0.05916021 -0.045920204 -0.0119598955 -0.056148585
-0.05421459 -0.24532926 0.1993817 0.03469561 0.16910602 0.07745655 -0.2469319 0.43361166

prop_layer._reverse_message_net.0.bias f4 [20]
00000000: 324d e43a e933 a9bc 7825 03be 6c44 563a
00000010: f7fb 33bd 683a f1b9 9951 80ba 0fcb b2ba
00000020: 57ac 7bbe 2045 75bb b639 2bbb fbd8 5b3d
00000030: acd0 c73d 83e2 7fbb ecbf 093d ff7b 36be
00000040: af5a dc3d 045e b73e 13a5 08bb b0cf 38bb
0.0017418026 -0.020654636 -0.12807262 0.0008173648 -0.043941464 -0.00046010618 -0.0009789943 -0.0013640838
-0.24577461 -0.0037425235 -0.0026126928 0.053673726 0.09756598 -0.0039044924 0.033630297 -0.17820738
0.10759484 0.35813916 -0.0020850345 -0.0028199963

prop_layer.GRU.weight_ih_l0 f4 [30, 20]
00000000: 6a97 85bb 26f4 653c d219 e93c 8d56 a13b
00000010: 3297 1dbc 54a3 dd3a 4770 8ab8 2832 1e3c
00000020: 2135 21bd 9667 0e3c 23f6 523b d0e4 2d3c
00000030: 3d7f af3c afab 733a f4dd b93d 7374 303d
00000040: 9a6e 5d3c e9de 87bd 1c90 16bb c325 123c
00000050: e6a6 d4bb 05bc 9f3a 556b 10be 84ed a93b
00000060: 4a57 2dbd bfc5 633b 27c3 5a3b fe64 963c
00000070: cbf4 bdbe 3d64 103c b47c 033c 0815 193e
00000080: f976 c63e 1881 2e3e 5df3 673e d942 c2be
00000090: 6001 633e fea2 5c3d 3a70 4cbb 0a12 5c3c
000000a0: 1ef4 4ebc b905 34bd 5f6c 12be 1d38 33bc
000000b0: f8d4 4bbd a655 4e3c 0b8b 0f3c 0c91 85bc
000000c0: cc52 6dbe e29c 463c cada 82bb f63a 0e3d
000000d0: 6768 203d a3f4 8d3d 60af 393e d443 d7bd
000000e0: d2c0 dc3d 5c4c ebbc c96b a13a 7313 9e3b
000000f0: 0ac2 023c 05a9 5dba 5472 123c 83f7 f5bb
00000100: 1724 553c 2808 22bc 0ebf 37bc 0458 223b
00000110: 97b8 85bc d7df c939 d6b3 143c be48 b83b
00000120: 4cd8 bdbb 1385 8cbb 3f25 3e3c 6e71 353d
00000130: 70fa 55bc 9876 50bd 5337 343b 4555 01bc
00000140: b69f b13b e355 85bb 5df4 ce3c c474 f639
00000150: 14db 733c f2a5 01bc 7442 00bc d6a6 af3b
00000160: 09cc a13a 03da ddba f9fc b3b8 a0d2 a3bc
00000170: 49d9 2a3d 5b34 2abd d134 c93c 2b48 f53c
00000180: cd30 18bd 6bf0 5dbd 56b2 6aba 26ea 52bb
00000190: 192d 823c 1f0a 493d 7948 ad3d 8898 6aba
000001a0: b2ff 3c3c cd42 2abc c810 8fbb 8893 e7bb
000001b0: d462 6bbd 0881 a4bc b98f 8cbb 9cf3 473d
000001c0: ab1e 9e3d b73f 2abd a107 8a3e 3430 8d3d
000001d0: 00ff 503d 80bc b9bd 9bbf 0cbc 6697 65bc
000001e0: fba4 da3b 76bd f4ba 3ad3 82bd 175e b83a
000001f0: abf4 723d ab89 0aba f7f9 e73a 13ee 91bc
00000200: 9bfc 3abe cce0 d3bb e584 9abb 7447 653d
00000210: aa1c 173e 9a00 ef3d f253 763e 9482 0fbe
00000220: f674 473e e288 37bd 335a b0bb 0937 c638
00000230: fde8 e7bc 7fd4 883d f49f 263e ab03 0b3c
00000240: 455d 4ebe 5562 f83c 9f9d f23c 366b 0c3e
00000250: ae95 c03d ce4c 313c 0560 5abc ee6f aebd
00000260: 3934 313c 1e88 4fbe 934f 0c3d b4c2 5c3e
00000270: aa7f 56be ba12 223e f321 de3b 12ab 893c
00000280: a251 45bc 9bae 66bb 8f9e 1fbc 5160 6eba
00000290: 6c2d 6b3d 39e8 4a3c 05ab 2b3c 03b7 aebc
000002a0: 109f f3bb 912e be3b 8c0d 0cb9 70a5 43ba
000002b0: 5980 d7bb 29d7 993c 087f fb3c ba1f 8f3d
000002c0: ca39 2abb 5e44 a8bd 4ee7 e93a 2d03 113c
000002d0: e102 ee3a afc3 183d ff42 513e 86b2 783c
000002e0: 929a 8b3d b999 0dbc 6ec6 1fbc c107 1b3d
000002f0: 37af 693e 1a1f 05b9 9f52 823c 7ff9 12bd
00000300: 286f 03bc d3e9 58be 010e 14be 4054 e03d
00000310: 984a 0dbe 2f26 593e 3b40 8d3c 3e66 f5b9
00000320: 4a1f 1cbc 9734 4b3d e197 b53d 7993 bf3c
00000330: a94e acbe 7768 b13c 3d25 d73c 5660 733c
00000340: 519e 003d d124 d7bb bdd5 b9bc 3a19 ae3d
00000350: 5df8 22bd 377d 07be 763a 2f3e ef9a 28bd
00000360: ac93 85be a938 1ebe 5c65 143a 2b40 693c
00000370: e0c6 523c 8b42 f6bc d6db 77bd 6976 64bb
00000380: 2ba0 84be 4023 16bc 76ed eabb e472 6d3d
00000390: da56 41be f66f 80bc 8a08 cbba 57d9 cabd
000003a0: ce25 91ba b339 0b3d 1320 e83e 4bdc 263e
000003b0: bf18 af3d cae1 e6bd 6818 e2bb 834f 5abc
000003c0: 1169 bcbc 6124 2abc 13c3 a5bd fae4 bfba
000003d0: 2db4 a3be 7968 603c e729 e33b 28ab 03bd
000003e0: 38cc 34bd fce7 de3c fb64 4bba d937 b03c
000003f0: d5de 1e3e d26e aa3e 3453 7c3e 37bb 883c
-0.004076888 0.01403526 0.028454695 0.0049236477 -0.009618567 0.0016909637 -6.601266e-05 0.009655513
-0.03935731 0.008691689 0.0032190166 0.010613635 0.021422977 0.0009295297 0.09075537 0.043079805
0.013515139 -0.066343136 -0.002297408 0.008920136 -0.0064896224 0.0012186771 -0.14103444 0.005185785
-0.042319573 0.0034755317 0.003338048 0.018358704 -0.37100825 0.008812961 0.008025337 0.14949429
0.38762644 0.17041433 0.2265143 -0.37941626 0.22168493 0.05386638 -0.0031194822 0.013432035
-0.012631444 -0.04395077 -0.14299153 -0.010938671 -0.04976365 0.012593662 0.008761178 -0.016304515
-0.23176116 0.012122365 -0.003993367 0.0347242 0.039162066 0.069314264 0.18133307 -0.10510984
0.10778965 -0.028722934 0.0012315448 0.004824096 0.007980833 -0.0008455667 0.008938391 -0.0075063123
0.013009093 -0.00988964 -0.011214985 0.00247717 -0.01632337 0.0003850448 0.009076079 0.005623906
-0.005793607 -0.0042883246 0.01160556 0.044297628 -0.013060197 -0.05089435 0.0027498796 -0.007893865
0.0054206504 -0.0040690764 0.025263006 0.00047007774 0.014883775 -0.0079131 -0.007828344 0.0053604646
0.0012344132 -0.0016925934 -8.582505e-05 -0.019997895 0.041711126 -0.041553836 0.024561318 0.029941639
-0.037155915 -0.05418436 -0.0008952966 -0.003218302 0.015890645 0.049081918 0.08461089 -0.00089491205
0.011535572 -0.010391903 -0.004366014 -0.0070671476 -0.057467297 -0.020081058 -0.004289594 0.04881631
0.07720693 -0.04156467 0.26958945 0.0689396 0.051024437 -0.09069157 -0.008590604 -0.014013147
0.0066724992 -0.0018672186 -0.063879445 0.0014066127 0.059315365 -0.00052847964 0.0017698397 -0.017813718
-0.18260424 -0.006466007 -0.0047155493 0.055976346 0.14757028 0.116700366 0.2405546 -0.14014655
0.19478211 -0.044808276 -0.0053818463 9.451627e-05 -0.02830934 0.066811554 0.16271955 0.008484761
-0.20152767 0.030320326 0.029616175 0.13712773 0.09403549 0.010821534 -0.013328557 -0.08517443
0.0108156735 -0.20266768 0.034255575 0.21558648 -0.20947137 0.15827456 0.0067789494 0.016805205
-0.012043389 -0.0035199288 -0.009742393 -0.0009093332 0.057416365 0.012384468 0.010477786 -0.021327501
-0.007434733 0.005803891 -0.00013356487 -0.0007463312 -0.0065765795 0.018779354 0.030700222 0.06988473
-0.0025974386 -0.08216165 0.0017845423 0.008850855 0.0018158817 0.037295993 0.20435713 0.015179282
0.06816591 -0.008642607 -0.009751899 0.03784919 0.22820745 -0.00012695455 0.015908537 -0.03588247
-0.008022107 -0.21182947 -0.14458467 0.109535694 -0.13797987 0.21205972 0.017242542 -0.00046806218
-0.009528944 0.0496107 0.08866859 0.02338575 -0.33653763 0.021656258 0.026262874 0.014854511
0.031400982 -0.006565668 -0.022684926 0.08500905 -0.03978764 -0.1323136 0.17112145 -0.04116338
-0.26089227 -0.15451302 0.00056608557 0.01423649 0.012864798 -0.030061027 -0.060512386 -0.0034860617
-0.25903448 -0.009163678 -0.007169421 0.057970896 -0.18880787 -0.015678387 -0.0015490216 -0.099047355
-0.0011073889 0.033990573 0.4533697 0.16294973 0.08549642 -0.112735346 -0.006899882 -0.013324621
-0.022999318 -0.01038465 -0.08093848 -0.0014640384 -0.319734 0.013696783 0.0069324854 -0.03214565
-0.04414007 0.027210228 -0.0007758883 0.021511005 0.15514691 0.33287674 0.24641114 0.016690833

prop_layer.GRU.weight_hh_l0 f4 [30, 10]
00000000: 0c19 343c 6134 a6ba 43b1 903c 2879 083d
00000010: c4cb 8d3c 986f d93c 2810 fb3c c3c6 8e3c
00000020: b23f 92bb 199b d93a cdbe 9a3c 42cb d73d
00000030: e46b 513c 7f5a 9f3c 540b 9a3e baba f03c
00000040: 66dd 8a3d 8bef 57be 443a 28bd 053e 37bd
00000050: 6b78 a2ba 42f3 10bc 614e 6b3d bb6f ffbb
00000060: fbd7 693c e106 613d 85aa a73c 9654 393c
00000070: efb6 93bc 31fe 06bd 51c1 b139 0085 273b
00000080: c1fe 243b 2790 483c ccf5 3abb 716a fe3b
00000090: 494e fdbb b0f6 9e3c 7486 82bb 279a 7cbc
000000a0: f78b de3b f544 9a3b d341 9e3a 9e9e 103d
000000b0: 1140 2f3d 0edc bc3c 49d2 ee3c 0f26 c93c
000000c0: 0572 c2bc 0838 a4bc 2a63 623d cfe2 e5bc
000000d0: 7f2f 9c3d 45e8 8a3b edac bd3d 45b4 643d
000000e0: cc67 16bd 0fa9 2d3d c54c 16bd 214f aabd
000000f0: 5ee3 9c3d b020 37bc e56f 8bbb 3ce9 76bd
00000100: cf02 533d f712 513e a7b6 1dbd 5975 043e
00000110: 9d9c 803c 60dc dcbc ca26 6d3c 4de8 453d
00000120: e4a3 0bbe a8a0 cf3c ddd3 b93d fc49 d63d
00000130: 108c 5d3d 8b8c cc3d f081 95bd 0c67 693d
00000140: 0a84 353b 1931 07bc 1363 d03b 8691 233c
00000150: dc7d dfbb 3371 2e3a b058 783c 92cd b33c
00000160: 10ad dabc acb7 0bbc 39ba f8bc e237 dd3d
00000170: 7014 b9bd dd4c 2f3d 7dbc f43d 4a1e d33c
00000180: 489d 123d 12b5 c8bd d11b 7bbd aece 313e
00000190: 48ae c7bd 6987 a3bc 5c2f 8ebd 40b0 fb3c
000001a0: f5dd 633c 7616 0ebe 9500 44bd 7214 2d3d
000001b0: 4f41 b5bd 7daa aabd 8b0b 1d3c 1079 c5bc
000001c0: ba5a 023d 2d3f 1a3e e189 dcbc f54a f7bc
000001d0: c540 3f3c 79ad c3bc ce5e 0eba 1fdb bdbd
000001e0: 9c2f c2bc 8fb5 ee3c 3989 bf3d d76d d7bd
000001f0: 3828 c03b 4c63 c2bc 763a bf3c f1fb 19bb
00000200: f6b9 d0bd 7de4 93bc c8a6 99bc d959 693e
00000210: a1cb 253d 7c7a 14bf 1249 33be c983 973d
00000220: f241 37be c5c0 183d 982b 2f3e 7eae c4bd
00000230: e7d9 8fbc 2327 f8bb 2cb3 b23d 88a6 813c
00000240: 4932 d13c cb42 68bd 88fe 2b3d 9101 f33c
00000250: fdc6 4bbd 5aa0 a7bd 3d24 0cbd 65a3 e43c
00000260: 1d6a c03d 3089 9fbd 9711 e1bc d1f6 cebd
00000270: 6fb6 cc3c 5ee5 8dbd 32d1 c73d e084 01bc
00000280: 6788 92bd 0b7e 79bd 92e4 7cbd 057c 11bd
00000290: 0b1c 3dbd 0202 ebbc e6c9 99bc 9cc2 9439
000002a0: f891 d5bd 3d64 d93d 39e8 8839 3fa6 1f3d
000002b0: a6c8 c7bc f7f9 be3d 6ea7 2dbd 8282 c7bb
000002c0: 7174 2fbd 6ad9 72bd 6d70 8c3d 913b a83c
000002d0: 03fe a33d 08fc 933d 7ca6 f63d e1eb 3b3e
000002e0: 1342 8d3d dfc7 8a3d 0e61 8c3d 0352 073e
000002f0: 21b9 00bd 560e d7bc d1ff 5f3d b94a bb3c
00000300: 1721 83bb 1834 bd3d 2095 623d 63f9 30bd
00000310: 272f 413e 9be7 81bc a69c e2bd 7fcb 043c
00000320: 3945 cebc 3f1e 073c 61f4 a5bb 7721 123e
00000330: af71 063d 154b 13bc 5733 813e 1834 83bd
00000340: 930d 0cbe 6c20 013e 9ffe 4cbe ec7b d63c
00000350: 9f88 aebe 2170 cdbe d03e 17be 2a33 cd3d
00000360: be74 eb3d cdae cbbe b7ff debd 5708 d13e
00000370: cc77 c23d 8db8 a5bd b443 733e 23f2 a13e
00000380: 6e61 b13d 2af2 833d ab68 413e 5cce 853e
00000390: 4d14 9d3c ff23 1fbd 5111 07bd b732 bcbd
000003a0: 512c 563d 7424 b63c 146a 6dbd 6509 3b3d
000003b0: c073 093e 5c01 d6bd 7fa5 723d ecc3 153d
000003c0: 7cd5 f1bc ce1f 123e 47e7 43bc 6344 b83c
000003d0: 4c2e d93d aa89 893c 68ea 153e b69d 423d
000003e0: 8de7 f7bd 6bd8 ab3d 3a6c 8fbd 8673 04be
000003f0: d211 61bd 5533 ecbe b222 9fbc 2d61 c93d
0.0109923 -0.0012680405 0.01766265 0.03331867 0.017309077 0.02654247 0.030647352 0.017428761
-0.0044631595 0.0016602009 0.018889809 0.10536815 0.012782071 0.019452332 0.30086768 0.029385913
0.0678051 -0.21087472 -0.04107119 -0.04473688 -0.0012395506 -0.00884706 0.057447795 -0.0077953017
0.014272685 0.0549382 0.020467052 0.011311671 -0.018031565 -0.03295726 0.00033904103 0.0025561452
0.002517626 0.0122414 -0.0028527854 0.0077641536 -0.0077302796 0.01940474 -0.003983313 -0.015417612
0.0067915875 0.0047079273 0.001207406 0.03530752 0.042785708 0.023054149 0.029153006 0.02455428
-0.02373601 -0.020046249 0.05527035 -0.028062252 0.07626247 0.0042391145 0.092614986 0.05583598
-0.036720082 0.042397555 -0.036694307 -0.08315874 0.07660554 -0.011177227 -0.004255282 -0.060281023
0.05151635 0.20417391 -0.03850427 0.1293539 0.015699679 -0.026960552 0.01447458 0.048317242
-0.13636738 0.025345162 0.09073613 0.1046333 0.054088652 0.09987744 -0.07300174 0.05698304
0.002769711 -0.008251452 0.006359467 0.009983426 -0.0068204235 0.0006654441 0.0151578635 0.02194861
-0.02669385 -0.0085276775 -0.030362235 0.108016744 -0.09037101 0.042797912 0.11950014 0.025771279
0.035794526 -0.098001614 -0.061305825 0.17363998 -0.097500384 -0.01996203 -0.06942627 0.030723691
0.013907899 -0.13875756 -0.047852118 0.042255826 -0.08850347 -0.08333299 0.009585272 -0.024105579
0.031824805 0.15063162 -0.026921215 -0.03018711 0.011673157 -0.02388643 -0.0005430997 -0.0927031
-0.023704343 0.029139308 0.09352345 -0.10518997 0.0058641694 -0.023728989 0.023343306 -0.0023496116
-0.10191719 -0.018053288 -0.018756285 0.2278818 0.0404774 -0.57999396 -0.17508343 0.07398183
-0.1789625 0.037293214 0.17106473 -0.09603594 -0.017559959 -0.007573025 0.087255806 0.015826479
0.025536673 -0.056704324 0.041990787 0.029663833 -0.049750317 -0.081848815 -0.034214247 0.027909944
0.093952395 -0.07789838 -0.027474208 -0.1010567 0.024989335 -0.06928514 0.09756698 -0.007905215
-0.07154923 -0.06091122 -0.06174142 -0.035518665 -0.046169322 -0.02868748 -0.01877303 0.00028373755
-0.10428232 0.10614822 0.0002611296 0.038976904 -0.024387669 0.09325021 -0.042396 -0.006088556
-0.042835657 -0.059289373 0.06857381 0.020536216 0.08007433 0.072258055 0.12043473 0.183517
0.06897368 0.06776404 0.06854449 0.13214879 -0.031426553 -0.026251953 0.054687325 0.022862779
-0.0040017474 0.09238452 0.055317998 -0.043206584 0.18865643 -0.015857508 -0.110650346 0.008105158
-0.025179492 0.008246957 -0.0050645326 0.14270578 0.03282326 -0.008990069 0.25234482 -0.064064205
-0.13677053 0.12610024 -0.20019005 0.026182137 -0.3408861 -0.4012461 -0.14770055 0.100195244
0.11496876 -0.397818 -0.108886175 0.40826675 0.09495506 -0.08091841 0.23756295 0.31630048
0.08661161 0.064426735 0.18887584 0.26134002 0.01917472 -0.038852688 -0.0329755 -0.091893606
0.052288357 0.02223418 -0.057962492 0.045663256 0.13423061 -0.10449478 0.05923986 0.0365638
-0.029520743 0.14269945 -0.011956996 0.022493547 0.106045336 0.016789276 0.146402 0.047513686
-0.12104712 0.08390888 -0.070030645 -0.12934694 -0.054948635 -0.46132913 -0.019425724 0.09832988

prop_layer.GRU.bias_ih_l0 f4 [30]
00000000: 89ef 033d 1b3f 853e 3e04 003e 5ad0 713b
00000010: e082 e43b 5cc5 5d3e 47b2 563e 812c c13d
00000020: 6998 af3c e360 d93c 8bb2 5cbc 5e60 16be
00000030: 5634 a6bc de34 803e 1af7 16bb 0c9f 24be
00000040: dc86 c0bd b2db 31be 9842 ea3c 2134 cfbc
00000050: af28 1ebe 4975 133f cc04 05be 6291 79be
00000060: 6ab8 7c3e 2e2a 5a3f 9117 16bf ee45 a63e
00000070: 54ac 0cbf 738e c5bd
0.03221086 0.26024708 0.12501618 0.003689787 0.0069736093 0.21657318 0.20966445 0.094323166
0.02143498 0.026535457 -0.013470302 -0.14685199 -0.020288628 0.25040334 -0.0023035468 -0.16076297
-0.094007224 -0.17368963 0.028596207 -0.025293412 -0.15445207 0.5760084 -0.12990111 -0.24371865
0.24679723 0.8522061 -0.5862971 0.32475227 -0.5495045 -0.09646311

prop_layer.GRU.bias_hh_l0 f4 [30]
00000000: 89ef 033d fe3c 853e 3e04 003e 5ad0 713b
00000010: e082 e43b faf9 5d3e 4fb1 563e 8f2c c13d
00000020: 7299 af3c ec60 d93c 2c6a 5abc 3960 16be
00000030: 1573 b4bc d2e3 883e f1f9 16bb b3ca 24be
00000040: 43f6 bfbd b2db 31be 92de cf3c 2865 cfbc
00000050: a1e4 283c b083 ee3e 939b 9b3c 5e8d 5cbd
00000060: 7d82 923d 470b cb3e bafa 8ebe ac5a 1d3d
00000070: 1349 4ebe f2f9 20bd
0.03221086 0.26023096 0.12501618 0.003689787 0.0069736093 0.2167739 0.20966075 0.09432327
0.021435473 0.026535474 -0.013330977 -0.14685144 -0.022027532 0.26736313 -0.002303716 -0.16092949
-0.093731426 -0.17368963 0.025374684 -0.02531679 0.010308416 0.46584845 0.018995082 -0.053845756
0.07153795 0.3965704 -0.27925664 0.03841655 -0.20145063 -0.039300866

interaction_layer.0.weight f4 [20, 20]
00000000: b15e c0be e767 263b ee28 13be 9bd4 20be
00000010: 24ba 1c3e 0313 063f 0c43 96bd e644 683e
00000020: 3a80 4d3c fa8d 0d3e 55ab c9bd fd8d 8abd
00000030: 11a8 97bd 3101 c33d c4bd 02bf 0935 49bf
00000040: f59e 323d 00e4 5abe 95ee 79be 4937 6bbd
00000050: 0bd5 223e ff5e 0ebd 599b 9dbd 71a3 383e
00000060: f3f8 aebe 4d0c 69be 73fe 1e3e 3c74 903c
00000070: fe8c 10be c307 3b3e 375b debd 12a0 c13d
00000080: ab6b 963d c2ff 11be ad05 423e 7df9 0b3e
00000090: 1dca 7d3e 1d96 22be c169 ef3e eaba 0d3e
000000a0: 728e 36bc d4fd 5ebe 461f 24be b41d 86be
000000b0: 67c8 e6bc f6bc 4bbe 6538 633d 6aa0 e7bd
000000c0: 5d40 02be ba52 a4be 3886 bd3d 9c95 fdbd
000000d0: a8c4 9abc f14c f93e 41db bc3c 9def c13b
000000e0: 384e e5bd 5a50 113e 44b8 173e 07ba f8bd
000000f0: cc7f 3e3e 2ede 863e 5ab0 2dbd a631 06be
00000100: c505 78be ccf8 523e 3d76 8d3e 70d6 fe3d
00000110: 37f6 073d 9d67 79be 5003 3cbe e211 a0be
00000120: a4de 893e 617e 41bd fe7c 683e 90e3 c0be
00000130: e0b0 c0bc 9d93 52be 83ee 03be 6449 133e
00000140: 8781 1c3d 4ba4 ab3d 9812 403e d59f 2d3e
00000150: 772d 35bd 128b 14be cbc8 8a3d 96cb 183e
00000160: c32c 083e c086 31be 73dd ba3d 2bc5 fe3d
00000170: 24bc 563d b353 323e 9686 9fbc 4d2a b3be
00000180: d510 c3be c70e b83d 059f c63b 4fcb c23d
00000190: 1ead fabc 0785 99be 0227 543d 203a f83e
000001a0: a58b 76be ca90 a43e d8ec c7be e102 4c3e
000001b0: b6bf 693e 0135 2a3e b1fe a53e d40f ec3d
000001c0: 1ed6 f73d 2be9 bb3c f442 733d 5b6b 7fbe
000001d0: 9b84 423e 1445 683e f387 073f ea33 f0bd
000001e0: b900 debd f479 17bf 3c72 edbd d102 3fbe
000001f0: dbc9 2a3d eae3 c1bd 02c4 0cbe fb12 d8bc
00000200: f578 2cbe de0e 91bc ad1e 6a3e ca3c 053f
00000210: d9aa 4f3e 92c3 ac3e f1c8 17be 5f02 5c3e
00000220: aaf3 4d3e 2222 2b3e f633 bebd 9c25 bc3d
00000230: a812 5b3e fd7e d0bd 7998 463e 187b b93d
00000240: c3f4 c33d ba5e 08bf 5544 b1bd 9c47 d8bd
00000250: 534b 103f 70a4 5bbe 3443 843e 00ef 93bd
00000260: e3e1 733e 0735 1cbe f6a6 4c3d 9b53 b5be
00000270: c13f 613e 942a 473d c925 d03e 1065 a6be
00000280: de23 adbd 369e d4be b407 3d3e 88e7 4f3e
00000290: adf6 a9be 4698 51bd 54d7 1b3f cc49 79be
000002a0: 84bd bb3e 37ed 893e b659 25be 8603 563e
000002b0: bb4e 693d d177 0abe 26d6 6fbd 3c8e 433d
000002c0: 6a82 ea3d 2eb7 023e d2ec fe3d d195 0f3e
000002d0: 45ce 53b1 58d4 d8ac 5282 00aa 5b44 f930
000002e0: 76be 1e2a 0573 9bab 4107 b6b1 20fd b6ac
000002f0: d04e bfb3 0821 c3a8 0b8f 2030 9a76 83a7
00000300: 2506 422d c15e a32c b9a3 4026 18d0 9e28
00000310: f78a 24b2 9669 39ab 9511 71b3 ff22 1923
00000320: f743 f1bd fd4d db3c a59f 893d 2e2a ebbe
00000330: 7e4a 16be 3749 7b3e 6b06 253a 0a05 dcbd
00000340: 3121 3c3d c5d1 bb3d 61e4 123e 410c ffbc
00000350: cd86 873e 8f1b b4bd fb21 08bd ed95 9fbe
00000360: cf38 123f 745e 88bd ca3b 183f 3e24 933d
00000370: 651b 0080 651b 0000 051c 0000 8d1b 0080
00000380: 8c1b 0080 8f1b 0080 8d1b 0080 e81d 0000
00000390: 093d 808a 4b1e 0080 8b1b 0080 9e1b 0080
000003a0: 751b 0080 5a1b 0000 891b 0000 5d1b 0080
000003b0: 981b 0080 801b 0080 631b 0080 8c1b 0000
000003c0: 3452 9ab8 8c8b 5eba fceb 0439 0094 e1ba
000003d0: f0c4 07b9 c09c 0dba 68c1 b6ba d976 52ba
000003e0: 28d2 60bb 9ee0 2a3a c733 ffb8 a55c d0b9
000003f0: dc6b 86b9 ab37 c6b9 07e6 ba38 8dac 35ba
-0.37572244 0.002539152 -0.14371082 -0.15706103 0.15305382 0.5237276 -0.07337007 0.22682533
0.012542779 0.13823691 -0.09847132 -0.06765363 -0.07405103 0.095217116 -0.5107081 -0.7859655
0.043608624 -0.21376038 -0.24407418 -0.05742577 0.15901582 -0.034758564 -0.07695646 0.18031098
-0.34174308 -0.22758599 0.15526752 0.01763355 -0.14116284 0.1826468 -0.108572416 0.09454359
0.07344755 -0.1425772 0.18947478 0.13669391 0.24784131 -0.15877576 0.4676037 0.13840833
-0.01114236 -0.21776515 -0.16027555 -0.26194537 -0.028171731 -0.19896302 0.055473704 -0.113098934
-0.12719865 -0.32094365 0.09254116 -0.12382051 -0.018892601 0.48691514 0.023053767 0.0059184567
-0.1119656 0.14190808 0.14816386 -0.12144857 0.18603438 0.26341385 -0.04240451 -0.13104877
-0.24220951 0.20602721 0.2762927 0.124432445 0.033193793 -0.24355932 -0.18360639 -0.31263644
0.26927674 -0.047239665 0.2270393 -0.37673616 -0.02352184 -0.20564122 -0.12883954 0.14383465
0.038209464 0.08380946 0.18757093 0.16955502 -0.04423281 -0.14506176 0.067765795 0.14921412
0.13298325 -0.1733656 0.09124269 0.124399506 0.05242552 0.17414741 -0.019473355 -0.3499321
-0.3809878 0.089871936 0.006061437 0.09511434 -0.030600127 -0.29984304 0.051795013 0.48481846
-0.24076708 0.32141715 -0.39047885 0.19922973 0.22827038 0.16621782 0.32420877 0.115264565
0.121013865 0.022938332 0.059390023 -0.24943297 0.18995897 0.22682601 0.5294182 -0.11728652
-0.108399816 -0.5917046 -0.11594054 -0.18653418 0.04169641 -0.09467299 -0.13746646 -0.026376238
-0.16843016 -0.017707285 0.22863264 0.5204588 0.20280017 0.33742958 -0.14822747 0.2148528
0.20112482 0.1671224 -0.092872545 0.09186861 0.21393836 -0.10180471 0.19394101 0.090566814
0.09568169 -0.5326954 -0.086556114 -0.105605334 0.56364936 -0.21449447 0.25832522 -0.0722332
0.23816638 -0.15254603 0.049963914 -0.35415348 0.21996976 0.04862459 0.40653828 -0.3249898
-0.08454107 -0.41526955 0.1845997 0.20303166 -0.3319601 -0.05117061 0.6087544 -0.24344558
0.36668026 0.26938793 -0.16147503 0.20899782 0.05695985 -0.13522269 -0.058553837 0.047743067
0.11450656 0.1276519 0.12447514 0.14021994 -3.0821792e-09 -6.162664e-12 -1.1413898e-13 1.8136562e-09
1.4099298e-13 -1.1045337e-12 -5.297722e-09 -5.2008536e-12 -8.9084665e-08 -2.1663674e-14 5.8410937e-10 -3.6488392e-15
1.1028988e-11 4.6432584e-12 6.6835267e-16 1.763177e-14 -9.577653e-09 -6.5871733e-13 -5.6128176e-08 8.301557e-18
-0.117805414 0.026770586 0.06719903 -0.45930618 -0.14676854 0.24539648 0.0006295207 -0.107431486
0.04593009 0.0917087 0.14344932 -0.031133773 0.26470032 -0.08794319 -0.03323553 -0.31169072
0.57117933 -0.066586405 0.5946623 0.07184647 -9.827e-42 9.827e-42 1.0052e-41 -9.883e-42
-9.882e-42 -9.886e-42 -9.883e-42 1.0728e-41 -1.234891e-32 -1.0867e-41 -9.88e-42 -9.907e-42
-9.85e-42 9.812e-42 9.878e-42 -9.816e-42 -9.899e-42 -9.865e-42 -9.825e-42 9.882e-42
-7.358604e-05 -0.0008489422 0.00012676412 -0.0017210245 -0.00012947968 -0.0005402081 -0.0013943138 -0.0008028574
-0.003430495 0.0006518456 -0.00012168992 -0.00039741877 -0.00025638833 -0.0003780698 8.912017e-05 -0.0006930314

interaction_layer.0.bias f4 [20]
00000000: 65c2 053e b77e 50be 1e4a 8bbe 4e96 05bd
00000010: 8c8a a8bb 5e68 8c3d e6ad 8b3e 6a74 4d3b
00000020: 4629 563e 2d3b 56b6 d57f 433e 0c4c 9c9b
00000030: 5505 7abb 5e14 503e b5c7 5d3d 6952 0a3e
00000040: e5cc f93d a5ce 133d 51a6 53be a86b 0fbe
0.13062437 -0.20360838 -0.27204984 -0.032614045 -0.005143469 0.06855844 0.2728111 0.0031349906
0.20914182 -3.192293e-06 0.19091733 -2.585718e-22 -0.003815015 0.2032027 0.054145534 0.13508
0.12197284 0.036085743 -0.20668913 -0.14005911

interaction_layer.2.weight f4 [10, 20]
00000000: 013f 3ebf d783 9c3e f01e 9abe 0a02 063e
00000010: 8a48 1ebe 285d 343e edee 82bd 4962 3cbe
00000020: a866 f0bd add1 1535 e511 19be 11b2 2e06
00000030: 3cb8 6fb9 6a91 ec3d f9d9 cdbd c0f7 65ba
00000040: 1eb7 943d d708 52bd 3dd9 a3ba eb37 88bc
00000050: 7e37 86be 8839 213e 323c a2bd d238 07bf
00000060: e26f 973e 7627 863e 7811 b3be 6c7e 613d
00000070: ed83 b03e 3314 fd36 68f9 b9bc 082e 171d
00000080: aba6 e83a 6c22 a1bd efde 29be 637c 3dbe
00000090: 8df1 7bbe a1fd db3d fcbf 86be 522a ac3e
000000a0: bc34 8bbd dbf2 36be 9a22 45be 002f fc3b
000000b0: 3e65 4bbe a4b3 e53e d692 cfbd 3545 8e3e
000000c0: 4062 c8be b374 6135 5513 19bf 52ec 8781
000000d0: 4db1 053b 0bf0 a43e dee6 85be 4efb 633e
000000e0: 1a7a 863e 4a67 9dbe ea87 a73e a2dd c5bd
000000f0: 95e8 b83e 4197 d1bd dbd3 ac3e 022a 893e
00000100: d48d b9be 1f51 02bf 8b81 283d b741 1cbf
00000110: fa66 c63d 6e1a c6b5 887b 22bf 12a3 dc12
00000120: f504 b2ba fd0e 8b3d adf7 a2bd 94a1 3a3e
00000130: 4c9f b5be 9288 24be 62f5 863e f6db 873d
00000140: e83a d63e 681b 513e c787 65bd 056d e2bc
00000150: 3b5a 8f3d 26b0 533e 5182 cb3e 861f 83be
00000160: 167d ce3e f3b4 1136 eaf1 7bbe ed88 d703
00000170: 267a b839 7c8d 31bd 4f1f edbe 0556 753e
00000180: 43e7 90be c9f9 533e cdd9 583e 453e 313e
00000190: 0bf0 85be d5da 95be e9a8 023c 1e22 70bd
000001a0: 6602 ca3c 2f8c 863d 7f96 88be 6a14 e5be
000001b0: 3433 b83c 7c46 94b3 a63e 463d c5df fd0e
000001c0: faa4 11bb 3c44 0abe e96a 3f3e 5fd0 303e
000001d0: a29d 36bd 4145 893e 85b9 a6be fb1e ccbe
000001e0: f1b0 b53e bd5c 64bd 9171 3bbc 0c4d f03d
000001f0: 2f49 dfbd 3c45 c2be faff 07be be66 9d3d
00000200: 79f3 88be 9592 2aad 817a 9d3e 71a0 2905
00000210: 5460 1a3a ef73 f93e ccd7 19bf 6f36 113e
00000220: a4a4 9ebe 2db0 2c3e 5fa9 033e a1d2 043e
00000230: 880c 613e 6232 0dbd 2033 a9bc ce1b 80be
00000240: de92 3fbd 2eee dd3e ab8e 3d3d 5630 09bf
00000250: 5cb1 cfbe df43 ebb5 7c93 b3bd fdd0 0887
00000260: c8b3 19ba 68cc 893c e92f 23be 8a45 ebbe
00000270: 027e 043e 0845 dabd 66cb 7dbc e5c9 173c
00000280: 6357 0dbe 002d 153e f6ac e33e 41b3 5abe
00000290: 961b 8c3c 8ca1 9f3e 03c6 3f3c cd71 59be
000002a0: 5b4c 8cbe b9c2 c5b1 eaaf 873e bd3c 1780
000002b0: 8073 9b39 0a40 ddbe e9aa 0a3e 1e54 4a3f
000002c0: 467c 2fbd 9a68 11be fcb2 54be 23e0 a63d
000002d0: c85e 973e 66b5 c83e 0366 dbbd 2bd8 05be
000002e0: 900d dfbc 71ca 51be 6368 18bf a0bd 883c
000002f0: 2086 bd3e 44c7 2132 6f44 713e 731b 0000
00000300: 5c3f f3b9 9a2b 823e 0d31 023b 48c3 a9be
00000310: 2450 5a3d 38a1 bdbe 30bf 34be 5125 1dbe
-0.74314886 0.30569336 -0.30101728 0.13086715 -0.15457359 0.17613661 -0.06393228 -0.18396868
-0.1173833 5.5811944e-07 -0.14948232 3.2856585e-35 -0.00022861449 0.11551173 -0.100513406 -0.00087725744
0.07261489 -0.05127796 -0.0012500655 -0.016628226 -0.26214212 0.15744603 -0.079216376 -0.52821076
0.29577547 0.2620198 -0.34974265 0.055052206 0.3447565 7.542339e-06 -0.022701934 2.0008481e-21
0.0017749866 -0.078678936 -0.16588949 -0.18504481 -0.24603863 0.10741735 -0.26318347 0.33626038
-0.06797168 -0.1786608 -0.1925148 0.0076960325 -0.1986284 0.44863617 -0.101354286 0.27787176
-0.3913746 8.398885e-07 -0.59795123 -4.993027e-38 0.002039987 0.32214388 -0.261527 0.22263834
0.2626503 -0.30742866 0.32720882 -0.09661414 0.36114946 -0.102339275 0.33755383 0.26789862
-0.3624102 -0.5090503 0.041139167 -0.6103777 0.0968761 -1.4759842e-06 -0.63469744 1.3924152e-27
-0.00135818 0.06789968 -0.07957397 0.182257 -0.35473096 -0.16067722 0.26359087 0.06633751
0.41841817 0.20420611 -0.05603769 -0.027639875 0.06999632 0.20672664 0.3974786 -0.25609988
0.40329808 2.171201e-06 -0.24604002 1.2668001e-36 0.00035186223 -0.04334782 -0.4631295 0.23958595
-0.2830144 0.20700754 0.21176834 0.1730891 -0.261597 -0.29268518 0.007974842 -0.058626287
0.024659347 0.06569707 -0.2667732 -0.44742137 0.022485353 -6.904608e-08 0.04839959 6.2584798e-30
-0.0022223578 -0.13502592 0.18693127 0.17266987 -0.044583924 0.2681065 -0.32563415 -0.39867386
0.35486558 -0.055752505 -0.011440651 0.117334455 -0.109026305 -0.37943447 -0.13281241 0.07685612
-0.26748255 -9.695929e-12 0.30757526 7.97581e-36 0.0005888988 0.48721263 -0.60094905 0.14180921
-0.30984986 0.1686408 0.12857579 0.12970974 0.21977437 -0.034471877 -0.020654261 -0.25021213
-0.046770923 0.4334578 0.046278637 -0.5358938 -0.40565002 -1.7528617e-06 -0.08768365 -1.0292919e-34
-0.00058632763 0.016821101 -0.15936245 -0.45951492 0.12938693 -0.10657698 -0.0154903885 0.009264444
-0.13802867 0.14567947 0.44467896 -0.21357442 0.017102998 0.31177938 0.0117049245 -0.21234818
-0.27402005 -5.755592e-09 0.265014 -2.134005e-39 0.00029649958 -0.4321292 0.1354176 0.790346
-0.042843126 -0.14200059 -0.20771402 0.081482194 0.295645 0.39200896 -0.107128166 -0.13070743
-0.027228147 -0.20487382 -0.5953428 0.016691983 0.37016392 9.416741e-09 0.23561262 9.847e-42
-0.00046395778 0.2542389 0.0019865662 -0.331568 0.053299084 -0.37037063 -0.17651057 -0.15346266

interaction_layer.2.bias f4 [10]
00000000: 343b 5c3e 34b5 0dbe d5c8 5e3d d0d4 f63c
00000010: c2c7 803e 9d2f a13e 2328 943e 4538 b63e
00000020: 0cd1 67be 4799 a9bd
0.21506959 -0.13838655 0.054390747 0.030130774 0.25152403 0.3148164 0.28936872 0.35589805
-0.22638339 -0.082811885

scoring_alignment_preprocessor.0.weight f4 [16, 10]
00000000: 3162 cfbb f13a 8abb 7933 0a3b 00cf 4e3c
00000010: 78e9 843c 3c41 b53b 9ff6 473b b446 28bc
00000020: 4897 02bc c3ce d93a 49f2 eab2 60d8 0835
00000030: b249 7835 c514 e534 2d05 4cb4 03ea 1bb4
00000040: d224 2135 4dd7 c133 4d86 00b5 c95b 3ab4
00000050: c348 303e f9c3 2d3e 3233 acbd de02 fabc
00000060: 40d0 e3bb 1b8b d93c fa0c ef3e c281 e9be
00000070: 7226 323e 0f82 e93e a4cf d53e 613e 9f3d
00000080: 16d1 d93d 9179 42be f002 b9be 7761 8ebe
00000090: 6ba9 ebbd f773 63be 2f82 a9bd 3a46 c23e
000000a0: e057 afbe dcf5 bf3e 3879 f1bc 24af 6fbe
000000b0: cd95 bfbc e743 b13e 7db6 59bd 6a6f d1be
000000c0: a3ec 363d 78ed 153c 810f ff3c e025 693e
000000d0: 06d3 39be 4f9d 55be 1475 11bf 93bf b53e
000000e0: 3977 403e ba2c c93e f388 a63e fb0c 583e
000000f0: 21ae 87be ad6d a5bd 8271 7d3c ec77 aa3d
00000100: 909d ad3d 5cb0 bd3e 44e9 3ebe b0bc 843d
00000110: 24bd 4fb9 39ff f8be b6b9 cfbd cd6b a23d
00000120: d7a8 823e 8e44 fcbd a9bc 553e b95a 4d3e
00000130: b40d bdbd ab76 c9be 1d18 0ebe 766f b13c
00000140: e296 e43d 1488 8cbd 6b68 4cbe 3953 a2bc
00000150: 448f c6bd 5aaf a43d b472 243f a92f ec3d
00000160: ccbd ab3e 0ac7 273d 0a38 913d f985 b7be
00000170: a9bb 943d fa6f 9e3d 315f 34be 4977 91be
00000180: efe0 37bd 4d61 11bc 36a3 40bb 5159 203e
00000190: 3e39 e33e 9763 2e3d 96e5 74be a9b6 e9bd
000001a0: faf8 07be 3aec 9cbb 0ae0 e8be 570c 293e
000001b0: 583c b9be a702 703d fe6e 893e 1adc 9f3e
000001c0: 7605 e73c 0e0e 63be 8233 b1be 5cf2 f33d
000001d0: 5e28 95be 999f 05bd 4de6 36be 1df1 58bd
000001e0: a314 f8ae b090 ccaa 1877 1031 fcf1 f52e
000001f0: 34a0 b8ac 4c77 5230 3825 9cb3 e66c 62b2
00000200: 0ded 38b5 972a 632e 1a87 203e d844 d0be
00000210: 7153 79be fc19 0b3e 2afe 6a3d 1c6e bebe
00000220: 0df2 d13e e7cf 323e 01d5 103f 83b0 eabd
00000230: fb2c 8e29 ae6b 2ca0 3939 ce9e ec0c fe12
00000240: 0f61 0218 fcc8 299f e32d 5ba9 eaa4 42a0
00000250: 2d51 9aae 9dec e618 e664 47be b1c9 103d
00000260: b44f 9f3b 5aa9 59be 92be 273e 5152 b73e
00000270: 5877 173f 613c 1bbe 4413 c83e 3ae2 9e3d
-0.006328844 -0.004218452 0.002108781 0.012622595 0.016224608 0.005531458 0.0030511988 -0.010270763
-0.007970639 0.0016617406 -2.7351364e-08 5.0978815e-07 9.249444e-07 4.2669686e-07 -1.9000863e-07 -1.4520633e-07
6.0030754e-07 9.026426e-08 -4.787915e-07 -1.7355991e-07 0.17215256 0.16969289 -0.08408202 -0.030518945
-0.0069523156 0.026555588 0.46689588 -0.4560681 0.17397478 0.4560704 0.4175998 0.0777557
0.10635583 -0.18991686 -0.36135054 -0.27808735 -0.11506923 -0.22212206 -0.08276784 0.37944204
-0.3424673 0.37492263 -0.029476747 -0.23406655 -0.02338686 0.34622118 -0.05315255 -0.40905315
0.044659268 0.009150855 0.031135323 0.22768354 -0.18146905 -0.2086079 -0.5681927 0.35497722
0.1879548 0.39291936 0.3252636 0.21098702 -0.26500037 -0.080775596 0.015468957 0.083236545
0.08477318 0.37048614 -0.18643671 0.06481302 -0.00019811519 -0.4863222 -0.101428434 0.079307176
0.2551944 -0.12317763 0.2087275 0.20054139 -0.09231129 -0.3934835 -0.13876386 0.021659594
0.11161591 -0.06861892 -0.19961707 -0.019815074 -0.096952945 0.08041258 0.64237523 0.11532528
0.3354324 0.040961303 0.07090767 -0.358444 0.07262356 0.077362016 -0.17614438 -0.2841132
-0.044892248 -0.008873296 -0.0029394156 0.15659072 0.4437961 0.042575445 -0.23915705 -0.11411793
-0.13278571 -0.0047889026 -0.45483428 0.16508614 -0.3617885 0.05859628 0.26842493 0.31222612
0.028200846 -0.2217333 -0.3460961 0.11911461 -0.2913236 -0.032622907 -0.1786129 -0.05296432
-1.12814e-10 -3.6338077e-13 2.1022455e-09 1.1184295e-10 -5.2473807e-12 7.6567086e-10 -7.271086e-08 -1.3179692e-08
-6.8890296e-07 5.165165e-11 0.15676537 -0.40677524 -0.24348237 0.13584131 0.057371296 -0.37193382
0.41004983 0.17462121 0.5657502 -0.11459448 6.3138696e-14 -1.4604595e-19 -2.1834765e-20 1.6032839e-27
1.6851108e-24 -3.5953392e-20 -4.866757e-14 -1.6487005e-19 -7.017529e-11 5.9692525e-24 -0.19472083 0.035348598
0.0048617963 -0.21256009 0.1638129 0.3580499 0.5916648 -0.15159751 0.39077199 0.07757993

scoring_alignment_preprocessor.0.bias f4 [16]
00000000: 5f2d 71bc 1c4f 70b5 43d4 243e 6195 463e
00000010: 3090 f43d 9f61 843e d9da 723e eec9 f83d
00000020: 5b9f 63bd 97ab 15bc 9ece ea3d 78e3 393e
00000030: 35f0 2cb7 307c 2d3d 3bc9 44b1 5144 993d
-0.01472029 -8.9522086e-07 0.16096596 0.19392921 0.11941564 0.2585573 0.23716296 0.1214789
-0.055571895 -0.0091351485 0.1146519 0.18153179 -1.03079265e-05 0.042354763 -2.863614e-09 0.074837334
