paper_artifacts/collection/edge_early_interaction_1_pre_T=4_K=5/trained_models/edge_early_interaction_1_pre_T=4_K=5_mutag_large_dataset_seed_7762_2024-05-19_08:51:11.pth (torch, 25641 bytes, 20 tensors)

encoder.MLP1.0.weight f4 [10, 1]
-0.025173984 -0.015591008 0.07342436 0.03818614 -0.034583952 0.08325662 0.49937946 0.507784
0.033532966 -0.013302983
00000000: ac39 cebc 6d71 7fbc 835f 963d 1269 1c3d
00000010: e7a7 0dbd 7282 aa3d aaae ff3e 22fe 013f
00000020: dd59 093d c1f4 59bc

encoder.MLP1.0.bias f4 [10]
-0.02516331 -0.015591146 0.07342427 0.038186137 -0.034584932 0.08378827 0.5006 0.50257224
0.033530053 -0.013302471
00000000: 4923 cebc 0272 7fbc 775f 963d 1169 1c3d
00000010: eea8 0dbd 2f99 ab3d 5227 003f 93a8 003f
00000020: cf56 093d 9bf2 59bc

encoder.MLP2.0.weight f4 [20, 1]
-0.00020379253 0.023152255 0.022383975 0.0012391638 -0.0070210905 0.016896622 -0.0037722886 0.005506669
-0.0059478437 0.0041474444 0.028424509 0.013339053 0.0044274684 0.0027477036 0.009332231 0.011722203
-0.012681848 0.008145794 -8.948298e-06 0.016041685
00000000: 24b1 55b9 cca9 bd3c 995e b73c 706b a23a
00000010: 2d11 e6bb c96a 8a3c 8038 77bb 4a71 b43b
00000020: 21e6 c2bb 49e7 873b 84da e83c 0b8c 5a3c
00000030: 4c14 913b d112 343b 37e6 183c 7c0e 403c
00000040: 87c7 4fbc f075 053c a620 16b7 da69 833c

encoder.MLP2.0.bias f4 [20]
-0.00020381175 0.023152212 0.02238399 0.0012391644 -0.0070210844 0.016896643 -0.0037723258 0.005506658
-0.00594783 0.004147431 0.028424544 0.013339054 0.004427466 0.0027476952 0.009332236 0.011722195
-0.012681839 0.00814579 -8.943815e-06 0.016041653
00000000: 4db6 55b9 b5a9 bd3c a15e b73c 756b a23a
00000010: 2011 e6bb d46a 8a3c 2039 77bb 3271 b43b
00000020: 04e6 c2bb 2ce7 873b 97da e83c 0c8c 5a3c
00000030: 4714 913b ad12 343b 3ce6 183c 730e 403c
00000040: 7dc7 4fbc eb75 053c 650d 16b7 c969 833c

prop_layer._message_net.0.weight f4 [20, 40]
-0.15651311 -0.16218217 0.11020975 0.018376404 -0.2574778 0.08237748 -0.0042599584 -0.009077431
-0.05156637 0.0041286875 0.08606924 -0.055313017 -0.015013334 -0.08675763 -0.1730962 0.043404505
0.027259877 0.07559259 -0.12573017 0.057109784 0.0431067 -0.25539184 -0.012293248 -0.007482455
0.0075754775 0.00622655 0.010491542 0.11284617 0.08655275 -0.004566352 0.29350224 -0.1424836
0.1259904 0.022944914 -0.09655224 0.19684081 -0.0051812343 0.011283128 -0.0052468316 -0.008246066
-0.18004332 0.38253382 -0.31671825 -0.09567741 -0.0604119 0.0807761 -0.07811608 0.40303034
0.23836441 -0.17917053 -0.06598385 -0.26048344 0.25762966 0.1844486 -0.36078763 0.034848724
-0.10684583 0.06396739 0.32598758 -0.21578284 0.09252184 -0.07254736 0.16174866 -0.00010337765
0.0037494388 -0.0038209863 0.0011675359 -0.13643864 0.119457394 -0.00020540296 0.49630368 -0.019855732
-0.25190583 0.048991762 0.0027640688 0.18727402 0.0050921612 -0.0056877295 -0.0014870389 0.002410128
-0.27239275 -0.39690813 0.28397056 -0.12571923 -0.038435455 -0.26371375 -0.35207942 -0.5676847
0.003930728 -0.13005015 0.07275417 -0.07099365 -0.19939946 -0.007311533 -0.23366527 -0.08065588
0.0091816485 -0.15670902 -0.1221755 -0.24443007 0.06327901 0.073414244 -0.016759597 -0.005850123
-0.0127556855 0.004450661 -0.016786514 0.15270591 -0.30442345 -0.0026019728 0.41134328 0.1442741
-0.049318537 0.092159405 -0.05072728 0.02262548 -0.004558092 -0.016225975 0.014549169 0.008512478
-0.017100435 0.005912023 0.018429965 -0.013404781 -0.008250962 0.021479024 -0.0074952375 -0.012227845
0.002187909 -0.010254415 -0.021278339 0.006768553 0.005097727 -0.0009620318 -0.012315925 0.021363895
-0.00611248 4.2279153e-05 0.003375689 -0.008108075 -0.005960535 -0.0063551823 -0.02379766 0.004185109
0.0037831983 -0.001855174 0.0037804611 -0.008902609 -0.0016373945 0.0038228014 0.0021081762 -0.023903659
0.035840236 -0.001137524 0.01312226 0.018573545 0.0022452332 0.0025598034 0.0008725975 0.0015856043
0.25505832 0.52047545 -0.3743753 0.03473087 -0.11708996 0.1678725 -0.22183219 0.0637102
-0.24156368 0.2978094 -0.15763626 -0.07408592 0.0386558 0.19972767 0.18537395 -0.08280819
0.013398463 -0.11155637 0.13592643 -0.044471756 0.0029100743 0.08657371 0.16413274 0.0042433045
0.0055605914 -0.0013292121 0.0061115264 -0.17657544 -0.23856802 0.0020981745 -0.11238517 0.033947654
-0.058171105 0.057363898 -0.18181634 0.13642244 0.0012666441 -0.009222546 -0.007171593 0.005858034
-0.5739236 0.27263877 -0.06676309 0.058737252 0.017843941 0.17086102 0.15628034 -0.3621195
0.2629423 0.056934606 0.023047876 0.1418284 0.012251758 0.13224058 0.07226959 0.31481022
-0.0019500662 -0.17588325 -0.021242702 -0.051761564 -0.23584178 0.13773926 0.059806116 -0.0012058492
-0.00514145 0.010487421 -0.0069822986 0.079824165 -0.03566955 0.0017360209 -0.08194846 0.15112765
0.38434786 0.008581932 0.040799707 -0.26243037 -0.012075657 0.007449271 0.018720387 -0.018908067
-0.2744305 0.39595357 0.026753308 -0.30814776 0.28935897 -0.32030472 -0.54946715 -0.17872743
-0.16275856 0.35571408 0.2664028 -0.36833927 0.19497117 -0.06659628 -0.08076431 0.21012487
00000000: f944 20be 1513 26be a6b5 e13d 1d8a 963c
00000010: 21d4 83be 86b5 a83d 1f97 8bbb 81b9 14bc
00000020: 4237 53bd f149 873b 1245 b03d e78f 62bd
00000030: 7dfa 75bc fcad b1bd 2140 31be ecc8 313d
00000040: 1b50 df3c 4ad0 9a3d 69bf 00be f3eb 693d
00000050: a790 303d b8c2 82be 9f69 49bc 622f f5bb
00000060: b63b f83b 1608 cc3b b7e4 2b3c e51b e73d
00000070: 9142 b13d 56a1 95bb ed45 963e 39e7 11be
00000080: a103 013e f9f6 bb3c 2ebd c5bd a390 493e
00000090: 58c7 a9bb dedc 383c 9ded abbb 821a 07bc
000000a0: 475d 38be 79db c33e e528 a2be 85f2 c3bd
000000b0: 7872 77bd f16d a53d 53fb 9fbd fe59 ce3e
000000c0: cd15 743e 7b78 37be 8a22 87bd 165e 85be
000000d0: 09e8 833e 18e0 3c3e 28b9 b8be 89bd 0e3d
000000e0: fdd1 dabd 5601 833d d8e7 a63e 2df6 5cbe
000000f0: 177c bd3d b693 94bd 71a1 253e 74cc d8b8
00000100: 25b9 753b 8369 7abb 0108 993a 92b6 0bbe
00000110: 14a6 f43d 7061 57b9 841b fe3e 7da8 a2bc
00000120: cdf9 80be 96ab 483d 6125 353b c3c4 3f3e
00000130: 25dc a63b 2260 babb bfe8 c2ba 3df3 1d3b
00000140: 1077 8bbe 8b37 cbbe 9764 913e 8bbc 00be
00000150: 7f6e 1dbd 7d05 87be c143 b4be c953 11bf
00000160: 56cd 803b de2b 05be 2300 953d 1e65 91bd
00000170: 5f2f 4cbe 9695 efbb f345 6fbe e92e a5bd
00000180: a06e 163c 5478 20be 2637 fabd e04b 7abe
00000190: 6d98 813d 355a 963d 6c4b 89bc 63b2 bfbb
000001a0: 39fd 50bc dad6 913b df83 89bc f05e 1c3e
000001b0: 64dd 9bbe dc85 2abb 969b d23e 97bc 133e
000001c0: 3c02 4abd 12be bc3d 69c7 4fbd 1259 b93c
000001d0: 0c5c 95bb 56ec 84bc a35f 6e3c ec77 0b3c
000001e0: 3616 8cbc a5b9 c13b 70fa 963c ba9f 5bbc
000001f0: 0b2f 07bc c7f4 af3c 9c9a f5bb 4d57 48bc
00000200: 0663 0f3b 2202 28bc e94f aebc bdca dd3b
00000210: d50a a73b dc30 7cba bcc8 49bc 5603 af3c
00000220: 334b c8bb e554 3138 aa3a 5d3b bbd7 04bc
00000230: 9750 c3bb 223f d0bb 4ff3 c2bc 3d23 893b
00000240: 89ef 773b 4f29 f3ba 9dc1 773b 40dc 11bc
00000250: d89d d6ba f787 7a3b 5429 0a3b 9bd1 c3bc
00000260: 36cd 123d f918 95ba bffe 563c 8c27 983c
00000270: c324 133b 60c2 273b 07bf 643a 0dd4 cf3a
00000280: 0197 823e e13d 053f 1fae bfbe f541 0e3d
00000290: dccc efbd c5e6 2b3e fa27 63be 7e7a 823d
000002a0: 785c 77be 797a 983e 666b 21be 5cba 97bd
000002b0: 8b55 1e3d 6985 4c3e abd2 3d3e 5797 a9bd
000002c0: 3a85 5b3c ab77 e4bd 4c30 0b3e 0428 36bd
000002d0: f2b6 3e3b 8f4d b13d 6a12 283e 6b0b 8b3b
000002e0: 9f35 b63b f538 aeba 3343 c83b 31d0 34be
000002f0: 2d4b 74be 8781 093b 322a e6bd b20c 0b3d
00000300: d344 6ebd 68f6 6a3d 102e 3abe 53b2 0b3e
00000310: 8605 a63a 291a 17bc afff eabb c0f4 bf3b
00000320: a8ec 12bf 4f97 8b3e 16bb 88bd 7996 703d
00000330: 752d 923c 31f6 2e3e f407 203e ba67 b9be
00000340: 60a0 863e 4334 693d e6ce bc3c 773b 113e
00000350: 99bb 483c 136a 073e 1402 943d ce2e a13e
00000360: 5d99 ffba bd1a 34be 2d05 aebc ef03 54bd
00000370: 8280 71be 850b 0d3e 42f7 743d 960d 9eba
00000380: 9c79 a8bb 6fd3 2b3c c4cb e4bb da7a a33d
00000390: 3c1a 12bd 328b e33a 98d4 a7bd 35c1 1a3e
000003a0: 3ec9 c43e 3b9b 0c3c 981d 273d 465d 86be
000003b0: fad8 45bc 0419 f43b 7f5b 993c 17e5 9abc
000003c0: 2882 8cbe 6dba ca3e c129 db3c 8bc5 9dbe
000003d0: dc26 943e fbfe a3be e1a9 0cbf 5304 37be
000003e0: 2eaa 26be 2820 b63e f365 883e f796 bcbe
000003f0: 86a6 473e a163 88bd c267 a5bd f92a 573e

prop_layer._message_net.0.bias f4 [20]
0.0058687665 0.07888112 0.17012332 0.010439457 0.2772267 0.04201359 0.08191123 0.08336525
0.18598144 0.027789116 0.011649536 0.050475065 0.038895175 0.025982996 0.09787964 0.19493614
-0.03042494 0.06304492 0.011614438 0.11593462
00000000: c84e c03b 6d8c a13d cf34 2e3e 420a 2b3c
00000010: a8f0 8d3e 7116 2c3d 13c1 a73d 66bb aa3d
00000020: eb71 3e3e 00a6 e33c b2dd 3e3c f1be 4e3d
00000030: 8c50 1f3d 4bda d43c 1f75 c83d 579d 473e
00000040: b93d f9bc b21d 813d 7c4a 3e3c 216f ed3d

prop_layer._reverse_message_net.0.weight f4 [20, 40]
-0.15651311 -0.16218217 0.11020975 0.018376404 -0.2574778 0.08237748 -0.0042599584 -0.009077431
-0.05156637 0.0041286875 0.08606924 -0.055313017 -0.015013334 -0.08675763 -0.1730962 0.043404505
0.027259877 0.07559259 -0.12573017 0.057109784 0.0431067 -0.25539184 -0.012293248 -0.007482455
0.0075754775 0.00622655 0.010491542 0.11284617 0.08655275 -0.004566352 0.29350224 -0.1424836
0.1259904 0.022944914 -0.09655224 0.19684081 -0.0051812343 0.011283128 -0.0052468316 -0.008246066
-0.18004332 0.38253382 -0.31671825 -0.09567741 -0.0604119 0.0807761 -0.07811608 0.40303034
0.23836441 -0.17917053 -0.06598385 -0.26048344 0.25762966 0.1844486 -0.36078763 0.034848724
-0.10684583 0.06396739 0.32598758 -0.21578284 0.09252184 -0.07254736 0.16174866 -0.00010337765
0.0037494388 -0.0038209863 0.0011675359 -0.13643864 0.119457394 -0.00020540296 0.49630368 -0.019855732
-0.25190583 0.048991762 0.0027640688 0.18727402 0.0050921612 -0.0056877295 -0.0014870389 0.002410128
-0.27239275 -0.39690813 0.28397056 -0.12571923 -0.038435455 -0.26371375 -0.35207942 -0.5676847
0.003930728 -0.13005015 0.07275417 -0.07099365 -0.19939946 -0.007311533 -0.23366527 -0.08065588
0.0091816485 -0.15670902 -0.1221755 -0.24443007 0.06327901 0.073414244 -0.016759597 -0.005850123
-0.0127556855 0.004450661 -0.016786514 0.15270591 -0.30442345 -0.0026019728 0.41134328 0.1442741
-0.049318537 0.092159405 -0.05072728 0.02262548 -0.004558092 -0.016225975 0.014549169 0.008512478
-0.017100435 0.005912023 0.018429965 -0.013404781 -0.008250962 0.021479024 -0.0074952375 -0.012227845
0.002187909 -0.010254415 -0.021278339 0.006768553 0.005097727 -0.0009620318 -0.012315925 0.021363895
-0.00611248 4.2279153e-05 0.003375689 -0.008108075 -0.005960535 -0.0063551823 -0.02379766 0.004185109
0.0037831983 -0.001855174 0.0037804611 -0.008902609 -0.0016373945 0.0038228014 0.0021081762 -0.023903659
0.035840236 -0.001137524 0.01312226 0.018573545 0.0022452332 0.0025598034 0.0008725975 0.0015856043
0.25505832 0.52047545 -0.3743753 0.03473087 -0.11708996 0.1678725 -0.22183219 0.0637102
-0.24156368 0.2978094 -0.15763626 -0.07408592 0.0386558 0.19972767 0.18537395 -0.08280819
0.013398463 -0.11155637 0.13592643 -0.044471756 0.0029100743 0.08657371 0.16413274 0.0042433045
0.0055605914 -0.0013292121 0.0061115264 -0.17657544 -0.23856802 0.0020981745 -0.11238517 0.033947654
-0.058171105 0.057363898 -0.18181634 0.13642244 0.0012666441 -0.009222546 -0.007171593 0.005858034
-0.5739236 0.27263877 -0.06676309 0.058737252 0.017843941 0.17086102 0.15628034 -0.3621195
0.2629423 0.056934606 0.023047876 0.1418284 0.012251758 0.13224058 0.07226959 0.31481022
-0.0019500662 -0.17588325 -0.021242702 -0.051761564 -0.23584178 0.13773926 0.059806116 -0.0012058492
-0.00514145 0.010487421 -0.0069822986 0.079824165 -0.03566955 0.0017360209 -0.08194846 0.15112765
0.38434786 0.008581932 0.040799707 -0.26243037 -0.012075657 0.007449271 0.018720387 -0.018908067
-0.2744305 0.39595357 0.026753308 -0.30814776 0.28935897 -0.32030472 -0.54946715 -0.17872743
-0.16275856 0.35571408 0.2664028 -0.36833927 0.19497117 -0.06659628 -0.08076431 0.21012487
00000000: f944 20be 1513 26be a6b5 e13d 1d8a 963c
00000010: 21d4 83be 86b5 a83d 1f97 8bbb 81b9 14bc
00000020: 4237 53bd f149 873b 1245 b03d e78f 62bd
00000030: 7dfa 75bc fcad b1bd 2140 31be ecc8 313d
00000040: 1b50 df3c 4ad0 9a3d 69bf 00be f3eb 693d
00000050: a790 303d b8c2 82be 9f69 49bc 622f f5bb
00000060: b63b f83b 1608 cc3b b7e4 2b3c e51b e73d
00000070: 9142 b13d 56a1 95bb ed45 963e 39e7 11be
00000080: a103 013e f9f6 bb3c 2ebd c5bd a390 493e
00000090: 58c7 a9bb dedc 383c 9ded abbb 821a 07bc
000000a0: 475d 38be 79db c33e e528 a2be 85f2 c3bd
000000b0: 7872 77bd f16d a53d 53fb 9fbd fe59 ce3e
000000c0: cd15 743e 7b78 37be 8a22 87bd 165e 85be
000000d0: 09e8 833e 18e0 3c3e 28b9 b8be 89bd 0e3d
000000e0: fdd1 dabd 5601 833d d8e7 a63e 2df6 5cbe
000000f0: 177c bd3d b693 94bd 71a1 253e 74cc d8b8
00000100: 25b9 753b 8369 7abb 0108 993a 92b6 0bbe
00000110: 14a6 f43d 7061 57b9 841b fe3e 7da8 a2bc
00000120: cdf9 80be 96ab 483d 6125 353b c3c4 3f3e
00000130: 25dc a63b 2260 babb bfe8 c2ba 3df3 1d3b
00000140: 1077 8bbe 8b37 cbbe 9764 913e 8bbc 00be
00000150: 7f6e 1dbd 7d05 87be c143 b4be c953 11bf
00000160: 56cd 803b de2b 05be 2300 953d 1e65 91bd
00000170: 5f2f 4cbe 9695 efbb f345 6fbe e92e a5bd
00000180: a06e 163c 5478 20be 2637 fabd e04b 7abe
00000190: 6d98 813d 355a 963d 6c4b 89bc 63b2 bfbb
000001a0: 39fd 50bc dad6 913b df83 89bc f05e 1c3e
000001b0: 64dd 9bbe dc85 2abb 969b d23e 97bc 133e
000001c0: 3c02 4abd 12be bc3d 69c7 4fbd 1259 b93c
000001d0: 0c5c 95bb 56ec 84bc a35f 6e3c ec77 0b3c
000001e0: 3616 8cbc a5b9 c13b 70fa 963c ba9f 5bbc
000001f0: 0b2f 07bc c7f4 af3c 9c9a f5bb 4d57 48bc
00000200: 0663 0f3b 2202 28bc e94f aebc bdca dd3b
00000210: d50a a73b dc30 7cba bcc8 49bc 5603 af3c
00000220: 334b c8bb e554 3138 aa3a 5d3b bbd7 04bc
00000230: 9750 c3bb 223f d0bb 4ff3 c2bc 3d23 893b
00000240: 89ef 773b 4f29 f3ba 9dc1 773b 40dc 11bc
00000250: d89d d6ba f787 7a3b 5429 0a3b 9bd1 c3bc
00000260: 36cd 123d f918 95ba bffe 563c 8c27 983c
00000270: c324 133b 60c2 273b 07bf 643a 0dd4 cf3a
00000280: 0197 823e e13d 053f 1fae bfbe f541 0e3d
00000290: dccc efbd c5e6 2b3e fa27 63be 7e7a 823d
000002a0: 785c 77be 797a 983e 666b 21be 5cba 97bd
000002b0: 8b55 1e3d 6985 4c3e abd2 3d3e 5797 a9bd
000002c0: 3a85 5b3c ab77 e4bd 4c30 0b3e 0428 36bd
000002d0: f2b6 3e3b 8f4d b13d 6a12 283e 6b0b 8b3b
000002e0: 9f35 b63b f538 aeba 3343 c83b 31d0 34be
000002f0: 2d4b 74be 8781 093b 322a e6bd b20c 0b3d
00000300: d344 6ebd 68f6 6a3d 102e 3abe 53b2 0b3e
00000310: 8605 a63a 291a 17bc afff eabb c0f4 bf3b
00000320: a8ec 12bf 4f97 8b3e 16bb 88bd 7996 703d
00000330: 752d 923c 31f6 2e3e f407 203e ba67 b9be
00000340: 60a0 863e 4334 693d e6ce bc3c 773b 113e
00000350: 99bb 483c 136a 073e 1402 943d ce2e a13e
00000360: 5d99 ffba bd1a 34be 2d05 aebc ef03 54bd
00000370: 8280 71be 850b 0d3e 42f7 743d 960d 9eba
00000380: 9c79 a8bb 6fd3 2b3c c4cb e4bb da7a a33d
00000390: 3c1a 12bd 328b e33a 98d4 a7bd 35c1 1a3e
000003a0: 3ec9 c43e 3b9b 0c3c 981d 273d 465d 86be
000003b0: fad8 45bc 0419 f43b 7f5b 993c 17e5 9abc
000003c0: 2882 8cbe 6dba ca3e c129 db3c 8bc5 9dbe
000003d0: dc26 943e fbfe a3be e1a9 0cbf 5304 37be
000003e0: 2eaa 26be 2820 b63e f365 883e f796 bcbe
000003f0: 86a6 473e a163 88bd c267 a5bd f92a 573e

prop_layer._reverse_message_net.0.bias f4 [20]
0.0058687665 0.07888112 0.17012332 0.010439457 0.2772267 0.04201359 0.08191123 0.08336525
0.18598144 0.027789116 0.011649536 0.050475065 0.038895175 0.025982996 0.09787964 0.19493614
-0.03042494 0.06304492 0.011614438 0.11593462
00000000: c84e c03b 6d8c a13d cf34 2e3e 420a 2b3c
00000010: a8f0 8d3e 7116 2c3d 13c1 a73d 66bb aa3d
00000020: eb71 3e3e 00a6 e33c b2dd 3e3c f1be 4e3d
00000030: 8c50 1f3d 4bda d43c 1f75 c83d 579d 473e
00000040: b93d f9bc b21d 813d 7c4a 3e3c 216f ed3d

prop_layer.GRU.weight_ih_l0 f4 [30, 20]
-0.0024268809 -0.046730883 0.024680423 0.0012720624 0.024111463 -0.012937957 -0.031084228 -0.037980735
-0.064233154 0.011790693 0.02618865 -0.015138166 0.011816654 0.008546412 -0.012237797 -0.040872186
0.11017954 -0.022329532 -0.00060506613 0.030978378 0.010877495 -0.10775338 -0.15877359 0.004219797
-0.11665086 0.043141376 0.07490019 -0.07546643 0.025922306 -0.006202552 -0.2169922 0.0966727
0.03618815 -0.085734874 -0.05223608 0.2856328 0.02309848 0.0059780953 0.0009405144 -0.07963056
-0.020044666 -0.017212836 -0.09288117 -0.008915657 -0.02275275 0.025598696 0.0936917 -0.04369996
-0.004444994 -0.004686907 -0.12133358 0.028955124 -0.0057706716 -0.020640785 -0.013008231 0.20960231
-0.07741784 0.020576738 -0.009984007 -0.004408932 -0.008232141 0.0042801183 0.0006681532 -0.0015534792
-0.019094385 0.001826291 -0.009206942 -0.016845208 0.025058102 -0.00042648785 -0.03207902 -0.031074177
0.012684435 0.0088342 -0.027130805 -0.0062000984 0.037347175 -0.0017950656 0.00013187183 -0.020223726
0.06818995 0.0041770455 -0.055923536 0.006388092 -0.025797222 0.0023376117 -0.039272632 -0.025529163
0.09117361 -0.015773213 -0.002632158 -0.02901286 -0.002126374 -0.019622644 0.058621522 0.15071097
-0.021797007 -0.015219151 0.006992103 -0.011042689 -0.0074102944 -0.023666501 -0.01427307 -0.003766072
-0.0126496395 -0.0102704065 -0.02202275 0.025200093 0.00023101177 -0.0034758407 -0.0045270845 -0.03223677
-2.1007654e-06 -0.005503961 -0.0045312387 0.022391303 0.023188947 0.002638863 -0.004164138 -0.021847218
-0.007154064 0.030690845 0.028710414 -0.0020454258 -0.011633826 -0.004722278 0.042233236 0.016128981
0.080323294 -0.043602668 -0.11909725 -0.024648217 0.018123787 -0.022466145 -0.028159205 -0.01037215
-0.030865576 -0.00010375295 -0.007043317 -0.015893694 0.041379843 0.0051514427 -0.09755024 0.010683219
-0.030212095 -0.04035577 -0.11054201 -0.012574227 0.26373044 0.017822368 -0.14260937 0.054509476
0.020308642 -0.011586832 0.0493602 0.3291765 -0.0059939665 -0.0011958717 -0.0023385645 0.06684977
0.005411656 -0.0010842945 0.019278973 -0.005118114 -0.032475155 0.039854974 -0.019533973 -0.017195718
0.009559636 0.0011310015 -0.005110923 -0.00936431 -0.031762555 0.013456185 -0.029698819 0.026332235
-0.02129593 -0.022288691 -0.0039507495 -0.01944569 0.0004288449 0.011806646 0.013273399 0.0001785421
-0.021517709 -0.01841448 -0.00097465835 -0.00992749 0.011677952 -0.012838094 -0.012521448 0.005667718
0.018749861 -0.0029184693 0.0025713253 0.0060010646 0.0012191598 0.00316519 0.0039093276 0.01574629
0.060828675 0.10793247 0.11825058 -0.013762008 -0.05534047 -0.15587687 -0.1533114 -0.16217813
-0.039653156 -0.09345182 0.24998224 -0.12792215 -0.053669456 -0.0046218927 -0.024113372 -0.19721642
0.110877044 -0.08990669 -0.010842922 -0.15608075 -0.05899947 -0.05236968 -0.07735553 0.0010517949
-0.040089574 -0.11214133 -0.006555813 0.049754687 -0.17749669 -0.06930515 -0.35198796 0.03446807
-0.04096693 -0.10494041 -0.07902902 -0.20476738 -0.017823583 -0.05935453 -0.0015608625 -0.041506212
0.15016961 -0.100421436 -0.104564235 0.02136409 -0.14420836 0.13104796 -0.15042198 0.19278316
-0.17860101 0.24648623 -0.23751342 0.14188991 0.114129454 0.06877539 0.12093073 -0.08380866
00000000: 4e0c 1fbb e268 3fbd 992e ca3c 55bb a63a
00000010: 6785 c53c baf9 53bc 5aa4 febc b091 1bbd
00000020: ac8c 83bd c02d 413c 9489 d63c 1206 78bc
00000030: a49a 413c 4006 0c3c 0a81 48bc 9869 27bd
00000040: d0a5 e13d 6cec b6bc 4d9d 1eba 5ec6 fd3c
00000050: 8537 323c cead dcbd 8b95 22be 3946 8a3b
00000060: a5e6 eebd 03b5 303d 4565 993d 258e 9abd
00000070: 045b d43c c73e cbbb 3433 5ebe 56fc c53d
00000080: 073a 143d c495 afbd 80f5 55bd 763e 923e
00000090: 0639 bd3c e6e3 c33b da8c 763a 5915 a3bd
000000a0: b634 a4bc ef01 8dbc 7c38 bebd fa12 12bc
000000b0: fa63 babc 5bb4 d13c 6fe1 bf3d bbfe 32bd
000000c0: 50a7 91bb a094 99bb bd7d f8bd 4c33 ed3c
000000d0: e717 bdbb dd16 a9bc 7a20 55bc fda1 563e
000000e0: 3f8d 9ebd 8c90 a83c f693 23bc cd78 90bb
000000f0: 1ae0 06bc 3c40 8c3b 0127 2f3a 1d9e cbba
00000100: d46b 9cbc 2860 ef3a b7d8 16bc f6fe 89bc
00000110: a646 cd3c 3b9a dfb9 4a65 03bd 468f febc
00000120: 60d2 4f3c 52bd 103c 6c41 debc 322a cbbb
00000130: 5af9 183d 6848 ebba 1347 0a39 3aac a5bc
00000140: 2ca7 8b3d 99df 883b 1410 65bd 3353 d13b
00000150: b254 d3bc 9e32 193b 57dc 20bd 8922 d1bc
00000160: 3bb9 ba3d d336 81bc 4980 2cbb 61ac edbc
00000170: a35a 0bbb abbf a0bc 1f1d 703d fa53 1a3e
00000180: a38f b2bc bf59 79bc 031e e53b 65ec 34bc
00000190: 0ed2 f2bb 40e0 c1bc 98d9 69bc 34d0 76bb
000001a0: 6f40 4fbc 3545 28bc 0e69 b4bc 6d70 ce3c
000001b0: c03b 7239 eeca 63bb f057 94bb b40a 04bd
000001c0: e0fa 0cb6 925a b4bb c97a 94bb f76d b73c
000001d0: bff6 bd3c c6f0 2c3b 5273 88bb f0f8 b2bc
000001e0: a36c eabb 5e6b fb3c 1a32 eb3c 8d0c 06bb
000001f0: ce9b 3ebc 57bd 9abb c2fc 2c3d ed20 843c
00000200: 8a80 a43d b698 32bd 42e9 f3bd 0feb c9bc
00000210: 5678 943c ec0a b8bc 22ae e6bc f3ef 29bc
00000220: ced9 fcbc f195 d9b8 a0cb e6bb 7e33 82bc
00000230: e97d 293d 6fcd a83b 6cc8 c7bd ab08 2f3c
00000240: 5b7f f7bc 184c 25bd d963 e2bd 2104 4ebc
00000250: ad07 873e 3700 923c 3108 12be 5445 5f3d
00000260: 4f5e a63c b2d6 3dbc ec2d 4a3d d289 a83e
00000270: 0969 c4bb ccbe 9cba 9a42 19bb 88e8 883d
00000280: 4354 b13b e31e 8eba f0ee 9d3c dab5 a7bb
00000290: ab04 05bd f83e 233d b605 a0bc 09de 8cbc
000002a0: 05a0 1c3c 1d3e 943a 8879 a7bb c36c 19bc
000002b0: 7419 02bd 5577 5c3c f04a f3bc b3b6 d73c
000002c0: cd74 aebc c696 b6bc 4a75 81bb 914c 9fbc
000002d0: 97d6 e039 aa70 413c ac78 593c 0837 3b39
000002e0: e845 b0bc f7d9 96bc 3780 7fba e9a6 22bc
000002f0: e154 3f3c de56 52bc c226 4dbc 44b8 b93b
00000300: 4f99 993c ca43 3fbb ae83 283b 94a4 c43b
00000310: 37cc 9f3a 146f 4f3b d119 803b 5dfe 803c
00000320: 7d27 793d b30b dd3d 5c2d f23d 0c7a 61bc
00000330: b0ac 62bd 309e 1fbe aafd 1cbe 0612 26be
00000340: 596b 22bd ab63 bfbd 58fb 7f3e 06fe 02be
00000350: 81d4 5bbd 3f73 97bb 6889 c5bc 1af3 49be
00000360: 8113 e33d 0021 b8bd 83a6 31bc a2d3 1fbe
00000370: 6ea9 71bd 9781 56bd 936c 9ebd 61dc 893a
00000380: f734 24bd 5baa e5bd 25d2 d6bb 92cb 4b3d
00000390: b1c1 35be dcef 8dbd c437 b4be 642e 0d3d
000003a0: f1cc 27bd ffea d6bd f8d9 a1bd 8aae 51be
000003b0: c302 92bc bc1d 73bd db95 ccba 6b02 2abd
000003c0: 10c6 193e c1a9 cdbd c625 d6bd be03 af3c
000003d0: 5bab 13be 7031 063e 3808 1abe f368 453e
000003e0: 2fe3 36be e366 7c3e b836 73be 974b 113e
000003f0: b4bc e93d 1dda 8c3d 88aa f73d e0a3 abbd

prop_layer.GRU.weight_hh_l0 f4 [30, 10]
-0.012072975 0.0062774178 -0.019745875 -0.0134345405 -0.020944953 0.00090842857 -0.019184565 -0.0232254
0.0061175884 0.0136995055 -0.033868525 -0.13172646 0.1085986 0.0033321301 -0.08730884 0.045066044
0.2777182 0.06877511 0.0005039552 0.05064608 0.04019474 -0.08949157 0.062541686 -0.010630907
-0.038026936 0.02630634 0.0909136 0.02053923 -0.0023829066 0.009209147 -0.0022924668 0.003774209
-0.0036269538 -0.011830484 -0.027557928 0.023163466 -9.306555e-05 0.038521547 0.025370188 0.010876281
0.030448642 -0.013681264 -0.002489247 -0.049895503 0.00741532 0.036096938 -0.0148446765 0.051236704
0.02982289 0.023932133 -0.005631456 0.019220078 0.018685138 6.3590596e-05 -0.005477882 -0.011099675
0.017573502 0.020477531 -0.006748471 0.005183114 -0.0058789365 0.0003018319 -0.008288465 0.023799337
-0.020053122 0.03583774 0.019502498 0.036642913 -0.006056285 -0.015011304 -0.0005560554 -0.0051704613
0.0062984205 0.0015119895 -0.021140864 0.0259435 0.1636913 0.16871622 0.048666436 -0.005118823
-0.0022718308 -0.014124864 0.00819259 0.0094701685 0.011619081 0.013897351 -0.013623521 0.004671081
0.017962255 0.0009506876 -0.010630121 -0.0056582573 -0.013608694 0.0047399043 -0.005116112 0.009313175
0.017024718 0.008717365 0.0021004844 -0.0070916787 0.08073164 0.07437447 -0.042578567 0.20100695
-0.01912802 0.036405053 -0.04789703 0.047316518 -0.032154508 -0.084441744 -0.058565766 0.0075923386
-0.05032949 0.173346 0.048952702 -0.040161893 0.1511626 0.02105927 -0.1596498 -0.0560888
-0.19313377 0.123620056 -0.038273387 -0.15487786 -0.099432066 -0.2059263 0.12076522 -0.02566553
-0.13258126 0.066385075 0.0075847562 -0.051910717 -0.06454879 0.09369554 0.06844904 0.031629317
-0.08040403 -0.0040490194 0.09663467 -0.017199455 -0.011153046 -0.07546808 0.06450878 -0.053247347
0.09633269 -0.078687765 0.20279385 -0.018299034 0.014448748 -0.111884035 0.10407119 0.09550838
-0.13774325 0.1669319 -0.09677747 0.09257415 -0.04008993 0.04632631 -0.0947484 -0.09789568
0.05000439 -0.024831306 0.07454885 -0.13085873 -0.06170072 0.08288169 0.16730577 0.24506898
0.09511448 0.14641833 -0.08142727 -0.0063290065 -0.058930874 0.15350568 -0.2171244 -0.008950074
0.38216233 0.23006186 0.05026421 -0.1508886 0.067060694 -0.050302174 -0.11649822 -0.04187702
0.047086734 0.093779564 0.03580043 0.12581378 -0.016638225 -0.052343965 0.14602153 -0.06713798
0.04174768 -0.09085348 0.032134384 -0.0044553056 -0.004295751 -0.052864145 -0.025176536 -0.04208235
0.18288025 -0.13550788 0.18933162 -0.038449477 -0.0031507893 -0.114874214 0.050684605 -0.0628085
-0.08993931 0.0205372 0.067813486 -0.06409252 -0.02297942 0.5478893 -0.12360701 0.10671263
0.15441701 0.36624894 0.26233166 -0.43393186 -0.06307921 0.047400154 0.07247955 -0.26784953
0.08985144 -0.10302251 -0.13030152 -0.32451102 0.041304823 0.20497273 0.0061106156 -0.12222683
-0.00016823268 0.053403214 -0.071342416 0.15787902 0.0927804 0.117084496 0.0545012 0.0090603065
-0.15300341 -0.18052721 0.07266237 0.23332575 -0.027527435 -0.10394728 0.17970143 -0.07890148
0.025630716 -0.20586278 0.028014239 0.16910729 0.084053084 -0.038420536 0.044537574 -0.06935662
00000000: bacd 45bc ccb2 cd3b 1ac2 a1bc 8c1c 5cbc
00000010: c094 abbc 9c23 6e3a f328 9dbc 3243 bebc
00000020: 0d76 c83b e473 603c b9b9 0abd 4de3 06be
00000030: f168 de3d de5f 5a3b face b2bd 2c97 383d
00000040: 1431 8e3e f7d9 8c3d dc1b 043a 4472 4f3d
00000050: 3da3 243d 5b47 b7bd db15 803d 412d 2ebc
00000060: 22c2 1bbd 6580 d73c e930 ba3d e341 a83c
00000070: 8a2a 1cbb f6e1 163c 363d 16bb b858 773b
00000080: 30b2 6dbb a5d4 41bc 2ac1 e1bc 4fc1 bd3c
00000090: 302c c3b8 c5c8 1d3d 24d5 cf3c 6e32 323c
000000a0: 6e6f f93c 6127 60bc a222 23bb 3a5f 4cbd
000000b0: 36fc f23b 62da 133d 1637 73bc 94dd 513d
000000c0: 224f f43c 520d c43c 1488 b8bb 6d73 9d3c
000000d0: 9311 993c f15b 8538 ce7f b3bb 69db 35bc
000000e0: 4ef6 8f3c 7fc0 a73c 4722 ddbb 1dd7 a93b
000000f0: 18a4 c0bb 313f 9e39 58cc 07bc d4f6 c23c
00000100: 7246 a4bc 98ca 123d b4c3 9f3c e116 163d
00000110: cd73 c6bb f9f1 75bc 3fc4 11ba f96c a9bb
00000120: fb62 ce3b f32d c63a 9b2f adbc 7787 d43c
00000130: b19e 273e f2c3 2c3e 7556 473d cdbb a7bb
00000140: ffe2 14bb f96b 67bc 373a 063c c428 1b3c
00000150: f55d 3e3c b7b1 633c 3035 5fbc de0f 993b
00000160: 9425 933c 9137 793a f629 2ebc e768 b9bb
00000170: 00f7 5ebc 3351 9b3b 0fa5 a7bb 4a96 183c
00000180: 6c77 8b3c 47d3 0e3c 48a8 093b 5061 e8bb
00000190: a156 a53d a451 983d dd66 2ebd c4d4 4d3e
000001a0: 5eb2 9cbc 771d 153d ad2f 44bd f7ce 413d
000001b0: 72b4 03bd cbef acbd a8e2 6fbd 27c9 f83b
000001c0: 4c26 4ebd 9d81 313e a182 483d cc80 24bd
000001d0: 5eca 1a3e 7d84 ac3c 3d7b 23be 5fbd 65bd
000001e0: dcc4 45be 832c fd3d 8ec4 1cbd 4d98 1ebe
000001f0: 0aa3 cbbd 58de 52be c153 f73d 8440 d2bc
00000200: 62c3 07be e6f4 873d 8c89 f83b 55a0 54bd
00000210: 2832 84bd 73e3 bf3d 032f 8c3d be8d 013d
00000220: deaa a4bd a3ad 84bb 66e8 c53d dfe5 8cbc
00000230: 44bb 36bc 028f 9abd 2e1d 843d e419 5abd
00000240: 134a c53d 0d27 a1bd 31a9 4f3e dbe7 95bc
00000250: 71ba 6c3c 7523 e5bd 4723 d53d e699 c33d
00000260: 910c 0dbe 32f0 2a3e 4433 c6bd 8497 bd3d
00000270: 5735 24bd a8c0 3d3d 730b c2bd 887d c8bd
00000280: 67d1 4c3d 066b cbbc 11ad 983d d5ff 05be
00000290: e5b9 7cbd e0bd a93d 3452 2b3e 5df3 7a3e
000002a0: 61cb c23d b0ee 153e 57c3 a6bd 8e63 cfbb
000002b0: 8061 71bd 9830 1d3e dc55 5ebe 55a3 12bc
000002c0: c8aa c33e 5695 6b3e d8e1 4d3d 8b82 1abe
000002d0: 1e57 893d a709 4ebd 9e96 eebd 3d87 2bbd
000002e0: 05de 403d 800f c03d 79a3 123d 54d5 003e
000002f0: e34c 88bc a066 56bd ab86 153e a37f 89bd
00000300: 9eff 2a3d 6411 babd 589f 033d d0fd 91bb
00000310: 5fc3 8cbb 1388 58bd 063f cebc 8b5e 2cbd
00000320: f644 3b3e 94c2 0abe 26e0 413e 337d 1dbd
00000330: 797d 4ebb 2c43 ebbd a99a 4f3d bea1 80bd
00000340: 1a32 b8bd a13d a83c cce1 8a3d f042 83bd
00000350: 563f bcbc 7942 0c3f ac25 fdbd 278c da3d
00000360: 7e1f 1e3e fb84 bb3e 5650 863e 512c debe
00000370: ac2f 81bd aa26 423d 2970 943d 9323 89be
00000380: 0804 b83d 77fd d2bd c36d 05be 4f26 a6be
00000390: 3f2f 293d 5fe4 513e 8f3b c83b 0f52 fabd
000003a0: 9e67 30b9 54bd 5a3d f91b 92bd 0aab 213e
000003b0: a603 be3d ffc9 ef3d a63c 5f3d ae71 143c
000003c0: edac 1cbe 20dc 38be 02d0 943d f2ec 6e3e
000003d0: 3781 e1bc 50e2 d4bd a703 383e 1997 a1bd
000003e0: 82f7 d13c b1cd 52be 1e7e e53c 762a 2d3e
000003f0: 0624 ac3d da5e 1dbd 086d 363d d80a 8ebd

prop_layer.GRU.bias_ih_l0 f4 [30]
0.014714218 0.17608866 0.06932847 0.00809483 0.049332887 0.018861724 0.0063728136 0.13274439
-0.020945774 -0.005923782 -0.2595186 -0.25325334 0.09391176 -0.18416308 -0.13696745 -0.22141251
0.25730988 0.042848755 0.033701256 -0.12731609 -0.020881327 -0.30125165 0.13574438 0.16255444
-0.16453336 0.19605084 0.27499986 0.19594972 0.09478644 0.098290764
00000000: e713 713c 9650 343e 16fc 8d3d 2ea0 043c
00000010: 4811 4a3d e783 9a3c 09d3 d03b 25ee 073e
00000020: 7996 abbc 491c c2bb 9fdf 84be 6caa 81be
00000030: cf54 c03d 3f95 3cbe 3241 0cbe f6b9 62be
00000040: 1fbe 833e 2d82 2f3d 540a 0a3d 265f 02be
00000050: 510f abbc a83d 9abe 9300 0b3e ac74 263e
00000060: 6f7b 28be 8dc1 483e c8cc 8c3e 0ba7 483e
00000070: 651f c23d ab4c c93d

prop_layer.GRU.bias_hh_l0 f4 [30]
0.014714218 0.17608866 0.06932847 0.00809483 0.049332887 0.018861724 0.0063728136 0.13274439
-0.020945774 -0.005923782 -0.25951847 -0.25325334 0.09391161 -0.18416421 -0.13696745 -0.22141251
0.25732374 0.04285861 0.033701256 -0.12731643 -0.016335828 -0.050168887 0.009422486 0.060291022
0.0046265014 0.029809562 0.035251703 0.12368143 0.013971734 0.037904393
00000000: e713 713c 9650 343e 16fc 8d3d 2ea0 043c
00000010: 4811 4a3d e783 9a3c 09d3 d03b 25ee 073e
00000020: 7996 abbc 491c c2bb 9bdf 84be 6caa 81be
00000030: bb54 c03d 8b95 3cbe 3241 0cbe f6b9 62be
00000040: f0bf 833e 838c 2f3d 540a 0a3d 3d5f 02be
00000050: b7d2 85bc e47d 4dbd c560 1a3c b8f3 763d
00000060: e899 973b 2f33 f43c 1764 103d b14c fd3d
00000070: b3e9 643c a341 1b3d

interaction_encoder.0.weight f4 [40, 40]
-0.030752346 0.041921724 -0.13792011 -0.016011864 0.03028855 -0.0023591788 -0.11440383 0.17542508
0.21206196 -0.026642185 -0.23149839 0.05512079 0.02451136 -0.056947585 0.07579956 -0.010813712
-0.03669556 0.002299913 0.0037008063 0.0114251 0.08481277 0.018913694 0.028245969 -0.0012319962
-0.039998684 -0.054493263 0.057286587 0.059109658 0.025051264 0.06311722 0.0040546176 0.06587701
0.081107914 -0.015978964 -0.111463785 -0.03847062 0.084831156 -0.025676623 0.009157731 -0.059824925
-0.15438363 -0.21190761 -0.13217178 -0.0005658063 0.06142167 0.06280472 0.048889574 0.21025616
-0.087912805 -0.09137416 -0.067953065 0.005000426 0.14180237 0.08213372 -0.10423934 -0.15251686
0.041096248 0.034765944 0.0065326416 0.038195685 0.011973665 0.056822345 0.30496192 -0.0048487964
-0.07174708 0.056331966 -0.044604994 -0.23126218 0.02340159 0.13999623 0.08703995 0.008921047
-0.30188066 -0.038416527 -0.0064885826 0.0076271202 -0.04057643 -0.09686107 -0.003700874 -0.076225944
-0.023925602 0.07615207 0.01251058 0.0075609097 -0.09450139 -0.032661967 -0.014366406 0.040165473
-0.20979536 0.023393886 0.04218597 -0.22702911 0.07038205 0.13510747 -0.011469908 0.26603356
0.0678464 0.0069514336 0.01350401 0.12373735 -0.006225991 0.065942615 -0.0026681763 -0.0136472015
-0.044697143 0.02735067 -0.05433791 -0.022126624 -0.0489053 -0.0047232336 -0.12787482 0.0047845915
-0.07762647 -0.03819408 0.003898153 0.030886421 -0.08869637 -0.024115827 -0.007202093 -0.046242706
0.048431795 0.17330123 0.045716602 0.01128203 0.07542651 0.11819763 0.0064534214 -0.0056987116
0.01915861 0.043333612 0.12679258 -0.034509737 -0.009499922 -0.0026881068 -0.050201397 0.033622477
-0.11789124 -0.012106079 0.015860876 0.17851946 0.008125426 -0.055607133 -0.07330737 0.015074872
0.13369603 0.008552369 0.03285692 0.045137558 -0.057414055 0.073760256 -0.4715433 0.14762926
0.04548003 0.058341164 -0.09256722 -0.06096101 0.2113366 -0.028037528 0.009828004 -0.15401176
0.034284264 0.028486831 0.13396095 -0.014145173 -0.10616422 -0.08002495 0.063213795 -0.00085121026
-0.19746676 -0.043378875 -0.07490281 -0.12606353 -0.103641264 -0.053470183 -0.11411062 -0.0036284844
0.093129024 -0.049973078 -0.015380003 -0.2148335 0.026739806 0.10641976 -0.1374794 0.0003935513
0.044217695 -0.022357162 0.008971671 0.12589289 0.09423064 -0.09804565 -0.14039081 -0.07788011
0.17355202 0.09378362 0.124040775 0.17268324 -0.049911384 0.089718856 0.00141764 0.07785347
0.082470015 0.033272985 -0.08037471 0.0013033482 -0.06385971 -0.011366927 -0.06380519 -0.0558885
0.19571534 0.051775876 -0.056474797 -0.050088637 -0.062252585 -0.0961763 0.017323846 0.1490582
0.25579408 -0.029585714 0.011957439 -0.13325334 -0.20365185 0.11396746 0.11580422 -0.011446718
0.21779384 -0.14097051 0.030947521 0.18927635 -0.05435366 -0.1270658 0.21989252 -0.043679204
0.09836755 0.06496464 0.011493964 -0.3561123 -0.059791014 0.009924574 -0.0027291195 0.22277054
0.02679476 0.024253735 0.008298036 -0.0013616872 -0.057552665 0.014177057 -0.00874723 -0.040709734
-0.0118801035 -0.0025997949 -0.0074715493 0.014094984 -0.013882247 0.03519463 -0.032795627 -0.025363801
00000000: 58ec fbbc 1db6 2b3d ee3a 0dbe 502b 83bc
00000010: b11f f83c 749c 1abb 8e4c eabd a2a2 333e
00000020: c526 593e b640 dabc ea0d 6dbe 56c6 613d
00000030: 0ccc c83c df41 69bd cd3c 9b3d ff2b 31bc
00000040: 154e 16bd 23ba 163b 3a89 723b 5830 3b3c
00000050: 51b2 ad3d e4f0 9a3c 1764 e73c ef7a a1ba
00000060: a9d5 23bd 5434 5fbd 57a5 6a3d f81c 723d
00000070: 4f38 cd3c 9a43 813d 99dc 843b 87ea 863d
00000080: e81b a63d 51e6 82bc 2047 e4bd 5e93 1dbd
00000090: f5bb ad3d c857 d2bc 4f0a 163c fb0a 75bd
000000a0: be16 1ebe 4ffe 58be 0a58 07be 9e52 14ba
000000b0: 4a95 7b3d c39f 803d 6f40 483d 644d 573e
000000c0: a10b b4bd 6022 bbbd fa2a 8bbd 9dda a33b
000000d0: a434 113e b935 a83d 6f7b d5bd 612d 1cbe
000000e0: 8a54 283d bc66 0e3d c50f d63b 1473 1c3d
000000f0: 312d 443c 8cbe 683d f823 9c3e a7e2 9ebb
00000100: 22f0 92bd 59bc 663d bab3 36bd fecf 6cbe
00000110: b1b4 bf3c 2c5b 0f3e 0042 b23d 9529 123c
00000120: 1a90 9abe a65a 1dbd 2d9e d4bb ecec f93b
00000130: 7833 26bd 195f c6bd 5d8a 72bb 591c 9cbd
00000140: a0ff c3bc 9ef5 9b3d 2df9 4c3c 82c1 f73b
00000150: f289 c1bd 8ec8 05bd 1361 6bbc 8d84 243d
00000160: 98d4 56be 89a4 bf3c 32cb 2c3d 527a 68be
00000170: 7724 903d 9d59 0a3e 48ec 3bbc 8d35 883e
00000180: 0ef3 8a3d dac8 e33b ec3f 5d3c 026a fd3d
00000190: 6603 ccbb ec0c 873d 92dc 2ebb 8398 5fbc
000001a0: 5a14 37bd 830e e03c 6e91 5ebd e542 b5bc
000001b0: ed50 48bd 5bc5 9abb 9ef1 02be 10c8 9c3b
000001c0: a0fa 9ebd 6571 1cbd 2878 7f3b 8505 fd3c
000001d0: 71a6 b5bd 8e8e c5bc 89ff ebbb fe68 3dbd
000001e0: 6b60 463d e175 313e 5541 3b3d 43d8 383c
000001f0: 3779 9a3d 9911 f23d 3977 d33b 42bc babb
00000200: 84f2 9c3c 967e 313d ead5 013e 155a 0dbd
00000210: 90a5 1bbc f32a 30bb fb9f 4dbd b9b7 093d
00000220: f670 f1bd 9358 46bc abee 813c cecd 363e
00000230: 8220 053c 4ec4 63bd 2d22 96bd 99fc 763c
00000240: 9de7 083e 3c1f 0c3c fa94 063d 29e2 383d
00000250: 002b 6bbd 9e0f 973d 206e f1be 202c 173e
00000260: 4549 3a3d 25f7 6e3d e293 bdbd 41b2 79bd
00000270: 9f68 583e f5ae e5bc a305 213c 42b5 1dbe
00000280: a86d 0c3d 375d e93c 0f2d 093e 28c1 67bc
00000290: a06c d9bd 1fe4 a3bd 3c76 813d c123 5fba
000002a0: ba34 4abe 0cae 31bd a566 99bd cc16 01be
000002b0: df41 d4bd 8d03 5bbd d4b2 e9bd decb 6dbb
000002c0: 6eba be3d 92b0 4cbd 68fc 7bbc 50fd 5bbe
000002d0: 700d db3c 9af2 d93d 66c7 0cbe 9055 ce39
000002e0: 9d1d 353d 5e26 b7bc eafd 123c 11ea 003e
000002f0: fefb c03d 28cc c8bd 9cc2 0fbe 9b7f 9fbd
00000300: 9fb7 313e a011 c03d 1709 fe3d e0d3 303e
00000310: e16f 4cbd 85be b73d 1bd0 b93a a471 9f3d
00000320: 0ae6 a83d 4149 083d 7f9b a4bd 1cd5 aa3a
00000330: e1c8 82bd 593c 3abc 4cac 82bd 57eb 64bd
00000340: 9a69 483e f112 543d 1e52 67bd be29 4dbd
00000350: 91fc 7ebd 14f8 c4bd bdea 8d3c b6a2 183e
00000360: 71f7 823e bd5d f2bc 22e9 433c 9073 08be
00000370: 1c8a 50be c667 e93d c32a ed3d 048b 3bbc
00000380: 5905 5f3e 935a 10be a885 fd3c a9d1 413e
00000390: f2a1 5ebd 891d 02be 812b 613e f7e8 32bd
000003a0: ed74 c93d 2e0c 853d 2e51 3c3c 5a54 b6be
000003b0: 6ce7 74bd ae9a 223c 07db 32bb f61d 643e
000003c0: af80 db3c c5af c63c 7cf4 073c a47a b2ba
000003d0: 58bc 6bbd e346 683c 8b50 0fbc 40bf 26bd
000003e0: c4a4 42bc 5261 2abb e6d3 f4bb a6ee 663c
000003f0: 5d72 63bc 3f28 103d b554 06bd bfc7 cfbc

interaction_encoder.0.bias f4 [40]
-0.09373232 -0.006564419 0.031373262 0.052091964 -0.038588922 -0.06133879 -0.06361175 -0.19044682
-0.0011160681 -0.09140384 -0.012775629 -0.267897 -0.031246725 0.045936193 -0.0933746 -0.07823442
0.0718349 -0.114882566 -2.0718921e-06 -0.042762373 -0.055273496 -0.00070539943 -0.07041112 -0.118945956
-0.034412038 -0.09034619 -0.020483116 0.11317611 -0.052041903 0.084202886 -0.14081722 -0.003928455
-0.10823266 -7.393731e-05 -0.065652646 0.06741836 -0.00033924406 0.03716032 0.02771005 0.12344311
00000000: bbf6 bfbd 561a d7bb 4081 003d 625e 553d
00000010: 6b0f 1ebd 623e 7bbd e146 82bd 7e04 43be
00000020: 0849 92ba f031 bbbd df50 51bc cc29 89be
00000030: 22f9 ffbc 9727 3c3d 2f3b bfbd 5e39 a0bd
00000040: 2d1e 933d 8d47 ebbd d60a 0bb6 9927 2fbd
00000050: 7666 62bd 8eea 38ba b533 90bd f099 f3bd
00000060: a3f3 0cbd 6c07 b9bd 35cc a7bc e0c8 e73d
00000070: e429 55bd 9072 ac3d 6432 10be 45ba 80bb
00000080: 16a9 ddbd cb0e 9bb8 e574 86bd a312 8a3d
00000090: 91dc b1b9 6b35 183d 3000 e33c becf fc3d

interaction_encoder.2.weight f4 [20, 40]
-0.030545382 -0.05415117 -0.050312232 0.09042746 0.05168668 0.022191038 0.029036038 0.18242666
-6.0916296e-05 -0.1205611 0.004931215 0.48158705 0.18369848 0.021263156 -0.14357175 0.017940769
-0.22851047 0.30670795 -3.0970423e-08 -0.34181112 0.17268525 -0.040660355 0.10598355 0.2712395
0.003243537 -0.031028587 0.16808711 0.17590418 0.005773179 0.019550897 0.031294174 0.0012299998
-0.24645373 0.00010025878 0.36709213 -0.21109036 8.982155e-05 -0.044543717 0.13710475 -0.0135294795
-0.056696404 0.27852333 0.00407293 -0.06143783 0.07810774 -0.31226248 -0.016562212 0.22627856
0.000104410734 -0.10339773 0.0013079909 0.02155237 0.051719405 0.304656 0.06830786 0.00012370133
0.16279301 0.10295345 3.3013087e-08 0.17600906 0.073944986 -0.17409329 -0.062481496 0.100964084
0.005601758 -0.026530266 -0.07267964 0.11461268 -0.014428413 -0.017673606 0.0037884032 0.042297576
0.0060375896 5.608254e-06 0.120142706 0.20432094 -2.7191269e-05 0.026253931 0.056294203 -0.22821118
-0.048963945 -0.013713424 -0.26386562 -0.047559213 -0.08241104 -0.13946666 -0.01764832 -0.03846179
1.9334537e-05 0.088293865 -0.0010538222 0.019725908 0.018317103 -0.17105108 -0.10724857 0.02584871
-0.026863353 0.089802116 6.723053e-09 0.100146145 0.02358058 -0.08083203 0.17402633 -0.10777445
-0.0003464859 0.081187986 -0.04651461 0.019084144 0.004789278 0.16865495 -0.150015 0.24345388
-0.14118986 6.935001e-07 -0.019126823 -0.041759275 -3.8944702e-07 0.07157157 -0.021689378 -0.19767725
-0.018091612 -0.0043266984 0.0017314979 0.0038145988 -0.0041597965 -0.0034145175 -0.001217155 -0.006387269
-1.0426284e-12 -0.004718556 -3.711529e-21 0.0019683207 0.0031229395 -0.0072931424 0.0031225076 0.00020442363
-0.0035246755 -0.009330133 2.3968104e-15 -0.004708723 -0.007314104 -0.0015980834 -0.0031185444 0.009724182
4.898877e-21 0.00036399392 -0.0055884835 -0.0015281641 -0.0009964384 -0.013942668 0.0033879264 -0.0014559636
0.009306541 9.949e-42 -0.0047126063 -0.008522829 -9.893e-42 0.006852195 0.00504049 -0.0035716186
-0.021884983 -0.016112119 0.015611296 -0.03309751 -0.020248368 0.012924121 0.0014768032 0.008396214
2.0716033e-12 0.002877219 -4.346643e-22 0.0018869672 0.0028659154 -0.016801514 0.017176684 -0.0010773136
-0.0038975452 0.020083936 -1.05933235e-14 -0.006973525 0.032560658 -0.010095685 -0.0023091082 -0.016941028
-2.1464717e-21 -0.0011077072 -0.0017245775 0.007270022 0.0047336617 -0.0045519033 0.03305329 0.00021005752
0.0047628433 9.823e-42 0.02147287 -0.0003298452 -9.83e-42 0.0014845589 0.005410231 -0.006733036
0.023665963 0.010986623 -0.007925912 -0.0065998263 -0.0026662452 -0.0053705066 -0.00534436 0.022021152
-2.2098243e-14 0.008819455 1.8438605e-22 0.0052824887 -0.009356854 0.012413117 -0.007471891 -0.00035644975
0.0042829276 0.003718519 1.6823669e-15 0.0069095897 -0.0097805 0.010800984 0.00076698203 0.0064411117
7.011841e-22 0.017726498 0.017083108 -0.008699428 1.5231487e-05 0.0015642089 -0.0076491996 0.0051526004
-0.0034550154 9.923e-42 0.0076545374 -0.0011752319 1.005e-41 -0.007160882 0.0027170645 0.010588077
-0.020172743 -0.015497258 0.013299644 -0.038782332 -0.024271503 0.01798342 0.0018434244 0.0072214995
-7.704745e-12 0.0034846442 -7.486735e-23 0.000551061 0.0018837996 -0.020815836 0.019381255 -0.0012642788
00000000: 4f3a fabc 9ecd 5dbd 3314 4ebd 0832 b93d
00000010: 6ab5 533d fbc9 b53c fcdc ed3c 0ece 3a3e
00000020: 6080 7fb8 bde8 f6bd 0896 a13b 9492 f63e
00000030: 741b 3c3e 1230 ae3c 7904 13be 85f8 923c
00000040: a6fe 69be d308 9d3e 5704 05b3 de01 afbe
00000050: 67d4 303e 798b 26bd e70d d93d e7df 8a3e
00000060: 8591 543b aa2f febc 071f 2c3e 3a20 343e
00000070: ef2c bd3b 3429 a03c 522e 003d f237 a13a
00000080: 5e5e 7cbe 0642 d238 80f3 bb3e 1228 58be
00000090: 945e bc38 7973 36bd 3065 0c3e c0aa 5dbc
000000a0: 7d3a 68bd 9c9a 8e3e 3776 853b 3ca6 7bbd
000000b0: f3f6 9f3d dee0 9fbe 7aad 87bc 91b5 673e
000000c0: 16f7 da38 30c2 d3bd e470 ab3a 998e b03c
000000d0: bad7 533d dffb 9b3e fee4 8b3d d3b5 0139
000000e0: 36b3 263e 42d9 d23d 46ca 0d33 b83b 343e
000000f0: 7870 973d 8345 32be 99ec 7fbd 42c6 ce3d
00000100: f48e b73b 0056 d9bc 10d9 94bd 0eba ea3d
00000110: 2665 6cbc 3dc8 90bc dc46 783b 3940 2d3d
00000120: f9d6 c53b 892e bc36 610d f63d 8239 513e
00000130: ce18 e4b7 7c12 d73c c094 663d 31b0 69be
00000140: 6b8e 48bd 45ae 60bc 6519 87be 73cd 42bd
00000150: 1fc7 a8bd 59d0 0ebe 3693 90bc 1c8a 1dbd
00000160: 9a30 a237 6ad3 b43d 6820 8aba 3a98 a13c
00000170: c00d 963c 0428 2fbe 23a5 dbbd adc0 d33c
00000180: 8910 dcbc 2cea b73d 9900 e731 6c19 cd3d
00000190: 0f2c c13c 438b a5bd f533 323e dab8 dcbd
000001a0: 8da8 b5b9 e345 a63d 1b86 3ebd 5a56 9c3c
000001b0: 60ef 9c3b e2b3 2c3e 889d 19be f94b 793e
000001c0: 1394 10be f728 3a35 dbaf 9cbc c60b 2bbd
000001d0: 3115 d1b4 1e94 923d ecad b1bc e86b 4abe
000001e0: dc34 94bc fac6 8dbb 6ef3 e23a 59fe 793b
000001f0: e74e 88bb 19c6 5fbb f288 9fba 4c4c d1bb
00000200: a6bc 92ab 1e9e 9abb b537 8c9d f1fe 003b
00000210: 3baa 4c3b 50fb eebb fca2 4c3b 8d5a 5639
00000220: 3efe 66bb 6add 18bc 59b5 2c27 a24b 9abb
00000230: 27ab efbb c876 d1ba 7e60 4cbb 2d52 1f3c
00000240: 0813 b91d 70d6 be39 991f b7bb ae4c c8ba
00000250: ed9a 82ba ca6f 64bc f907 5e3b 08d6 beba
00000260: 767a 183c bc1b 0000 356c 9abb 56a3 0bbc
00000270: 941b 0080 6188 e03b b22a a53b d111 6abb
00000280: 2348 b3bc 90fd 83bc 85c6 7f3c 4191 07bd
00000290: e8df a5bc b1bf 533c 4b91 c13a 4690 093c
000002a0: b0c6 112c ba8f 3c3b 855e 039c 1d54 f73a
000002b0: 15d2 3b3b 54a3 89bc 1eb6 8c3c a534 8dba
000002c0: f56d 7fbb 1187 a43c 15d5 3ea8 2b82 e4bb
000002d0: 535e 053d 5f68 25bc 6854 17bb e9c7 8abc
000002e0: cd2e 229d 7c30 91ba 380b e2ba 5d39 ee3b
000002f0: d51c 9b3b 2228 95bb e362 073d e342 5c39
00000300: a011 9c3b 621b 0000 dfe7 af3c 13ef acb9
00000310: 671b 0080 8895 c23a 4f48 b13b cda0 dcbb
00000320: 1fdf c13c 3d01 343c afdb 01bc 5b43 d8bb
00000330: 2cbc 2ebb 13fb afbb be1f afbb b465 b43c
00000340: 140b c7a8 7a7f 103c b8e8 5e1b ba18 ad3b
00000350: 7d4d 19bc 6360 4b3c c4d6 f4bb e0e1 bab9
00000360: cd57 8c3b 65b2 733b 6274 f226 d769 e23b
00000370: 643e 20bc 9cf6 303c 4b0f 493a f60f d33b
00000380: 7eeb 531c 2937 913c e0f1 8b3c 0c88 0ebc
00000390: bd8a 7f37 2406 cd3a 23a6 fabb 25d7 a83b
000003a0: 8a6d 62bb a91b 0000 ead2 fa3b 3d0a 9aba
000003b0: 041c 0000 d5a5 eabb c710 323b 9d79 2d3c
000003c0: 4f41 a5bc 36e8 7dbc c0e6 593c 39da 1ebd
000003d0: 08d5 c6bc f751 933c 0f9f f13a 54a2 ec3b
000003e0: 168b 07ad a15e 643b a504 b59a 1475 103a
000003f0: d3e9 f63a f985 aabc 70c5 9e3c 28b6 a5ba

interaction_encoder.2.bias f4 [20]
0.030221833 -0.0302813 0.068388246 -0.0005245259 -0.007529278 0.005717772 -0.008862751 -0.017725922
-0.308989 0.00060404127 0.16833222 -0.077257864 -0.055887677 0.035551842 -0.052105155 -0.05312859
-0.005679714 0.0071735517 0.0139249405 -0.0074634477
00000000: c793 f73c 7d10 f8bc 230f 8c3d 5680 09ba
00000010: 29b8 f6bb 265c bb3b 1235 11bc f435 91bc
00000020: ce33 9ebe 8658 1e3a 485f 2c3e 5f39 9ebd
00000030: 7aea 64bd cf9e 113d 376c 55bd 5d9d 59bd
00000040: e51c babb 1d10 eb3b 6f25 643c f08f f4bb

sinkhorn_feature_layers.0.weight f4 [16, 20]
-9.911e-42 1.0811e-41 9.857e-42 -1.2529e-41 9.924e-42 -9.904e-42 9.921e-42 -9.876e-42
9.813e-42 9.847e-42 9.892e-42 -9.896e-42 -9.853e-42 -9.897e-42 9.816e-42 -2.3130736e-32
-9.843e-42 9.844e-42 -1.0295e-41 9.848e-42 -0.04644082 -0.05428519 -0.04360145 -0.024974022
-0.036004465 -0.020714866 -0.034305666 -0.010725242 0.015275597 -0.028367681 -0.022150313 0.025413005
-0.038301904 -0.02315245 -0.0068921256 -0.04459847 -0.04451058 0.028411122 -0.02287104 -0.06829561
0.14177848 -0.021260606 0.60564417 0.010151457 0.026306428 -0.07946453 0.14819823 -0.34331033
-0.048070427 0.032596413 0.0077345385 0.09133631 -0.07165992 0.21420833 -0.02774426 -0.24113941
0.18629427 -0.07325414 -0.005542995 0.43466902 -0.14738323 0.29811117 -0.020736156 -0.007988772
0.24539834 -0.48026568 -0.11451445 0.10958284 0.4598722 -0.23339042 0.023462165 0.22514872
0.12766281 -0.010262454 0.12591659 -0.19059074 -0.25241378 0.050650835 0.0018699717 0.2879965
5.06214e-09 1.4541106e-08 -4.163655e-09 4.116496e-09 6.3253234e-09 1.0819542e-09 5.7674163e-09 7.1120905e-09
-1.0767783e-08 4.2464676e-09 4.387203e-09 6.9464576e-09 7.523897e-09 2.5207263e-09 7.039688e-09 -8.07037e-09
2.016575e-09 9.0026586e-10 4.058041e-09 2.8387508e-09 -0.12614906 -0.13136868 0.48539853 0.0028488163
0.08321008 -0.051280674 0.19262297 0.095282115 0.32447833 0.08695348 -0.055435296 0.12556016
-0.084215425 -0.030615741 -0.49774027 0.2458995 -0.16328743 0.079014376 0.0040377546 0.03538743
0.12452871 -0.029669292 -0.0034109866 0.014077148 0.093058564 -0.22808039 0.17246506 -0.099948615
0.3805464 0.3744081 -0.10495759 0.26679677 -0.17337593 -0.23788787 0.06705242 -0.017149076
0.52901036 -0.1102682 0.014134551 -0.22619258 -9.899e-42 -5.143191e-37 -3.332992e-21 -1.0038e-41
-9.911e-42 1.075e-42 -9.832e-42 -9.83e-42 4.718142e-33 -9.809e-42 -9.86e-42 -9.874e-42
9.91e-42 9.89e-42 9.150189e-28 -2.822525e-21 -4.1627844e-28 -9.928e-42 1.035e-41 9.913e-42
0.20407757 0.2528986 0.1790083 0.0042548524 -0.010669745 -0.18018168 0.2742051 0.2734565
-0.20442426 0.008903076 -0.5471484 -0.06683406 0.4193235 0.17154334 -0.021013996 0.036745206
0.23369417 0.062421266 0.009889552 0.13493389 0.04183542 0.36602843 0.114106745 0.0036515056
0.21909262 0.4286988 -0.11172431 -0.01610712 0.50099134 0.07962013 -0.09858955 -0.1417332
-0.15262653 0.28725392 0.23311809 -0.07411804 0.11486022 -0.017748358 0.0127025675 -0.07825372
9.861e-42 -1.2274642e-36 -2.361677e-12 -9.86e-42 5.077361e-36 4.4295227e-19 9.879e-42 -2.2730973e-25
5.2152102e-11 9.817e-42 7.901248e-36 -1.4563006e-20 1.057554e-39 -3.833439e-29 -9.6816565e-29 -1.6199542e-09
-3.249673e-22 9.899e-42 -9.987e-42 -3.4677994e-29 0.08885182 -0.19283679 -0.099411756 -0.0059243673
-0.05793632 -0.47529086 0.08125263 -0.0051690405 -0.001965962 -0.014326935 0.08712609 0.27186212
0.06909173 -0.079345204 -0.13014175 0.0318791 0.049093943 0.01589862 0.00341793 0.06405028
1.7009446e-16 5.486138e-17 1.8789254e-16 -1.4214959e-16 -4.2259985e-16 6.2916146e-16 -1.5491959e-16 -5.3318146e-16
-5.9169677e-16 3.0457486e-16 5.2194207e-16 -3.1981029e-16 3.900053e-16 -2.0351559e-16 2.5683926e-16 -3.984163e-16
00000000: a11b 0080 231e 0000 7a1b 0000 ed22 0080
00000010: aa1b 0000 9c1b 0080 a81b 0000 881b 0080
00000020: 5b1b 0000 731b 0000 931b 0000 961b 0080
00000030: 771b 0080 971b 0080 5d1b 0000 0b34 f08a
00000040: 701b 0080 711b 0000 b31c 0080 741b 0000
00000050: bb38 3ebd 265a 5ebd 6f97 32bd 5296 ccbc
00000060: 6b79 13bd 39b2 a9bc 1984 0cbd edb8 2fbc
00000070: 7f46 7a3c 5763 e8bc 9374 b5bc ef2e d03c
00000080: 75e2 1cbd 35aa bdbc 57d7 e1bb e3ac 36bd
00000090: ba50 36bd 71be e83c 0c5c bbbc 92de 8bbd
000000a0: 612e 113e b92a aebc 7f0b 1b3f 4c52 263c
000000b0: 9480 d73c 4dbe a2bd 47c1 173e 5fc6 afbe
000000c0: 7fe5 44bd d183 053d 0372 fd3b 880e bb3d
000000d0: 70c2 92bd 6e59 5b3e ee47 e3bc 40ed 76be
000000e0: edc3 3e3e 4406 96bd 03a2 b5bb f08c de3e
000000f0: a1eb 16be 07a2 983e dfde a9bc 57e3 02bc
00000100: b449 7b3e 62e5 f5be 8d86 eabd f86c e03d
00000110: 5e74 eb3e e6fd 6ebe ba33 c03c 638d 663e
00000120: 0aba 023e da23 28bc 47f0 003e 382a 43be
00000130: 613c 81be 4077 4f3d d719 f53a 4774 933e
00000140: 0eef ad31 76d0 7932 e60f 8fb1 1571 8d31
00000150: 2256 d931 e1b3 9430 bb2a c631 9c5e f431
00000160: 36fd 38b2 53e8 9131 3fbe 9631 b0ad ee31
00000170: 7342 0132 1639 2d31 c0e1 f131 dda5 0ab2
00000180: f693 0a31 9476 7730 e86e 8b31 d513 4331
00000190: 382d 01be 8385 06be 2886 f83e 35b3 3a3b
000001a0: 0c6a aa3d af0b 52bd f53e 453e 4523 c33d
000001b0: 0622 a63e ab14 b23d 1f10 63bd d892 003e
000001c0: 2379 acbd ddcd fabc d0d7 febe 14cd 7b3e
000001d0: d234 27be 4ad2 a13d 244f 843b 69f2 103d
000001e0: e908 ff3d 040d f3bc dc8a 5fbb d7a3 663c
000001f0: 7d95 be3d e88d 69be ae9a 303e dcb1 ccbd
00000200: fad6 c23e 6bb2 bf3e 01f4 d6bd 9699 883e
00000210: 7689 31be e198 73be c752 893d 387c 8cbc
00000220: 396d 073f 4bd4 e1bd 9b94 673c 079f 67be
00000230: 981b 0080 8303 2f83 71d5 7b9d fb1b 0080
00000240: a11b 0080 ff02 0000 681b 0080 671b 0080
00000250: e4fb c309 581b 0080 7c1b 0080 861b 0080
00000260: a01b 0000 921b 0000 94fd 9012 9343 559d
00000270: 85ec 0392 ad1b 0080 da1c 0000 a21b 0000
00000280: b6f9 503e ed7b 813e f44d 373e 4a6c 8b3b
00000290: 27d0 2ebc 8c81 38be 9c64 8c3e 7e02 8c3e
000002a0: 9854 51be 35de 113c eb11 0cbf 4ce0 88bd
000002b0: 92b1 d63e 0fa9 2f3e 8b25 acbc 2482 163d
000002c0: 864d 6f3e 71ad 7f3d ca07 223c 1c2c 0a3e
000002d0: 9e5b 2b3d 1468 bb3e ccb0 e93d 194e 6f3b
000002e0: d159 603e 697e db3e b7cf e4bd 14f3 83bc
000002f0: f840 003f e10f a33d 51e9 c9bd 8222 11be
00000300: 214a 1cbe f212 933e 82b6 6e3e 33cb 97bd
00000310: d63b eb3d 0165 91bc 6e1e 503c 7d43 a0bd
00000320: 7d1b 0000 9bd7 d083 3130 26ac 7c1b 0080
00000330: 91f7 d704 87bc 0221 8a1b 0000 aab2 8c96
00000340: 0c5e 652e 5e1b 0000 7c0a 2805 308b 899e
00000350: 0884 0b00 e260 4290 8b75 f590 12a5 deb0
00000360: 416e c49b 981b 0000 d71b 0080 9cd6 2f90
00000370: f1f7 b53d 0277 45be 6498 cbbd 3221 c2bb
00000380: a24e 6dbd 5359 f3be c767 a63d 0e61 a9bb
00000390: 5ed7 00bb 85bb 6abc 2a6f b23d 8331 8b3e
000003a0: f77f 8d3d bd7f a2bd e143 05be a993 023d
000003b0: bb16 493d d33d 823c 5aff 5f3b cb2c 833d
000003c0: 061b 4425 e300 7d24 17a0 5825 27e3 23a5
000003d0: bb9c f3a5 ec57 3526 319c 32a5 d9ad 19a6
000003e0: 848b 2aa6 5193 af25 8770 1626 ab5b b8a5
000003f0: a0d2 e025 33a3 6aa5 c90e 9425 deab e5a5
