paper_artifacts/collection/gmn_iterative_refinement_scoring=sinkhorn_pp=lrl___tp=sinkhorn_pp=lrl_when=update_only___unify=true/trained_models/gmn_iterative_refinement_scoring=sinkhorn_pp=lrl___tp=sinkhorn_pp=lrl_when=update_only___unify=true_ptc_fm_large_dataset_seed_7474_2024-05-07_23:01:42.pth (torch, 16111 bytes, 22 tensors)

encoder.MLP1.0.weight f4 [10, 1]
0.0039683357 -0.2606844 0.18630405 -0.17136513 -0.100595936 -0.45936918 -0.02767788 -0.0145016
-0.19411062 0.05241222
00000000: d008 823b 6d78 85be 7dc6 3e3e 577a 2fbe
00000010: 3e05 cebd 7032 ebbe b9bc e2bc 1e98 6dbc
00000020: efc4 46be 32ae 563d

encoder.MLP1.0.bias f4 [10]
0.0039716484 -0.22409724 0.18707342 -0.18798508 -0.10110657 -0.46400476 -0.008331488 -0.010346393
-0.19437389 0.0050525344
00000000: 9a24 823b bf79 65be 2d90 3f3e 297f 40be
00000010: f610 cfbd 0892 edbe cb80 08bc eb83 29bc
00000020: f309 47be bb8f a53b

prop_layer._message_net.0.weight f4 [20, 21]
0.0017544549 -0.0027326858 0.0018058483 -0.00078842766 0.0013911963 0.0017457722 0.0062718797 0.0041247196
8.638201e-05 0.001039425 -0.00421415 -0.0032002965 -6.318118e-05 -0.0011774711 0.001961312 -0.0012188095
-0.0058432934 0.0008119611 0.0027967733 -0.003039112 3.307941e-05 0.007464086 -0.005767485 0.00078307453
0.00072010024 0.0037264721 0.0033099179 0.007312649 0.0026522693 0.0012534673 -0.002167374 -0.0058177966
0.00048278153 0.0001567817 -0.0022250267 -0.0017994974 -0.0055137924 -0.0049401107 -0.0012936739 0.00066169765
-0.003655258 -0.0011869948 -0.003814436 0.0054074116 0.0046543945 0.0011511634 -0.0047819386 -0.0029431928
-0.0011630186 -0.0021073031 -0.0041611404 0.0033457603 0.0024779942 -0.0029965092 -3.7235703e-05 0.0059601893
0.005992985 0.0021825533 -0.0009747607 0.0032979583 0.004601679 0.0012152666 0.0011455003 -0.026559914
-0.116613984 0.1402535 -0.013695136 0.33377314 -0.07870223 -0.4025799 -0.17111567 0.07752102
0.2046135 0.05527499 0.47645065 -0.283698 0.06217947 -0.15352069 -0.17122738 0.10573282
-0.009502614 -0.07155751 -0.07777073 0.04394562 0.09698151 0.52310646 -0.27773446 -0.18100138
0.19818662 0.37055442 -0.23084873 0.24433899 0.27440965 -0.4208148 -0.2568304 -0.104092464
0.06055622 0.35580492 0.04982336 -0.19076519 -0.25877556 0.09664325 -0.39150575 0.16623795
-0.11481313 -0.13461861 0.4971613 -0.055604894 0.111768015 0.085814625 -0.028896704 0.27015117
0.25881323 0.30462214 -0.12750427 0.22952959 -0.10233793 0.28645927 -0.25896925 0.28565836
0.3714092 0.34012884 0.17766209 -0.20615417 -0.10282351 0.06843928 0.20187457 -0.26497516
-0.27518383 0.35988307 0.084954984 -0.13202518 0.19685902 0.016342489 0.09203738 0.3442767
-0.2514516 0.16343886 0.06223375 0.061336122 -0.22638273 0.050238997 -0.017520942 -0.11581559
-0.2657957 0.28929013 -0.10642773 -0.0052937055 -0.007051073 -0.008771809 0.0029525033 -0.010145852
0.0043757022 -0.006586855 -0.0044324985 -3.3506753e-05 -0.0046442263 0.0023196826 0.0027587179 0.0005517582
-0.006983396 -0.002212055 -0.0004293967 0.0019178126 -0.000765536 -0.004510815 0.0029461028 -0.0009666124
-0.24592778 0.11801141 -0.06508977 0.42133978 0.098017305 0.20933181 -0.503101 0.28611
-0.27900717 0.12232957 -0.23618664 0.029218586 0.17396848 0.058795836 0.30927733 0.061858386
0.29342225 -0.0533525 0.15850075 -0.32970494 0.09618047 -0.0009189044 0.0060439543 -0.0032489677
0.0021033455 -0.00037218464 -0.0007228008 -0.0045511154 -0.0020623333 -0.0004772032 0.0072341724 0.0013662196
0.005905602 -0.0020718763 0.0012034478 0.0019975496 0.0019128511 0.001288616 0.0030895001 -0.000724537
0.0032725686 -0.0008265431 0.0014583493 0.00058373285 0.0026455296 0.001024537 -0.00067487 -0.00014954858
-0.0021852523 -0.0062829107 0.00017803644 -0.0011774604 0.0008831786 0.004989895 0.004775346 -0.0025593096
0.00043735583 -0.00058865926 -7.243897e-05 -0.003032542 0.0006355441 0.0020248548 -0.0019256413 0.001293179
-0.009461748 0.0016298367 -0.0017664261 -0.0017617176 0.002065032 0.0062073823 0.008358727 0.0021665955
-0.0077821007 -0.00061880716 -0.009991005 0.0008566064 -0.0074037006 -0.0008150582 -0.00061776984 -0.002463263
0.0018815417 -0.0011837733 -0.0017675321 0.0011232343 0.0646295 -0.27290294 -0.16517362 -0.074922495
00000000: bdf5 e53a dc16 33bb 37b2 ec3a 7cae 4eba
00000010: cd58 b63a 65d2 e43a 5784 cd3b a828 873b
00000020: fd27 b538 513d 883a da16 8abb 11bc 51bb
00000030: 2380 84b8 6055 9aba 5b89 003b 76c0 9fba
00000040: 1979 bfbb c9d9 543a 124a 373b d72b 47bb
00000050: bfbe 0a38 4b95 f43b 2cfd bcbb 3e47 4d3a
00000060: 1cc5 3c3a d437 743b 35eb 583b f29e ef3b
00000070: b2d1 2d3b 624b a43a 800a 0ebb 37a3 bebb
00000080: d71d fd39 c465 2439 c1d1 11bb 1ddd ebba
00000090: 0bad b4bb a7e0 a1bb 7e90 a9ba c775 2d3a
000000a0: 0e8d 6fbb f094 9bba 9efb 79bb a830 b13b
000000b0: e483 983b a2e2 963a cfb1 9cbb 95e2 40bb
000000c0: 6e70 98ba ae1a 0abb 2d5a 88bb 8b44 5b3b
000000d0: d865 223b 1561 44bb 882d 1cb8 b14d c33b
000000e0: cd60 c43b 2b09 0f3b 1587 7fba 8f22 583b
000000f0: aec9 963b 9549 9f3a 9d24 963a 2d94 d9bc
00000100: 50d3 eebd 9d9e 0f3e 9061 60bc 50e4 aa3e
00000110: a22e a1bd f41e cebe f238 2fbe 57c3 9e3d
00000120: 3486 513e 0768 623d 57f1 f33e dd40 91be
00000130: e6af 7e3d 8734 1dbe 3b56 2fbe 738a d83d
00000140: dab0 1bbc be8c 92bd 4346 9fbd 5300 343d
00000150: 3e9e c63d 4eea 053f 3633 8ebe 6d58 39be
00000160: 6ff1 4a3e 4fb9 bd3e 9c63 6cbe 0034 7a3e
00000170: 6c7f 8c3e 0a75 d7be 467f 83be 6e2e d5bd
00000180: cd09 783d 102c b63e 9413 4c3d f357 43be
00000190: 3b7e 84be e5ec c53d 7173 c8be 483a 2a3e
000001a0: 2523 ebbd 76d9 09be ed8b fe3e f5c1 63bd
000001b0: a1e6 e43d 94bf af3d c8b8 ecbc 4151 8a3e
000001c0: 2b83 843e 6ff7 9b3e 7b90 02be ce09 6b3e
000001d0: 8c96 d1bd caaa 923e 9e97 84be d041 923e
000001e0: 5929 be3e 5e25 ae3e 0ded 353e 141a 53be
000001f0: 2295 d2bd e529 8c3d 35b8 4e3e d3aa 87be
00000200: e5e4 8cbe 9842 b83e e1fc ad3d 9c31 07be
00000210: 6995 493e afe0 853c 187e bc3d 0945 b03e
00000220: 44be 80be 845c 273e d1e8 7e3d 963b 7b3d
00000230: e0d0 67be 68c7 4d3d 1488 8fbc b930 edbd
00000240: 6016 88be d61d 943e c8f6 d9bd d276 adbb
00000250: b00c e7bb a2b7 0fbc c97e 413b ca3a 26bc
00000260: 0d62 8f3b 8bd6 d7bb 7e3e 91bb 9a89 0cb8
00000270: 982e 98bb d105 183b 9bcb 343b dea3 103a
00000280: f9d4 e4bb 20f8 10bb a620 e1b9 1d5f fb3a
00000290: 40ae 48ba 75cf 93bb 6713 413b 4364 7dba
000002a0: 7ed4 7bbe f7af f13d c94d 85bd d9b9 d73e
000002b0: 4cbd c83d 145b 563e 3acb 00bf 037d 923e
000002c0: 07da 8ebe ed87 fa3d e9da 71be d15b ef3c
000002d0: cb24 323e e7d3 703d 9959 9e3e 385f 7d3d
000002e0: 713b 963e 2788 5abd 054e 223e 16cf a8be
000002f0: 44fa c43d a1e2 70ba 5d0c c63b a2ec 54bb
00000300: 48d8 093b c721 c3b9 577a 3dba 8621 95bb
00000310: 3628 07bb 2131 fab9 a30c ed3b b912 b33a
00000320: c883 c13b 51c8 07bb 02bd 9d3a 52e9 023b
00000330: a2b8 fa3a c7e6 a83a 3679 4a3b dbee 3dba
00000340: 9778 563b 5eac 58ba 1526 bf3a a605 193a
00000350: 9f60 2d3b c249 863a c2e9 30ba 24d0 1cb9
00000360: 7336 0fbb e0e0 cdbb 4baf 3a39 0455 9aba
00000370: 1d85 673a 4682 a33b 817a 9c3b 17ba 27bb
00000380: e84c e539 4150 1aba 60ea 97b8 9dbd 46bb
00000390: a49a 263a 6db3 043b cd65 fcba e37f a93a
000003a0: 7305 1bbc 3fa0 d53a 6d87 e7ba 6fe9 e6ba
000003b0: 7d55 073b 4c67 cb3b 0bf3 083c 71fd 0d3b
000003c0: fe00 ffbb 7237 22ba 50b1 23bc e28d 603a
000003d0: be9a f2bb a1a9 55ba d5f1 21ba b26e 21bb
000003e0: 109e f63a d728 9bba 89ac e7ba 7d39 933a
000003f0: 795c 843d efb9 8bbe 4623 29be f770 99bd

prop_layer._message_net.0.bias f4 [20]
3.304711e-05 -0.0011870104 0.001145531 0.039970964 -0.15853511 0.111556396 -0.106672965 -0.0009665798
0.11582831 -0.00082648493 -0.0019256838 0.001123232 -0.2553643 -0.05786594 -0.31126687 -0.003483591
0.2543924 -0.0016528477 0.09669087 -0.014345793
00000000: 109c 0a38 7695 9bba a425 963a 98b8 233d
00000010: 0757 22be ae77 e43d 5b77 dabd 1362 7dba
00000020: 6537 ed3d 77a8 58ba 3a67 fcba 6939 933a
00000030: 1cbf 82be d604 6dbd 5f5e 9fbe f54c 64bb
00000040: b83f 823e 5ea4 d8ba dd05 c63d 9e0a 6bbc

prop_layer._reverse_message_net.0.weight f4 [20, 21]
0.0017544549 -0.0027326858 0.0018058483 -0.00078842766 0.0013911963 0.0017457722 0.0062718797 0.0041247196
8.638201e-05 0.001039425 -0.00421415 -0.0032002965 -6.318118e-05 -0.0011774711 0.001961312 -0.0012188095
-0.0058432934 0.0008119611 0.0027967733 -0.003039112 3.307941e-05 0.007464086 -0.005767485 0.00078307453
0.00072010024 0.0037264721 0.0033099179 0.007312649 0.0026522693 0.0012534673 -0.002167374 -0.0058177966
0.00048278153 0.0001567817 -0.0022250267 -0.0017994974 -0.0055137924 -0.0049401107 -0.0012936739 0.00066169765
-0.003655258 -0.0011869948 -0.003814436 0.0054074116 0.0046543945 0.0011511634 -0.0047819386 -0.0029431928
-0.0011630186 -0.0021073031 -0.0041611404 0.0033457603 0.0024779942 -0.0029965092 -3.7235703e-05 0.0059601893
0.005992985 0.0021825533 -0.0009747607 0.0032979583 0.004601679 0.0012152666 0.0011455003 -0.026559914
-0.116613984 0.1402535 -0.013695136 0.33377314 -0.07870223 -0.4025799 -0.17111567 0.07752102
0.2046135 0.05527499 0.47645065 -0.283698 0.06217947 -0.15352069 -0.17122738 0.10573282
-0.009502614 -0.07155751 -0.07777073 0.04394562 0.09698151 0.52310646 -0.27773446 -0.18100138
0.19818662 0.37055442 -0.23084873 0.24433899 0.27440965 -0.4208148 -0.2568304 -0.104092464
0.06055622 0.35580492 0.04982336 -0.19076519 -0.25877556 0.09664325 -0.39150575 0.16623795
-0.11481313 -0.13461861 0.4971613 -0.055604894 0.111768015 0.085814625 -0.028896704 0.27015117
0.25881323 0.30462214 -0.12750427 0.22952959 -0.10233793 0.28645927 -0.25896925 0.28565836
0.3714092 0.34012884 0.17766209 -0.20615417 -0.10282351 0.06843928 0.20187457 -0.26497516
-0.27518383 0.35988307 0.084954984 -0.13202518 0.19685902 0.016342489 0.09203738 0.3442767
-0.2514516 0.16343886 0.06223375 0.061336122 -0.22638273 0.050238997 -0.017520942 -0.11581559
-0.2657957 0.28929013 -0.10642773 -0.0052937055 -0.007051073 -0.008771809 0.0029525033 -0.010145852
0.0043757022 -0.006586855 -0.0044324985 -3.3506753e-05 -0.0046442263 0.0023196826 0.0027587179 0.0005517582
-0.006983396 -0.002212055 -0.0004293967 0.0019178126 -0.000765536 -0.004510815 0.0029461028 -0.0009666124
-0.24592778 0.11801141 -0.06508977 0.42133978 0.098017305 0.20933181 -0.503101 0.28611
-0.27900717 0.12232957 -0.23618664 0.029218586 0.17396848 0.058795836 0.30927733 0.061858386
0.29342225 -0.0533525 0.15850075 -0.32970494 0.09618047 -0.0009189044 0.0060439543 -0.0032489677
0.0021033455 -0.00037218464 -0.0007228008 -0.0045511154 -0.0020623333 -0.0004772032 0.0072341724 0.0013662196
0.005905602 -0.0020718763 0.0012034478 0.0019975496 0.0019128511 0.001288616 0.0030895001 -0.000724537
0.0032725686 -0.0008265431 0.0014583493 0.00058373285 0.0026455296 0.001024537 -0.00067487 -0.00014954858
-0.0021852523 -0.0062829107 0.00017803644 -0.0011774604 0.0008831786 0.004989895 0.004775346 -0.0025593096
0.00043735583 -0.00058865926 -7.243897e-05 -0.003032542 0.0006355441 0.0020248548 -0.0019256413 0.001293179
-0.009461748 0.0016298367 -0.0017664261 -0.0017617176 0.002065032 0.0062073823 0.008358727 0.0021665955
-0.0077821007 -0.00061880716 -0.009991005 0.0008566064 -0.0074037006 -0.0008150582 -0.00061776984 -0.002463263
0.0018815417 -0.0011837733 -0.0017675321 0.0011232343 0.0646295 -0.27290294 -0.16517362 -0.074922495
00000000: bdf5 e53a dc16 33bb 37b2 ec3a 7cae 4eba
00000010: cd58 b63a 65d2 e43a 5784 cd3b a828 873b
00000020: fd27 b538 513d 883a da16 8abb 11bc 51bb
00000030: 2380 84b8 6055 9aba 5b89 003b 76c0 9fba
00000040: 1979 bfbb c9d9 543a 124a 373b d72b 47bb
00000050: bfbe 0a38 4b95 f43b 2cfd bcbb 3e47 4d3a
00000060: 1cc5 3c3a d437 743b 35eb 583b f29e ef3b
00000070: b2d1 2d3b 624b a43a 800a 0ebb 37a3 bebb
00000080: d71d fd39 c465 2439 c1d1 11bb 1ddd ebba
00000090: 0bad b4bb a7e0 a1bb 7e90 a9ba c775 2d3a
000000a0: 0e8d 6fbb f094 9bba 9efb 79bb a830 b13b
000000b0: e483 983b a2e2 963a cfb1 9cbb 95e2 40bb
000000c0: 6e70 98ba ae1a 0abb 2d5a 88bb 8b44 5b3b
000000d0: d865 223b 1561 44bb 882d 1cb8 b14d c33b
000000e0: cd60 c43b 2b09 0f3b 1587 7fba 8f22 583b
000000f0: aec9 963b 9549 9f3a 9d24 963a 2d94 d9bc
00000100: 50d3 eebd 9d9e 0f3e 9061 60bc 50e4 aa3e
00000110: a22e a1bd f41e cebe f238 2fbe 57c3 9e3d
00000120: 3486 513e 0768 623d 57f1 f33e dd40 91be
00000130: e6af 7e3d 8734 1dbe 3b56 2fbe 738a d83d
00000140: dab0 1bbc be8c 92bd 4346 9fbd 5300 343d
00000150: 3e9e c63d 4eea 053f 3633 8ebe 6d58 39be
00000160: 6ff1 4a3e 4fb9 bd3e 9c63 6cbe 0034 7a3e
00000170: 6c7f 8c3e 0a75 d7be 467f 83be 6e2e d5bd
00000180: cd09 783d 102c b63e 9413 4c3d f357 43be
00000190: 3b7e 84be e5ec c53d 7173 c8be 483a 2a3e
000001a0: 2523 ebbd 76d9 09be ed8b fe3e f5c1 63bd
000001b0: a1e6 e43d 94bf af3d c8b8 ecbc 4151 8a3e
000001c0: 2b83 843e 6ff7 9b3e 7b90 02be ce09 6b3e
000001d0: 8c96 d1bd caaa 923e 9e97 84be d041 923e
000001e0: 5929 be3e 5e25 ae3e 0ded 353e 141a 53be
000001f0: 2295 d2bd e529 8c3d 35b8 4e3e d3aa 87be
00000200: e5e4 8cbe 9842 b83e e1fc ad3d 9c31 07be
00000210: 6995 493e afe0 853c 187e bc3d 0945 b03e
00000220: 44be 80be 845c 273e d1e8 7e3d 963b 7b3d
00000230: e0d0 67be 68c7 4d3d 1488 8fbc b930 edbd
00000240: 6016 88be d61d 943e c8f6 d9bd d276 adbb
00000250: b00c e7bb a2b7 0fbc c97e 413b ca3a 26bc
00000260: 0d62 8f3b 8bd6 d7bb 7e3e 91bb 9a89 0cb8
00000270: 982e 98bb d105 183b 9bcb 343b dea3 103a
00000280: f9d4 e4bb 20f8 10bb a620 e1b9 1d5f fb3a
00000290: 40ae 48ba 75cf 93bb 6713 413b 4364 7dba
000002a0: 7ed4 7bbe f7af f13d c94d 85bd d9b9 d73e
000002b0: 4cbd c83d 145b 563e 3acb 00bf 037d 923e
000002c0: 07da 8ebe ed87 fa3d e9da 71be d15b ef3c
000002d0: cb24 323e e7d3 703d 9959 9e3e 385f 7d3d
000002e0: 713b 963e 2788 5abd 054e 223e 16cf a8be
000002f0: 44fa c43d a1e2 70ba 5d0c c63b a2ec 54bb
00000300: 48d8 093b c721 c3b9 577a 3dba 8621 95bb
00000310: 3628 07bb 2131 fab9 a30c ed3b b912 b33a
00000320: c883 c13b 51c8 07bb 02bd 9d3a 52e9 023b
00000330: a2b8 fa3a c7e6 a83a 3679 4a3b dbee 3dba
00000340: 9778 563b 5eac 58ba 1526 bf3a a605 193a
00000350: 9f60 2d3b c249 863a c2e9 30ba 24d0 1cb9
00000360: 7336 0fbb e0e0 cdbb 4baf 3a39 0455 9aba
00000370: 1d85 673a 4682 a33b 817a 9c3b 17ba 27bb
00000380: e84c e539 4150 1aba 60ea 97b8 9dbd 46bb
00000390: a49a 263a 6db3 043b cd65 fcba e37f a93a
000003a0: 7305 1bbc 3fa0 d53a 6d87 e7ba 6fe9 e6ba
000003b0: 7d55 073b 4c67 cb3b 0bf3 083c 71fd 0d3b
000003c0: fe00 ffbb 7237 22ba 50b1 23bc e28d 603a
000003d0: be9a f2bb a1a9 55ba d5f1 21ba b26e 21bb
000003e0: 109e f63a d728 9bba 89ac e7ba 7d39 933a
000003f0: 795c 843d efb9 8bbe 4623 29be f770 99bd

prop_layer._reverse_message_net.0.bias f4 [20]
3.304711e-05 -0.0011870104 0.001145531 0.039970964 -0.15853511 0.111556396 -0.106672965 -0.0009665798
0.11582831 -0.00082648493 -0.0019256838 0.001123232 -0.2553643 -0.05786594 -0.31126687 -0.003483591
0.2543924 -0.0016528477 0.09669087 -0.014345793
00000000: 109c 0a38 7695 9bba a425 963a 98b8 233d
00000010: 0757 22be ae77 e43d 5b77 dabd 1362 7dba
00000020: 6537 ed3d 77a8 58ba 3a67 fcba 6939 933a
00000030: 1cbf 82be d604 6dbd 5f5e 9fbe f54c 64bb
00000040: b83f 823e 5ea4 d8ba dd05 c63d 9e0a 6bbc

prop_layer.GRU.weight_ih_l0 f4 [30, 20]
-0.001068371 -0.0019209229 0.0017873312 0.012977554 -0.01843333 -0.0109300865 0.02335428 0.00054865266
-0.0025493656 0.0022981097 -0.002939742 -0.0012473027 0.007722925 0.021782335 0.0361317 0.0045986013
-0.04576657 -0.003990188 -0.008327954 0.001450118 0.0027504286 0.0045060692 -0.0050531696 0.093290575
-0.08520047 0.06837022 -0.018152164 -0.00096455275 -0.08526255 0.0013462022 -0.0015423268 0.0036421462
0.007128241 -0.02056067 0.049078643 -0.07883214 -0.003849234 -0.0022260225 -0.012940745 -0.0044529536
0.0032193705 0.0022221662 0.0006182556 -0.0582034 -0.019010948 0.008719576 0.014543896 -0.00051582535
-0.03581887 -0.0022559399 0.001097389 0.0030049724 0.2116092 -0.019126598 0.075378045 -0.01612134
-0.22777921 0.0009373497 -0.015674146 0.03780684 0.00016976264 0.0010696357 0.0006999906 0.024300532
0.02591386 -0.03496718 0.020196794 -0.00017744995 -0.07141248 -0.00089246087 -0.0016462342 0.0055510974
0.044699453 -0.0010493809 0.08450997 -0.01547286 -0.07348558 -0.00058733893 0.00020864425 0.056579847
0.003192195 0.0025347543 0.0007934304 -0.0828956 0.19891599 -0.039598525 0.05368852 -0.0052720853
0.15095325 0.0019662553 -0.0010421516 -0.00056008983 0.1747089 0.034310486 -0.009960962 0.09317565
0.12019146 -0.00090715353 0.085069254 0.048841476 0.000563627 0.0018542253 -0.00039806063 0.009617242
0.032527097 -0.01708357 0.0034232566 -0.0020874212 0.110240996 -0.0031677785 0.0022474653 0.00600858
0.019146433 -0.010478298 0.008504561 -0.017217437 0.020014724 0.002639058 -0.0069097793 0.006418289
-0.0035764955 0.0026200132 -0.006999249 0.05566505 -0.07195618 -0.10283434 0.39169523 0.009381193
-0.0939661 0.00022290078 0.0033479163 -0.00056479336 -0.0111147845 -0.0044252267 0.20040892 0.017853558
-0.15986888 0.003370627 0.19781049 0.09059719 -0.0021538297 -0.0049089207 0.003824239 0.014478163
0.11296096 0.0068434696 0.025013236 0.0050827065 0.055207122 0.0035350055 0.003458992 -0.0064175013
0.11722593 0.014061782 0.11884804 -0.02665484 0.036532696 0.0024976134 0.06458293 0.03805408
0.0008455581 0.0004349579 0.0018947687 -0.009546437 0.017192274 -0.0040051956 0.028728142 -0.0021232406
0.0055357097 -0.00022137903 -0.0026097393 0.0015217507 0.0251376 -0.015202224 0.009911145 -0.017815536
-0.025323676 -0.0021227205 -0.0014592994 0.01563205 -0.0023408246 -0.006617449 0.0057246555 0.014940605
0.009993601 -0.045134045 -0.020510733 0.0036459193 0.063321166 0.002588385 0.0016932195 -0.006320628
0.020798909 -0.01788918 -0.030555122 -0.008086294 0.067650184 0.00067424006 -0.014307128 -0.06650866
0.0032342193 0.006182307 -0.0022402173 -0.18715352 0.16204946 0.3610138 -0.10242536 -0.011001712
0.27933452 0.0008843454 -0.0019083417 -0.005028745 0.06867239 0.049579907 0.5410555 -0.13270098
0.42136908 -0.00061356666 -0.12532914 0.035588767 -0.004856146 -0.0063022813 -0.0024858476 -0.36967736
0.005065255 -0.11781346 -0.34448552 0.01671331 0.45770547 0.0013213977 0.00012916444 -0.0012460701
0.23999067 -0.042348865 -0.050629705 0.037018143 0.65420204 -0.0012910224 -0.092779264 -0.1992824
0.0018562878 0.0022968927 -0.0019890282 -0.061471928 -0.22483304 0.16267392 0.097681135 -7.120074e-05
0.116444476 -0.0022023697 -0.0022952934 0.0025194504 0.43883634 -0.140594 0.25729218 -0.110973455
00000000: 9508 8cba 7ac7 fbba e244 ea3a cf9f 543c
00000010: 7f01 97bc 1b14 33bc 7a51 bf3c 75d3 0f3a
00000020: 4213 27bb e29b 163b b0a8 40bb 897c a3ba
00000030: 9710 fd3b de70 b23c d5fe 133d ddaf 963b
00000040: ba75 3bbd 1fc0 82bb f971 08bc e311 be3a
00000050: 8940 343b a6a7 933b 0f95 a5bb 210f bf3d
00000060: 967d aebd b005 8c3d d9b3 94bc 0ada 7cba
00000070: 229e aebd 0d73 b03a e627 caba 13b1 6e3b
00000080: 0594 e93b da6e a8bc b006 493d bf72 a1bd
00000090: 6e43 7cbb 76e2 11bb 6b05 54bc 15ea 91bb
000000a0: 13fc 523b c3a1 113b 6e12 223a b066 6ebd
000000b0: d9bc 9bbc 8ddc 0e3c 8549 6e3c 7438 07ba
000000c0: cfb6 12bd 64d8 13bb 44d6 8f3a 12ef 443b
000000d0: 15b0 583e 62af 9cbc ce5f 9a3d e710 84bc
000000e0: f43e 69be 79b8 753a 1167 80bc 58db 1a3d
000000f0: 5002 3239 0533 8c3a 937f 373a e911 c73c
00000100: 4e49 d43c bf39 0fbd bf73 a53c dc11 3ab9
00000110: b540 92bd 09f4 69ba 74c6 d7ba fbe5 b53b
00000120: c616 373d 618b 89ba 9013 ad3d e181 7dbc
00000130: 9c7f 96bd a6f7 19ba 84c7 5a39 45c0 673d
00000140: 2534 513b 1f1e 263b 36fe 4f3a 2bc5 a9bd
00000150: a2b0 4b3e 1032 22bd 7ee8 5b3d 75c1 acbb
00000160: 7d93 1a3e 4adc 003b ce98 88ba fed2 12ba
00000170: e4e6 323e 2789 0c3d 4e33 23bc e0d2 be3d
00000180: f126 f63d 0bce 6dba ca38 ae3d 000e 483d
00000190: 5ec0 133a 7a09 f33a cbb2 d0b9 a391 1d3c
000001a0: 223b 053d d8f2 8bbc b758 603b 1ecd 08bb
000001b0: 08c6 e13d 819a 4fbb 364a 133b 9fe3 c43b
000001c0: fbd8 9c3c 2bad 2bbc b756 0b3c 950b 8dbc
000001d0: ebf5 a33c 0cf4 2c3b 6e6b e2bb 8350 d23b
000001e0: a363 6abb 87b4 2b3b f559 e5bb 0901 643d
000001f0: c35d 93bd cf9a d2bd 478c c83e 93b3 193c
00000200: 4c71 c0bd 79ba 6939 b768 5b3b a40e 14ba
00000210: c91a 36bc 7e01 91bb ff37 4d3e a041 923c
00000220: abb4 23be bde5 5c3b d58e 4a3e 058b b93d
00000230: 4427 0dbb 03db a0bb 15a0 7a3b d135 6d3c
00000240: 1358 e73d 2f3f e03b 8fe8 cc3c d58c a63b
00000250: dd20 623d 8dab 673b 42b0 623b e749 d2bb
00000260: 2614 f03d 6363 663c 9a66 f33d 405b dabc
00000270: 4fa3 153d 00af 233b 0e44 843d 98de 1b3d
00000280: 72a8 5d3a 100b e439 e359 f83a a968 1cbc
00000290: d0d6 8c3c 043e 83bb 4857 eb3c 1126 0bbb
000002a0: e664 b53b fb21 68b9 2908 2bbb 7b75 c73a
000002b0: 5eed cd3c c012 79bc 5b62 223c e3f1 91bc
000002c0: 9973 cfbc 571d 0bbb f645 bfba c90e 803c
000002d0: 8568 19bb 30d7 d8bb e495 bb3b 70c9 743c
000002e0: 33bc 233c 7ade 38bd 2006 a8bc 60f0 6e3b
000002f0: 87ae 813d e5a1 293b 05ef dd3a 451d cfbb
00000300: 7962 aa3c 548c 92bc bc4e fabc 607c 04bc
00000310: 2e8c 8a3d 7cbf 303a 7268 6abc b135 88bd
00000320: 32f5 533b f394 ca3b 9cd0 12bb 2ca5 3fbe
00000330: 4bf0 253e cdd6 b83e 63c4 d1bd 8640 34bc
00000340: ef04 8f3e 6ad3 673a 5221 faba 2cc8 a4bb
00000350: 1ca4 8c3d 4d14 4b3d 9d82 0a3f c4e2 07be
00000360: b0bd d73e c3d7 20ba 4856 00be 87c5 113d
00000370: 4e20 9fbb 5e83 cebb 9ae9 22bb 5a46 bdbe
00000380: 70fa a53b 2f48 f1bd 6860 b0be 5aea 883c
00000390: 5f58 ea3e c032 ad3a 5170 0739 2d53 a3ba
000003a0: 1dc0 753e 0176 2dbd 1861 4fbd 56a0 173d
000003b0: c979 273f 8637 a9ba 0e03 bebd af10 4cbe
000003c0: af4e f33a 7787 163b 5b5a 02bb fdc9 7bbd
000003d0: a23a 66be fe93 263e 0c0d c83d 9b51 95b8
000003e0: 717a ee3d a255 10bb a26c 16bb 5d1d 253b
000003f0: 28af e03e e0f7 0fbe cdbb 833e 0d46 e3bd

prop_layer.GRU.weight_hh_l0 f4 [30, 10]
0.0014900197 -0.0011746564 0.0055146804 0.016198311 -0.0043394715 0.0028360654 0.010676716 0.0022307595
0.00065461703 0.019828878 0.021830417 0.0030997852 0.042015854 0.0007709378 -0.030527212 0.062462233
0.036645744 -0.0047016777 -0.010231164 0.0003711447 -0.040695496 -0.04184118 -0.049540594 0.00640361
-0.012740825 0.009920338 -0.008486151 -0.03942962 0.01122 0.010229375 0.013368486 -0.022787424
0.015432706 -0.066987425 -0.009442812 0.025497315 -0.04493736 0.052396767 0.048659105 -0.023437388
0.04286357 -0.012429113 0.030346714 0.0066992366 0.015277999 -0.0116621675 0.05385394 0.07321837
-0.0053485218 0.027202088 -0.021699993 0.0047657 -0.0014806445 -0.03907106 0.018419595 0.0032012924
0.023818834 0.009493987 0.04508195 -0.016082346 0.019998286 0.055837635 0.055764 -0.024736898
0.022522533 0.013198197 -0.051291283 0.036437705 0.09361924 -0.09965084 0.060429584 0.026824752
0.04573568 0.016842568 -0.0042010117 -0.0025557147 0.009098201 0.078537375 -0.039581675 0.0045766104
0.017383134 0.015458679 -0.003821775 0.0077545275 -0.005364319 -0.021737492 -0.0037695803 0.010140427
-0.031545073 -0.004903866 -0.029367197 -0.012525504 -0.015084523 -0.0005849266 0.011767349 -0.0010311313
-0.011864315 -0.011237748 0.039463185 -0.0018916363 -0.2425017 -0.068248145 0.013692162 -0.15770932
-0.11793329 0.11366936 -0.02762938 -0.13183711 0.06839616 0.056838125 -0.17903267 0.07038648
0.022287186 -0.082889624 0.035263274 0.024137886 -0.08002416 0.026873047 0.3398371 -0.018746223
0.17912956 0.10350344 0.05091821 -0.096194796 -0.022580761 -0.02975975 -0.35608953 0.19963904
0.04624665 -0.14096934 -0.029041452 0.020566309 0.053762395 -0.19364928 -0.04950689 -0.22618592
0.08227433 0.09283662 -0.1419641 0.09287004 0.14310129 0.09069672 0.029385418 -0.07680627
0.016478082 -0.23812592 -0.20136666 0.21576186 -0.12684685 -0.03100486 0.10055166 0.14713675
0.145162 0.05302389 0.008990658 -0.04420349 -0.008300819 0.122577205 -0.06133503 0.08940442
-0.10363012 0.012601398 0.07623762 -0.045067415 0.20619257 -0.36618757 -0.030451126 0.17641161
0.113446526 -0.015321661 0.14159225 0.24283856 0.21033739 -0.0129980855 0.07815034 -0.13673969
-0.05629527 0.30652007 0.03482211 -0.12401651 -0.1300067 0.14481929 -0.06463531 0.32954156
0.1701367 -0.11236037 -0.072654545 -0.23692043 0.03836334 -0.07737633 -0.013646292 -0.023345064
0.064239256 -0.06649794 0.035851657 0.0455649 0.3057232 -0.13821279 -0.037726734 -0.052342217
0.014164829 -0.014265305 -0.040866304 0.018925767 0.011494691 0.010232913 -0.048624497 0.045073073
0.09647027 0.11874422 0.14751895 -0.12944822 -0.006565185 0.1421429 0.07016315 0.011932305
-0.18226328 0.07214006 0.12436979 0.24320178 0.1736556 0.13913842 0.17980503 0.069203705
0.030017693 -0.11466297 0.10736775 0.15543093 -0.14444347 0.049360316 0.009627023 0.09654947
-0.014441717 0.21827921 0.03397774 -0.06109226 0.16746551 -0.16424803 -0.1912093 0.029720632
-0.09847596 -0.0022142164 -0.04592624 -0.05136227 0.053469993 -0.27216014 0.053176846 -0.09980168
-0.08025145 -0.07332803 0.10075739 0.054708622 0.14880598 -0.04003561 -0.0450815 0.19972488
00000000: c44c c33a eef6 99ba 7eb4 b43b 52b2 843c
00000010: 2032 8ebb 48dd 393b 65ed 2e3c ef31 123b
00000020: 9b9a 2b3a 2c70 a23c b4d5 b23c c425 4b3b
00000030: d118 2c3d c318 4a3a 3414 fabc 66d8 7f3d
00000040: d919 163d 8810 9abb 9da0 27bc 3396 c239
00000050: 52b0 26bd a861 2bbd 14eb 4abd 60d5 d13b
00000060: e5be 50bc ea88 223c 7f09 0bbc f480 21bd
00000070: 17d4 373c 1c99 273c 7f07 5b3c b1ac babc
00000080: 76d9 7c3c b430 89bd 06b6 1abc bfdf d03c
00000090: 3d10 38bd fe9d 563d c54e 473d c4ff bfbc
000000a0: b691 2f3d 7aa3 4bbc ac99 f83c 4585 db3b
000000b0: 9350 7a3c ad12 3fbc f395 5c3d 83f3 953d
000000c0: a742 afbb ead6 de3c 2fc4 b1bc 9729 9c3b
000000d0: 2f12 c2ba fa08 20bd b1e4 963c c6cc 513b
000000e0: b71f c33c ab8c 1b3c daa7 383d 20bf 83bc
000000f0: 72d3 a33c 01b6 643d cb68 643d 09a5 cabc
00000100: 2d81 b83c 403d 583c cf16 52bd b43f 153d
00000110: 72bb bf3d bd15 ccbd 0385 773d 95bf db3c
00000120: 5655 3b3d 6df9 893c a4a8 89bb c77d 27bb
00000130: 9f10 153c 34d8 a03d 6520 22bd 64f7 953b
00000140: 1367 8e3c 6646 7d3c bf76 7abb b119 fe3b
00000150: 2bc7 afbb d312 b2bc 100b 77bb 0924 263c
00000160: 6835 01bd 9cb0 a0bb 7a93 f0bc c637 4dbc
00000170: 1325 77bc c255 19ba d7cb 403c 0627 87ba
00000180: 8b62 42bc 881e 38bc 26a4 213d c8f0 f7ba
00000190: 5e52 78be afc5 8bbd 1755 603c 8d7e 21be
000001a0: 0287 f1bd 7bcb e83d 0257 e2bc 4f00 07be
000001b0: 4913 8c3d 18cf 683d 5754 37be c926 903d
000001c0: 9e93 b63c 09c2 a9bd 3970 103d d1bc c53c
000001d0: b5e3 a3bd dd24 dc3c 21ff ad3e ae91 99bc
000001e0: bd6d 373e 9df9 d33d 9d8f 503d c701 c5bd
000001f0: 4afb b8bc b8ca f3bc 5e51 b6be 2d6e 4c3e
00000200: 216d 3d3d 445a 10be 57e8 edbc ad7a a83c
00000210: f535 5c3d ff4b 46be bdc7 4abd 489d 67be
00000220: 727f a83d 2021 be3d 095f 11be a632 be3d
00000230: 2589 123e 34bf b93d b0b9 f03c 9b4c 9dbd
00000240: 0bfd 863c 48d7 73be 1033 4ebe adf0 5c3e
00000250: 24e4 01be e7fd fdbc 07ee cd3d 04ab 163e
00000260: 59a5 143e 942f 593d 8e4d 133c b80e 35bd
00000270: 2900 08bc c209 fb3d 713a 7bbd aa19 b73d
00000280: 073c d4bd 1876 4e3c 7822 9c3d 9c98 38bd
00000290: 2524 533e f07c bbbe a474 f9bc 3fa5 343e
000002a0: a756 e83d b407 7bbc 8ffd 103e acaa 783e
000002b0: af62 573e ecf5 54bc 490d a03d 7d05 0cbe
000002c0: de95 66bd 33f0 9c3e a1a1 0e3d 5efc fdbd
000002d0: 7a20 05be 824b 143e 845f 84bd acb9 a83e
000002e0: 5138 2e3e 321d e6bd e8cb 94bd 459b 72be
000002f0: e122 1d3d 7b77 9ebd b294 5fbc 263e bfbc
00000300: df8f 833d 1230 88bd 30d9 123d 43a2 3a3d
00000310: c087 9c3e a787 0dbe 5987 1abd cb64 56bd
00000320: 9913 683c 07b9 69bc 6d63 27bd 360a 9b3c
00000330: 3a54 3c3c f3a7 273c 7b2a 47bd 8b9e 383d
00000340: 3492 c53d 2b30 f33d 350f 173e 138e 04be
00000350: c320 d7bb e98d 113e b3b1 8f3d b77f 433c
00000360: 3aa3 3abe 2bbe 933d 97b5 fe3d e309 793e
00000370: c6d2 313e 4d7a 0e3e cf1e 383e acba 8d3d
00000380: aae7 f53c 6bd4 eabd 9fe3 db3d 4929 1f3e
00000390: fde8 13be 0b2e 4a3d a9ba 1d3c bbbb c53d
000003a0: f49c 6cbc 9684 5f3e 3e2c 0b3d e13b 7abd
000003b0: 147c 2b3e a330 28be 5fcc 43be af78 f33c
000003c0: c4ad c9bd 631c 11bb 271d 3cbd 3e61 52bd
000003d0: 5a03 5b3d 9358 8bbe f7cf 593d d364 ccbd
000003e0: df5a a4bd 022d 96bd e459 ce3d 2616 603d
000003f0: 9860 183e 61fc 23bd 61a7 38bd ae84 4c3e

prop_layer.GRU.bias_ih_l0 f4 [30]
-0.00503863 0.026673997 0.077944785 0.06038538 0.01021961 0.045848284 0.13274285 -0.020899532
-0.02176268 0.019221667 0.051091217 0.11579636 0.24386302 -0.08801581 -0.025521858 -0.10551436
0.21068993 0.205489 -0.22700135 0.088752545 -0.031094551 -0.33938786 -0.634809 -0.4029043
0.07726567 0.64425725 -0.40295318 -0.34989566 -0.05473333 -0.13474043
00000000: 181b a5bb 6d83 da3c 84a1 9f3d a956 773d
00000010: 2770 273c 69cb 3b3d beed 073e 7f35 abbc
00000020: a647 b2bc c276 9d3c 0645 513d a426 ed3d
00000030: 3ab7 793e a241 b4bd 3713 d1bc ea17 d8bd
00000040: 1abf 573e b56b 523e 0b73 68be e5c3 b53d
00000050: 00ba febc 3fc4 adbe d882 22bf 7949 cebe
00000060: 773d 9e3d 0bee 243f e14f cebe 8625 b3be
00000070: 0e30 60bd 65f9 09be

prop_layer.GRU.bias_hh_l0 f4 [30]
-0.00503863 0.026673997 0.077944785 0.06038538 0.01021961 0.045848284 0.13274285 -0.020899532
-0.02176268 0.019221667 0.051089037 0.115799285 0.24383979 -0.087336145 -0.025521606 -0.10561206
0.20951843 0.20548591 -0.2269325 0.08879244 -0.01619192 -0.11584874 -0.26576418 -0.1887545
-0.034623045 0.2603654 -0.15488301 -0.05192369 0.00522403 0.0062259915
00000000: 181b a5bb 6d83 da3c 84a1 9f3d a956 773d
00000010: 2770 273c 69cb 3b3d beed 073e 7f35 abbc
00000020: a647 b2bc c276 9d3c bd42 513d 2d28 ed3d
00000030: 23b1 793e 4bdd b2bd b012 d1bc 234b d8bd
00000040: 008c 563e e66a 523e fe60 68be d0d8 b53d
00000050: eba4 84bc 1b42 edbd 3e12 88be dc48 41be
00000060: e5d0 0dbd 9d4e 853e a799 1ebe efad 54bd
00000070: 572e ab3b 6703 cc3b

interaction_layer.0.weight f4 [20, 20]
-0.12648188 -0.20380141 0.14302476 -0.16807741 0.018394375 -0.28889683 0.35463437 -0.00557677
0.13458735 0.24036396 0.024032423 -0.09725294 0.04601959 -0.2767221 -0.26605314 -0.3114655
0.12333799 0.14087804 0.028778119 -0.15649955 -0.09886709 -0.08242248 0.2012973 0.1438697
-0.032354876 -0.114092566 0.12130352 0.04606834 -0.019146075 -0.08452617 -0.12403644 0.2976433
0.23070596 0.35351378 0.3342579 -0.30436778 0.30505267 0.31312227 -0.3489533 -0.2899581
0.09248672 0.035190333 -0.39767206 0.072794266 -0.03403126 0.33053213 -0.16333316 -0.0131835025
-0.17684448 -0.1449581 -0.18241358 0.06753635 0.17875965 -0.34487572 0.19446976 0.0028434086
-0.19892457 0.016063035 -0.23215082 -0.07086956 -0.20708759 -0.14825664 0.06805367 0.12921381
0.03731988 -0.13541566 -0.18106402 -0.3631144 0.007373828 0.114930406 0.1287456 -0.07822472
-0.38794306 0.107973725 -0.056191623 0.19264553 0.1886268 0.17789063 0.2670885 -0.046535145
0.048090603 0.2925407 0.10409878 0.074049905 0.09541629 -0.038071793 -0.2312432 -0.17182559
-0.2083232 -0.065555185 0.029391374 -0.22473629 -0.050251078 0.06301555 -0.04607769 0.016593449
0.17135909 -0.21946566 0.0900117 0.26433605 0.13347793 0.044609375 0.048425462 0.4482542
0.04719541 -0.21274915 0.017254263 -0.11990212 0.16331656 0.17372416 0.13777155 -0.22490664
-0.38022608 0.20462152 -0.06924002 0.027811138 0.3097616 -0.025471086 0.020241011 0.3693441
0.11573343 0.253966 0.36839354 0.1854184 -0.25288072 -0.07980256 0.120091245 0.21443261
-0.058439884 0.23849788 -0.05760163 -0.034081448 0.21936446 -0.38084647 0.21471609 0.26143363
0.15393524 0.24892126 -0.19144435 -0.39491874 0.22543958 0.34600493 0.02325007 -0.049312595
-0.047475718 -0.1257054 -0.104233004 0.20276986 -0.0012782132 0.04241646 0.23655 0.1279936
-0.025452223 0.11986231 -0.13716131 -0.118282475 0.5474732 0.009379979 0.11658746 0.30097952
-0.13934395 -0.04574295 0.031194182 -0.043304365 0.25262776 -0.075266376 -0.55009854 -0.26387438
0.04470688 0.0014079713 -0.0323566 0.05427632 -0.33364472 -0.16960058 -0.0039577656 -0.082810536
0.055461045 0.015080381 0.044287726 -0.1554947 0.33191043 -0.08897438 -0.116315745 0.33919775
-0.37584418 0.16870469 -0.062234413 -0.26129058 0.3512792 -0.21465881 -0.0031784978 -0.05000945
0.05818836 0.38519108 0.10712682 -0.1723958 0.36561552 0.30874467 -0.20681474 0.19699252
4.5603538e-05 -4.2825755e-05 -3.970943e-05 -0.00024369793 -0.00030561016 0.00010173069 -0.0001647832 0.00011135994
-0.00010501448 0.00022497114 1.1205732e-08 3.499871e-10 9.0196403e-07 -2.539894e-06 -3.8354046e-06 5.4289924e-09
1.5061773e-05 -6.837944e-09 -1.1790144e-07 6.1283595e-06 -0.074240975 0.098411664 0.03485906 -0.3905026
-0.37129256 -0.36369988 -0.21598825 0.16255678 -0.30794248 -0.18014991 0.1095007 -0.20937085
0.037628416 0.29284623 0.032573614 0.3300918 0.020934824 -0.18956622 0.27589205 0.40156683
-0.0126127815 -0.11192142 -0.004126988 0.23665212 -0.16647306 0.0661802 -0.06530846 0.013280959
-0.19525039 -0.1775904 -0.021873003 -0.1836138 0.066809975 -0.13753857 0.15195799 0.039844297
00000000: 7784 01be 51b1 50be 1575 123e 7c1c 2cbe
00000010: cdaf 963c 49ea 93be a392 b53e 56bd b6bb
00000020: 44d1 093e f821 763e a5df c43c 8d2c c7bd
00000030: 0a7f 3c3d 85ae 8dbe 1e38 88be 6878 9fbe
00000040: a198 fc3d 5542 103e 17c0 eb3c 6b41 20be
00000050: d47a cabd 1ecd a8bd e120 4e3e 9452 133e
00000060: 8c86 04bd 5da9 e9bd fb6d f83d 28b2 3c3d
00000070: 3bd8 9cbc 0e1c adbd d106 febd b464 983e
00000080: 2f3e 6c3e c2ff b43e da23 ab3e 18d6 9bbe
00000090: dd2f 9c3e 9051 a03e 02aa b2be 6375 94be
000000a0: ad69 bd3d bd23 103d ac9b cbbe 2915 953d
000000b0: 5d64 0bbd 823b a93e cf40 27be 9eff 57bc
000000c0: b816 35be e56f 14be a0ca 3abe 7f50 8a3d
000000d0: c50c 373e 8d93 b0be 1523 473e 7b58 3a3b
000000e0: e2b2 4bbe a096 833c f2b8 6dbe 0f24 91bd
000000f0: c50e 54be 97d0 17be b95f 8b3d a050 043e
00000100: bbdc 183d 67aa 0abe d968 39be 21ea b9be
00000110: 27a0 f13b a260 eb3d e3d5 033e 4834 a0bd
00000120: 79a0 c6be 5421 dd3d 3029 66bd df44 453e
00000130: 6227 413e f628 363e d3bf 883e a39b 3ebd
00000140: a7fa 443d e5c7 953e be31 d53d 7aa7 973d
00000150: 9e69 c33d 2bf1 1bbd 04cb 6cbe 0cf3 2fbe
00000160: ad52 55be cc41 86bd 2ec6 f03c 4521 66be
00000170: 13d4 4dbd 4c0e 813d f6bb 3cbd fcee 873c
00000180: c278 2f3e 9bbb 60be 0e58 b83d 0e57 873e
00000190: 70ae 083e 52b8 363d c759 463d 9381 e53e
000001a0: f94f 413d eada 59be d058 8d3c 3e8f f5bd
000001b0: 753c 273e bfe4 313e fc13 0d3e ed4d 66be
000001c0: feac c2be 4e88 513e b6cd 8dbd 2fd4 e33c
000001d0: 1399 9e3e bda8 d0bc 7ad0 a53c ab1a bd3e
000001e0: a605 ed3d d507 823e 149e bc3e 52de 3d3e
000001f0: 9579 81be 866f a3bd 66f2 f53d 3994 5b3e
00000200: a95e 6fbd ca38 743e b0ef 6bbd fd98 0bbd
00000210: 14a1 603e 4ffe c2be 89de 5b3e a1da 853e
00000220: 33a1 1d3e 37e5 7e3e fd09 44be ca32 cabe
00000230: a2d9 663e 8f27 b13e ee76 be3c 01fc 49bd
00000240: e675 42bd ebb8 00be 1d78 d5bd e7a2 4f3e
00000250: b889 a7ba e2bc 2d3d 2a3a 723e c110 033e
00000260: 2e81 d0bc 5f7a f53d 0474 0cbe 153e f2bd
00000270: 3427 0c3f 7cae 193c 68c5 ee3d fd19 9a3e
00000280: 2eb0 0ebe f65c 3bbd f18a ff3c eb5f 31bd
00000290: 6d58 813e 4225 9abd 42d3 0cbf 8b1a 87be
000002a0: 901e 373d ad8b b83a 5b88 04bd d950 5e3d
000002b0: 7bd3 aabe c6ab 2dbe 25b0 81bb 9298 a9bd
000002c0: 1f2b 633d b413 773c 0c67 353d 013a 1fbe
000002d0: 2af0 a93e 3338 b6bd f336 eebd 54ab ad3e
000002e0: a66e c0be ecc0 2c3e 83e9 7ebd e1c7 85be
000002f0: deda b33e 85cf 5bbe 584e 50bb b6d6 4cbd
00000300: eb56 6e3d c437 c53e 4e65 db3d 8688 30be
00000310: f531 bb3e c813 9e3e 3ec7 53be 68b8 493e
00000320: 6d46 3f38 ce9f 33b8 ad8d 26b8 2a89 7fb9
00000330: 4d3a a0b9 4058 d538 a7c9 2cb9 ea89 e938
00000340: 383b dcb8 3be6 6b39 5583 4032 4e68 c02f
00000350: 7f1e 7235 0c73 2ab6 e0b1 80b6 ec89 ba31
00000360: d3b1 7c37 31f3 eab1 0131 fdb3 35a2 cd36
00000370: a70b 98bd 0e8c c93d 60c8 0e3d f5ef c7be
00000380: 0f1a bebe df36 babe 062c 5dbe 4975 263e
00000390: a3aa 9dbe 3879 38be e741 e03d 5065 56be
000003a0: 4120 1a3d f1ef 953e e96b 053d cb01 a93e
000003b0: 827f ab3c a61d 42be b941 8d3e 2b9a cd3e
000003c0: d7a5 4ebc 0f37 e5bd af3b 87bb ef54 723e
000003d0: ea77 2abe 7c89 873d 71c0 85bd 6198 593c
000003e0: b8ef 47be 42da 35be 032f b3bc 4205 3cbe
000003f0: abd3 883d e9d6 0cbe e09a 1b3e c633 233d

interaction_layer.0.bias f4 [20]
0.034526475 -0.17377663 0.42512453 -0.074834056 -0.057139963 0.48824698 -0.1210884 -0.18281822
0.06764983 0.2962165 -0.01163687 0.18372679 0.07651546 0.12568553 0.28611973 -0.000119349635
0.022505276 0.2032176 -0.106491864 0.13315228
00000000: a26b 0d3d 80f2 31be eca9 d93e 9942 99bd
00000010: 980b 6abd 82fb f93e 32fd f7bd b334 3bbe
00000020: fe8b 8a3d b0a9 973e 92a8 3ebc e022 3c3e
00000030: 23b4 9c3d b5b3 003e 497e 923e 594b fab8
00000040: fc5c b83c 4618 503e 6818 dabd 1259 083e

interaction_layer.2.weight f4 [10, 20]
-0.182228 -0.24659625 0.26792848 -0.3061662 -0.30200416 -0.32834882 0.16001785 -0.037305877
0.011976713 -0.5322528 -1.5461518e-06 0.12336937 -0.18817985 -0.01193425 0.046630006 -4.779548e-07
0.12626094 0.3192641 0.083703846 -0.28918335 0.17195264 0.049514797 -0.15475374 -0.35279283
-0.11143066 -0.17625612 -0.43964854 0.31328616 -0.050463554 -0.4134345 -0.0011762182 -0.010273545
-0.19918446 0.24822646 0.024943765 -1.2262433e-06 0.33041316 0.21086884 -0.07404116 0.10872417
-0.008776057 0.034376882 0.3097801 -0.18677033 0.093177274 -0.22019097 -0.07797821 0.01801677
0.048261013 -0.3338026 5.370538e-14 -0.17381485 -0.08653921 0.3670015 0.3530267 2.774269e-17
-0.177444 -0.18007526 -0.07557955 -0.45782802 -0.08425159 -0.2652632 -0.23250692 0.07392852
-0.31503114 -0.07387183 -0.039038405 -0.19301699 -0.24525592 0.10442921 3.0532075e-05 -0.47081974
-0.22125822 0.21606871 -0.26255432 4.114375e-11 -0.09012453 -0.2795761 -0.12109665 -0.07836621
0.288031 -0.036352884 -0.03120256 -0.18071817 -0.033781253 -0.11546832 0.052108552 -0.15888467
-0.07772974 0.0628021 4.1942372e-10 -0.17443654 0.017279254 0.14173564 -0.0028157062 -4.2895952e-17
-0.2929122 0.028662026 0.18104441 0.3115807 -0.27805158 -0.4172946 0.2894392 -0.13377103
-0.012827795 0.26234835 -0.30544227 0.25168908 -0.39875782 0.22621651 0.00020639329 -0.23375349
0.2120849 -0.24471664 0.028662832 -3.2195236e-05 -0.04867908 -0.07257567 -0.10759124 -0.5809488
-0.3758655 0.69225144 0.33440998 -0.109039195 -0.29348052 -0.3403288 0.35808006 0.38253158
-0.11286884 0.042749424 -2.7745858e-05 -0.5183135 0.040148538 0.17874998 0.05128292 5.5888297e-05
-0.11005508 -0.610525 -0.3604899 0.09883719 0.261597 -0.21723579 0.4091148 0.2834456
-0.11228703 -0.4296208 0.03731982 -0.35591862 0.48349476 -0.6719135 3.6834635e-08 -0.14920017
0.03854556 -0.12412369 0.14639038 -5.5343423e-07 -0.14397992 -0.026752109 0.08657268 -0.27563983
0.28613698 -0.19836478 0.056189463 -0.2817328 -0.15302357 0.59848815 -0.5512894 -0.35682595
0.27509347 0.13529578 0.0001059876 -0.2723841 -0.13029575 0.133225 0.22369944 -4.680965e-10
-0.39533305 0.016307604 -0.35623896 -0.044735305 -0.25927788 -0.07781127 -0.39637333 0.15261348
-0.018641306 0.15758903 0.09936931 -0.246506 0.10941771 0.028293474 7.731385e-06 -0.4447428
-0.27668226 -0.34307793 0.6078393 2.1228337e-11 -0.50671464 -0.37744924 -0.039071787 -0.16740914
00000000: fa99 3abe ba83 7cbe ec2d 893e d1c1 9cbe
00000010: 4aa0 9abe 561d a8be b8db 233e 0cce 18bd
00000020: fa39 443c b841 08bf 5f85 cfb5 15a9 fc3d
00000030: 38b2 40be df87 43bc 1bff 3e3d ce4c 00b5
00000040: 8c4a 013e 9676 a33e ec6c ab3d d70f 94be
00000050: 5a14 303e 07d0 4a3d c477 1ebe 43a1 b4be
00000060: c235 e4bd 7c7c 34be 9d19 e1be 0b67 a03e
00000070: dfb2 4ebd b0ad d3be 552b 9aba 5f52 28bc
00000080: 03f7 4bbe 142f 7e3e de56 cc3c 6695 a4b5
00000090: ea2b a93e 00ee 573e e4a2 97bd c7aa de3d
000000a0: 73c9 0fbc c6ce 0c3d 7f9b 9e3e b940 3fbe
000000b0: bad3 be3d be79 61be 0ab3 9fbd e897 933c
000000c0: 57ad 453d 2de8 aabe 16de 7129 85fc 31be
000000d0: 783b b1bd 9fe7 bb3e eabf b43e 93e1 ff23
000000e0: e1b3 35be a665 38be 73c9 9abd 6f68 eabe
000000f0: 198c acbd 94d0 87be 4b16 6ebe d667 973d
00000100: c34b a1be 1d4a 97bd bce6 1fbd 3fa6 45be
00000110: 5e24 7bbe fbde d53d 910f 0038 490f f1be
00000120: 8491 62be 1e41 5d3e 856d 86be bff3 342e
00000130: 3693 b8bd 9924 8fbe 8501 f8bd 777e a0bd
00000140: cd78 933e c3e6 14bd 839c ffbc 2f0e 39be
00000150: 365e 0abd a87a ecbd c76f 553d aab2 22be
00000160: c530 9fbd 639e 803d a494 e62f 7e9f 32be
00000170: 398d 8d3c 2623 113e b687 38bb 9ad2 45a4
00000180: 96f8 95be a0cc ea3c b563 393e 8187 9f3e
00000190: c75c 8ebe a3a7 d5be 6031 943e 46fb 08be
000001a0: ac2b 52bc 8652 863e ee62 9cbe 64dd 803e
000001b0: fc29 ccbe 4da5 673e 476b 5839 135d 6fbe
000001c0: c92c 593e 0097 7abe 51ce ea3c 5f09 07b8
000001d0: b763 47bd 8ea2 94bd cc58 dcbd 10b9 14bf
000001e0: 7171 c0be 6437 313f c937 ab3e f14f dfbd
000001f0: 1443 96be 943f aebe 4556 b73e 2edb c33e
00000200: c727 e7bd 051a 2f3d c7bf e8b7 32b0 04bf
00000210: cb72 243d 3c0a 373e 0a0e 523d 9a69 6a38
00000220: 8f64 e1bd 5e4b 1cbf 2292 b8be 276b ca3d
00000230: 0bf0 853e 0f73 5ebe 7f77 d13e c81f 913e
00000240: bef6 e5bd 42f7 dbbe abdc 183d f73a b6be
00000250: a08c f73e 8602 2cbf 1c34 1e33 eec7 18be
00000260: f3e1 1d3d 9034 febd 5ce7 153e b68f 14b5
00000270: 796f 13be 3d27 dbbc 044d b13d aa20 8dbe
00000280: 8c80 923e 2320 4bbe ec26 663d 483f 90be
00000290: 36b2 1cbe 8536 193f 4d21 0dbf e4b1 b6be
000002a0: 0dd9 8c3e fa8a 0a3e a945 de38 ee75 8bbe
000002b0: 406c 05be 226c 083e 7711 653e 5dab 00b0
000002c0: 1869 cabe 8697 853c f464 b6be 5e3c 37bd
000002d0: 12c0 84be 845b 9fbd 72f1 cabe b546 1c3e
000002e0: a7b5 98bc 055f 213e 2382 cb3d 126c 7cbe
000002f0: 6416 e03d b7c7 e73c 0cb6 0137 54b5 e3be
00000300: 4ca9 8dbe e9a7 afbe 5b9b 1b3f f7b9 ba2d
00000310: 0db8 01bf 0741 c1be bd09 20bd 4d6d 2bbe

interaction_layer.2.bias f4 [10]
-0.048384927 0.04889232 0.05373098 -0.12030046 -0.030720333 0.3730414 -0.14954992 0.05261683
0.40863898 0.00058760354
00000000: 462f 46bd 5043 483d 0415 5c3d 1660 f6bd
00000010: 35a9 fbbc 48ff be3e 9d23 19be bf84 573d
00000020: 2139 d13e 6809 1a3a

scoring_alignment_preprocessor.0.weight f4 [16, 10]
0.2480433 -0.21803209 -0.28620595 0.13642742 -0.2559175 0.008481835 0.2551767 -0.21461721
0.1729435 0.20693842 -0.16152701 -0.39240977 0.052960087 0.4253544 -0.015218658 0.5345427
0.06881611 0.17609507 0.4395811 0.24060841 -9.826e-42 9.855e-42 -9.87e-42 1.1018e-41
9.892e-42 -9.836e-42 -9.823e-42 9.809e-42 -9.837e-42 -9.876e-42 0.23491919 -0.1414958
0.27961245 0.07016518 -0.2699232 0.31093585 0.55094963 -0.18075818 0.07665186 0.014342655
0.36161393 0.22278258 -0.31723225 -0.019999137 -0.1805399 -0.4908137 0.17009702 -0.21864241
-0.3066932 0.12561025 -0.27213576 -0.1907977 0.13496268 0.40381598 0.2078916 0.30890587
-0.15079185 0.17323624 -0.016092293 0.52323294 5.183343e-38 -1.731e-41 -3.1548504e-24 -4.114815e-24
2.1354837e-38 -2.4871974e-35 -6.82986e-40 -9.917e-42 -6.977452e-24 -8.364e-42 -0.25819287 -0.18564543
0.22295195 0.18675162 0.5553537 -0.06592282 -0.31160438 0.26536283 0.17650831 0.064787984
-0.18288259 0.06803165 0.0030575148 0.037914928 -0.24973135 0.2941241 -0.32302645 0.29013497
0.57583034 -0.012296278 0.36300045 -0.16903003 0.022937827 0.38543004 0.22846681 -0.10748914
0.21495153 -0.3828636 -0.07515115 0.052108746 -0.07878868 -0.28064972 0.07085311 0.19123642
-0.0075944853 -0.2727067 0.5427365 0.4297894 0.14889768 -0.2622565 -7.3230744e-12 -6.1632996e-08
-1.2508874e-06 -3.9498777e-06 -7.4236965e-08 -6.31355e-07 -1.606578e-08 -1.7437465e-09 -1.2011135e-06 -4.209002e-09
-0.3698105 0.017717049 -0.12167599 0.117575005 -0.07721497 0.18454595 -0.30217156 0.48886713
0.20494 -0.16958742 -0.115939274 -0.22708696 -0.20408794 -0.053875025 -0.30457065 -0.008704493
0.043636292 0.16289154 0.2382294 -0.076948464 0.028293233 0.06082067 0.72458947 -0.1287593
0.26671094 0.26503995 -0.08843652 -0.07515485 0.06753537 -0.03238121 -0.021601034 0.20362988
0.04322505 -0.09239163 -0.2966757 0.33287957 -0.41800946 0.13519397 -0.14415671 0.3762392
00000000: 10ff 7d3e ce43 5fbe 9689 92be a1b3 0b3e
00000010: 9e07 83be 65f7 0a3c 85a6 823e 9dc4 5bbe
00000020: 1a18 313e aae7 533e 5667 25be efe9 c8be
00000030: adec 583d 0dc8 d93e ae57 79bc cad7 083f
00000040: 76ef 8c3d 4452 343e c610 e13e 0d62 763e
00000050: 641b 0080 791b 0000 831b 0080 b71e 0000
00000060: 931b 0000 6b1b 0080 621b 0080 581b 0000
00000070: 6c1b 0080 881b 0080 a88e 703e 46e4 10be
00000080: 5d29 8f3e c3b2 8f3d 6033 8abe fc32 9f3e
00000090: 090b 0d3f ac18 39be a6fb 9c3d 75fd 6a3c
000000a0: 7625 b93e 1e21 643e 446c a2be 3bd5 a3bc
000000b0: 74df 38be ef4b fbbe ea2d 2e3e cce3 5fbe
000000c0: e406 9dbe f99f 003e 6155 8bbe 7960 43be
000000d0: a833 0a3e f8c0 ce3e 89e1 543e e928 9e3e
000000e0: 2e69 1abe d764 313e fcd3 83bc 98f2 053f
000000f0: a11a 8d01 4130 0080 4018 7498 272f 9f98
00000100: 9988 e800 fa3d 0486 e36f 0780 a51b 0080
00000110: abf6 0699 5117 0080 db31 84be d619 3ebe
00000120: 844d 643e d13b 3f3e a92b 0e3f 8b02 87bd
00000130: 9c8a 9fbe a3dd 873e 98be 343e 90af 843d
00000140: 9345 3bbe 2d54 8b3d 9660 483b af4c 1b3d
00000150: 93b9 7fbe 6f97 963e b963 a5be 928c 943e
00000160: 9e69 133f 5476 49bc 32db b93e 3516 2dbe
00000170: 1ce8 bb3c 1657 c53e 34f3 693e 4423 dcbd
00000180: 411c 5c3e b306 c4be d9e8 99bd fb6f 553d
00000190: f65b a1bd 52b1 8fbe 6f1b 913d 7bd3 433e
000001a0: 29db f8bb 36a0 8bbe c7f0 0a3f 5b0d dc3e
000001b0: a278 183e 7c46 86be 32d4 00ad 195b 84b3
000001c0: 2ae4 a7b5 3189 84b6 346c 9fb3 637a 29b5
000001d0: 0601 8ab2 a0a8 efb0 f235 a1b5 c69e 90b1
000001e0: cd57 bdbe 5823 913c 4331 f9bd 2acb f03d
000001f0: e222 9ebd 9df9 3c3e 3bb6 9abe cb4c fa3e
00000200: cbdb 513e 53a8 2dbe 9271 edbd 7c89 68be
00000210: 6efc 50be 0fac 5cbd aff0 9bbe 4a9d 0ebc
00000220: f8bb 323d 0acd 263e 68f2 733e 2897 9dbd
00000230: 36c7 e73c 181f 793d b27e 393f 7ad9 03be
00000240: 568e 883e 51b3 873e 351e b5bd c9ea 99bd
00000250: fc4f 8a3d 29a2 04bd a7f4 b0bc 5a84 503e
00000260: c00c 313d d337 bdbd e1e5 97be 316f aa3e
00000270: 5605 d6be 4a70 0a3e d19d 13be 6da2 c03e

scoring_alignment_preprocessor.0.bias f4 [16]
0.09532515 0.025841285 -4.4242504e-18 0.1509524 0.22821416 -0.13382204 -5.271139e-14 -0.07734082
-0.06980095 0.1298172 0.13027701 -0.00021920085 0.07427405 0.09413498 0.08367288 0.15171193
00000000: d539 c33d 1ab1 d33c dd39 a3a2 4493 1a3e
00000010: f9b0 693e a508 09be 1864 6da9 dd64 9ebd
00000020: cdf3 8ebd cdee 043e 5667 053e 48d9 65b9
00000030: fe1c 983d d7c9 c03d b05c ab3d 5f5a 1b3e
