paper_artifacts/collection/gmn_baseline_scoring=agg___tp=attention_pp=identity_when=post_K=12/trained_models/gmn_baseline_scoring=agg___tp=attention_pp=identity_when=post_K=12_aids_large_dataset_seed_7366_2024-05-01_18:21:03.pth (torch, 12412 bytes, 14 tensors)

encoder.MLP1.0.weight f4 [10, 1]
00000000: a1b4 3dbe f255 6cbe 65ec 4bbe 47c3 4abd
00000010: b577 d8be 9185 e43d 2ef3 ce3d f8c5 71be
00000020: 3eaa 67be 8d03 46be
-0.18525936 -0.2307966 -0.19914396 -0.049502637 -0.4227883 0.11158288 0.101049766 -0.23610675
-0.22623536 -0.19337292

encoder.MLP1.0.bias f4 [10]
00000000: bb24 91be 5d68 6abe 8e40 47be da36 4bbd
00000010: 1c62 d9be 819d e73d 5656 283d 89b7 72be
00000020: a23f 66be 295f 45be
-0.28348336 -0.22891374 -0.1945822 -0.049612857 -0.42457664 0.11309338 0.04109796 -0.23702826
-0.22485211 -0.19274582

prop_layer._message_net.0.weight f4 [20, 21]
00000000: bd81 e9ba def6 3b3b 904b 36bb a975 b13b
00000010: 4d28 403b 4513 293c 53e8 a5bb 3bce ec3a
00000020: 6ece 343b 365f ef3b 7ecb c23b d556 ee3b
00000030: f6dd c0ba f5db 023c fe25 1fbc 5544 86ba
00000040: 18ed 0e3b 1312 7ebb 792b 8e3b de2c 093c
00000050: 8f87 833b 2609 bfbd e915 34bd d450 013f
00000060: 93df e2be 8574 233e 2add fbbd f3e5 603e
00000070: 79a0 963d 59cd c33d f39c 27bf 1a91 543d
00000080: eb5b 64bd 8255 afbe f208 103e 02f5 cc3d
00000090: e928 373e 3af2 afbd 9226 0a3e 70b0 a83d
000000a0: 95b6 173e b12c 1e3d a550 173f e516 b63e
000000b0: 4d76 c33d 138d 763e bc30 4f3e 26f6 6b3e
000000c0: bfbb 8dbe 42b3 1cbd d1d9 0ebd 2b8a a23d
000000d0: 13a7 e33e 81f0 993e cf2d eb3e 676d 3cbe
000000e0: 8ffb c93d 09b1 133e 15af 92be bf42 883e
000000f0: a2d7 1ebe 94c9 4ebd 83b3 883d 82b3 32bf
00000100: 7ea0 16be 4b28 df3e 53b8 5f3e a896 f2be
00000110: 63f3 a13e 7ecc 54be 112e 803e d12a 92be
00000120: 3158 bebc 32b5 a7bd 87d7 263c 00a6 d7be
00000130: 8a63 64be 1364 893e dba6 993d d111 f1bd
00000140: 938f 653d 9366 95bc 43b4 ee3c 91a5 04bd
00000150: c8d4 afbd 9c20 17bc 5506 69bd a555 843c
00000160: 1acd 263e 2372 183e 54f1 5abd cec5 a93e
00000170: 65e6 883d 8d0e 033e 295b dc3b 9617 2ebe
00000180: 6f4e c23a 204d 533b 50cf 1dbe 3d8a 9f3e
00000190: d6a9 c13d c4c3 2e3d c964 fa3d 1771 11be
000001a0: 5850 e9bc 0ef4 e5bb 497c 12bc 3473 9dba
000001b0: 32cf c43a 8e4d 4a3c 908e f239 0864 30bb
000001c0: 4539 50ba 4758 2dbb 9bca 66bb b705 233b
000001d0: ae5c 05ba c23f 0e3a a9fd 6b3a fd9e ccbb
000001e0: 2faa af3b 9894 e3b9 22c4 debb 9793 0b3c
000001f0: a3cf 9f3b 5d62 943b 996f ebbb 67e5 4bbc
00000200: 8b43 643c 2e33 9fbb b1a4 c13b 4322 4bbc
00000210: f779 9f3c 90a6 0b3c 6b4a 47bc fcb4 a3bb
00000220: c628 80bc 9d9a 0dbc 72bd 2a3c 21cc 71bb
00000230: 92c2 263c dbf9 e5bb 2ba4 dcba 6190 993c
00000240: 9547 ca3b 9420 d6bb fb66 3e3b 303d f53e
00000250: e4ab 12bf 265b db3e 538a e53e 4fdb 5d3e
00000260: 3cf3 2f3e 00ee 48be f95b 66be 0291 9d3d
00000270: efee c03c 2e93 d33e 4e0c fa3d c9a2 2fbe
00000280: e91e 82bc 94ad 533d 63eb 53bd 1606 2bbc
00000290: 4582 2dbe d8c9 1f3f 92ac 64be 5297 933d
000002a0: 9608 a1bd 5c50 f5be a553 1cbe 1bb4 fe3e
000002b0: 99ce f1bd 44bc 00bf bfa0 8bbe 0386 39be
000002c0: 5d2f dbbe 2349 88be c182 913c baa7 9d3e
000002d0: 46df 1fbd 13d4 7abe 4dc9 b23d 5ee6 fa3e
000002e0: 73f1 dcbd 870c a4bc b2f8 8a3e 1186 403e
000002f0: 4281 2abe 3aae 973d ecf5 943e 5436 8fbe
00000300: 1568 b3bd a2e0 23bb 99ad 1a3e bb99 f33d
00000310: 57a9 033f 6e47 6abe 2ab9 ccbd caf9 1ebf
00000320: 6135 f03b 7a33 9dbd 1cc5 a4be 3cf6 00be
00000330: eb8c a9be 9c8c 413d 9ae5 4e3c e1af 063f
00000340: 12d2 2b3e 12df ddbd addc 013f 66f7 c93e
00000350: 7080 2bbd 523a 443e fc80 c5bd 5377 423e
00000360: b691 4bbe 9296 f8bd 0b53 bebe bffd 90bd
00000370: 9a87 87be ca4d c1be 3850 e0bc 83f7 183e
00000380: 4995 933e ad4e 83bb a180 98be 0f34 03bf
00000390: 1878 b13e 7c24 943e 8e45 853d 4026 20bf
000003a0: ca51 873e 2729 b1be b3ae 313e 7dab 7ebd
000003b0: 1e2e c63c ac81 b63e 1255 1e3e 7cfa 213d
000003c0: 71dc 73bd c5e0 fb3e 8e4c 40be 54da 4a3d
000003d0: 6a8a 473e df00 cc3e 1121 473d 3461 21be
000003e0: c575 293d 4a1c 193e e0c4 fa3d 9b40 c63d
000003f0: a6fe e03c f186 2cbe 20e9 a23d 4cfd ed3d
-0.0017815154 0.002868108 -0.0027816035 0.0054156375 0.0029320896 0.010319536 -0.0050630956 0.0018066833
0.0027588862 0.007305051 0.0059446683 0.007273535 -0.0014714587 0.007987012 -0.009713648 -0.0010243753
0.00218088 -0.0038768097 0.0043386784 0.008372514 0.0040139626 -0.09327917 -0.043966208 0.5051396
-0.443112 0.15962417 -0.12298043 0.21962719 0.073548265 0.09560651 -0.6547386 0.051896192
-0.055751722 -0.34244925 0.14065912 0.10007669 0.178867 -0.08591123 0.13491276 0.08236778
0.14815743 0.03861684 0.5910743 0.35564342 0.095440485 0.24077253 0.20233434 0.23043117
-0.276823 -0.03825689 -0.034875695 0.0793651 0.44463405 0.30066302 0.45933387 -0.18401109
0.09862434 0.14423002 -0.28649202 0.26613423 -0.15511945 -0.05048521 0.06674864 -0.6980516
-0.1470966 0.4358543 0.21847658 -0.47380567 0.31631002 -0.20781133 0.25035146 -0.2854829
-0.023235412 -0.08188857 0.010183222 -0.42118835 -0.22303596 0.26834163 0.07502528 -0.11770976
0.056045126 -0.018237388 0.02913869 -0.03238446 -0.08585507 -0.009224083 -0.056890804 0.01615412
0.16289178 0.1488729 -0.053452805 0.33158726 0.06684569 0.1279852 0.0067247343 -0.17001185
0.00148244 0.0032242015 -0.15411115 0.31160155 0.09456222 0.042667165 0.122262545 -0.14203297
-0.028480694 -0.007017619 -0.008940765 -0.0012012483 0.0015015362 0.012347592 0.00046264054 -0.0026915092
-0.0007943104 -0.0026450322 -0.0035215977 0.0024875232 -0.0005087358 0.0005426371 0.0009002337 -0.006244539
0.0053608636 -0.00043407525 -0.006798283 0.008519075 0.004877047 0.0045283274 -0.0071849343 -0.0124448305
0.013932119 -0.004858396 0.0059095253 -0.012398305 0.019467337 0.008523598 -0.012163739 -0.0049959403
-0.015644442 -0.00864282 0.010421144 -0.0036895352 0.010178225 -0.0070183105 -0.0016833594 0.018745603
0.006173084 -0.0065346453 0.002905308 0.47898245 -0.57293534 0.42842978 0.44832096 0.21665691
0.1718263 -0.1962204 -0.22496022 0.07693674 0.023551432 0.41323227 0.12209378 -0.17151941
-0.01588388 0.05167921 -0.051738154 -0.010438463 -0.16944225 0.62417364 -0.22331455 0.072065964
-0.07862966 -0.47912872 -0.15266283 0.49746785 -0.118069835 -0.5028727 -0.27271077 -0.18117528
-0.42809573 -0.266183 0.017762544 0.30792028 -0.03903129 -0.24494962 0.08729801 0.4900388
-0.1078824 -0.020025505 0.27142864 0.18801142 -0.1665087 0.07406278 0.29093874 -0.27971137
-0.087600864 -0.0025005718 0.15105285 0.11894556 0.5143027 -0.22878811 -0.09996255 -0.620999
0.007330582 -0.07675834 -0.32181633 -0.12593931 -0.33115324 0.047253236 0.0126279835 0.5261212
0.16779354 -0.10833563 0.5072735 0.39446563 -0.041870534 0.19162872 -0.096437424 0.18990831
-0.19879803 -0.12138094 -0.37172732 -0.07079648 -0.26470643 -0.3775466 -0.027382001 0.14938168
0.28824833 -0.0040071816 -0.29785636 -0.5125131 0.34661937 0.28934085 0.06507407 -0.62558365
0.26429588 -0.3460171 0.17351799 -0.062175263 0.024191912 0.35645807 0.15462139 0.03954552
-0.0595364 0.49194923 -0.18779203 0.04952462 0.19486395 0.39844415 0.04861552 -0.15759736
0.04137208 0.14952198 0.12244582 0.09680291 0.027465176 -0.16848351 0.07954621 0.11620578

prop_layer._message_net.0.bias f4 [20]
00000000: e887 833b 1d57 163c 6946 fd3b 6e8d 7fbd
00000010: ab3b 12bd 0062 943b c966 3e3b 4d29 923d
00000020: eb1e 31be ce69 4ebd 65de 0e3d ac25 e03d
00000030: 25a0 0a3c 3591 a3ba 3f93 1e3c 5548 20be
00000040: 3efe 8f3b c98b b93d ce45 c8ba 2680 04bb
0.004014004 0.009176043 0.007729341 -0.062390737 -0.035701435 0.004528284 0.0029052964 0.07136784
-0.1729695 -0.050393872 0.03488006 0.10944685 0.008461033 -0.0012479188 0.009678661 -0.15652592
0.0043943217 0.09059865 -0.0015279592 -0.0020217984

prop_layer._reverse_message_net.0.weight f4 [20, 21]
00000000: bd81 e9ba def6 3b3b 904b 36bb a975 b13b
00000010: 4d28 403b 4513 293c 53e8 a5bb 3bce ec3a
00000020: 6ece 343b 365f ef3b 7ecb c23b d556 ee3b
00000030: f6dd c0ba f5db 023c fe25 1fbc 5544 86ba
00000040: 18ed 0e3b 1312 7ebb 792b 8e3b de2c 093c
00000050: 8f87 833b 2609 bfbd e915 34bd d450 013f
00000060: 93df e2be 8574 233e 2add fbbd f3e5 603e
00000070: 79a0 963d 59cd c33d f39c 27bf 1a91 543d
00000080: eb5b 64bd 8255 afbe f208 103e 02f5 cc3d
00000090: e928 373e 3af2 afbd 9226 0a3e 70b0 a83d
000000a0: 95b6 173e b12c 1e3d a550 173f e516 b63e
000000b0: 4d76 c33d 138d 763e bc30 4f3e 26f6 6b3e
000000c0: bfbb 8dbe 42b3 1cbd d1d9 0ebd 2b8a a23d
000000d0: 13a7 e33e 81f0 993e cf2d eb3e 676d 3cbe
000000e0: 8ffb c93d 09b1 133e 15af 92be bf42 883e
000000f0: a2d7 1ebe 94c9 4ebd 83b3 883d 82b3 32bf
00000100: 7ea0 16be 4b28 df3e 53b8 5f3e a896 f2be
00000110: 63f3 a13e 7ecc 54be 112e 803e d12a 92be
00000120: 3158 bebc 32b5 a7bd 87d7 263c 00a6 d7be
00000130: 8a63 64be 1364 893e dba6 993d d111 f1bd
00000140: 938f 653d 9366 95bc 43b4 ee3c 91a5 04bd
00000150: c8d4 afbd 9c20 17bc 5506 69bd a555 843c
00000160: 1acd 263e 2372 183e 54f1 5abd cec5 a93e
00000170: 65e6 883d 8d0e 033e 295b dc3b 9617 2ebe
00000180: 6f4e c23a 204d 533b 50cf 1dbe 3d8a 9f3e
00000190: d6a9 c13d c4c3 2e3d c964 fa3d 1771 11be
000001a0: 5850 e9bc 0ef4 e5bb 497c 12bc 3473 9dba
000001b0: 32cf c43a 8e4d 4a3c 908e f239 0864 30bb
000001c0: 4539 50ba 4758 2dbb 9bca 66bb b705 233b
000001d0: ae5c 05ba c23f 0e3a a9fd 6b3a fd9e ccbb
000001e0: 2faa af3b 9894 e3b9 22c4 debb 9793 0b3c
000001f0: a3cf 9f3b 5d62 943b 996f ebbb 67e5 4bbc
00000200: 8b43 643c 2e33 9fbb b1a4 c13b 4322 4bbc
00000210: f779 9f3c 90a6 0b3c 6b4a 47bc fcb4 a3bb
00000220: c628 80bc 9d9a 0dbc 72bd 2a3c 21cc 71bb
00000230: 92c2 263c dbf9 e5bb 2ba4 dcba 6190 993c
00000240: 9547 ca3b 9420 d6bb fb66 3e3b 303d f53e
00000250: e4ab 12bf 265b db3e 538a e53e 4fdb 5d3e
00000260: 3cf3 2f3e 00ee 48be f95b 66be 0291 9d3d
00000270: efee c03c 2e93 d33e 4e0c fa3d c9a2 2fbe
00000280: e91e 82bc 94ad 533d 63eb 53bd 1606 2bbc
00000290: 4582 2dbe d8c9 1f3f 92ac 64be 5297 933d
000002a0: 9608 a1bd 5c50 f5be a553 1cbe 1bb4 fe3e
000002b0: 99ce f1bd 44bc 00bf bfa0 8bbe 0386 39be
000002c0: 5d2f dbbe 2349 88be c182 913c baa7 9d3e
000002d0: 46df 1fbd 13d4 7abe 4dc9 b23d 5ee6 fa3e
000002e0: 73f1 dcbd 870c a4bc b2f8 8a3e 1186 403e
000002f0: 4281 2abe 3aae 973d ecf5 943e 5436 8fbe
00000300: 1568 b3bd a2e0 23bb 99ad 1a3e bb99 f33d
00000310: 57a9 033f 6e47 6abe 2ab9 ccbd caf9 1ebf
00000320: 6135 f03b 7a33 9dbd 1cc5 a4be 3cf6 00be
00000330: eb8c a9be 9c8c 413d 9ae5 4e3c e1af 063f
00000340: 12d2 2b3e 12df ddbd addc 013f 66f7 c93e
00000350: 7080 2bbd 523a 443e fc80 c5bd 5377 423e
00000360: b691 4bbe 9296 f8bd 0b53 bebe bffd 90bd
00000370: 9a87 87be ca4d c1be 3850 e0bc 83f7 183e
00000380: 4995 933e ad4e 83bb a180 98be 0f34 03bf
00000390: 1878 b13e 7c24 943e 8e45 853d 4026 20bf
000003a0: ca51 873e 2729 b1be b3ae 313e 7dab 7ebd
000003b0: 1e2e c63c ac81 b63e 1255 1e3e 7cfa 213d
000003c0: 71dc 73bd c5e0 fb3e 8e4c 40be 54da 4a3d
000003d0: 6a8a 473e df00 cc3e 1121 473d 3461 21be
000003e0: c575 293d 4a1c 193e e0c4 fa3d 9b40 c63d
000003f0: a6fe e03c f186 2cbe 20e9 a23d 4cfd ed3d
-0.0017815154 0.002868108 -0.0027816035 0.0054156375 0.0029320896 0.010319536 -0.0050630956 0.0018066833
0.0027588862 0.007305051 0.0059446683 0.007273535 -0.0014714587 0.007987012 -0.009713648 -0.0010243753
0.00218088 -0.0038768097 0.0043386784 0.008372514 0.0040139626 -0.09327917 -0.043966208 0.5051396
-0.443112 0.15962417 -0.12298043 0.21962719 0.073548265 0.09560651 -0.6547386 0.051896192
-0.055751722 -0.34244925 0.14065912 0.10007669 0.178867 -0.08591123 0.13491276 0.08236778
0.14815743 0.03861684 0.5910743 0.35564342 0.095440485 0.24077253 0.20233434 0.23043117
-0.276823 -0.03825689 -0.034875695 0.0793651 0.44463405 0.30066302 0.45933387 -0.18401109
0.09862434 0.14423002 -0.28649202 0.26613423 -0.15511945 -0.05048521 0.06674864 -0.6980516
-0.1470966 0.4358543 0.21847658 -0.47380567 0.31631002 -0.20781133 0.25035146 -0.2854829
-0.023235412 -0.08188857 0.010183222 -0.42118835 -0.22303596 0.26834163 0.07502528 -0.11770976
0.056045126 -0.018237388 0.02913869 -0.03238446 -0.08585507 -0.009224083 -0.056890804 0.01615412
0.16289178 0.1488729 -0.053452805 0.33158726 0.06684569 0.1279852 0.0067247343 -0.17001185
0.00148244 0.0032242015 -0.15411115 0.31160155 0.09456222 0.042667165 0.122262545 -0.14203297
-0.028480694 -0.007017619 -0.008940765 -0.0012012483 0.0015015362 0.012347592 0.00046264054 -0.0026915092
-0.0007943104 -0.0026450322 -0.0035215977 0.0024875232 -0.0005087358 0.0005426371 0.0009002337 -0.006244539
0.0053608636 -0.00043407525 -0.006798283 0.008519075 0.004877047 0.0045283274 -0.0071849343 -0.0124448305
0.013932119 -0.004858396 0.0059095253 -0.012398305 0.019467337 0.008523598 -0.012163739 -0.0049959403
-0.015644442 -0.00864282 0.010421144 -0.0036895352 0.010178225 -0.0070183105 -0.0016833594 0.018745603
0.006173084 -0.0065346453 0.002905308 0.47898245 -0.57293534 0.42842978 0.44832096 0.21665691
0.1718263 -0.1962204 -0.22496022 0.07693674 0.023551432 0.41323227 0.12209378 -0.17151941
-0.01588388 0.05167921 -0.051738154 -0.010438463 -0.16944225 0.62417364 -0.22331455 0.072065964
-0.07862966 -0.47912872 -0.15266283 0.49746785 -0.118069835 -0.5028727 -0.27271077 -0.18117528
-0.42809573 -0.266183 0.017762544 0.30792028 -0.03903129 -0.24494962 0.08729801 0.4900388
-0.1078824 -0.020025505 0.27142864 0.18801142 -0.1665087 0.07406278 0.29093874 -0.27971137
-0.087600864 -0.0025005718 0.15105285 0.11894556 0.5143027 -0.22878811 -0.09996255 -0.620999
0.007330582 -0.07675834 -0.32181633 -0.12593931 -0.33115324 0.047253236 0.0126279835 0.5261212
0.16779354 -0.10833563 0.5072735 0.39446563 -0.041870534 0.19162872 -0.096437424 0.18990831
-0.19879803 -0.12138094 -0.37172732 -0.07079648 -0.26470643 -0.3775466 -0.027382001 0.14938168
0.28824833 -0.0040071816 -0.29785636 -0.5125131 0.34661937 0.28934085 0.06507407 -0.62558365
0.26429588 -0.3460171 0.17351799 -0.062175263 0.024191912 0.35645807 0.15462139 0.03954552
-0.0595364 0.49194923 -0.18779203 0.04952462 0.19486395 0.39844415 0.04861552 -0.15759736
0.04137208 0.14952198 0.12244582 0.09680291 0.027465176 -0.16848351 0.07954621 0.11620578

prop_layer._reverse_message_net.0.bias f4 [20]
00000000: e887 833b 1d57 163c 6946 fd3b 6e8d 7fbd
00000010: ab3b 12bd 0062 943b c966 3e3b 4d29 923d
00000020: eb1e 31be ce69 4ebd 65de 0e3d ac25 e03d
00000030: 25a0 0a3c 3591 a3ba 3f93 1e3c 5548 20be
00000040: 3efe 8f3b c98b b93d ce45 c8ba 2680 04bb
0.004014004 0.009176043 0.007729341 -0.062390737 -0.035701435 0.004528284 0.0029052964 0.07136784
-0.1729695 -0.050393872 0.03488006 0.10944685 0.008461033 -0.0012479188 0.009678661 -0.15652592
0.0043943217 0.09059865 -0.0015279592 -0.0020217984

prop_layer.GRU.weight_ih_l0 f4 [30, 30]
00000000: c097 b2ba c32f 87be 39a3 e6bd 93ae dbbe
00000010: 4f1e 28be 3a59 2b3a 9c22 25bb 64c4 f13e
00000020: 144c 03be 6f68 bf3d e786 a23e 783a 4dbf
00000030: 3f2a 953e 4b30 60bb 166f f5be f739 bb3e
00000040: 0d15 c3bb a9d0 c43e c347 523b b324 ca3a
00000050: 95d0 6f3b f6df fc3d d05e 293e 0e1b 453d
00000060: cd94 913e d391 473d ebca 283e c71d fc3b
00000070: c4aa 2d3d 9b13 823d c105 913c 4783 933c
00000080: 8c36 193b 9be7 b9be 4d62 56be 7c38 8e3c
00000090: 8e13 66bc 0539 cb3e cf29 893e 9323 a7bd
000000a0: 4d1c cfbd eb1f c4bd ad9a 92bd 895c eebb
000000b0: ab03 92be fcf7 283e 320d 46bc 60bf d9be
000000c0: 0464 53bc 9b38 dc3b a586 a63d 1113 ecbb
000000d0: 3afb 2b3e f078 e13b 8887 323e 5888 1bbd
000000e0: 227f a6bd f76c 0c3e b810 f13c c383 013e
000000f0: 6fc5 ca3b 85d4 01be 183a 063e 6c28 43be
00000100: 6ac4 edbd c368 1a3b 1cbf d737 0560 bcbd
00000110: 5efa babd f5de 89bd f7a2 443e e68d 38bd
00000120: c834 c7bd 7fb4 dc3a de2f 0abe 34d2 be3d
00000130: 1a44 73ba 11b0 adbc 3e10 4738 a88a 3c3b
00000140: db7f ca3d 1ef9 8f3d ec06 a33d 084e 8e3c
00000150: bfca 463d cdfe 00be 3ddd 753c 1303 bcbd
00000160: dec5 7dbb 5909 a73d 6bca 153b 10f9 643e
00000170: 989d 743e e611 48be 8458 16be bb8d 513c
00000180: ba6f 8cbc 7731 31be fc7e 233e 5cc4 d8be
00000190: 51a1 ebbe acd8 503c 2431 38be 0bc2 52bc
000001a0: 1c41 38be 168c 843c 206e 89bc a6bd 353e
000001b0: 9356 50bc e772 953b aad0 ea3e 2504 293e
000001c0: 737b 93bc 0b99 febd 8eec dd3b b359 983e
000001d0: 6305 283d 19d5 aa3d f79d 16bd 6408 afbd
000001e0: cfcd f63b b9b9 23bd 5ad4 92be 94bf 0fbe
000001f0: 5b86 913c 0b50 94bb 0844 0fbd 4f3a 18be
00000200: be3e e63c 23d9 123f 6b49 0ebd b75d 9bbe
00000210: 63dc 58bc 35aa 22bb 33de 653e de56 0f3e
00000220: 2a5f 18bd e14d d13e de27 5fbc a12d b43c
00000230: 5521 e83d a32f 3d3e 50ec d93b 5fe6 203d
00000240: 9f61 dcbd 9a87 74be 6e81 b73c 3322 0b3d
00000250: be95 1d3e 2874 003e 82c6 40bb a439 c7be
00000260: 7442 bd3d 7fb3 14be bfb8 74be a96a 3b3b
00000270: c6e3 69b9 efa7 1b3c 3a21 213c ef42 c23e
00000280: effc 073f b114 79bc acc3 273d adb8 8d3b
00000290: d03e 8e3d d628 d73d c704 2d3b d87c 03be
000002a0: 947f c73b 4e76 91bb 6c08 79bd a7fa e3bb
000002b0: eb22 8a3d 0408 7f3a 82dd 5d3d d35d cebd
000002c0: 449c 55be 8060 87bd 5476 4d3c c695 033d
000002d0: 8cdd 0eb8 2ac5 1bbe 9cf2 d5bd 75c7 ecbd
000002e0: fbd8 3fbe aa04 323c cc32 d1bb dc17 003f
000002f0: ab98 a73d 992b cfbc dab7 c7bd 6cce 8cbe
00000300: 513a 373c 71f4 69bc 6a23 c5bc b124 c33c
00000310: 7099 51bb 0c9a 92be 7494 25bc cd4e ccbb
00000320: ae82 fcbd 5c39 edbd 626a b4bd e697 adbd
00000330: 913a d6bd 648f 84bc f0b1 433b 1540 82bd
00000340: 4201 86bd 861b 0bbe b587 1d3c 6565 ee3d
00000350: 816f 43be 44eb c4bd 8f93 bbbd 4ae4 a5bb
00000360: a442 3ab9 bdcd bb3e b74e 4d3e 2aab a5be
00000370: d4b6 b93e 7fb9 463e 30c5 a23d 9e81 cf3b
00000380: 28ed 3b3e 128b f93d bc78 09bc f4e6 5e3d
00000390: 81c6 c13b 5798 fb3b 65d9 79be 52e7 d5bb
000003a0: 5052 e33c 51bb 583e 8503 82bd c721 223d
000003b0: fb8a a7be e904 23bd 5f92 bb3d 5582 1abe
000003c0: 635c c7bb a31b 123d 81c6 49be afc1 83be
000003d0: a79a 2abe d67d 843b 8951 873c a17c 07be
000003e0: 051a 06be 3f07 8fbe 80f6 8fbc 146e 65be
000003f0: 5b93 86be 5f65 fc3a 0c29 e13c 5abd a5b8
-0.0013625547 -0.26403627 -0.11261601 -0.42906627 -0.16417812 0.0006536428 -0.002519763 0.47220147
-0.1282199 0.09346091 0.31743547 -0.8016734 0.29133794 -0.0034208472 -0.47936314 0.3656766
-0.005953437 0.38440445 0.003208623 0.0015422314 0.003659283 0.12347405 0.16540074 0.048121504
0.28433838 0.048723053 0.16483657 0.0076939794 0.042399183 0.06351396 0.017702939 0.018006934
0.002337846 -0.36309513 -0.20935936 0.017360918 -0.014042748 0.3969194 0.2678971 -0.08161082
-0.1011282 -0.095764 -0.07158408 -0.0072742146 -0.28518423 0.16500849 -0.012088107 -0.4252882
-0.012902264 0.006720615 0.0813115 -0.0072044213 0.16795054 0.006880872 0.17434514 -0.037971824
-0.081297174 0.13713442 0.029426917 0.1264792 0.0061880867 -0.12678726 0.13108099 -0.19058388
-0.11609729 0.0023560978 2.571899e-05 -0.09198002 -0.09129785 -0.06731979 0.19202791 -0.0450572
-0.09726864 0.001683846 -0.13494822 0.09317437 -0.0009279862 -0.021202119 4.7460424e-05 0.002876917
0.09887668 0.07029937 0.079603046 0.017371193 0.048533197 -0.12597199 0.015006361 -0.09180274
-0.0038722674 0.0815608 0.0022856246 0.22360635 0.23888242 -0.19538078 -0.14682204 0.012790139
-0.01714312 -0.17304026 0.1596641 -0.4233731 -0.46021512 0.012746971 -0.17987496 -0.012863646
-0.17993587 0.01618008 -0.016776145 0.17748126 -0.012715953 0.0045608166 0.45862323 0.16505487
-0.018003201 -0.124315344 0.0067725843 0.29755935 0.041020762 0.083414264 -0.03677174 -0.08546522
0.0075318585 -0.03997204 -0.28677636 -0.14037925 0.017764261 -0.0045261434 -0.03497699 -0.14865993
0.02810609 0.57362574 -0.034737986 -0.30344936 -0.013236138 -0.002482069 0.22448044 0.13997981
-0.03720013 0.4087973 -0.013620345 0.021994414 0.113344826 0.18475203 0.006650485 0.0392822
-0.10760807 -0.23879853 0.022400584 0.03396816 0.15389153 0.1254431 -0.0029415195 -0.38911164
0.092411906 -0.14521597 -0.238986 0.002859751 -0.00022305464 0.009500488 0.009834582 0.3794169
0.5312032 -0.015202687 0.04095809 0.0043249936 0.06945574 0.10505836 0.0026400553 -0.12840593
0.0060882065 -0.004439152 -0.060799047 -0.0069573703 0.06744941 0.00097286724 0.054166324 -0.10076489
-0.20860392 -0.06610203 0.012540419 0.032125257 -3.406177e-05 -0.15211931 -0.10446665 -0.11561481
-0.18735115 0.01086537 -0.0063842293 0.50036407 0.08183416 -0.025289344 -0.09751864 -0.27501237
0.011183337 -0.014279471 -0.024064738 0.023821207 -0.0031982325 -0.28633153 -0.010106195 -0.0062349797
-0.12329613 -0.11583206 -0.088093534 -0.08476238 -0.104603894 -0.016181655 0.0029860698 -0.06359879
-0.06543209 -0.13584718 0.009614875 0.11640433 -0.19085504 -0.09615186 -0.09159004 -0.0050626146
-0.00017763168 0.36680403 0.20049559 -0.3235715 0.362723 0.19406699 0.07947767 0.0063325902
0.18352187 0.12184729 -0.008390602 0.054419473 0.005913556 0.0076780724 -0.24399336 -0.0065278197
0.02774921 0.21165206 -0.063483275 0.039582994 -0.3272322 -0.039799605 0.091587774 -0.1508878
-0.0060840114 0.035670888 -0.1970463 -0.25733706 -0.16660558 0.004043321 0.016518371 -0.13231136
-0.13095863 -0.27935216 -0.017573595 -0.22405273 -0.26284298 0.0019256285 0.027485393 -7.9030826e-05

prop_layer.GRU.weight_hh_l0 f4 [30, 10]
00000000: 6858 84be 8f76 003e 1971 efbd b7ce 0fbd
00000010: b5b7 133d 811a e1bd 7f45 783e 3bcc bbbd
00000020: b56a aabd c5f5 dc3c 4e6e 1a3e 8253 72bd
00000030: 4fb2 1b3d 330e 003d b1f7 2dbd 20fe fbbd
00000040: 76cf 1dbe 11aa f33c 44c9 8cbd 9eae 673d
00000050: a0af 9bbc fb73 c23c c5ed 56bd 3362 d83d
00000060: 979b cf3d d68d febc cf82 853d a81f 24bd
00000070: 5491 c1bd 293c 3b3d 6f89 86bc 7cc4 0c3e
00000080: dda9 903d b218 8dbd 56f3 453c df19 233e
00000090: 9e89 4b3d d65b 763d f6b1 c3bd 6af3 333d
000000a0: 6dcb 8bbd 473a 003d 2e86 a5bc 278a a63d
000000b0: 3782 63bd cae2 4dbd 2f31 013c 863a 25bd
000000c0: ac85 f63d b1d7 a4bd 92a7 cdbd 5c33 e43b
000000d0: 3c1a 9d3d 21dc 453d 2d86 9fbc 482b 2fbe
000000e0: 1061 a4bc 28d1 33bb 6020 5b3c 1103 f5bb
000000f0: c116 21bd cef9 253c 02a2 5e3c ec7d a2bc
00000100: 8133 26be 1660 15be c302 1fbe 6efa d7bd
00000110: 8eeb 283d fb33 c2bc e2ab 5d3d 14bd c9bd
00000120: 8700 c4bd 73fd 373e 8b17 e73d 99a4 4e3d
00000130: 06a9 d5bc f574 7dbd bd07 8a3d 0ca7 b2bd
00000140: 914e 36bd 5eec c73c ea69 133e 3744 de3d
00000150: 7178 663d ca64 dbba 6a30 4d3e b423 e4bd
00000160: d85d 95bd 6b82 0cbd 128f febc e929 3ebd
00000170: db7c 483d bd3c 663d 5eb5 9ebb db37 80bd
00000180: a164 86bd 2140 aa3d 4691 9c3c b309 b1bd
00000190: fb5b fcbe 09f4 a23d 6366 1cbe 2767 e6bd
000001a0: 2fcd c43d e00a b0be 6b10 5fbe 5eaa f93d
000001b0: 150e 003e 346a 92bc 7e54 983d 76b4 cfbc
000001c0: 7181 853b 8b54 a03d be7f 98be a791 7cbe
000001d0: 2ce9 b9bd 7fb7 a73c 5e1a 0abd 975c c3bd
000001e0: e5f7 653d 27d6 043e e8de c53d f17b 1abd
000001f0: abcf c7bd 6e07 adbd f44c 6ebe 12af 743e
00000200: 9e28 53bd 906b 103e 8297 f63c 2f70 95bd
00000210: f991 263e bc6f 0bbd 2d30 dd3d 54ce 4b3e
00000220: 8606 9a3c 6877 f6bc fb8a a73c aec6 ccbd
00000230: 8274 36be fe2c 1fbe 83ff 4cbe 249d c6bd
00000240: 15bc c2be b0fc 0d3e 90eb 423e 9361 b4be
00000250: f0ba aabe 099e 56be 6fdc 7cbc ce08 e5bd
00000260: ca96 32bc a8da 7e3d 21fa 1f3e d49c 03be
00000270: a9e2 d3bc 1cf9 603d eb12 073e ef77 92be
00000280: 6a4a 01be a7be 0c3d 119d 6bbe c055 343d
00000290: ce26 033e e75a c8be d14b a7be 1510 67bd
000002a0: 3276 743d 61b1 4abe 014e 1bbe c8b8 213e
000002b0: 5d1e 3c3e 9789 09bd ae79 cdbd 2144 3bbe
000002c0: 9808 5bbe f561 9d3e 64db 853e a2eb cc3e
000002d0: 7f7b 05be b808 c63e a3ab 373e a283 303e
000002e0: cc60 c7bd 2187 87bd 3d14 113d 3f23 e93c
000002f0: 59b8 cebd 5602 583d ecf6 f63d 924b 9fbe
00000300: 7c94 533d 0fe7 30be f447 a2bd b111 27be
00000310: ea3f 403d f015 193d 2a20 193e 168c 5fbc
00000320: 18d4 cabd 21a8 9abe 388d dd3d a8fc 1e3e
00000330: 32e5 15be 2025 21bf a63c edbd 35d9 e5bd
00000340: f31c 2cbb 0ced 01bf 5aaa 85be ac8d bb3e
00000350: eefc 82be 441d 95bd 5e40 173f db0e 923d
00000360: b116 f33e 6bd3 b0bd a534 0cbd 0017 cf3e
00000370: 137e 7d3e 994a c13d fd78 203e da4c df3b
00000380: 6f97 b33e 1b0b 363e aac4 2abe 2256 6dbe
00000390: 8510 62be 04e9 043f b79a 07bf 10d7 dabe
000003a0: 9114 463f 17dd a83d 427c 0fbe c26c b33e
000003b0: 9384 d23e 8187 36be 6dbd 0c3e f8a7 c33c
000003c0: 8c10 a13c 637f 5cbe cc03 233f 584c dfbe
000003d0: 7abf f43e 1c41 9dbd 5ae6 d7be 5270 603a
000003e0: 2cbf 003e 1cf2 4c3e 4081 8e3e 8f64 363e
000003f0: c6d4 ee3d 56ed ddbe b73a 3d3f 2aed 18be
-0.258487 0.12545227 -0.116914935 -0.035109248 0.03606387 -0.10991383 0.2424526 -0.09169813
-0.08321134 0.02697266 0.1508114 -0.05916167 0.038011845 0.03126354 -0.042472545 -0.1230433
-0.15411171 0.02974418 -0.06874326 0.056563012 -0.019004643 0.023736944 -0.05247285 0.10565605
0.10137098 -0.031073492 0.065190904 -0.040069252 -0.09451547 0.04571167 -0.016422955 0.13746828
0.07063649 -0.06889476 0.012081942 0.15927838 0.04969179 0.060146175 -0.09555428 0.04393331
-0.0682591 0.031305578 -0.020205583 0.08131819 -0.055544104 -0.05026511 0.007885261 -0.040339015
0.12037215 -0.08048952 -0.10041727 0.0069641303 0.076710194 0.048305634 -0.01947316 -0.17106354
-0.020065814 -0.00274379 0.013374418 -0.007477172 -0.03932834 0.010130359 0.01358843 -0.019835435
-0.16230585 -0.14587435 -0.15528397 -0.105458125 0.041240267 -0.023706427 0.054119 -0.09850517
-0.09570413 0.17967777 0.11283787 0.05044994 -0.026081573 -0.061879117 0.06739757 -0.08723268
-0.04450852 0.0244047 0.14395872 0.10852855 0.056267206 -0.0016738412 0.20038 -0.11139622
-0.0729329 -0.034304064 -0.03107408 -0.046426687 0.048947196 0.05621027 -0.004843398 -0.062606536
-0.06562162 0.08313013 0.01911224 -0.08644428 -0.49288926 0.07956702 -0.15273432 -0.112501435
0.09609448 -0.34383297 -0.21783607 0.12190698 0.12505372 -0.017872907 0.074379906 -0.025354605
0.0040742685 0.07828625 -0.2978496 -0.24664937 -0.09077677 0.02047324 -0.033716552 -0.095391445
0.056144614 0.12972318 0.096616566 -0.037715856 -0.097564064 -0.08448683 -0.23271543 0.23894909
-0.051552407 0.14103532 0.030101541 -0.07296788 0.16266622 -0.034042105 0.108002044 0.19902927
0.018801939 -0.030086234 0.020452013 -0.09998833 -0.17817882 -0.15544507 -0.20019345 -0.09697941
-0.3803412 0.13865924 0.19035172 -0.35230693 -0.33345747 -0.20958723 -0.015433415 -0.1118332
-0.010900209 0.062220246 0.1562276 -0.12852794 -0.025864916 0.05492507 0.1319081 -0.28607127
-0.12626043 0.034361508 -0.23009135 0.04402709 0.12807772 -0.39131853 -0.3267503 -0.05641182
0.059683032 -0.19794227 -0.15166475 0.15793145 0.18370958 -0.03357848 -0.10032974 -0.18287708
-0.21389997 0.30738798 0.26143944 0.40023524 -0.13035391 0.38678527 0.17936568 0.17237714
-0.097352594 -0.06617571 0.03541969 0.02845919 -0.10093755 0.052736603 0.12058815 -0.31112343
0.051655278 -0.17275642 -0.0792388 -0.16315342 0.046935953 0.037374437 0.14953676 -0.013644239
-0.09903735 -0.30206397 0.10817951 0.15526068 -0.14638212 -0.62947273 -0.115838334 -0.112230696
-0.0026262372 -0.5075233 -0.2610653 0.36631525 -0.25583595 -0.072809726 0.5908259 0.0713174
0.4747825 -0.08634075 -0.034229893 0.40447235 0.24755125 0.094380565 0.15671153 0.0068145813
0.35076472 0.17777674 -0.16676584 -0.23177388 -0.22076614 0.51918054 -0.5297045 -0.42742205
0.7737513 0.082452945 -0.14012244 0.35043913 0.4111677 -0.17825128 0.13744135 0.023883805
0.01966121 -0.21532969 0.6367767 -0.43612933 0.47802335 -0.07678434 -0.42167932 0.0008561659
0.12572926 0.20014232 0.27832985 0.17811798 0.11661677 -0.43345135 0.73917717 -0.14934221

prop_layer.GRU.bias_ih_l0 f4 [30]
00000000: fb06 273c be67 a93d 6144 ce3d bf04 903c
00000010: 70be 41be ce57 2d3d 22ff 923d acff 253c
00000020: d22c 253d d8f1 893d 22dc 8dbe 9ebb 6b3d
00000030: 7551 fa3d d10f 37bd 3b0c 6e3e c999 3cbe
00000040: 1362 e83d 9c5e 0c3e 7085 b1bc 29e5 8d3e
00000050: 8e0f 17be 2e29 65be 2193 ebbd f93a 9f3e
00000060: 2ba2 853e e673 3dbe a0a0 7a3d 6953 f1bd
00000070: 5ade 193e 03a1 88be
0.010194535 0.082717404 0.10071636 0.017580388 -0.18920302 0.042320065 0.07177569 0.010131758
0.040325947 0.06735581 -0.2770701 0.057551973 0.12222568 -0.044692818 0.23246853 -0.1841804
0.11346831 0.13707966 -0.021670073 0.27713898 -0.14752027 -0.2237899 -0.11502672 0.3109968
0.26100287 -0.18501243 0.06118834 -0.11783487 0.15026227 -0.26685342

prop_layer.GRU.bias_hh_l0 f4 [30]
00000000: 9b07 273c c067 a93d 6144 ce3d 0d04 903c
00000010: 70be 41be c857 2d3d 22ff 923d aaff 253c
00000020: d22c 253d d8f1 893d 247b 8fbe fbbb 6c3d
00000030: 77e2 f93d 2f33 37bd 9500 6c3e eba0 3cbe
00000040: abe1 e73d bf38 0b3e 9fbd aebc bbba 8d3e
00000050: a4a6 27bf 9f77 53be d10e 60bc 0686 9e3c
00000060: 797f 3e3e a66c 1cbe bdfc 283d d49a 733c
00000070: 9c40 54bc 2427 c5bd
0.010194684 0.08271742 0.10071636 0.017580057 -0.18920302 0.042320043 0.07177569 0.010131756
0.040325947 0.06735581 -0.28023636 0.05779646 0.12201398 -0.044726547 0.23047097 -0.1842076
0.113223396 0.13595866 -0.021330653 0.27681527 -0.6548865 -0.206511 -0.0136754075 0.019351017
0.18603314 -0.15275821 0.041256655 0.014868457 -0.012954857 -0.09626606

aggregator.MLP1.0.weight f4 [20, 10]
00000000: 6646 17bb d32f 5abb 1fa5 223c a609 e1bb
00000010: 19c7 20bb 94b5 243c dc54 a5bb 91df b8bb
00000020: 94d4 25bb e599 87bb 89d6 96b7 3151 4939
00000030: 4070 d438 343e cb37 4ea3 c6b8 74e0 5a39
00000040: fa3b 5cb8 a15b 4439 4b47 8437 5cc7 f037
00000050: 9b0a 013f ccf3 2ebe 17f4 dbbc 469d aabd
00000060: 22dd 0b3e 4d70 c73d 1cc3 d4be 1b60 d53b
00000070: f8b3 2a3d 2c87 543e cbc1 2bbe 01d7 c2be
00000080: 0a62 603c 890c 32be 76ac e6bd 9699 d83e
00000090: cb6e 623c 5dcb 89be 5d87 50bd 431e a5be
000000a0: 0b24 153e 10b6 0dbe 0e5d 433d 4cbf 27bd
000000b0: 137a a53d 039a 0a3d a7e8 413d a62e 96bd
000000c0: bd41 54bd 8ccd 193d 56b1 7fbd 654a 47bc
000000d0: b60b 20be 26ae b5bc a5a4 553d 5433 ca3d
000000e0: 02ad 373d 1344 a7bc d1bb b4bb af9a 6b3c
000000f0: 00cf 15bf 04a2 dc3e 3165 36be 89e3 cdbd
00000100: 5b84 0fbe fe6c 283c f29c 3e3e b5e5 963e
00000110: ebd6 b7bc a9c7 69bd 2eaa debd 4a47 9ebd
00000120: e5e4 16be f1a1 933c 06ad 2a3e 5085 0c3e
00000130: 3b53 593e 99d7 c9bd ebbf 5a3d 2cc5 f4bc
00000140: 2aa1 bbbd 84f8 26be 1ca3 f53e 1fdc b2be
00000150: 9b32 4ebd 4a4f 813e 9529 943c 0853 5bbe
00000160: 468e 1bbe 610f ddbe 8189 e43d 104f c6bd
00000170: 0025 033e cbbd 023f bdf1 18bd 49a2 f2be
00000180: aca4 b03d 7da7 debd cbd0 ca3d 7a32 8d3e
00000190: 2270 b93b ddf4 34bc bd8e f33a d06c 86bb
000001a0: 566a 5fbc 4cca 18bc 83ac 40bb f903 92bc
000001b0: 1169 d2ba 6aa8 593b 7807 9eb9 ad58 a43a
000001c0: 9304 2f3a 98ca 2d3b 08b7 26ba 9013 1339
000001d0: f064 d03a cada bd3b ae54 69bb a89d 3bbb
000001e0: f983 be3d 19f5 46be 2445 9b3b f7de c63e
000001f0: e8b0 ae3e f2fa 68bd bf5e a93e 2d84 86be
00000200: 5078 6dbe 1ad2 a8be ef4c 763e f895 6e3d
00000210: 8d4e aa3e 1a4f 8c3e 7521 a13b eae3 06be
00000220: 96f8 4e3e e680 983d b206 953e 43fa d33e
00000230: e527 94be f3d8 463e 2a15 02be 7c23 f73d
00000240: 64e6 f1bc adc9 adbd d0dd ed3d 4b2c eabd
00000250: 08b4 153d 7227 44be 0a04 a2be 98ac f7bd
00000260: 7d43 a4bd cece 873e 1bc0 8ebe 1fad 153e
00000270: c533 653e 3968 3fbe ea49 963e 4933 13be
00000280: 0ae8 06bf 64a1 fd3e f4c5 49be 3a00 643d
00000290: 7283 bbbd 73f7 57be a4db 5abe d0d0 3b3d
000002a0: cb3e 493d 5142 d0be 4e38 b5be d5f5 0cbe
000002b0: d46b 6abd c2aa 88be cb04 93bd ba16 b3be
000002c0: e492 953e 556e c2be ba74 cdbd 3167 473c
000002d0: 54d4 04be 23be 64be 1c3a 133f 5baa 02be
000002e0: c36c 843e bb3b 1fbd 135e e4bc 362e cfbe
000002f0: 760b 533d 08d7 9fbd d25e a7be ad47 9e3d
00000300: 19bd db3d 44d5 74be b5c6 e03e 4758 e83d
00000310: 6d29 2c3e eacf 91be 30fa 843e 2766 14bf
-0.0023082732 -0.0033292666 0.009927063 -0.0068676053 -0.0024532734 0.010053057 -0.0050455164 -0.0056418856
-0.0025303708 -0.0041382187 -1.7981294e-05 0.000191991 0.00010129856 2.4228451e-05 -9.4717936e-05 0.00020873715
-5.2507945e-05 0.00018726151 1.5768825e-05 2.8703063e-05 0.5040681 -0.17085189 -0.02684979 -0.08330779
0.13658574 0.097382165 -0.41555107 0.006511701 0.041675538 0.20754689 -0.16773145 -0.3805466
0.013695249 -0.17387594 -0.11263363 0.42304677 0.01382036 -0.26912966 -0.050910342 -0.3224965
0.1456453 -0.13838983 0.047696166 -0.04095392 0.080799244 0.033838283 0.047341015 -0.07333116
-0.051820505 0.03754954 -0.06242498 -0.012163733 -0.15629467 -0.022177767 0.05215897 0.09873071
0.044842727 -0.020418203 -0.0055155535 0.014380141 -0.5851898 0.43092358 -0.17812039 -0.100531645
-0.14015333 0.010279892 0.18614557 0.29472128 -0.022441348 -0.057075176 -0.10872303 -0.07728441
-0.14735754 0.018021556 0.16667566 0.1372273 0.21223156 -0.09855575 0.053405683 -0.029879175
-0.09161599 -0.16305739 0.47976005 -0.34933564 -0.05034123 0.25255805 0.018086234 -0.21418393
-0.15190992 -0.43175796 0.11159039 -0.09683049 0.12807083 0.5107085 -0.037339915 -0.4738944
0.08625159 -0.108717896 0.09903105 0.27577573 0.005659119 -0.011044708 0.0018581968 -0.004102327
-0.013636192 -0.009325575 -0.00293997 -0.01782416 -0.0016053041 0.0033211955 -0.00030141673 0.0012538634
0.0006676402 0.002651846 -0.0006359671 0.000140263 0.0015899222 0.005793904 -0.0035603452 -0.0028627906
0.093025155 -0.19429435 0.004738467 0.38841984 0.34119344 -0.056879945 0.33080098 -0.26272717
-0.23190427 -0.32972795 0.24052785 0.05824849 0.33263054 0.274041 0.0049173185 -0.1317288
0.20212016 0.074464604 0.2910667 0.41401872 -0.28936687 0.19418697 -0.12703386 0.12067315
-0.029528804 -0.08485732 0.11614573 -0.114342295 0.036548644 -0.19155672 -0.31643707 -0.120934665
-0.08020685 0.26524967 -0.2788094 0.14616822 0.2238303 -0.18692102 0.29353267 -0.14375032
-0.52697814 0.49537194 -0.1970442 0.05566428 -0.091559306 -0.21090488 -0.21372849 0.045853436
0.04913215 -0.40675595 -0.3539452 -0.13765652 -0.05723174 -0.26692778 -0.071786486 -0.34978276
0.2921363 -0.37974802 -0.100320294 0.012170599 -0.12971622 -0.22338156 0.5751054 -0.12760298
0.2586423 -0.038875323 -0.02787689 -0.40464944 0.051524602 -0.07804686 -0.3268953 0.07728515
0.10729427 -0.2390948 0.439016 0.113449626 0.16812678 -0.28478938 0.25972128 -0.5796837

aggregator.MLP1.0.bias f4 [20]
00000000: 5b0d 8ebc 2739 11ba ebdf 65bd 5fd5 58bd
00000010: 4485 173c 8ab0 f03d 3472 9dbd 2858 a73d
00000020: aa75 5d3d afd4 fabc 0cef f33a f127 c83a
00000030: 9b17 67bc 7439 b93d 09cb 38bd 9ec2 b8bb
00000040: 8227 ea3c 129c 48bd 1a8c d3be c331 923d
-0.017340353 -0.00055398274 -0.056121748 -0.05293786 0.009248082 0.11752422 -0.07687798 0.08171111
0.05406729 -0.030618994 0.001861067 0.0015270693 -0.014104749 0.090441614 -0.045115504 -0.0056384346
0.028583292 -0.048976965 -0.41317827 0.071383975

aggregator.MLP2.0.weight f4 [10, 10]
00000000: c48e 293c dd73 e9b8 e0cd 2fbe 500b 67be
00000010: 9b3d 0b3e 8908 7a3e ab0f 6abe c257 c33e
00000020: 61d2 b9bd c9b4 37be a6fc 94bb 0890 2fbb
00000030: 5d48 203d 4437 d93d c9a8 76bd 4cd8 babc
00000040: 84dd 1e3e 7334 a03d d394 34bf 082d 263d
00000050: 9815 233c 0a3d 90ba eace 353e 6531 34be
00000060: 87b9 66be 705b d43d 74e6 f63e 731a 38be
00000070: 5731 413e f363 ebbd 0689 18bc 04af 5abb
00000080: c606 aa3e c1a0 c9be e681 303d fe2f 52bd
00000090: acaa 243e 975d c33c 46e3 a1bc 5a70 54be
000000a0: 3386 5b3c edb2 883b 7aee e63d 4036 acbd
000000b0: 386d 88bd 236b a0be c4a8 613e e7b7 993e
000000c0: f88e a3bb d3ae a9be 8c2b e8bb ad19 c9b9
000000d0: fa5d 0b3e ea93 8d3e 8c12 2d3e 7cd5 7f3e
000000e0: c995 c53b 047a dfbd 9073 c13d ffc9 febe
000000f0: cc05 bcbb c95c 1b3b 8052 9e3e 1c15 1b3e
00000100: d85a 2ebc 3c3b b33e dfab d13c 72d2 933e
00000110: ca85 d03c fe57 d7bd c9a7 7ebc e558 893b
00000120: 1988 8abe 8b82 fcbd fbed 163e 672b a73e
00000130: 13aa 5cbd 26f6 c13d d21e b63b e15c 97be
00000140: e187 0cbb ebe2 773a daed 223e 78c7 93be
00000150: 53f8 1bbd cd4b f53b c6f1 9abe 4ee6 a5be
00000160: b2fe 31be 635d a1be 2010 16ba 9bcc 84bb
00000170: 6287 d7be 8141 503e d427 4ebe b844 2fbe
00000180: ff0a 01bf 9b8f d53d 7f21 1e3e 905c c4be
0.010348979 -0.00011131887 -0.17168379 -0.22562909 0.1359772 0.24417318 -0.2285754 0.3815289
-0.0907333 -0.17940058 -0.0045467196 -0.002678873 0.03913151 0.10606244 -0.06021956 -0.022808217
0.15514189 0.07822504 -0.7053959 0.04057029 0.009953879 -0.0011004519 0.17754713 -0.17596968
-0.2253171 0.10369003 0.48222697 -0.1797884 0.18866478 -0.11493673 -0.009310013 -0.0033368478
0.33208293 -0.39380458 0.04309263 -0.0513153 0.16080731 0.023848338 -0.019761693 -0.20745984
0.013398695 0.0041717202 0.112759545 -0.08408785 -0.06661457 -0.3133174 0.22037035 0.3002312
-0.0049914084 -0.33141193 -0.0070852693 -0.00038356837 0.13610068 0.27651912 0.16901606 0.24983782
0.0060298187 -0.109119445 0.0944587 -0.49763486 -0.0057379957 0.0023706427 0.30922318 0.15144771
-0.010641776 0.3500613 0.02559465 0.28871495 0.02545442 -0.1051483 -0.015542933 0.0041915053
-0.2705696 -0.123295866 0.1473922 0.326503 -0.053873133 0.09470777 0.0055578733 -0.29563048
-0.0021443295 0.00094561157 0.15911046 -0.2886312 -0.038078617 0.007485843 -0.30262583 -0.3240227
-0.17382315 -0.3151656 -0.0005724449 -0.004052711 -0.42095476 0.20337488 -0.2013238 -0.17116058
-0.50407404 0.10427781 0.15442465 -0.3835187

aggregator.MLP2.0.bias f4 [10]
00000000: 8c1b 0000 b81e 0000 a01b 0080 951b 0000
00000010: 8c1b 0080 621b 0000 c21b 0080 841b 0000
00000020: a11b 0000 851b 0000
9.882e-42 1.102e-41 -9.91e-42 9.895e-42 -9.882e-42 9.823e-42 -9.958e-42 9.871e-42
9.911e-42 9.872e-42
