paper_artifacts/collection/gmn_baseline_scoring=agg___tp=attention_pp=identity_when=post_K=8/trained_models/gmn_baseline_scoring=agg___tp=attention_pp=identity_when=post_K=8_ptc_mr_large_dataset_seed_7366_2024-05-01_18:11:22.pth (torch, 12412 bytes, 14 tensors)

encoder.MLP1.0.weight f4 [10, 1]
00000000: ed3b d13c 74b9 f7bd 0d17 22bf 0c86 7d3e
00000010: 95df b8be 8c94 343d 4fcd d23d 0135 3b3e
00000020: ca78 02bf a8f2 44bf
0.02554127 -0.12095919 -0.6331642 0.24758166 -0.3610808 0.044086978 0.10293066 0.18281938
-0.5096556 -0.76932764

encoder.MLP1.0.bias f4 [10]
00000000: 34e5 73bd 53b2 fc3d 20d1 d8be 8e07 be3d
00000010: 8c1f c4be 55dd 083e e402 2dbe abc9 9cbd
00000020: d940 90be 5f1c 42bf
-0.059544757 0.123387 -0.4234705 0.09278785 -0.38305318 0.13365681 -0.16895634 -0.076556526
-0.28174475 -0.7582454

prop_layer._message_net.0.weight f4 [20, 21]
00000000: 155d 6e3d e682 923c 6509 92bc 4127 b9bb
00000010: af3d b8bc 3d2b 333d 3516 9a3d c24a 9d3b
00000020: a462 cf3d b193 91bc bf32 26bd 0062 9cbc
00000030: 1784 8a3c 3831 1fbc aab0 813c 2204 a0bd
00000040: c0e0 a9bd 70c1 4ebc c89f bcbd 2e8c 703c
00000050: 426b 8f3c 6cc8 5ebe cdee 143f dd09 dc3e
00000060: ad49 513e a0e0 05bd 6456 55bd 3ea8 59be
00000070: 0931 a3be f4f5 8bbd 3c86 03bd 181e 963e
00000080: dffe 133e 2fd6 b0be 81f1 533e 8475 29bd
00000090: 96c3 2f3e bfe7 cf3d 1a40 143d 35d2 d93d
000000a0: 3645 0f3e 1330 7a3d 7f1e 063e f100 4d3e
000000b0: 045b 23be c0d7 c83d 32bd 1bbe 3e90 f4bd
000000c0: b8bc 9cbd 4123 173f a37a 983e 7371 2e3e
000000d0: 6af7 ca3d 9649 753e 5b35 cf3e 2f34 9bbd
000000e0: 62b4 58bd 6f82 903e b01c 3dbd 1826 d03e
000000f0: 1cd6 1a3e f42d 563e 28d1 97bc edc0 a7be
00000100: 9b5a 803e 85a5 e33e d704 b93e 79b4 c6be
00000110: 03f1 ad3e f5d8 3cbe fe62 12bc c72b 48be
00000120: 5e68 943e e72b 33bd e740 3fbd ddb3 a2bd
00000130: ef5d 243e f5c3 b7bb 287d 073c 4115 cdbd
00000140: f34f fa3c 6ce4 503e eef4 b0bd 2b00 0ebe
00000150: af95 cfbe aff9 073d 34a9 b03d 2aae 183e
00000160: a4b9 6d3e 739b 733c 2b26 66be 4c84 913e
00000170: 5d00 d1be 53d7 2a3e a3e7 2c3e f17d 4b3b
00000180: 36c3 b13d 7b68 71be 49f7 bcbd e99f 123e
00000190: 33a0 b73e ac9a 1c3e e056 b63c b05f f03d
000001a0: ce7c 1bbd 9dba af3e 1170 4fbe 42ec 05bc
000001b0: d25e a33e a1fd 9c3e 32cd dd3e 3c92 97bd
000001c0: dae6 9a3d bf70 1e3c 7394 99bc c292 3e3d
000001d0: b346 6cbd 1339 663e ff81 2ebe 08da eebc
000001e0: faaf 183e c80a 54bd 5a13 073e 0b62 a33d
000001f0: 8434 4c3e 3e58 bd3d 904c 00be 125a 8c3d
00000200: 5bdb aa3d 5492 70bc 6393 b5bd bef8 b43d
00000210: 5d45 3fbd 2e18 223d 8f80 053e 8741 38bd
00000220: 93e8 223d 045a 6e3c 7b09 20bd 4bc2 c83c
00000230: 51ad 1d3d a4d3 6bbc 403d 283d 1f69 043d
00000240: 27a6 90bd 5a9b e63c f466 4cbc 9ef0 e33d
00000250: 1563 a9be a7fc 883e 160f 8d3e 26cc 023e
00000260: bc5b 24be bf47 67be 31f7 6bbe d04c b0bb
00000270: ff86 3cbe 9bdb d1bd 7a5c 8bbc 510d 17be
00000280: 0d0d 343d a3de 13bc f901 be3e 6e31 753e
00000290: d547 9b3e a1ad 6f3e d06b c4bd 5a26 c0bd
000002a0: 1bd1 82bb 8732 b1bb 5a8f 9eb9 b23a 543c
000002b0: 788e 133a 05b3 a93a 95ed 2fba dfef 0bbb
000002c0: 4829 1cbc 005b da3b 65e1 3bba d748 733b
000002d0: 5ac4 303b 0fb2 06bb ebe3 1e3b 1201 b5bb
000002e0: 18bd 933b 8a90 4ebb 7fca b7bb eb51 6abb
000002f0: 6bc2 39b9 fa34 babd ae60 d8bd e8bc a63e
00000300: eb03 56be ed64 75be 832a 0cbd bae3 34be
00000310: 8da1 b2bd 186e 253e 04de 43bd cdd9 febc
00000320: 098a 18bd 85d4 3fbe 9f7f bfbe 7376 a9be
00000330: cb3a e6be 44e4 36bd 3cf6 63be c821 593e
00000340: e870 d73e defa f13c f3ff 1e3e 49aa 02bf
00000350: ad72 9bbe f058 223f f205 d7bd 8e54 053e
00000360: 4fc8 afbd c584 8dbe 44a9 65be fd05 323a
00000370: f554 21be 3c07 2e3d 8c12 7e3d 23d0 5b3c
00000380: 2960 5a3e 801c da3d d2e2 46be 4f22 f53c
00000390: 9839 9d3e ccdc f53d db17 7c3d 331d 963b
000003a0: 1b0c 233c 3916 3cbb 839a 12bc 5bdd 673b
000003b0: 6278 f1ba d6d4 863b 98ff 963b 47d1 5b3c
000003c0: e82a bcbb 10d8 4eba 89e7 93bb b854 f0b9
000003d0: 015f a53a 3a8e c4bb bbe9 f53b a693 cfbb
000003e0: 8fa5 303a 1d9c 2c3b 038c cd3a 6060 243a
000003f0: 8c6c 02be ada0 f03b 39da 09be aab7 6d3e
0.05819424 0.017884683 -0.017826745 -0.0056504314 -0.02249035 0.043742407 0.07523767 0.0048001716
0.10126236 -0.01777062 -0.04057574 -0.019089699 0.016908688 -0.0097163245 0.01583131 -0.07813288
-0.08294821 -0.012619361 -0.09210163 0.014681859 0.0175072 -0.21756142 0.5817688 0.42976275
0.20438261 -0.032684922 -0.05208434 -0.21255586 -0.31873348 -0.06834021 -0.032110438 0.29319835
0.14452694 -0.3453841 0.20697595 -0.041371837 0.17164454 0.10151624 0.036193945 0.10635797
0.13991246 0.061081003 0.13097571 0.2001989 -0.15952688 0.09806776 -0.15208891 -0.119415745
-0.07653183 0.5903817 0.29781064 0.17035465 0.09910472 0.23953852 0.40470394 -0.075783126
-0.0529064 0.28224513 -0.046169937 0.40654063 0.15120739 0.20915967 -0.01853235 -0.32764378
0.25069126 0.4446222 0.36136505 -0.38809565 0.3397294 -0.18442138 -0.008934734 -0.1954795
0.28985876 -0.04374304 -0.046692755 -0.079444624 0.16051458 -0.0056080767 0.008269586 -0.100138195
0.0305557 0.20399636 -0.08640467 -0.13867252 -0.40543887 0.0331971 0.08626023 0.14910188
0.23215348 0.014868605 -0.22475497 0.28421247 -0.4082059 0.16683702 0.16885237 0.0031050409
0.08679812 -0.23575012 -0.092268534 0.14318813 0.3586441 0.15293378 0.022258222 0.11737001
-0.03796082 0.34322062 -0.20257594 -0.008174004 0.3190828 0.30662253 0.43320614 -0.07400939
0.07563563 0.009670435 -0.018747544 0.046526678 -0.05768461 0.2248271 -0.17041777 -0.0291567
0.1491088 -0.051768094 0.13190976 0.079776846 0.19941908 0.092453465 -0.12529206 0.06853117
0.0834262 -0.014683325 -0.088660024 0.08836506 -0.04669701 0.03957384 0.13037322 -0.044984367
0.03977258 0.014547829 -0.03907154 0.024506709 0.038495366 -0.014393721 0.041074038 0.032326814
-0.07062941 0.02815025 -0.012475718 0.111298785 -0.33083406 0.26755258 0.27550572 0.12773189
-0.16050619 -0.22585963 -0.23043515 -0.0053802505 -0.18410872 -0.102469645 -0.01701187 -0.14751174
0.04395776 -0.009025249 0.3711088 0.23944637 0.3032824 0.23406078 -0.09590876 -0.09382315
-0.0039922125 -0.0054076347 -0.00030242914 0.012953447 0.00056288345 0.0012947029 -0.00067111227 -0.002135269
-0.009531327 0.00666368 -0.000716707 0.0037122273 0.0026972503 -0.0020552909 0.0024244736 -0.005523809
0.0045086257 -0.0031519257 -0.005608856 -0.0035754393 -0.00017715401 -0.09092136 -0.10565315 0.32566
-0.20899932 -0.23964281 -0.03422023 -0.17664996 -0.087222196 0.16155279 -0.047819152 -0.031109715
-0.037241016 -0.18733414 -0.37402055 -0.33098182 -0.4496673 -0.044651285 -0.222619 0.21204293
0.42078328 0.029538568 0.15527324 -0.51041085 -0.30360928 0.6341696 -0.10499181 0.13020536
-0.08583128 -0.27640358 -0.22427851 0.00067910535 -0.15755065 0.042487368 0.062029406 0.013416323
0.21325745 0.10649967 -0.19422463 0.029923586 0.30708003 0.12005004 0.061546188 0.0045811175
0.009951617 -0.002869977 -0.008947971 0.003537974 -0.0018422718 0.0041147275 0.004608106 0.013416595
-0.0057424195 -0.0007890472 -0.004513685 -0.00045839488 0.0012616814 -0.0059984 0.0075046695 -0.0063347397
0.00067385373 0.0026338168 0.0015681986 0.00062704645 -0.1273672 0.007343373 -0.13462152 0.23214594

prop_layer._message_net.0.bias f4 [20]
00000000: 1374 203b df92 f3bc c8bf 52be 03b8 33be
00000010: 393b 12be 1423 8c3d 3842 9dbc 7428 c5bd
00000020: 34f0 9cb9 fc02 4b3e dc08 bbbd a19a 243a
00000030: b173 07be 549e 9cba e1fa 393b 65d0 a53d
00000040: 2060 a8bd ce3e 72bb 3014 a03d 2359 48be
0.0024483248 -0.02973312 -0.20580971 -0.17550664 -0.14280404 0.06842628 -0.019196615 -0.096268564
-0.00029933604 0.19825357 -0.09132549 0.0006279145 -0.13227727 -0.0011949041 0.0028378295 0.08096389
-0.082214594 -0.0036963704 0.078163505 -0.19565253

prop_layer._reverse_message_net.0.weight f4 [20, 21]
00000000: 155d 6e3d e682 923c 6509 92bc 4127 b9bb
00000010: af3d b8bc 3d2b 333d 3516 9a3d c24a 9d3b
00000020: a462 cf3d b193 91bc bf32 26bd 0062 9cbc
00000030: 1784 8a3c 3831 1fbc aab0 813c 2204 a0bd
00000040: c0e0 a9bd 70c1 4ebc c89f bcbd 2e8c 703c
00000050: 426b 8f3c 6cc8 5ebe cdee 143f dd09 dc3e
00000060: ad49 513e a0e0 05bd 6456 55bd 3ea8 59be
00000070: 0931 a3be f4f5 8bbd 3c86 03bd 181e 963e
00000080: dffe 133e 2fd6 b0be 81f1 533e 8475 29bd
00000090: 96c3 2f3e bfe7 cf3d 1a40 143d 35d2 d93d
000000a0: 3645 0f3e 1330 7a3d 7f1e 063e f100 4d3e
000000b0: 045b 23be c0d7 c83d 32bd 1bbe 3e90 f4bd
000000c0: b8bc 9cbd 4123 173f a37a 983e 7371 2e3e
000000d0: 6af7 ca3d 9649 753e 5b35 cf3e 2f34 9bbd
000000e0: 62b4 58bd 6f82 903e b01c 3dbd 1826 d03e
000000f0: 1cd6 1a3e f42d 563e 28d1 97bc edc0 a7be
00000100: 9b5a 803e 85a5 e33e d704 b93e 79b4 c6be
00000110: 03f1 ad3e f5d8 3cbe fe62 12bc c72b 48be
00000120: 5e68 943e e72b 33bd e740 3fbd ddb3 a2bd
00000130: ef5d 243e f5c3 b7bb 287d 073c 4115 cdbd
00000140: f34f fa3c 6ce4 503e eef4 b0bd 2b00 0ebe
00000150: af95 cfbe aff9 073d 34a9 b03d 2aae 183e
00000160: a4b9 6d3e 739b 733c 2b26 66be 4c84 913e
00000170: 5d00 d1be 53d7 2a3e a3e7 2c3e f17d 4b3b
00000180: 36c3 b13d 7b68 71be 49f7 bcbd e99f 123e
00000190: 33a0 b73e ac9a 1c3e e056 b63c b05f f03d
000001a0: ce7c 1bbd 9dba af3e 1170 4fbe 42ec 05bc
000001b0: d25e a33e a1fd 9c3e 32cd dd3e 3c92 97bd
000001c0: dae6 9a3d bf70 1e3c 7394 99bc c292 3e3d
000001d0: b346 6cbd 1339 663e ff81 2ebe 08da eebc
000001e0: faaf 183e c80a 54bd 5a13 073e 0b62 a33d
000001f0: 8434 4c3e 3e58 bd3d 904c 00be 125a 8c3d
00000200: 5bdb aa3d 5492 70bc 6393 b5bd bef8 b43d
00000210: 5d45 3fbd 2e18 223d 8f80 053e 8741 38bd
00000220: 93e8 223d 045a 6e3c 7b09 20bd 4bc2 c83c
00000230: 51ad 1d3d a4d3 6bbc 403d 283d 1f69 043d
00000240: 27a6 90bd 5a9b e63c f466 4cbc 9ef0 e33d
00000250: 1563 a9be a7fc 883e 160f 8d3e 26cc 023e
00000260: bc5b 24be bf47 67be 31f7 6bbe d04c b0bb
00000270: ff86 3cbe 9bdb d1bd 7a5c 8bbc 510d 17be
00000280: 0d0d 343d a3de 13bc f901 be3e 6e31 753e
00000290: d547 9b3e a1ad 6f3e d06b c4bd 5a26 c0bd
000002a0: 1bd1 82bb 8732 b1bb 5a8f 9eb9 b23a 543c
000002b0: 788e 133a 05b3 a93a 95ed 2fba dfef 0bbb
000002c0: 4829 1cbc 005b da3b 65e1 3bba d748 733b
000002d0: 5ac4 303b 0fb2 06bb ebe3 1e3b 1201 b5bb
000002e0: 18bd 933b 8a90 4ebb 7fca b7bb eb51 6abb
000002f0: 6bc2 39b9 fa34 babd ae60 d8bd e8bc a63e
00000300: eb03 56be ed64 75be 832a 0cbd bae3 34be
00000310: 8da1 b2bd 186e 253e 04de 43bd cdd9 febc
00000320: 098a 18bd 85d4 3fbe 9f7f bfbe 7376 a9be
00000330: cb3a e6be 44e4 36bd 3cf6 63be c821 593e
00000340: e870 d73e defa f13c f3ff 1e3e 49aa 02bf
00000350: ad72 9bbe f058 223f f205 d7bd 8e54 053e
00000360: 4fc8 afbd c584 8dbe 44a9 65be fd05 323a
00000370: f554 21be 3c07 2e3d 8c12 7e3d 23d0 5b3c
00000380: 2960 5a3e 801c da3d d2e2 46be 4f22 f53c
00000390: 9839 9d3e ccdc f53d db17 7c3d 331d 963b
000003a0: 1b0c 233c 3916 3cbb 839a 12bc 5bdd 673b
000003b0: 6278 f1ba d6d4 863b 98ff 963b 47d1 5b3c
000003c0: e82a bcbb 10d8 4eba 89e7 93bb b854 f0b9
000003d0: 015f a53a 3a8e c4bb bbe9 f53b a693 cfbb
000003e0: 8fa5 303a 1d9c 2c3b 038c cd3a 6060 243a
000003f0: 8c6c 02be ada0 f03b 39da 09be aab7 6d3e
0.05819424 0.017884683 -0.017826745 -0.0056504314 -0.02249035 0.043742407 0.07523767 0.0048001716
0.10126236 -0.01777062 -0.04057574 -0.019089699 0.016908688 -0.0097163245 0.01583131 -0.07813288
-0.08294821 -0.012619361 -0.09210163 0.014681859 0.0175072 -0.21756142 0.5817688 0.42976275
0.20438261 -0.032684922 -0.05208434 -0.21255586 -0.31873348 -0.06834021 -0.032110438 0.29319835
0.14452694 -0.3453841 0.20697595 -0.041371837 0.17164454 0.10151624 0.036193945 0.10635797
0.13991246 0.061081003 0.13097571 0.2001989 -0.15952688 0.09806776 -0.15208891 -0.119415745
-0.07653183 0.5903817 0.29781064 0.17035465 0.09910472 0.23953852 0.40470394 -0.075783126
-0.0529064 0.28224513 -0.046169937 0.40654063 0.15120739 0.20915967 -0.01853235 -0.32764378
0.25069126 0.4446222 0.36136505 -0.38809565 0.3397294 -0.18442138 -0.008934734 -0.1954795
0.28985876 -0.04374304 -0.046692755 -0.079444624 0.16051458 -0.0056080767 0.008269586 -0.100138195
0.0305557 0.20399636 -0.08640467 -0.13867252 -0.40543887 0.0331971 0.08626023 0.14910188
0.23215348 0.014868605 -0.22475497 0.28421247 -0.4082059 0.16683702 0.16885237 0.0031050409
0.08679812 -0.23575012 -0.092268534 0.14318813 0.3586441 0.15293378 0.022258222 0.11737001
-0.03796082 0.34322062 -0.20257594 -0.008174004 0.3190828 0.30662253 0.43320614 -0.07400939
0.07563563 0.009670435 -0.018747544 0.046526678 -0.05768461 0.2248271 -0.17041777 -0.0291567
0.1491088 -0.051768094 0.13190976 0.079776846 0.19941908 0.092453465 -0.12529206 0.06853117
0.0834262 -0.014683325 -0.088660024 0.08836506 -0.04669701 0.03957384 0.13037322 -0.044984367
0.03977258 0.014547829 -0.03907154 0.024506709 0.038495366 -0.014393721 0.041074038 0.032326814
-0.07062941 0.02815025 -0.012475718 0.111298785 -0.33083406 0.26755258 0.27550572 0.12773189
-0.16050619 -0.22585963 -0.23043515 -0.0053802505 -0.18410872 -0.102469645 -0.01701187 -0.14751174
0.04395776 -0.009025249 0.3711088 0.23944637 0.3032824 0.23406078 -0.09590876 -0.09382315
-0.0039922125 -0.0054076347 -0.00030242914 0.012953447 0.00056288345 0.0012947029 -0.00067111227 -0.002135269
-0.009531327 0.00666368 -0.000716707 0.0037122273 0.0026972503 -0.0020552909 0.0024244736 -0.005523809
0.0045086257 -0.0031519257 -0.005608856 -0.0035754393 -0.00017715401 -0.09092136 -0.10565315 0.32566
-0.20899932 -0.23964281 -0.03422023 -0.17664996 -0.087222196 0.16155279 -0.047819152 -0.031109715
-0.037241016 -0.18733414 -0.37402055 -0.33098182 -0.4496673 -0.044651285 -0.222619 0.21204293
0.42078328 0.029538568 0.15527324 -0.51041085 -0.30360928 0.6341696 -0.10499181 0.13020536
-0.08583128 -0.27640358 -0.22427851 0.00067910535 -0.15755065 0.042487368 0.062029406 0.013416323
0.21325745 0.10649967 -0.19422463 0.029923586 0.30708003 0.12005004 0.061546188 0.0045811175
0.009951617 -0.002869977 -0.008947971 0.003537974 -0.0018422718 0.0041147275 0.004608106 0.013416595
-0.0057424195 -0.0007890472 -0.004513685 -0.00045839488 0.0012616814 -0.0059984 0.0075046695 -0.0063347397
0.00067385373 0.0026338168 0.0015681986 0.00062704645 -0.1273672 0.007343373 -0.13462152 0.23214594

prop_layer._reverse_message_net.0.bias f4 [20]
00000000: 1374 203b df92 f3bc c8bf 52be 03b8 33be
00000010: 393b 12be 1423 8c3d 3842 9dbc 7428 c5bd
00000020: 34f0 9cb9 fc02 4b3e dc08 bbbd a19a 243a
00000030: b173 07be 549e 9cba e1fa 393b 65d0 a53d
00000040: 2060 a8bd ce3e 72bb 3014 a03d 2359 48be
0.0024483248 -0.02973312 -0.20580971 -0.17550664 -0.14280404 0.06842628 -0.019196615 -0.096268564
-0.00029933604 0.19825357 -0.09132549 0.0006279145 -0.13227727 -0.0011949041 0.0028378295 0.08096389
-0.082214594 -0.0036963704 0.078163505 -0.19565253

prop_layer.GRU.weight_ih_l0 f4 [30, 30]
00000000: bb3c e639 a7f1 44be 7541 3a3e f1ba 0bbe
00000010: 8c3f a23d 2f05 d1bc 3de5 8cbb d7c0 b0bd
00000020: c573 613a 8e39 9dbd 585e d83d d3cd dbba
00000030: b461 bebd 52e1 9e3c e0ba 0ebc 347d 4b3e
00000040: b12b 02be 827a b23d 9c07 aabd 6f37 3abe
00000050: 0ae5 27bd 5f8b 9f3d a115 81bd ca47 17bd
00000060: 7e99 1e3e dda7 c4bd b0a7 953d fdff febb
00000070: 7085 5cbd fe11 5a3d 1d98 4f3d bbf5 93be
00000080: ea2a 43bd c02c 0c3d c794 ed3a f508 043e
00000090: 4dc3 1b3d 3620 92bc 06d6 a33b dbdc 333e
000000a0: 13a1 88bc a075 adbb ba77 86bd d768 f33c
000000b0: 56d0 47bd 843e 49be 2f26 ba3b 7eff 3e3d
000000c0: fa1e 9f3d 3958 a53e 396f 63bc ed47 ac3d
000000d0: 7e62 85bd 69b5 273d fce0 d1bd c71a 3cbd
000000e0: 6a53 c03c 0a4f f1bc a26f 8bbd b964 853d
000000f0: ce3b 093c b002 08bd 2455 1e3e 892f 12be
00000100: 2f44 e2bc 1c50 45bd df7a 8fbc 02df d3bb
00000110: 76c0 20bb f4c0 733d a34c 573d 75dd 3e3b
00000120: f37e 293c 28f5 e33b 571a 553d 0501 9d3e
00000130: ff1e 74bd 9293 253e 86ed 81bd 740a 78bd
00000140: c945 78bd ae4f 3b3d fbbe cabd 805f c9bc
00000150: 9bcc ee3c 5495 7ebb 010f 293d 7e00 11ba
00000160: 11f3 dabb 5f13 f5bc d7ee b93a 36e6 dfbd
00000170: 9387 68bd aa2e 63be fd40 0bbe 1a5b 053c
00000180: 7a45 a3bc 9850 b3bd 726c c4bb 4d75 2d3e
00000190: 39cf 543d 5802 a43b dffc 443e 8e1a eebb
000001a0: 5d60 683e 4503 ef3e 9971 8a3c 5726 c1be
000001b0: 1cc7 8ebe 21f4 8abd d46d 50be 1d33 6e3d
000001c0: 87c0 82bd f734 93b9 1298 21be bfee d3bd
000001d0: eefe e8bd b1ec 31bd 9c63 083e ba9b 19be
000001e0: 7602 96bb 665f 69be a10b 323e 5310 8bbe
000001f0: 84d1 eb3c 83dc 333e edab adbd c1df 0d3d
00000200: ad34 1c3b a24a 33be 643d c73d 107d 14bc
00000210: f2bc d9bd c6bf 713c d240 02be 90ac 7f3e
00000220: 574e d9bd 72a4 90bd bf9f 67bd b1ca 4ebe
00000230: e2f0 423e cde1 91bc 4bde 55be 5650 1d3e
00000240: c8fe 2fbd 030a 573d a590 983b b944 403e
00000250: a7cf 20bd 8e1f 3e3d 21be 3b3c 1b39 37be
00000260: f526 113d ed7e 1b3e 7414 0cbc 80fc 77be
00000270: d60f aebb ad73 9d3d 11e8 1f3b 9893 533c
00000280: 88a4 bf3d 4b7e ee3b a041 fe3b badb 1a3d
00000290: b95c 5d3d 91ea 61be 22dc 9ebd c79d 483e
000002a0: daae ddba 48e8 0fbd 68f4 f9bd 6c08 c73d
000002b0: 83cc 01be d86b 4bbe 44f8 863e 351b e0bb
000002c0: 50d2 d2bd bc74 333e 3047 a9be e380 2abe
000002d0: 5c8a 213d 7a8a 76be a9f2 b4bd 7760 30be
000002e0: 1cab eebd 80df 42be 1cab b43c 4d5b 903c
000002f0: c781 0c3a 19a9 023e a515 873d c85e 6dbb
00000300: dcc6 cd3c e056 2b3d 243d 9c3d 93f2 94bc
00000310: 57a5 97bd c6ef 913e aad7 6bbe 24f0 25be
00000320: caea 003a afb2 503d 4ab5 383c c4ae de3d
00000330: 224d 3a3d cf9f acbd fabc abbe 8bf3 133e
00000340: e176 45bd d0fe 2b3e eef2 e5b9 6676 503e
00000350: 2921 383e df89 3f3d 9426 39bd 30ce 15be
00000360: fdcd a9bc 1049 99bd 34dc b43a d751 f03d
00000370: ecc9 ecbd 1c18 bfba 5a89 1ebd 5f29 7bb9
00000380: 73ec 1fbd 9e5e 923e befa df3d ba76 0dbe
00000390: fe87 5fbd eae6 dbbd fdb8 d9bc f64b 093e
000003a0: 938e 393e ff0a 57bd cc05 ccba 40f7 c03d
000003b0: ee0a 743d 5de2 90bc 47f5 cebc 706d 153b
000003c0: 1c49 913c 7304 9f3d b46a a13c 6dc8 853e
000003d0: bdc0 b43d a001 953d 6bb7 303d 6547 b4bd
000003e0: d703 8cbb eebe 2dbe ec5d 2fbb d7b1 9b3b
000003f0: 9847 a23d d1f3 b43b 5749 bf3b 9628 293c
0.00043914266 -0.19232808 0.18189032 -0.13645531 0.07922277 -0.025515167 -0.0042997883 -0.08630531
0.000860032 -0.07676993 0.1056487 -0.0016769714 -0.09295979 0.01939455 -0.008711547 0.1987198
-0.1271198 0.08714773 -0.083022326 -0.18185209 -0.040989913 0.07790255 -0.063029535 -0.036933698
0.1548824 -0.0960233 0.073073745 -0.007781981 -0.053838193 0.053239815 0.050682176 -0.28898415
-0.047648348 0.034222364 0.0018126004 0.12894042 0.03802805 -0.017837625 0.004999879 0.17564718
-0.016678369 -0.005293563 -0.06565805 0.029713077 -0.04878267 -0.19652754 0.0056808214 0.046630375
0.0776958 0.3229387 -0.013881498 0.08412156 -0.065129265 0.04094449 -0.102479905 -0.045923974
0.023477275 -0.029456634 -0.06808402 0.06513352 0.008376075 -0.033205688 0.15462166 -0.14275946
-0.027620403 -0.0481721 -0.017514644 -0.0064657936 -0.0024528778 0.059510186 0.05256332 0.0029123698
0.010345208 0.006956715 0.052027073 0.3066484 -0.059599873 0.16169575 -0.06344132 -0.060556844
-0.060613427 0.045730285 -0.09899708 -0.02458167 0.029150298 -0.003884633 0.041274074 -0.00055313844
-0.006681808 -0.029916463 0.001418556 -0.10932581 -0.05676992 -0.2218577 -0.1359901 0.008139396
-0.01993059 -0.087556064 -0.005994373 0.16939278 0.051955435 0.005005162 0.19237088 -0.007266349
0.2269301 0.46682182 0.01689987 -0.37724563 -0.27886283 -0.06784845 -0.20354396 0.058154214
-0.06384378 -0.00028077487 -0.15780666 -0.103482716 -0.11376749 -0.043438617 0.13319248 -0.15000811
-0.00457793 -0.22790298 0.17387249 -0.27160892 0.028786428 0.17564587 -0.08480058 0.034637216
0.0023835108 -0.17508939 0.09728506 -0.00906302 -0.106317416 0.014755195 -0.1272004 0.24968171
-0.10610645 -0.070626155 -0.05654883 -0.20194508 0.19037202 -0.017807866 -0.2088558 0.15362677
-0.042967588 0.052499782 0.004655915 0.18776216 -0.039260533 0.04641681 0.0114589045 -0.17892878
0.035437543 0.15185137 -0.008549798 -0.24217415 -0.0053119464 0.07688079 0.0024399797 0.012913607
0.09357554 0.007278239 0.007759288 0.037807204 0.054043505 -0.22062136 -0.07756831 0.19591437
-0.0016913072 -0.03513363 -0.1220482 0.09718403 -0.12675671 -0.19865358 0.26361287 -0.006839181
-0.1029402 0.17525 -0.33062124 -0.16650729 0.03943859 -0.24076262 -0.08835346 -0.17224298
-0.1165373 -0.19030571 0.022054248 0.01762166 0.00053599145 0.12759818 0.06595925 -0.0036219824
0.025119238 0.041830897 0.07628849 -0.018182075 -0.07404583 0.28503245 -0.23031488 -0.16204888
0.0004917799 0.050951656 0.011273691 0.10873178 0.045483716 -0.084289186 -0.33542615 0.14448373
-0.048209075 0.16796422 -0.0004385928 0.20357665 0.179814 0.046762343 -0.045202807 -0.14629436
-0.020728106 -0.07484639 0.0013798536 0.1173436 -0.11561951 -0.0014579329 -0.038705207 -0.00023952637
-0.039043855 0.28587812 0.10936497 -0.13814822 -0.05457305 -0.10737403 -0.026577467 0.13407883
0.18120794 -0.05250072 -0.0015565692 0.09422159 0.059580736 -0.017686063 -0.025263442 0.0022800826
0.017735057 0.077645205 0.0197042 0.26129475 0.088258244 0.072757006 0.04314367 -0.0880268
-0.0042729187 -0.16967365 -0.0026758863 0.004751425 0.07923812 0.0055222292 0.0058376 0.010324618

prop_layer.GRU.weight_hh_l0 f4 [30, 10]
00000000: 613a 8d3c f8e4 063e ccee c93c 9e0a f3bc
00000010: a401 173e 80f6 31bd 5492 333d c572 bd3c
00000020: b56e b5bd 5ed3 d13d 2fae 37be c501 203d
00000030: c5b2 e23b 0fcc 9abd f925 083c 0da7 6c3b
00000040: e876 293c d947 6ebd 20e3 74bc e55c 27bd
00000050: 64a4 23bc 7f0d a43d 0e29 e5bd db08 00bc
00000060: 9752 3fbc 5fbd 923c ab88 923d e2bd 933d
00000070: b935 103d d5ab 253e 5f81 afbd a034 923d
00000080: c8e5 cdbd 73eb 903d 3192 4bbe 15cb 9abd
00000090: c13a c7bd b637 923d 8b1d 30be 4237 28be
000000a0: ac4a c23d 1165 3abd 00c3 5abd 767e 673d
000000b0: 3656 363d ea99 993b 5f31 e43c 01ae 923d
000000c0: d57e 93bd 7994 423d d1b5 9abd 3782 b2bd
000000d0: d8dc 19bd 412a b8bd cb32 043e 5e7e d5bd
000000e0: a26f c3bb f4c7 5b3d 9445 0e3d 10d2 b8bc
000000f0: 347c c5bd 4d37 53bd 97b8 13bc e7d1 2abd
00000100: a9c6 fd3d 2941 62bd 80a0 14bc 5e53 6c3c
00000110: e76b 9bbd 943b 953d 813c d13d 5fe7 193c
00000120: 32be f7bd 3ae8 7e3d 2090 87bd d229 82bd
00000130: 06e2 c03c e7c0 c73d 499c 9c3d de95 393d
00000140: 6cc3 65bc 711e c03d 2536 533c 2dd4 d2bc
00000150: 48c4 c7bc 0416 603c 0c51 833c 12a9 f43c
00000160: 74e7 8dbd 6ac7 7abd 1be3 c33d a3d6 aa3b
00000170: 9ea3 b83b ed63 afbd 117f c73c 345e 94bc
00000180: 7563 2a3e f45b a1bd dc01 ad3d 8eda 77bd
00000190: 8aa7 033e 7666 f7bd 3393 723d 93f7 49be
000001a0: 40d2 723e 67af 733d 4955 05be 7382 d53d
000001b0: bde3 42be 8636 80be 47bc ff3d 7e45 60bd
000001c0: 6788 033e 161b d43e 15a6 d03c 3b87 263d
000001d0: 0a45 88be 8eb0 91be 91d0 f13d 0667 803c
000001e0: 6c04 063e a937 3e3d eac9 283e a145 7a3e
000001f0: bdc9 693d 01e3 0d3e ff11 b6bd d612 023e
00000200: 7827 f3bd 4726 ae3d dd28 c63c fb19 5a3d
00000210: 8e04 953e a9c7 2cbc 9cfd 2abe 35f9 7d3e
00000220: ac9d 64bd 53b7 d53b 1a2f 8cbe f7d5 d2bd
00000230: d3f5 97be 24e9 773e 05c2 71be 3a42 c03e
00000240: e746 efbd 99c1 cc3b 2f0f 1fbe bcbf c9bd
00000250: b44f b63d 7e53 4a3e 84a8 59bd 53a2 82bc
00000260: 764b 2cbe d747 31be 26fb 123e e47d 41be
00000270: 9c14 06be 962a 543d a256 29bc 9766 1dbc
00000280: 69b6 c93d 0aec 15bd a075 24be 9f01 203c
00000290: ae6b 8bbd ac63 843c f056 103e 29d6 09bd
000002a0: c815 11bd a671 d8bd 8a49 f7bc 4869 c7bd
000002b0: 8149 e93d 5e4b 80be 9cc9 233e 1fb5 c0be
000002c0: 4677 67bd c737 4bbe 968f a8be f210 04bb
000002d0: 3dec ce3d ef4d ccbd ad65 293c 2251 583d
000002e0: 0074 c33d c229 de3d 1650 043e e74b f43c
000002f0: 334e 813d 34a7 9ebe 1ae1 d4bd 9b25 c83d
00000300: cd7f 1a3e c131 893d 5fb1 3f3e e76c 1d3b
00000310: 5158 25bd 2378 8c3d fa8f 6e3d 0c93 b63e
00000320: a954 c13d 7ce9 aa3e 59eb 1bbe 2c9c 513e
00000330: b83d 7b3e ec80 853d 35e3 473d 6a29 d7bd
00000340: bb4a 63be a078 623e 4e4f aa3d 03ba 743e
00000350: 6124 6f3e cc5e 163e e8df 893e f6e7 b93d
00000360: 7686 a0be 39ac 5b3c b58c c2bb 86b2 7fbd
00000370: 3479 623e 5fa0 4f3d c4de cfbc 28bf a23e
00000380: 6db9 cb3d 9ee2 37be b056 73bd 7728 c33d
00000390: 6278 243e f8a6 0d3d 0891 843c 3e6e d0bd
000003a0: 9cdd 113f e63d b6be 20fb f03d 7f6b 943e
000003b0: 7138 e53e 10ec 2bbf 6018 033f 97e5 f03e
000003c0: a959 f8be 4b6d ba3e 17f1 a93e ed14 2dbd
000003d0: 67c0 623d 8264 9ebe c04d 6abe fb55 10bd
000003e0: 69eb 45be aa75 553e c0e2 d1be 9f07 843e
000003f0: 0991 d03d fde4 04be 9fc1 2e3e 7954 45bd
0.017239751 0.13173282 0.02465 -0.029668149 0.1474672 -0.04344797 0.04384072 0.023126015
-0.08859006 0.10245393 -0.1793754 0.039064188 0.0069182836 -0.07558452 0.008309835 0.0036110312
0.010343291 -0.058173988 -0.014946729 -0.040860076 -0.009987924 0.08010387 -0.11189471 -0.007814611
-0.011677406 0.017912565 0.071549736 0.07213952 0.035207484 0.1617883 -0.085695975 0.07138944
-0.10053593 0.070761584 -0.19879986 -0.07558266 -0.09728003 0.07139532 -0.1719877 -0.16427329
0.09486899 -0.04550654 -0.053408623 0.056517087 0.04451581 0.0046875374 0.027855573 0.07162095
-0.07201926 0.047504876 -0.0755421 -0.08716243 -0.03756413 -0.08992434 0.12910001 -0.10424493
-0.0059642354 0.053657487 0.034734324 -0.022561103 -0.096428305 -0.05156641 -0.009016178 -0.041704085
0.12391407 -0.055237923 -0.009071469 0.014424173 -0.0758894 0.07286754 0.10216618 0.009393542
-0.12096824 0.062233187 -0.066192865 -0.06355633 0.023545276 0.0975359 0.076469965 0.04530894
-0.014023643 0.09380806 0.012891327 -0.025735939 -0.024385586 0.013677124 0.016029857 0.029865775
-0.06928912 -0.061225332 0.09564801 0.005213575 0.005634739 -0.08563981 0.024352582 -0.018111326
0.16639502 -0.07878867 0.0844762 -0.060511164 0.1285688 -0.1208009 0.05922241 -0.19723348
0.23713017 0.05949345 -0.13020815 0.10425272 -0.19032188 -0.25041598 0.12487083 -0.054753773
0.12845002 0.41426915 0.02546982 0.04065631 -0.26615173 -0.28455013 0.11807359 0.015674125
0.13087624 0.0464398 0.16483274 0.24440624 0.05707716 0.13856126 -0.08890151 0.12702498
-0.118727624 0.085033946 0.024189407 0.053247433 0.29105037 -0.01054565 -0.16698307 0.24802096
-0.05581443 0.006522098 -0.27379686 -0.10294717 -0.29679736 0.2421003 -0.23609169 0.37550527
-0.116834454 0.0062486646 -0.15533136 -0.098510236 0.08901921 0.19758412 -0.053139225 -0.015946543
-0.16825661 -0.17312561 0.14353618 -0.1889568 -0.130938 0.051798426 -0.010335596 -0.009606979
0.09849245 -0.036602058 -0.16060495 0.0097660115 -0.06807648 0.016160809 0.14095664 -0.033651505
-0.035421163 -0.10568552 -0.030186433 -0.09736878 0.11390973 -0.250575 0.15994877 -0.37638184
-0.056510232 -0.19845496 -0.32922047 -0.0020151702 0.101036526 -0.09975802 0.010339183 0.05281175
0.095436096 0.108478084 0.12921175 0.02982135 0.063137434 -0.3098694 -0.10394497 0.09772798
0.15087815 0.06698943 0.18720005 0.002402121 -0.04036743 0.06858852 0.058242775 0.35659063
0.09439976 0.3338126 -0.15226497 0.20469731 0.24535263 0.065187305 0.048800666 -0.10505946
-0.22196476 0.22116327 0.083159074 0.23899083 0.23353721 0.146846 0.2692864 0.09077446
-0.31352586 0.01340776 -0.0059371837 -0.062426113 0.22116548 0.05069005 -0.025374778 0.31786466
0.099474765 -0.17957541 -0.059408844 0.095292024 0.16061547 0.034583062 0.016182438 -0.10177277
0.56978774 -0.355941 0.11766648 0.28988263 0.44769624 -0.6715708 0.5120907 0.47050163
-0.48505905 0.3641151 0.3319175 -0.042256285 0.05535927 -0.30936056 -0.22881222 -0.035238247
-0.19328083 0.20845667 -0.4099331 0.25787064 0.10183913 -0.12977977 0.17066048 -0.048176263

prop_layer.GRU.bias_ih_l0 f4 [30]
00000000: 60ac 3dbd 20e5 a9bc 1f6b f0bc 04ee 293e
00000010: 7147 bebc f1da 933c 5782 80bc 607c a73d
00000020: b0cf 193d 4b06 0f3e c631 88bd f077 053d
00000030: 9b5a f33c 24b1 463e 052a babe 92ef 263d
00000040: 8c64 cbbb c0bd 51bc 5827 ea3d 564c 7bbe
00000050: 9bdb 15be 81b1 0f3d 5dab 32bd 301d 6dbe
00000060: f07f ef3d 97c7 c3be 8f7b c53e 5ff5 093e
00000070: 0c00 08bd 9d3d e0bd
-0.046306968 -0.020739138 -0.029347954 0.16594702 -0.023227425 0.018048735 -0.01568715 0.081780195
0.03755158 0.13967244 -0.066501185 0.032585084 0.02970629 0.19403511 -0.36360183 0.040755816
-0.0062070545 -0.012801588 0.114332855 -0.24540839 -0.14634554 0.03508139 -0.043620456 -0.23155665
0.11694324 -0.38238212 0.3857083 0.13472508 -0.03320317 -0.10949252

prop_layer.GRU.bias_hh_l0 f4 [30]
00000000: 60ac 3dbd a9e1 a9bc 1f6c f0bc 7841 253e
00000010: 9664 bebc dd5f 933c 8eb1 80bc 667c a73d
00000020: 84cf 193d 3a09 0f3e 8715 c1bd 0c4e 2e3d
00000030: 1d68 80bd 0a2e 303e 71ad c8be 0da7 023d
00000040: 9179 75bc 32d0 90bd 442b f63d dc1a a9be
00000050: 7480 1fbc 30ed 673d add9 693d 57a0 b93c
00000060: 2d9f bb3d 33bd 74be 8e15 a93c 7f92 05bd
00000070: 39bd 2fbd ef15 c2bd
-0.046306968 -0.020737486 -0.029348431 0.16138256 -0.023241322 0.017990047 -0.015709665 0.08178024
0.037551418 0.13968363 -0.09427934 0.0425549 -0.06269858 0.17205063 -0.39194825 0.031897593
-0.014982597 -0.0707096 0.12019971 -0.33028305 -0.009735215 0.056622684 0.057092357 0.022659464
0.0916122 -0.23900299 0.02064016 -0.032610413 -0.042905066 -0.0947684

aggregator.MLP1.0.weight f4 [20, 10]
00000000: 1142 70be 9115 17be f593 8ebe fa3f 7abd
00000010: 7390 b93e 2c5f e6be 765d 083e bcef 5dbd
00000020: bda1 8a3e efb2 adbd 4540 01bf 5df1 913e
00000030: fe27 77bd 6938 4fbe 5538 833e c6b9 42bd
00000040: 4460 a03e 95d9 6f3d b8a6 b53e 8e3d 133f
00000050: 3cda a83e 592d 9dbe 029a a0be 8969 2dbc
00000060: 1a43 d53d c676 653d 650b df3d b15d 0d3e
00000070: a4a1 613d 90aa 073e 749e 98bd f80e 223e
00000080: 761e 3bbe bb78 9dbd 27ce 693e 0270 16bd
00000090: 5c91 9c3e de9c 9f3e 4b06 743d 7cfc 19bc
000000a0: 3ee7 c4bb b2f7 91bc f78a 14bc ba5e c0bb
000000b0: 3602 553b 9b21 36bb f8d8 dbba 6561 613c
000000c0: 3557 aaba 8c83 d13a 8ce3 7cbc 9fa4 2cbd
000000d0: 2bee abbd edf4 8d3d a748 953c d113 acbd
000000e0: 04ee 92bb 093f ad3c 1b40 103d 7774 9a3d
000000f0: 3937 adbd bbee bcbe 15cd 84bc 1073 f13d
00000100: b025 283e f71f 20be 9b36 d13b 951c 763d
00000110: 1c42 7e3e ee57 7bbb 4f12 2f3e 8ebf 0c3d
00000120: 0595 8e3d bde5 423e c9a2 1fbd aa53 a3bd
00000130: e710 7a3b 7ecd c93d 7d52 acbd 51c2 143e
00000140: 5767 f1be 902e e03c 094f cc3e f7dc f8bd
00000150: 0439 d1be 1ee3 7b3e 6cf5 b2be 66bf 823b
00000160: faf9 c3be 5887 c5be e690 f53c 9685 2d3d
00000170: fb05 b33d 31c4 bc3d a924 4ebd 131f ac3c
00000180: d59e b3bc 82c5 f1bd b044 b8bd c667 12bd
00000190: f1dc 503d d78d bdbe 5f8a 13bf 110e c8be
000001a0: 6efc a1bc 4509 753c b4ba bbbe 0ced 5a3e
000001b0: 09a1 a3bb c639 343c d0e8 be3e 0379 bcbe
000001c0: 230c 49bd 7e99 4d3e b4d4 f03d 5158 97be
000001d0: 8dff d93e bea2 ec3e f6fb 063e 8f02 e23d
000001e0: d302 dd3d 382c 1ebe 2340 cf3d c8af e83d
000001f0: 55cc a8bc fb05 5bbd 3d93 8d3e 8923 2fbd
00000200: 340a 0bbf c5a4 00be bf74 a93d 68ef f3be
00000210: 6240 bd3e 18ec afbd e917 8ebe 7f76 ecbe
00000220: 660f 19be de20 b5be 9f08 d7bd c7d3 4f3e
00000230: 274c 023d 79cd a63d c6fd a8bc 5a4d a53d
00000240: 9b1e 343d b993 51bd 453a 5e3b be52 98bd
00000250: f8a4 373c 899a 0abd 00c2 633c 1ca6 3fbe
00000260: 3e79 debe c692 073e 9f78 483a 6c7c 163e
00000270: fde1 25bd 47d9 74bd ba43 c63c 4663 cfbd
00000280: 70ae 4fbe 29cc a03e b322 50be 76e1 293b
00000290: 1503 99bd 16a6 00bf 726c 5c3d 71c8 bf3d
000002a0: 7f93 c7bd 723f 8fbe 9c5b e6bd 194e 6f3d
000002b0: 72c4 b53e 537e f6be 8e52 b3bd 0602 f8be
000002c0: 308d 533e db07 3ebe b793 023d b2f5 a1bd
000002d0: 40e9 043f 91e2 683d 35eb a7bc ad3e 13be
000002e0: 3ae4 a33c 769d 76bd 5ff2 c43e daf2 05be
000002f0: 6bd3 b3be c6a0 063f 5b63 cebd 6d61 efbd
00000300: b9c6 51bd 2c1d 9ebe a9fa 063e 73cc cebc
00000310: 8060 5a3e 9908 643d 6d42 d13d 00b0 a0bc
-0.23462702 -0.1475432 -0.27847257 -0.06109617 0.36243019 -0.44994485 0.13316903 -0.054183707
0.27076522 -0.084813945 -0.5048869 0.28504458 -0.060340874 -0.20236363 0.25628915 -0.04754045
0.31323445 0.05855711 0.3547876 0.575158 0.32979 -0.3069866 -0.313675 -0.010584244
0.10413189 0.056021474 0.10890845 0.13805272 0.055085793 0.13248658 -0.074520975 0.15826023
-0.18273339 -0.07689043 0.22832547 -0.036727913 0.3057965 0.31174368 0.059576314 -0.009398576
-0.0060090115 -0.017818306 -0.009066335 -0.0058706673 0.0032502539 -0.0027791027 -0.0016773036 0.013756131
-0.001299596 0.0015984639 -0.015435111 -0.042149182 -0.08395036 0.069314815 0.01822312 -0.08402217
-0.00448394 0.021148222 0.035217386 0.07541745 -0.084577985 -0.36900887 -0.016211072 0.117895246
0.16420627 -0.15637194 0.0063846833 0.06008585 0.24829906 -0.003835197 0.17096828 0.03436237
0.06962017 0.1903295 -0.038973603 -0.07974942 0.0038157047 0.09853648 -0.08414171 0.14527251
-0.47149155 0.027365953 0.3990405 -0.12151521 -0.40863812 0.24598357 -0.34952867 0.0039901016
-0.38276654 -0.38579822 0.02997632 0.042363726 0.08741375 0.09217108 -0.05032793 0.021010911
-0.021926323 -0.1180525 -0.08997476 -0.035743497 0.050991956 -0.37022278 -0.5763301 -0.39073232
-0.019773688 0.014955823 -0.3666588 0.21379489 -0.004993562 0.011000102 0.37286997 -0.36811075
-0.04908384 0.20078084 0.1175932 -0.29559568 0.42577782 0.46217912 0.13182053 0.11035644
0.10791554 -0.15446556 0.10119655 0.113616526 -0.020605246 -0.0534725 0.27651396 -0.0427585
-0.54312444 -0.12562855 0.08274221 -0.4764359 0.36963183 -0.08589953 -0.27752617 -0.46184155
-0.1494728 -0.35376638 -0.10499691 0.2029563 0.031810906 0.081446595 -0.020628821 0.08071394
0.0439745 -0.05116627 0.0033909243 -0.07437657 0.011208765 -0.033838782 0.013901234 -0.1871571
-0.43451875 0.13239583 0.00076473685 0.146959 -0.040498722 -0.059777524 0.024202216 -0.10126357
-0.20281386 0.31405762 -0.20325737 0.0025921739 -0.07471291 -0.5025343 0.05381436 0.09364403
-0.097449295 -0.27978092 -0.11247942 0.05842409 0.35501438 -0.48143253 -0.087559804 -0.48439044
0.20659328 -0.18557684 0.031879153 -0.07908191 0.5191841 0.056856696 -0.020497898 -0.14379378
0.020006288 -0.06020876 0.38466164 -0.13080922 -0.35122237 0.5258907 -0.10077544 -0.11688504
-0.051214907 -0.3088163 0.13181557 -0.025243973 0.21325874 0.055672262 0.10217748 -0.019615173

aggregator.MLP1.0.bias f4 [20]
00000000: eef4 aa3c 4f75 9fbd 6aa4 28bd ea3e 443e
00000010: 671c b2bc 4b2a a13d 793f 023d 6d20 df3d
00000020: 15b1 d0bd 00f7 9d3c 89cc 5cbd f71f 62be
00000030: 6fdd cc3c a000 943e 6568 b0bd b7e4 b63e
00000040: 7e05 c13d 2a8c 83bd 80b0 4fbd 3d8a 5b3d
0.020868745 -0.07786047 -0.041172422 0.19164625 -0.021742059 0.07869395 0.031798813 0.108948566
-0.10190026 0.019282818 -0.053905997 -0.22082506 0.025007932 0.28906727 -0.08613662 0.3572137
0.09424876 -0.064232185 -0.050705433 0.05359863

aggregator.MLP2.0.weight f4 [10, 10]
00000000: 22c1 09bf 70ce f03c a700 95bd 6f42 073c
00000010: 9af3 ce3c bf24 21be 157f d6be 7f60 97bc
00000020: dfea 04bc 0e3c 36bd 628f bcbe 1d76 003e
00000030: 7e18 483d b336 fe3c 455e 8f3c 3b64 6c3e
00000040: 61c3 5c3e 8068 11be 3adf c9bd f811 e3bd
00000050: 8819 24be 9d70 5ebe aadc be3e f337 433e
00000060: 454f 92bd e6b6 c83d 2734 17be 5567 3ebc
00000070: 809d 383d ce8e 2c3e 6334 3e3d d7a8 b2be
00000080: aa8c c23e 43fd e13d 9ea6 393d 1cc3 acbd
00000090: 010e 2a3e d5c5 5abe fe0f febd bdf2 07bd
000000a0: dac8 ac3c 97a0 dcbe 92a5 18be 1a8d 083c
000000b0: e3e6 bfbc 9070 9abc 5828 22be b58b a6be
000000c0: 1c50 f23d 6cfe d9be daa4 1f3d 3285 78be
000000d0: a8f2 97be 7d63 5d3f d46b e4bc 0ad0 883e
000000e0: 418c 0c3d ad31 903e 373c 933d 139c 763c
000000f0: ac2a c8be 46bb 2dbe 0e32 49bd f953 00bc
00000100: a970 953b 1183 8bbe f5fd 0a3e 2198 a43e
00000110: 16ba 20be 6e2c a83d 0b04 c43d 0b22 14bf
00000120: 1556 05be fee3 9abe 76cb b8bc b881 163e
00000130: 8250 4c3e 40a5 a7bd 2b50 d53e c99d 6e3d
00000140: 0d21 0c3d 51b2 19be f3e4 1dbe 5258 90be
00000150: 9cd8 033c aa1b a33e a25e a2be 2f83 c6be
00000160: fc10 0fbf 5c95 dd3b 0f56 a1bd ddf5 9a3c
00000170: 7542 a9bd 563c d83d 7979 84bd ba76 d9bc
00000180: bf13 3cbe c01a 0cbe 883c f0be dbc5 6f3d
-0.5381032 0.029395312 -0.07275515 0.008255585 0.025262643 -0.15736674 -0.4189383 -0.01847863
-0.008112638 -0.044490866 -0.36828142 0.12545057 0.048851483 0.031031942 0.017501006 0.2308511
0.21558906 -0.1420002 -0.0985703 -0.11087412 -0.16025364 -0.21722646 0.37277728 0.19064312
-0.07144026 0.0980051 -0.14765988 -0.011621316 0.04507208 0.1685135 0.04643668 -0.3489444
0.37997943 0.11034634 0.045324914 -0.08435652 0.16606905 -0.2136453 -0.12405394 -0.033190478
0.021091867 -0.4309127 -0.1490691 0.0083344225 -0.023425525 -0.018852502 -0.15835702 -0.32528463
0.11831686 -0.4257692 0.038975574 -0.2426956 -0.2967732 0.8647993 -0.027883448 0.2672122
0.034313444 0.281629 0.071892194 0.015051859 -0.39095056 -0.1696597 -0.04912 -0.007832521
0.0045605493 -0.27248433 0.1357344 0.32147315 -0.15695986 0.08211599 0.09571084 -0.57864445
-0.13021119 -0.3025207 -0.022557955 0.14697921 0.19952586 -0.08185816 0.41662726 0.058255944
0.034211207 -0.15009429 -0.15419368 -0.28192383 0.008047249 0.31857044 -0.31712824 -0.3877196
-0.5588529 0.00676219 -0.078777425 0.018916065 -0.08264629 0.10558383 -0.064684816 -0.026545871
-0.18366908 -0.1368208 -0.46921182 0.0585383

aggregator.MLP2.0.bias f4 [10]
00000000: 8c1b 0000 b81e 0000 a01b 0080 951b 0000
00000010: 8c1b 0080 621b 0000 c21b 0080 841b 0000
00000020: a11b 0000 851b 0000
9.882e-42 1.102e-41 -9.91e-42 9.895e-42 -9.882e-42 9.823e-42 -9.958e-42 9.871e-42
9.911e-42 9.872e-42
