paper_artifacts/collection/gmn_baseline_scoring=agg___tp=attention_pp=identity_when=post_K=8/trained_models/gmn_baseline_scoring=agg___tp=attention_pp=identity_when=post_K=8_ptc_fm_large_dataset_seed_7366_2024-05-01_18:11:52.pth (torch, 12412 bytes, 14 tensors)

encoder.MLP1.0.weight f4 [10, 1]
0	0x3e80a171	0.2512317
1	0xbe484b36	-0.1955994
2	0xbea003fd	-0.31253043
3	0x3f11828b	0.5683982
4	0xbeea9168	-0.4581406
5	0xbddd740d	-0.108131506
6	0x3d6c8882	0.05774737
7	0xbd3d1016	-0.04615792
8	0xbe6be34b	-0.23035924
9	0xbed6b89f	-0.4193773

encoder.MLP1.0.bias f4 [10]
0	0xbee46b32	-0.44613034
1	0xbe01eb69	-0.12687458
2	0xbe98b50d	-0.2982563
3	0x3f09ba56	0.5379995
4	0xbef138a2	-0.4711352
5	0xbdd0bac2	-0.10191871
6	0xbd47b546	-0.04875686
7	0xbdf10c9a	-0.11769982
8	0xbdb17bea	-0.08666213
9	0xbed5620b	-0.41676363

prop_layer._message_net.0.weight f4 [20, 21]
0	0x3d81e2bc	0.06342074
1	0x3dca6da0	0.098841906
2	0x3d9f44a6	0.077767655
3	0x3e99564a	0.29948646
4	0x3e25db14	0.16196853
5	0x3e4b1791	0.19833209
6	0x3e1bf385	0.15229614
7	0xbe36f51d	-0.17866941
8	0x3e1209d7	0.14261566
9	0xbe49b921	-0.19699527
10	0x3d54bd4d	0.051938344
11	0xbe4b5199	-0.19855346
12	0x3c560672	0.01306306
13	0xbe43575c	-0.19076294
14	0x3ddad548	0.106852114
15	0x3d9a0cfa	0.07522006
16	0xbe0dd97b	-0.13852493
17	0x3e8f0481	0.27933124
18	0xbe856cfa	-0.26059705
19	0x3c00fa13	0.007872122
20	0x3c94ce87	0.018164886
21	0xbdc9f57a	-0.09861274
22	0xbecb6666	-0.3972656
23	0x3eb39136	0.35071725
24	0xbe21815d	-0.15772004
25	0xbeae971f	-0.3409967
26	0x3e4019ff	0.18759917
27	0xbe2ec08b	-0.17065637
28	0xbeda3467	-0.42618105
29	0xbacb503f	-0.0015511586
30	0xbda71eb4	-0.08160153
31	0x3eec43b3	0.461454
32	0x3e114dbf	0.14189814
33	0xbdc30416	-0.09522264
34	0x3dcdcf76	0.10049336
35	0x3e0d9a51	0.13828398
36	0x3e9ea23d	0.30983153
37	0xbe3c2ef7	-0.1837729
38	0x3b727897	0.0036998147
39	0xbe0eace6	-0.13933143
40	0x3e4ba762	0.1988807
41	0x3c721453	0.0147753535
42	0x3e7dbeb5	0.2477978
43	0x3eb4b001	0.3529053
44	0xbd3e2234	-0.046419337
45	0x3ed253aa	0.41079456
46	0x3c0d29d5	0.008615931
47	0x3c32462a	0.010880986
48	0xbf25a3f9	-0.6470333
49	0x3ede30c8	0.43396592
50	0x3c38e7a6	0.011285698
51	0x3e8efd45	0.27927604
52	0x3efbf51b	0.49210438
53	0xbe8d0b06	-0.27547473
54	0xbdd429be	-0.10359524
55	0xbd5a0ad1	-0.05323297
56	0x3ce92901	0.028461935
57	0x3e7606a5	0.24025972
58	0x3ccbe90c	0.024891399
59	0x3e397985	0.18112762
60	0xbe3aa752	-0.1822789
61	0xbe0eb1b3	-0.13934974
62	0xbcd8ac17	-0.026449246
63	0xbe194c1e	-0.14970443
64	0xbf20c6fd	-0.6280363
65	0xbe0e704c	-0.13910025
66	0x3c79386d	0.015211207
67	0xbe8cc12f	-0.27491137
68	0xbd86111f	-0.06546234
69	0xbe492a5b	-0.19645064
70	0x3e3cd6fe	0.18441388
71	0x3d225e92	0.03964097
72	0x3e9c0c73	0.30478248
73	0x3dcc1e98	0.09966773
74	0x3e2e5fb6	0.17028698
75	0x3e5324e6	0.20619544
76	0xbda9be0f	-0.08288204
77	0x3de26ecf	0.11056291
78	0xbe02581c	-0.12728924
79	0x3d99a48a	0.075020865
80	0x3d252a7a	0.040323712
81	0xbe4dcc6b	-0.2009751
82	0xbe330f69	-0.17486347
83	0xbd46b7a7	-0.04851499
84	0xbe1a9583	-0.15096097
85	0x3d33a952	0.04386265
86	0x3e44c74f	0.19216655
87	0x3e80347d	0.25040045
88	0x3e986df9	0.29771402
89	0x3de0377c	0.10948083
90	0xbe90e579	-0.28300074
91	0x3d4e00d8	0.050293773
92	0x3dbfd783	0.093672775
93	0xbda5d1b8	-0.08096641
94	0x3e8402c8	0.25783372
95	0xbeed5762	-0.4635573
96	0x3cd391db	0.025826385
97	0xbdc12300	-0.09430504
98	0xbd8c7170	-0.06857574
99	0xbd6f2d35	-0.058392722
100	0xbd23e129	-0.04000965
101	0x3c888439	0.016664611
102	0xbda9fee3	-0.08300569
103	0xbe1083dd	-0.14112802
104	0xbd10b4aa	-0.035328545
105	0xbbb5ae7a	-0.005544481
106	0xbc521ccd	-0.012824249
107	0xbc34bc04	-0.011031155
108	0xbcca6151	-0.024704607
109	0x3c531382	0.012883069
110	0xbc9214b0	-0.01783213
111	0xb9a9e023	-0.00032401187
112	0xbc8a4137	-0.0168768
113	0xbc26e1d9	-0.010185682
114	0x3bbf3337	0.0058349627
115	0xbbf24acb	-0.00739417
116	0xbcc472a7	-0.023980452
117	0x3c56c1fe	0.013107775
118	0xbc835ce9	-0.016035514
119	0x3bda713b	0.00666633
120	0xbc76f2fd	-0.015072581
121	0x3c254044	0.010086123
122	0xba7d99af	-0.0009674085
123	0x3ad75911	0.0016429742
124	0xb9d156e1	-0.00039928316
125	0x3bbe37a7	0.005804974
126	0x3ddb6db6	0.10714285
127	0xbd8730d4	-0.0660111
128	0x3e27d26a	0.1638886
129	0xbdc3b1d5	-0.09555403
130	0x3ddd04de	0.10791944
131	0x3dccecbc	0.10006091
132	0x3e982206	0.29713458
133	0x3cdc22ff	0.026872156
134	0x3eee8d09	0.46591976
135	0xbdbb473b	-0.091444455
136	0x3d15e61f	0.036596414
137	0x3e9c54cd	0.30533448
138	0x3e191270	0.1494844
139	0x3ee4f479	0.44717768
140	0xbc5bc933	-0.013414669
141	0x3d7fe9f8	0.06247899
142	0xbda00b43	-0.07814648
143	0x3d8e56e5	0.069501676
144	0xbec90c10	-0.39267015
145	0xbd6dc34f	-0.05804759
146	0xbc4d0ac4	-0.012514774
147	0xbe5ab715	-0.21358903
148	0xbdb3e569	-0.08783991
149	0x3e657f19	0.22411765
150	0xbe4af63f	-0.19820498
151	0x3ec8d754	0.39226782
152	0x3e247e82	0.16063884
153	0xbec7aaa2	-0.3899737
154	0xbd31510a	-0.043290175
155	0xbda14ddf	-0.07876181
156	0x3ddd2436	0.10797922
157	0x3ee5cc78	0.4488256
158	0x3bd76dd3	0.0065743714
159	0xbd101614	-0.035177305
160	0x3e959b77	0.29220173
161	0x3e0725e1	0.13198043
162	0x3aeb4dfd	0.001795232
163	0xbdfa1389	-0.12210757
164	0xbdcfef9f	-0.10153126
165	0x3f05207c	0.5200269
166	0xbd831c80	-0.0640192
167	0xbe33e1b0	-0.17566562
168	0x3c22d9d8	0.009939633
169	0x3e666537	0.22499548
170	0xbd828f23	-0.063749574
171	0x3ee7d98b	0.4528316
172	0x3dbf61d9	0.09344835
173	0xbe0c4707	-0.1369897
174	0xbe3ccc80	-0.18437386
175	0xbebc1a86	-0.36738986
176	0x3d71adbf	0.059003588
177	0x3d956f94	0.072966725
178	0x3d7db2ae	0.06193798
179	0x3d14694d	0.036233235
180	0x3e2da4bc	0.16957372
181	0x3e45eca5	0.19328554
182	0x3e7e0123	0.24805121
183	0xbd8d4a3a	-0.06898923
184	0xbce67f8e	-0.028136995
185	0x3daaab1d	0.083334185
186	0xbd0c175b	-0.03420196
187	0x3e94ed02	0.29087073
188	0xbce56c90	-0.028005868
189	0x3e555602	0.2083359
190	0x3dd7f9d2	0.10545696
191	0xbe0c0258	-0.13672769
192	0xbd065b7f	-0.0328021
193	0xbdb3a3cb	-0.087714754
194	0x3e4a0888	0.19729817
195	0x3e98a2be	0.29811662
196	0x3d4c7ff7	0.049926724
197	0x3dd69b9a	0.104788974
198	0x3b3bec96	0.0028674952
199	0x3c72fabf	0.01483029
200	0xbd9e1ffd	-0.07720945
201	0x3e062e0b	0.13103501
202	0x3d6dd192	0.05806119
203	0xbdae9d26	-0.085260674
204	0xbea1da01	-0.31611636
205	0xbcf0c2fb	-0.029389849
206	0x3d703e53	0.058653187
207	0x3caa4a7b	0.020787468
208	0x3e57a29d	0.21058126
209	0x3bef9cee	0.0073124086
210	0xbe97ad53	-0.29624423
211	0xbdee7256	-0.116429016
212	0xbea2fe52	-0.31834656
213	0x3f008b08	0.50212145
214	0xbdda6ec8	-0.10665661
215	0xbafa09b9	-0.0019076384
216	0xbef31b3c	-0.47481716
217	0xbd3b8760	-0.0457834
218	0x3edda7b9	0.43292025
219	0xbdb5ea28	-0.088825524
220	0xbdf4332f	-0.11923825
221	0xbe00c44a	-0.12574878
222	0x3e2a47d0	0.16628957
223	0xbe29d687	-0.16585742
224	0x3eb18034	0.34668124
225	0x3e214610	0.15749383
226	0x3d94f455	0.07273165
227	0xbf057357	-0.5212912
228	0x3e3cd5ce	0.18440935
229	0xbd293284	-0.04130794
230	0x3d2c6135	0.04208489
231	0xbcf38455	-0.029726187
232	0x3dbccaca	0.092183664
233	0xbd8b55fb	-0.06803509
234	0x3e0ff5ae	0.14058563
235	0xbc6a3e34	-0.014297057
236	0xbd9d1ccd	-0.07671509
237	0x3ece22b6	0.40260857
238	0xbd999ba7	-0.075003915
239	0x3c01c8f9	0.007921451
240	0xbcf8db7c	-0.030378096
241	0x3c9cd70c	0.019145511
242	0x3e474ebe	0.19463632
243	0x3e87205b	0.26391873
244	0x3e610f2e	0.21978447
245	0xbd874b78	-0.066061914
246	0x3d89cbe1	0.0672834
247	0x3d207425	0.039173264
248	0x3e734613	0.237572
249	0x3e551e34	0.20812303
250	0x3e885ab5	0.26631704
251	0x3c94ebb5	0.0181788
252	0xbeda8e59	-0.42686728
253	0xbe701f78	-0.23449504
254	0xbdea1648	-0.11430031
255	0x3e70f7a0	0.23531961

prop_layer._message_net.0.bias f4 [20]
0	0xbc0d53a8	-0.008625902
1	0xbd9e021d	-0.07715247
2	0xbe13cf76	-0.14434609
3	0xbdae5cd2	-0.08513798
4	0xbd870dde	-0.06594442
5	0x3bbe36e0	0.0058048815
6	0xbcbeda5c	-0.023297481
7	0xbe36a747	-0.17837249
8	0xbcf588ed	-0.029972518
9	0x3d19878c	0.037482783
10	0xbda6d05d	-0.08145211
11	0x3cdab737	0.026698692
12	0xbe2fc2dc	-0.17164177
13	0x3cfb5e15	0.03068451
14	0xbc7cf8af	-0.01544015
15	0x3e0bdc53	0.13658266
16	0x3a18bc5d	0.0005826408
17	0x3b9b59f1	0.0047409465
18	0xbd690ccf	-0.05689698
19	0xbb94bc2c	-0.0045390334

prop_layer._reverse_message_net.0.weight f4 [20, 21]
0	0x3d81e2bc	0.06342074
1	0x3dca6da0	0.098841906
2	0x3d9f44a6	0.077767655
3	0x3e99564a	0.29948646
4	0x3e25db14	0.16196853
5	0x3e4b1791	0.19833209
6	0x3e1bf385	0.15229614
7	0xbe36f51d	-0.17866941
8	0x3e1209d7	0.14261566
9	0xbe49b921	-0.19699527
10	0x3d54bd4d	0.051938344
11	0xbe4b5199	-0.19855346
12	0x3c560672	0.01306306
13	0xbe43575c	-0.19076294
14	0x3ddad548	0.106852114
15	0x3d9a0cfa	0.07522006
16	0xbe0dd97b	-0.13852493
17	0x3e8f0481	0.27933124
18	0xbe856cfa	-0.26059705
19	0x3c00fa13	0.007872122
20	0x3c94ce87	0.018164886
21	0xbdc9f57a	-0.09861274
22	0xbecb6666	-0.3972656
23	0x3eb39136	0.35071725
24	0xbe21815d	-0.15772004
25	0xbeae971f	-0.3409967
26	0x3e4019ff	0.18759917
27	0xbe2ec08b	-0.17065637
28	0xbeda3467	-0.42618105
29	0xbacb503f	-0.0015511586
30	0xbda71eb4	-0.08160153
31	0x3eec43b3	0.461454
32	0x3e114dbf	0.14189814
33	0xbdc30416	-0.09522264
34	0x3dcdcf76	0.10049336
35	0x3e0d9a51	0.13828398
36	0x3e9ea23d	0.30983153
37	0xbe3c2ef7	-0.1837729
38	0x3b727897	0.0036998147
39	0xbe0eace6	-0.13933143
40	0x3e4ba762	0.1988807
41	0x3c721453	0.0147753535
42	0x3e7dbeb5	0.2477978
43	0x3eb4b001	0.3529053
44	0xbd3e2234	-0.046419337
45	0x3ed253aa	0.41079456
46	0x3c0d29d5	0.008615931
47	0x3c32462a	0.010880986
48	0xbf25a3f9	-0.6470333
49	0x3ede30c8	0.43396592
50	0x3c38e7a6	0.011285698
51	0x3e8efd45	0.27927604
52	0x3efbf51b	0.49210438
53	0xbe8d0b06	-0.27547473
54	0xbdd429be	-0.10359524
55	0xbd5a0ad1	-0.05323297
56	0x3ce92901	0.028461935
57	0x3e7606a5	0.24025972
58	0x3ccbe90c	0.024891399
59	0x3e397985	0.18112762
60	0xbe3aa752	-0.1822789
61	0xbe0eb1b3	-0.13934974
62	0xbcd8ac17	-0.026449246
63	0xbe194c1e	-0.14970443
64	0xbf20c6fd	-0.6280363
65	0xbe0e704c	-0.13910025
66	0x3c79386d	0.015211207
67	0xbe8cc12f	-0.27491137
68	0xbd86111f	-0.06546234
69	0xbe492a5b	-0.19645064
70	0x3e3cd6fe	0.18441388
71	0x3d225e92	0.03964097
72	0x3e9c0c73	0.30478248
73	0x3dcc1e98	0.09966773
74	0x3e2e5fb6	0.17028698
75	0x3e5324e6	0.20619544
76	0xbda9be0f	-0.08288204
77	0x3de26ecf	0.11056291
78	0xbe02581c	-0.12728924
79	0x3d99a48a	0.075020865
80	0x3d252a7a	0.040323712
81	0xbe4dcc6b	-0.2009751
82	0xbe330f69	-0.17486347
83	0xbd46b7a7	-0.04851499
84	0xbe1a9583	-0.15096097
85	0x3d33a952	0.04386265
86	0x3e44c74f	0.19216655
87	0x3e80347d	0.25040045
88	0x3e986df9	0.29771402
89	0x3de0377c	0.10948083
90	0xbe90e579	-0.28300074
91	0x3d4e00d8	0.050293773
92	0x3dbfd783	0.093672775
93	0xbda5d1b8	-0.08096641
94	0x3e8402c8	0.25783372
95	0xbeed5762	-0.4635573
96	0x3cd391db	0.025826385
97	0xbdc12300	-0.09430504
98	0xbd8c7170	-0.06857574
99	0xbd6f2d35	-0.058392722
100	0xbd23e129	-0.04000965
101	0x3c888439	0.016664611
102	0xbda9fee3	-0.08300569
103	0xbe1083dd	-0.14112802
104	0xbd10b4aa	-0.035328545
105	0xbbb5ae7a	-0.005544481
106	0xbc521ccd	-0.012824249
107	0xbc34bc04	-0.011031155
108	0xbcca6151	-0.024704607
109	0x3c531382	0.012883069
110	0xbc9214b0	-0.01783213
111	0xb9a9e023	-0.00032401187
112	0xbc8a4137	-0.0168768
113	0xbc26e1d9	-0.010185682
114	0x3bbf3337	0.0058349627
115	0xbbf24acb	-0.00739417
116	0xbcc472a7	-0.023980452
117	0x3c56c1fe	0.013107775
118	0xbc835ce9	-0.016035514
119	0x3bda713b	0.00666633
120	0xbc76f2fd	-0.015072581
121	0x3c254044	0.010086123
122	0xba7d99af	-0.0009674085
123	0x3ad75911	0.0016429742
124	0xb9d156e1	-0.00039928316
125	0x3bbe37a7	0.005804974
126	0x3ddb6db6	0.10714285
127	0xbd8730d4	-0.0660111
128	0x3e27d26a	0.1638886
129	0xbdc3b1d5	-0.09555403
130	0x3ddd04de	0.10791944
131	0x3dccecbc	0.10006091
132	0x3e982206	0.29713458
133	0x3cdc22ff	0.026872156
134	0x3eee8d09	0.46591976
135	0xbdbb473b	-0.091444455
136	0x3d15e61f	0.036596414
137	0x3e9c54cd	0.30533448
138	0x3e191270	0.1494844
139	0x3ee4f479	0.44717768
140	0xbc5bc933	-0.013414669
141	0x3d7fe9f8	0.06247899
142	0xbda00b43	-0.07814648
143	0x3d8e56e5	0.069501676
144	0xbec90c10	-0.39267015
145	0xbd6dc34f	-0.05804759
146	0xbc4d0ac4	-0.012514774
147	0xbe5ab715	-0.21358903
148	0xbdb3e569	-0.08783991
149	0x3e657f19	0.22411765
150	0xbe4af63f	-0.19820498
151	0x3ec8d754	0.39226782
152	0x3e247e82	0.16063884
153	0xbec7aaa2	-0.3899737
154	0xbd31510a	-0.043290175
155	0xbda14ddf	-0.07876181
156	0x3ddd2436	0.10797922
157	0x3ee5cc78	0.4488256
158	0x3bd76dd3	0.0065743714
159	0xbd101614	-0.035177305
160	0x3e959b77	0.29220173
161	0x3e0725e1	0.13198043
162	0x3aeb4dfd	0.001795232
163	0xbdfa1389	-0.12210757
164	0xbdcfef9f	-0.10153126
165	0x3f05207c	0.5200269
166	0xbd831c80	-0.0640192
167	0xbe33e1b0	-0.17566562
168	0x3c22d9d8	0.009939633
169	0x3e666537	0.22499548
170	0xbd828f23	-0.063749574
171	0x3ee7d98b	0.4528316
172	0x3dbf61d9	0.09344835
173	0xbe0c4707	-0.1369897
174	0xbe3ccc80	-0.18437386
175	0xbebc1a86	-0.36738986
176	0x3d71adbf	0.059003588
177	0x3d956f94	0.072966725
178	0x3d7db2ae	0.06193798
179	0x3d14694d	0.036233235
180	0x3e2da4bc	0.16957372
181	0x3e45eca5	0.19328554
182	0x3e7e0123	0.24805121
183	0xbd8d4a3a	-0.06898923
184	0xbce67f8e	-0.028136995
185	0x3daaab1d	0.083334185
186	0xbd0c175b	-0.03420196
187	0x3e94ed02	0.29087073
188	0xbce56c90	-0.028005868
189	0x3e555602	0.2083359
190	0x3dd7f9d2	0.10545696
191	0xbe0c0258	-0.13672769
192	0xbd065b7f	-0.0328021
193	0xbdb3a3cb	-0.087714754
194	0x3e4a0888	0.19729817
195	0x3e98a2be	0.29811662
196	0x3d4c7ff7	0.049926724
197	0x3dd69b9a	0.104788974
198	0x3b3bec96	0.0028674952
199	0x3c72fabf	0.01483029
200	0xbd9e1ffd	-0.07720945
201	0x3e062e0b	0.13103501
202	0x3d6dd192	0.05806119
203	0xbdae9d26	-0.085260674
204	0xbea1da01	-0.31611636
205	0xbcf0c2fb	-0.029389849
206	0x3d703e53	0.058653187
207	0x3caa4a7b	0.020787468
208	0x3e57a29d	0.21058126
209	0x3bef9cee	0.0073124086
210	0xbe97ad53	-0.29624423
211	0xbdee7256	-0.116429016
212	0xbea2fe52	-0.31834656
213	0x3f008b08	0.50212145
214	0xbdda6ec8	-0.10665661
215	0xbafa09b9	-0.0019076384
216	0xbef31b3c	-0.47481716
217	0xbd3b8760	-0.0457834
218	0x3edda7b9	0.43292025
219	0xbdb5ea28	-0.088825524
220	0xbdf4332f	-0.11923825
221	0xbe00c44a	-0.12574878
222	0x3e2a47d0	0.16628957
223	0xbe29d687	-0.16585742
224	0x3eb18034	0.34668124
225	0x3e214610	0.15749383
226	0x3d94f455	0.07273165
227	0xbf057357	-0.5212912
228	0x3e3cd5ce	0.18440935
229	0xbd293284	-0.04130794
230	0x3d2c6135	0.04208489
231	0xbcf38455	-0.029726187
232	0x3dbccaca	0.092183664
233	0xbd8b55fb	-0.06803509
234	0x3e0ff5ae	0.14058563
235	0xbc6a3e34	-0.014297057
236	0xbd9d1ccd	-0.07671509
237	0x3ece22b6	0.40260857
238	0xbd999ba7	-0.075003915
239	0x3c01c8f9	0.007921451
240	0xbcf8db7c	-0.030378096
241	0x3c9cd70c	0.019145511
242	0x3e474ebe	0.19463632
243	0x3e87205b	0.26391873
244	0x3e610f2e	0.21978447
245	0xbd874b78	-0.066061914
246	0x3d89cbe1	0.0672834
247	0x3d207425	0.039173264
248	0x3e734613	0.237572
249	0x3e551e34	0.20812303
250	0x3e885ab5	0.26631704
251	0x3c94ebb5	0.0181788
252	0xbeda8e59	-0.42686728
253	0xbe701f78	-0.23449504
254	0xbdea1648	-0.11430031
255	0x3e70f7a0	0.23531961

prop_layer._reverse_message_net.0.bias f4 [20]
0	0xbc0d53a8	-0.008625902
1	0xbd9e021d	-0.07715247
2	0xbe13cf76	-0.14434609
3	0xbdae5cd2	-0.08513798
4	0xbd870dde	-0.06594442
5	0x3bbe36e0	0.0058048815
6	0xbcbeda5c	-0.023297481
7	0xbe36a747	-0.17837249
8	0xbcf588ed	-0.029972518
9	0x3d19878c	0.037482783
10	0xbda6d05d	-0.08145211
11	0x3cdab737	0.026698692
12	0xbe2fc2dc	-0.17164177
13	0x3cfb5e15	0.03068451
14	0xbc7cf8af	-0.01544015
15	0x3e0bdc53	0.13658266
16	0x3a18bc5d	0.0005826408
17	0x3b9b59f1	0.0047409465
18	0xbd690ccf	-0.05689698
19	0xbb94bc2c	-0.0045390334

prop_layer.GRU.weight_ih_l0 f4 [30, 30]
0	0x3d376390	0.044772685
1	0x3e431e04	0.19054419
2	0xbe5c33ff	-0.2150421
3	0xbe3a68af	-0.18203996
4	0xbda24f42	-0.079252735
5	0xbc439da6	-0.011939442
6	0xbe053d15	-0.13011582
7	0xbe37eabd	-0.1796064
8	0x3c86f756	0.01647536
9	0x3e28499b	0.16434328
10	0xbdd55898	-0.104172885
11	0x3e635801	0.2220154
12	0xbe270e36	-0.16314015
13	0x3d82827c	0.06372544
14	0xbdc06149	-0.09393556
15	0xbe9c6aea	-0.3055032
16	0x3bf18c88	0.007371489
17	0x3ba222aa	0.00494798
18	0x3e6e3041	0.23260595
19	0x3c71a31f	0.014748364
20	0x3d717525	0.05894961
21	0xbe70eb82	-0.23527339
22	0xbecf4f76	-0.4049031
23	0xbe151bc5	-0.14561374
24	0x3cd45907	0.025921358
25	0xbdf27b3a	-0.1183991
26	0xbd967317	-0.073461704
27	0xbde48822	-0.11158778
28	0x3e23fc87	0.160143
29	0x3e817138	0.25281692
30	0x3b0ea96c	0.0021768464
31	0xbbd710e5	-0.0065632933
32	0xbec55b33	-0.38546142
33	0xbbc6a379	-0.006061968
34	0xbe0c99cd	-0.13730545
35	0xbb5895c8	-0.003304826
36	0x3e6c161b	0.23055308
37	0xbe3c4c14	-0.18388397
38	0xbde4a2ae	-0.11163841
39	0xbe05b356	-0.13056692
40	0xbd89ca03	-0.06727984
41	0x3d503523	0.050831925
42	0xbdc98d8f	-0.09841453
43	0xbd557737	-0.052115645
44	0x3df5f038	0.12008709
45	0xbd413438	-0.04716894
46	0xbcb52a3d	-0.022114867
47	0xbbfa7663	-0.0076435073
48	0x3e212129	0.15735306
49	0x3aa976c3	0.001292907
50	0xbdf319da	-0.11870165
51	0x3e11095b	0.14163725
52	0x3e197cbd	0.1498899
53	0xbd8f9501	-0.07010842
54	0x3c8f9480	0.017526865
55	0x3ddc4de8	0.10757047
56	0x3d4dabac	0.050212547
57	0xbda916cf	-0.082563035
58	0xbe4fabdb	-0.20280401
59	0x3e0a6e75	0.13518699
60	0x3e2e582f	0.17025827
61	0xbd34f9a5	-0.044183392
62	0xbe18a152	-0.14905289
63	0xbc5aa119	-0.013344073
64	0x3d9b46b6	0.075818464
65	0x3b3144df	0.0027049107
66	0xbd187737	-0.037223067
67	0xbeb2e647	-0.34941313
68	0x3de05ec3	0.10955574
69	0x3d006b4b	0.031352323
70	0x3c8922bb	0.016740194
71	0xbd96faf6	-0.07372086
72	0x3e0fe6b1	0.14052846
73	0x3dd0445d	0.10169289
74	0xbd510c6c	-0.051037237
75	0xbd44e803	-0.048072826
76	0xbbfd693f	-0.0077334936
77	0x3b93909c	0.0045033228
78	0xbdecb6e2	-0.1155832
79	0xbab7dd67	-0.0014027775
80	0xbd1a7892	-0.03771264
81	0xbd99865a	-0.07496329
82	0xbce70b31	-0.028203579
83	0xbd2a9fea	-0.041656412
84	0x3d65851f	0.056035157
85	0x3ce183cb	0.027528664
86	0x3c0184bc	0.0079051815
87	0x3deaff5f	0.114744894
88	0xbdb201c4	-0.08691743
89	0xbd1579a7	-0.03649297
90	0xbd0081f8	-0.031373948
91	0xbeefa763	-0.46807393
92	0x3e589d62	0.21153787
93	0xbc2f50d4	-0.010700423
94	0xbe08e64f	-0.13369106
95	0x3ca930ab	0.02065309
96	0xbc454f09	-0.012042769
97	0xbebb8e3a	-0.36631948
98	0xbe34ea90	-0.17667603
99	0x3bade8d2	0.0053072954
100	0xbc995186	-0.018715631
101	0xbe12310f	-0.14276527
102	0x3e9603fe	0.2929992
103	0x3d991b53	0.07475915
104	0x3e849eaa	0.259023
105	0x3e7e2c90	0.24821687
106	0x3c4b8c23	0.012423548
107	0x3d2e9d0a	0.042630233
108	0x3dbd1da1	0.09234167
109	0xbcd915b5	-0.026499609
110	0x3e452206	0.1925126
111	0xbc871259	-0.016488241
112	0x3d2fce7c	0.04292153
113	0xbda795b7	-0.08182853
114	0xbb75f730	-0.0037531368
115	0xbe8c2ffc	-0.2738036
116	0x3de1671a	0.11005993
117	0x3e2f85c0	0.17140865
118	0x3e3fbc19	0.18724097
119	0xbddab199	-0.10678405
120	0xbe007b2d	-0.12546988
121	0x3e0b4886	0.13601884
122	0xbe80e48e	-0.25174373
123	0x3ce2be66	0.02767868
124	0xbe10483c	-0.14090055
125	0x3cb1ed26	0.021719526
126	0x3d6a070a	0.05713562
127	0xbd17a861	-0.037025813
128	0xbd747403	-0.05968095
129	0x3db09d8e	0.08623801
130	0xbd9ea78b	-0.077468
131	0x3e32f3bb	0.17475788
132	0xbd669234	-0.056291774
133	0x3e26c805	0.16287239
134	0x3dbe849b	0.09302636
135	0xbe559707	-0.20858394
136	0xbcace24c	-0.021104
137	0x3cd21a4e	0.025647309
138	0xbe39c61d	-0.1814198
139	0xbcc429da	-0.023945738
140	0x3d645501	0.05574513
141	0x3daa7566	0.08323173
142	0xbd6c9f41	-0.057769064
143	0xbd835b09	-0.06413848
144	0xbe160a72	-0.14652422
145	0xbdbd8d7d	-0.092555024
146	0x3da107e8	0.07862836
147	0x3b8228b7	0.0039721387
148	0x3e2f8eb9	0.17144288
149	0xbe6d0c9e	-0.23149344
150	0xbdf3ab97	-0.118979625
151	0x3e859d3e	0.2609653
152	0xbd275bdf	-0.0408591
153	0x3d6ff357	0.058581676
154	0xbcc7b2f6	-0.024377327
155	0xbbaa7df7	-0.0052030045
156	0xbe5f217c	-0.21790117
157	0x3dfeb661	0.1243713
158	0xbdfeeb79	-0.124472566
159	0x3d1d5587	0.038411643
160	0xbdd18837	-0.10231059
161	0xbc2fe200	-0.010735035
162	0xbcd9de8e	-0.02659538
163	0x3d05e305	0.032687206
164	0x3d91dbc4	0.07121995
165	0xbe87316d	-0.26404896
166	0xbc68cfe7	-0.014209724
167	0xb9e32ab4	-0.0004332863
168	0x3e586bc2	0.21134856
169	0xbbe42a66	-0.006963062
170	0x3c6c2765	0.014413689
171	0xbc0b5c4a	-0.00850589
172	0xbd0eee7f	-0.034895416
173	0xbe1cc1bc	-0.15308279
174	0xbcee3c58	-0.029081509
175	0xbcf082f8	-0.029359326
176	0xbdd63f6a	-0.10461314
177	0x3d85a5af	0.06525742
178	0x3e32304a	0.17401233
179	0x3d00d1bc	0.03145002
180	0xbcfb42b7	-0.03067146
181	0x3d748080	0.05969286
182	0xbd501ef6	-0.050810777
183	0xbd41b627	-0.047292855
184	0x3d5d4f4a	0.054030694
185	0xbbe97f6b	-0.007125785
186	0xbc69b933	-0.014265346
187	0x3c73e040	0.014885008
188	0xbdd4bf77	-0.103880815
189	0xbbc97e12	-0.006149062
190	0xbd1921a5	-0.0373856
191	0xbd29ccab	-0.041454952
192	0xbd19e9ed	-0.037576605
193	0xbd22bbec	-0.039729998
194	0xbdcb38c8	-0.099229395
195	0xbe33bc9a	-0.17552415
196	0xbc2a8e83	-0.010409954
197	0x3b70963d	0.0036710643
198	0x3ddb2093	0.106995724
199	0x3bbe2b26	0.0058034835
200	0x3d299bdd	0.04140841
201	0xbdbd008c	-0.0922862
202	0x3bba96f3	0.005694264
203	0xbc0568d0	-0.008142665
204	0xbd91732a	-0.07102044
205	0x3cf774cb	0.030207058
206	0x3d86f618	0.065899074
207	0xbe15ae29	-0.14617218
208	0x3b97974d	0.0046261908
209	0x3bfd8be1	0.007737622
210	0xbdaf9fcb	-0.085754
211	0x3e8c6cf5	0.27426878
212	0x3d9d278d	0.07673559
213	0x3dd0a135	0.10186998
214	0x3d6ba7c3	0.057533037
215	0xbcdceebf	-0.026969312
216	0xbd8c66a5	-0.068555154
217	0x3e4c1350	0.19929242
218	0xbc6ed03f	-0.014576017
219	0xbd4af742	-0.04955221
220	0x3e055df3	0.1302412
221	0xbd666e3d	-0.056257475
222	0xbc80c8fa	-0.015720833
223	0xbd655c8f	-0.055996474
224	0xbd9e14c0	-0.077188015
225	0xbdfaef69	-0.12252695
226	0xbc3d4b91	-0.011553661
227	0xbc8a2491	-0.01686314
228	0x3d2d1ce6	0.042263888
229	0x3cd6865b	0.026187113
230	0x3e1a1456	0.1504682
231	0x3c56fe25	0.013122116
232	0x3cd4e54c	0.025988244
233	0xbdea05f0	-0.11426914
234	0xbda638e3	-0.08116319
235	0x3d01a450	0.03165084
236	0xbbb005fe	-0.005371808
237	0xbd862fc0	-0.06552076
238	0x3dbb3de9	0.09142668
239	0x3d6477ca	0.055778302
240	0x3b177d8d	0.0023115606
241	0xbdd22044	-0.102600604
242	0xbd8b9183	-0.068148635
243	0x3ea193f3	0.3155819
244	0x3ac2e3cf	0.0014868918
245	0xbc159237	-0.009129099
246	0x3d9330cc	0.07187042
247	0x3c94cccc	0.018164061
248	0xbe0e4ebe	-0.13897225
249	0x3d5f6301	0.054537777
250	0x3db6db59	0.08928556
251	0xbe40b6ec	-0.18819779
252	0xbe503c15	-0.2033542
253	0xbc2422d2	-0.010018067
254	0xbe8e9626	-0.2784893
255	0xbc26a1c3	-0.010170403

prop_layer.GRU.weight_hh_l0 f4 [30, 10]
0	0x3d9f7e4d	0.07787762
1	0xbc933d5b	-0.017973593
2	0xbc982f47	-0.018577231
3	0xbe0c647c	-0.13710207
4	0xbdc66d7d	-0.09688852
5	0x3d4af8f4	0.049553826
6	0x3e709056	0.2349256
7	0xbe020820	-0.12698412
8	0x3caae014	0.020858802
9	0x3e7f19c5	0.24912174
10	0xbe263ec3	-0.16234879
11	0x3d5abbc9	0.053401742
12	0x3d8c879a	0.068618014
13	0xbd0fd20f	-0.035112437
14	0xbb1a5fe7	-0.0023555697
15	0x3d56d58a	0.05244974
16	0x3da3282e	0.07966648
17	0xbd158076	-0.036499463
18	0xbd965125	-0.07339696
19	0x3b268245	0.0025407237
20	0xbd8e8ade	-0.069600806
21	0xbda78bbf	-0.08180951
22	0x3b63407c	0.0034675887
23	0xbbeba866	-0.0071917055
24	0xbd90058f	-0.0703231
25	0xbd706941	-0.058694128
26	0x3bfd185f	0.0077238525
27	0x3c1e88a5	0.009676133
28	0xbe086595	-0.1332
29	0x3bc2075b	0.005921287
30	0x3d27de10	0.04098326
31	0xbaed821f	-0.0018120444
32	0xbe384c9d	-0.17997976
33	0x3dd83d6a	0.10558589
34	0xbd55a5c9	-0.05216006
35	0xbcdf5d1d	-0.02726608
36	0x3e9f7f75	0.3115193
37	0x3cb30c54	0.021856464
38	0xbda92d8d	-0.08260641
39	0xbe8fa557	-0.28055832
40	0x3bdf3eea	0.00681292
41	0xbca28c0c	-0.01984217
42	0xbcbf162c	-0.023326002
43	0x3d154664	0.036444083
44	0xbdd6e79b	-0.10493394
45	0xbbab1527	-0.0052210274
46	0x3d802baa	0.06258328
47	0xbd181630	-0.037130535
48	0x3c4ebe85	0.012618666
49	0x3dbc2161	0.09186054
50	0x3dfdd4d3	0.123941086
51	0xbdfe7186	-0.124239966
52	0xbd0a65ff	-0.033788677
53	0x3cf25460	0.029581249
54	0xbe07bba6	-0.13255176
55	0xbc3072d0	-0.010769561
56	0x3c3a3676	0.011365524
57	0xbcfafd1a	-0.030638266
58	0x3db33f33	0.08752289
59	0xbd129ac6	-0.035792135
60	0xbd08aee4	-0.033369914
61	0xbc175732	-0.009237098
62	0x3d73f239	0.059557173
63	0xbd391584	-0.045186535
64	0xbdbe8559	-0.09302778
65	0x3c2c75b5	0.01052611
66	0x3c9c4adf	0.01907867
67	0xbd0e298f	-0.034707602
68	0xbb421640	-0.0029615313
69	0xbccb24dd	-0.024797851
70	0x3dd8139e	0.10550617
71	0xbc195dd7	-0.009360752
72	0x3d26b291	0.040697638
73	0xbd4a1ccb	-0.049343865
74	0xbd7c4b4a	-0.06159524
75	0x3d097467	0.033558276
76	0xbd5a8806	-0.05335238
77	0xbd14a710	-0.036292136
78	0x3d8d44fd	0.06897924
79	0x3c762009	0.015022286
80	0xbdbe9603	-0.09305956
81	0x3b801aac	0.0039094295
82	0x3db14708	0.08656126
83	0xbd50fe01	-0.051023487
84	0x3d198c78	0.037487477
85	0xbc9cbd38	-0.019133195
86	0x3c90fe6e	0.017699447
87	0xbbdcb3af	-0.006735287
88	0xbd9869b0	-0.07442033
89	0xbe42c083	-0.1901875
90	0x3c16a737	0.009195141
91	0xbcec6b43	-0.02885974
92	0xbdbe554a	-0.09293611
93	0xbba04033	-0.0048904656
94	0xbab1ce30	-0.0013565477
95	0xbd37c1c5	-0.044862527
96	0xbbdc1d3f	-0.0067173536
97	0xbd1d7afb	-0.03844736
98	0x3c856cd5	0.016287247
99	0x3cfca479	0.030840145
100	0x3d0f2926	0.03495135
101	0xbd3c282f	-0.04593676
102	0x3e66881d	0.2251286
103	0xbbc8ec8d	-0.0061317147
104	0x3d5ebd89	0.054379974
105	0xbd99adda	-0.07503863
106	0x3e61063d	0.21975036
107	0x3e57624b	0.2103359
108	0xbe0e9c4d	-0.13926812
109	0x3d8ce0b4	0.06878796
110	0x3d71ca13	0.059030604
111	0xbdeaf84c	-0.1147314
112	0xbd89547c	-0.06705567
113	0xbcf1d68a	-0.029521246
114	0xbcc19d26	-0.023634505
115	0xbe424a24	-0.18973595
116	0xbcb0c1b4	-0.02157674
117	0xbcd164e3	-0.025560802
118	0xbd565801	-0.05233002
119	0x3ca3ae04	0.019980438
120	0xbd9846a8	-0.074353516
121	0xbdc3f8db	-0.0956895
122	0x3f07f38a	0.53105986
123	0xbca84c3e	-0.020544168
124	0xbe7ba9a7	-0.24576436
125	0x3e5269e5	0.20548208
126	0x3e31e791	0.17373492
127	0xbd3eb37b	-0.046557885
128	0xbdb89a12	-0.090137616
129	0x3d30c680	0.043158054
130	0xbe0897aa	-0.13339105
131	0x3d63f4a1	0.05565322
132	0xbdafe468	-0.08588487
133	0x3e4aad1b	0.19792597
134	0xbe14bebd	-0.14525886
135	0xbdda6f0a	-0.1066571
136	0xbe5c4b14	-0.21513015
137	0xbdeb180a	-0.114791945
138	0x3e127270	0.14301467
139	0xbdebce1c	-0.115139216
140	0xbcc82188	-0.024430051
141	0xbda36e67	-0.07980042
142	0xbd935b88	-0.071951926
143	0x3cddea84	0.027089365
144	0xbe6c2367	-0.2306038
145	0xbd05d640	-0.032675028
146	0x3e73bf6c	0.2380349
147	0xbd494f81	-0.049148086
148	0xbe033202	-0.12812045
149	0xbe6e0e4a	-0.23247638
150	0x3e60904e	0.21930048
151	0x3dc52c82	0.0962763
152	0xbbda96ea	-0.0066708224
153	0x3d689584	0.056783214
154	0xbe0d4551	-0.13795973
155	0x3e14bb7d	0.14524646
156	0x3eb5d78e	0.35516018
157	0xbda602d8	-0.08106011
158	0xbc0f098e	-0.008730305
159	0x3e09e114	0.13464767
160	0xbe0dcd16	-0.13847765
161	0xbc01fee7	-0.007934309
162	0xbd0ea64c	-0.03482656
163	0xbd0930e7	-0.033493903
164	0xbdb6fe8b	-0.08935269
165	0x3e2b4ff7	0.16729723
166	0xbd0da85e	-0.034584396
167	0x3e2fc30e	0.17164251
168	0x3ea362f9	0.31911448
169	0xbd8e06b8	-0.06934875
170	0xbd2137c7	-0.039359834
171	0x3e848f4f	0.25890586
172	0xbe0fdc1f	-0.14048813
173	0x3db9267c	0.090405434
174	0xbd86f48e	-0.06589614
175	0x3e188d1b	0.14897577
176	0xbde3f950	-0.11131537
177	0xbd3e7566	-0.04649868
178	0xba9801fc	-0.0011597271
179	0xbe396451	-0.18104674
180	0xbda8c593	-0.08240809
181	0xbc4b4f16	-0.012408992
182	0xbe3f5460	-0.1868453
183	0xbe097926	-0.1342512
184	0xbe3ddc54	-0.1854108
185	0x3e450bf2	0.19242838
186	0xbe8a79c7	-0.27046034
187	0xbe49c7a4	-0.19705063
188	0x3e8feb2b	0.28109106
189	0x3e2134e4	0.15742832
190	0xbe2e7d7f	-0.1704006
191	0x3d6af7a1	0.057365064
192	0xbe2485cf	-0.16066669
193	0x3eb4faa2	0.35347468
194	0x3d7d4c8e	0.061840586
195	0x3deea90d	0.11653338
196	0x3dea48d0	0.11439669
197	0x3d8bf10a	0.06833084
198	0x3c03c928	0.008043565
199	0xbe681323	-0.2266355
200	0x3e1c7dae	0.15282318
201	0x3dc28eea	0.09499915
202	0x3e05db89	0.13072027
203	0xbd921dca	-0.07134588
204	0x3efecd35	0.49765936
205	0xbe9726e0	-0.29521847
206	0x3f5ace95	0.8547147
207	0x3b9b1491	0.0047326763
208	0x3e8f8359	0.28029898
209	0xbea76002	-0.32690436
210	0xbe8ce6e9	-0.2751992
211	0x3e40ad01	0.18815996
212	0x3e060fb5	0.1309193
213	0xbe6e6825	-0.23281915
214	0x3e9217f4	0.285339
215	0x3eb347ac	0.3501562
216	0x3eb1018e	0.345715
217	0xbe451bc2	-0.1924887
218	0xbe57d906	-0.21078882
219	0xbec20859	-0.37896994
220	0xbccdd7c9	-0.025127308
221	0x3d2d25e2	0.042272456
222	0x3eaa1b5c	0.33224
223	0xbeabac8a	-0.33530074
224	0xbca75773	-0.020427441
225	0x3ea1c34f	0.3159432
226	0xbdad4871	-0.08461083
227	0x39d2a0f4	0.0004017424
228	0x3e1003d1	0.14063956
229	0x3e7f448b	0.24928491
230	0xbdc188d9	-0.0944993
231	0x3e85790d	0.26068917
232	0x3ef93b5c	0.486781
233	0xbf626a26	-0.8844322
234	0x3f0c5054	0.5481007
235	0xbc917ceb	-0.01775976
236	0xbd5631a4	-0.052293435
237	0x3e134926	0.14383373
238	0x3de4651b	0.11152097
239	0x3f109a99	0.564859
240	0xbe35415c	-0.17700714
241	0x3d34522a	0.04402367
242	0x3ec179be	0.37788194
243	0xbeb5fb33	-0.35543212
244	0xbdc2294c	-0.09480533
245	0xbc8bc91b	-0.017063668
246	0xbede28c1	-0.43390468
247	0x3dfeb9c4	0.12437776
248	0x3e88f435	0.26748815
249	0xbc3cc020	-0.011520416
250	0x3d98577d	0.07438562
251	0x3d10c413	0.03534324
252	0x3e7f8964	0.24954754
253	0xbe9ae4ba	-0.3025263
254	0x3e79a3cd	0.24378891
255	0x3d1a006d	0.037598062

prop_layer.GRU.bias_ih_l0 f4 [30]
0	0x3e1b3391	0.1515639
1	0xbd076133	-0.03305168
2	0x3d397f24	0.045287266
3	0x3dcb7866	0.099350736
4	0x3dbc066f	0.091809146
5	0x3d9ff92f	0.078112
6	0x3d1f873d	0.038947333
7	0x3d320824	0.043464795
8	0x3d62d704	0.055380836
9	0xbc08805c	-0.0083313845
10	0xbd9250ee	-0.07144342
11	0x3dae8d35	0.08523027
12	0xbe11a922	-0.14224675
13	0xbe1c4252	-0.15259674
14	0x3c408cff	0.011752366
15	0xbe06b1e4	-0.13153797
16	0xbcbb7929	-0.022884922
17	0xbeaf3a5f	-0.3422422
18	0x3cd13bf4	0.025541283
19	0xbd9c1dab	-0.07622846
20	0xbe265141	-0.16241933
21	0xbd51788e	-0.05114036
22	0x3d0318f0	0.032006204
23	0xbe59ed05	-0.21281822
24	0xbe197c84	-0.14988905
25	0xbf1c172b	-0.6097285
26	0x3e088621	0.13332416
27	0xbe2e63ad	-0.17030211
28	0xbe5fac93	-0.21843176
29	0xbdabdb10	-0.08391392

prop_layer.GRU.bias_hh_l0 f4 [30]
0	0x3e1b3704	0.15157706
1	0xbd0760bb	-0.033051234
2	0x3d397f24	0.045287266
3	0x3dcb74c0	0.09934378
4	0x3dbc066c	0.091809124
5	0x3d9ff926	0.07811193
6	0x3d1f873d	0.038947333
7	0x3d32085f	0.043465015
8	0x3d62d43a	0.055378176
9	0xbc08805c	-0.0083313845
10	0xbdd88251	-0.10571731
11	0x3dced85e	0.100998625
12	0xbe17d039	-0.14825524
13	0xbe213dce	-0.15746233
14	0x3a768ff1	0.0009405604
15	0xbe0bd43b	-0.13655178
16	0xbd058164	-0.0325941
17	0xbeaf7503	-0.3426896
18	0x3cd32f09	0.025779264
19	0xbda071e5	-0.07834224
20	0x3da69aa8	0.08134967
21	0x3dbc1fdb	0.091857634
22	0x3b7132da	0.0036803992
23	0xbe97a303	-0.29616556
24	0xbd67fc4e	-0.0566371
25	0xbe0788da	-0.13235798
26	0x3ca61cb6	0.020277362
27	0x3c27eede	0.0102498215
28	0x3d18b16d	0.03727858
29	0x3cdcb569	0.026941972

aggregator.MLP1.0.weight f4 [20, 10]
0	0xbd85728a	-0.06515987
1	0xbe22b585	-0.15889557
2	0xbe7ece00	-0.2488327
3	0x3e641511	0.22273661
4	0x3e10ecf4	0.1415289
5	0xbe85a80d	-0.26104775
6	0xbd959d63	-0.0730541
7	0x3dc28b03	0.09499171
8	0x3da1d053	0.07901063
9	0x3e0a4c52	0.13505676
10	0x3df8dc34	0.121513754
11	0xbe17869f	-0.14797448
12	0x3dbb631a	0.091497615
13	0x3d98eb6e	0.0746678
14	0xbd4f4e08	-0.050611526
15	0xbd8e9d54	-0.06963602
16	0x3df450dd	0.11929486
17	0xbb7ab047	-0.0038252042
18	0x3da05bf1	0.078300364
19	0xbce4c7a2	-0.027927224
20	0xbeaed11f	-0.34143922
21	0xbed3becc	-0.41356504
22	0x3e49d056	0.1970838
23	0x3e3742f4	0.17896634
24	0x3d5d2505	0.053990383
25	0x3eb78bae	0.35848755
26	0x3e8b7858	0.27240252
27	0xbedba28e	-0.42897457
28	0xbec87701	-0.39153293
29	0xbce35491	-0.027750285
30	0x3de885aa	0.113536194
31	0x3df0d5b9	0.11759514
32	0x3ece37bc	0.40276897
33	0xbce32870	-0.027729243
34	0x3ec6e896	0.38849324
35	0x3e796513	0.24354963
36	0x3f0d5133	0.55202025
37	0xbd1e1df7	-0.038602795
38	0xbe0a681e	-0.1351628
39	0x3cafc5b2	0.021456573
40	0xbe9f2d01	-0.31089023
41	0x3de4a17e	0.11163615
42	0x3d6746fe	0.056464188
43	0xbef4852f	-0.4775786
44	0xbf16f6c4	-0.58970284
45	0x3eab530d	0.334618
46	0xbd45ac52	-0.04826004
47	0xbe0f7667	-0.1401001
48	0x3e0d81f4	0.13819104
49	0xbd305ade	-0.043055408
50	0xba99c347	-0.0011731171
51	0xb938de17	-0.00017630342
52	0x3b871b8d	0.0041231574
53	0xbb5aee1e	-0.003340609
54	0xba8467c3	-0.0010101724
55	0x3b1c09c7	0.0023809539
56	0x3ba034cd	0.004889107
57	0xbb0473f6	-0.002021072
58	0x3992260b	0.00027875634
59	0x3b3d8ce7	0.0028923096
60	0x39964fff	0.0002866983
61	0xb9726c3e	-0.00023119242
62	0x38241112	3.9116545e-05
63	0x391a6f9b	0.00014728161
64	0xb98d5dab	-0.00026963404
65	0xb9595d55	-0.00020729502
66	0xb966d6d7	-0.00022014543
67	0x381f8683	3.8033828e-05
68	0x39f48a98	0.00046642567
69	0x3961a2f0	0.00021518371
70	0xbcae4bb6	-0.021276336
71	0xbdce36b1	-0.10069025
72	0xbca31f6a	-0.01991244
73	0x39225f51	0.00015485032
74	0xbc1be694	-0.009515423
75	0x3d5f24c4	0.05447842
76	0x3d8515a9	0.06498272
77	0xba322a63	-0.0006796477
78	0xbcdfb280	-0.027306795
79	0xbc47ae21	-0.012187512
80	0xbd4f324c	-0.050585076
81	0xbe576cea	-0.21037641
82	0x3d32946a	0.04359857
83	0x3ce49514	0.027903117
84	0x3d614714	0.054999426
85	0xbae4b15e	-0.0017447879
86	0x3db0d499	0.086343
87	0xbdccc7a4	-0.09999016
88	0xbd28fa4d	-0.04125433
89	0x3dd2bdde	0.102901205
90	0xbcff37c9	-0.03115453
91	0x3dee95e6	0.116496846
92	0xbec56ad1	-0.38558057
93	0x3dd026d6	0.10163657
94	0x3e9633c7	0.29336378
95	0x3e2fa0cc	0.17151183
96	0xbe395a7d	-0.18100925
97	0x3e1932c4	0.14960772
98	0xbe80ea54	-0.25178778
99	0x3ea73950	0.32660913
100	0xbe268d15	-0.16264756
101	0xbe93c4dc	-0.2886113
102	0xbdf2c2cb	-0.1185356
103	0xbebc93a0	-0.3683138
104	0x3f1e57f8	0.6185298
105	0x3d43d2d1	0.047808472
106	0x3e35aafe	0.1774101
107	0xbcec4d62	-0.028845493
108	0x3d8ab0dd	0.06772015
109	0x3ddc10ed	0.10745416
110	0x3e924912	0.28571373
111	0xbe701daf	-0.23448823
112	0xbe269b08	-0.16270077
113	0xbe7fcb1e	-0.24979827
114	0xbe1b5101	-0.1516762
115	0x3d2c7cf2	0.042111345
116	0x3e2bce71	0.1677797
117	0x3e2a23ed	0.16615267
118	0x3cb97a90	0.02264145
119	0x3d7de744	0.06198813
120	0xbe7467bf	-0.23867701
121	0xbf0b4993	-0.5440914
122	0x3c5580ff	0.013031243
123	0x3ceef29b	0.029168418
124	0xbc309156	-0.010776838
125	0x3dcaaad4	0.09895864
126	0x3f298e9e	0.6623324
127	0xbe3bebb0	-0.18351626
128	0xbe18431f	-0.14869355
129	0xbd5d3481	-0.05400515
130	0xbf002abe	-0.5006522
131	0xbe3fdc6a	-0.18736425
132	0xbe8e3ff0	-0.27783155
133	0xbd15a4f1	-0.036534254
134	0xbd923637	-0.07139247
135	0xbe92f80c	-0.2870487
136	0xbec5849d	-0.38577738
137	0xbd8e2dbd	-0.06942318
138	0xbb8fa7fe	-0.00438404
139	0xbdd9998b	-0.10624989
140	0x3ae50969	0.0017474118
141	0x3f39d531	0.7259093
142	0xbf274c84	-0.6535113
143	0xbd200ae9	-0.039072905
144	0xbe6f278c	-0.2335493
145	0xbddea540	-0.10871363
146	0x3d00376f	0.031302866
147	0xbda0f739	-0.07859654
148	0xbe8b8b08	-0.2725451
149	0xbea74162	-0.3266707
150	0xbbbe73d8	-0.0058121495
151	0x397e98e0	0.00024280278
152	0x3b9363c8	0.004497979
153	0x3b8b00af	0.004242025
154	0xbc00d5af	-0.007863446
155	0x3b5ac1c3	0.003337965
156	0xbba171a0	-0.0049268752
157	0xb936b584	-0.00017424492
158	0xb8401b1d	-4.580162e-05
159	0xbbbbcb5f	-0.005731031
160	0xbb35d0a2	-0.0027742763
161	0xbbabebfa	-0.0052466365
162	0x3a634dcc	0.00086709554
163	0xba87696a	-0.0010331098
164	0xbb6f0103	-0.003646911
165	0x3b1b95ff	0.0023740528
166	0xbb512931	-0.003191542
167	0xbb0b201a	-0.002122885
168	0xb99c438a	-0.0002980496
169	0xbb63427f	-0.0034677086
170	0xbde6165f	-0.11234736
171	0x3d4beb32	0.049784847
172	0x3e6c2a74	0.2306307
173	0xbb7783c8	-0.0037767757
174	0xbd4ca907	-0.049965885
175	0xbe15c07f	-0.14624213
176	0xbe154e48	-0.14580643
177	0xbeab12ef	-0.33412883
178	0x3d5857fa	0.052818276
179	0x3d7891bb	0.060685854
180	0x3e4b1dca	0.19835582
181	0xbe794f88	-0.24346745
182	0x3df6cbe9	0.120506115
183	0x3ea955cb	0.33073267
184	0x3e5fda6f	0.2186067
185	0x3d00ee12	0.03147704
186	0x3d0a1677	0.03371283
187	0x3d637c84	0.05553867
188	0x3dc35fb6	0.0953974
189	0xbccdb740	-0.025111794
190	0xbf079857	-0.5296683
191	0xbe7cc0bf	-0.24682902
192	0xbc42ba09	-0.011885175
193	0x3da69d04	0.08135417
194	0xbd6da460	-0.05801809
195	0x3eb27bc3	0.34860048
196	0x3ebe5631	0.37175134
197	0x3e01469b	0.1262459
198	0x3e19d761	0.15023567
199	0xbed8347d	-0.42227545

aggregator.MLP1.0.bias f4 [20]
0	0x3de48004	0.111572295
1	0x3ce75e00	0.028243065
2	0x3dc6c9f8	0.09706491
3	0xbe037781	-0.12838556
4	0x3db5b49a	0.08872338
5	0xbbab18ff	-0.0052214856
6	0xb9aa95d0	-0.00032536546
7	0x3cf57332	0.029962156
8	0x3d9aac95	0.07552449
9	0x3cbb3e92	0.022856984
10	0xbd30d927	-0.043175843
11	0xbd62daf8	-0.055384606
12	0xbed00974	-0.40632212
13	0xbe93ba91	-0.28853276
14	0x3dd3f874	0.10350123
15	0x3b04c111	0.0020256678
16	0xbaf982aa	-0.0019036133
17	0xbd709864	-0.05873908
18	0xbebceb9e	-0.36898512
19	0xbdfcc2c3	-0.12341835

aggregator.MLP2.0.weight f4 [10, 10]
0	0xbf2f432c	-0.6846187
1	0x3e2d552f	0.16927026
2	0x3b0fdf62	0.0021953215
3	0x3ec0e07a	0.37671262
4	0x3dd9f1e6	0.106418416
5	0xbbd52f6d	-0.0065058977
6	0xbae1d081	-0.0017228277
7	0xbe0e6959	-0.13907374
8	0xbe6ad743	-0.22933678
9	0x3d8deba1	0.06929708
10	0xbe1c0331	-0.15235592
11	0xbe2cae28	-0.1686331
12	0x3e8ff43c	0.28116024
13	0x3e0b5844	0.1360789
14	0x3e7fca08	0.24979413
15	0xbb7c8054	-0.0038528638
16	0xbb695318	-0.0035602506
17	0x3dec48bf	0.11537313
18	0xbe182459	-0.14857616
19	0xbe14709e	-0.14496085
20	0xbedfdcce	-0.43723148
21	0xbc957925	-0.018246243
22	0x3ce7b81b	0.02828603
23	0xbe3dbf72	-0.18530062
24	0x3de1fefb	0.11034962
25	0x3b988f27	0.004655737
26	0x3b4a76fb	0.0030893672
27	0xbdf4fe79	-0.11962599
28	0x3df7d01e	0.12100242
29	0xbe1d372e	-0.1535308
30	0xbc386c31	-0.011256264
31	0x3e7595f4	0.23982984
32	0xbb04546c	-0.002019192
33	0xbe877e37	-0.26463482
34	0xbe668d85	-0.22514923
35	0xbbf0cdb3	-0.00734874
36	0xbaccc0e0	-0.0015621446
37	0xbe01e20c	-0.12683886
38	0xbe213372	-0.15742281
39	0xbf19734f	-0.5994157
40	0xbd391151	-0.04518253
41	0x3bf7f4ee	0.0075670397
42	0xbcf7c058	-0.030243084
43	0x3e7a4b65	0.24442823
44	0x3de116e2	0.10990693
45	0xbc72b447	-0.014813489
46	0x3aa8947f	0.0012861638
47	0x3dc1fabb	0.09471651
48	0xbdad5d6f	-0.08465087
49	0xbf001e03	-0.50045794
50	0x3bbeb559	0.005819958
51	0xbe74dc73	-0.2391222
52	0xbe4987ee	-0.1968076
53	0x3e933059	0.28747824
54	0xbe32bded	-0.17455263
55	0x3c3aba49	0.011396953
56	0x3b21b99c	0.0024677282
57	0xbe3d27f5	-0.18472274
58	0x3e8406ce	0.25786442
59	0xbe79ca50	-0.24393582
60	0xbd2c8233	-0.042116355
61	0xbe7bf158	-0.24603784
62	0xbe85f981	-0.2616692
63	0xbd13847c	-0.03601502
64	0xbe9ef9f2	-0.31050068
65	0xbb5064dd	-0.00317984
66	0xbad89553	-0.0016523994
67	0x3da2847a	0.07935424
68	0xbe891e0c	-0.26780736
69	0xbc3a3f46	-0.011367625
70	0xbe006227	-0.12537442
71	0xbdbb3fd7	-0.09143036
72	0x3d865881	0.065598495
73	0x3e0b1f2c	0.1358611
74	0xbf0911e1	-0.53542906
75	0xbbe6c9f1	-0.0070431163
76	0x39943feb	0.00028276382
77	0x3e6f4351	0.23365523
78	0x3e8d9613	0.2765356
79	0xbeb48a2c	-0.35261667
80	0xbde8810e	-0.1135274
81	0xbdd61f2b	-0.104551636
82	0xbdd632f6	-0.10458939
83	0xbee46402	-0.4460755
84	0x3f08a117	0.53370804
85	0xbbae8e64	-0.005327033
86	0x39d29fc6	0.00040173362
87	0x3e0953fa	0.13410941
88	0x3d5bd85a	0.053673126
89	0xbdffc918	-0.124895275
90	0x3d5cc53c	0.053899035
91	0x3dd336e2	0.103132024
92	0xbf4555bd	-0.7708395
93	0xbdcf565d	-0.10123894
94	0x3d8c5bdf	0.068534605
95	0xbbcc3eff	-0.0062330957
96	0xbb4c1864	-0.0031142468
97	0xbdd8ea55	-0.1059157
98	0xbe13b747	-0.14425384
99	0x3d4f085c	0.05054508

aggregator.MLP2.0.bias f4 [10]
0	0x00001b8c	9.882e-42
1	0x00001eb8	1.102e-41
2	0x80001ba0	-9.91e-42
3	0x00001b95	9.895e-42
4	0x80001b8c	-9.882e-42
5	0x00001b62	9.823e-42
6	0x80001bc2	-9.958e-42
7	0x00001b84	9.871e-42
8	0x00001ba1	9.911e-42
9	0x00001b85	9.872e-42
