experiments/rqX_custom_models/trained_models/isonet_aids_large_dataset_seed_7762_2024-05-22_22:24:09.pth (torch, 12284 bytes, 14 tensors)

encoder.MLP1.0.weight f4 [10, 1]
00000000: cf07 5cbf ff10 92bd daa8 783f 1533 22bd
00000010: 6f1b bc3e c284 15bf 4455 c1be 4d85 443f
00000020: d7af 083f cb10 f13c
-0.85949415 -0.07132148 0.9713265 -0.039599497 0.3673968 -0.584057 -0.37760365 0.767659
0.5339331 0.029426953

encoder.MLP1.0.bias f4 [10]
00000000: 49d8 773f 2a2e f7be 046b 47bf 9e73 ac3e
00000010: 92bd 35bf 0f74 243f c462 053f b341 d3be
00000020: c2ff 9cbd 66b6 463e
0.968144 -0.48277408 -0.7789767 0.3368196 -0.70992386 0.6423959 0.5210383 -0.41261062
-0.076659694 0.19405517

prop_layer._message_net.0.weight f4 [20, 21]
00000000: 3cc7 b73d a926 06bd b2a0 1a3e d533 63bd
00000010: 27c3 e8bd fcbb 0cbe cd09 7ebe b95b f43d
00000020: 0477 c9bd f141 383e ba5f 543d 1160 133e
00000030: d38a c4bd 14db 973d 63b6 383e 7334 bf3d
00000040: e96f 243e 5277 d23d 2d1e f73d 6adf 2e3d
00000050: a8e3 783e b8c4 8fbd 3515 c3bd c0cd 3cbd
00000060: 0f41 733d e219 2d3e 46dd 1dbe bc1b a3bd
00000070: a2bb c4bd 0864 0f3c 24d9 a6bd ec66 fabd
00000080: ed66 84be 890a 653c 1303 00be e73b 533d
00000090: f41d 233e 3eda 01bd 5ed0 b8bd 7691 e9bd
000000a0: ddf2 093e 517b 18be b376 973d dcdb a13d
000000b0: f607 02be b9c5 9f3c de83 52be 82bb 86be
000000c0: 1891 4bbe f8c2 0dbd 7a3a 213e 4dd6 1b3e
000000d0: 94f7 8a3c 93b9 58be 9cdc 05be cb64 00be
000000e0: f218 473e a418 19be 83a6 d3bd 7448 163e
000000f0: 6b8b 103e 6a83 5ebd f208 1cbe f310 653e
00000100: 007c 063e ae94 863c c59e 213e 62bf 56bd
00000110: bf90 da3d aaf1 c2bd 5988 e93d 705b 36bd
00000120: 9faf fc3b a010 16bd afc1 e2bd d369 703d
00000130: d056 db3c 5769 e0bd 8671 bb3d 1101 41be
00000140: bf6b 1b3e a4c5 b93c 65b0 2b3d 56f5 f63d
00000150: 4b31 533e 260f c73d 7692 f6bd f097 1b3e
00000160: 780e a2bd a3c7 70bd f8d0 5dbe f616 f23c
00000170: 4836 013e 5ea4 fa3d bf3a e7bd 0ef6 99bc
00000180: 8e26 efbd 42bc 1b3e 0ac3 47bd ae8a 53be
00000190: 9cc7 41be 41d1 e2bd e92e 5c3c 0e29 923d
000001a0: a513 8d3d edc1 28bd f08e 643d 2a46 27be
000001b0: 1579 edbd 5eb7 043e 3b49 573d 40ff e4bd
000001c0: d444 13bb 4c76 073d 4015 083d e16d b63d
000001d0: 2b50 66be 6fca a4bd 4a52 2abe fb49 46be
000001e0: 63bb a5bd 78eb 4ebe 52f6 01bd 658f 10bd
000001f0: e48f 903c 3956 31bd c6ee 57be d396 6a3d
00000200: 1605 4dbe 4d94 21bc d761 a03d 0528 ffbd
00000210: 41bf 04be 3f28 39be 343a a6bb df30 00be
00000220: 79f7 663d 70d9 24be d20f 8fbb 63d8 ac3d
00000230: 43e5 873e e120 663e cb6d b6bd 35d3 ab3d
00000240: 80f1 f5bb 9d9a 84be 84d9 013e a4e6 71be
00000250: bf62 81be 71bf e0bc 6782 833e 64f7 883c
00000260: f688 79be 2d1c a93c f079 a2bd 7ccd 4fbd
00000270: 1735 5e3d dbdc 57be 39d4 313e 6601 edbd
00000280: 8f70 1dbe d53a 0f3e e09c 90bd 2700 38be
00000290: 589e 123e ca46 e63d 1b60 6abe 696a aebb
000002a0: 85c7 34be 3aa4 353d f29b f6bc 99be 023e
000002b0: 6b71 313d eb72 5f3d 995e 50be 2133 2abe
000002c0: ec34 0b3d 428e 223e a91d e83d 87e7 31bd
000002d0: 2430 1fbe dd6c b8bd f4c4 a2bb 259e af3a
000002e0: 0a01 12be ebc3 3f3c da0b 4cbe 8438 8bbd
000002f0: 323e a3bc 113a 9ebc 2753 193d 1ab6 853d
00000300: 9851 683e 214a aa3c fb6d 503d 5126 83bd
00000310: a50a 24be 6da8 09be dae2 33be cabd aabd
00000320: 822d a4bd 7f7a 0e3e 182a ffbd 5616 39bc
00000330: 710f 70be 011d 7abe 6647 4bbe 30e4 333e
00000340: cf03 f73c b31b 0bbe ca84 1d3e a17d a7bc
00000350: 8404 37bb 650c d5bd 47ed 493c 3009 5f3d
00000360: d208 0fbe 3f3d 06be 80cb 283e b73c 213e
00000370: 6a0c 02be e0fb 21be 4f94 323e c188 cabd
00000380: 1e13 ed3d 426e 663d 47c8 74bd ef81 ad3d
00000390: fa45 063e 651e 383e 6678 2c3d face a3bd
000003a0: fb37 b7bc 8689 05be 82e5 373d 8e21 a2bc
000003b0: 0e5f a6bd 7f49 1e3e aa8f 393e ddb5 d8bc
000003c0: d9d6 8dbd b107 b63d 4068 f63c bc95 1cbe
000003d0: a5ef 2ebe e11a f33d fb8b 3fbe d5b9 143d
000003e0: 2517 fb3d 64cb 493e bc3b 133e f4e5 8b3c
000003f0: 5041 823d a191 d4bd ce02 cfbd ab49 173e
0.08973548 -0.032751713 0.15100363 -0.055469353 -0.11365347 -0.13743585 -0.24808426 0.11931557
-0.098371536 0.17993905 0.051849104 0.14392115 -0.09596791 0.07414833 0.18038325 0.09336176
0.16058315 0.10276665 0.120663024 0.042693533 0.24305594 -0.07019943 -0.09525529 -0.046094656
0.059388217 0.16904405 -0.1541644 -0.07964274 -0.096061006 0.008751877 -0.08146885 -0.12226662
-0.25859776 0.013979563 -0.12501173 0.0515708 0.15929395 -0.031702273 -0.09024118 -0.114046976
0.13471551 -0.14890791 0.07395687 0.07903263 -0.1269835 0.019503461 -0.20558116 -0.26314932
-0.19879568 -0.034609765 0.15744963 0.15218468 0.016963758 -0.21164541 -0.13072437 -0.1253845
0.1944311 -0.14950806 -0.10334494 0.14676076 0.14115684 -0.054324545 -0.15237787 0.22369747
0.1313324 0.016428318 0.15783222 -0.05242861 0.106721394 -0.0951875 0.114029594 -0.044520795
0.0077113654 -0.03663695 -0.110720985 0.05869467 0.026774794 -0.10957592 0.09152512 -0.18848063
0.1517782 0.02267725 0.04191627 0.12058513 0.20624273 0.09719686 -0.12039654 0.15194678
-0.07912916 -0.05878414 -0.21661747 0.029551964 0.12618363 0.12238382 -0.11290502 -0.018794086
-0.116772756 0.15208533 -0.048769988 -0.20658371 -0.18923801 -0.11075068 0.013438919 0.07136737
0.068885125 -0.041200567 0.05580038 -0.16335359 -0.1159536 0.12960574 0.052560072 -0.111814976
-0.0022471445 0.0330718 0.03322339 0.089076765 -0.22491519 -0.08046424 -0.16632953 -0.19364159
-0.08092382 -0.20207012 -0.03172905 -0.035293 0.017646737 -0.04329512 -0.21087179 0.057272743
-0.20021471 -0.009862018 0.078311615 -0.12458805 -0.12963583 -0.18081759 -0.0050728563 -0.12518643
0.056388352 -0.16098571 -0.0043658996 0.0843971 0.265421 0.2247348 -0.0890766 0.08389894
-0.0075055957 -0.2589921 0.12680632 -0.23623139 -0.2527065 -0.027435036 0.25685427 0.016719528
-0.24368653 0.020643318 -0.07933414 -0.050733075 0.05424985 -0.21080343 0.17366113 -0.11572532
-0.15374969 0.13987286 -0.070611715 -0.17968808 0.14318216 0.11243971 -0.22888224 -0.0053227437
-0.17654236 0.04434607 -0.030103657 0.1276802 0.043321054 0.054552954 -0.20348586 -0.16621067
0.033986017 0.1587458 0.11333782 -0.043433692 -0.15545708 -0.09005139 -0.0049673263 0.0013398571
-0.14258209 0.011704425 -0.19926396 -0.06797889 -0.019927118 -0.019314798 0.037432816 0.06528874
0.22687376 0.0207873 0.050886136 -0.06403793 -0.16019686 -0.13443156 -0.17567006 -0.08336981
-0.080164924 0.13913916 -0.124592006 -0.011296829 -0.2344339 -0.24425127 -0.19851455 0.17567515
0.030153183 -0.13584785 0.15382686 -0.020445647 -0.0027926276 -0.10402755 0.012324638 0.05445212
-0.13968208 -0.13109301 0.16483879 0.15745817 -0.12700048 -0.15818739 0.17439388 -0.09889365
0.11575912 0.056257494 -0.05976131 0.084720485 0.13112631 0.17980345 0.04210701 -0.07998462
-0.02236556 -0.13040742 0.04489661 -0.01979139 -0.08123599 0.15457724 0.1812121 -0.026453907
-0.069257446 0.08888186 0.030079007 -0.15291494 -0.17083605 0.11870361 -0.18705742 0.036310036
0.12260274 0.19706494 0.14378256 0.017077424 0.063601136 -0.10379339 -0.10107957 0.14774196

prop_layer._message_net.0.bias f4 [20]
00000000: cedd 083e 1604 0dbd ebda 6dbd 6cf0 843d
00000010: 05b1 3abd 2542 ceb9 97c3 02bd 379a 933d
00000020: f76b dabd 2b82 f53d 01e5 38bd c994 e63d
00000030: 7e44 d9bd 6c49 e8bd 9ec7 62bc eeb8 adbb
00000040: 3e21 893d 8407 293e 3811 d5bd 0887 4e3c
0.13365862 -0.034427725 -0.058070105 0.06491169 -0.045578975 -0.00039340663 -0.03192481 0.072071485
-0.10665124 0.11987718 -0.04514027 0.11258847 -0.10608767 -0.11342129 -0.013841538 -0.0053015864
0.066957936 0.16506773 -0.10403675 0.012605436

prop_layer._reverse_message_net.0.weight f4 [20, 21]
00000000: 3cc7 b73d a926 06bd b2a0 1a3e d533 63bd
00000010: 27c3 e8bd fcbb 0cbe cd09 7ebe b95b f43d
00000020: 0477 c9bd f141 383e ba5f 543d 1160 133e
00000030: d38a c4bd 14db 973d 63b6 383e 7334 bf3d
00000040: e96f 243e 5277 d23d 2d1e f73d 6adf 2e3d
00000050: a8e3 783e b8c4 8fbd 3515 c3bd c0cd 3cbd
00000060: 0f41 733d e219 2d3e 46dd 1dbe bc1b a3bd
00000070: a2bb c4bd 0864 0f3c 24d9 a6bd ec66 fabd
00000080: ed66 84be 890a 653c 1303 00be e73b 533d
00000090: f41d 233e 3eda 01bd 5ed0 b8bd 7691 e9bd
000000a0: ddf2 093e 517b 18be b376 973d dcdb a13d
000000b0: f607 02be b9c5 9f3c de83 52be 82bb 86be
000000c0: 1891 4bbe f8c2 0dbd 7a3a 213e 4dd6 1b3e
000000d0: 94f7 8a3c 93b9 58be 9cdc 05be cb64 00be
000000e0: f218 473e a418 19be 83a6 d3bd 7448 163e
000000f0: 6b8b 103e 6a83 5ebd f208 1cbe f310 653e
00000100: 007c 063e ae94 863c c59e 213e 62bf 56bd
00000110: bf90 da3d aaf1 c2bd 5988 e93d 705b 36bd
00000120: 9faf fc3b a010 16bd afc1 e2bd d369 703d
00000130: d056 db3c 5769 e0bd 8671 bb3d 1101 41be
00000140: bf6b 1b3e a4c5 b93c 65b0 2b3d 56f5 f63d
00000150: 4b31 533e 260f c73d 7692 f6bd f097 1b3e
00000160: 780e a2bd a3c7 70bd f8d0 5dbe f616 f23c
00000170: 4836 013e 5ea4 fa3d bf3a e7bd 0ef6 99bc
00000180: 8e26 efbd 42bc 1b3e 0ac3 47bd ae8a 53be
00000190: 9cc7 41be 41d1 e2bd e92e 5c3c 0e29 923d
000001a0: a513 8d3d edc1 28bd f08e 643d 2a46 27be
000001b0: 1579 edbd 5eb7 043e 3b49 573d 40ff e4bd
000001c0: d444 13bb 4c76 073d 4015 083d e16d b63d
000001d0: 2b50 66be 6fca a4bd 4a52 2abe fb49 46be
000001e0: 63bb a5bd 78eb 4ebe 52f6 01bd 658f 10bd
000001f0: e48f 903c 3956 31bd c6ee 57be d396 6a3d
00000200: 1605 4dbe 4d94 21bc d761 a03d 0528 ffbd
00000210: 41bf 04be 3f28 39be 343a a6bb df30 00be
00000220: 79f7 663d 70d9 24be d20f 8fbb 63d8 ac3d
00000230: 43e5 873e e120 663e cb6d b6bd 35d3 ab3d
00000240: 80f1 f5bb 9d9a 84be 84d9 013e a4e6 71be
00000250: bf62 81be 71bf e0bc 6782 833e 64f7 883c
00000260: f688 79be 2d1c a93c f079 a2bd 7ccd 4fbd
00000270: 1735 5e3d dbdc 57be 39d4 313e 6601 edbd
00000280: 8f70 1dbe d53a 0f3e e09c 90bd 2700 38be
00000290: 589e 123e ca46 e63d 1b60 6abe 696a aebb
000002a0: 85c7 34be 3aa4 353d f29b f6bc 99be 023e
000002b0: 6b71 313d eb72 5f3d 995e 50be 2133 2abe
000002c0: ec34 0b3d 428e 223e a91d e83d 87e7 31bd
000002d0: 2430 1fbe dd6c b8bd f4c4 a2bb 259e af3a
000002e0: 0a01 12be ebc3 3f3c da0b 4cbe 8438 8bbd
000002f0: 323e a3bc 113a 9ebc 2753 193d 1ab6 853d
00000300: 9851 683e 214a aa3c fb6d 503d 5126 83bd
00000310: a50a 24be 6da8 09be dae2 33be cabd aabd
00000320: 822d a4bd 7f7a 0e3e 182a ffbd 5616 39bc
00000330: 710f 70be 011d 7abe 6647 4bbe 30e4 333e
00000340: cf03 f73c b31b 0bbe ca84 1d3e a17d a7bc
00000350: 8404 37bb 650c d5bd 47ed 493c 3009 5f3d
00000360: d208 0fbe 3f3d 06be 80cb 283e b73c 213e
00000370: 6a0c 02be e0fb 21be 4f94 323e c188 cabd
00000380: 1e13 ed3d 426e 663d 47c8 74bd ef81 ad3d
00000390: fa45 063e 651e 383e 6678 2c3d face a3bd
000003a0: fb37 b7bc 8689 05be 82e5 373d 8e21 a2bc
000003b0: 0e5f a6bd 7f49 1e3e aa8f 393e ddb5 d8bc
000003c0: d9d6 8dbd b107 b63d 4068 f63c bc95 1cbe
000003d0: a5ef 2ebe e11a f33d fb8b 3fbe d5b9 143d
000003e0: 2517 fb3d 64cb 493e bc3b 133e f4e5 8b3c
000003f0: 5041 823d a191 d4bd ce02 cfbd ab49 173e
0.08973548 -0.032751713 0.15100363 -0.055469353 -0.11365347 -0.13743585 -0.24808426 0.11931557
-0.098371536 0.17993905 0.051849104 0.14392115 -0.09596791 0.07414833 0.18038325 0.09336176
0.16058315 0.10276665 0.120663024 0.042693533 0.24305594 -0.07019943 -0.09525529 -0.046094656
0.059388217 0.16904405 -0.1541644 -0.07964274 -0.096061006 0.008751877 -0.08146885 -0.12226662
-0.25859776 0.013979563 -0.12501173 0.0515708 0.15929395 -0.031702273 -0.09024118 -0.114046976
0.13471551 -0.14890791 0.07395687 0.07903263 -0.1269835 0.019503461 -0.20558116 -0.26314932
-0.19879568 -0.034609765 0.15744963 0.15218468 0.016963758 -0.21164541 -0.13072437 -0.1253845
0.1944311 -0.14950806 -0.10334494 0.14676076 0.14115684 -0.054324545 -0.15237787 0.22369747
0.1313324 0.016428318 0.15783222 -0.05242861 0.106721394 -0.0951875 0.114029594 -0.044520795
0.0077113654 -0.03663695 -0.110720985 0.05869467 0.026774794 -0.10957592 0.09152512 -0.18848063
0.1517782 0.02267725 0.04191627 0.12058513 0.20624273 0.09719686 -0.12039654 0.15194678
-0.07912916 -0.05878414 -0.21661747 0.029551964 0.12618363 0.12238382 -0.11290502 -0.018794086
-0.116772756 0.15208533 -0.048769988 -0.20658371 -0.18923801 -0.11075068 0.013438919 0.07136737
0.068885125 -0.041200567 0.05580038 -0.16335359 -0.1159536 0.12960574 0.052560072 -0.111814976
-0.0022471445 0.0330718 0.03322339 0.089076765 -0.22491519 -0.08046424 -0.16632953 -0.19364159
-0.08092382 -0.20207012 -0.03172905 -0.035293 0.017646737 -0.04329512 -0.21087179 0.057272743
-0.20021471 -0.009862018 0.078311615 -0.12458805 -0.12963583 -0.18081759 -0.0050728563 -0.12518643
0.056388352 -0.16098571 -0.0043658996 0.0843971 0.265421 0.2247348 -0.0890766 0.08389894
-0.0075055957 -0.2589921 0.12680632 -0.23623139 -0.2527065 -0.027435036 0.25685427 0.016719528
-0.24368653 0.020643318 -0.07933414 -0.050733075 0.05424985 -0.21080343 0.17366113 -0.11572532
-0.15374969 0.13987286 -0.070611715 -0.17968808 0.14318216 0.11243971 -0.22888224 -0.0053227437
-0.17654236 0.04434607 -0.030103657 0.1276802 0.043321054 0.054552954 -0.20348586 -0.16621067
0.033986017 0.1587458 0.11333782 -0.043433692 -0.15545708 -0.09005139 -0.0049673263 0.0013398571
-0.14258209 0.011704425 -0.19926396 -0.06797889 -0.019927118 -0.019314798 0.037432816 0.06528874
0.22687376 0.0207873 0.050886136 -0.06403793 -0.16019686 -0.13443156 -0.17567006 -0.08336981
-0.080164924 0.13913916 -0.124592006 -0.011296829 -0.2344339 -0.24425127 -0.19851455 0.17567515
0.030153183 -0.13584785 0.15382686 -0.020445647 -0.0027926276 -0.10402755 0.012324638 0.05445212
-0.13968208 -0.13109301 0.16483879 0.15745817 -0.12700048 -0.15818739 0.17439388 -0.09889365
0.11575912 0.056257494 -0.05976131 0.084720485 0.13112631 0.17980345 0.04210701 -0.07998462
-0.02236556 -0.13040742 0.04489661 -0.01979139 -0.08123599 0.15457724 0.1812121 -0.026453907
-0.069257446 0.08888186 0.030079007 -0.15291494 -0.17083605 0.11870361 -0.18705742 0.036310036
0.12260274 0.19706494 0.14378256 0.017077424 0.063601136 -0.10379339 -0.10107957 0.14774196

prop_layer._reverse_message_net.0.bias f4 [20]
00000000: cedd 083e 1604 0dbd ebda 6dbd 6cf0 843d
00000010: 05b1 3abd 2542 ceb9 97c3 02bd 379a 933d
00000020: f76b dabd 2b82 f53d 01e5 38bd c994 e63d
00000030: 7e44 d9bd 6c49 e8bd 9ec7 62bc eeb8 adbb
00000040: 3e21 893d 8407 293e 3811 d5bd 0887 4e3c
0.13365862 -0.034427725 -0.058070105 0.06491169 -0.045578975 -0.00039340663 -0.03192481 0.072071485
-0.10665124 0.11987718 -0.04514027 0.11258847 -0.10608767 -0.11342129 -0.013841538 -0.0053015864
0.066957936 0.16506773 -0.10403675 0.012605436

prop_layer.GRU.weight_ih_l0 f4 [30, 20]
00000000: 90f7 c63d 6fa4 11bd 2cbe a23d de89 87be
00000010: af04 243d 53e7 a93d 96b6 5bbe e3d0 85bd
00000020: 7288 3d3e 6301 8d3d d7d0 b7bc b29d 54bc
00000030: cf11 03bd 188c 90be dd37 8abc b96f c2bd
00000040: 678e 68bd 85b1 c8bd abad 3c3e da5e e6bd
00000050: 535b c63e ff79 67be 07c1 49be ae10 32be
00000060: 0ce8 bcbd 4946 433c 0b32 0bbe fc4c 1a3e
00000070: 06e7 a83d 840f 3cbd 5e57 48bc a63a 90bd
00000080: 4129 a5bd 4fc5 a63e fa1d a03e f6a8 6c3e
00000090: c5e6 63be 8834 213e 0359 f03d d459 20be
000000a0: 6514 0d3e 2f78 10bd e4b0 d4bd 2c03 623e
000000b0: da6d 33be 7254 5cbe bf0d b13e 8e45 243e
000000c0: 87ef a83e f52d 3abe c9a3 c0bc 5fea 813d
000000d0: d187 49be c2ca 4bbe 556a 8bbe 72c2 32bc
000000e0: 269f 683e 3450 2fbe 6e22 8dbe 5485 b8bc
000000f0: 1a10 cf3d 7a45 223e 6f32 5e3e 20bf 163e
00000100: de2c fb3d 9bbb 13be 6fea 8ebe 22ea 68be
00000110: 4e1f 503e c4a1 e4bd 182b c5bd 259f 26be
00000120: 810f 2cbd 0413 f73d a8a1 ee3c 3e2f a0bd
00000130: 5a17 71be 7f27 4cbd 1bd2 563d 1537 303e
00000140: e13d 4f3e b9ce 873e a4bd 98be 598b e2bd
00000150: e271 0f3e e676 393e a075 8e3e b238 3c3c
00000160: 6afe 6d3e 96c0 24be 0a63 413d 0d0c 6e3e
00000170: 5851 e63d c527 333e 9811 22be 0722 153d
00000180: 65b0 44be 7c59 73ba 2e93 113e 0e80 3ebe
00000190: e44e 48be aa05 823e d214 e0bc 74a2 f5bc
000001a0: 1c38 203d 0f44 d33d f49b 723e bc51 8bbe
000001b0: 9d12 99be dfc1 14be 66cf d63d a948 d7bd
000001c0: befc 653e 9499 31bd ecfa 903e 574a 5d3e
000001d0: 61fe 5a3c fab2 da3d e6d1 cc3c 9baa 9f3e
000001e0: e96b cc3c ff70 7bbe 9b90 9c3d 9b21 69bd
000001f0: d104 e53c c72b 583e 6b56 00bc 0624 e5bc
00000200: 8408 a8bc 5d60 56be 8e10 2e3e ad53 6e3d
00000210: 6568 d0bc 8fa6 7dbe 8a7b 5c3e e7ea 213e
00000220: a37c 083e cf73 4d3e e3b9 9fbd 25bb d33d
00000230: e64c 03be c28c ba3d c182 f7bd 4e66 69be
00000240: e2f9 89bd 22fa edbd cd05 873e 4a70 6f3e
00000250: c825 a7bd f9d8 da3b 10e9 5f3d 1ec7 3dbe
00000260: b806 8bbd e89e 7b3d c568 f83c 82bc 03be
00000270: 41d1 25be b50e d53d d881 38be 3842 5ebe
00000280: ffc6 3a3e 292d 06be d20b 2bbe d99f dbbc
00000290: fc47 42bd 5923 26bd de30 b83d 806b 21be
000002a0: a565 cabd efd3 1d3e baba 323e 0770 99bd
000002b0: e4dd d7bd 0132 d9bd 0318 7d3e db83 8ebd
000002c0: 3891 0bbe 5f2b 9c3d f7c6 1dbd 64ae 213e
000002d0: 499d 31be 136c 813d 704e 813e 6e8c 973d
000002e0: 9302 6b3d fc4d 9abc f7fd c8bd 54b1 c0bd
000002f0: 1f07 b33e ab13 8bbd 0f87 c8bd 3583 3dbc
00000300: e0c4 df3c 62a7 9abd 2d03 d43c 98a0 5cbd
00000310: ebf8 4bbe 82fe 7ebd f72d 07be 157f 85be
00000320: f36a 533e b8e1 ba3e bfd6 8a3e 7eb6 d1bd
00000330: 7823 95be 46f7 d83d 29eb 863e 1f93 5abe
00000340: 756e 82be 6c8e 633e c4e5 36be 488f 4fbe
00000350: 5447 f03d ef50 9dbd 7ac4 72be 055a 3abe
00000360: 8ef7 c13d 4a63 783e bb90 1f3e 69bc 6a3b
00000370: a3da ecbd 9378 3abd 556f 00be 2bfe d73d
00000380: 77c1 68be 52b6 843e 3696 c83d 37cb 76bd
00000390: 3e05 053e 1284 8ebe 46b5 c1be 077f b63d
000003a0: 72e8 d9bd fe19 2cbe 7858 863e 9541 28be
000003b0: 096b e53d 460e a1be c425 d1bd c3e5 9fbd
000003c0: a555 0cbe 9cfe b6bd 7cb8 233e f990 5d3d
000003d0: aba3 53bd e31c 083e ea68 433e 7113 2f3d
000003e0: f822 5dbe 628c 843e b15b c73d c65d 313e
000003f0: 8328 8bbe ee71 bcbd 63e9 3e3d db7f b33d
0.097151875 -0.035557207 0.07946429 -0.26472372 0.04004353 0.08296075 -0.2145637 -0.065339826
0.18509081 0.0688503 -0.02243845 -0.012977051 -0.031999405 -0.28231883 -0.01687234 -0.09493966
-0.05677643 -0.09799484 0.18425624 -0.1124856 0.3874155 -0.22605132 -0.1970254 -0.17389175
-0.09223947 0.011918613 -0.13593309 0.1506843 0.08247189 -0.045913234 -0.012227861 -0.07042436
-0.08064509 0.3257241 0.3127287 0.23111328 -0.22256 0.15742695 0.11735728 -0.15659267
0.13777311 -0.035270866 -0.10385302 0.22071522 -0.17522374 -0.21516588 0.345808 0.16042158
0.32995245 -0.18181594 -0.023515599 0.06343531 -0.19680716 -0.19901565 -0.27229562 -0.010910617
0.2271696 -0.17120439 -0.2756533 -0.022524513 0.10110493 0.15846816 0.21698926 0.14721346
0.12264417 -0.14427035 -0.27913234 -0.22745565 0.20324442 -0.11163667 -0.0962736 -0.16271646
-0.042006973 0.12064174 0.029129818 -0.07821511 -0.23544064 -0.049842354 0.052446466 0.17208512
0.20238449 0.26524904 -0.29832184 -0.11061735 0.14008287 0.18111762 0.27824116 0.011488127
0.23241583 -0.1608909 0.04721359 0.23246785 0.11245984 0.1749564 -0.15827024 0.036409404
-0.19207914 -0.00092830486 0.14216301 -0.18603536 -0.19561344 0.25394946 -0.027353678 -0.02998469
0.03911601 0.103157155 0.23692304 -0.27210796 -0.29897013 -0.14527081 0.10488777 -0.10511906
0.22459695 -0.043359354 0.28316438 0.2161039 0.013366313 0.10678668 0.025002431 0.3118485
0.0249538 -0.24554823 0.07644769 -0.056916814 0.027956398 0.2111045 -0.007833104 -0.027971279
-0.020511873 -0.20935197 0.16998503 0.05818527 -0.025440404 -0.24770568 0.21531501 0.15812264
0.13328795 0.20063709 -0.07799127 0.10338429 -0.12822303 0.09108879 -0.12085486 -0.22792932
-0.067371145 -0.11619975 0.26371613 0.23382679 -0.08161503 0.006678697 0.054665625 -0.18532988
-0.06788391 0.06143084 0.030323396 -0.12864879 -0.16193105 0.10403196 -0.18018281 -0.21704948
0.18239973 -0.13103165 -0.16703728 -0.02680962 -0.04743193 -0.040561054 0.08993696 -0.15763664
-0.098826684 0.15412878 0.17454043 -0.07492071 -0.10540369 -0.106052406 0.24716191 -0.06958743
-0.13629615 0.0762546 -0.038519826 0.15789181 -0.17345156 0.06319442 0.25255156 0.07399832
0.0573755 -0.018836014 -0.09814065 -0.09408823 0.3496637 -0.06790861 -0.097913854 -0.011566927
0.027315557 -0.07551457 0.02588042 -0.05386409 -0.19919173 -0.062254436 -0.13201128 -0.26073518
0.20646267 0.36500335 0.27116963 -0.10239886 -0.29128623 0.10594039 0.26351288 -0.21345185
-0.25474897 0.22222298 -0.17861086 -0.20269501 0.11732355 -0.076814525 -0.23707762 -0.18198402
0.094710454 0.24256626 0.15582554 0.0035817868 -0.11565139 -0.045525145 -0.1254247 0.105465256
-0.22730051 0.2592035 0.097942755 -0.060252395 0.12990281 -0.27835137 -0.37833613 0.08910947
-0.106400385 -0.1680679 0.2623937 -0.16431268 0.11202056 -0.31456202 -0.10212281 -0.078074954
-0.13704546 -0.08935282 0.15988344 0.054093335 -0.051669758 0.1329227 0.1908299 0.04274315
-0.21595371 0.25888354 0.097342856 0.17320928 -0.27179345 -0.09201418 0.046609294 0.08764621

prop_layer.GRU.weight_hh_l0 f4 [30, 10]
00000000: 81f9 dfbd 6d11 293e 0b00 1dbd c616 713d
00000010: 43bf 3e3e da8b 82be b8d8 58be 25d3 8cbe
00000020: 5da7 853e 73b6 83bd 2e43 993d d750 65be
00000030: a5d3 a9bd 6d40 d5bd b3f1 2bbd 873f 9dbe
00000040: 431b 58bd 2778 5f3e 019e fd3d cda6 423e
00000050: 3fb7 813c 92b7 273e 9307 5c3e 59cd 0dbe
00000060: c7eb dc3c 6f38 f9bc 294d 15be 0adf 99be
00000070: df30 8b3e 3bc9 6cbe c12c ee3b 362b 69bb
00000080: 79ed 533e 40db 373e 565d f23d 34fc 37be
00000090: ccf9 9b3c 4513 fe3d 72a2 0c3e 82cc 2cbe
000000a0: fd87 95bd 2e90 83bc 7531 a83d c33e aa3d
000000b0: 61f4 bb3c df80 e2bd 9f06 043c 9909 023e
000000c0: d800 0a3e 8f8a 583e 9e55 6bbe c768 8bbe
000000d0: 0373 973e f5f2 4cbd 7e82 dfbb f54b 54be
000000e0: e48a 293e ec8e 64bd 52a7 8c3e 0b41 24be
000000f0: 2ae6 343e 856c 133e 5f23 6a3d 2aa1 f5bd
00000100: a2d7 593e 0912 413d 0107 45be 45e7 43be
00000110: afc3 dbbc 4d7b 623e d4b1 a8bc 5d61 873d
00000120: 4efa 6bbd 8c6b aa3d 29cf 02be b067 10bd
00000130: d4e2 343d d6c9 6bbd 2556 4e3e c0c1 32bd
00000140: 8382 07be c8c1 fc3c 6d83 753d 2774 b93d
00000150: 397a 233d 45da 2fbe f46f 863d 5951 3bbc
00000160: 7b90 333d 3ae8 293e bff0 0d3e 08c7 51be
00000170: 4eea 9dbc 7abc 083c 1109 44be 5247 10bd
00000180: 88fe d83a 73a1 7a3d ce54 9dbd 7a53 35bd
00000190: 9045 96be 6cee 1dbd 127e 8f3e 02ff 0cbe
000001a0: 2888 013d 773b ce3d b5a1 a43d b719 8cbd
000001b0: 2ad3 e5bd 56d5 35bd a5ee 4c3e 014e 643d
000001c0: b552 133d 17d8 0bbe 021a 3fbe 1e7e 53be
000001d0: 7856 3dbe 66e7 6fbe ab47 553e 10d6 88be
000001e0: 63e8 4fbd 5d1e 97be 1418 c3bd a7d2 96be
000001f0: c55f 4cbe a4b8 143e c8ba 4a3e 40e5 383e
00000200: 0543 8e3d 07ca 8a3d cd3e 623e fa0d 7c3e
00000210: 06c9 39bd 1f4f 53be 5845 633e 1deb be3d
00000220: bb73 21be 485c a5bd 9333 723e 0c6c 803e
00000230: 4621 753d e656 5f3e ff1a 94be 1219 273e
00000240: 632f 74bd a032 45be f54b dcbd 1eaa 73bb
00000250: 5416 a73d 53c8 d13d bcf6 8dbe 84e1 71be
00000260: 3240 9ebb eae3 5cbe 1552 5dbe 5e62 67bd
00000270: fa3d 873e 5e20 643d ddbb 6a3e ffa3 d9bd
00000280: bf0c 0cbe 694c e8bd 3cce b0bd 16d9 373d
00000290: 46fb ce3d 48b7 f83d 23f8 ae3d 0eb1 d5bd
000002a0: 2a2a 83be 2a85 03be 6c9e 03bd 1d16 47be
000002b0: 262c 183d b1f8 873d 89b5 2e3e ef72 5d3d
000002c0: e04a 893d 9d5a f3bd ab8d b8bd 89f7 5abd
000002d0: e86e 8ebe 3c0c e43c 5c42 883e c836 783e
000002e0: 295d 68be 49f0 9b3e 8391 ae3c 7b2f 103e
000002f0: 9e54 85be c3f3 2e3e 419c 9abe baf9 083d
00000300: cd5c ee3d ce16 fbbd bed3 903e 22a8 cfbd
00000310: 93ec 16be 45f9 5dbd 3829 8ebe 1468 903e
00000320: e2bd 503e 8071 5dbe ed49 5dbe 952f 8bbd
00000330: 23a1 50bd de0b 653e 9fde 84bc 4d4a 1ebe
00000340: 6066 813e 2315 f6bd c3e3 38be 8e5f 163e
00000350: ee99 6c3e 88ee 493e a6d7 40be 80fc ad3e
00000360: 428a 253e 6b12 88bd c675 c3bd 8fb9 41be
00000370: 4b65 203c 6cb2 4abe fa90 6d3e e002 91be
00000380: 0ec8 7bbe 7027 ed3d 9b26 dabd d324 63be
00000390: a7ef 863e d260 cdbd 2011 803e c235 3d3e
000003a0: 5393 42be d8ad 9dbe 57f2 f03d 45e0 37bd
000003b0: a6df 86be d485 6f3d 055c 24be e42b 60be
000003c0: 200c 21be 1257 d2bc 3a47 4b3d e37d ccbd
000003d0: 59dd 483e df78 fbbd 30cd afbd 51c5 4d3e
000003e0: 348d 1fbe 4a35 4b3d e586 c33e f706 0ebe
000003f0: f756 193e 8761 cabd 2b3d eb3d c54a 85be
-0.10936261 0.16510554 -0.03833012 0.05885961 0.18627648 -0.25497323 -0.21176422 -0.2750484
0.2610425 -0.06431284 0.07483517 -0.22394119 -0.08292321 -0.10412679 -0.04197855 -0.3071253
-0.052760374 0.21823178 0.123836525 0.19008942 0.015834449 0.1637862 0.21487264 -0.13847865
0.026967896 -0.030422417 -0.14580216 -0.30052978 0.27185723 -0.23123638 0.0072685187 -0.0035578734
0.20696057 0.17954731 0.11834209 -0.17967302 0.01904001 0.12406019 0.13733843 -0.16874889
-0.07301328 -0.016059961 0.08212558 0.08312752 0.022943677 -0.110597365 0.008058219 0.12698974
0.13476884 0.21146606 -0.22981879 -0.27228376 0.29579934 -0.05003639 -0.006820976 -0.207321
0.16556889 -0.055800363 0.27471405 -0.16040437 0.17665926 0.14396866 0.05716264 -0.1199363
0.21273664 0.04713634 -0.19240953 -0.19131191 -0.026826708 0.22117348 -0.020592608 0.066103674
-0.057611756 0.08321294 -0.12774338 -0.035255134 0.044161633 -0.057565533 0.20150049 -0.043641806
-0.1323338 0.03085412 0.05993979 0.090553574 0.039911482 -0.17173107 0.06564322 -0.011432969
0.04383896 0.16592494 0.13861369 -0.2048608 -0.019276764 0.008345718 -0.19144084 -0.035224266
0.0016555348 0.061189126 -0.07682191 -0.044269063 -0.29349947 -0.038557455 0.28025872 -0.13769153
0.03162399 0.10069936 0.08038656 -0.06840842 -0.11221917 -0.044392906 0.2001291 0.055738453
0.035967547 -0.1365665 -0.18662265 -0.20653579 -0.18490016 -0.23428115 0.2082812 -0.26725817
-0.05075873 -0.29515353 -0.09526077 -0.2945759 -0.19958408 0.1452356 0.19797814 0.18056202
0.06946377 0.06776815 0.22094269 0.24614707 -0.045357727 -0.20635651 0.22194421 0.09322188
-0.15766804 -0.08074242 0.23652487 0.25082433 0.059846185 0.21810493 -0.28926846 0.16318157
-0.059615504 -0.19257593 -0.10756675 -0.0037180255 0.081585556 0.10243287 -0.27727306 -0.23621184
-0.00482943 -0.21571317 -0.21613343 -0.056490295 0.26414472 0.05569493 0.22923227 -0.10626983
-0.13676737 -0.11342699 -0.08633086 0.044884764 0.1010652 0.12144333 0.08543422 -0.10434161
-0.25618106 -0.12843767 -0.032133505 -0.1944203 0.03715148 0.06639231 0.17061438 0.054064687
0.067037344 -0.118825175 -0.09011396 -0.053458724 -0.2781899 0.027837865 0.26613128 0.24239647
-0.22691788 0.3045676 0.02130962 0.14080612 -0.2604112 0.17085175 -0.30197337 0.033441283
0.11638794 -0.12260209 0.28286546 -0.10139491 -0.14738683 -0.0541928 -0.27765822 0.28204405
0.20384935 -0.21625328 -0.21610232 -0.06796185 -0.050934922 0.22367808 -0.016219435 -0.15458031
0.25273418 -0.1201575 -0.18055634 0.14684889 0.23105595 0.19719899 -0.18832263 0.33981705
0.16166022 -0.06644138 -0.09543948 -0.18918441 0.009789775 -0.19794625 0.23199835 -0.28322506
-0.24588034 0.11579788 -0.10651895 -0.22182016 0.26354715 -0.10028233 0.25013065 0.18477538
-0.19001512 -0.30796695 0.11764973 -0.044891614 -0.26342505 0.058477238 -0.16050728 -0.21891743
-0.15727282 -0.025676284 0.049628474 -0.099849485 0.19615687 -0.12278914 -0.08584058 0.20094801
-0.15581208 0.049611367 0.38188854 -0.13869844 0.1497458 -0.09881883 0.11486276 -0.26033607

prop_layer.GRU.bias_ih_l0 f4 [30]
00000000: d2f8 9cbe 3b1d aa3e bb5f 46be 0a72 e1bd
00000010: 43d0 253e 106b 31be 0a82 563e 6885 01be
00000020: 7149 26be 5891 003e c8d6 943d 6523 3bbe
00000030: 139a cf3c 277a 58bd e08d 143e 5655 743e
00000040: 9081 ddbc aa8d 97bc efa7 183e 06f5 7d3d
00000050: 0b0b 5abe ecda 0abc 361c 253e 7f1e 313e
00000060: 64e1 49be 0472 00bd 54e6 b63d ab85 703e
00000070: f0e4 47be 6d9f 203e
-0.30658585 0.33225426 -0.19372456 -0.11008079 0.16192727 -0.17325997 0.20948043 -0.12648547
-0.16238953 0.12555444 0.07267529 -0.1827522 0.025342023 -0.05285087 0.14507246 0.23860678
-0.02703932 -0.018500168 0.14907812 0.06200125 -0.21293275 -0.008475047 0.16124043 0.1729679
-0.19714886 -0.031358734 0.0893065 0.2348849 -0.19520926 0.15685816

prop_layer.GRU.bias_hh_l0 f4 [30]
00000000: 85fe 1d3e 2aa3 b8bb f8a1 debd e865 e73d
00000010: 80ea 74be ed72 773d 252f 3d3e 8812 c03d
00000020: 82bd 1d3e 2725 123e 4232 893e db33 bfbd
00000030: 4feb 84be 75bb 633e 5526 323d a2e0 0fbe
00000040: 192d 6fbc 4839 063e 0a4f 03b9 94ca 0abd
00000050: 1dbe 8fbd 9ec0 7fbc 21fc 593e 446e eb3d
00000060: e7e4 053e b2a9 4dbe 78fd 833d d60f 413d
00000070: d8a8 4dbe 6e5c 78bd
0.15429123 -0.005634685 -0.10870737 0.11298734 -0.2391758 0.060412336 0.18475015 0.093785346
0.15404323 0.14271985 0.26796156 -0.093360625 -0.25960776 0.22239478 0.043493588 -0.14050534
-0.014598154 0.13107789 -0.00012522578 -0.0338846 -0.07018683 -0.015609888 0.21287586 0.11495641
0.130756 -0.20084265 0.0644483 0.047134243 -0.2008394 -0.060635023

sinkhorn_feature_layers.0.weight f4 [16, 20]
00000000: fb84 e93c 2670 cd3d e0d2 003e 91c1 33b8
00000010: 7258 893d 0688 013d 4909 f33c 2549 2e3e
00000020: ffdb 0cbe 7b41 613e 7c0e fcbc eb01 023e
00000030: 24c4 29be c6ff 2d3d 459b 70be c820 13be
00000040: 4c60 6ebe 6668 63be a1c9 febd a679 18be
00000050: d55b c33d e6cb 01bc 64ba 923e 5c2e 953d
00000060: e510 1ebe 9d3b 963e 75da 9e3e d49f 803e
00000070: 70a0 133e 4582 5a3e c3db 8e3d e8e9 313e
00000080: c37c 933e 47bd a5be a595 053d 4999 1c3e
00000090: 7dab 9abe fa51 033e f0dc 293e 7185 863e
000000a0: 3c5f 3dbb 4301 ae2f 0fff 57ad b506 49b9
000000b0: 018c e6b9 cd98 aab6 3b52 96b9 ae41 37bb
000000c0: 344b 52b2 afc3 a8b3 8aad abaf 8624 ceb9
000000d0: 030e f7b6 7041 72b4 6d5d bfb8 d794 d8af
000000e0: 1e13 1eb6 1db2 06b7 af25 b5b7 01ca a7b6
000000f0: 5ce3 dc3d f850 88be 77b4 fc3d 5971 b3bd
00000100: 3478 1bbe d125 8f3d ed8a 99be 0b65 213e
00000110: c58d 1bbe 6f0b 8ebd 68e1 8f3d fd8e b5bd
00000120: 95bf c9bc a9aa 473e 359d 003e f5e2 aebd
00000130: b602 2e3e 7970 39bc 4548 39bd 4806 f73d
00000140: 25f2 8d3e 817d 0abe 72bc 14be ac28 353e
00000150: 3a93 c53b 83ce 15be 62b8 2cbe 041e f23c
00000160: baff 53be f10e 6fbe cb4a 11bd 382e 75bd
00000170: 999b 95bd cc8a 60bc ab15 803d 8b01 eebc
00000180: 5faf f6ba 01f0 1c3e 7a8f fb3b 883d 36be
00000190: 7a94 b63d d6fc 06be e9a2 ac3d a3fd 423e
000001a0: fb9c 04bb 69eb ee3d 8f63 bfbd c0d2 6d3e
000001b0: 527f 3f3e 3656 8fbd 5051 0e3e 6509 0bbc
000001c0: f3e6 d9bd 3edc 52bc c863 4a3e 9243 5c3e
000001d0: d264 823c 519a 923d 48a1 823d 9203 ee3d
000001e0: 6fc1 a4bd ddac b5be 67ff aabe 4862 fa3d
000001f0: 4ebd 503e 222d 88be f245 57be 337e 0cbe
00000200: a9c0 aabe 17dd 39be a0e4 733e 9c0e 053e
00000210: 1633 c5bd 4706 843e 44e1 613c 3f40 c6bc
00000220: e101 f33d 4558 e73d 6648 bd3d e383 853d
00000230: 637a c23d 473d 753e 2504 08be 7772 113e
00000240: 1932 f43d 69c6 33be a501 5bbe 839e 23be
00000250: 74eb f13d 32f1 e0bd cdf4 e03d 68d9 c83c
00000260: 3ab0 74be 3430 743d 4f67 8e3d 64da 0dbe
00000270: 1a5c 1d3d fc99 283e 0856 ccbc c2ad 57bd
00000280: 6727 ad3b 3149 3e3c f4ee 813a 6764 94bb
00000290: 3a4f 213d 0961 79bc c608 273d 8b1b 94bd
000002a0: 70ec 873b 11fc 7c3b 1e13 3732 ed21 da3c
000002b0: ae7d 113c 1fd8 e8bb 4153 61bc b705 7939
000002c0: 3e0a ffbc 31af 08b5 55b0 d1ba 03cd 2c3c
000002d0: 3c80 0fbd 5bb9 8a3e d1ec 09be 7b8d 26be
000002e0: 670a 423e 3cfc cebd 81c1 4e3e dcba 913e
000002f0: a51f 8c3e 6310 283e d3d6 36be a508 8f3e
00000300: 66db 8c3d cfbb 85be c28c cdbd 1bfd d63d
00000310: 8b33 2dbe 4f2a 0fbe beb4 32be a4ba 5fbc
00000320: 2a22 422c b6f6 ca32 0706 182a e5d3 ca2b
00000330: 493a f3ab 8ffb 8229 82be 772b 3b0b 9bb2
00000340: a409 8d2a 3e1c 54ab b224 b1ad f199 97ab
00000350: f50e 462d c5f2 7d2a 65b1 e5af 7105 59aa
00000360: 2024 14ab 181d 802a c910 cdaa e19d efa9
00000370: 3f8f 043e d475 ad3d 1e67 023e 4a39 233e
00000380: 5f15 1f3e 6b19 3bbe bfd3 d4bd 009b 8cbd
00000390: d37a 49bd 55b7 723d 80fb 043d a335 0d3e
000003a0: c5f3 523d 6bc7 87bd 1f4f 963d e298 e83d
000003b0: 33c6 1f3d 1cbd 34bd 3ed0 2dbe 46e8 253e
000003c0: 4739 f9bb 6dba 5e38 bd28 c538 2f49 41bb
000003d0: f8ee b2bb 0a7a 3ab5 9162 03bb 5682 0dbc
000003e0: 00b7 5139 e88c 55ba 06ce 36b6 de0a c4bb
000003f0: 663e 09bb 8b9f 80ba d461 66bb 8d35 abba
0.028505793 0.10031156 0.12580442 -4.28572e-05 0.06706323 0.031623863 0.029667513 0.1702009
-0.13755797 0.21997635 -0.030768625 0.12696044 -0.16578728 0.042480253 -0.2349673 -0.14367974
-0.23278922 -0.22207794 -0.124408014 -0.14890155 0.09539 -0.007922148 0.2865783 0.07284233
-0.15436132 0.29342356 0.31026044 0.2512194 0.14416671 0.21338756 0.0697551 0.17374384
0.28806123 -0.3237097 0.032613415 0.15292849 -0.3020896 0.1282424 0.16588187 0.26273683
-0.0028895875 3.1651312e-10 -1.22779694e-11 -0.00019171352 -0.0004397333 -5.084183e-06 -0.00028671496 -0.0027962732
-1.2240708e-08 -7.858704e-08 -3.1228026e-10 -0.00039318594 -7.362805e-06 -2.2561812e-07 -9.1249916e-05 -3.9395928e-10
-2.3554962e-06 -8.028493e-06 -2.159443e-05 -5.000504e-06 0.10785553 -0.26624274 0.123391084 -0.08761854
-0.15182573 0.06989635 -0.29988804 0.15761201 -0.151908 -0.069357745 0.07025415 -0.088651635
-0.024627486 0.19498695 0.1255997 -0.08539382 0.16993222 -0.0113183195 -0.045234937 0.12061745
0.27723804 -0.13524438 -0.14525011 0.17691296 0.0060295137 -0.14629559 -0.16867211 0.029555328
-0.2070302 -0.23345543 -0.03547172 -0.05985853 -0.073050685 -0.013704967 0.06254133 -0.02905347
-0.0018820575 0.15325929 0.007677016 -0.1779691 0.089150384 -0.13182387 0.0842951 0.19042067
-0.002023517 0.11665995 -0.09345161 0.23224926 0.18700913 -0.06998865 0.13898206 -0.008486127
-0.10639753 -0.012869893 0.19764626 0.21510151 0.015917215 0.0715834 0.06378418 0.11621775
-0.08044707 -0.35483447 -0.33397982 0.12225777 0.20384714 -0.26596934 -0.21022776 -0.13720016
-0.33350113 -0.18150745 0.23817682 0.12993854 -0.096288845 0.2578604 0.013786618 -0.024200557
0.11865593 0.11296133 0.092423245 0.06519296 0.09496 0.23949157 -0.13282831 0.14203821
0.11923618 -0.17556156 -0.21387346 -0.15978436 0.11812487 -0.10983504 0.10984192 0.02451773
-0.2389535 0.059616283 0.06953298 -0.1385284 0.038417913 0.1646499 -0.024943367 -0.052655943
0.005284238 0.01161413 0.0009913133 -0.0045285705 0.039382197 -0.015220889 0.04077985 -0.07231816
0.0041480586 0.0038602392 1.0656349e-08 0.026627505 0.008880062 -0.0071058418 -0.013752759 0.0002374862
-0.031132814 -5.0918885e-07 -0.0015997986 0.0105469255 -0.035034403 0.2709454 -0.13469245 -0.16264908
0.1894928 -0.10106704 0.20191003 0.28462875 0.27367893 0.16412501 -0.17855386 0.27936283
0.068777844 -0.2611985 -0.10036613 0.10497495 -0.16914193 -0.13980983 -0.1745176 -0.013655338
2.7588023e-12 2.3628086e-08 1.3502403e-13 1.4411776e-12 -1.7282366e-12 5.816798e-14 8.801641e-13 -1.8049482e-08
2.505332e-13 -7.5356724e-13 -2.0138866e-11 -1.0771923e-12 1.1258318e-11 2.2555142e-13 -4.1780904e-10 -1.927536e-13
-5.2630296e-13 2.2757555e-13 -3.6426962e-13 -1.064112e-13 0.12945269 0.084697396 0.12734649 0.15939823
0.15535496 -0.18271415 -0.1039195 -0.068655014 -0.0491894 0.05925687 0.03246641 0.13789992
0.051502008 -0.06629833 0.0733931 0.11357285 0.039007377 -0.04412566 -0.1697397 0.16201887
-0.007605705 5.3102547e-05 9.40128e-05 -0.0029493084 -0.005460616 -6.946799e-07 -0.0020047764 -0.008637032
0.00019999966 -0.0008146302 -2.7240035e-06 -0.005982741 -0.0020941733 -0.0009813173 -0.0035153525 -0.0013062224

sinkhorn_feature_layers.0.bias f4 [16]
00000000: 933f 093e 0c54 32be 6258 97bb 6ebc 203e
00000010: 1038 723c e0b9 1dbe bf34 0b3c 81c1 0abe
00000020: cda8 b7bd 2900 9bbd dbf4 692c 59e5 883d
00000030: be9e 2fbc e452 66bd c6b8 5e3e e548 2cbe
0.13403158 -0.17414874 -0.0046186903 0.1569688 0.014783874 -0.15402937 0.008496462 -0.13550378
-0.08967743 -0.0756839 3.3247214e-12 0.066843696 -0.010718999 -0.056231394 0.21750173 -0.16824682

sinkhorn_feature_layers.2.weight f4 [16, 16]
00000000: 73b9 153e 0176 943e cd11 ec39 f509 92be
00000010: be37 53bd 1e92 053e 522f 79be 6046 2a3e
00000020: 30e5 2abc 134f d83d 87ea f82a a344 2d3e
00000030: 1454 e6ba ba57 bcbc 0c30 853e 4b80 b7bd
00000040: 1704 73be f013 8a3d d4cf 2739 18e9 e33d
00000050: 172a dfbd 3dbd 52be 9996 05be 915c 093e
00000060: 42c0 79b5 0389 abbc 6559 47aa e0e4 53bd
00000070: 1726 51b8 0921 46bd 9265 8f3d 3ae8 513d
00000080: e02c 723d 3765 fdbd 86c8 c03a 8902 fbbc
00000090: 28d2 7b3e 1ddb 1f3e f149 f13d 2584 afbc
000000a0: 10f9 0cbb 0358 ce3d 1115 a829 57bd 733d
000000b0: c7c0 dd39 35aa 68bd 35a1 27be b87f 42be
000000c0: 2010 3fbe 865b ea3b f015 0cb3 ff95 e73d
000000d0: bf99 583e cdc1 163d 17b6 593e 0e81 9bbd
000000e0: 8983 60b7 2a17 163e c34c 0530 c4fa 443d
000000f0: 1635 7438 5094 a7bc bed2 ecbd e790 85be
00000100: 2b1d b83d 7dfe 9bbe 03e0 682f 3779 d3bd
00000110: fd67 463d 26a3 2bbd bf5a 763e 4b3b 033e
00000120: a799 db33 7c88 9bbe ab34 bba5 f269 78be
00000130: 529a d539 03a0 25be 0f17 873c 628a b13c
00000140: 8aab 2fbd 7341 8e3e 5ef6 3034 fe77 e5bc
00000150: 3827 9cbe 0b79 2a3e cc4a 41bd 463c 05bd
00000160: d824 eab9 53ac 793e 9b50 d928 fbef 22be
00000170: 709d 34ba 047f ca3d a736 24bd bcff c13c
00000180: 1f75 2b3e 4a9d 24be 2c60 a8b6 d0f8 973e
00000190: f26e 9a3e e0be 243e a02f 0e3e 0570 91bd
000001a0: c0ba a2b3 4639 98bd 6c39 102d d65d bf3d
000001b0: e43e f939 f7ba 343d c648 06be 9876 4cbe
000001c0: 9106 e13d ed9f 1abe 0e4b 89b6 f812 a8bc
000001d0: 77b3 883e 92e4 3d3e 91f4 bb3e 826e bebd
000001e0: c957 121e 7b1a 6fbd 9259 d629 9b2c 8e3d
000001f0: 7605 5e3a 2402 42be 2d6a 40be 3a8b 7abe
00000200: 18cb 293e 5c8d 6a3e a6cf 883b fd3a f83d
00000210: f636 cebd ec65 683c 4be6 30be 9be3 7d3d
00000220: 6046 9a3c 6ff7 bfbc fc8d 5d2a 7dbf 513e
00000230: 716b 61ba 1233 6e3d a959 ff3c 99ce 83be
00000240: 51b8 6f3d 82f5 413c d75a 9d2f fa30 3ebe
00000250: 3ee6 c83c 199e 57be 9f89 49be e4a4 0fbe
00000260: d7d8 533a 218a 483e d3d5 6ca8 16be 3ebe
00000270: 945a 3fb9 34bd 093e 6195 f3bd 5f2a 943e
00000280: 03dd 02be dfc4 61be e1f6 10bb 8478 463d
00000290: 6de8 4b3e decc 28bd 59b3 4f3e ac7f bbbc
000002a0: 3d21 663c 996d 56be 66dc 6aa9 75b9 61be
000002b0: afb8 573b df40 68be 59f8 9cbe 7fff f93b
000002c0: dd81 1dbd 9dc3 41be f0ce 8836 2e70 073e
000002d0: fca9 5d3e ddd7 30be 6881 b43e 1695 88bc
000002e0: 1a22 473a 25fd b3be d747 4830 f27d b73c
000002f0: a55e b23a 6ed9 5ebe 4e25 123c e3ae 333c
00000300: a25f 873e 5862 753e 8ab8 59b7 4030 8dbe
00000310: 724f eebd 037a 213c 0d77 00bd 91cb 013e
00000320: 9784 203b fdec 533e 8f9b 4829 bfc1 20be
00000330: 3a21 d8ba e5c0 783d 238f 693e e390 6a3e
00000340: dfd1 683d c16a 523e 4638 d6b8 5b1b 38be
00000350: 6fc9 59be 5c5f 21be 8f8f fb3d d1c3 8b3d
00000360: c67f 29b9 3c23 6a3e ca49 3629 20b4 70bc
00000370: 62ad a0b9 bd61 dc3d 704d 563d 9c23 213e
00000380: f5bd ea3d d69f 223e 1b10 15bb d0c2 57be
00000390: 2b44 a0bc 2a9a 0b3e e68a a83d 44ae 49be
000003a0: 5112 9fbb 2dda a5bd 6638 aaac ead4 0ebe
000003b0: 6fd4 7f3a ce5e 23bd 109c 32be 598c f9bd
000003c0: 8ee1 ee3d 0f30 68be bb52 1eb6 999a d13d
000003d0: 88ac 2cbe 4fbe 73be 411e 443d ed5e cb3d
000003e0: 36b5 aeb6 1190 003a 429c 8527 43c3 11bd
000003f0: 07f3 3a38 51ec 65bd 41bd b0bc 078f 9bbe
0.14621525 0.2899628 0.0004502669 -0.28523222 -0.05156683 0.1304402 -0.24334458 0.16628408
-0.010430619 0.10561957 4.4216386e-13 0.16920714 -0.0017572665 -0.02299105 0.2601322 -0.08960017
-0.23732029 0.06742084 0.00016003783 0.111284435 -0.108967 -0.20580001 -0.1304573 0.13414218
-9.30395e-07 -0.020939356 -1.7705766e-13 -0.051731944 -4.9864957e-05 -0.04837135 0.07001795 0.05124686
0.059124827 -0.12372821 0.0014708198 -0.030640857 0.24591887 0.15610929 0.11781681 -0.021425316
-0.0021510758 0.10075381 7.464353e-14 0.05950674 0.00042296035 -0.056802947 -0.1637009 -0.18994033
-0.18658495 0.0071520237 -3.2616242e-08 0.11307906 0.211524 0.036805917 0.21260868 -0.075929746
-1.3382066e-05 0.14657274 4.8494203e-10 0.04809071 5.8223573e-05 -0.020456463 -0.115636334 -0.26087114
0.08989938 -0.30467597 2.1179862e-10 -0.10325854 0.048439015 -0.041903637 0.24058054 0.12815587
1.02259314e-07 -0.30377567 -3.2475018e-16 -0.24259165 0.00040741503 -0.16174321 0.016490487 0.021672431
-0.0428882 0.2778431 1.6480905e-07 -0.028011318 -0.30498672 0.16647737 -0.047190472 -0.032528184
-0.0004465941 0.24382143 2.4126797e-14 -0.15911858 -0.0006889915 0.098875076 -0.040091183 0.023681514
0.16743897 -0.16075626 -5.017986e-06 0.29682016 0.3016277 0.16088438 0.13885355 -0.07101444
-7.5776825e-08 -0.07432799 8.1982025e-12 0.0934407 0.00047539838 0.044123616 -0.13113698 -0.19967115
0.109875806 -0.1510007 -4.0916557e-06 -0.020516858 0.2669942 0.18544224 0.36710027 -0.092984214
7.747329e-21 -0.058374863 9.519047e-14 0.069421016 0.00084694417 -0.18946129 -0.18790503 -0.24467173
0.1658138 0.22905487 0.0041751442 0.12120626 -0.10069077 0.014184456 -0.1727535 0.06198464
0.018832386 -0.023433415 1.9678004e-13 0.20483203 -0.0008599079 0.058154173 0.031170683 -0.2574356
0.058525387 0.011838319 2.862268e-10 -0.1857337 0.02452385 -0.21056403 -0.19681405 -0.14027745
0.0008081323 0.19583942 -1.31469974e-14 -0.186272 -0.00018248922 0.13451082 -0.11893726 0.28938577
-0.12779622 -0.22047757 -0.0022119808 0.048454776 0.19912882 -0.041211 0.2028326 -0.022888027
0.014046011 -0.20940246 -5.2149603e-14 -0.22043402 0.0032916476 -0.22680996 -0.30658224 0.0076293345
-0.038453925 -0.18922277 4.0772065e-06 0.13226387 0.21646875 -0.17269845 0.3525498 -0.016672652
0.0007596329 -0.3515407 7.2861667e-10 0.022398923 0.0013608529 -0.2176263 0.008920027 0.010966989
0.2644015 0.23963296 -1.2977174e-05 -0.27575874 -0.11636247 0.00985575 -0.031363536 0.1267531
0.0024493092 0.20695873 4.4543847e-14 -0.15698908 -0.0016489394 0.060730834 0.22808509 0.22906832
0.056840774 0.20548536 -0.00010214797 -0.17979185 -0.21268247 -0.15759033 0.12283241 0.068244584
-0.00016164695 0.22865003 4.047612e-14 -0.014691383 -0.00030646758 0.107608296 0.052319944 0.1573624
0.11462013 0.15881285 -0.0022745195 -0.21070409 -0.019563755 0.13633028 0.08229618 -0.19695383
-0.0048544784 -0.08098254 -4.837952e-12 -0.13948408 0.0009759133 -0.039885335 -0.17442346 -0.12184972
0.11664115 -0.22674583 -2.359199e-06 0.10234565 -0.1686269 -0.23803066 0.047880415 0.09930215
-5.2067e-06 0.000490428 3.708433e-15 -0.035586607 4.4572193e-05 -0.056133572 -0.021574618 -0.3038256

sinkhorn_feature_layers.2.bias f4 [16]
00000000: 496a 1b3d 19ea 583e fd89 0b3e 65dd 12be
00000010: ca66 2a3e 040c 8d3b 01c4 4ebe 3300 04be
00000020: 2dc0 583e e4e8 133e 05c1 d5bd 46e4 5938
00000030: 7ac7 b3bd a7e3 b3bd 2447 52be d930 0d3e
0.03794316 0.21183051 0.13626857 -0.14342268 0.16640773 0.004304411 -0.20191957 -0.12890701
0.21167059 0.1444431 -0.10437206 5.1949428e-05 -0.087782815 -0.087836556 -0.2053495 0.13788165
